Saved_Models_All_Features_Only_Simulation_Samples/target_Hardness_features_22_epochs_60.pth (torch_old, 162565 bytes, 11 tensors)

L1.weight f4 [44, 22]
0	0xbe9efe20	-0.31053257
1	0x3e6f980f	0.2339785
2	0x3ec77dc9	0.38963154
3	0x3e5c7578	0.21529186
4	0x3cd1e341	0.025621058
5	0x3f06de87	0.526833
6	0xbe227214	-0.1586383
7	0x3ebe5c0f	0.3717961
8	0x3e8968ab	0.26837668
9	0xbde4f2a7	-0.11179095
10	0xbd25bedf	-0.040465232
11	0xbd310f99	-0.043227766
12	0xbdc757e2	-0.09733559
13	0x3eb9ab94	0.36263716
14	0x3e1521cb	0.14563672
15	0x3e99433f	0.29934117
16	0x3e807eda	0.2509678
17	0xbea1c410	-0.31594896
18	0x3f095ca8	0.5365701
19	0xbef217c0	-0.47283745
20	0x3df9afb2	0.12191714
21	0x3ceb27e3	0.028705543
22	0xbe36c90f	-0.17850135
23	0x3e54f01a	0.20794716
24	0x3e89bceb	0.26901945
25	0x3f203bd5	0.62591296
26	0xbde1d002	-0.110260025
27	0x3e1e0697	0.15432201
28	0xbe0965e6	-0.13417777
29	0x3dd6c4fb	0.1048679
30	0x3ec87d8a	0.3915828
31	0x3d881744	0.066450626
32	0xbd83c250	-0.064335465
33	0x3e173ebd	0.14770027
34	0x3d8764a3	0.06610992
35	0x3f10149a	0.56281435
36	0xbccec629	-0.025240975
37	0x3ecdba5a	0.40181237
38	0xbde8fe80	-0.11376667
39	0xbe0990e4	-0.13434178
40	0x3eb3f53d	0.3514804
41	0x3ca9730b	0.02068474
42	0x3e5488ba	0.20755282
43	0x3ea7aafd	0.3274764
44	0x3dd63438	0.10459179
45	0x3f08e9f4	0.53481984
46	0xbdee2d34	-0.116297156
47	0xbd855c0d	-0.06511698
48	0x3d9213d0	0.07132685
49	0x3d2ec70c	0.042670295
50	0x3dc47c14	0.095939785
51	0x3f01899f	0.5060062
52	0x3db6c153	0.089235924
53	0xbe713d56	-0.23558554
54	0x3ed39b60	0.4132948
55	0xbeaa294d	-0.33234635
56	0x3df235e0	0.11826682
57	0xbdbd13c3	-0.09232285
58	0xbe9072ad	-0.2821249
59	0x3e563194	0.2091735
60	0x3cf8cedb	0.030372074
61	0xbe8f3804	-0.27972424
62	0xbc9d6f80	-0.019218206
63	0x3e2849b5	0.16434367
64	0x3e86ee42	0.2635365
65	0x3ddcf39b	0.107886516
66	0xbf269683	-0.6507341
67	0x3ee7c18f	0.4526486
68	0x3e24437a	0.16041365
69	0xbd776f95	-0.060409147
70	0x3e912092	0.28345162
71	0x3e08404b	0.13305776
72	0xbc9c6be8	-0.019094422
73	0x3e6072c0	0.21918774
74	0x3ed47416	0.41494817
75	0x3e6f6535	0.23378451
76	0x3e804886	0.2505533
77	0x3eabca22	0.33552653
78	0xbe7358ed	-0.23764391
79	0x3eeb3ed1	0.45946363
80	0x3e370790	0.17873979
81	0x3ebac15e	0.36475652
82	0xbe0bc115	-0.13647874
83	0xbf1427db	-0.57873315
84	0x3e3a6782	0.18203548
85	0xbeca13d9	-0.39468268
86	0xbe02357c	-0.12715715
87	0x3e0a2610	0.13491082
88	0x3e8cf2b5	0.2752892
89	0xbe493473	-0.19648914
90	0x3ddc9f92	0.10772623
91	0x3bd7fad0	0.0065911785
92	0xbb26cecb	-0.0025452848
93	0x3c844916	0.016148131
94	0xbe023d1c	-0.12718624
95	0x3f1639a8	0.58681726
96	0x3e1b8a50	0.15189481
97	0x3e378ab0	0.17923999
98	0x3ebea4c2	0.37235075
99	0xbe59702d	-0.21234198
100	0xbd43c0ee	-0.047791414
101	0xbc9e5323	-0.019326752
102	0xbda7f17b	-0.082003556
103	0x3efede5a	0.49779016
104	0x3da304ea	0.07959922
105	0xbf67b30a	-0.90507567
106	0x3e6bfc50	0.23045468
107	0xbea806df	-0.32817742
108	0x3e09e04a	0.13464466
109	0x3eba8180	0.36426926
110	0xbcf9d60e	-0.030497577
111	0x3f0fa37a	0.5610882
112	0x3efe2635	0.49638525
113	0x3ebddc19	0.37081984
114	0xbe53290d	-0.20621128
115	0x3e9cd452	0.30630738
116	0xbdc3c72c	-0.095594734
117	0x3f006463	0.5015318
118	0x3f3a4bdf	0.7277202
119	0x3eb10342	0.34572798
120	0x3ea6517f	0.32484052
121	0xbdb181a7	-0.08667307
122	0x3bcdb0bd	0.0062771724
123	0x3ea30b71	0.31844667
124	0x3edaf99d	0.42768565
125	0x3e9b735a	0.30361444
126	0x3e956b1f	0.2918329
127	0xbe99c56a	-0.30033427
128	0x3f20118e	0.62526786
129	0xbe42134a	-0.1895267
130	0x3ec3c105	0.382332
131	0x3e564d58	0.20927942
132	0xbb56206f	-0.003267314
133	0x3ec19aea	0.37813503
134	0x3e7c5300	0.24641037
135	0x3e9f2cd0	0.31088877
136	0x3e5fb920	0.21847963
137	0x3eb5b4e9	0.35489586
138	0x3e4773aa	0.19477716
139	0x3ef0a298	0.4699905
140	0x3e88e552	0.26737458
141	0x3e4c2a69	0.19938053
142	0x3e2cd41b	0.16877787
143	0xbb09fe84	-0.0021056244
144	0x3e7bdd15	0.24596055
145	0xbdbee10d	-0.09320269
146	0x3c2bc6e0	0.010484427
147	0x3e99b986	0.30024356
148	0x3eeccfa6	0.46252173
149	0xbe6d5de4	-0.23180348
150	0x3e855017	0.26037666
151	0xbda1cc4a	-0.07900293
152	0x3e4b7e24	0.19872338
153	0x3efbef3f	0.49205968
154	0x3eabd6db	0.3356236
155	0xbe6fb489	-0.23408712
156	0x3d2ce716	0.04221257
157	0x3da17bdf	0.07884955
158	0xbcbf78dc	-0.02337306
159	0xbe77c90c	-0.24197787
160	0x3e445ebe	0.19176766
161	0xbd25249c	-0.040318117
162	0x3e842c9e	0.2581529
163	0xbdcb0f44	-0.09915021
164	0x3c85b895	0.016323367
165	0x3d101f21	0.035185937
166	0x3db0fa61	0.08641506
167	0x3eca399f	0.39497086
168	0x3f8d30e0	1.103054
169	0x3f090d28	0.535357
170	0xbeca6650	-0.39531183
171	0xbd49612c	-0.049164936
172	0xbdc23261	-0.09482265
173	0xbe031ba2	-0.1280351
174	0xbdbd42b3	-0.092412375
175	0xbc311b33	-0.010809707
176	0xbe04efa3	-0.12982039
177	0x3f034e0b	0.5129096
178	0x3e8f3996	0.27973622
179	0xbd93354b	-0.07187899
180	0x3df70c85	0.12062935
181	0x3efe8408	0.49710107
182	0x3cea3ff0	0.02859494
183	0x3ed71b82	0.42013174
184	0x3f0c9cf1	0.54926974
185	0x3e25d558	0.16194665
186	0x3d71480d	0.058906604
187	0x3e11aeb7	0.14226805
188	0xbdb47b3c	-0.088125676
189	0x3f0cf5ad	0.5506237
190	0xbe8711cb	-0.26380762
191	0x3f93affe	1.1538084
192	0x3f363cd8	0.7118659
193	0xbf0218e4	-0.5081923
194	0xbd117487	-0.03551152
195	0x3eec56c1	0.46159938
196	0x3e4ecf58	0.20196283
197	0x3e5fadcf	0.21843646
198	0x3ebc2183	0.36744317
199	0x3f1c0724	0.60948396
200	0x3f021938	0.5081973
201	0xbe5304a0	-0.20607233
202	0x3f02bc6c	0.5106876
203	0x3e7cb20d	0.24677296
204	0xbd339530	-0.04384345
205	0xbcbd20ba	-0.023086894
206	0x3f151f4c	0.5825088
207	0x3eafacee	0.34311622
208	0x3e989140	0.29798317
209	0xbe765764	-0.24056774
210	0x3d1af1be	0.0378282
211	0x3f5481b5	0.8301042
212	0x3d485fb3	0.04891939
213	0x3f6f34e6	0.9344009
214	0xbeeaf248	-0.4588797
215	0xbe199dc1	-0.15001585
216	0x3d4d1c23	0.05007566
217	0xbe690303	-0.22755055
218	0x3e499cfc	0.19688791
219	0x3e214b4c	0.1575138
220	0x3e15d43e	0.14631745
221	0xbe644b76	-0.22294411
222	0xbf2c0837	-0.67200035
223	0x3e9793fc	0.2960509
224	0x3e8ac9f5	0.27107206
225	0xbef724a7	-0.4827015
226	0x3c96eff8	0.018424973
227	0xbdfecb6a	-0.12441142
228	0x3e1f77cd	0.15573044
229	0xbe8c7b80	-0.27437973
230	0x3ed89ef8	0.42308784
231	0xbe79596e	-0.24350521
232	0x3ba6eb60	0.005093977
233	0x3ef560bb	0.47925362
234	0x3f6693c9	0.9006925
235	0xbcc2003f	-0.023681758
236	0xbee3df7b	-0.4450644
237	0x3f2bfab2	0.67179406
238	0x3d5fd1b1	0.054643337
239	0xbeba0728	-0.36333585
240	0xbdde68df	-0.10859846
241	0x3e275f47	0.16344939
242	0x3ef39fd2	0.4758287
243	0x3de690da	0.11258097
244	0x3f2b9c7d	0.6703566
245	0x3e9fcd67	0.31211397
246	0x3eea6aac	0.4578451
247	0x3d49ea7d	0.04929589
248	0x3dfaaac0	0.12239599
249	0x3ed67301	0.41884616
250	0x3ed5961c	0.41716087
251	0x3e903077	0.28161976
252	0x3e90d47f	0.28287122
253	0xbde173a0	-0.11008382
254	0x3eb3efc2	0.35143858
255	0xbda251a1	-0.07925726

L1.bias f4 [44]
0	0xbf8494d4	-1.0357919
1	0xbfcd24d3	-1.6026863
2	0xbf7f26a7	-0.99668354
3	0xbf809e15	-1.0048243
4	0xbf5b0e1b	-0.855684
5	0xc0104c17	-2.2546442
6	0xbfea3d20	-1.8299904
7	0xbf740ec2	-0.9533502
8	0xbfca52e5	-1.5806547
9	0xbfa7ae27	-1.3100022
10	0xbf309349	-0.6897474
11	0xbff89280	-1.9419708
12	0xbf9cdef7	-1.2255543
13	0xbf669820	-0.90075874
14	0xbfb0a5a3	-1.3800548
15	0xbfe2827b	-1.769607
16	0xbfd415af	-1.6569117
17	0xbf8003a0	-1.0001106
18	0xbf6fe634	-0.9371064
19	0xbf5a04b3	-0.8516342
20	0xbfb2c842	-1.3967364
21	0xbf803b01	-1.0018007
22	0xbfda8b62	-1.7073786
23	0xbfd71398	-1.6802855
24	0xbf2efaec	-0.68351626
25	0xbfa71ce1	-1.3055688
26	0xbfa1e324	-1.2647443
27	0xbfbbc285	-1.4668738
28	0xbf9747c6	-1.1818779
29	0xbfd8845c	-1.6915393
30	0xbfd49ded	-1.6610695
31	0x3d5e1e77	0.054228272
32	0xbfc7aa25	-1.5598799
33	0xbf4d1f2a	-0.8012568
34	0xbfd07f86	-1.6288917
35	0xbf0ac9d7	-0.54214233
36	0xbf2ce025	-0.6752952
37	0xbfc7e855	-1.5617777
38	0xbf88dbca	-1.0692074
39	0xbf8a2dca	-1.0795224
40	0xbf914dc5	-1.1351858
41	0xbfb91948	-1.446084
42	0xbf939c91	-1.1532155
43	0xbfb94466	-1.4473999

L2.weight f4 [88, 44]
0	0x3de6c242	0.112675205
1	0x3d61d7a2	0.055137284
2	0x3cb76366	0.022386264
3	0xbedce0f2	-0.4314037
4	0x3e50da2e	0.20395729
5	0x3e621715	0.22079118
6	0x3ea9dfa1	0.33178428
7	0xbe9680d3	-0.2939516
8	0xbcb53739	-0.022121059
9	0xbf1420b4	-0.578624
10	0xbcb89a8d	-0.022534633
11	0x3e07c0a9	0.13257088
12	0x3e3446ce	0.17605135
13	0xbe8aae3f	-0.27086064
14	0xbe36761e	-0.17818496
15	0xbe15e9c1	-0.14639951
16	0xbc6f46a2	-0.0146042425
17	0x3ddbd811	0.10734571
18	0xbea63817	-0.32464668
19	0xbeb1c4b7	-0.34720394
20	0x3e39aca1	0.18132259
21	0xbf589bac	-0.84612536
22	0xbe87fd17	-0.2656028
23	0xbec6f650	-0.38859797
24	0xbee4f049	-0.44714573
25	0xbee6f7d2	-0.45110947
26	0xbf0c6f6e	-0.5485753
27	0x3d307ba1	0.04308665
28	0xbdc478f4	-0.095933825
29	0xbdf4df5a	-0.119566634
30	0x3e3154ba	0.17317477
31	0xbf1f4ec9	-0.6222959
32	0xbed2379b	-0.4105805
33	0xbd7cea2a	-0.061746754
34	0xbe896dcd	-0.26841584
35	0xbe628aff	-0.22123335
36	0xbe216a3e	-0.15763184
37	0xbe9cfa94	-0.30659926
38	0x3e7a6790	0.24453568
39	0xbea5ddf2	-0.32395893
40	0x3e3e0c95	0.18559487
41	0xbe430a56	-0.19046912
42	0xbebcacaa	-0.36850482
43	0x3ea27640	0.31730843
44	0x3e14ee0f	0.14543937
45	0xbf169571	-0.5882178
46	0xbd5b5074	-0.053543523
47	0xbf424dcc	-0.7589996
48	0x3b1fb410	0.00243688
49	0xbe814f8a	-0.25255996
50	0x3ea70d60	0.32627392
51	0xbe9c5c1f	-0.30539033
52	0x3c949928	0.018139437
53	0xbf179229	-0.592074
54	0xbf2247af	-0.6339063
55	0xbf2f27cf	-0.6842012
56	0xbe4432fe	-0.19160077
57	0xbfe96e2f	-1.823675
58	0xbf8123e7	-1.0089082
59	0xbeeaa266	-0.45827025
60	0xbe2ad88d	-0.1668417
61	0x3eb0da06	0.3454134
62	0xbf194081	-0.5986405
63	0xbf163dad	-0.5868786
64	0xbe872305	-0.26393905
65	0x3ef30f38	0.47472548
66	0xbf19f6d9	-0.60142285
67	0xbd667a8f	-0.056269225
68	0x3c7b3024	0.015331302
69	0xbebda638	-0.37040877
70	0xbec0379f	-0.37542436
71	0xbec2c575	-0.38041273
72	0xbf04c667	-0.5186524
73	0x3e67ec0a	0.22648636
74	0x3df01d94	0.117243916
75	0xbf4cecee	-0.80049026
76	0xbe861abb	-0.2619227
77	0xbd69058c	-0.056890056
78	0xbf2fed95	-0.68721896
79	0xbfa503a1	-1.2891732
80	0xbf5da63b	-0.8658177
81	0xbe7c7472	-0.24653795
82	0xbf3a3410	-0.7273569
83	0x3e3a53d6	0.18196043
84	0xbd7ed3fd	-0.062213887
85	0xbe5faa8e	-0.21842405
86	0xbc857df7	-0.016295416
87	0xbe47d59e	-0.19515082
88	0xbe3fb15a	-0.18719998
89	0x3cbac437	0.02279864
90	0xbd088aa0	-0.033335328
91	0xbea3e3db	-0.32009777
92	0xbe922e6e	-0.28551048
93	0xbed59a08	-0.4171908
94	0xbd5dcd1e	-0.054150693
95	0xbe33e510	-0.17567849
96	0x3d62fba8	0.05541578
97	0xbece5c8e	-0.4030499
98	0xbf03fcb1	-0.5155745
99	0xbf0abbff	-0.5419311
100	0xbdc89112	-0.09793295
101	0xbf200482	-0.6250688
102	0xbf541a2a	-0.82852423
103	0xbd96407e	-0.0733652
104	0xbe572b9f	-0.21012734
105	0xbe31c775	-0.17361243
106	0xbedb9fb5	-0.42895284
107	0x3daf24e8	0.08551961
108	0xbe417f5b	-0.18896239
109	0xbe6c95a9	-0.23103966
110	0xbe7c235f	-0.24622868
111	0xbeab0965	-0.33405605
112	0xbecef1f5	-0.40418974
113	0xbf93859b	-1.1525148
114	0xbea337b2	-0.3187843
115	0xbf0e2dce	-0.5553864
116	0xbf324250	-0.69632435
117	0xbe803a1d	-0.25044337
118	0xbeaba489	-0.33523968
119	0xbebcfa1b	-0.36909565
120	0xbe505b2c	-0.2034728
121	0xbf017f4e	-0.50584877
122	0xbec37955	-0.38178506
123	0xbf743687	-0.953957
124	0xbf1f53ce	-0.6223725
125	0xbef9f19b	-0.48817143
126	0xbf2aa165	-0.6665252
127	0xbd80e914	-0.06294456
128	0xbe97608a	-0.2956584
129	0xbef71b71	-0.48263124
130	0xbfac0995	-1.3440424
131	0xbf23204a	-0.63721144
132	0xbd225727	-0.039633896
133	0x3c04bfa1	0.0081023285
134	0xbc38b2d6	-0.011273107
135	0xbf2a1b97	-0.6644835
136	0xbd8ef7ce	-0.06980859
137	0x3e9643b3	0.29348525
138	0x3ec241f3	0.3794094
139	0xbed7eab8	-0.42171264
140	0xbdf0ffd9	-0.11767549
141	0x3d141288	0.036150485
142	0x3d2b3421	0.04179776
143	0x3d8c29c5	0.068439044
144	0x3e8520ca	0.2600158
145	0xbf0d126b	-0.5510623
146	0xbd90e664	-0.070751935
147	0xbe677941	-0.22604848
148	0xbe0b10da	-0.13580647
149	0x3de9050c	0.11377916
150	0xbe2ab6af	-0.16671251
151	0xbde68f10	-0.11257756
152	0x3ee3a288	0.4445994
153	0xbf2a4a64	-0.6651976
154	0xbe493b06	-0.19651422
155	0x3d44dfed	0.048065115
156	0xbf6345b1	-0.88778216
157	0xbe30d5d7	-0.17269073
158	0xbe341461	-0.17585899
159	0xbcbddcf4	-0.023176648
160	0xbd96d2b0	-0.07364404
161	0xbbe7a84e	-0.007069624
162	0xbd817f1f	-0.063230745
163	0xbf472ae4	-0.7779982
164	0xbe848594	-0.25883162
165	0x3ec3e981	0.38264087
166	0xbe3b0626	-0.18264064
167	0x3c8e74eb	0.017389735
168	0xbec77983	-0.38959894
169	0xbb74f7aa	-0.0037379065
170	0x3e1fc37a	0.15601912
171	0x3e6c44c4	0.23073107
172	0xbdb226cf	-0.086988084
173	0xbe493502	-0.19649127
174	0xbf1614e8	-0.5862565
175	0x3dd38564	0.103281766
176	0x3e42e21f	0.19031571
177	0xbd43cf9f	-0.047805425
178	0xbf0a6e95	-0.54074985
179	0x3e4854de	0.19563624
180	0xbdb9edeb	-0.090785824
181	0xbe577da4	-0.21044022
182	0xbe9a4f07	-0.30138418
183	0x3e03f474	0.1288622
184	0x3e83f85d	0.25775424
185	0xbec55797	-0.38543388
186	0xbdbe2baf	-0.09285676
187	0x3e5a3200	0.21308136
188	0x3e85471a	0.2603081
189	0xbed182f8	-0.40920234
190	0xbd18fcfc	-0.03735064
191	0x3cc1260c	0.023577712
192	0x3ce08b33	0.027410125
193	0x3ddcb02d	0.1077579
194	0xbee2f343	-0.4432622
195	0xbe38b83c	-0.1803903
196	0xbb9a2594	-0.0047041867
197	0xbdd36748	-0.10322434
198	0x3e16887b	0.147005
199	0x3e5cc0de	0.21557948
200	0xbe1965c6	-0.1498023
201	0x3dcf8c0e	0.10134135
202	0xbeddede4	-0.4334556
203	0x3e87e817	0.26544258
204	0xbf35ef39	-0.7106815
205	0x3e8ee08d	0.27905694
206	0xbe1f61a5	-0.15564592
207	0xbf0abaab	-0.5419108
208	0x3e00d3a7	0.12580739
209	0x3eed78a4	0.46381104
210	0xbe53ae97	-0.2067207
211	0xbe140a5d	-0.14457078
212	0xbeb7fea2	-0.35936457
213	0xbdec32ce	-0.11533128
214	0x3d13c1fe	0.036073677
215	0x3e46a733	0.19399719
216	0x3e25b9fd	0.1618423
217	0x3ec406aa	0.38286334
218	0x3ecdff1f	0.40233704
219	0xbbb74659	-0.005593103
220	0xbf211949	-0.6292921
221	0xbc44504e	-0.011982037
222	0x3eb5eb63	0.35531148
223	0xbec1585d	-0.37762728
224	0x3cb9074f	0.022586493
225	0xbf3b4731	-0.73155504
226	0x3c827dcf	0.01592913
227	0xbe237e52	-0.15966156
228	0xbf37d3e0	-0.7180767
229	0xbe93f5da	-0.28898507
230	0xbea5e5a1	-0.32401755
231	0xbe3541a2	-0.17700818
232	0x3e10d793	0.14144735
233	0xbf7fe749	-0.9996229
234	0xbe46856a	-0.19386831
235	0x3e98e76f	0.2986407
236	0xbe93f6c6	-0.2889921
237	0xbe179101	-0.14801408
238	0xbe8ce3eb	-0.27517638
239	0x3c3d1cab	0.0115424795
240	0xbe53274b	-0.20620458
241	0xbec43d17	-0.38327858
242	0xbf1813c8	-0.59405184
243	0xbf007334	-0.50175786
244	0xbeff1649	-0.4982169
245	0xbfb08dd0	-1.3793278
246	0xbf72cb0a	-0.94841063
247	0x3de8a949	0.113604136
248	0xbf1cc995	-0.6124509
249	0xbf1e0bde	-0.6173686
250	0xbf1475c2	-0.57992184
251	0x3b812fb5	0.0039424547
252	0xbfaab9e8	-1.3337984
253	0xbf530a8e	-0.8243798
254	0x3f0346ba	0.51279795
255	0xbd9956ba	-0.07487245

L2.bias f4 [88]
0	0xbf58a124	-0.8462088
1	0xbf567d6a	-0.83785117
2	0xbf8190ac	-1.0122275
3	0xbeca4812	-0.3950811
4	0xbf1d65ae	-0.61483276
5	0xbfafcdeb	-1.3734716
6	0xbf7a27d0	-0.97717
7	0xbea76568	-0.32694554
8	0xbe81e942	-0.25373274
9	0xbf2a25e1	-0.6646405
10	0xbf2a7bd4	-0.66595197
11	0xbf05732b	-0.5212886
12	0xbe9a6df8	-0.30162024
13	0xbf1d3a68	-0.61417246
14	0xbf8bdb2c	-1.0926261
15	0xbe88af9b	-0.26696476
16	0xbec768ca	-0.38947135
17	0xbf1abd3a	-0.60444987
18	0xbfa480ca	-1.2851803
19	0xbf2b6e7e	-0.6696547
20	0xbf818976	-1.0120075
21	0xbf2e70bf	-0.68140787
22	0xbe8c220b	-0.27369723
23	0xbf75329e	-0.9578036
24	0xbf6e345b	-0.9304864
25	0xbf05f4ec	-0.52326846
26	0xbe0cdbf3	-0.13755779
27	0xbe1bbc6d	-0.15208597
28	0xbe60d6c5	-0.21956928
29	0xbeab9b05	-0.33516708
30	0xbdc141ed	-0.094364025
31	0xbddc670b	-0.107618414
32	0xbf5ec8c8	-0.8702512
33	0xbf3e57a1	-0.7435246
34	0x3ed63718	0.41838908
35	0xbf486c80	-0.7829056
36	0x3eed82fb	0.46388993
37	0xbf3626b1	-0.7115279
38	0x3f04d66e	0.51889694
39	0xbde8ebcd	-0.113731004
40	0x3e9f5db2	0.3112617
41	0xbf83f47b	-1.0308985
42	0xbf3a89b1	-0.7286635
43	0xbf638e85	-0.8888934
44	0xc006710e	-2.1006503
45	0xbf37a222	-0.7173177
46	0xbe8b5a74	-0.27217448
47	0xbca1fc5d	-0.019773657
48	0xbec25670	-0.37956572
49	0xbfb96c98	-1.4486265
50	0xbf5ae32c	-0.85502887
51	0xbe8afb9b	-0.27145085
52	0xbf4858a4	-0.78260255
53	0xbf727bac	-0.9471996
54	0xbe29ccb7	-0.16581999
55	0xbf3f2db7	-0.7467913
56	0xc00f3b39	-2.2379897
57	0xbfc99ace	-1.5750368
58	0xbf4ac654	-0.79208875
59	0xbe808554	-0.2510172
60	0xbf9e7a76	-1.2381122
61	0xbdd95a85	-0.10612968
62	0xbe03f14c	-0.12885016
63	0xbf1075f7	-0.5643
64	0xbf03a45d	-0.51422673
65	0xbe256652	-0.16152313
66	0xbf554a23	-0.8331625
67	0xbedc1b64	-0.42989647
68	0xbee8b96b	-0.45453963
69	0xbf4807ba	-0.7813679
70	0xbf4700fb	-0.7773587
71	0x3bc0bde5	0.005882012
72	0xbf2f34eb	-0.6844012
73	0x3e206967	0.15665208
74	0x3e86f5c7	0.26359388
75	0xbe998b4e	-0.29989094
76	0xbeba8b43	-0.36434373
77	0xbfc852ec	-1.5650306
78	0xbf747c8c	-0.95502543
79	0xbecb0d21	-0.39658454
80	0xbec50d01	-0.38486484
81	0xbf5d2dfd	-0.863983
82	0xbee606c3	-0.44927034
83	0xbeb682fb	-0.35646805
84	0xbf2bd3fc	-0.6712034
85	0x3d7087a0	0.058723092
86	0xbee9f0d7	-0.4569156
87	0x3dc758cb	0.09733733

L3.weight f4 [176, 88]
0	0x3e309b10	0.17246652
1	0xbd50aa5f	-0.05094373
2	0xbcf435dd	-0.02981084
3	0xbb639c35	-0.0034730558
4	0x3f13f71c	0.57798934
5	0xbefe6e54	-0.4969355
6	0xbe91cd7b	-0.28477082
7	0x3e64ea97	0.22355114
8	0x3e236007	0.159546
9	0xbebbf363	-0.36709127
10	0xbef40e68	-0.4766724
11	0xbe84c3fb	-0.2593077
12	0xbf13ffa0	-0.5781193
13	0xbf3e611a	-0.74366915
14	0x3e6f98c7	0.23398124
15	0xbf0566f4	-0.5211022
16	0x3ddd4831	0.10804785
17	0x3ea84445	0.32864586
18	0xbf29739a	-0.6619202
19	0x3ed9dbec	0.425506
20	0xbeb2e1cd	-0.34937897
21	0x3e6a8a4e	0.22904322
22	0x3f220c64	0.63300157
23	0xbcfc9d15	-0.030836621
24	0x3dd4a7da	0.10383578
25	0xbfc0e7f2	-1.5070784
26	0xbf179fc7	-0.59228176
27	0x3f077160	0.5290737
28	0xbd7f047c	-0.062260136
29	0xbe4ac44b	-0.19801442
30	0xbdd9a28d	-0.10626707
31	0xbf336b96	-0.7008604
32	0xbe34cd1b	-0.17656367
33	0x3e4428de	0.19156215
34	0x3be99dae	0.0071293926
35	0x3e07f1d1	0.1327584
36	0x3effcd65	0.4996139
37	0x3ef96a7a	0.48714048
38	0x3eb8d85e	0.36102575
39	0xbdd0fa07	-0.10203939
40	0xbe913654	-0.28361762
41	0xbe62ec2d	-0.22160406
42	0xbdb0fb5c	-0.08641693
43	0xbeb908b6	-0.36139458
44	0x3f16d0e5	0.589125
45	0x3f838d4d	1.0277497
46	0xbea3b034	-0.3197037
47	0xbf64657b	-0.89217347
48	0x3ecdcb3e	0.40194124
49	0xbf2e59b8	-0.6810565
50	0x3f36ba9b	0.7137849
51	0xbf0efab5	-0.558513
52	0x3dc79d62	0.09746815
53	0xbed0145a	-0.40640527
54	0xbd16ebd7	-0.03684601
55	0x3f4a26c1	0.78965384
56	0x3df01698	0.117230594
57	0x3e88e7ba	0.26739293
58	0xbefefd9e	-0.4980287
59	0x3d9c8bf6	0.07643883
60	0x3e8ae418	0.27127147
61	0xbf60009b	-0.87500924
62	0x3f35f3eb	0.71075314
63	0x3dfd74cd	0.123757936
64	0xbe975cad	-0.29562894
65	0xbe12c8d7	-0.14334427
66	0xbf313f3a	-0.692371
67	0x3e6f907d	0.23394962
68	0xbf1ef9aa	-0.6209971
69	0xbf057509	-0.52131706
70	0xbe4f9d80	-0.20274925
71	0x3e65307b	0.22381775
72	0xbdd08430	-0.10181463
73	0xbf92ff73	-1.1484207
74	0x3e7a14fe	0.2442207
75	0x3e47c3bf	0.19508265
76	0xbea76548	-0.3269446
77	0xbe1a7045	-0.1508189
78	0xbe785b57	-0.24253593
79	0x3da14c32	0.07875861
80	0xbf5e3add	-0.8680857
81	0xbd7339a8	-0.059381157
82	0xbefe8588	-0.4971125
83	0xbf2d2674	-0.676368
84	0xbe7bb76e	-0.24581692
85	0xbf343dc2	-0.70406735
86	0x3ed0fc1d	0.40817347
87	0xbe1e92af	-0.15485643
88	0x3f854aad	1.0413414
89	0x3f0cd215	0.5500806
90	0x3e11a0d7	0.14221512
91	0xbe072b6b	-0.13200156
92	0xbe424c17	-0.18974338
93	0x3e2a87fb	0.16653435
94	0xbe0e2553	-0.13881426
95	0x3eaabe1d	0.3334817
96	0x3f17799a	0.59169924
97	0xbe42315d	-0.18964143
98	0xbe1e9eb1	-0.15490223
99	0x3f982e5d	1.1889149
100	0xbf1a11e5	-0.60183555
101	0x3d8e72e1	0.06955505
102	0xbf0ada70	-0.5423956
103	0xbf1fc731	-0.62413317
104	0xbe789f38	-0.24279487
105	0x3f1afdb1	0.6054335
106	0xbcc236b0	-0.023707718
107	0x3f1c7e39	0.611301
108	0xbf19a835	-0.6002229
109	0xbec09dbb	-0.3762034
110	0xbecd9b79	-0.4015768
111	0xbd906664	-0.070507795
112	0x3f5510c3	0.832287
113	0xbd5e76dc	-0.054312572
114	0xbed408f4	-0.4141308
115	0xbed5f3a2	-0.4178744
116	0xbed10fe1	-0.40832427
117	0xbe93ff60	-0.28905773
118	0xbe45053e	-0.19240281
119	0xbe73a24f	-0.23792385
120	0xbe2fb33d	-0.17158218
121	0xbebd45ec	-0.3696741
122	0xbe977ab3	-0.295858
123	0xbf0877f5	-0.5330804
124	0xbf19efa7	-0.60131305
125	0x3cae2702	0.021258835
126	0xbba68836	-0.0050821556
127	0xbe128c23	-0.1431127
128	0xbe73042b	-0.23732059
129	0xbec4a100	-0.38404083
130	0x3e81f321	0.25380805
131	0xbef87826	-0.48529166
132	0x3d10451c	0.035222158
133	0xbeff45bb	-0.49857888
134	0xbea680d3	-0.3252016
135	0xbea6f40f	-0.32608077
136	0x3edf399d	0.43598643
137	0x3fa2bbec	1.2713599
138	0xbeb31dcb	-0.34983668
139	0x3e31a138	0.17346656
140	0x3f345c35	0.70453197
141	0xbe1d451a	-0.15358391
142	0xbf07541a	-0.52862704
143	0xbe742510	-0.23842263
144	0xbe95bf0f	-0.2924733
145	0x3e02253c	0.12709516
146	0xbdff627e	-0.12469958
147	0xbf158ffd	-0.58422834
148	0x3fda9d1f	1.70792
149	0xbe469bab	-0.1939532
150	0xbdd1e2b2	-0.10248317
151	0xbf62f46d	-0.88654214
152	0x3d0c86e1	0.034308318
153	0xbda718a0	-0.08158994
154	0xbe1b1b15	-0.1514705
155	0xbefe6532	-0.4968658
156	0xbd794008	-0.06085208
157	0xbf8448c3	-1.0334705
158	0xbda40486	-0.08008675
159	0xbf64c040	-0.8935585
160	0x3d62a1a4	0.055329934
161	0xbf0d8a11	-0.552888
162	0x3a111a3e	0.00055352214
163	0xbd05c6f7	-0.03266045
164	0x3ded8a77	0.11598676
165	0xbee13150	-0.43982935
166	0x3e97ccd8	0.2964847
167	0xbe772bc7	-0.24137793
168	0xbe65071c	-0.22365993
169	0xbe87bb98	-0.2651031
170	0xbee2cff5	-0.44299284
171	0xbd2569e2	-0.04038418
172	0xbbefecc9	-0.007321928
173	0xbe06deb2	-0.13170889
174	0xbba3ce93	-0.004998991
175	0xbdb7f3e3	-0.089820646
176	0x3db15714	0.08659187
177	0x3e06dd6d	0.13170405
178	0xbe9bcb40	-0.30428505
179	0xbf10c664	-0.5655272
180	0xbdcbdae4	-0.099538594
181	0x3f4fd018	0.811769
182	0x3c2e722c	0.010647338
183	0xbea85856	-0.32879895
184	0xbde17a42	-0.11009647
185	0xbdf97160	-0.12179828
186	0x3e00f076	0.12591729
187	0x3ee6ddb0	0.4509101
188	0xbdbe1565	-0.092814244
189	0x3df91c7c	0.12163636
190	0x3ed3962d	0.41325513
191	0x3e0aff2a	0.135739
192	0xbe0858ca	-0.1331512
193	0x3f2014fa	0.6253201
194	0xbe09048e	-0.13380644
195	0xbe171f43	-0.14758019
196	0x3f536bdd	0.8258646
197	0xbec53959	-0.38520315
198	0x3ec63743	0.38714036
199	0x3f87e0b3	1.0615448
200	0x3e387785	0.18014343
201	0x3f313a50	0.692296
202	0x3d3b55ed	0.045736242
203	0xbdb7e211	-0.089786656
204	0x3e40e517	0.18837391
205	0x3ebea1cf	0.37232825
206	0xbef842bd	-0.48488417
207	0xbee2dd5a	-0.44309503
208	0xbe1c1f58	-0.15246332
209	0x3f523b4f	0.8212175
210	0xbd9b728d	-0.07590208
211	0x3f8946af	1.0724696
212	0xbf1690a2	-0.5881444
213	0xbe787931	-0.24264981
214	0xbd85bfba	-0.065307096
215	0xbe11421a	-0.14185372
216	0xbda8e26d	-0.08246312
217	0x3f7aff35	0.98045665
218	0x3e9bd5be	0.3043651
219	0xbe71a81e	-0.23599288
220	0x3c3f08a7	0.011659778
221	0xbeddbc9d	-0.43307963
222	0x3e4d2809	0.20034803
223	0xbd87eb4c	-0.06636676
224	0xbc8822ca	-0.016618151
225	0x3f589bc9	0.8461271
226	0xbbee5332	-0.0072731012
227	0xbe3504e2	-0.17677644
228	0x3e8ccd77	0.27500507
229	0x3cd5af6c	0.026084624
230	0x3da6fc2c	0.08153567
231	0xbebc048c	-0.3672222
232	0x3f88d0fd	1.0688778
233	0x3f57e727	0.84337085
234	0xbe1a6f0d	-0.15081425
235	0xbf1c22af	-0.6099042
236	0x3fe3cc58	1.7796736
237	0xbe8678be	-0.26263994
238	0x3ec72a64	0.3889953
239	0x3f820930	1.0159054
240	0x3ea2990d	0.31757393
241	0xbe3ea080	-0.18615913
242	0xbe047e9b	-0.12938921
243	0x3f00b724	0.5027945
244	0x3e24648e	0.16053984
245	0x3ebb24af	0.36551425
246	0x3e98ca3f	0.29841802
247	0xbe8bd938	-0.27314162
248	0xbc8deb01	-0.017323973
249	0xbe715c82	-0.23570445
250	0xbe8a00e5	-0.26953807
251	0xbdf479d6	-0.11937301
252	0xbf7256fd	-0.94663984
253	0xbe72a6f5	-0.23696502
254	0xbe557365	-0.20844801
255	0xbf399293	-0.7248928

L3.bias f4 [176]
0	0xba8a7077	-0.0010562082
1	0xbf277538	-0.65413237
2	0xbf89cc9e	-1.0765569
3	0xbfe99efb	-1.8251642
4	0xbf2108a3	-0.62903804
5	0xbf9a5ab9	-1.2058936
6	0xbf1bea88	-0.6090474
7	0xbfaad9e4	-1.3347745
8	0xbfca1c4a	-1.5789883
9	0xbf1cfa3e	-0.6131934
10	0xbe1a78ff	-0.15085219
11	0xbfcbad58	-1.5912275
12	0xbf64a528	-0.8931451
13	0xbe4fcc52	-0.20292786
14	0xbf455ec7	-0.77097744
15	0xbe79597f	-0.24350546
16	0xbf46caf9	-0.7765346
17	0xbf63a7a6	-0.88927686
18	0xbeda55b9	-0.42643526
19	0xbeb9f1cd	-0.36317292
20	0xbf29f5f3	-0.66390914
21	0x3e1e914d	0.15485115
22	0xbfcd1e68	-1.6024904
23	0xbf125437	-0.5715975
24	0xbf921f4e	-1.1415803
25	0xbfb1df69	-1.3896304
26	0xbf3117bd	-0.69176847
27	0xbfabd0e9	-1.3423129
28	0xbfb89be4	-1.4422574
29	0xbf53662b	-0.8257777
30	0xbf35882f	-0.70910925
31	0xbf5a76ae	-0.8533734
32	0xbf9f8340	-1.2461929
33	0xbe871c1a	-0.26388627
34	0xbedec22d	-0.4350752
35	0xbf964702	-1.174042
36	0xbb2abd6d	-0.0026052848
37	0xbda1d7a9	-0.07902462
38	0xbfa60c9f	-1.2972602
39	0xbf525e57	-0.821752
40	0xbf11731e	-0.5681628
41	0x3ea4732f	0.32119128
42	0xbfc01acf	-1.5008181
43	0xbfc2f236	-1.5230167
44	0xbfbf9c6d	-1.4969612
45	0xbf04215c	-0.516134
46	0xbd9e22ae	-0.077214584
47	0xbfb4e347	-1.413186
48	0xbd22266f	-0.039587434
49	0xbfb9aa44	-1.4505086
50	0xbfdc07eb	-1.7189916
51	0xbefe7a7f	-0.49702832
52	0xbf81f508	-1.0152903
53	0xbf4b89df	-0.7950725
54	0xbf7df393	-0.9919979
55	0xbfa4ee93	-1.2885307
56	0xbf338bf4	-0.70135427
57	0xbf5848b4	-0.84485936
58	0xbea2bcf0	-0.31784773
59	0x3f039397	0.5139708
60	0xbf86c699	-1.0529357
61	0xbf701fa2	-0.9379827
62	0xbe66d839	-0.2254342
63	0xbfa3b1f5	-1.2788683
64	0x3e4fd773	0.20297031
65	0xbfa27e75	-1.2694842
66	0x3eaf0308	0.34182
67	0xbf32a7b3	-0.6978714
68	0xbf6c3e1f	-0.9228229
69	0xbf2499e4	-0.6429732
70	0xbef5e363	-0.48025045
71	0xbfc8f811	-1.5700704
72	0xbe60e7bb	-0.21963398
73	0xbedda6e6	-0.43291396
74	0xbf7c97e2	-0.98669255
75	0xbf599e1b	-0.85006875
76	0x3ee633fd	0.4496154
77	0x3e06689a	0.1312584
78	0xbf852d1c	-1.0404391
79	0x3c3168ed	0.010828239
80	0xbfb80356	-1.4376018
81	0x3f1ff58c	0.6248405
82	0x3d8ba0a0	0.06817746
83	0xbf6a408b	-0.91504735
84	0xbf9b5819	-1.213626
85	0xbd54bd38	-0.051938266
86	0xbfae1953	-1.3601478
87	0xbfadf277	-1.3589619
88	0xbfaa5a63	-1.3308834
89	0xbf78f300	-0.9724579
90	0xbfa75b8e	-1.3074815
91	0xbf6b45d8	-0.9190345
92	0xbdd97a69	-0.10619051
93	0xbf968303	-1.1758732
94	0xbf8f6a3e	-1.1204298
95	0xbf1f0ac1	-0.62125784
96	0xbed44434	-0.41458285
97	0xbf22db89	-0.63616234
98	0xbf91b67a	-1.1383812
99	0x3e04d005	0.12969978
100	0x3e8d4be4	0.27596962
101	0x3f7e4d2b	0.993365
102	0xbfab70ec	-1.3393836
103	0xbf3c9dd2	-0.73678315
104	0xbeb8de81	-0.36107257
105	0xbfb72ecf	-1.431116
106	0x3ee023e0	0.4377737
107	0xbe956b5b	-0.29183468
108	0xbfb15f8a	-1.3857281
109	0xbf8d4552	-1.103678
110	0xbf468cda	-0.7755867
111	0xbecc6672	-0.3992191
112	0xbe7c61e8	-0.24646723
113	0xbf9de443	-1.2335285
114	0xbfbe38db	-1.4861101
115	0xbf760101	-0.9609528
116	0xbe4e4f63	-0.20147471
117	0xbf3b61a1	-0.73195845
118	0xbe4de52b	-0.20106952
119	0xbfbfbbe0	-1.497921
120	0xbe6ec0e9	-0.23315777
121	0xbf771a20	-0.9652424
122	0xbe90a903	-0.28253946
123	0xbf5efe32	-0.8710662
124	0x3f07825b	0.5293328
125	0xbfa0c558	-1.2560225
126	0xbf3c415d	-0.73537236
127	0xbf276a52	-0.65396607
128	0xbf3563d8	-0.70855474
129	0xbee2a484	-0.4426614
130	0xbdab0a3b	-0.08351561
131	0xbf91b62d	-1.1383721
132	0xbf957b89	-1.1678325
133	0xbe027d83	-0.12743191
134	0xbf3781bf	-0.7168235
135	0xbf364b3d	-0.71208555
136	0xbf119c3e	-0.5687903
137	0xbf82685a	-1.0188096
138	0xbe15d6dd	-0.14632745
139	0xbf51aec5	-0.819073
140	0x3ea08170	0.31348753
141	0xbff740ee	-1.931669
142	0xbf1b42d9	-0.60648876
143	0xbf6cf18c	-0.9255607
144	0xbf2a2c7c	-0.6647413
145	0xbf623d07	-0.8837437
146	0x3de4f6d4	0.11179891
147	0xbfa3a127	-1.2783555
148	0xbf5675ea	-0.8377367
149	0xbeb52050	-0.35376215
150	0xbf3006c1	-0.68760306
151	0xbf2486a4	-0.64267945
152	0xbf95aa71	-1.169264
153	0xbf7188b1	-0.943492
154	0xbf7f96da	-0.99839556
155	0xbf44051e	-0.7657031
156	0xbf20e69b	-0.62851876
157	0xbfa4bfa3	-1.2870983
158	0xbfbc836d	-1.4727608
159	0xbf595860	-0.84900475
160	0xbfa2e55e	-1.2726247
161	0x3d9890af	0.07449471
162	0x3e2bc842	0.16775611
163	0xbf248e71	-0.6427985
164	0xbf7646ba	-0.9620167
165	0xbf56f358	-0.83965063
166	0xbe13b4cc	-0.14424437
167	0xbfb3cd92	-1.404711
168	0xbfa9df97	-1.3271359
169	0xbf6a66ed	-0.915633
170	0xbfa581b3	-1.2930206
171	0xbfd7b6c1	-1.6852647
172	0xbece24d9	-0.40262488
173	0xbe972515	-0.2952048
174	0xbfcb2579	-1.5870811
175	0xbf45276a	-0.77013266

L4.weight f4 [88, 176]
0	0xbf1debc2	-0.6168786
1	0xbdb368dd	-0.087602355
2	0x3eafb54b	0.34318003
3	0xbf447a54	-0.7674916
4	0xbd563098	-0.052292436
5	0xbd82f516	-0.06394403
6	0x3f4b444e	0.794011
7	0x3f36423d	0.7119482
8	0x3f0aa317	0.54155105
9	0x3db412c3	0.08792641
10	0x3d78d902	0.06075383
11	0x3f508e31	0.81466967
12	0x3e3df606	0.18550882
13	0x3e291d2b	0.16515033
14	0x3f338c6b	0.70136136
15	0xbd392630	-0.045202434
16	0x3f279447	0.6546063
17	0xbe0fcc75	-0.14042838
18	0x3f8013c1	1.0006028
19	0x3e763d56	0.24046835
20	0xbd80359b	-0.062602244
21	0x3e0cf29b	0.13764422
22	0x3f1314ab	0.5745341
23	0xbdf730ac	-0.1206983
24	0x3ea94c50	0.33066034
25	0x3e2947b7	0.16531263
26	0x3ea4192f	0.32050464
27	0x3f72dd0e	0.9486855
28	0x3f3fd521	0.74934584
29	0xbea00bf3	-0.31259117
30	0x3e7f433d	0.24927993
31	0x3cae2c77	0.021261437
32	0x3d91743d	0.07102249
33	0x3eb34f7c	0.3502158
34	0x3ec3e5a1	0.3826113
35	0xbca6886e	-0.020328727
36	0x3f0dce26	0.5539268
37	0xbe25938b	-0.16169564
38	0x3f6aba89	0.9169088
39	0x3f1f2cd1	0.6217776
40	0x3db31ff4	0.08746329
41	0x3ebf4126	0.37354392
42	0x3f6adb59	0.9174095
43	0x3eb51471	0.35367158
44	0x3e9ae13d	0.30249968
45	0xbed384dc	-0.413123
46	0x3ee3301d	0.44372645
47	0xbeb61b03	-0.35567483
48	0x3e1f9437	0.15583883
49	0x3f23fd07	0.64057964
50	0x3f2c8009	0.67382866
51	0xbebe275a	-0.37139398
52	0x3e4a5da1	0.19762279
53	0x3eacba6f	0.33735988
54	0xbdfb20dc	-0.12262127
55	0x3eb8454d	0.35990372
56	0xbf268ddd	-0.65060216
57	0x3efe607e	0.49682993
58	0x3f17303c	0.59057975
59	0x3e38e933	0.18057708
60	0x3e5a2399	0.21302642
61	0xbcdef285	-0.027215252
62	0x3e13af6d	0.14422388
63	0x3f42a637	0.76034874
64	0xbf2627af	-0.649043
65	0x3d256339	0.04037783
66	0x3e484fc3	0.19561677
67	0xbebecf5f	-0.37267587
68	0xbef42976	-0.47687882
69	0xbec54417	-0.3852851
70	0x3e43c60f	0.19118522
71	0x3f6eb591	0.932458
72	0xbd9b5872	-0.07585229
73	0xbeeba4be	-0.46024126
74	0x3f1c157a	0.6097027
75	0xbe69e13f	-0.22839831
76	0xbd9b0620	-0.075695276
77	0x3b2b7c68	0.0026166681
78	0xba8135e9	-0.0009857985
79	0x3e9df2d0	0.30849314
80	0x3f0e7e68	0.5566163
81	0x3f418d44	0.7560618
82	0xbea0cba2	-0.3140536
83	0xbe1b033c	-0.15137953
84	0x3e42d3ea	0.19026151
85	0xbe94aa27	-0.29036066
86	0x3f379e5c	0.7172601
87	0x3e94e458	0.29080462
88	0x3f3b48ee	0.73158157
89	0xbe3d678e	-0.18496534
90	0xbeac332e	-0.33632797
91	0x3f1f2ed8	0.6218085
92	0x3d0a1747	0.033713605
93	0x3ec68758	0.38775134
94	0x3f58f858	0.8475394
95	0x3f4faef6	0.81126344
96	0x3f0ed9f8	0.55801344
97	0x3e29d495	0.16585
98	0x3f2a716f	0.66579336
99	0xbe55a3fe	-0.2086334
100	0xbf24a01d	-0.64306813
101	0x3eb6d15f	0.35706612
102	0x3e597217	0.21234928
103	0xbf3762db	-0.71635216
104	0xbe5ef055	-0.21771367
105	0x3ee39cad	0.44455472
106	0xbf2db139	-0.67848545
107	0xbe353d75	-0.17699225
108	0x3f763b40	0.9618416
109	0x3de757ca	0.11296041
110	0x3f1e5be5	0.6185897
111	0x3dd74d92	0.10512842
112	0x3e433eb6	0.19066891
113	0xbf11ffb9	-0.57030827
114	0x3f310a79	0.69156605
115	0xbe520a40	-0.20511723
116	0x3c0e7def	0.008697017
117	0x3c3b1af7	0.011420003
118	0x3f2594c0	0.646801
119	0x3f2a3e09	0.6650091
120	0xbe8e10aa	-0.2774709
121	0x3f36cb9c	0.71404433
122	0x3eb11e38	0.34593368
123	0x3ea72032	0.3264175
124	0x3e818b09	0.25301388
125	0x3ea31dfb	0.3185881
126	0xbf720592	-0.9453975
127	0x3f46af01	0.77610785
128	0xbed76439	-0.4206865
129	0x3e9ef3e9	0.31045464
130	0x3f14addf	0.58077806
131	0x3f319929	0.6937433
132	0xbf0aeefb	-0.54270905
133	0x3f22dfb4	0.63622594
134	0x3f3670a9	0.71265656
135	0xbee91fd1	-0.45532086
136	0x3e7ccb25	0.24686868
137	0x3f03a266	0.51419675
138	0xbef30c76	-0.47470444
139	0x3ea0cecf	0.31407782
140	0xbde29321	-0.11063219
141	0x3f1f993d	0.623432
142	0xbf026417	-0.50933975
143	0x3e430354	0.19044238
144	0xbd7dd764	-0.06197299
145	0x3da78b6f	0.08180892
146	0x3ec22659	0.37919882
147	0xbdc4bb30	-0.09606016
148	0x3e4cdb93	0.20005636
149	0x3eea6544	0.45780385
150	0xbeafe933	-0.34357604
151	0xbc386e16	-0.011256715
152	0x3effc19c	0.499524
153	0x3e41e29c	0.18934101
154	0xbf43fc46	-0.76556814
155	0xbf3a96bf	-0.7288627
156	0xbcdfecb9	-0.027334558
157	0x3ea4cdb8	0.321882
158	0x3f22324f	0.63358015
159	0xbe658394	-0.22413474
160	0x3e601b1f	0.21885346
161	0xbee6c227	-0.4507
162	0xbdff0ea2	-0.12453963
163	0xbe5e04c4	-0.21681505
164	0x3f2e6632	0.6812469
165	0xbf49f33e	-0.78886783
166	0xbdd3c4e2	-0.10340287
167	0xbe0b58c9	-0.13608088
168	0xbe6b06aa	-0.22951761
169	0x3c92de41	0.017928245
170	0x3e94c45e	0.29056066
171	0x3de5139a	0.11185379
172	0x3cd07f48	0.025451317
173	0x3e99ffce	0.30077976
174	0x3f1f6421	0.6226216
175	0x3ed79b1c	0.42110527
176	0xbf444abc	-0.76676536
177	0x3e865c36	0.26242226
178	0xbe22c188	-0.15894139
179	0xbd80068f	-0.06251251
180	0x3e956221	0.2917643
181	0xbf2fa25f	-0.68607134
182	0xbf9c3547	-1.2203759
183	0x3e60a01c	0.21936077
184	0xbe196741	-0.14980794
185	0xbedc79c2	-0.43061644
186	0xbf7af4f4	-0.9803002
187	0xbf2a831a	-0.66606295
188	0x3e49e7c4	0.19717318
189	0xbf247a92	-0.6424953
190	0x3ec206b4	0.3789574
191	0xbf8e1479	-1.1099998
192	0xbfc870e8	-1.5659456
193	0xbf89ce15	-1.0766016
194	0xbfaaa217	-1.3330716
195	0x3eef441b	0.46731648
196	0xbe8bd660	-0.27311993
197	0xc0028680	-2.0394592
198	0xbf11461b	-0.567476
199	0x3dc86cf3	0.097864054
200	0xbf2737f8	-0.65319777
201	0x3edcecf7	0.4314954
202	0x3ddc5f32	0.107603446
203	0xbe8871c2	-0.2664929
204	0xbf0ff677	-0.5623545
205	0xbf310a73	-0.6915657
206	0xbfd0ec7c	-1.6322169
207	0xbf3ea688	-0.74472857
208	0xbea9f19d	-0.3319215
209	0xbfdbb0c8	-1.7163324
210	0xbf94501c	-1.1586947
211	0xbf38d114	-0.7219403
212	0xbfba9d5e	-1.4579275
213	0xbfc1b6ce	-1.5133913
214	0x3ebdc502	0.37064368
215	0x3e7af8de	0.24508998
216	0xbecc90e1	-0.39954284
217	0xbfc845a3	-1.5646251
218	0xbf35918f	-0.7092523
219	0x3f52eef5	0.8239587
220	0xbf27bbe5	-0.6552108
221	0xbfe1f29e	-1.7652166
222	0xbe94edf7	-0.29087803
223	0xbe47986c	-0.19491738
224	0xbf633b21	-0.887621
225	0x3eb39a66	0.35078734
226	0xbeeb2cac	-0.4593252
227	0xbff4bcf0	-1.9120159
228	0x3e73d1d4	0.23810512
229	0xbf223483	-0.63361377
230	0xbf7f36bf	-0.9969291
231	0x3d94822a	0.07251389
232	0xbf958775	-1.1681963
233	0xbed9d8dd	-0.42548266
234	0xbfd32de3	-1.6498379
235	0xbf42a99f	-0.7604007
236	0xbe5a6171	-0.21326233
237	0x3ef8a488	0.48563027
238	0xbf2c52f6	-0.6731409
239	0xbf897503	-1.0738834
240	0xbfa4e011	-1.288088
241	0x3ee3cc4b	0.444918
242	0xbefbb24e	-0.49159473
243	0xbf4f5c3c	-0.81000113
244	0xbf5399c8	-0.82656527
245	0x3eaf6840	0.34259224
246	0xbf686c6a	-0.90790427
247	0x3e514b6b	0.20438926
248	0xbd9edf9d	-0.077574946
249	0xbf2243cf	-0.6338472
250	0xbf00724c	-0.50174403
251	0xbf894071	-1.0722791
252	0xbfba1f01	-1.4540712
253	0xbfdf4616	-1.7443264
254	0xbe64d521	-0.22346927
255	0xbecd282d	-0.40069714

L4.bias f4 [88]
0	0x3ea32b4b	0.31868967
1	0xbf1cd39e	-0.612604
2	0xbf072e83	-0.52805346
3	0x3f3d718e	0.74001396
4	0x3f635382	0.887993
5	0xbf84736a	-1.0347722
6	0xbed7c720	-0.42144108
7	0xbbf88b21	-0.007584945
8	0xbf0365ae	-0.51327026
9	0xbf91bc9a	-1.1385682
10	0xbfa26f67	-1.2690247
11	0xbf3e9d29	-0.7445856
12	0xbfa222e1	-1.2666894
13	0xbfa3c1b4	-1.2793489
14	0xbf1c251c	-0.60994124
15	0xbe0e5c31	-0.13902356
16	0xbefd88c9	-0.4951842
17	0x3ef92a70	0.4866519
18	0xbf5a27af	-0.852168
19	0xbea9c177	-0.33155414
20	0xbf0a43c4	-0.5400965
21	0x3ec7f117	0.39051124
22	0xbf265b9f	-0.6498355
23	0xbe07201e	-0.13195845
24	0xbf465c13	-0.77484244
25	0xbec261a0	-0.37965107
26	0xbf37b612	-0.7176219
27	0xbdd5ca52	-0.1043898
28	0xbefc63fb	-0.4929503
29	0xbec76701	-0.38945773
30	0xbe193049	-0.14959826
31	0xbf37d7c7	-0.71813625
32	0xbf089278	-0.53348494
33	0xbef070b9	-0.46961
34	0xbf0bbf6e	-0.54588974
35	0xbf116fd2	-0.5681125
36	0xbf3ca46b	-0.7368838
37	0xbe8d965a	-0.27653772
38	0xbea411fc	-0.3204497
39	0xbf5c4278	-0.86038923
40	0xbe5fe866	-0.21865997
41	0xbe6a3a2b	-0.22873752
42	0xbf9033bb	-1.1265787
43	0xbf3abe36	-0.7294649
44	0xbe462e2d	-0.19353552
45	0xbe61ea59	-0.22062053
46	0xbf2ee9cd	-0.683255
47	0xbef21633	-0.47282562
48	0xbefb837b	-0.4912375
49	0xc0269f1f	-2.603462
50	0xbf4c4780	-0.797966
51	0xbef04e99	-0.46934965
52	0xbf8fbcb2	-1.122946
53	0xbf8d95c0	-1.1061325
54	0xbf522354	-0.82085156
55	0x3d8967b7	0.06709235
56	0xbf57826e	-0.84183395
57	0xbf0f58c5	-0.55994827
58	0xbeab07b3	-0.33404312
59	0xbf80dee1	-1.0068017
60	0x3f21aac1	0.63151175
61	0xbf4f189e	-0.8089694
62	0x3f097b67	0.5370392
63	0xbf265b76	-0.6498331
64	0xbf1414ba	-0.57844126
65	0xbf36ec64	-0.71454453
66	0xbe2efb2f	-0.17088006
67	0xbf99c255	-1.201243
68	0xbf46763b	-0.77524155
69	0x3f1eb5ae	0.6199597
70	0xbe905432	-0.28189236
71	0xbf922faf	-1.1420802
72	0xbf3af5a3	-0.7303106
73	0x3e145abc	0.14487737
74	0xbf5fefbb	-0.87475175
75	0xbe96b5a1	-0.29435447
76	0xbf0977a1	-0.53698164
77	0xbe2865c3	-0.16445069
78	0xbeefc5bb	-0.46830544
79	0xbe2565e4	-0.1615215
80	0x3f8a5dd1	1.080988
81	0x3e272600	0.1632309
82	0xbf359155	-0.70924884
83	0xbf13f568	-0.57796335
84	0x3dbaa5f8	0.09113687
85	0xbecaf547	-0.39640257
86	0xbf29c377	-0.6631388
87	0xbef437bf	-0.4769878

L5.weight f4 [44, 88]
0	0xbd2a3ac6	-0.041559957
1	0x3ea2944a	0.3175376
2	0x3f0f26c7	0.55918545
3	0xbcbb69eb	-0.022877654
4	0xbe96f56a	-0.2948411
5	0x3f35646f	0.70856375
6	0xbe74844f	-0.23878597
7	0xbeb1e753	-0.347468
8	0x3e94998d	0.290234
9	0x3f0aa767	0.54161686
10	0xbe3c0bd9	-0.18363895
11	0xbdd29140	-0.102816105
12	0x3c1f5980	0.009725928
13	0x3ed62d09	0.41831234
14	0x3c18ab60	0.009318203
15	0xbec5b184	-0.38611996
16	0x3d184d20	0.037182927
17	0xbef1397b	-0.47114167
18	0x3f140e56	0.57834375
19	0x3e5b9fda	0.21447697
20	0xbecdadfd	-0.40171805
21	0xbef230e3	-0.47302923
22	0x3f393e00	0.7236023
23	0xbe2a78ff	-0.16647719
24	0x3ebc2c39	0.3675249
25	0x3f4a3028	0.7897973
26	0x3e59bc96	0.21263346
27	0xbe9c38ff	-0.30512235
28	0x3f1257f1	0.5716544
29	0xbe46c18b	-0.19409768
30	0x3e450ab5	0.19242366
31	0x3ecc2f31	0.39879754
32	0xbd3dea1d	-0.046365846
33	0xbc93572b	-0.0179859
34	0xbe4c8058	-0.19970834
35	0x3f23bb92	0.63958085
36	0xbe9b2b2d	-0.30306378
37	0xbd111e8d	-0.035429526
38	0xbcde13d9	-0.027109073
39	0x3d9ed0fe	0.07754706
40	0xbead453d	-0.33841887
41	0x3e2ef7da	0.17086735
42	0xbe00bec0	-0.12572765
43	0x3f27b0ce	0.6550416
44	0xbf0a8b24	-0.5411856
45	0xbebbe150	-0.36695337
46	0xbdcdbcb9	-0.100457616
47	0x3bd960b6	0.0066338433
48	0xbe963c32	-0.293428
49	0x3f439448	0.76398134
50	0x3e255cf8	0.16148746
51	0x3df6b811	0.12046827
52	0x3ddcdd28	0.1078437
53	0x3ebbe1fe	0.36695856
54	0xbebde9bb	-0.37092385
55	0x3e7acc8c	0.24492091
56	0xbe22a419	-0.15882911
57	0x3eafe205	0.34352127
58	0xbe2d4a71	-0.16922928
59	0x3e09047d	0.13380618
60	0xbe5d01ee	-0.21582767
61	0xbe0e95b5	-0.13924296
62	0xbd493443	-0.049122106
63	0xbe54be2f	-0.20775674
64	0x3e9cc79e	0.30621046
65	0xbcee0bbf	-0.029058335
66	0xbd643e88	-0.055723697
67	0x3ecc7fda	0.39941293
68	0x3bfea23b	0.007770804
69	0xbe02ddb3	-0.12779884
70	0xbe5c4b76	-0.21513161
71	0x3f420ff1	0.75805575
72	0xbda98ad8	-0.082784355
73	0xbd6946d1	-0.0569523
74	0x3f3d828e	0.74027336
75	0xbeb2de4a	-0.34935218
76	0x3c7ebece	0.015548421
77	0x3e68f4cd	0.22749634
78	0x3e8d0ffa	0.27551252
79	0xbd462025	-0.0483705
80	0xbee97170	-0.45594358
81	0x3dbc25bc	0.09186885
82	0x3d93f67a	0.07224746
83	0x3e14878a	0.14504829
84	0xbe97e1de	-0.2966451
85	0x3e5ace5a	0.2136778
86	0x3f1799b5	0.59218913
87	0x3d962ce8	0.07332784
88	0xbebbf135	-0.36707464
89	0x3f5bc380	0.85845184
90	0x3ea0a204	0.31373608
91	0xbf05ef9f	-0.5231876
92	0xbea066bb	-0.31328377
93	0xbadc8e41	-0.0016827063
94	0xbf0bd6c7	-0.546246
95	0xbefdd4fe	-0.49576563
96	0xbcb4d669	-0.022074895
97	0x3c632352	0.0138634015
98	0xbe766867	-0.24063264
99	0x3dc3c5f3	0.0955924
100	0x3eb2798a	0.34858352
101	0x3e1a07f8	0.15042102
102	0xbe17541e	-0.14778182
103	0xbdeda272	-0.116032496
104	0xbeacd38d	-0.3375515
105	0xbf3b190e	-0.73085105
106	0x3da37113	0.079805516
107	0x3fa2db59	1.272319
108	0x3ee9c543	0.4565831
109	0x3e8ca0ba	0.27466375
110	0x3fa6b9ed	1.302549
111	0xbe8cfd60	-0.2753706
112	0xbe17eac6	-0.14835653
113	0x3f05838a	0.5215384
114	0x3f3340c7	0.7002072
115	0x3d92e1f8	0.07172006
116	0x3f88ea16	1.0696437
117	0xbe7928fb	-0.24332039
118	0x3eebfd3f	0.4609165
119	0x3ef588a1	0.47955802
120	0x3ec22f74	0.3792683
121	0x3ee6b980	0.450634
122	0x3e789313	0.24274854
123	0x3d74e06c	0.059784338
124	0x3d4f0a83	0.050547134
125	0xbf1eb22d	-0.61990625
126	0xbf450aab	-0.76969403
127	0xbe81b0ac	-0.25330102
128	0xbf30d977	-0.69081825
129	0x3f0db4c9	0.5535398
130	0xbf3893c3	-0.72100466
131	0x3dcbccd3	0.099511765
132	0xbe956e50	-0.29185724
133	0xbe1a0429	-0.1504065
134	0x3e758829	0.23977722
135	0xbe98d423	-0.29849347
136	0x3edb6713	0.42852077
137	0x3f5e9f06	0.869614
138	0x3e7c652a	0.24647966
139	0xbcd89919	-0.02644019
140	0xbc4cab88	-0.012492068
141	0xbe4f91f9	-0.20270528
142	0xbe8b0c0c	-0.2715763
143	0x3edae809	0.42755154
144	0x3f8502c3	1.0391468
145	0x3e8d4c41	0.2759724
146	0xbf33dfce	-0.70263374
147	0x3f8a1fa9	1.0790912
148	0xbf057330	-0.5212889
149	0xbe71a024	-0.23596245
150	0xbe67b302	-0.2262688
151	0xbdfa0a84	-0.12209037
152	0x3fc49ed5	1.5360972
153	0x3ed49d2f	0.41526172
154	0xbef11efb	-0.4709395
155	0xbe3f2f21	-0.18670322
156	0xbda9e8f6	-0.08296387
157	0xbf01c716	-0.50694406
158	0xbe5c8b4f	-0.21537517
159	0x3f886726	1.0656478
160	0x3ea66b58	0.32503772
161	0x3e936e74	0.28795207
162	0x3ec7f8c9	0.39056996
163	0x3ea65a26	0.32490653
164	0x3dff80a2	0.12475707
165	0x3f1c5668	0.61069345
166	0x3f1ee3c0	0.6206627
167	0xbef4f9b0	-0.47846746
168	0xbf2780ce	-0.65430915
169	0x3f6d9e00	0.92819214
170	0xbd5f0d2c	-0.05445592
171	0x3e7c7d7c	0.24657243
172	0xbf6071cb	-0.87673634
173	0xbda5c715	-0.080946125
174	0x3ea4aa46	0.32161158
175	0x3f08f035	0.53491527
176	0xbf0fb894	-0.5614102
177	0x3f909182	1.1294405
178	0x3f2fc0a4	0.6865332
179	0xbf078c31	-0.5294829
180	0xbeae73d1	-0.34072736
181	0x3ed5124b	0.4161552
182	0xbf33aaa2	-0.7018224
183	0xbe9f25e9	-0.3108361
184	0x3f0709bb	0.5274922
185	0x3ecef179	0.40418604
186	0xbed37e87	-0.4130747
187	0xbe33dd1f	-0.1756482
188	0x3f06c04e	0.52637184
189	0x3f2de11c	0.67921615
190	0x3e1a6537	0.15077673
191	0xbcdaf979	-0.026730286
192	0xbaa2df0b	-0.0012426091
193	0xbdc5f497	-0.096657924
194	0x3f1676e8	0.58775187
195	0x3f76f785	0.96471435
196	0xbf2bdd70	-0.6713476
197	0xbdd8ae15	-0.105800785
198	0x3d32f15a	0.043687202
199	0x3e51a7b8	0.20474136
200	0xbeffcfdc	-0.49963272
201	0x3f7fef99	0.9997497
202	0x3e819e58	0.2531612
203	0xbcea4a2a	-0.028599817
204	0x3f1ada4d	0.6048935
205	0xbef6a73a	-0.4817446
206	0x3e17ca13	0.14823179
207	0x3e429263	0.19001155
208	0x3e933004	0.2874757
209	0xbd8067db	-0.06269809
210	0x3ed22960	0.41047192
211	0xb98547cb	-0.00025421227
212	0x3de2507a	0.11050506
213	0xbe56b745	-0.2096835
214	0x3cc8410e	0.024445083
215	0x3ef258d8	0.47333407
216	0xbe9189be	-0.284254
217	0x3e68a974	0.22720891
218	0xbf164a86	-0.58707464
219	0x3ef7790a	0.48334533
220	0xbdd95753	-0.10612359
221	0xbe5ba3a4	-0.21449143
222	0xbd8ee9ea	-0.06978209
223	0xbf16ac2b	-0.5885646
224	0x3e0a6b7c	0.13517565
225	0x3f4b2951	0.7935992
226	0x3da45170	0.080233455
227	0xbe5f53aa	-0.21809259
228	0x3df79644	0.12089208
229	0x3f2c3d5b	0.6728112
230	0xbf0ee7ed	-0.5582264
231	0xbeb830e4	-0.359748
232	0x3ef2a68c	0.4739269
233	0x3e56f932	0.20993498
234	0xbed6de91	-0.4196668
235	0x3d02a573	0.031896066
236	0xbe73cade	-0.23807856
237	0xbe8324a7	-0.256139
238	0xbeacf2f7	-0.33779117
239	0x3e6044ae	0.21901199
240	0x3dcc11ab	0.099643074
241	0x3eb024fc	0.34403217
242	0xbe47ad15	-0.1949962
243	0x3d97e103	0.074159645
244	0xbebded26	-0.37094992
245	0xbf093ffc	-0.5361326
246	0xbec23c7f	-0.3793678
247	0x3efc5290	0.4928174
248	0xbea73174	-0.32654917
249	0x3da1c683	0.07899191
250	0x3fb3797f	1.4021453
251	0xbdd2ad58	-0.10286969
252	0x3d565726	0.052329205
253	0x3ea62d06	0.32456225
254	0x3eb2530b	0.34828982
255	0x3d82b31b	0.06381818

L5.bias f4 [44]
0	0xbf2f10cb	-0.68385
1	0xbf9aafaf	-1.2084864
2	0xbedb24ab	-0.42801413
3	0xbf104861	-0.5636044
4	0xbf2289f2	-0.6349174
5	0xbf2de252	-0.6792346
6	0xbe62ce13	-0.22148924
7	0xbf106154	-0.5639851
8	0xbf592ddd	-0.84835607
9	0x3d8fbf99	0.07018966
10	0xbf0b693b	-0.54457444
11	0xbf8f25fd	-1.1183468
12	0xbf848621	-1.0353433
13	0xbf225001	-0.63403326
14	0xbf09faab	-0.53898114
15	0xbf4ab0f2	-0.7917625
16	0xbf9666f2	-1.1750166
17	0xbdf5a94a	-0.1199518
18	0xbfef96c8	-1.871789
19	0xbf655471	-0.8958197
20	0xbfb9393d	-1.4470593
21	0xbf0e9179	-0.55690724
22	0xbf29751b	-0.66194314
23	0xbf66a6c4	-0.90098214
24	0xbfa3578b	-1.2761091
25	0xbf90118c	-1.1255355
26	0xbf6e4a80	-0.9308243
27	0xbf924882	-1.1428378
28	0xbedc4c54	-0.43026984
29	0xbf41a229	-0.7563806
30	0xbf22334f	-0.6335954
31	0xbf9afa37	-1.210761
32	0xbf7df691	-0.99204355
33	0xbf355c4d	-0.70843965
34	0xbf336ea4	-0.700907
35	0xbfb3ee9e	-1.4057195
36	0xbf4d5bc1	-0.8021813
37	0xbf65dc00	-0.8978882
38	0xbf6e836b	-0.9316928
39	0xbf42e2e2	-0.76127446
40	0xbf8b9d71	-1.0907422
41	0xbf12c9fc	-0.57339454
42	0xbed0fe72	-0.40819126
43	0xbf851edb	-1.0400041

L6.weight f4 [1, 44]
0	0x3d8a9dfb	0.06768414
1	0xbe3ddc5a	-0.18541089
2	0x3c912403	0.017717367
3	0xbc244585	-0.01002634
4	0x3bb3a8c5	0.0054827654
5	0x3cef9345	0.029245028
6	0x3dfd30ba	0.123628095
7	0x3e577301	0.21039964
8	0xbd8e638d	-0.069525816
9	0x3dab4a04	0.08363727
10	0x3d52b70c	0.0514441
11	0x3c1beb72	0.009516584
12	0x3d1d88fe	0.038460724
13	0xbd685929	-0.056725655
14	0xbdfc9390	-0.12332833
15	0x3de1e734	0.110304266
16	0x3db71f21	0.08941484
17	0xbd5ab701	-0.053397182
18	0x3e4d099c	0.20023197
19	0x3d275e14	0.040861204
20	0x3e354c05	0.1770478
21	0x3d843ce8	0.064569294
22	0xbe4a383e	-0.19748017
23	0x3df081c4	0.11743501
24	0x3e85878c	0.26079977
25	0xbdc88c29	-0.097923584
26	0x3d052cb2	0.032513328
27	0x3d9db2c5	0.07700113
28	0xbd16ba22	-0.036798604
29	0xbd8cd010	-0.06875622
30	0x3df9709e	0.12179683
31	0x3bd34277	0.006447132
32	0x3d5cde3b	0.053922873
33	0xbd1a2eb7	-0.037642207
34	0x3e4cfa91	0.20017458
35	0x3e19b2ce	0.15009615
36	0xbc7d3336	-0.015454104
37	0x3cd94853	0.026523745
38	0xbbda4004	-0.0066604633
39	0xbe5cb6d9	-0.21554126
40	0x3e513d7c	0.2043361
41	0xbd1c4885	-0.038155098
42	0xbcc2a150	-0.02375856
43	0xbd9bd78e	-0.07609473
