Saved_Models_All_Features_Only_Simulation_Samples/target_Hardness_features_22_epochs_21.pth (torch_old, 162565 bytes, 11 tensors)

L1.weight f4 [44, 22]
000000 be 17 8b 3d 52 0e c0 bd 58 d2 66 be af 4c 3b 3e
       0.06791638 -0.093777314 -0.22541177 0.18290971
000010 35 43 99 3e 6e 6f 62 3d a8 e4 25 3d 99 36 12 3e
       0.29934087 0.05528205 0.040501267 0.1427864
000020 f3 00 36 be 3c 89 91 be 5b da d1 bb 69 56 96 bd
       -0.177738 -0.28425014 -0.006404204 -0.073407
000030 ac 20 a8 bd d7 3c f9 3d 24 ab 0f 3d 29 38 24 be
       -0.08209357 0.121698074 0.03507532 -0.16037048
000040 be e4 f6 bd a7 94 38 3e 17 aa 42 be 45 74 40 be
       -0.12055348 0.18025456 -0.19010197 -0.18794353
000050 9e 9d 8a bd 1f 76 32 3e 19 80 7b 3e 7d ef a4 bd
       -0.06768344 0.17427872 0.24560584 -0.08053491
000060 4b 71 08 3e 95 ec 59 be 98 0c 11 be 50 a2 3e be
       0.13324468 -0.21281655 -0.1416496 -0.18616605
000070 3c 8a 05 be e4 86 ab bd 87 01 79 3e 4b 97 d6 3d
       -0.13041013 -0.08375338 0.24316989 0.104780756
000080 ed 64 63 bb 2b 33 09 be 46 5e 6c b8 65 59 a0 ba
       -0.0034697608 -0.13398425 -5.6354584e-05 -0.0012233673
000090 57 c9 b0 bc 23 8e a7 3d 76 a8 dd bd 65 ed 8d 3b
       -0.021580381 0.08181407 -0.10823147 0.004331278
0000a0 41 98 01 3e 8a e3 a8 bd f2 37 20 bd 1d 2a 69 3d
       0.12655737 -0.08246525 -0.039115854 0.056924928
0000b0 0c 89 4c ba e6 88 0b 3e 29 e6 f8 3d dd a2 67 be
       -0.0007802404 0.13626441 0.121532746 -0.22620721
0000c0 5d 99 c1 bd 18 fb d0 3d a0 36 dc 3d 1d c1 f9 3d
       -0.0945308 0.10204142 0.107526064 0.121950366
0000d0 cb 99 af bb 6f 18 b0 bc 76 89 0d 3e 1b b0 79 bc
       -0.0053589097 -0.021496026 0.13821968 -0.015239741
0000e0 f8 76 08 3d 4d 75 aa 3c 99 57 39 3c 11 e1 c5 3c
       0.033316582 0.020807886 0.011312389 0.024155172
0000f0 b0 54 60 bd 7c d3 26 3d 4c 0d b8 bd 6c c2 2d 3e
       -0.054768264 0.04072903 -0.08986911 0.16968697
000100 5d 36 56 3e 29 fc f1 3d 58 e2 b7 3d c9 6f a0 bd
       0.20919175 0.11815674 0.089787185 -0.07833821
000110 35 af e4 bd 31 63 5c 3d 9a a8 07 be 3e a5 14 3e
       -0.111662306 0.053805534 -0.1324791 0.1451616
000120 54 88 b6 3d 5e 32 73 3e c9 8f 3d be 6c 8b 6a 3d
       0.08912721 0.23749682 -0.18511881 0.05726187
000130 15 30 12 be 3a a0 20 be 31 6a c2 3c cc f9 76 be
       -0.14276154 -0.15686122 0.023732277 -0.24118727
000140 78 d6 c0 3d d2 9a 28 3e 9c 47 c5 3d de 00 2a be
       0.09415907 0.1646531 0.09632799 -0.16601893
000150 d0 17 79 3c 7c c7 2a be fc 5c 24 3d f7 80 9f 3b
       0.015203431 -0.1667766 0.04012774 0.0048676687
000160 f4 61 27 be 06 63 53 be 68 1b 47 3e 24 4e db 3d
       -0.1634596 -0.20643243 0.19444048 0.107082635
000170 83 43 46 be 7d 51 cd 3c 88 84 ab bd b3 a7 2b be
       -0.19361691 0.02506327 -0.08374888 -0.16763191
000180 65 90 64 be 8c fd af 3d 22 4d 82 be 69 21 3e 3a
       -0.22320707 0.08593282 -0.25449473 0.00072529033
000190 30 93 fa 3d 26 38 62 3d 88 f4 28 be b0 59 41 be
       0.12235105 0.05522933 -0.16499531 -0.1888187
0001a0 e3 dd 3d be 63 66 88 3d a4 bc 1d 3e c6 1a 82 3c
       -0.18541674 0.06660154 0.15403992 0.015881907
0001b0 f2 78 e3 bd 0e a9 46 be 48 d8 b5 ba e8 d1 c4 bd
       -0.11107053 -0.19400427 -0.0013873661 -0.09610349
0001c0 7e b9 03 3d d6 ab 14 3d 20 ac 45 be f7 51 f1 bd
       0.03215932 0.036296688 -0.19303942 -0.11783212
0001d0 20 9a da 3d 49 d9 0f 3d b0 03 3f bd 44 84 50 3b
       0.10673928 0.03511933 -0.046634376 0.0031817118
0001e0 2a 05 f3 3d f9 a5 26 3d 18 a1 b7 3c 91 3f 13 3e
       0.11866219 0.040685628 0.022415683 0.14379717
0001f0 28 36 57 bd b5 c5 55 be 71 41 25 3d fd 2c 9e be
       -0.05254188 -0.208762 0.040345613 -0.30893698
000200 f2 80 2d 3e 81 99 b9 bd d9 68 bf 3d b2 fc 13 3e
       0.1694372 -0.09062482 0.0934617 0.14451864
000210 5a 7d 2f bc a0 d8 6e 3d ec 87 39 bd 64 e4 95 bd
       -0.0107110385 0.05831206 -0.04529564 -0.07318953
000220 9b 8d 4b 3e 0c d8 94 3c 9c 79 f6 3d 5a e5 4b 3e
       0.19878237 0.018169425 0.12034914 0.1991171
000230 e5 07 93 3d 2d c8 ed 3d 5d b5 d0 3c a5 a4 fe 3d
       0.0717924 0.11610446 0.025477106 0.12433747
000240 6a e6 b4 3d ba dd 8a 3d 9a bf 32 bd 3a 63 b2 3d
       0.088330105 0.06780572 -0.043639757 0.08710332
000250 a3 54 6b bc 31 bd b4 bd ab 0a f5 3d 05 09 35 be
       -0.014363441 -0.08825148 0.119649254 -0.17679222
000260 85 98 90 3d 41 e8 49 3e 34 b6 b5 3d e1 ea 37 bd
       0.07060341 0.19717504 0.08872643 -0.044901732
000270 86 03 b7 3d 50 82 84 bd 0b cb 5e 3b 5c db 05 be
       0.08936219 -0.06470168 0.0033995535 -0.1307196
000280 ae ce 03 be f2 f9 ba bc d1 09 83 3c 0a bd 70 bd
       -0.12871811 -0.022824261 0.015995892 -0.05877403
000290 f8 18 83 3d e2 14 df 3d 0a 0a c1 bb 45 22 53 bd
       0.06401247 0.10892655 -0.0058910893 -0.051546354
0002a0 6f d9 d0 3c 5d af b1 3d 59 46 e2 bc 3a c6 bc 3d
       0.025494305 0.08676026 -0.027621435 0.09217496
0002b0 21 1e 2f 3b 35 fb 38 be 09 4b 45 3c ab 4b a7 3d
       0.002672084 -0.18064578 0.012041816 0.081687294
0002c0 1c 11 18 3d 6d 1b 3a be 8d d8 c0 bc 3f c0 f8 3d
       0.03712569 -0.18174525 -0.02354076 0.12146043
0002d0 6c fa 69 3e a5 ab d8 bd a8 45 19 3e 85 96 8b 3b
       0.22849435 -0.105796136 0.14967978 0.0042598867
0002e0 e3 3a 08 3d 6f 3a 69 bd 4f 5d f8 bd af 47 12 be
       0.033259284 -0.056940492 -0.12127172 -0.14285158
0002f0 ff 18 0f 3e 96 80 03 3e 5c b9 e7 3d ba 65 bf 3d
       0.13974379 0.1284202 0.11314651 0.09345575
000300 70 8e 2a 3e ed 76 a7 3b c4 8c ec 3d 48 fe a6 bd
       0.16655898 0.0051106126 0.115502864 -0.08153969
000310 28 dd 71 bd fa c7 1a bd 08 67 55 3e c4 ad a1 3d
       -0.0590488 -0.03778837 0.20840085 0.07894471
000320 9a 42 46 3e 2d c9 b2 3d d1 63 86 3d c4 ed 94 bd
       0.19361344 0.087297775 0.06562007 -0.07271913
000330 3a be b1 bd 48 ee 81 be ed a0 63 3a 94 a1 87 bd
       -0.08678861 -0.25377107 0.00086833426 -0.066226155
000340 47 12 17 be 65 be 57 3c cf 5a 5e 3d 4b b7 08 3e
       -0.14753066 0.013167952 0.05428582 0.1335117
000350 8c 85 d8 bc ac 9d ab 3d b7 d9 ea 3c 90 eb 16 bd
       -0.026430868 0.08379683 0.028668268 -0.036845744
000360 1c cf cf 3b 4e fe 1d 3c 96 2b cb 3d 7a af 08 bd
       0.006341828 0.0096431505 0.09920423 -0.033370472
000370 d2 32 00 3c f3 e7 ec bd 5d f5 f6 3d 8b 55 02 3e
       0.0078246165 -0.11567678 0.12058518 0.12727945
000380 8e f5 55 bd e0 59 1b 3d a4 c5 22 3e 31 b2 e1 bd
       -0.052236132 0.03792751 0.15895706 -0.110203154
000390 db 12 8b 3e 89 7e 65 3e f6 c4 1c be 31 13 54 3e
       0.27162823 0.2241155 -0.1530951 0.20710446
0003a0 76 f8 14 bd 92 ef c5 3c dc a9 6f 3d 59 04 f9 bd
       -0.036369763 0.024162088 0.0585116 -0.121590324
0003b0 53 76 87 bd 6e 39 5a bd 84 5c ab bd c5 4a 4a 3d
       -0.066143654 -0.053277425 -0.08367255 0.049387712
0003c0 29 0e 46 3e 86 42 21 be c5 b3 ea 3c 37 ce 37 3e
       0.19341339 -0.15748033 0.028650174 0.17949758
0003d0 b4 95 0c be a4 08 97 bc 79 88 29 3e b1 bd 9e 3d
       -0.13728982 -0.018436737 0.16555966 0.077510245
0003e0 00 ad 53 be c5 e3 bb bd b8 b3 63 bd 32 d5 5d be
       -0.20671463 -0.09174303 -0.055591315 -0.21663359
0003f0 a4 e1 b3 3d 35 29 11 be 01 d1 3e 3c 1b bb 34 be
       0.08783272 -0.14175875 0.01164651 -0.176495

L1.bias f4 [44]
000000 04 bb 4f bd 8f 96 31 3e 97 2f a3 3c 1f ae 3d be
       -0.05071546 0.1734259 0.019920154 -0.18523453
000010 1e 3d 19 3e 20 49 09 be 77 97 5b be dd f2 84 3d
       0.1496472 -0.13406801 -0.21444498 0.06491635
000020 65 35 cd bd a4 90 c4 bc 1a 50 23 3d 6a a5 3e 3e
       -0.1001995 -0.023994751 0.039871313 0.18617788
000030 ce 5b 15 3e f0 97 c6 3d 71 e4 a0 3d b9 83 5e 3d
       0.14585802 0.096969485 0.07856072 0.05432484
000040 03 3b 03 3e b1 69 b3 bb 62 a3 51 be dd 75 f4 bd
       0.1281548 -0.005475246 -0.20472482 -0.11936543
000050 36 bf 06 3e d7 52 8a bd 7b b0 32 3c 8e 9e 98 be
       0.13158879 -0.06754082 0.010906334 -0.29808468
000060 b5 58 01 bd d5 99 53 3c 9f f6 90 be dc 96 a9 3d
       -0.03157874 0.012915094 -0.28313157 0.08280727
000070 7f 48 04 be 3f ce d9 bd e5 71 2f 3d a6 98 0f be
       -0.1291828 -0.106350414 0.042833228 -0.14023075
000080 d4 88 70 bd 25 00 4b 3d 55 80 aa bc de ad 63 3d
       -0.05872424 0.049560685 -0.020813147 0.055585735
000090 14 8a 2e be 64 27 03 3e 36 eb ed 3b 15 50 18 3d
       -0.1704486 0.12807995 0.0072607053 0.037185747
0000a0 db 35 99 bd f7 68 c6 bd 31 5b 5b 3e 6d 9b c6 3d
       -0.07480975 -0.09687989 0.21421506 0.09697614

L2.weight f4 [88, 44]
000000 1d a2 50 be fd 95 03 3e 87 78 38 3e fe 0d 09 bd
       -0.20374341 0.12850185 0.18014728 -0.03346061
000010 10 8b c8 bc 9d f5 ae 3c c2 1f 9b bd 38 e6 24 bd
       -0.024480373 0.021357352 -0.07574417 -0.040258616
000020 4b a1 50 bd b7 ed 73 bd cb 94 d5 3d ec a5 b3 bd
       -0.05093507 -0.059552874 0.10428771 -0.087718815
000030 7c 47 b9 bd 4b 19 18 be 91 be d2 3d 12 a7 36 3d
       -0.09046838 -0.14853399 0.10290254 0.044592924
000040 d3 8a ae 3d 37 2e c1 3a e0 f6 65 3e eb 51 db 3d
       0.08522572 0.0014738505 0.22457457 0.10708984
000050 bc e5 b0 bd 95 67 6a 3d a2 af 2d 3d 97 70 57 bd
       -0.08637568 0.05722769 0.042403825 -0.05259761
000060 0d 00 f4 3d 01 ce cf bc a2 57 50 3d 8a d6 b8 bd
       0.11914072 -0.025366785 0.050864823 -0.09025295
000070 e1 92 56 3d 55 07 af bc 2f 8c ce bb fb 0d 01 be
       0.05238617 -0.0213658 -0.0063033323 -0.1260299
000080 ec 23 d6 3d 5e 97 a1 bd 31 e4 41 bd 06 58 94 bc
       0.1045607 -0.07890199 -0.04733676 -0.01810838
000090 18 dc e7 3d 1d 72 10 bc 88 3d 12 3e 82 2a 92 bd
       0.113212764 -0.008816269 0.14281285 -0.07137014
0000a0 b0 a3 18 be 25 da 15 3e ae e3 d3 3d b9 34 69 be
       -0.14906192 0.14633997 0.10346161 -0.22774018
0000b0 2f 3a b5 bd ef b8 bd bd c7 63 0e be f2 c9 ee bd
       -0.08848988 -0.09263789 -0.1390525 -0.11659612
0000c0 16 cd 5e bd 11 23 5f bd 1f 40 70 3e dc f7 3f 3d
       -0.054394804 -0.0544768 0.2346196 0.046867236
0000d0 f3 6f 93 3d c8 e8 ed bd 12 15 02 bd 80 ca 06 3e
       0.07199087 -0.11616665 -0.031758375 0.13163185
0000e0 0c f2 94 bd 3f 0d bc 3d 89 00 6a bc fc 41 e4 bb
       -0.07272729 0.09182214 -0.014282354 -0.0069658738
0000f0 2c 12 e6 3c 15 18 e3 3d 0c fe d6 3d b4 f8 01 be
       0.028084837 0.11088578 0.10497674 -0.12692529
000100 7c c3 98 bd 0b e9 19 be a8 ea fd b9 36 a9 07 3e
       -0.07459161 -0.15030305 -0.00048430753 0.13248143
000110 57 00 dc bc 0d b5 65 3c 60 b9 7d bd 5d 38 be bc
       -0.02685563 0.014020217 -0.061944366 -0.023220235
000120 68 90 84 3d 43 f2 77 bd 81 92 06 3e d1 05 14 3e
       0.06472856 -0.060533773 0.13141824 0.14455344
000130 bb fc 36 be 64 c3 51 3e 3e bc 9c 3d 91 67 35 3e
       -0.17869847 0.20484692 0.07653092 0.17715289
000140 64 f7 b1 bd 64 29 12 be 9d 64 81 3d 80 1c 16 3d
       -0.08689764 -0.14273602 0.063180186 0.036648273
000150 a6 b9 83 be 5e 66 af 3d 4d 3b 1e be b1 b9 f3 3d
       -0.25727576 0.08564447 -0.15452309 0.11900652
000160 7d 4b 35 be a6 80 80 3d 97 b9 33 3d 03 62 ef bd
       -0.17704578 0.06274538 0.043878164 -0.11688616
000170 76 3a da 3d 7a 32 34 be 40 25 dc bc 27 f7 7e 38
       0.10655682 -0.1759738 -0.026873231 6.0788498e-05
000180 cc bd 30 3c ff da 2c 3d 6b f7 29 3d 36 da 41 be
       0.010787439 0.04220104 0.04149572 -0.18930897
000190 75 49 08 3d 42 c7 e2 bd e6 43 af 3c 74 eb 39 be
       0.03327318 -0.11073162 0.021394681 -0.18156224
0001a0 b3 71 44 be 55 92 f2 3d 96 0a 88 be 3b d6 08 3d
       -0.19183998 0.11844317 -0.26570576 0.03340743
0001b0 a6 f1 12 be a4 b7 29 bc a0 c8 51 3b 15 95 e4 bd
       -0.14349994 -0.010358725 0.003201045 -0.11161248
0001c0 42 d1 be 3c fa 66 ad 3c 2c 17 38 3e e8 07 ca 3d
       0.023293141 0.021167267 0.1797759 0.09864789
0001d0 3c 45 97 be 82 20 32 3d b5 a5 b3 3c 11 67 8a 3d
       -0.2954501 0.043488033 0.021929601 0.067579396
0001e0 4e f3 cb 3c d8 76 5f be 11 6f 90 3c 78 0e 47 bd
       0.02489629 -0.21822679 0.017631086 -0.048597783
0001f0 58 14 13 3d 58 9b 21 bd 89 f8 0e be 22 63 7b 3d
       0.035908073 -0.039454788 -0.13961996 0.061373837
000200 0b 86 01 3e 5f 06 09 3e 00 0e b7 3d a4 84 81 3c
       0.1264879 0.13381337 0.08938217 0.015810318
000210 19 60 09 3e 83 8b ac 3d 57 ae 12 be b9 9d c4 bd
       0.13415565 0.08425047 -0.14324318 -0.09600396
000220 ba 16 4f be df 56 47 bd de 7b 6b bc b5 53 f9 bc
       -0.20223513 -0.04866683 -0.014372794 -0.030435422
000230 b8 28 47 3e 14 3d fe 3d 2d 09 23 bd a2 c4 1f bd
       0.19449127 0.124139935 -0.039803673 -0.039005883
000240 13 cf ec 3d c5 23 c1 3d 36 f9 02 bd 99 eb 28 3c
       0.11562934 0.094306506 -0.031975947 0.010310077
000250 7f 53 66 bc d4 c9 ef 3d 98 a9 f9 bd ec ba 03 be
       -0.014057993 0.117084175 -0.121905506 -0.12864274
000260 3f 54 db 3d 5b 03 32 3e e5 7b 26 3e d0 7d 9e bd
       0.10709428 0.17384093 0.162582 -0.077388406
000270 a7 42 36 be 58 2b a2 bd fe d8 8f bd ac 70 dd bb
       -0.17798863 -0.079184234 -0.0702381 -0.0067578163
000280 f8 4c 84 bd 01 36 27 3e cc 9c 34 3e fa c5 00 3e
       -0.06459993 0.16329195 0.17637938 0.12575522
000290 83 f8 fb bd bd 7a 8a 3d 17 b2 41 bd 2d 61 e8 3d
       -0.12303259 0.06761692 -0.04728898 0.1134666
0002a0 c8 21 b4 bc 45 73 9c bd d8 88 bf 3d 2e bc ad bd
       -0.021988764 -0.076391734 0.09352273 -0.08483158
0002b0 84 6c eb bd 35 18 d7 3d 7a ab b2 bd 66 47 15 3d
       -0.11495307 0.10502664 -0.08724113 0.036445044
0002c0 90 8c 3a bd ed 45 31 be cf ec d4 3d fe 81 dd bd
       -0.045544207 -0.17311831 0.1039673 -0.1081581
0002d0 fc 92 34 3d 60 17 2f 3e 7f b9 72 bd 36 33 15 bd
       0.044085488 0.1709876 -0.059258934 -0.03642579
0002e0 b8 8d de bd b9 f3 27 be a4 8b 44 3b 54 92 02 3e
       -0.108668745 -0.16401567 0.002999046 0.12751132
0002f0 57 af b4 bd 29 cd 1e 3d fe 03 f2 bd 5f 4b 22 3e
       -0.08822506 0.038769875 -0.11817168 0.15849064
000300 f4 68 10 be 00 67 88 3b 0e 1f 1e bd 04 4b 11 3c
       -0.14102536 0.004162669 -0.038603835 0.008867983
000310 96 dd 13 3d 33 b3 d1 3b c0 d1 6d be 00 6c 06 bc
       0.036099993 0.006399536 -0.23224545 -0.00820446
000320 62 fb 6b bd 04 35 07 3e d2 5e be bd 9e 9f 2b 3a
       -0.057612784 0.13203818 -0.09295429 0.0006546917
000330 0c b5 20 3e bd cf 05 bc dd a5 95 bd 8b 16 29 be
       0.15694064 -0.008167204 -0.073070265 -0.16512506
000340 a0 83 4b bd b0 c0 7e 3d 1e 70 0d be d0 38 ea 3c
       -0.049686074 0.06219548 -0.138123 0.028591543
000350 d5 f9 0e be 1d e4 d8 3d e9 68 70 3c b5 22 56 bd
       -0.13962491 0.10590384 0.01467345 -0.052279193
000360 3d 23 3a 3e 0d 37 1c be 46 39 14 be d0 1b 6b bd
       0.18177505 -0.15255375 -0.14474973 -0.05739957
000370 a3 61 d8 bd ef dd 29 be 48 59 69 3d 12 5f 5c bc
       -0.10565498 -0.16588567 0.05696991 -0.013450401
000380 c1 df bb 3d e3 82 01 be 0f 36 ba bd 22 4e 81 3d
       0.09173537 -0.12647586 -0.09092342 0.06313731
000390 e0 90 62 bc f0 6d df bd d2 e4 24 3d 98 80 f6 bc
       -0.013828486 -0.10909641 0.040257283 -0.030090615
0003a0 38 55 fb bd 8d df a7 3d 84 42 1b 3e 67 eb e4 bd
       -0.122721136 0.08196936 0.15162092 -0.11177712
0003b0 71 d8 5d be ed 2e 2e 3e 23 a8 b7 bd c9 f5 a6 3d
       -0.21664597 0.17010088 -0.089676164 0.081523485
0003c0 75 d7 66 bd 1a ec 04 be d1 d6 f7 3d a9 27 a8 3d
       -0.05635782 -0.1298069 0.1210152 0.082106896
0003d0 01 56 92 3b 28 97 b3 bd 09 ef a2 bd 6f 5f 8d bd
       0.004465819 -0.08769065 -0.079557486 -0.06902968
0003e0 f7 37 55 3d af 0f 52 3d aa 6d f9 bd 7a 5c 87 bb
       0.052055325 0.05128449 -0.1217912 -0.004130897
0003f0 a6 36 15 be 54 6a 91 3d 8f 51 35 be 30 30 a1 bc
       -0.14571628 0.071003586 -0.17706893 -0.019676298

L2.bias f4 [88]
000000 54 81 27 be 91 ff 99 bc 0a e6 ec 3d 89 04 d1 3d
       -0.16357929 -0.018798621 0.11567314 0.10205943
000010 d6 8b bd 3d cf a0 24 bd c7 1f 83 3d 49 ba d0 3d
       0.09255187 -0.04019242 0.064025454 0.10191781
000020 30 ed 85 3d 4c d8 0f 3e ad 7a 73 bc 6b e0 1b 3d
       0.065393806 0.14047354 -0.014860791 0.03805582
000030 8f c6 68 3d 7e f0 e4 3d 7c cf e1 3d 31 35 0e bc
       0.056829985 0.11178683 0.11025903 -0.008679674
000040 a5 fc 68 bd 84 04 82 3d 5a c4 20 be 08 ad 47 3c
       -0.056881566 0.063485175 -0.15699902 0.01218725
000050 32 81 c3 3c bf d9 cd bd 21 21 b0 bd 64 fd 10 be
       0.023865316 -0.100512974 -0.08600069 -0.14159161
000060 77 86 08 3e e1 f2 b4 bd af 04 8b bd f6 72 e6 3d
       0.13332544 -0.08835388 -0.06788003 0.11252396
000070 34 27 f2 bc 7e 44 b0 3c ac 87 35 bc 06 1a f4 bb
       -0.02955971 0.021517035 -0.01107971 -0.0074493913
000080 67 97 56 3d 81 21 1c be 96 45 90 bc 8e 85 03 be
       0.052390482 -0.15247156 -0.017611306 -0.12843916
000090 cd 26 7c 3d 7f b3 0f 3e 9f ec e9 3d 37 0d 28 bd
       0.06156044 0.14033316 0.11422085 -0.041028228
0000a0 36 b7 0b 3d 74 00 db 3d f6 ab 83 bd e6 dc 0a be
       0.03411027 0.10693446 -0.06429283 -0.13560829
0000b0 a5 87 a9 bd 39 b8 e0 3d 50 a6 0a bb c4 8d bd bd
       -0.08277825 0.10972638 -0.002115626 -0.09255555
0000c0 e3 a3 fa bd 50 cf 35 bd 7e 20 da bd e9 1a 23 3e
       -0.1223829 -0.04438716 -0.10650729 0.15928234
0000d0 33 79 2e bd b1 ee 26 3d dd 7a 49 3d 50 83 d5 3c
       -0.042596053 0.040754978 0.049189437 0.026063591
0000e0 e1 6c b8 bd 2f a4 5c bd da 28 48 3d 2f 51 02 3e
       -0.09005142 -0.053867515 0.048867084 0.12726282
0000f0 0d 12 ac bd 6b 84 1c be 53 30 50 be 6c ec 8d bb
       -0.084018804 -0.15284888 -0.20330934 -0.004331162
000100 de 6f 3c bb c0 b3 9d bc fa 13 92 bd 9a 26 25 bc
       -0.0028753201 -0.01925075 -0.071327165 -0.010080004
000110 d0 33 19 3d db 01 ce bd 8a 6d 6a bd 5d 9d 3c bd
       0.037402928 -0.10058948 -0.05723337 -0.04604851
000120 78 18 f6 3d 64 81 2c bd fc 69 7c bd 91 b2 c3 3d
       0.12016386 -0.042115584 -0.061624512 0.09555543
000130 f6 0f 05 bb 25 49 df bd 9d eb 92 3d 01 71 41 be
       -0.0020303703 -0.10902623 0.07173846 -0.18890764
000140 ca a3 63 bc 83 de 65 3d 1f 01 22 be fd 63 4c 3d
       -0.013894031 0.056120407 -0.1582074 0.049900044
000150 2b 5a 95 3d 32 bc 88 bd c4 39 ec bd 77 ca c5 3d
       0.07292589 -0.066765204 -0.115344554 0.09657758

L3.weight f4 [176, 88]
000000 5f 8b 8f 3d 7c d8 ac bd 11 1c 9d bd e6 bd 08 be
       0.07009005 -0.084397286 -0.07671369 -0.1335369
000010 05 23 c7 3d 4c 07 15 bd 77 d2 36 3d 1c d4 11 be
       0.09723476 -0.036383912 0.04463431 -0.1424107
000020 51 bb 60 bd da 4a 5b bc c8 21 ad bd 82 74 d7 bd
       -0.05486614 -0.013384545 -0.08453709 -0.10520269
000030 44 97 3f bd 1b 84 a4 3d c3 41 b7 3d 7c 70 9a 3d
       -0.046775118 0.080330096 0.0894809 0.07540986
000040 20 77 a3 3d 5d 2e 9a bd e3 f3 ba 3a d7 10 e9 bd
       0.07981706 -0.07528374 0.0014263358 -0.11380165
000050 f7 5f 7f 3d d0 8b 65 3c 58 f4 b4 bd c2 18 b2 3c
       0.06234738 0.014010385 -0.08835667 0.021740321
000060 d4 61 bf bd cb 75 3a 3b e0 a6 88 bd 70 84 ce 3c
       -0.09344831 0.0028451558 -0.06672454 0.025209635
000070 20 56 fa bd 90 d9 1d bb 1f f1 ba 3c 45 2f 8a 3d
       -0.12223458 -0.0024085976 0.022820054 0.06747297
000080 c4 44 e4 ba 2f e4 17 be 30 f9 7f bd c6 ee a0 3b
       -0.0017415513 -0.14833139 -0.062493503 0.0049112765
000090 6e ce 69 3d ce 7c 86 3c 72 6f ae 3d b9 f2 d6 bd
       0.057081632 0.016416933 0.0851735 -0.104955144
0000a0 fd 0f a1 3d 88 d6 bf bd 8e 98 9a bc 8e af fe bc
       0.07864378 -0.093670905 -0.018871572 -0.03108957
0000b0 0e 4c ab bc d3 0a 3b bd 8c c9 5f bd 83 1e 20 bd
       -0.02091029 -0.04566462 -0.05463557 -0.0390916
0000c0 9f d2 63 3d 09 95 26 bd 97 69 d3 bb fa 1d c8 3d
       0.055620786 -0.040669475 -0.0064517963 0.097713426
0000d0 61 02 93 3a 3e 10 52 bd 6f 48 cf 3c f4 fb 5c 3d
       0.0011215919 -0.05128502 0.025303094 0.05395122
0000e0 0d 90 9f bc f0 a7 a4 3c 61 85 f0 bc dc fd 04 bd
       -0.019477868 0.02009961 -0.029360475 -0.03246866
0000f0 f0 d2 23 3b 0e 58 87 3c 12 45 a1 3d 0b 1d a0 3d
       0.0024997555 0.01652148 0.07874502 0.078180395
000100 f4 8d 28 be 00 c9 31 3d 06 dc 4b 3d 69 f7 da 3c
       -0.16460401 0.04340458 0.049770378 0.026729302
000110 e2 5d fb bd 6b ff cf ba 00 67 f5 3d 8f 2a 7b bd
       -0.12273766 -0.0015868967 0.11982536 -0.061319884
000120 20 bd a7 bb 4f e2 29 bd f1 13 73 3d 62 39 91 3d
       -0.005118981 -0.04147559 0.05934519 0.07091023
000130 7a 43 1a 3d 50 d4 a2 bd b7 6e 07 bd d0 25 48 bd
       0.037662007 -0.07950652 -0.03306457 -0.048864186
000140 e6 fe be bd 00 ba 9a 3d a6 5f 1c be 4a 63 9d bd
       -0.09325962 0.07555008 -0.15270862 -0.076849535
000150 87 6c 9f bd 32 e9 2c bb 75 c3 22 bd 4b c9 96 bc
       -0.07784372 -0.0026384112 -0.039737184 -0.01840653
000160 e9 de c7 bb 01 34 fb 3c 9d 46 39 bd 36 e1 da bd
       -0.006099571 0.030664446 -0.045233358 -0.10687487
000170 fe cb 12 3d da 63 49 bc b1 72 92 3d e6 23 81 3d
       0.035839073 -0.012291873 0.07150782 0.06305675
000180 d8 7e a9 bd ca 20 08 3e b4 e9 d5 bd 4b d7 0f bd
       -0.08276147 0.13293758 -0.10444966 -0.03511743
000190 8e 5a de 3d ec 3b 9e bd 86 c2 20 3d 55 3d 79 3d
       0.10857116 -0.07726273 0.039248012 0.060849506
0001a0 a4 05 da bd ef ba a7 bb f6 87 72 3d 65 18 99 3d
       -0.10645607 -0.00511872 0.059211694 0.07475356
0001b0 cb 84 38 3d 5a bd 8c bd 52 08 1d bd 18 37 b0 bd
       0.045048516 -0.068720534 -0.038338013 -0.08604258
0001c0 34 be 17 3d 8b 57 a4 bd ca 94 f0 3c da ca 4a 3d
       0.037046626 -0.0802451 0.029367823 0.04950986
0001d0 e2 85 b4 3d 9d bd d7 3d df 63 09 be 3f dd 3d 3d
       0.088145986 0.10534213 -0.13417004 0.046353575
0001e0 80 fa 03 3d 57 15 8a bd 26 05 11 3b 40 09 0c bd
       0.032221317 -0.067423515 0.0022128313 -0.03418851
0001f0 73 47 8a bd ed 0b b8 bd 2a ad e6 3d 99 ef 5f bd
       -0.06751909 -0.0898665 0.11263497 -0.054671858
000200 63 63 fc 3c c4 61 f3 3c 0b ee ed 3a 54 88 07 be
       0.03080911 0.029709704 0.0018152607 -0.13235599
000210 82 2b b7 bd e0 f2 7a 3c 02 a1 31 bd 79 a6 8b bc
       -0.08943845 0.015316695 -0.04336644 -0.017047154
000220 66 0b da 3d 64 0d af 3b bf 65 4d bd 78 8a 90 bd
       0.10646705 0.0053421725 -0.05014586 -0.07057661
000230 e9 fd 84 bd 27 2f 9b bd d9 ea fe bb 20 fa 0c bd
       -0.06493742 -0.07577353 -0.007779461 -0.034418225
000240 c6 88 1a bd 6c 14 dc 3b bc 84 10 be 9b 50 81 bd
       -0.037728094 0.0067163017 -0.14113134 -0.063142024
000250 a0 38 c5 3c d6 b3 a6 bc 3e c2 06 be 27 8d 73 3b
       0.024074852 -0.020349424 -0.13160035 0.003716299
000260 65 8c e1 bc 86 af b7 bb 0e 46 e4 bd d5 49 dd bd
       -0.027532766 -0.005605641 -0.11146174 -0.10805098
000270 cd b6 b5 3d 75 64 77 bc a3 b9 a5 3d f7 e7 31 bc
       0.08872757 -0.015099634 0.08092048 -0.010858527
000280 bb 4c 24 bd 4f 80 87 ba de 21 7f 3c 83 21 cd bc
       -0.04011224 -0.0010337922 0.015572039 -0.025040394
000290 f0 93 0d be 89 ce 81 3d 42 54 c4 bd 07 4b c7 3d
       -0.13825965 0.063382216 -0.095863834 0.09731107
0002a0 3b e1 0d 3d 0a 1c 01 3d 8a be 97 bc c9 76 87 bd
       0.034638625 0.03152088 -0.018523473 -0.06614453
0002b0 a0 0e 95 3c c4 3b 10 be cd 8a d2 3b a4 34 92 bd
       0.01819545 -0.14085299 0.0064252377 -0.07138947
0002c0 cf 21 a3 bd 78 de 01 3c f3 b3 c2 3d 05 d7 b2 3a
       -0.07965433 0.007926576 0.09506979 0.0013644403
0002d0 2c da a3 3d 39 b5 8d bc aa e3 22 bd 59 03 e5 bb
       0.08000597 -0.017298328 -0.0397679 -0.0069889245
0002e0 29 04 33 bc c9 7a f9 3c 51 bd 20 bd 5f 8f d8 3c
       -0.010926285 0.030454056 -0.039243046 0.026435552
0002f0 7d 79 17 bb df 18 de bd 11 ff be bd 77 b1 a4 bc
       -0.0023113184 -0.108445875 -0.09325994 -0.020104153
000300 c1 db 2c be 75 88 1e bd ed 52 cb 3c cf a1 e8 bc
       -0.16880704 -0.038704354 0.024819816 -0.028397469
000310 cf 8a 8a 3c 0c e5 d6 3c cf 5a b5 3c 70 34 85 3b
       0.016911892 0.026232265 0.022138027 0.004065089
000320 13 83 aa bd f2 f5 57 bd 66 6f 0a bc 56 f0 f3 3c
       -0.08325782 -0.052724786 -0.008449411 0.029777687
000330 58 c0 19 bd 81 ea de bd 05 b1 11 bd 7e 89 41 bd
       -0.03753695 -0.10884572 -0.03556921 -0.047250263
000340 bc 2a 3d bd 46 bf f1 bd c0 de be 3d 4f c8 c7 3c
       -0.046183333 -0.11804061 0.0931983 0.024387507
000350 ec cd 0c 3d 19 78 ee bd 07 38 61 bd 0f 79 d5 bd
       0.03437607 -0.116440006 -0.054985072 -0.10423481
000360 1b a8 3c 3d a7 45 65 bd f3 f4 46 bd 17 6f af bd
       0.046058755 -0.05597463 -0.048573446 -0.085661106
000370 47 a7 55 3d 42 67 15 be 4c 69 ef bd fa c6 6d 3d
       0.05216148 -0.14590171 -0.11690006 0.058051087
000380 a1 28 11 3e 7b f8 e5 bd 0c 5e 28 3e a8 40 eb 3b
       0.14175655 -0.112290345 0.16442126 0.0071793385
000390 57 dd 18 3d b3 ec f3 3d b4 e9 1e 3c 93 a4 8a 3d
       0.03732046 0.11910381 0.009699274 0.06769671
0003a0 7a cf f3 bc b4 7e dc bd f5 dc ad 3c 95 a7 4b bd
       -0.029762018 -0.10766354 0.021223525 -0.049720366
0003b0 d8 64 39 3d 55 d0 59 bd f7 f7 56 3d 69 4f c9 3c
       0.045262188 -0.053177197 0.05248257 0.024573999
0003c0 ea 63 b8 bd 98 86 97 bd 8b 1c 0e bd 2d 74 fe bc
       -0.09003432 -0.073987186 -0.03469519 -0.031061256
0003d0 b2 86 f8 3c bd 67 e2 3d ec 69 59 3b 9f 52 50 bd
       0.030337665 0.11054943 0.0033174707 -0.050860044
0003e0 81 49 8d bd da 34 c1 bd fa ac a4 bd 12 76 3c 3d
       -0.068987854 -0.09433909 -0.08040805 0.046011038
0003f0 fb 3d 7e bd 23 02 6b 3d 4b e2 fa bc 88 20 33 3d
       -0.062070828 0.057375085 -0.030625483 0.043732196

L3.bias f4 [176]
000000 24 6b 1a bd b7 86 0b 3e 9c b8 c5 bd 96 a2 f0 bd
       -0.037699834 0.13625608 -0.09654352 -0.11749761
000010 05 b4 84 bd 2f 9c 07 bd 91 46 9b 3c 6a e5 9d bd
       -0.064796485 -0.033107933 0.018954547 -0.07709773
000020 c4 09 3b bc 8f a3 cb bc 83 05 c1 bd 38 b4 9e bd
       -0.0114159025 -0.024858264 -0.094248794 -0.07749218
000030 c1 ad 06 3d 08 0c 88 3d b6 48 0c be 41 41 11 bd
       0.03288055 0.0664292 -0.13699612 -0.03546262
000040 a2 e9 c2 3c 52 da 0d bd 82 15 d5 3c a7 da 64 bc
       0.023793045 -0.034632035 0.026011232 -0.013968146
000050 7c 58 b9 bc 08 70 d5 3c db a1 89 3d a5 83 04 be
       -0.0226252 0.026054397 0.067203246 -0.12940843
000060 1c 33 c1 3d 6d 6a 96 bd 75 e6 b4 bd fa ce 2e bd
       0.094335765 -0.07344518 -0.08833019 -0.042677857
000070 06 d6 a1 bd b3 83 65 3d f3 e3 2a be 57 dc 1e bd
       -0.0790215 0.0560338 -0.16688518 -0.03878435
000080 65 52 97 3d 05 67 38 bd df 3e 1a 3d a9 db 99 3d
       0.073887624 -0.045020122 0.037657615 0.075126
000090 64 5c 03 be 79 e0 00 3e 8d f0 a9 3c 0f 2f 18 3d
       -0.12828213 0.1258563 0.020744586 0.037154254
0000a0 3c 6f b9 3d d6 f8 f5 3d 7e 22 53 bd 4c e9 05 3e
       0.090544194 0.12010352 -0.051546566 0.13077277
0000b0 6f c7 fa bc 7a af 0c bd 55 bf 35 3d 64 3d f8 3c
       -0.030612675 -0.034347035 0.04437192 0.03030271
0000c0 7d 72 87 3b 1e 3b 54 bd 56 24 1c 3d 46 86 29 3d
       0.004133521 -0.05181419 0.03812059 0.04138782
0000d0 ef 1b 18 bd f9 b6 af 3d 5f c6 0f 3d 48 92 dd 3d
       -0.037136015 0.08579821 0.03510129 0.108189166
0000e0 d7 d1 78 3d ab 83 9d 3d 6a b9 8d 3d fc de ba bc
       0.060746994 0.07691129 0.069201306 -0.022811405
0000f0 b4 43 e8 3d 1d 46 f9 bd 29 8b 09 3d a0 3a 52 bd
       0.11341038 -0.12171576 0.03357998 -0.05132544
000100 b5 a3 16 be 30 30 80 bd da 38 cd 3b 14 c4 e6 3d
       -0.14710887 -0.06259191 0.0062628808 0.11267868
000110 ea 37 06 3d 38 59 d4 3c 63 80 cb 3d ec e7 05 3d
       0.032768168 0.025921449 0.09936597 0.03269188
000120 1a 4d d4 bd 82 b4 a9 bc 05 ad 3b be 39 29 ff 3d
       -0.103662685 -0.020715956 -0.1832772 0.124590345
000130 66 a1 b7 3d 4f 42 07 3d 32 b7 2e be 0f 3e 79 bd
       0.08966331 0.03302222 -0.17062071 -0.0608502
000140 10 a0 8b 3c eb 16 aa 3d 9c fd 8b bd 88 76 c1 3d
       0.017044097 0.083051525 -0.068354815 0.09446436
000150 9b 76 b7 bd 1d 77 ce bc da 7c db 3d ca 76 8b bd
       -0.08958169 -0.025203282 0.10717173 -0.068097666
000160 5f d1 f3 3c a9 a5 01 bc c0 12 7b 3d 3b 34 d3 3c
       0.029762922 -0.007913032 0.06129718 0.025781741
000170 9c 75 42 3c 1a e8 b9 3d a3 6d 6d bd bc ea bf 3c
       0.011868861 0.09077473 -0.057965886 0.02342736
000180 69 34 f2 bd d7 81 35 3c a6 70 b0 bd f5 78 b5 bd
       -0.11826403 0.0110783195 -0.08615236 -0.08860961
000190 bb 40 e1 3d 60 c4 a3 3b d2 2a a6 3d 75 68 3e bd
       0.109986745 0.004997775 0.08113636 -0.046486337
0001a0 d0 90 da 3c 3c 11 02 3d 54 e4 17 be 40 6c bd 3d
       0.02668038 0.031754717 -0.14833194 0.09249163
0001b0 12 6d e4 3c d9 dc 83 bd 5e 31 e7 bd 57 f9 c2 bc
       0.02788404 -0.06438608 -0.11288713 -0.023800535
0001c0 18 f6 31 3d b1 1d 54 bc c0 68 0a bd db b6 aa bd
       0.043447584 -0.012946532 -0.033791304 -0.08335658
0001d0 7a fb dc 3d 32 c1 27 bc 64 f2 7f 3d d5 5a e2 bd
       0.10790153 -0.010238932 0.06248702 -0.11052481
0001e0 9a 9a 68 bc 12 3f 88 3c 6c 4a 03 be 1d 11 b8 bd
       -0.014197016 0.016631637 -0.12821358 -0.08987639
0001f0 0a ad cf 3d 69 f0 7d bc e2 21 b1 bd 69 f5 d1 3d
       0.101404265 -0.015499213 -0.08649041 0.102518864
000200 e7 a7 db 3d 74 62 30 3d f3 ed fa bd 1b f5 5b bc
       0.10725384 0.043062642 -0.122524165 -0.013425137
000210 8f 5f a0 3d 60 fe d4 3d cb 65 3d bd cb d0 8f 3d
       0.07830726 0.10400081 -0.046239655 0.07022246
000220 be 3b 9c 3d 1d c3 84 3d e0 c9 1c bd 9a 76 bb bd
       0.076285824 0.064825274 -0.03827846 -0.09153481
000230 0d 6e eb bd 61 e6 8b 3b 08 cd ed bd 78 cf 81 3b
       -0.114956 0.0042694067 -0.11611372 0.0039615
000240 3e 76 f6 bd 2e d4 93 3d 73 37 11 3e 7b b4 e7 bd
       -0.12034272 0.072182044 0.14181308 -0.11313721
000250 4a 3e 4c 3b d1 82 19 bc 4d 3b e3 bd a9 c4 b7 bd
       0.0031165057 -0.009369568 -0.11095295 -0.08973057
000260 b2 94 26 be da bc 88 bc fb be c1 bc a8 6e 16 3d
       -0.1626766 -0.016691614 -0.023650637 0.036726624
000270 df 4b c1 bd 2c 82 92 3d 7e e2 9a 3d c3 77 da bd
       -0.094382994 0.071537346 0.07562731 -0.10667374
000280 72 5d 73 3d c6 8f 11 bc 7a be a0 3c e2 37 c4 3d
       0.05941529 -0.008884376 0.019622076 0.09580971
000290 6b 14 b9 bd b9 0c c4 bd ff 7a f1 bc 53 d7 a2 3d
       -0.090370975 -0.09572739 -0.029477594 0.07951226
0002a0 c5 bc 10 be 34 46 68 3d 44 70 85 bd bb 6d 88 bd
       -0.1413451 0.056707576 -0.065155536 -0.066615544
0002b0 a2 eb f9 3d b8 3d 19 3c 3c fd dc bd 66 d3 9f bd
       0.122031465 0.009353094 -0.10790488 -0.07803993

L4.weight f4 [88, 176]
000000 59 f2 45 bd 7f a5 3e bd 01 d4 f5 3c 79 07 ff 3c
       -0.048326824 -0.046544548 0.030008318 0.031131493
000010 32 41 26 3a 8a b7 48 bb 82 16 8a 3c 1c 96 6d bb
       0.00063421123 -0.0030626976 0.016856436 -0.0036252802
000020 d3 ed 29 3d fe be af bc 4d 03 12 bd 02 98 4b bd
       0.041486572 -0.021453377 -0.03564768 -0.049705513
000030 bd 5d c7 3d a1 c5 3b 3d 56 6a 53 3c f7 41 31 bd
       0.09734676 0.04584277 0.01290377 -0.0432758
000040 df e2 f9 bc a1 7e 82 bb bd c7 ac 3c f5 dc 96 3d
       -0.030503688 -0.0039823805 0.021091336 0.07366363
000050 ed d8 8c 3d bb 8d 7e bc 4a 7f 3f 3c d7 89 49 bd
       0.06877313 -0.015536721 0.011688063 -0.04920372
000060 84 1f 68 b8 1a eb f5 bb 86 82 e9 3d 3b 47 7a 3d
       -5.534246e-05 -0.007504833 0.114018485 0.061103087
000070 54 fd 4d 3d e7 3c 3e 3c cd 16 17 bd 29 6c 9a bd
       0.05029042 0.0116112 -0.03688698 -0.07540161
000080 81 31 fd 3d f3 86 bd 3d 78 b1 a4 bc a9 37 f1 3c
       0.12362958 0.09254255 -0.020104155 0.029445486
000090 2e 60 e6 bc 72 a7 bc ba c7 fa 11 bd f3 21 01 3e
       -0.028122034 -0.0014393164 -0.03563955 0.12610607
0000a0 e3 25 eb 3d 25 21 b7 3d fd f6 21 3c 6b 36 ce bd
       0.11481836 0.08941869 0.009885547 -0.10068973
0000b0 87 94 e1 bd e6 63 b3 3d 14 c0 94 bd d6 f3 0d 3d
       -0.110146575 0.087592885 -0.072631985 0.03465637
0000c0 d2 a7 67 3c 26 68 2d bd 56 fa 81 bd 09 a6 03 bd
       0.014139133 -0.04233565 -0.06346576 -0.032140765
0000d0 8e 21 2d 3d 0e e0 e9 3c 8f 13 8c bd 48 5e ed bd
       0.04226833 0.02854922 -0.06839668 -0.11590248
0000e0 9b a7 80 3d e8 25 09 3c 56 8c 79 bd 9a 6b 19 bd
       0.06281968 0.008370854 -0.06092485 -0.037456132
0000f0 2f 80 1a bd d0 da fa bd 2f f5 9a 3d da ad 3d 3d
       -0.0377199 -0.122487664 0.07566296 0.046308376
000100 73 8f 93 bd 1b e8 9d bd 2e 78 c4 bd ae 93 5b bd
       -0.07205095 -0.07710286 -0.09593235 -0.053607635
000110 b0 bb 3c 3c 5b 82 8f 3c 79 b3 e3 3d ed ef 9c 3d
       0.011519358 0.017518213 0.11118216 0.0766295
000120 1e 7a fc 3d 21 75 b4 bc 2f 8b 81 bd 97 83 e1 3d
       0.123279795 -0.022028508 -0.06325375 0.11011427
000130 36 5a 8d 3d b6 29 0e 3d 03 e0 d7 bc c0 cb 0d 3c
       0.06901972 0.034707747 -0.026351934 0.008654535
000140 3f df cc 3d bb b6 c5 bc 2e e2 3d bd 9f bc c2 bd
       0.10003518 -0.024134984 -0.04635828 -0.09508633
000150 a4 23 85 3d 48 98 5b be b8 03 8b 3d 3b bd b7 bd
       0.065009385 -0.2144481 0.06787819 -0.0897164
000160 0f c5 5e 3d 21 2f b0 3d 5d 35 8e 3d f1 92 cb 3d
       0.05438715 0.08602739 0.06943772 0.09940136
000170 5f 24 8a bc 56 36 fd 3d 1e 9c 40 bd 4c 3b 74 3d
       -0.016863046 0.123638794 -0.047023885 0.059626862
000180 cc c4 22 bc d4 5f d4 3d 6e 18 43 3d b5 ea 19 3e
       -0.009934615 0.1036984 0.04763072 0.1503094
000190 95 c4 14 bd 8a 7f 41 bc 95 d5 af 3d c6 0b d6 bd
       -0.036320288 -0.011810193 0.085856594 -0.10451464
0001a0 5b 13 8c bb 93 5f c8 bc 2d 36 9c 3b 97 50 f1 bb
       -0.0042747683 -0.024459636 0.0047672004 -0.0073643434
0001b0 a8 67 cb 3c ea ee a9 bc 35 9a 7f 3d 8f b0 fb 3d
       0.0248297 -0.020743806 0.062402923 0.12289535
0001c0 02 55 41 3d 91 b4 35 3d 8b c0 04 3a 10 a8 43 3d
       0.04720021 0.044361655 0.00050640915 0.0477677
0001d0 eb 8e af 3d 29 94 ab 3d 68 05 88 bd 05 b0 06 bd
       0.08572181 0.08377869 -0.06641656 -0.03288271
0001e0 4e 2d 01 bd d2 54 6d 3c 02 d2 b7 3d 6d 55 a1 bc
       -0.031537347 0.014485555 0.08975603 -0.019694054
0001f0 1c 5e 5e bd 9f 02 f5 bb 69 96 f2 bc a8 7e c1 bc
       -0.05428897 -0.007477119 -0.029612737 -0.023619965
000200 8e 45 01 bd 0d b6 33 3b 91 22 51 3d 7f 1e b8 bc
       -0.031560473 0.0027421743 0.051058356 -0.02247548
000210 2a 0f 83 bd 96 d1 b3 3d 09 b1 86 bc f0 5c e0 3d
       -0.06399377 0.0878021 -0.016441839 0.109552264
000220 44 b8 82 3d dd 86 eb 3b f9 20 5b 3d 75 99 5a bd
       0.06382802 0.007187708 0.053498242 -0.053369004
000230 1e c9 55 3c 40 ae f9 3a 56 13 a0 bd ac 14 00 bd
       0.013048438 0.0019049123 -0.07816188 -0.031269714
000240 b7 fe e4 ba e3 09 e1 3c b5 f6 ea bd 6d e7 ff bc
       -0.001747093 0.027470535 -0.11472837 -0.031238282
000250 e5 36 fc bd b3 c6 8d 3d 82 56 bf 3d ce e8 d6 3b
       -0.12315158 0.069226645 0.09342672 0.006558514
000260 a1 4a b9 3d eb c2 33 bd a0 3f b3 3d 5d 91 a0 3d
       0.090474375 -0.04388706 0.0875237 0.07840226
000270 5c b8 96 bd 55 fd dc bd e8 cb d2 bc 4c 84 41 3d
       -0.073593825 -0.10790507 -0.025731996 0.04724531
000280 26 81 d8 3d a4 ce 8d 3d df 01 fd bc 40 8b 04 bc
       0.10571508 0.06924179 -0.030884681 -0.00808984
000290 0b 49 d3 bd 22 d5 9f 3d 2e 5b 9b bd 97 2e 68 be
       -0.10316666 0.07804324 -0.075857505 -0.22674023
0002a0 c5 bc 18 bd 41 1e 7c bd 9b 05 bf 3b 31 3b 88 3d
       -0.0372894 -0.06155229 0.0058295256 0.06651915
0002b0 d6 63 e1 3c b5 e6 82 bd 2c 6b 8d bd 4c 42 cf bd
       0.027513426 -0.0639166 -0.06905207 -0.10120067
0002c0 ce d0 83 3c ad 30 fa bc b3 31 74 38 ba fb e9 bd
       0.016090777 -0.030540789 5.822042e-05 -0.11424966
0002d0 c5 e5 c6 bb 8c d3 31 ba cc f3 c7 3d 5a ca c0 3c
       -0.006069871 -0.0006783537 0.097632974 0.023533989
0002e0 5f cf 97 bd 39 cc 0a 3c 4c c7 0b be 3a 47 ec 3d
       -0.074126 0.008471542 -0.13650244 0.11537023
0002f0 03 83 52 3d 56 30 aa 3d be 88 37 bd 8e 60 58 3d
       0.051394474 0.083100006 -0.044808142 0.052826457
000300 52 77 8b bd c4 7f ad 3d d1 1f 19 3d 25 32 b1 3d
       -0.06809868 0.08471635 0.037383858 0.086521424
000310 ad 13 3d 3d 52 50 a1 3a bf 90 a0 3c 4a 71 09 3c
       0.046161342 0.0012307263 0.01960027 0.008388827
000320 ba 59 db 3a b2 9e e5 3c 72 41 af bd 0d a7 a5 bd
       0.0016735115 0.028029773 -0.085574046 -0.08088503
000330 ba e0 50 3b a6 5a 8e bd d7 c1 00 bd 2c fe 84 bd
       0.0031872229 -0.069508836 -0.03143486 -0.06493792
000340 c8 9d 92 bc 3c 9d 16 be c7 5c 88 3d 69 52 71 3d
       -0.017897502 -0.14708418 0.06658321 0.058916483
000350 af 47 ab bd 07 6a 31 3d f5 45 4f bd f5 25 78 3d
       -0.08363282 0.043314006 -0.050603826 0.060583074
000360 fc 89 9d 3b 83 d8 fe 3c b2 9a 9a bd d3 68 4b 3d
       0.004807709 0.0311091 -0.07549037 0.049660515
000370 06 6e 39 3c 19 1c 15 3c 37 70 b3 3c f0 90 35 bd
       0.011317736 0.009100937 0.021904094 -0.044327676
000380 5b 26 f3 bc e7 db 0b be 44 a9 a0 3c e4 c0 ee 3c
       -0.029681375 -0.13658105 0.019611962 0.029144712
000390 ca 70 ba bd 7f 1e 4d bc 32 d5 5b 3d 21 08 89 3d
       -0.09103544 -0.012519478 0.053670116 0.066910036
0003a0 06 78 8f bc 23 07 11 3d 1f 75 99 3d c9 f8 93 3c
       -0.017513286 0.035407197 0.07493042 0.018062966
0003b0 ee 5e 80 3d 81 08 78 3b fc e8 ff 3d 15 32 83 bd
       0.062681064 0.0037846866 0.1249561 -0.06406037
0003c0 09 72 62 3c 66 9f 87 3c e0 b7 a8 bc c1 44 c6 3d
       0.013821133 0.0165555 -0.020595491 0.096810825
0003d0 61 78 ff 3d 0c 9e 46 3b 5b 18 97 3d 81 c0 2b 3c
       0.12474132 0.0030306606 0.07377692 0.010482908
0003e0 f5 3b 98 bd a4 41 b2 bd 9e 0b 24 3d dd b0 0d 3c
       -0.07433311 -0.08703926 0.04005014 0.0086481245
0003f0 de 17 a3 3c 14 b0 5d 3d 9b 8d 2c 3c 1f d8 51 3c
       0.019908842 0.054123 0.010531808 0.012807875

L4.bias f4 [88]
000000 e9 1d 7e 3c 4e 01 84 3c 97 02 f5 bd 55 83 96 bd
       0.015510061 0.016113903 -0.119633846 -0.07349268
000010 fa 70 e0 3c e9 f5 65 3a 50 51 cb bc b0 42 65 bd
       0.027397621 0.00087723 -0.024819046 -0.0559718
000020 e4 f3 7c 3d 80 d7 b0 3a e5 e5 e8 bd 55 48 86 3c
       0.06175603 0.0013491958 -0.11371974 0.016391912
000030 11 a5 cf bd b4 0c cc 3d 2f 16 f0 bb 9c d0 79 3b
       -0.10138906 0.099633604 -0.0073268632 0.0038118726
000040 4b be 44 3d e9 e6 05 bd ca 2c 00 3d c1 a3 15 3e
       0.04803304 -0.032690916 0.031292714 0.14613248
000050 cd ef 98 3c e3 f5 cd bd 83 3b 86 3d 1f 0d 7c 3d
       0.018669033 -0.10056665 0.0655432 0.06153595
000060 7e eb 49 bc b1 01 00 3d 8d 3f d7 bc 84 ca 51 3d
       -0.012324212 0.031251613 -0.02627542 0.051218525
000070 c7 f3 87 3d d1 94 3a bd 2e b2 cd 3c 0e ad 64 3d
       0.06638294 -0.04555208 0.025109377 0.0558291
000080 85 ef 43 3d 77 f7 1a 3c 47 a7 94 bb 40 f5 44 ba
       0.047835846 0.009458414 -0.0045365426 -0.0007513352
000090 4f b4 03 bd fc 5d a5 3d f2 36 64 bb 29 30 93 3c
       -0.032154378 0.08074567 -0.003482279 0.0179673
0000a0 18 72 a1 bd d1 dd 38 3d 62 dc 06 bd 11 02 bf 3d
       -0.0788309 0.045133416 -0.032925017 0.09326566
0000b0 a9 b9 b1 3d 61 47 47 3d 7e 0d 39 bd d0 41 e4 3d
       0.0867799 0.048652057 -0.045178883 0.11145365
0000c0 bb 16 92 bc 09 bc 8c bd 4d 47 7e bd 55 48 da bb
       -0.017833104 -0.06871802 -0.062079716 -0.0066614547
0000d0 e3 b8 a2 bd bf 12 2f 3d de 29 6e 3d 03 90 9e 3c
       -0.079454206 0.042742487 0.058145396 0.01935578
0000e0 74 72 86 3d 37 0d 85 3b 8b 83 04 bd 2a 1b e8 3c
       0.06564799 0.004060413 -0.03235201 0.028333265
0000f0 f2 67 34 bd 12 b4 b1 bd f8 3e 3f 3d bb f8 f3 3c
       -0.044044442 -0.08676924 0.04669091 0.02978169
000100 c1 0d d4 3d b8 9a a3 3d 01 2e 03 3d 6d 71 69 bd
       0.10354186 0.07988495 0.032026295 -0.056992937
000110 3f f6 8c bd 46 45 8e bd 3e 21 8d 3d a8 1d 5c bc
       -0.06882905 -0.069468066 0.06891106 -0.013434805
000120 3b 14 93 bd 9e 3a aa 3d 4b 00 b8 3c af ed f9 3d
       -0.07181593 0.083119616 0.022461077 0.12203538
000130 15 c0 95 3d f5 18 af bd 16 ba 9d 3c 78 34 db 3c
       0.07312027 -0.08549682 0.019253772 0.026758417
000140 08 00 a5 3d 6b 27 f9 3d cb 29 ca 3c c4 8f 06 bc
       0.080566466 0.121657215 0.024678132 -0.008212987
000150 d5 19 11 bd c3 8c 4b 3d 35 69 27 3c 31 7d 09 bc
       -0.035425026 0.049694788 0.010217954 -0.008391664

L5.weight f4 [44, 88]
000000 67 91 0c be 42 8e fc bc 70 ea 6a bd 70 10 05 3e
       -0.13727342 -0.030829553 -0.057352483 0.12994552
000010 ca 55 7c 3d 03 1f 10 bd 0a 81 0c 3c c0 34 0b be
       0.061605252 -0.035185825 0.008575687 -0.13594341
000020 ef 9c da 38 49 77 09 bd e4 63 83 bd 18 ae 3e be
       0.00010424281 -0.033561025 -0.06415537 -0.18621099
000030 c6 48 19 bc d8 43 01 be a1 7d c5 bd d3 1d 96 3d
       -0.009355729 -0.12623537 -0.096431024 0.07329907
000040 c8 8e 08 be 13 1a 12 bd 2d 19 3b bd 34 70 d9 bc
       -0.13335717 -0.035669398 -0.045678306 -0.02654276
000050 5d 65 e0 3d 5c cc 54 bc 1d 33 bd bc d5 d4 2c bd
       0.109568335 -0.012988176 -0.023095662 -0.04219516
000060 bd 74 3e 3d 57 4f 97 bd 19 94 99 3d 24 b9 9b bd
       0.04649805 -0.0738818 0.074989505 -0.07603672
000070 2b a8 c1 bd 2d 82 db bd bd 94 66 3d 4c 29 98 bd
       -0.094559036 -0.107181884 0.05629419 -0.07429752
000080 37 42 b3 bd 74 fc e7 bd 8d 2c 31 be 9b 1a a1 bd
       -0.08752864 -0.113274485 -0.17302151 -0.07866403
000090 67 59 32 3c 2f f3 f3 bd 36 12 b5 bb 8f e8 3c 3d
       0.010885573 -0.11911618 -0.0055258526 0.046120223
0000a0 8e bb 6d 3d 51 45 ad 3d 60 44 4b 3c 01 27 e9 3d
       0.058040194 0.08460487 0.012406439 0.113843925
0000b0 8d b9 9b bd a4 59 e6 3a 4e 58 45 bc 68 c0 7d bd
       -0.076037504 0.0017574322 -0.012044979 -0.06195107
0000c0 d7 0b af bc 60 f4 5e 3d 59 1d 6d bd ff 33 94 bd
       -0.02136795 0.054432273 -0.057889316 -0.0723648
0000d0 dd 65 60 3d 62 19 65 bd 24 fd 37 3d dd f8 61 bd
       0.054784644 -0.05593241 0.044919148 -0.055168975
0000e0 cb 5c b8 3b cd 5f af bd b7 c3 bc bd 81 8c da 3c
       0.005626296 -0.085631944 -0.09217017 0.026678326
0000f0 c8 15 2c 3d d7 46 5e 3d b1 0b da bd 5b 09 de bd
       0.04201296 0.054266777 -0.10646761 -0.10841628
000100 dd c1 ce 3d 29 d4 13 3d d7 0d 81 bd 73 c7 9e 3d
       0.1009557 0.036091004 -0.06301468 0.07752886
000110 93 a7 4c bd b6 75 62 3d 44 4c a0 3d 52 17 0f 3d
       -0.0499645 0.05528804 0.078270465 0.03493435
000120 ce a2 68 3d ed e6 02 3d 99 e5 f7 bd e3 78 47 3d
       0.056795888 0.03195851 -0.12104339 0.04869927
000130 bb cb 8c bd 8e e8 38 3d 12 53 e5 3d 2f 23 7f 3d
       -0.06874796 0.045143656 0.11197485 0.062289413
000140 c7 16 ad bd a1 0a e5 bd 6f 73 4f bd 92 48 b5 bd
       -0.0845161 -0.11183668 -0.050647195 -0.08851732
000150 cf f3 80 bd 1f 5b 41 3c 91 34 58 bd 34 39 79 3d
       -0.06296503 0.01180151 -0.052784506 0.06084557
000160 1a da 93 bd 7c 31 43 bd 7f f4 cf 3d f3 21 ac bd
       -0.07219334 -0.047654614 0.10154056 -0.08404913
000170 7a e7 cf bc 08 0b 97 bc 90 2d 8b bd 13 4f 54 bb
       -0.025378931 -0.018437877 -0.067958 -0.0032395765
000180 55 fd 93 bd 03 bf ad bd a6 70 29 3d 27 0b e6 bd
       -0.072260536 -0.08483698 0.041367196 -0.11232596
000190 18 3f bc bd c2 84 20 be fa 2f 8a 3d 6a 1a a8 3c
       -0.09191722 -0.15675643 0.06747432 0.020520408
0001a0 fb 81 60 3b 2c 3b 9b 3c 1b 29 be bd a3 80 a0 3d
       0.0034257162 0.018949114 -0.09285184 0.078370355
0001b0 51 9a 82 bd 81 cb 70 3d 28 57 0b 3e 12 7f 50 bd
       -0.0637709 0.058787826 0.13607466 -0.050902434
0001c0 78 ca 57 bd 4a 63 c0 bd 30 40 96 3d 61 63 8b ba
       -0.052683324 -0.09393938 0.073364615 -0.0010634476
0001d0 74 f6 12 bc 27 75 ce 3d 3a ba 3d bc 19 66 2c 3d
       -0.008969892 0.10080939 -0.011580044 0.042089555
0001e0 3d d0 01 3c 69 42 c0 bd 27 02 0a be ea aa ba 3d
       0.007923183 -0.09387667 -0.13477384 0.091146305
0001f0 06 a5 f9 bc 89 1a ed bd 63 10 d6 bd c2 40 73 bd
       -0.030474197 -0.11577327 -0.10452344 -0.05938793
000200 cd 4d 0f 3c 75 bc 00 be 8b 17 e1 3d e4 2f a4 3c
       0.0087465765 -0.1257189 0.109908186 0.020042367
000210 47 6c 56 bd e1 87 2b bd 8f eb 4d 3d f7 b6 60 bd
       -0.052349355 -0.04187763 0.050273474 -0.05486199
000220 8a f0 8e bb 1f 3a c7 ba 7d 5b d6 3d d2 70 89 3b
       -0.0043621706 -0.0015199817 0.10466669 0.0041943574
000230 9d 51 d4 bd 2e 7a 22 bd e2 e2 eb bd 30 72 59 bd
       -0.10367129 -0.0396673 -0.11517884 -0.053087413
000240 e6 00 d3 bd 62 dc 06 3d 9a 97 95 3c 88 55 f7 bd
       -0.10302906 0.032925017 0.018260766 -0.12076861
000250 07 f6 c1 3d d6 12 20 be 19 a6 e9 bd bd f0 e4 bc
       0.09470754 -0.15632185 -0.11408634 -0.027946824
000260 29 90 18 3e 95 54 ca bd 7c e9 9f 3c f2 0c 22 be
       0.14898743 -0.09879414 0.019520514 -0.1582525
000270 85 01 c4 bd ee 02 44 bc 3e e5 d5 3d dc 6a a5 bd
       -0.09570602 -0.011963589 0.10444115 -0.080770224
000280 91 12 8a 3d a6 d9 04 bd 5b a3 47 3d 08 ee b9 bd
       0.067418225 -0.03243413 0.048739772 -0.09078604
000290 99 e9 a0 bd 78 ff 89 3c 24 81 b4 bc 93 b1 72 3c
       -0.07857055 0.01684545 -0.022034235 0.014812845
0002a0 78 d8 de 3d 30 49 25 3d cd b4 d7 bd e4 95 bf 3d
       0.10881132 0.040353 -0.10532532 0.09354761
0002b0 0a c3 41 bd 26 37 04 3c 0a a2 67 3c 51 e8 a0 bd
       -0.047305144 0.008069789 0.014137754 -0.07856811
0002c0 3e 3d 30 3d f2 3d 8c 3d 2e 7d 2d bc 01 75 b5 3d
       0.043027155 0.06847753 -0.010588927 0.08860207
0002d0 a5 c0 2c ba d3 39 a3 bb 13 02 9d bd d5 32 00 3d
       -0.00065899856 -0.0049812584 -0.07666411 0.031298477
0002e0 18 99 a4 3d d6 b0 2c bd e8 02 f3 3b ae 59 83 3d
       0.08037013 -0.04216083 0.007416118 0.064135894
0002f0 34 e8 f0 3b e8 52 bf 3d 95 79 33 be 94 78 79 3d
       0.0073518995 0.09341985 -0.17526849 0.060906008
000300 1f ae 90 3d 00 3d 53 bd 7b 8e 7b bd 7a 0f c7 3d
       0.07064461 -0.051571846 -0.061415177 0.09719749
000310 41 3b ff bd 38 d7 6c 3d 52 71 86 bd be e9 4d 3d
       -0.12462474 0.057822436 -0.06564583 0.050271742
000320 c9 0e 9a bb 81 52 04 be fe 66 87 bd 2c f8 ad bd
       -0.0047014696 -0.12922098 -0.06611441 -0.08494601
000330 c1 70 47 bd 5c 06 1d 3c f6 fa 63 bc 1c 8e 31 3d
       -0.048691515 0.009584036 -0.013914814 0.043348417
000340 f8 3c 89 3d fb d8 a9 3d 92 e0 92 bc 3d 79 af bb
       0.06701082 0.08293339 -0.01792935 -0.005355029
000350 9e 6a 84 3d e5 f0 12 bd cc 81 a8 3c 48 39 ad 3d
       0.06465648 -0.035874266 0.020569704 0.08458191
000360 e7 ec 28 3d 3d 55 74 bb e2 aa 88 bc ae 70 1c be
       0.041241553 -0.0037282251 -0.016683046 -0.15277359
000370 c5 f8 6b 3d 9a 9d 82 3d 0f 85 33 bd 7d cd c5 bd
       0.057610292 0.06377716 -0.043828066 -0.096583344
000380 4b 33 af 3d 63 59 97 3d af 78 a0 bc fe e7 00 3e
       0.08554705 0.07390096 -0.019588796 0.12588498
000390 e2 fe 4e bd 6b ff 4a 3d b6 77 13 3c 46 99 90 bb
       -0.050536044 0.04955999 0.009000709 -0.004412803
0003a0 fe 9e 04 be 57 e1 8c 3d 0c 7b 5b 3d 1d 39 7b bc
       -0.12951276 0.06878918 0.053584144 -0.015333441
0003b0 af 11 dc 3c 2a c8 f8 bd 0d d1 4a bd c3 80 4e bd
       0.026863901 -0.12147553 -0.049515773 -0.050415765
0003c0 25 9c 1b 3d 43 1c a2 3d c3 48 c4 bd 4b af 6f 3d
       0.037990708 0.07915547 -0.09584191 0.05851678
0003d0 d2 3e 48 3b a4 d9 03 3d cf b9 b2 bd 77 05 06 bd
       0.0030555022 0.03218998 -0.087268464 -0.032720055
0003e0 68 0f d6 3d e2 b3 4d 3d 65 c7 a6 bd 3b 9f 51 bd
       0.10452157 0.050220378 -0.081435 -0.051177245
0003f0 37 4a 6a 3d 2f ad be bd 87 37 35 bd 3f 66 c1 bd
       0.057199683 -0.09310376 -0.044242408 -0.0944333

L5.bias f4 [44]
000000 af 3e 02 bd 66 bc 3d bc 9d 78 41 bd 89 95 8e 3d
       -0.03179806 -0.011580562 -0.047234166 0.06962115
000010 60 0f 7b bd 6d 1b 13 3e 90 f9 74 bb aa 34 0e 3d
       -0.06129396 0.14365931 -0.0037380196 0.034718193
000020 60 73 b2 bc 61 46 86 3d e3 c5 b6 3d 74 e1 1e 3c
       -0.02178353 0.065563925 0.08924463 0.009697307
000030 42 e9 56 3e 83 eb a5 3d 27 96 1b 3e dc bd d9 3c
       0.20987418 0.08101561 0.15193997 0.02657979
000040 0c 1d 15 3d fb cb e9 3d ca 6f 95 3d 6a 6c 94 bd
       0.036404654 0.11415859 0.07296713 -0.07247241
000050 46 22 95 3d 2f ce b5 3d 04 41 0f be f9 da da 3d
       0.07281928 0.08877217 -0.13989645 0.10686297
000060 bf cf 4a 3e 52 ff e3 3d a0 81 64 3d 85 7e ec 3d
       0.19805811 0.11132683 0.055787683 0.11547569
000070 04 15 b8 3d 81 d3 0c 3e ad a4 d0 bd 5d d5 07 3e
       0.089883834 0.13752557 -0.101876594 0.13264985
000080 87 25 33 3d 6c 0a 01 3d 94 c9 1b bc a7 49 41 3e
       0.04373696 0.03150408 -0.009508509 0.18875752
000090 36 db 7c 3c 45 00 63 3e 5b 75 2e 3d eb 44 18 bd
       0.015433123 0.22168072 0.042592388 -0.0371751
0000a0 2a 37 1d 3e c2 94 4f 3d 90 6f bc 3d 5f 17 30 3e
       0.15353075 0.050678976 0.09200966 0.17196415

L6.weight f4 [1, 44]
000000 bb 07 e6 bd 5d 54 3f bd 69 b3 b8 3c 56 c4 3f bd
       -0.11231943 -0.046711314 0.022546487 -0.0468181
000010 c3 21 08 bb ab d9 06 3e b2 da 51 3d 69 8a c8 3d
       -0.0020772077 0.13168971 0.051233955 0.09792025
000020 8c fc c5 bb e3 d2 b4 bd 2c 46 42 3d f1 24 e0 3c
       -0.006042069 -0.08829286 0.047430202 0.027361365
000030 5b c0 f7 bd c6 f6 53 3d 06 ff a0 3d 21 07 f1 3c
       -0.12097236 0.051749013 0.07861142 0.029422345
000040 2d 59 61 bd 65 02 a8 bc da 82 7c ba 04 7e 38 bd
       -0.055016685 -0.020508954 -0.00096325355 -0.045042053
000050 95 b5 d8 bb 45 7c ee bb 8f 06 4d 3c d5 b3 a1 3d
       -0.006613443 -0.0072779977 0.012513771 0.07895628
000060 d9 b0 0a be 82 78 8f bd 2d 31 e4 bb 7f 62 45 3d
       -0.13544025 -0.07005407 -0.00696387 0.048189636
000070 0b 59 00 3e de 56 2d 3e f5 f2 03 bc 62 7a 7b 3d
       0.12533967 0.16927668 -0.008053531 0.06139601
000080 74 e0 b0 bd a8 e2 17 bb c5 31 f5 39 8c 53 f7 bd
       -0.08636561 -0.002317587 0.00046767123 -0.12076482
000090 a7 c9 81 3d 1b 2b c0 bd 83 1f 0d bc 88 2e 17 bb
       0.0633729 -0.09383222 -0.00861347 -0.0023068506
0000a0 52 86 3f bd d2 58 69 3d f4 c8 ec bd 60 51 10 3d
       -0.046758957 0.05696947 -0.11561766 0.035233855
