Saved_Models_All_Features_Only_Simulation_Samples/target_Hardness_features_22_epochs_38.pth (torch_old, 162565 bytes, 11 tensors)

L1.weight f4 [44, 22]
0	0xbe9f2ac6	-0.3108732
1	0x3e7d9bd6	0.24766478
2	0x3ebdc34a	0.37063056
3	0x3e47ad72	0.19499758
4	0x3d35649d	0.044285405
5	0x3f0c3849	0.54773384
6	0xbe227214	-0.1586383
7	0x3ed3ebde	0.4139089
8	0x3e872858	0.26397967
9	0xbe00c9c9	-0.12576975
10	0xbd2838bc	-0.04106973
11	0xbd373377	-0.044726815
12	0xbdcbe0bb	-0.09954973
13	0x3ea29f1f	0.31762025
14	0x3e14c57f	0.14528464
15	0x3e984f14	0.29747832
16	0x3e821755	0.25408426
17	0xbe8cd65d	-0.27507296
18	0x3f0a55c3	0.5403711
19	0xbef4a74e	-0.47783893
20	0x3e0842b4	0.13306695
21	0x3d13096c	0.035897657
22	0xbe075870	-0.1321733
23	0x3e6bb5ba	0.23018542
24	0x3e708e6f	0.23491834
25	0x3f0529a9	0.52016693
26	0xbd049fce	-0.032378964
27	0x3e4f544d	0.20247002
28	0xbe0965e6	-0.13417777
29	0x3dd7f16f	0.10544097
30	0x3ec22dd9	0.37925604
31	0x3dce91dd	0.10086415
32	0xbca6624e	-0.020310547
33	0x3e40250d	0.18764134
34	0x3ddfdbab	0.1093057
35	0x3f148a59	0.580236
36	0x3bd626eb	0.006535401
37	0x3ed15f8d	0.40893212
38	0xbdbb159a	-0.091349795
39	0xbd4da6a0	-0.050207734
40	0x3ea6db04	0.3258897
41	0x3d16eb8c	0.03684573
42	0x3e35e843	0.17764382
43	0x3e981a30	0.2970748
44	0x3dd469ae	0.10371719
45	0x3f0929a8	0.5357919
46	0xbe09fbbe	-0.13474938
47	0xbd6ce10d	-0.057831813
48	0x3dd37b86	0.103262946
49	0x3d40b146	0.04704406
50	0x3dc47c14	0.095939785
51	0x3ef48c53	0.4776331
52	0x3ddf3d4e	0.10900365
53	0xbe6cf5e8	-0.23140681
54	0x3ed6b02c	0.41931283
55	0xbea8c219	-0.32960585
56	0x3df2d87c	0.11857697
57	0xbdbb412a	-0.091432884
58	0xbe8ff992	-0.28120095
59	0x3e580947	0.21097289
60	0x3d296d2c	0.04136388
61	0xbe86e814	-0.26348937
62	0xbc0c2939	-0.00855475
63	0x3e35c7d2	0.17752007
64	0x3e864454	0.26224005
65	0x3dfccb8b	0.1234351
66	0xbf2aa825	-0.6666282
67	0x3ebf859b	0.3740662
68	0x3e13fc22	0.1445165
69	0xbd7d9b61	-0.06191576
70	0x3e964aa9	0.29353836
71	0x3e0b7963	0.13620524
72	0xbc9c6be8	-0.019094422
73	0x3e5ed945	0.21762569
74	0x3ede737b	0.4344748
75	0x3e77e975	0.2421015
76	0x3e7ff552	0.24995926
77	0x3ec2fbcf	0.3808274
78	0xbe7f0487	-0.24904071
79	0x3eda0287	0.42580053
80	0x3e31ca65	0.17362364
81	0x3e8acc55	0.27109018
82	0xbe0da123	-0.13831
83	0xbf1da025	-0.61572486
84	0x3e54bb92	0.20774677
85	0xbec39807	-0.38201925
86	0xbdf3ed77	-0.11910527
87	0x3e0ee22c	0.13953465
88	0x3e8daf40	0.27672768
89	0xbe3c1c69	-0.18370213
90	0x3d9a1397	0.07523268
91	0xbcc462d6	-0.02397291
92	0xbbfdcf0a	-0.0077456282
93	0x3ca9483f	0.020664332
94	0xbe023d1c	-0.12718624
95	0x3f295e56	0.6615957
96	0x3e219792	0.15780476
97	0x3e351db9	0.1768712
98	0x3ec0c3d2	0.376494
99	0xbe54fc1e	-0.207993
100	0xbd40d494	-0.04707773
101	0xbdaea635	-0.08527795
102	0xbda15db0	-0.078791976
103	0x3efd9e08	0.4953463
104	0x3dabfd41	0.08397914
105	0xbf5902d1	-0.8476992
106	0x3e6ff17a	0.2343196
107	0xbeaa4b62	-0.33260638
108	0x3e148415	0.1450351
109	0x3ebb9257	0.36635086
110	0xbd2dff67	-0.0424799
111	0x3f0eae79	0.55734974
112	0x3f01f36d	0.50762063
113	0x3ec93cf5	0.3930432
114	0xbe4e9e20	-0.20177507
115	0x3e9546b4	0.29155505
116	0xbdc3c72c	-0.095594734
117	0x3f01c936	0.5069765
118	0x3f427e82	0.75974286
119	0x3eabf714	0.33586943
120	0x3e9f929d	0.31166545
121	0xbdd16715	-0.102247395
122	0xbc15ad62	-0.009135576
123	0x3e94ccbe	0.29062456
124	0x3ece14f9	0.40250376
125	0x3e95c429	0.2925122
126	0x3e940558	0.28910327
127	0xbe954bf2	-0.29159504
128	0x3f2856f6	0.6575769
129	0xbe2ea6cc	-0.17055815
130	0x3ed3b7c4	0.4135114
131	0x3e778642	0.24172309
132	0xbc2bfb59	-0.010496938
133	0x3ec9a044	0.39380085
134	0x3e7755d9	0.24153842
135	0x3ea1a3a9	0.31570175
136	0x3e5d0987	0.21585666
137	0x3ebbf549	0.36710575
138	0x3e4773aa	0.19477716
139	0x3eee1b22	0.46505076
140	0x3e856e56	0.26060742
141	0x3e57e5e7	0.21083795
142	0x3e2bc53f	0.16774462
143	0xbb223de7	-0.0024756135
144	0x3e70595b	0.23471586
145	0xbdc8833a	-0.097906545
146	0x3bf97685	0.0076130056
147	0x3e9ab527	0.30216333
148	0x3eee4029	0.46533325
149	0xbe676d45	-0.22600277
150	0x3e819e83	0.25316247
151	0xbdb5f999	-0.088854976
152	0x3e444719	0.19167747
153	0x3efa22e7	0.48854753
154	0x3eadf02b	0.33972296
155	0xbe73bf25	-0.23803385
156	0x3d3bb5f5	0.045827825
157	0x3d99e743	0.07514813
158	0xbcd920ef	-0.026504962
159	0xbe7a6603	-0.24452977
160	0x3e445ebe	0.19176766
161	0xbc1594f7	-0.009129754
162	0x3e8281ed	0.2548975
163	0xbdd42feb	-0.10360702
164	0x3cd3bf3c	0.025848024
165	0x3d98f8c8	0.07469326
166	0x3db79f67	0.089659505
167	0x3ea846bf	0.32866475
168	0x3f8b7751	1.0895787
169	0x3efd951c	0.49527824
170	0xbecce24e	-0.40016407
171	0xbd5538d4	-0.05205615
172	0xbdaa195e	-0.0830562
173	0xbda2a76d	-0.0794209
174	0xbd9971b6	-0.07492392
175	0xbaf204bf	-0.0018464549
176	0xbe09b26b	-0.13446967
177	0x3f01ec0a	0.5075079
178	0x3e8a26d1	0.2698274
179	0xbda365f2	-0.07978429
180	0x3deef7ef	0.11668383
181	0x3ef7f31d	0.48427668
182	0x3cea3ff0	0.02859494
183	0x3ee233be	0.441801
184	0x3f11bf09	0.5693212
185	0x3e1b7ad3	0.15183572
186	0x3d8bc4dd	0.06824658
187	0x3e1009fa	0.14066306
188	0xbdad0b3b	-0.08449408
189	0x3f049751	0.5179339
190	0xbe87a5de	-0.26493734
191	0x3f8febd1	1.124384
192	0x3f357177	0.7087626
193	0xbf02a35a	-0.51030505
194	0xbcb44fb3	-0.02201066
195	0x3ef9729b	0.4872025
196	0x3e55cada	0.20878163
197	0x3e665f61	0.22497322
198	0x3eb9b968	0.36274266
199	0x3f275ff5	0.65380794
200	0x3f03d0d1	0.51490504
201	0xbe4ab89d	-0.19796987
202	0x3f025af6	0.50920045
203	0x3e8aa30a	0.27077514
204	0xbd339530	-0.04384345
205	0xbc850ad5	-0.016240517
206	0x3f1505f5	0.58212215
207	0x3ebab035	0.3646256
208	0x3e96ec14	0.29476988
209	0xbe7b50d2	-0.24542549
210	0x3d040a1d	0.032236207
211	0x3f46250e	0.7740029
212	0x3d418310	0.04724413
213	0x3f670786	0.90245855
214	0xbeeb1a42	-0.4591847
215	0xbdaea653	-0.085278176
216	0x3d654d78	0.055982083
217	0xbe6b50e3	-0.22980075
218	0x3e532375	0.20618995
219	0x3e2b3a86	0.16721544
220	0x3e0d2f6e	0.13787624
221	0xbe60f681	-0.21969034
222	0xbf2a8c9a	-0.6662079
223	0x3e9b8ca9	0.30380753
224	0x3e8e2472	0.2776218
225	0xbee7d439	-0.452791
226	0x3c96eff8	0.018424973
227	0xbde65ee5	-0.112485684
228	0x3e2be59b	0.16786806
229	0xbe846b41	-0.25863078
230	0x3ed3b4ef	0.4134898
231	0xbe81d9d1	-0.25361493
232	0xbba57aa1	-0.005050019
233	0x3ee60be3	0.44930944
234	0x3f6717b2	0.9027053
235	0xbdb47a95	-0.08812443
236	0xbee45764	-0.44597924
237	0x3f2fd483	0.6868364
238	0x3d81d363	0.06339147
239	0xbeb67979	-0.3563955
240	0xbdc4e2ed	-0.09613595
241	0x3e321439	0.17390527
242	0x3eefe8f0	0.46857405
243	0x3dd2b19b	0.10287782
244	0x3f34be3c	0.70602775
245	0x3ea723dc	0.32644546
246	0x3ef29db0	0.4738593
247	0x3cefd1c1	0.029274823
248	0x3dfaaac0	0.12239599
249	0x3ed222be	0.4104213
250	0x3ee077ea	0.43841487
251	0x3e87cdb4	0.26524127
252	0x3e8c700f	0.27429244
253	0xbdf55ee7	-0.11980992
254	0x3eae06a0	0.3398943
255	0xbdc00f12	-0.093778744

L1.bias f4 [44]
0	0xbf83e45a	-1.0304062
1	0xbfd4de1d	-1.6630284
2	0xbf802266	-1.0010498
3	0xbf7f3dc1	-0.99703604
4	0xbf5f16d9	-0.8714424
5	0xc00e9c90	-2.2283058
6	0xbfea4c82	-1.8304598
7	0xbf737a6e	-0.9510869
8	0xbfc85a34	-1.5652528
9	0xbfa73c86	-1.3065345
10	0xbf30898a	-0.6895987
11	0xbff4e709	-1.9133006
12	0xbf9d110b	-1.2270826
13	0xbf7332d4	-0.9499943
14	0xbfad9c44	-1.3563313
15	0xbfe24d59	-1.7679855
16	0xbfc99464	-1.574841
17	0xbf7f29e9	-0.99673325
18	0xbf6d0453	-0.92584723
19	0xbf5ae315	-0.8550275
20	0xbfb33d41	-1.4003068
21	0xbf8173f4	-1.0113511
22	0xbfda2994	-1.7043939
23	0xbfd57c39	-1.6678535
24	0xbf2f60b9	-0.6850696
25	0xbfa60be3	-1.2972378
26	0xbfa242d7	-1.2676648
27	0xbfb92912	-1.4465659
28	0xbf93578e	-1.1511095
29	0xbfd96d33	-1.698645
30	0xbfd3c65d	-1.6544911
31	0xbcdb7163	-0.026787465
32	0xbfc740fa	-1.5566704
33	0xbf592833	-0.84826964
34	0xbfd3d0ba	-1.6548073
35	0xbf04a29f	-0.5181064
36	0xbf245496	-0.6419157
37	0xbfc5591b	-1.5417818
38	0xbf8eb621	-1.1149331
39	0xbf89901f	-1.0747107
40	0xbf90547d	-1.1275784
41	0xbfb5c4df	-1.4200705
42	0xbf8985d5	-1.0743967
43	0xbfba83bd	-1.4571453

L2.weight f4 [88, 44]
0	0x3de61760	0.11234927
1	0x3e01740c	0.12641925
2	0x3c908004	0.017639168
3	0xbee07ed0	-0.4384675
4	0x3e4d1007	0.20025645
5	0x3e6cfed2	0.23144081
6	0x3eaab48c	0.3334087
7	0xbe96b340	-0.29433632
8	0xbd18e931	-0.037331764
9	0xbf14672d	-0.57969934
10	0xbcc3f132	-0.023918722
11	0x3e139f2b	0.14416187
12	0x3e349694	0.17635566
13	0xbe8b2227	-0.27174494
14	0xbe237f71	-0.15966584
15	0xbe03698e	-0.12833235
16	0xbc868fe9	-0.016426044
17	0x3ddb3c9d	0.107049204
18	0xbeb2d965	-0.34931484
19	0xbeb125ec	-0.34599245
20	0x3e3e9922	0.18613103
21	0xbf5865fa	-0.84530604
22	0xbe8d4a8a	-0.2759593
23	0xbec664bb	-0.38748726
24	0xbecebca2	-0.4037829
25	0xbef94ad5	-0.48689905
26	0xbf0da99e	-0.5533694
27	0x3d392a25	0.045206208
28	0xbdc4eef5	-0.0961589
29	0xbdf467e7	-0.1193388
30	0x3e49e59d	0.19716497
31	0xbf1dd301	-0.6165009
32	0xbec7b748	-0.3900702
33	0xbd8ea8f4	-0.06965819
34	0xbe5145a4	-0.20436722
35	0xbe14c4d9	-0.14528216
36	0xbe1cfa05	-0.1532975
37	0xbeae611a	-0.34058458
38	0x3e7a66ea	0.24453321
39	0xbea5de62	-0.32396227
40	0x3e43ea51	0.19132353
41	0xbe43007d	-0.19043155
42	0xbecb1ef4	-0.39672053
43	0x3ea4583f	0.32098576
44	0x3e1225e7	0.14272271
45	0xbf0055cb	-0.5013091
46	0xbd59e75d	-0.05319916
47	0xbf3f132a	-0.7463862
48	0xbc854b36	-0.016271215
49	0xbe81dc7a	-0.25363523
50	0x3ea6ffbd	0.32616988
51	0xbe9ca7f2	-0.30596882
52	0x3c4da1fe	0.012550829
53	0xbf1778a1	-0.5916844
54	0xbf22e6e6	-0.63633573
55	0xbf2e82f4	-0.6816857
56	0xbe45c81e	-0.1931462
57	0xbfe8c2a1	-1.8184396
58	0xbf74b602	-0.9559022
59	0xbee804ae	-0.4531607
60	0xbe430f16	-0.19048724
61	0x3eada1c0	0.33912468
62	0xbf1cf95e	-0.61318004
63	0xbf133696	-0.57505167
64	0xbe85ba02	-0.26118475
65	0x3f0f6b4e	0.5602311
66	0xbf18a221	-0.5962239
67	0xbd52fa43	-0.0515082
68	0x3d0f1e32	0.034940906
69	0xbebf2e9e	-0.37340254
70	0xbec22c5c	-0.3792447
71	0xbec858d1	-0.39130262
72	0xbf048d5a	-0.51778185
73	0x3e63d0b7	0.22247587
74	0x3dc11561	0.09427906
75	0xbf4b3f3a	-0.7939335
76	0xbe859538	-0.26090407
77	0xbdaac105	-0.08337597
78	0xbf16e687	-0.58945507
79	0xbf9c4fd0	-1.2211857
80	0xbf60416b	-0.8759982
81	0xbe84da83	-0.2594796
82	0xbf3d1fca	-0.7387663
83	0x3e36fe30	0.17870402
84	0xbdc29e74	-0.09502879
85	0xbe5fe378	-0.21864116
86	0xbd848b4d	-0.06471882
87	0xbe7d7f03	-0.24755482
88	0xbe43d01a	-0.19122353
89	0xbd979d2c	-0.07403025
90	0xbd3d2991	-0.04618222
91	0xbea62046	-0.32446498
92	0xbe9c7532	-0.30558163
93	0xbecfcc11	-0.40585378
94	0xbd61fc51	-0.05517227
95	0xbe4c9b43	-0.19981103
96	0x3d9df383	0.07712462
97	0xbece23b8	-0.40261626
98	0xbf08f13a	-0.5349308
99	0xbf0b2d34	-0.5436585
100	0xbdca2e5d	-0.09872124
101	0xbf205046	-0.6262249
102	0xbf5baa44	-0.8580668
103	0xbd9c4530	-0.07630384
104	0xbe648e53	-0.22319917
105	0xbe312cc5	-0.17302234
106	0xbeddba7e	-0.43306345
107	0x3dd57b71	0.10423935
108	0xbe51c942	-0.2048693
109	0xbe5f4c65	-0.21806486
110	0xbe62f638	-0.22164237
111	0xbea94e56	-0.33067578
112	0xbecef724	-0.40422928
113	0xbf92d763	-1.1471981
114	0xbea2c260	-0.3178892
115	0xbf28e328	-0.6597161
116	0xbf31708d	-0.69312364
117	0xbe7d6322	-0.24744847
118	0xbeaecf79	-0.34142664
119	0xbec17820	-0.3778696
120	0xbe48753c	-0.19575971
121	0xbf06949a	-0.525705
122	0xbed34498	-0.4126327
123	0xbf7b89e0	-0.98257256
124	0xbf1a981c	-0.6038835
125	0xbef5ae24	-0.4798442
126	0xbf2b779b	-0.6697938
127	0xbd80f6c9	-0.062970705
128	0xbe9c6039	-0.30542162
129	0xbef666b9	-0.48125246
130	0xbfa71dec	-1.3056006
131	0xbf3fd09f	-0.74927706
132	0xbd21964c	-0.039449975
133	0x3c91abfb	0.017782202
134	0xbc322142	-0.010872187
135	0xbf2a53b5	-0.66533977
136	0xbd8c5048	-0.0685125
137	0x3e981984	0.29706967
138	0x3ec3a89f	0.38214585
139	0xbedb1a4e	-0.42793506
140	0xbdf5e873	-0.12007227
141	0x3d10d233	0.03535671
142	0x3d25e97f	0.040505882
143	0x3d91a6c5	0.07111887
144	0x3e8534e3	0.26016912
145	0xbf0d9f37	-0.5532107
146	0xbd9f211a	-0.077699855
147	0xbe65bee4	-0.224361
148	0xbe0a676a	-0.13516012
149	0x3de9faec	0.11424813
150	0xbe2a25a2	-0.16615918
151	0xbdeb0a30	-0.114765525
152	0x3ee3ae7f	0.44469067
153	0xbf2b264f	-0.6685533
154	0xbe42bbff	-0.19017027
155	0x3d44b81e	0.04802715
156	0xbf63554a	-0.88802016
157	0xbe3c9f37	-0.1842011
158	0xbe319eb7	-0.17345701
159	0xbcba9064	-0.022773929
160	0xbd980da4	-0.07424477
161	0xbbde66b4	-0.0067871455
162	0xbd956048	-0.07293755
163	0xbf463725	-0.77427894
164	0xbe83ffb9	-0.25781038
165	0x3ec3e86d	0.38263264
166	0xbe3b0ab2	-0.18265799
167	0x3c3b1a1d	0.0114198
168	0xbed1afaa	-0.40954334
169	0xbd20f8b4	-0.03929968
170	0x3e1f92a0	0.15583277
171	0x3e6cbafa	0.23118201
172	0xbd8bf08b	-0.06832989
173	0xbe48c552	-0.19606522
174	0xbf1a95e1	-0.6038495
175	0x3dd5c425	0.10437802
176	0x3e42a959	0.19009914
177	0xbd5003fd	-0.050785054
178	0xbf0c25c9	-0.54745156
179	0x3e4868c1	0.1957121
180	0xbdb8d7d6	-0.090255424
181	0xbe589422	-0.21150258
182	0xbea20fdd	-0.31652728
183	0x3e329cd1	0.17442633
184	0x3e837edd	0.25682727
185	0xbec57e36	-0.38572854
186	0xbd493d20	-0.04913056
187	0x3e5710f3	0.2100256
188	0x3e842259	0.25807455
189	0xbec759f5	-0.3893582
190	0xbd2628e8	-0.040566355
191	0x3caea6f8	0.021319851
192	0x3cdf625f	0.027268587
193	0x3dda2dec	0.1065329
194	0xbee27440	-0.44229317
195	0xbe39c6ec	-0.18142289
196	0xbbb8684e	-0.0056276685
197	0xbdd638d8	-0.10460061
198	0x3e16b3ac	0.14716977
199	0x3e5be28f	0.21473144
200	0xbe1e0a7a	-0.15433684
201	0x3da2b468	0.07944566
202	0xbedde73d	-0.43340483
203	0x3e878dd5	0.26475397
204	0xbf3636fd	-0.71177655
205	0x3e8ea06c	0.27856767
206	0xbe1f4613	-0.15554075
207	0xbf0a8a7e	-0.5411757
208	0x3e003f8d	0.12524243
209	0x3eed3b3c	0.46334255
210	0xbe57917c	-0.21051592
211	0xbe163d2b	-0.14671771
212	0xbeb7bfc9	-0.35888508
213	0xbde4fb93	-0.111807965
214	0x3d81135d	0.063025214
215	0x3e42293f	0.18961047
216	0x3e2586ed	0.16164751
217	0x3ec35204	0.3814851
218	0x3ede17f4	0.4337765
219	0xbb854102	-0.0040665874
220	0xbf1b949d	-0.6077364
221	0xbdb0f364	-0.08640173
222	0x3eb1ea18	0.34748912
223	0xbeb810a1	-0.35950187
224	0x3d1aed62	0.037824042
225	0xbf3c2547	-0.7349438
226	0x3b2fb196	0.002680873
227	0xbe17fe84	-0.14843184
228	0xbf2f1144	-0.6838572
229	0xbe896098	-0.26831508
230	0xbea9bf61	-0.33153823
231	0xbe4f56ca	-0.20247951
232	0x3e0f022d	0.13965674
233	0xbf76a789	-0.9634939
234	0xbe80f5ce	-0.25187534
235	0x3e8bed79	0.27329615
236	0xbe8b1373	-0.27163276
237	0xbe190d2a	-0.14946428
238	0xbe340031	-0.17578198
239	0x3c89e7de	0.016834196
240	0xbe6353d0	-0.2219994
241	0xbef9cc9c	-0.48788917
242	0xbeffb48b	-0.4994243
243	0xbef97983	-0.4872552
244	0xbf1bee68	-0.60910654
245	0xbfadea66	-1.3587158
246	0xbf717955	-0.94325763
247	0x3def4b56	0.11684291
248	0xbf1d90b8	-0.6154895
249	0xbf1e2cc5	-0.6178706
250	0xbf0d1d1e	-0.55122554
251	0x3c9413a4	0.018075772
252	0xbfa8ce9f	-1.3188056
253	0xbf4f033a	-0.808643
254	0x3eadc1fa	0.33937055
255	0xbe27846b	-0.16359107

L2.bias f4 [88]
0	0xbf58122b	-0.8440272
1	0xbf53c208	-0.82717943
2	0xbf82603c	-1.0185618
3	0xbecdb07d	-0.40173712
4	0xbf198e67	-0.59982914
5	0xbfaf1619	-1.3678619
6	0xbf7bbf41	-0.98338705
7	0xbeaa9c63	-0.3332244
8	0xbe837871	-0.25677827
9	0xbf2c1ffc	-0.67236304
10	0xbf2d5a2c	-0.67715716
11	0xbf0be0be	-0.54639804
12	0xbe9967a7	-0.29961893
13	0xbf2253c0	-0.6340904
14	0xbf8b826c	-1.0899177
15	0xbe7dc31d	-0.24781461
16	0xbeb50bef	-0.35360667
17	0xbf1c26d3	-0.6099674
18	0xbfa5d883	-1.2956699
19	0xbf2da618	-0.67831564
20	0xbf7f2f11	-0.9968119
21	0xbf2b4446	-0.6690105
22	0xbea718ba	-0.32636052
23	0xbf73ec49	-0.9528242
24	0xbf6e83d6	-0.93169916
25	0xbf003ad3	-0.5008976
26	0xbe2ae818	-0.16690099
27	0xbe3ecb79	-0.18632306
28	0xbe51f303	-0.20502858
29	0xbeac4250	-0.33644342
30	0xbd811610	-0.06303036
31	0xbe240f42	-0.16021445
32	0xbf602f4f	-0.8757219
33	0xbf39e095	-0.7260831
34	0x3ecd0905	0.40045944
35	0xbf4dc911	-0.8038493
36	0x3eecdc75	0.46261945
37	0xbf3570fb	-0.7087552
38	0x3f000e87	0.50022167
39	0xbdaa54be	-0.083169445
40	0x3e9afaac	0.30269372
41	0xbf848460	-1.0352898
42	0xbf389caa	-0.7211405
43	0xbf6435a7	-0.89144367
44	0xc006a9f9	-2.1041243
45	0xbf37bdb7	-0.71773857
46	0xbe99a18d	-0.30006066
47	0xbcb010e9	-0.021492438
48	0xbecb7e56	-0.39744824
49	0xbfbd3555	-1.4781901
50	0xbf5a2aab	-0.85221356
51	0xbe7dac4f	-0.24772762
52	0xbf486800	-0.7828369
53	0xbf73f6e7	-0.9529862
54	0xbe47dc07	-0.19517528
55	0xbf40b2b2	-0.7527267
56	0xc0113b76	-2.2692542
57	0xbfc79757	-1.559306
58	0xbf46296e	-0.77406967
59	0xbeaa6441	-0.33279613
60	0xbfa19d09	-1.2626048
61	0xbdbf0d1f	-0.093286745
62	0xbe1d93ad	-0.15388365
63	0xbf0a23db	-0.5396096
64	0xbf097a8c	-0.53702617
65	0xbe1c13ca	-0.15241924
66	0xbf571770	-0.8402014
67	0xbee1e14f	-0.4411721
68	0xbee7f39c	-0.45303047
69	0xbf4622f0	-0.7739706
70	0xbf4c9520	-0.79915047
71	0x3ca3849f	0.0199607
72	0xbf28e67b	-0.65976685
73	0x3e2e8ea9	0.17046608
74	0x3e86f844	0.26361287
75	0xbea439f1	-0.32075456
76	0xbea103f8	-0.3144834
77	0xbfc7ea55	-1.5618387
78	0xbf75da5b	-0.9603631
79	0xbe88c004	-0.26708996
80	0xbec7ac49	-0.3899863
81	0xbf5e6c4a	-0.86883986
82	0xbf147475	-0.579902
83	0xbec84dcf	-0.39121863
84	0xbf2c7daf	-0.6737928
85	0x3dbf365c	0.0933654
86	0xbf16e5e1	-0.5894452
87	0x3ddac668	0.10682374

L3.weight f4 [176, 88]
0	0x3e330fe1	0.17486526
1	0xbd35f3c2	-0.04442192
2	0xbc21313f	-0.009838401
3	0x3ad24049	0.0016040887
4	0x3f1444f0	0.5791769
5	0xbefcdfce	-0.493895
6	0xbe87887c	-0.26471317
7	0x3e628773	0.22121982
8	0x3e22f22d	0.15912695
9	0xbebe122b	-0.37123236
10	0xbee8e05d	-0.45483676
11	0xbe7f521c	-0.24933666
12	0xbf159995	-0.5843747
13	0xbf418c22	-0.7560445
14	0x3e79d11b	0.24396174
15	0xbf01433c	-0.50493217
16	0x3e0be869	0.13662876
17	0x3eb1a085	0.3469278
18	0xbf277790	-0.6541681
19	0x3ed9befc	0.42528522
20	0xbeb3aa7e	-0.35091013
21	0x3e7b98dc	0.2457003
22	0x3f21c4f8	0.63191175
23	0xbb18b150	-0.0023299046
24	0x3dce74d3	0.10080876
25	0xbfc14783	-1.5099949
26	0xbf1842b6	-0.5947679
27	0x3f0789ed	0.52944833
28	0xbd69615e	-0.056977622
29	0xbe486304	-0.19569021
30	0xbdc2cab7	-0.09511321
31	0xbf381bb0	-0.7191725
32	0xbe31d1cf	-0.17365192
33	0x3e31cd22	0.17363408
34	0xbc54bcf7	-0.012984506
35	0x3e016445	0.12635906
36	0x3f0873d0	0.53301716
37	0x3efa9641	0.4894276
38	0x3eb5fe72	0.3554569
39	0xbdcb84b9	-0.09937424
40	0xbe8d76d7	-0.2762973
41	0xbe5506cf	-0.20803379
42	0xbd7db7af	-0.061942752
43	0xbebba139	-0.3664644
44	0x3f161343	0.5862314
45	0x3f83b6a6	1.0290115
46	0xbea2aaa8	-0.31770825
47	0xbf640aab	-0.8907878
48	0x3ecf9c68	0.40549016
49	0xbf2bdd4d	-0.67134553
50	0x3f367cad	0.7128399
51	0xbf0cb905	-0.5496982
52	0x3dc66196	0.09686582
53	0xbecedba8	-0.4040196
54	0xbd2a0c9f	-0.041515943
55	0x3f4a1b3b	0.789478
56	0x3e021357	0.1270269
57	0x3e95dd59	0.29270437
58	0xbf016620	-0.50546455
59	0x3da18a6a	0.078877285
60	0x3e923dbe	0.2856273
61	0xbf5c34c2	-0.86018
62	0x3f3c17a6	0.73473585
63	0x3dac102e	0.084015235
64	0xbe9d3b5a	-0.30709344
65	0xbe1f5e15	-0.15563233
66	0xbf27d15d	-0.6555384
67	0x3e786767	0.24258195
68	0xbf1da6f7	-0.61582893
69	0xbf080a34	-0.5314057
70	0xbe467a1a	-0.19382516
71	0x3e57409d	0.21020742
72	0xbdbe6aa8	-0.09297687
73	0xbf9288c7	-1.1447991
74	0x3e741383	0.23835568
75	0x3e5fd9c5	0.21860416
76	0xbea32212	-0.3186193
77	0xbe297b35	-0.16550906
78	0xbe51bc7f	-0.20482062
79	0x3de075d9	0.10959978
80	0xbf5db2e8	-0.86601114
81	0xbd58a471	-0.0528912
82	0xbef75bb7	-0.4831216
83	0xbf24ced5	-0.643781
84	0xbe7a8d42	-0.24467948
85	0xbf184220	-0.594759
86	0x3ed020e7	0.40650102
87	0xbe2b308b	-0.16717736
88	0x3f85012a	1.039098
89	0x3f0d71f6	0.55252016
90	0x3e106bba	0.14103594
91	0xbe073367	-0.13203202
92	0xbe432624	-0.19057518
93	0x3e2c2390	0.16810441
94	0xbe12689d	-0.1429772
95	0x3eaac76e	0.33355278
96	0x3f1712c1	0.5901299
97	0xbe429913	-0.19003706
98	0xbe1fa5a7	-0.15590535
99	0x3f982f8c	1.188951
100	0xbf1a3f77	-0.6025309
101	0x3d32a6e2	0.043616183
102	0xbf0a5c35	-0.54046947
103	0xbf2cef47	-0.6755261
104	0xbe611ab6	-0.21982846
105	0x3f1aee60	0.6051998
106	0xbcb95f2f	-0.022628395
107	0x3f1c62c0	0.6108818
108	0xbf1a87c1	-0.60363394
109	0xbec11775	-0.3771321
110	0xbed0a9fa	-0.40754682
111	0xbd8906ec	-0.06690773
112	0x3f5682be	0.83793247
113	0xbd706eec	-0.058699533
114	0xbed8a585	-0.4231378
115	0xbed7196d	-0.42011586
116	0xbecf7ef8	-0.40526557
117	0xbe9557a5	-0.2916843
118	0xbe4ed117	-0.20196949
119	0xbe86abb7	-0.26302883
120	0xbe2f73e8	-0.17134058
121	0xbebc3594	-0.36759627
122	0xbe9be151	-0.3044534
123	0xbf08bca7	-0.5341286
124	0xbf1f0f62	-0.6213285
125	0x3cab3d0f	0.020903138
126	0xbbb16207	-0.005413297
127	0xbe12a73d	-0.14321609
128	0xbe80bdd1	-0.25144818
129	0xbec44e62	-0.3834105
130	0x3e7db786	0.2477704
131	0xbef8c8f9	-0.4859083
132	0x3d13a0ed	0.036042143
133	0xbeff33b9	-0.4984415
134	0xbea606c8	-0.3242705
135	0xbeab6aad	-0.33479825
136	0x3edf4f82	0.43615347
137	0x3fa2e716	1.2726772
138	0xbeb2a9dc	-0.34895217
139	0x3e31e4fd	0.17372508
140	0x3f34580b	0.7044684
141	0xbe1ca23f	-0.15296267
142	0xbf07c6b5	-0.5303758
143	0xbe7463f8	-0.2386626
144	0xbe955aee	-0.29170936
145	0x3e043a7d	0.12912937
146	0xbdfc334c	-0.123144716
147	0xbf163c85	-0.58686095
148	0x3fdb51f2	1.7134383
149	0xbe5d2b59	-0.21598567
150	0xbdd39e37	-0.103329115
151	0xbf66a671	-0.9009772
152	0x3d120c7b	0.035656434
153	0xbdb2b851	-0.08726562
154	0xbe17b935	-0.14816745
155	0xbefd5867	-0.49481508
156	0xbd787f38	-0.0606682
157	0xbf844ac8	-1.0335321
158	0xbda8961a	-0.082317546
159	0xbf652073	-0.8950264
160	0x3d6f410c	0.058411643
161	0xbf105554	-0.563802
162	0x3ac011ff	0.0014653801
163	0xbd00834b	-0.03137521
164	0x3deace2e	0.11465107
165	0xbede78e5	-0.4345161
166	0x3e9a179b	0.30096135
167	0xbe8df222	-0.27723795
168	0xbe673d90	-0.22582078
169	0xbe87f6a4	-0.2655536
170	0xbee136f3	-0.43987235
171	0xbcd7577e	-0.026286837
172	0xbbef2c30	-0.0072989687
173	0xbe41091a	-0.18851128
174	0xbbc4adb1	-0.006002151
175	0xbdb713ee	-0.08939348
176	0x3d812f55	0.06307856
177	0x3dba40da	0.09094401
178	0xbe95bfeb	-0.29247984
179	0xbf10b8d2	-0.56532013
180	0xbdc6c5ee	-0.09705721
181	0x3f50b3e7	0.8152451
182	0xbc01fec0	-0.007934272
183	0xbea70bbd	-0.32626143
184	0xbdd40613	-0.10352721
185	0xbe0339be	-0.12814996
186	0x3e110888	0.1416341
187	0x3eea247b	0.45730957
188	0xbd8c5d4e	-0.06853734
189	0x3dce7f9b	0.100829326
190	0x3ed5ed8b	0.41782793
191	0x3e15986d	0.14608927
192	0xbdf8bb49	-0.12145097
193	0x3f1f0601	0.62118536
194	0xbe1b66f7	-0.15175997
195	0xbdecca85	-0.11562065
196	0x3f4d192e	0.80116546
197	0xbebec2f6	-0.37258118
198	0x3ec5e835	0.38653722
199	0x3f88a61b	1.0675691
200	0x3e2c32a2	0.1681619
201	0x3f31bf1b	0.6943223
202	0x3d2e6a9c	0.04258214
203	0xbdc9a156	-0.098452255
204	0x3e3d4518	0.18483388
205	0x3ebf07f1	0.37310746
206	0xbf00a89b	-0.5025727
207	0xbee5dece	-0.4489655
208	0xbe1d8b6e	-0.1538522
209	0x3f501262	0.8127805
210	0xbd271049	-0.040787015
211	0x3f86fc68	1.0545778
212	0xbf06fd14	-0.52729917
213	0xbe7c4ea0	-0.24639368
214	0xbd898e82	-0.06716634
215	0xbe0ed40b	-0.13948075
216	0xbdd2e3ff	-0.10297393
217	0x3f83594c	1.0261626
218	0x3e950ac0	0.29109764
219	0xbe7185c5	-0.23586185
220	0x3c01ee6b	0.007930378
221	0xbedc2ba9	-0.4300206
222	0x3e5c543a	0.21516505
223	0xbd4ce974	-0.050027326
224	0xbc225f3f	-0.009910404
225	0x3f6003d9	0.8750587
226	0x3bf70c8b	0.007539337
227	0xbe37b6fc	-0.17940897
228	0x3e8ba53a	0.27274495
229	0x3d5221b3	0.05130167
230	0x3d59abfd	0.053142536
231	0xbebc34a8	-0.36758924
232	0x3f88af0f	1.0678424
233	0x3f51e120	0.8198414
234	0xbe1b637b	-0.15174668
235	0xbf1638e5	-0.58680564
236	0x3fe11da0	1.7587166
237	0xbe7f52a3	-0.24933867
238	0x3ecc74f8	0.3993299
239	0x3f838788	1.0275736
240	0x3ea39c34	0.3195511
241	0xbe384d73	-0.17998295
242	0xbe06c82e	-0.131623
243	0x3eff677b	0.49883637
244	0x3e1308cc	0.14358824
245	0x3eca42a0	0.39503956
246	0x3e9ed254	0.31019843
247	0xbe931e12	-0.2873388
248	0xbbce3685	-0.0062931203
249	0xbe8aa16e	-0.27076286
250	0xbe835c4b	-0.2565635
251	0xbdf9bcb9	-0.12194199
252	0xbf72028f	-0.94535154
253	0xbe642394	-0.22279197
254	0xbe673d71	-0.22582032
255	0xbf35c02e	-0.7099637

L3.bias f4 [176]
0	0xbc02b0f9	-0.007976764
1	0xbf2836e5	-0.6570876
2	0xbf87beec	-1.060514
3	0xbfe988ab	-1.8244833
4	0xbf328f66	-0.6975006
5	0xbf993dc8	-1.1971979
6	0xbf206d23	-0.6266653
7	0xbfa99497	-1.3248471
8	0xbfc773e0	-1.5582237
9	0xbf23cadd	-0.6398142
10	0xbe0f61f0	-0.14002204
11	0xbfcbc7f9	-1.5920402
12	0xbf660dc9	-0.89864784
13	0xbe5abd3f	-0.21361254
14	0xbf3a4e85	-0.7277606
15	0xbe7c8422	-0.2465978
16	0xbf4528ac	-0.77015185
17	0xbf60e27c	-0.8784559
18	0xbed400a4	-0.4140674
19	0xbec1012a	-0.376962
20	0xbf29d307	-0.6633763
21	0x3e505309	0.20344175
22	0xbfcd091c	-1.6018405
23	0xbf10e4b5	-0.5659898
24	0xbf91e58a	-1.1398175
25	0xbfb1b470	-1.388319
26	0xbf338aeb	-0.70133847
27	0xbfabbb16	-1.3416469
28	0xbfb91e0f	-1.4462298
29	0xbf54d5b6	-0.83138597
30	0xbf3aeb67	-0.73015445
31	0xbf5a55ad	-0.8528698
32	0xbf9d7e80	-1.230423
33	0xbe818c33	-0.25302276
34	0xbee6e08a	-0.45093185
35	0xbf9604ce	-1.1720216
36	0x3d17999d	0.03701173
37	0xbd9d4b40	-0.076803684
38	0xbfa60aae	-1.2972009
39	0xbf552877	-0.8326487
40	0xbf1360fc	-0.5756986
41	0x3ec45cd0	0.3835206
42	0xbfbfb905	-1.4978338
43	0xbfc34ef5	-1.5258471
44	0xbfbfaff2	-1.4975569
45	0xbf0459ce	-0.5169953
46	0xbd8d442a	-0.06897767
47	0xbfb583e8	-1.418088
48	0xbcf7f764	-0.030269332
49	0xbfb96421	-1.4483682
50	0xbfdc861f	-1.722843
51	0xbeff4352	-0.4985605
52	0xbf802ae7	-1.0013093
53	0xbf4b38d8	-0.7938361
54	0xbf807147	-1.003457
55	0xbfa37a9a	-1.277179
56	0xbf32084d	-0.69543916
57	0xbf50eb73	-0.81609267
58	0xbea26f48	-0.31725526
59	0x3f0f4f71	0.5598059
60	0xbf8199b3	-1.012503
61	0xbf711d2e	-0.9418515
62	0xbe741a26	-0.238381
63	0xbfa393fb	-1.2779535
64	0x3e9861f4	0.29762232
65	0xbfa2472c	-1.267797
66	0x3eaf4337	0.34230968
67	0xbf253435	-0.64532787
68	0xbf6feebf	-0.9372367
69	0xbf26614f	-0.6499223
70	0xbeebd370	-0.46059752
71	0xbfc8ce4d	-1.5687958
72	0xbe5ede1d	-0.21764417
73	0xbee7df15	-0.45287386
74	0xbf7973ff	-0.9744262
75	0xbf5dc642	-0.8663064
76	0x3eef43ce	0.46731418
77	0x3e38a880	0.18033028
78	0xbf84cdea	-1.037534
79	0x3cefa25c	0.029252224
80	0xbfb46679	-1.4093772
81	0x3f434689	0.76279503
82	0x3e4a3560	0.19746923
83	0xbf6a6161	-0.9155484
84	0xbf9b1afe	-1.2117612
85	0xbd713189	-0.05888513
86	0xbfad77f9	-1.3552238
87	0xbfadbf8d	-1.3574082
88	0xbfa8beae	-1.3183191
89	0xbf7b4eb3	-0.9816696
90	0xbfa75246	-1.3071983
91	0xbf6ad10c	-0.9172523
92	0xbdfab2f0	-0.12241161
93	0xbf98c9cb	-1.1936582
94	0xbf8f442d	-1.1192681
95	0xbf1d0479	-0.6133495
96	0xbed2024a	-0.4101737
97	0xbf27f225	-0.6560386
98	0xbf902a9d	-1.1263005
99	0x3e4eb82f	0.20187448
100	0x3e8d9ff7	0.27661106
101	0x3f88e167	1.0693787
102	0xbfab52b1	-1.338461
103	0xbf4008af	-0.7501325
104	0xbec47b8f	-0.38375518
105	0xbfb731fa	-1.4312127
106	0x3ee5d83b	0.44891533
107	0xbe9fd35b	-0.3121594
108	0xbfb11ad5	-1.3836313
109	0xbf8c513a	-1.0962288
110	0xbf491779	-0.7855144
111	0xbec6fc28	-0.38864255
112	0xbe79aa8b	-0.24381463
113	0xbf9d7972	-1.2302687
114	0xbfbd3eb3	-1.4784759
115	0xbf72aae3	-0.94792
116	0xbe7b1e75	-0.24523337
117	0xbf4471be	-0.76736057
118	0xbe5e030a	-0.21680847
119	0xbfbf7a42	-1.4959185
120	0xbe2a8a99	-0.16654433
121	0xbf76a9bb	-0.9635274
122	0xbe81e93c	-0.25373256
123	0xbf5c8898	-0.86145926
124	0x3f1957fe	0.5989989
125	0xbfa099c9	-1.2546932
126	0xbf37599b	-0.716211
127	0xbf294990	-0.6612787
128	0xbf27c4d4	-0.6553471
129	0xbeccb3e4	-0.39980996
130	0xbd68efd3	-0.05686934
131	0xbf91705d	-1.1362416
132	0xbf947175	-1.1597124
133	0xbe13196b	-0.14365165
134	0xbf3581d4	-0.70901227
135	0xbf345df4	-0.7045586
136	0xbf0df4ef	-0.55451864
137	0xbf82d1c7	-1.0220269
138	0xbdde8e02	-0.108669296
139	0xbf5a42a9	-0.85257965
140	0x3ebc20aa	0.3674367
141	0xbff6f99b	-1.9294924
142	0xbf15c39d	-0.5850161
143	0xbf74b0b3	-0.9558212
144	0xbf26901c	-0.65063643
145	0xbf60192b	-0.87538403
146	0x3e135ec9	0.14391626
147	0xbfa32cf5	-1.2748095
148	0xbf534af0	-0.8253622
149	0xbeb80da7	-0.35947916
150	0xbf2afd34	-0.6679261
151	0xbf204ff6	-0.6262201
152	0xbf9665ad	-1.1749779
153	0xbf7127eb	-0.94201535
154	0xbf791f53	-0.9731342
155	0xbf4e43f9	-0.8057247
156	0xbf1c9ae4	-0.61173844
157	0xbfa2e8bf	-1.2727278
158	0xbfbd7b04	-1.4803166
159	0xbf5df8e5	-0.8670791
160	0xbfa2fb9f	-1.2733039
161	0x3df3e685	0.119092025
162	0x3e74533e	0.2385988
163	0xbf25134a	-0.6448256
164	0xbf7e7694	-0.99399686
165	0xbf56571d	-0.83726674
166	0xbe137d1d	-0.14403196
167	0xbfb36e87	-1.4018105
168	0xbfa9bb13	-1.3260216
169	0xbf6a4d94	-0.91524625
170	0xbfa4cdf2	-1.287535
171	0xbfd7c045	-1.6855551
172	0xbedaa571	-0.42704347
173	0xbe9fdf06	-0.3122484
174	0xbfcad43a	-1.5846016
175	0xbf4482d9	-0.7676216

L4.weight f4 [88, 176]
0	0xbf2287be	-0.63488376
1	0xbdb4db36	-0.08830874
2	0x3eb81e33	0.3596054
3	0xbf44b2e9	-0.76835495
4	0xbd39d37d	-0.045367707
5	0xbd829728	-0.06376487
6	0x3f4b346e	0.79376876
7	0x3f3640bb	0.7119252
8	0x3f0b2bc9	0.54363686
9	0x3dd73745	0.10508589
10	0x3d46bd1c	0.048520193
11	0x3f5052d6	0.813764
12	0x3e39cc0e	0.18144247
13	0x3e2ff0f2	0.17181757
14	0x3f322d08	0.6959996
15	0xbd277398	-0.040881723
16	0x3f26d7cd	0.65173036
17	0xbe1676e1	-0.14693786
18	0x3f838a04	1.0276494
19	0x3e69f05b	0.22845595
20	0xbd8d36a5	-0.06895188
21	0x3e2ad4f0	0.16682792
22	0x3f12f8dc	0.5741098
23	0xbe014363	-0.12623362
24	0x3ea8925a	0.32924157
25	0x3e25d004	0.16192633
26	0x3ea2df46	0.3181097
27	0x3f7282c1	0.94730765
28	0x3f3fea66	0.7496704
29	0xbe942742	-0.289362
30	0x3e7ebb55	0.24876149
31	0x3cb1b255	0.02169148
32	0x3d9a5088	0.07534891
33	0x3eb44d19	0.3521507
34	0x3ec2cab9	0.3804529
35	0xbca4c7ac	-0.020114742
36	0x3f0fad15	0.5612348
37	0xbe11a496	-0.14222941
38	0x3f6a79ad	0.9159191
39	0x3f1cd806	0.61267126
40	0x3dafe409	0.08588416
41	0x3eb7af85	0.35876098
42	0x3f6ad769	0.9173494
43	0x3eb3e6c7	0.35137007
44	0x3e98f4e0	0.29874325
45	0xbecc4ad0	-0.39900827
46	0x3ee5c12f	0.4487395
47	0xbeb64d19	-0.35605696
48	0x3e48d990	0.19614244
49	0x3f23aa90	0.6393213
50	0x3f2c399b	0.672754
51	0xbec9b30e	-0.3939442
52	0x3e4987bc	0.19680685
53	0x3eac9c8a	0.3371318
54	0xbdfb6f57	-0.12277096
55	0x3eb7f3cb	0.35928187
56	0xbf2684f6	-0.6504663
57	0x3f04eebe	0.5192679
58	0x3f1634f0	0.58674526
59	0x3e38b4ac	0.18037671
60	0x3e6e2c0b	0.23258989
61	0xbcfd59d1	-0.030926617
62	0x3e137540	0.14400196
63	0x3f440494	0.76569486
64	0xbf1e898e	-0.6192864
65	0x3d1f5fc6	0.038909696
66	0x3e505ccd	0.203479
67	0xbec223aa	-0.37917835
68	0xbef36c04	-0.47543347
69	0xbec6c412	-0.38821465
70	0x3e3dae77	0.18523584
71	0x3f6ffacb	0.93742055
72	0xbd4464c7	-0.04794767
73	0xbeede491	-0.46463445
74	0x3f1c2493	0.6099331
75	0xbe695e53	-0.22789888
76	0xbdaee6b0	-0.08540094
77	0xbb285ec2	-0.0025691246
78	0xbb61d2bd	-0.0034457885
79	0x3ea80af1	0.32820848
80	0x3f0ec44f	0.55768293
81	0x3f444f28	0.7668328
82	0xbe98dd8b	-0.29856524
83	0xbe1d46f9	-0.15359105
84	0x3e3ecbd2	0.18632439
85	0xbe939beb	-0.28829893
86	0x3f36dfba	0.7143513
87	0x3e94b2bd	0.29042616
88	0x3f3a073e	0.726673
89	0xbe4027f2	-0.18765238
90	0xbeacfbbb	-0.33785805
91	0x3f1edd4f	0.6205644
92	0x3cfbc204	0.030732162
93	0x3ec6eec8	0.3885405
94	0x3f58ea64	0.8473265
95	0x3f4fa438	0.8110995
96	0x3f0d36f2	0.55161965
97	0x3e2df552	0.16988114
98	0x3f28cf02	0.6594087
99	0xbe5956b8	-0.21224487
100	0xbf253d49	-0.6454664
101	0x3ec4ae09	0.38414028
102	0x3e57178e	0.21005079
103	0xbf3c3fa5	-0.73534614
104	0xbe584511	-0.21120097
105	0x3ee38597	0.44437858
106	0xbf2f5ab1	-0.6849776
107	0xbe22ef38	-0.15911567
108	0x3f75fe60	0.9609127
109	0x3de58eac	0.11208853
110	0x3f21d4a5	0.63215095
111	0x3dcf57a9	0.10124142
112	0x3e42e109	0.19031157
113	0xbf1227ec	-0.57092166
114	0x3f30fb17	0.6913313
115	0xbe5237e9	-0.2052914
116	0xbc006d8a	-0.007838616
117	0x3c2f3d4b	0.010695766
118	0x3f29d487	0.66339916
119	0x3f29b5d8	0.66293097
120	0xbe997674	-0.29973185
121	0x3f39314c	0.72340846
122	0x3eae7552	0.34073883
123	0x3ea70933	0.32624206
124	0x3e7b4ca5	0.24540956
125	0x3ea0732b	0.31337866
126	0xbf6e8486	-0.93170965
127	0x3f447555	0.76741534
128	0xbedba15f	-0.42896554
129	0x3ea3aff0	0.31970167
130	0x3f121e0b	0.5707709
131	0x3f30fc44	0.69134927
132	0xbf0b25b3	-0.543544
133	0x3f30079a	0.687616
134	0x3f3642ef	0.7119588
135	0xbeeb38f2	-0.45941883
136	0x3e7b3c0d	0.24534626
137	0x3f0389db	0.51382226
138	0xbeef6ae8	-0.4676125
139	0x3ea2bf0f	0.3178639
140	0xbdf315e8	-0.11869413
141	0x3f1c2e19	0.6100784
142	0xbef78f64	-0.48351586
143	0x3e2acaa1	0.1667886
144	0xbd890694	-0.06690708
145	0x3da55e55	0.08074633
146	0x3ec76503	0.38944253
147	0xbdc61e0e	-0.09673701
148	0x3e54740b	0.20747392
149	0x3ef34d31	0.4751983
150	0xbeaf9910	-0.34296465
151	0xba8320d9	-0.0010004296
152	0x3efe86cb	0.49712214
153	0x3e3cea81	0.18448831
154	0xbf4417a9	-0.765986
155	0xbf3d1503	-0.73860186
156	0xbd0035ce	-0.031301312
157	0x3ea69978	0.32538962
158	0x3f2234b7	0.63361686
159	0xbe8c1da6	-0.2736637
160	0x3e5942a6	0.2121683
161	0xbeecb0c1	-0.46228603
162	0xbe0167de	-0.12637278
163	0xbe55f799	-0.20895232
164	0x3f2df29f	0.67948335
165	0xbf4b31b8	-0.7937274
166	0xbdf52aed	-0.11971078
167	0xbe0f429e	-0.13990256
168	0xbe6c51af	-0.23078035
169	0x3c870b57	0.0164849
170	0x3e949c53	0.29025516
171	0x3de8ed8e	0.11373435
172	0x3cb0e33a	0.021592725
173	0x3e9a571f	0.30144593
174	0x3f1f29e3	0.6217329
175	0x3ed606d0	0.41802073
176	0xbf3abbd6	-0.72942865
177	0x3e62415b	0.22095244
178	0xbe320cb7	-0.17387663
179	0xbdb91dba	-0.09038873
180	0x3e7251fa	0.23664084
181	0xbf39eef6	-0.7263025
182	0xbf9b36fb	-1.2126154
183	0x3e163014	0.14666778
184	0xbe6b3775	-0.22970374
185	0xbed759ec	-0.42060792
186	0xbf804b2d	-1.0022942
187	0xbf337fdc	-0.7011697
188	0x3e08b1ad	0.13349028
189	0xbf339834	-0.7015412
190	0x3e98a694	0.2981459
191	0xbf8b87a5	-1.090077
192	0xbfc7f681	-1.5622102
193	0xbf82d261	-1.0220453
194	0xbfa62b31	-1.2981931
195	0x3ef8767f	0.48527905
196	0xbe9077ed	-0.28216496
197	0xbff791b0	-1.9341335
198	0xbf149d90	-0.5805292
199	0x3d19d90a	0.0375605
200	0xbf354fc5	-0.70824844
201	0x3eb596a1	0.35466483
202	0x3d926935	0.07148973
203	0xbe9b0cc8	-0.3028319
204	0xbf1676a3	-0.58774775
205	0xbf37b29d	-0.7175692
206	0xbfd17621	-1.6364175
207	0xbf3da8eb	-0.74085873
208	0xbea67e4b	-0.3251823
209	0xbfd16be4	-1.6361051
210	0xbf95d466	-1.1705444
211	0xbf3dc6f6	-0.74131715
212	0xbfb1cae7	-1.3890046
213	0xbfc4baa9	-1.5369464
214	0x3eacc023	0.3374034
215	0x3e40d38d	0.188307
216	0xbecae879	-0.39630488
217	0xbfc1d225	-1.5142256
218	0xbf368321	-0.71293837
219	0x3f4aea85	0.792641
220	0xbf2eb43a	-0.68243754
221	0xbfde2279	-1.735427
222	0xbe979fc2	-0.29614073
223	0xbe53cb61	-0.20683052
224	0xbf630773	-0.8868324
225	0x3e987c02	0.2978211
226	0xbef905e3	-0.48637304
227	0xbff04a2c	-1.8772635
228	0x3e595616	0.21224245
229	0xbf246420	-0.6421528
230	0xbf7ff738	-0.999866
231	0x3d817e03	0.06322863
232	0xbf8f86c7	-1.1213006
233	0xbea348e9	-0.31891564
234	0xbfd36c65	-1.6517454
235	0xbf47f913	-0.7811443
236	0xbe8bc2a2	-0.2729693
237	0x3ed4737f	0.41494367
238	0xbf34c5fd	-0.70614606
239	0xbf8b35ba	-1.0875771
240	0xbf97d024	-1.1860394
241	0x3ebc5e51	0.36790708
242	0xbf011d96	-0.5043577
243	0xbf5c09af	-0.85952276
244	0xbf55434b	-0.83305806
245	0x3ea51fbb	0.3225077
246	0xbf680d2c	-0.906451
247	0x3e2952a3	0.1653543
248	0xbe182b67	-0.14860307
249	0xbf2d0263	-0.67581767
250	0xbf0195e7	-0.5061936
251	0xbf897646	-1.0739219
252	0xbfb3deb2	-1.4052336
253	0xbfcf48a9	-1.6194049
254	0xbe8bc6ec	-0.27300203
255	0xbec5aaf0	-0.38606977

L4.bias f4 [88]
0	0x3eabf99b	0.3358887
1	0xbf176bc3	-0.59148806
2	0xbf0cecc6	-0.5504879
3	0x3f53b269	0.8269411
4	0x3f7724a3	0.9654028
5	0xbf844ba1	-1.033558
6	0xbee413af	-0.44546267
7	0x3c30bb3e	0.0107868295
8	0xbefba199	-0.49146727
9	0xbf914076	-1.1347797
10	0xbfa1e8b5	-1.2649142
11	0xbf3fa211	-0.7485667
12	0xbfa289a7	-1.2698258
13	0xbfa46b0a	-1.2845166
14	0xbf11394d	-0.5672806
15	0xbe0c0fda	-0.13677922
16	0xbefe91da	-0.4972065
17	0x3f06b84d	0.5262497
18	0xbf6c9176	-0.92409456
19	0xbe9b7513	-0.30362758
20	0xbf067497	-0.5252165
21	0x3eea26d1	0.4573274
22	0xbf286199	-0.6577392
23	0xbe044710	-0.12917733
24	0xbf41fa2b	-0.7577235
25	0xbec6545b	-0.38736233
26	0xbf393245	-0.7234233
27	0xbdb5bdc5	-0.08874086
28	0xbef9db94	-0.48800337
29	0xbec7d1ae	-0.3902716
30	0xbe366a68	-0.17814028
31	0xbf337834	-0.7010529
32	0xbf082717	-0.53184646
33	0xbed78985	-0.42097107
34	0xbf09e663	-0.5386717
35	0xbf104175	-0.5634988
36	0xbf3d13ff	-0.73858637
37	0xbe884064	-0.26611626
38	0xbea1797f	-0.31538007
39	0xbf5b594b	-0.85683125
40	0xbe5e83ac	-0.21729916
41	0xbe634afc	-0.22196573
42	0xbf905602	-1.1276248
43	0xbf3d1132	-0.7385436
44	0xbe6d3502	-0.23164752
45	0xbe683e0d	-0.2267992
46	0xbf2cae7d	-0.6745375
47	0xbeddc484	-0.43313992
48	0xbef7702e	-0.48327774
49	0xc02a5090	-2.6611671
50	0xbf4c1a4f	-0.79727644
51	0xbef59cde	-0.47971243
52	0xbf8fb6c5	-1.1227652
53	0xbf90ca01	-1.1311647
54	0xbf51ab7e	-0.819023
55	0x3db132d8	0.08652276
56	0xbf55e33b	-0.8354985
57	0xbf0dc4e3	-0.5537855
58	0xbea38033	-0.31933746
59	0xbf80fe19	-1.0077544
60	0x3f439a05	0.7640689
61	0xbf4f6d1e	-0.81025875
62	0x3f3482d8	0.7051215
63	0xbf2e0734	-0.6797974
64	0xbf140ac6	-0.5782894
65	0xbf3667a4	-0.71251893
66	0xbe44b495	-0.19209512
67	0xbf9a770c	-1.206758
68	0xbf40a932	-0.7525817
69	0x3ef7cc89	0.48398235
70	0xbea6281e	-0.32452482
71	0xbf8fbadf	-1.1228904
72	0xbf39d874	-0.72595906
73	0x3e01f0e3	0.12689547
74	0xbf453303	-0.7703096
75	0xbe6fcd00	-0.23418045
76	0xbf0294a8	-0.5100808
77	0xbe1e016f	-0.15430234
78	0xbef0f8f6	-0.47064942
79	0xbe36a6a2	-0.17837003
80	0x3f9793af	1.1841944
81	0x3d5d1858	0.053978294
82	0xbf2c4e81	-0.6730729
83	0xbf0980a5	-0.5371192
84	0x3dc661d2	0.096866265
85	0xbec3c001	-0.38232425
86	0xbf2baadd	-0.6705759
87	0xbee4ff85	-0.44726196

L5.weight f4 [44, 88]
0	0xbd4b7e58	-0.049681038
1	0x3e57a636	0.21059498
2	0x3f040f9f	0.51586336
3	0xbd908dce	-0.07058297
4	0xbe9629ab	-0.29328665
5	0x3f265d4a	0.649861
6	0xbe68fb37	-0.22752081
7	0xbeac5d53	-0.3366495
8	0x3e5cf24f	0.21576808
9	0x3efd4f18	0.49474406
10	0xbe48740e	-0.19575521
11	0xbdd972c0	-0.1061759
12	0xbb9cf043	-0.0047893836
13	0x3ebe5c16	0.3717963
14	0x3b27cfad	0.0025605962
15	0xbecbecc9	-0.3982909
16	0x3c8cfdbc	0.017210834
17	0xbef09094	-0.46985304
18	0x3ee5abf2	0.44857746
19	0x3e62552f	0.22102807
20	0xbecc2a2f	-0.39875934
21	0xbef25def	-0.4733729
22	0x3f1d65d2	0.6148349
23	0xbe5aab61	-0.21354438
24	0x3ebac49f	0.36478135
25	0x3f36f077	0.7146067
26	0x3e478eca	0.19488063
27	0xbe9d934a	-0.30776435
28	0x3ef2f326	0.47451133
29	0xbe55d808	-0.2088319
30	0x3dda0908	0.10646254
31	0x3e9f44a4	0.31107056
32	0xbdfaef60	-0.122526884
33	0xbd4e07c6	-0.050300382
34	0xbe6e4b9f	-0.23271035
35	0x3f0519dd	0.5199259
36	0xbe9c6ca8	-0.30551648
37	0xbcac4707	-0.021029962
38	0xbcf3d348	-0.029763833
39	0x3d9c0f3e	0.07620095
40	0xbeaf3fa1	-0.34228233
41	0x3e15ebf8	0.14640796
42	0xbe153d56	-0.14574179
43	0x3f056156	0.5210165
44	0xbf0ac9c0	-0.54214096
45	0xbea2e62c	-0.31816232
46	0xbdd47fed	-0.103759624
47	0x3b734890	0.0037122108
48	0xbe96744e	-0.29385608
49	0x3f3447f8	0.70422316
50	0x3e39b9cd	0.18137284
51	0x3df9d74e	0.12199269
52	0x3dc05991	0.093920834
53	0x3e93ca3c	0.2886523
54	0xbebdff5f	-0.37108895
55	0x3e48d116	0.1961101
56	0xbe2406a0	-0.16018152
57	0x3ea86ae2	0.32894045
58	0xbe38884a	-0.1802074
59	0x3dd15e16	0.102230236
60	0xbe6c69a3	-0.23087172
61	0xbe18e718	-0.14931905
62	0xbde9a858	-0.11409062
63	0xbe566bc7	-0.20939551
64	0x3e6b6481	0.22987558
65	0xbcd7974d	-0.026317263
66	0xbd4efbce	-0.05053311
67	0x3e967084	0.29382718
68	0xbbf399e6	-0.0074341176
69	0xbdf255fc	-0.118328065
70	0xbe63f3a2	-0.22260907
71	0x3f2fcf1e	0.6867541
72	0xbdd7c8ea	-0.10536368
73	0xbdae6129	-0.085146256
74	0x3f333185	0.69997436
75	0xbeaeab30	-0.3411498
76	0x3aa2693a	0.0012390979
77	0x3e35f884	0.17770582
78	0x3e70dca1	0.23521663
79	0xbd4a23d6	-0.049350582
80	0xbef9c3dd	-0.48782244
81	0x3d03ffbf	0.03222632
82	0x3c94f031	0.018180938
83	0x3e10eb57	0.14152275
84	0xbeabbc7c	-0.3354224
85	0x3e5b67ad	0.21426268
86	0x3f019548	0.5061841
87	0x3da31c35	0.079643644
88	0xbeb86899	-0.36017302
89	0x3f6bf837	0.9217562
90	0x3ec985a1	0.39359763
91	0xbef4c048	-0.4780295
92	0xbeb01567	-0.3439133
93	0x3c5ca747	0.013467616
94	0xbf0c922e	-0.5491055
95	0xbf036578	-0.51326704
96	0x3da70bc0	0.08156538
97	0x3d035635	0.032064635
98	0xbe7ded14	-0.2479747
99	0x3dcda5a6	0.100413606
100	0x3eb36849	0.350405
101	0x3e3a43d8	0.18189943
102	0xbe09e185	-0.13464935
103	0xbd702915	-0.05863293
104	0xbea09d8e	-0.31370205
105	0xbf3c8ec0	-0.7365532
106	0x3e5b0f8c	0.2139265
107	0x3fa29890	1.2702808
108	0x3eeca54d	0.46219864
109	0x3e8a6ac2	0.27034575
110	0x3fac3b95	1.3455683
111	0xbe7bdd56	-0.24596152
112	0xbe17c8c9	-0.14822687
113	0x3f0fd634	0.56186223
114	0x3f34c579	0.7061382
115	0x3da92aa0	0.08260083
116	0x3f911c94	1.1336846
117	0xbe7c4d30	-0.2463882
118	0x3f05c3c1	0.5225182
119	0x3f0696ed	0.52574044
120	0x3ed0ff1a	0.40819627
121	0x3ed8b640	0.42326546
122	0x3e85c219	0.26124647
123	0x3ddf73dd	0.10910771
124	0x3d53ef2b	0.05174176
125	0xbf25d25c	-0.6477411
126	0xbf443648	-0.76645327
127	0xbe8150ec	-0.2525705
128	0xbf307df9	-0.6894222
129	0x3f16a4d3	0.5884525
130	0xbf2d67bc	-0.6773641
131	0x3e0aa833	0.13540725
132	0xbe94d090	-0.2906537
133	0xbe24e96a	-0.16104665
134	0x3e75f12e	0.24017784
135	0xbe97e45c	-0.29666412
136	0x3edb4b5e	0.42830938
137	0x3f665304	0.8997042
138	0x3e4cf064	0.20013577
139	0xbcf1fa46	-0.029538285
140	0x3b115699	0.002217686
141	0xbe1aa7d0	-0.15103078
142	0xbe8afee5	-0.27147594
143	0x3ee21f5e	0.44164556
144	0x3f86fa13	1.0545067
145	0x3e90459b	0.28178105
146	0xbf337c14	-0.70111203
147	0x3f92d7fe	1.1472166
148	0xbf06f727	-0.52720875
149	0xbe675e5b	-0.22594588
150	0xbe3160eb	-0.17322128
151	0xbdfdc2da	-0.123906806
152	0x3fc636f9	1.5485526
153	0x3ecc44bd	0.39896193
154	0xbef309d7	-0.47468445
155	0xbdcc24b7	-0.0996794
156	0xbd812742	-0.06306316
157	0xbf047b50	-0.5175066
158	0xbe573227	-0.21015225
159	0x3f8e400e	1.1113298
160	0x3eb8ac17	0.36068794
161	0x3ea9e66b	0.33183607
162	0x3ee60feb	0.4493402
163	0x3ea5fb9b	0.32418522
164	0x3e0bf3ff	0.13667296
165	0x3f2b7648	0.6697736
166	0x3f30fc94	0.69135404
167	0xbef0b9c7	-0.47016737
168	0xbf256995	-0.6461423
169	0x3f7deb12	0.99186814
170	0xbbac630b	-0.0052608303
171	0x3e5e9952	0.21738175
172	0xbf5e8550	-0.8692217
173	0xbd9dbb08	-0.07701689
174	0x3ebf8452	0.3740564
175	0x3f0727b5	0.52794963
176	0xbf10dff4	-0.56591725
177	0x3f8fb56a	1.1227238
178	0x3f2ec3f5	0.68267757
179	0xbf0d6d44	-0.5524485
180	0xbeaf3553	-0.3422037
181	0x3ed3deed	0.41381016
182	0xbf32c14b	-0.6982619
183	0xbe9efe51	-0.31053403
184	0x3f05e686	0.52304876
185	0x3eced52d	0.40397015
186	0xbed3ba2f	-0.41352984
187	0xbe347da1	-0.17626049
188	0x3f064454	0.5244801
189	0x3f2ccbd0	0.67498493
190	0x3e1e7cc9	0.1547729
191	0xbd0124ae	-0.03152912
192	0xbb6f1d3b	-0.0036485929
193	0xbdc69320	-0.096960306
194	0x3f0fc364	0.5615752
195	0x3f78ae92	0.97141373
196	0xbf2b924f	-0.67020124
197	0xbddc1e00	-0.107479095
198	0x3c51fa8e	0.012816085
199	0x3e505168	0.20343554
200	0xbeffc947	-0.4995825
201	0x3f7f34c1	0.9968987
202	0x3e809f80	0.2512169
203	0xbcede340	-0.029039025
204	0x3f113282	0.56717694
205	0xbef6b377	-0.48183796
206	0x3df531c0	0.1197238
207	0x3e3c18f2	0.18368891
208	0x3e8f99dc	0.28047073
209	0xbd87410e	-0.06604205
210	0x3ed16b3d	0.4090213
211	0xbc5c778a	-0.013456235
212	0x3de0c250	0.10974562
213	0xbe55ee69	-0.20891728
214	0x3cb92b85	0.02260376
215	0x3ef114bd	0.47086135
216	0xbe93483a	-0.28766042
217	0x3e65e203	0.22449498
218	0xbf16bdc2	-0.588833
219	0x3eec9967	0.46210787
220	0xbdd987f2	-0.10621633
221	0xbe4c73a6	-0.19965991
222	0xbd94b502	-0.07261087
223	0xbf16fb8c	-0.5897758
224	0x3e0a2086	0.13488969
225	0x3f449358	0.7678733
226	0x3da38981	0.07985211
227	0xbe5b186f	-0.2139604
228	0x3df68d97	0.12038725
229	0x3f262e50	0.6491442
230	0xbf0ed229	-0.5578943
231	0xbeb89ab0	-0.36055517
232	0x3eeffb12	0.4687124
233	0x3e556274	0.20838338
234	0xbed74b4e	-0.4204964
235	0x3cd3d1f1	0.025856944
236	0xbe804be1	-0.2505789
237	0xbe83c36a	-0.25735027
238	0xbeaffe98	-0.34373927
239	0x3e5f10c8	0.21783745
240	0x3d9d99d6	0.076953575
241	0x3eb0bc9e	0.34518903
242	0xbe46fc9e	-0.19432303
243	0x3d69a3d4	0.057041004
244	0xbebe4efd	-0.37169638
245	0xbf094b34	-0.53630376
246	0xbec6a7eb	-0.38799986
247	0x3ef9f6e9	0.4882119
248	0xbea8748a	-0.32901412
249	0x3d6864ae	0.05673664
250	0x3fb348c6	1.4006584
251	0xbdd35cb5	-0.10320417
252	0x3d4aa4d8	0.049473614
253	0x3ea42174	0.32056773
254	0x3eb04d97	0.34434196
255	0x3d81a914	0.06331077

L5.bias f4 [44]
0	0xbf2ea309	-0.6821752
1	0xbf965d92	-1.1747305
2	0xbede6b33	-0.43441162
3	0xbf0be7ce	-0.5465058
4	0xbf22dd04	-0.63618493
5	0xbf2a8afe	-0.66618335
6	0xbe5ef1af	-0.21771882
7	0xbf1b396a	-0.6063448
8	0xbf56954c	-0.8382156
9	0xbdecd47c	-0.11563966
10	0xbf06a84f	-0.5260057
11	0xbf8f5d08	-1.1200266
12	0xbf84a8d8	-1.0364027
13	0xbf29a48a	-0.6626669
14	0xbf0b5ac8	-0.54435396
15	0xbf4066b8	-0.75156736
16	0xbf91cf19	-1.1391326
17	0xbdd26178	-0.10272497
18	0xbfe501d8	-1.7891188
19	0xbf6764c0	-0.9038811
20	0xbfb039ce	-1.376764
21	0xbf0d8cde	-0.5529307
22	0xbf3b98cd	-0.7328003
23	0xbf6f392a	-0.934466
24	0xbfa2c443	-1.2716144
25	0xbf90adfc	-1.1303096
26	0xbf70bc8a	-0.9403769
27	0xbf8c9015	-1.098147
28	0xbedaa322	-0.42702585
29	0xbf41b61a	-0.7566849
30	0xbf2119a3	-0.62929744
31	0xbf98a4ca	-1.192529
32	0xbf864561	-1.0489923
33	0xbf3c0544	-0.73445535
34	0xbf2c83ec	-0.67388797
35	0xbfb0d89e	-1.3816106
36	0xbf4ebd46	-0.8075756
37	0xbf5ff2c2	-0.87479794
38	0xbf7f926f	-0.99832815
39	0xbf53535b	-0.82549065
40	0xbf8b0e0f	-1.0863665
41	0xbf1fc020	-0.62402534
42	0xbee2e0fa	-0.44312268
43	0xbf83191e	-1.024204

L6.weight f4 [1, 44]
0	0x3d6c32a8	0.057665497
1	0xbe3f82cc	-0.18702239
2	0x3c86abf2	0.016439412
3	0xbc25c5a8	-0.010117926
4	0xbc8686eb	-0.016421756
5	0x3d5a7f6e	0.053344183
6	0x3e1405cb	0.14455335
7	0x3e64b8c5	0.22336109
8	0xbd941748	-0.07231003
9	0x3d8b1d0d	0.0679265
10	0x3d766cab	0.060162228
11	0x3c2f6939	0.010706239
12	0x3d24218c	0.040071055
13	0xbd3f6621	-0.046728257
14	0xbe007af8	-0.12546909
15	0x3e039e3a	0.12853327
16	0x3dd5fc51	0.10448516
17	0xbd634bae	-0.055492096
18	0x3e4fc4b2	0.20289877
19	0x3cf1b358	0.029504463
20	0x3e3dd61c	0.18538707
21	0x3d9d756c	0.07688412
22	0xbe5fb795	-0.21847375
23	0x3de40173	0.11133089
24	0x3e86458c	0.26224935
25	0xbdc09814	-0.094040066
26	0x3c8c95d4	0.017161287
27	0x3dc764f3	0.097360514
28	0xbc1350ac	-0.008991402
29	0xbdada59f	-0.08478855
30	0x3dfea261	0.12433315
31	0x3ca5d6ea	0.02024408
32	0x3d589030	0.052871883
33	0xbd16817e	-0.036744587
34	0x3e54de5f	0.20787953
35	0x3e1142ac	0.1418559
36	0x3a9648d7	0.00114658
37	0x3d248a6e	0.04017108
38	0xbc8829e6	-0.016621541
39	0xbe6158bb	-0.22006504
40	0x3e4e0f18	0.20122945
41	0xbc2f0dd2	-0.010684447
42	0x3b5c800e	0.0033645662
43	0xbd8d9920	-0.06913972
