Saved_Models_All_Features_Only_Simulation_Samples/target_Hardness_features_22_epochs_25.pth (torch_old, 162565 bytes, 11 tensors)

L1.weight f4 [44, 22]
-0.29667348 0.23759688 0.3129578 0.18173333 0.037438244 0.5357258 -0.1586383 0.35611174
0.22907035 -0.10852489 -0.03403933 0.033400055 -0.07355255 0.42878368 0.14478642 0.3598834
0.25527313 -0.4215572 0.5007445 -0.5134803 0.06579644 -0.013793173 -0.11520907 0.21081476
0.20080948 0.45370904 -0.07581205 0.16141814 -0.13417777 0.06272147 0.34334528 0.07370395
-0.025420886 0.27287066 0.13210976 0.7905904 -0.02591019 0.47880948 -0.100275256 -0.18945895
0.2573283 -0.0129661495 0.09796342 0.2042663 0.11375285 0.5568063 -0.15786438 -0.02469249
0.112605974 0.07410691 0.095939785 0.40856668 0.07311293 -0.20733605 0.43306547 -0.32233667
0.1308848 -0.08810602 -0.27370384 0.2130428 0.05354319 -0.22855955 -0.03888182 0.15577736
0.2307233 0.10561655 -0.664578 0.4694077 0.10204657 -0.086436436 0.27065182 0.16806464
-0.019094422 0.17427649 0.3812532 0.34022987 0.2476339 0.41265908 -0.24855955 0.5829189
0.15769155 0.42029843 -0.14368367 -0.6529844 0.12562074 -0.4458156 -0.18972333 0.08549211
0.5646239 -0.24624145 -0.2227471 -0.30999106 -0.22955883 -0.05612641 -0.12718624 0.482791
-0.10891897 0.11441217 0.62274027 0.09746882 0.16856067 0.10756932 0.10560143 0.61248153
0.233373 -0.90791035 -0.0612042 -0.28446966 -0.16549028 0.03767566 -0.05254926 0.55230355
0.5769373 0.35096505 -0.20911692 0.27805853 -0.095594734 0.5166773 0.77536094 0.32646668
0.299606 -0.116207376 -0.02241732 0.2671593 0.38456655 0.27316868 0.28835258 -0.28062108
0.69060063 -0.13306294 0.44603 0.2637288 -0.016292537 0.39138308 0.25461417 0.31842124
0.23284732 0.36979353 0.19477716 0.46792802 0.2537539 0.21013421 0.16094115 -0.008911438
0.22656159 -0.12104984 -0.0005235236 0.30441248 0.47712597 -0.2367529 0.2587535 -0.08509632
0.19913678 0.49782464 0.37001112 -0.25185278 0.02288025 0.053560957 -0.048562083 -0.2644705
0.19176766 -0.01182497 0.23289211 -0.12305608 0.05986115 0.0961691 0.11972576 0.23408899
1.1202093 0.6550165 -0.4181386 -0.04957591 -0.09658077 -0.019983001 -0.08585037 -0.014233979
-0.14090444 0.50670797 0.2733721 -0.079432435 0.118666485 0.4825685 0.02859494 0.44263417
0.5778183 0.150936 0.05830949 0.1283369 -0.09378055 0.5601456 -0.26501873 1.0471907
0.68035626 -0.52425873 -0.022206675 0.4745431 0.20922185 0.22474484 0.36401618 0.523958
0.49199435 -0.18076761 0.52113473 0.39051574 -0.04384345 -0.055932987 0.5618122 0.43354446
0.29561386 -0.2539896 0.030549295 0.87835 0.035237923 1.0253601 -0.4605135 -0.069934
0.022521371 -0.25621852 0.1812297 0.15138711 0.12260452 -0.23612796 -0.6623555 0.3331375
0.2828202 -0.43962044 0.018424973 -0.09130768 0.2006639 -0.2540185 0.39289826 -0.27549964
-0.026305446 0.3999267 0.9146048 -0.1199367 -0.44795847 0.69569516 0.081581034 -0.34179267
-0.07343877 0.1930996 0.4625369 0.096014485 0.7427536 0.33393383 0.48984343 0.017083477
0.12239599 0.40273502 0.45804387 0.25248185 0.26633945 -0.13008118 0.3305779 -0.10599603
00000000: 96e5 97be 994c 733e 013c a03e 4d18 3a3e
00000010: d858 193d 5325 093f 1472 22be 4754 b63e
00000020: 6b91 6a3e 4c42 debd d36c 0bbd 7fce 083d
00000030: b8a2 96bd 8989 db3e e442 143e a342 b83e
00000040: 29b3 823e 58d6 d7be cb30 003f 7273 03bf
00000050: 49c0 863d c3fc 61bc bcf2 ebbd d3df 573e
00000060: 00a1 4d3e 8d4c e83e 5943 9bbd cc4a 253e
00000070: e665 09be 1d74 803d f4ca af3e 19f2 963d
00000080: 763f d0bc b4b5 8b3e c847 073e 2264 4a3f
00000090: 9b41 d4bc 8426 f53e 1d5d cdbd 8701 42be
000000a0: 89c0 833e f96f 54bc 0ca1 c83d 2f2b 513e
000000b0: 41f7 e83d dc8a 0e3f 33a7 21be e847 cabc
000000c0: f69d e63d 5dc5 973d 147c c43d a72f d13e
000000d0: 3bbc 953d e74f 54be c2ba dd3e 5009 a5be
000000e0: aa06 063e ee70 b4bd e922 8cbe e427 5a3e
000000f0: 1b50 5b3d 840b 6abe 8b42 1fbd 1a84 1f3e
00000100: bb42 6c3e 7d4d d83d c921 2abf 3556 f03e
00000110: cbfd d03d 9605 b1bd e092 8a3e 2319 2c3e
00000120: e86b 9cbc 8975 323e 9f33 c33e 9c32 ae3e
00000130: be93 7d3e 0d48 d33e 6586 7ebe 2c3a 153f
00000140: e579 213e 5b31 d73e d021 13be fc29 27bf
00000150: b9a2 003e f141 e4be d546 42be 7d16 af3d
00000160: 318b 103f b826 7cbe d117 64be 26b7 9ebe
00000170: 7811 6bbe cee4 65bd 1c3d 02be 6230 f73e
00000180: e910 dfbd ee50 ea3d e86b 1f3f bc9d c73d
00000190: 2b9b 2c3e 4e4d dc3d 9045 d83d 97cb 1c3f
000001a0: 55f9 6e3e d06c 68bf 41b1 7abd 02a6 91be
000001b0: 4976 29be cb51 1a3d e53d 57bd c463 0d3f
000001c0: 2ab2 133f b1b1 b33e bf22 56be b05d 8e3e
000001d0: 2cc7 c3bd f744 043f 0e7e 463f a426 a73e
000001e0: f565 993e 22fe edbd 87a4 b7bc 1bc9 883e
000001f0: e8e5 c43e c4dc 8b3e f3a2 933e 91ad 8fbe
00000200: 34cb 303f a741 08be 0b5e e43e 7607 873e
00000210: ed77 85bc 5d63 c83e ca5c 823e 1c08 a33e
00000220: 876f 6e3e 9455 bd3e aa73 473e 4394 ef3e
00000230: 08ec 813e 6c2d 573e c2cd 243e 4801 12bc
00000240: c3ff 673e fae8 f7bd 133d 09ba f4db 9b3e
00000250: db49 f43e 5a6f 72be 577b 843e fb46 aebd
00000260: 83ea 4b3e dfe2 fe3e 1972 bd3e d9f2 80be
00000270: 5d6f bb3c bc62 5b3d 09e9 46bd ad68 87be
00000280: be5e 443e 85bd 41bc 457b 6e3e d304 fcbd
00000290: f730 753d 4ef4 c43d c732 f53d 06b5 6f3e
000002a0: 0563 8f3f 29af 273f 4316 d6be 1c10 4bbd
000002b0: 24cc c5bd 64b3 a3bc 52d2 afbd a335 69bc
000002c0: 4149 10be 9db7 013f 6ef7 8b3e 79ad a2bd
000002d0: 6a07 f33d 3813 f73e f03f ea3c f2a0 e23e
000002e0: e6eb 133f f78e 1a3e efd5 6e3d c06a 033e
000002f0: 0410 c0bd b465 0f3f 89b0 87be 580a 863f
00000300: d42b 2e3f d235 06bf c6ea b5bc 50f7 f23e
00000310: 413e 563e 8323 663e 5460 ba3e 1d22 063f
00000320: afe6 fb3e 251b 39be 1669 053f aef1 c73e
00000330: 3095 33bd fd19 65bd edd2 0f3f 8af9 dd3e
00000340: b35a 973e ed0a 82be 8442 fa3c 8cdb 603f
00000350: a455 103d 003f 833f 6dc8 ebbe 8f39 8fbd
00000360: bd7e b83c 132f 83be 4794 393e 3905 1b3e
00000370: 1418 fb3d 87cb 71be 2190 29bf 0091 aa3e
00000380: cfcd 903e ee15 e1be f8ef 963c 85ff babd
00000390: d67a 4d3e b60e 82be f629 c93e 4a0e 8dbe
000003a0: 857e d7bc 31c3 cc3e 8a23 6a3f 5fa1 f5bd
000003b0: d05a e5be 1419 323f f513 a73d 73ff aebe
000003c0: 1167 96bd e7bb 453e a3d1 ec3e 3ea3 c43d
000003d0: 1a25 3e3f 60f9 aa3e c2cc fa3e a6f2 8b3c
000003e0: c0aa fa3d 4933 ce3e ba84 ea3e 4d45 813e
000003f0: a55d 883e 0034 05be 8241 a93e 7214 d9bd

L1.bias f4 [44]
-1.0229539 -1.5928198 -1.0221196 -0.93462265 -0.68298334 -2.2011898 -1.8441141 -0.93002814
-1.5640944 -1.2856544 -0.67917675 -1.8867313 -1.2275804 -0.95225257 -1.2922026 -1.762216
-1.6339802 -0.95712024 -0.88050735 -0.8356784 -1.3405968 -0.98681235 -1.7276117 -1.6830052
-0.66236705 -1.2846595 -1.2616354 -1.5428572 -1.1422946 -1.6044633 -1.6170087 0.13528365
-1.5604818 -0.8541252 -1.6263491 -0.51867265 -0.6245626 -1.5234984 -1.1798296 -1.0825185
-0.9247173 -1.2787453 -1.0294983 -1.4821919
00000000: 27f0 82bf 85e1 cbbf d1d4 82bf 6e43 6fbf
00000010: ffd7 2ebf 4be0 0cc0 ee0b ecbf 5316 6ebf
00000020: 3f34 c8bf 5390 a4bf 87de 2dbf 6980 f1bf
00000030: 5b21 9dbf d3c6 73bf e566 a5bf 4b90 e1bf
00000040: 4326 d1bf d505 75bf ee68 61bf 05ef 55bf
00000050: ad98 abbf bc9f 7cbf 6122 ddbf b76c d7bf
00000060: e390 29bf b96f a4bf 457d a1bf 587c c5bf
00000070: b636 92bf 0e5f cdbf 24fa cebf cc87 0a3e
00000080: debd c7bf f3a7 5abf 352c d0bf bbc7 04bf
00000090: 56e3 1fbf ff01 c3bf a804 97bf f78f 8abf
000000a0: 46ba 6cbf edad a3bf 9ac6 83bf 77b8 bdbf

L2.weight f4 [88, 44]
0.112381846 0.124364555 0.019832201 -0.43862078 0.20841198 0.28209308 0.33443967 -0.29250655
-0.044560667 -0.58234894 -0.019510195 0.14219595 0.17625076 -0.27152988 -0.15464525 -0.12868495
-0.021641187 0.109201044 -0.36312306 -0.34769112 0.18546765 -0.8090202 -0.2658525 -0.38511562
-0.3280434 -0.4909645 -0.5553382 0.04414969 -0.09607993 -0.11707745 0.20282476 -0.6109112
-0.39036834 -0.06965787 -0.15646562 -0.09186617 -0.14198276 -0.34012157 0.24479008 -0.32422328
0.1882445 -0.19143158 -0.41026962 0.32199875 0.14652547 -0.4985182 -0.047230147 -0.736086
0.014040866 -0.2584984 0.3259303 -0.26510862 0.027698372 -0.5900809 -0.6232895 -0.6802672
-0.19713071 -1.8160818 -0.8201976 -0.4528458 -0.19382912 0.3291325 -0.6316134 -0.5699931
-0.2573061 0.61775404 -0.5846868 -0.04583632 0.047659867 -0.3736161 -0.38039088 -0.38313162
-0.5026082 0.22686623 0.09720968 -0.77520996 -0.26042125 -0.08977436 -0.5234841 -1.10413
-0.8540262 -0.24380086 -0.7298312 0.17592804 -0.08057661 -0.199513 0.092105284 -0.22084017
-0.18128464 -0.07707207 -0.01997663 -0.33091712 -0.30409458 -0.41905308 -0.059339833 -0.2050333
0.079406664 -0.40281728 -0.5387162 -0.54624456 -0.09997283 -0.6283915 -0.89802384 -0.077702776
-0.21226858 -0.17330764 -0.43504813 0.10563973 -0.2205084 -0.25475803 -0.1679375 -0.35628626
-0.40687966 -1.144577 -0.3189137 -0.6258043 -0.68466336 -0.25072384 -0.34269238 -0.38810328
-0.19907571 -0.5268876 -0.43358964 -1.0725331 -0.59464824 -0.47605342 -0.66685027 -0.06357469
-0.19199832 -0.35791096 -1.2268437 -0.66866803 -0.03928534 0.016913842 -0.0108023435 -0.66781825
-0.0655781 0.29251182 0.38305604 -0.43127668 -0.118898675 0.04097222 0.038479686 0.0714651
0.26020488 -0.55381644 -0.08366644 -0.22442041 -0.1350942 0.114671856 -0.16480386 -0.11331044
0.4446113 -0.67007625 -0.18756752 0.051725507 -0.9100203 -0.17290957 -0.17092544 -0.023282068
-0.074616924 -0.006724895 -0.075181216 -0.78460425 -0.25745428 0.38266307 -0.18869211 0.00550403
-0.41351748 -0.0042630006 0.15512569 0.23144911 -0.07937681 -0.1915386 -0.59492135 0.10361386
0.19002506 -0.050909124 -0.5499727 0.19620734 -0.014266794 -0.21284461 -0.33080938 0.11482062
0.25655058 -0.3852628 -0.0820157 0.20658447 0.25683248 -0.40761933 -0.04683982 0.015455316
0.02784717 0.10371593 -0.43895277 -0.18184985 -0.0068021677 -0.10682662 0.14512318 0.21338204
-0.16463251 0.052968137 -0.43848023 0.26345327 -0.7126457 0.2775333 -0.15805393 -0.5419487
0.124945134 0.46324745 -0.21600887 -0.15050459 -0.36241114 -0.12936041 0.034472745 0.18699916
0.14861324 0.3259825 0.3897276 -0.00541668 -0.58918434 -0.08712973 0.34761292 -0.35165352
0.086768806 -0.77852094 0.009790384 -0.16550079 -0.71077853 -0.26951984 -0.33801425 -0.21947858
0.14062718 -0.9406582 -0.3779494 0.2684086 -0.25489545 -0.14508624 -0.07465165 0.009822176
-0.23140253 -0.5772466 -0.4405846 -0.49499026 -0.7075306 -1.3325343 -0.9411479 0.10947911
-0.609429 -0.6168697 -0.5114962 -0.2888853 -1.3153981 -0.8015124 0.12967312 -0.3651506
00000000: 7428 e63d d8b2 fe3d 2477 a23c e792 e0be
00000010: f369 553e 816e 903e ad3b ab3e 6bc3 95be
00000020: 3f85 36bd d214 15bf d8d3 9fbc d19b 113e
00000030: 147b 343e f705 8bbe 535b 1ebe fdc5 03be
00000040: dc48 b1bc cca4 df3d 44eb b9be 9204 b2be
00000050: 3beb 3d3e f31b 4fbf d21d 88be e02d c5be
00000060: 4ef5 a7be b35f fbbe a52a 0ebf 4ed6 343d
00000070: 8ec5 c4bd 4dc6 efbd 4bb1 4f3e ad64 1cbf
00000080: 5cde c7be c9a8 8ebd 8638 20be 5524 bcbd
00000090: ee63 11be 6a24 aebe 40aa 7a3e 9800 a6be
000000a0: 2bc3 403e a406 44be dc0e d2be 05dd a43e
000000b0: c60a 163e c73d ffbe 6674 41bd 2270 3cbf
000000c0: a90b 663c e759 84be 56e0 a63e 51bc 87be
000000d0: b2e7 e23c 8b0f 17bf e78f 1fbf fe25 2ebf
000000e0: a2dc 49be 5e75 e8bf 78f8 51bf 68db e7be
000000f0: 247b 46be 0e84 a83e 6ab1 21bf 11eb 11bf
00000100: a0bd 83be 2125 1e3f 09ae 15bf ddbe 3bbd
00000110: fe36 433d 9c4a bfbe 98c2 c2be d429 c4be
00000120: eeaa 00bf 9f4f 683e de15 c73d 2974 46bf
00000130: ef55 85be 9fdb b7bd 0e03 06bf 2254 8dbf
00000140: 76a1 5abf efa6 79be 38d6 3abf 7b26 343e
00000150: 5a05 a5bd 234d 4cbe b2a1 bc3d ed23 62be
00000160: aea2 39be f6d7 9dbd 08a6 a3bc f86d a9be
00000170: 49b2 9bbe 208e d6be 530e 73bd 40f4 51be
00000180: f69f a23d 113e cebe 4ee9 09bf afd6 0bbf
00000190: 8ebe ccbd 44de 20bf e4e4 65bf a222 9fbd
000001a0: ef5c 59be 8f77 31be a1be debe a559 d83d
000001b0: f4cc 61be a56f 82be cff7 2bbe 276b b6be
000001c0: 8852 d0be 8081 92bf a848 a3be b634 20bf
000001d0: 1946 2fbf e05e 80be 6075 afbe 79b5 c6be
000001e0: 81da 4bbe 1be2 06bf 76ff ddbe c448 89bf
000001f0: de3a 18bf 46bd f3be b3b6 2abf 7233 82bd
00000200: 359b 44be 1b40 b7be 3709 9dbf d42d 2bbf
00000210: aae9 20bd e68e 8a3c 50fc 30bc 23f6 2abf
00000220: d04d 86bd 1cc4 953e ec1f c43e 4cd0 dcbe
00000230: 2681 f3bd 7dd2 273d e09c 1d3d 4b5c 923d
00000240: 9339 853e eac6 0dbf 4f59 abbd 77ce 65be
00000250: 2256 0abe 14d9 ea3d 58c2 28be 4e0f e8bd
00000260: 18a4 e33e 1e8a 2bbf b311 40be 20de 533d
00000270: 17f7 68bf 350f 31be 1407 2fbe 09ba bebc
00000280: c2d0 98bd 825c dcbb 9cf8 99bd d3db 48bf
00000290: 0cd1 83be 6aec c33e 8138 41be 265b b43b
000002a0: 90b8 d3be a4b0 8bbb 45d9 1e3e ff00 6d3e
000002b0: 4f90 a2bd b222 44be c44c 18bf 8133 d43d
000002c0: ee95 423e 1686 50bd 03cb 0cbf 94ea 483e
000002d0: 45bf 69bc f0f3 59be d95f a9be 1327 eb3d
000002e0: 995a 833e 2a41 c5be d9f7 a7bd e18a 533e
000002f0: 8c7f 833e 7bb3 d0be 1cdb 3fbd 4b38 7d3c
00000300: c01f e43c 0469 d43d 6bbe e0be d936 3abe
00000310: b8e4 debb eac7 dabd 2c9b 143e d280 5a3e
00000320: 6d95 28be 1ef5 583d 7b80 e0be 59e3 863e
00000330: f36f 36bf d818 8e3e e4d8 21be 26bd 0abf
00000340: 3ce3 ff3d c52e ed3e 6e31 5dbe e01d 1abe
00000350: f48d b9be 0e77 04be 4b33 0d3d b57c 3f3e
00000360: 122e 183e 2ee7 a63e 608a c73e 687e b1bb
00000370: c9d4 16bf 1271 b2bd 52fa b13e ee0b b4be
00000380: d8b3 b13d 264d 47bf d967 203c 0a79 29be
00000390: 95f5 35bf 81fe 89be 3410 adbe febe 60be
000003a0: 9200 103e face 70bf 9582 c1be da6c 893e
000003b0: a881 82be 7d91 14be f7e2 98bd 31ed 203c
000003c0: c9f4 6cbe 6fc6 13bf 4e94 e1be 5d6f fdbe
000003d0: ba20 35bf 7c90 aabf 12ef 70bf 9536 e03d
000003e0: 8a03 1cbf 2ceb 1dbf 6af1 02bf c6e8 93be
000003f0: f75e a8bf eb2f 4dbf 08c9 043e 05f5 babe

L2.bias f4 [88]
-0.8414424 -0.8088041 -1.0130801 -0.40472853 -0.5923598 -1.3786513 -0.9624129 -0.31859124
-0.24500933 -0.68113244 -0.67738414 -0.53281087 -0.30495864 -0.5129375 -1.0938691 -0.36077768
-0.35164154 -0.5983832 -1.1769968 -0.6730969 -0.9444407 -0.66945404 -0.17186145 -0.9528426
-0.9220774 -0.49428263 -0.1639925 -0.2354563 -0.20009208 -0.2637857 -0.1749523 -0.17254636
-0.8773691 -0.70468104 0.3253744 -0.8112437 0.47749737 -0.7083679 0.49730328 -0.011508484
0.35684624 -1.0253668 -0.7140541 -0.89155376 -2.1025112 -0.71779156 -0.20458427 -0.005616861
-0.3859013 -1.485765 -0.8508575 -0.291629 -0.78400356 -0.9304768 -0.29876345 -0.7652647
-2.2532516 -1.5582576 -0.76889133 -0.26585385 -1.2076632 -0.11427446 -0.18576463 -0.5425353
-0.52899987 0.033310853 -0.831644 -0.4454729 -0.30761445 -0.7743133 -0.796435 0.03967286
-0.62128687 0.22645338 0.25314513 -0.30406418 -0.2400368 -1.5623233 -0.95094085 -0.39077803
-0.3594133 -0.86835426 -0.57501 -0.39983734 -0.6792568 -0.085557565 -0.58892894 0.21430527
00000000: c568 57bf c90d 4fbf 9cac 81bf 9438 cfbe
00000010: e4a4 17bf a577 b0bf b160 76bf 641e a3be
00000020: bae3 7abe b25e 2ebf 0c69 2dbf 4b66 08bf
00000030: 8a23 9cbe df4f 03bf e703 8cbf dab7 b8be
00000040: 5c0a b4be a42f 19bf d5a7 96bf 1450 2cbf
00000050: dec6 71bf 5761 2bbf 73fc 2fbe 7eed 73bf
00000060: 440d 6cbf 9d12 fdbe a6ed 27be 751b 71be
00000070: f0e4 4cbe eb0e 87be b226 33be feaf 30be
00000080: 439b 60bf fa65 34bf 7997 a63e abad 4fbf
00000090: 897a f43e 9957 35bf 899e fe3e 158e 3cbc
000000a0: 8db4 b63e 383f 83bf 40cc 36bf de3c 64bf
000000b0: 8b8f 06c0 30c1 37bf 8a7e 51be a50d b8bb
000000c0: db94 c5be 8c2d bebf ccd1 59bf 6550 95be
000000d0: 75b4 48bf ba33 6ebf 86f7 98be 63e8 43bf
000000e0: 4635 10c0 fc74 c7bf 10d6 44bf ff1d 88be
000000f0: b594 9abf ba08 eabd 1539 3ebe 98e3 0abf
00000100: 896c 07bf f670 083d 9fe6 54bf 0615 e4be
00000110: a47f 9dbe 6539 46bf 2ae3 4bbf 0280 223d
00000120: a80c 1fbf 65e3 673e 3d9c 813e 4dae 9bbe
00000130: 35cc 75be 36fa c7bf dc70 73bf 0f14 c8be
00000140: 0505 b8be 774c 5ebf db33 13bf 7bb7 ccbe
00000150: c6e3 2dbf ce38 afbd 0cc4 16bf d772 5b3e

L3.weight f4 [176, 88]
0.17916344 -0.04785915 -0.02082487 0.0010372084 0.5786931 -0.48787174 -0.24186666 0.21891753
0.18167713 -0.3797435 -0.43956184 -0.24835467 -0.58242947 -0.8509579 0.23840421 -0.5493205
0.0856576 0.2743114 -0.6345442 0.42478365 -0.3480108 0.2691142 0.59459627 -0.006949127
0.104623966 -1.5128813 -0.6546187 0.5220377 -0.05144808 -0.24663284 -0.099150784 -0.70597667
-0.16897982 0.20440534 0.03408564 0.13176803 0.50416803 0.4897448 0.3456925 -0.08772185
-0.26926038 -0.20506003 -0.048398778 -0.3700476 0.5945439 1.0296673 -0.34335634 -0.9743428
0.4032351 -0.6712912 0.71438724 -0.61048204 0.0969724 -0.40835798 0.052269615 0.78988814
0.13407356 0.31836006 -0.47027823 0.11945853 0.28178498 -0.76093835 0.749793 -0.0360349
-0.0055745477 -0.028028581 -0.6085491 0.23844898 -0.61726665 -0.5182747 -0.19255699 0.1963057
-0.091953404 -1.2350051 0.23105918 0.13561606 -0.38831088 -0.12545769 -0.15353692 0.2468922
-0.89193577 -0.042566728 -0.46824414 -0.6531215 -0.24151073 -0.81739897 0.410342 -0.17886339
1.0447915 0.54696965 0.13848187 -0.13244976 -0.20082407 0.17054865 -0.14804338 0.33274597
0.57826287 -0.18991715 -0.15420645 1.1897601 -0.60154134 0.18975087 -0.5406892 -0.75456333
-0.27992752 0.60272133 -0.022060852 0.61083156 -0.6003755 -0.37776032 -0.4012816 -0.0641625
0.8393406 -0.05557234 -0.4190576 -0.41907808 -0.40639442 -0.29559746 -0.199738 -0.26281133
-0.17203723 -0.36643702 -0.30686754 -0.5331846 -0.62473166 0.02110737 -0.0065869293 -0.1420889
-0.27102008 -0.38315934 0.23789345 -0.48628023 0.036982246 -0.49844983 -0.3520185 -0.34997898
0.43614352 1.2715759 -0.3483212 0.17375505 0.7044076 -0.15384114 -0.54025227 -0.24213645
-0.2881379 0.12955283 -0.12240868 -0.64186305 1.7124685 -0.24191272 -0.117738 -0.8932237
0.03737856 -0.094488576 -0.15052035 -0.49458408 -0.061635405 -1.0335082 -0.081133604 -0.89504033
0.05003155 -0.54799306 0.0017548515 -0.034674995 0.10968101 -0.45169324 0.30309433 -0.2934144
-0.22957726 -0.26501986 -0.4388459 -0.03625283 -0.007545198 -0.21355802 -0.0076504396 -0.08958003
0.113865264 0.17170605 0.03145154 -0.5383295 0.063123964 0.4913193 -0.084997445 -0.3054549
-0.105985336 -0.2167206 -0.10972155 0.36477917 -0.2626341 0.026666285 0.39023435 0.25139725
0.25072518 0.44282672 -0.22392854 -0.1644099 0.2307028 -0.33099884 0.39028057 0.9931625
0.077244975 0.746519 0.15334147 -0.19560479 0.089806 0.42598572 -0.30416507 -0.45188105
-0.15098922 0.69703645 -0.66500497 0.7588572 -0.48819855 -0.29779223 -0.032205794 -0.21377428
0.21924643 1.0995697 0.16034596 -0.25702658 -0.08290512 -0.42917773 0.32771727 -0.040638734
-0.010467013 1.0184166 -0.11069552 -0.1943254 0.27643764 0.05192815 0.03747412 -0.35027376
0.8122598 0.5606539 -0.40538046 -0.30036244 1.5069853 0.04250478 0.685976 1.0410205
0.2365156 -0.48905358 -0.0976936 0.17710829 0.16840397 0.2712838 0.1795109 -0.10481705
-0.0037058108 -0.2890285 -0.29594004 -0.12490991 -1.0216941 -0.15417874 -0.374542 -0.35408232
00000000: 9f76 373e f507 44bd eb98 aabc f0f2 873a
00000010: 3b25 143f 53ca f9be e5ab 77be eb2b 603e
00000020: 9209 3a3e bd6d c2be 400e e1be b050 7ebe
00000030: 191a 15bf 60d8 59bf 3c20 743e 45a0 0cbf
00000040: 406d af3d 8b72 8c3e 7d71 22bf 3e7d d93e
00000050: 792e b2be 56c9 893e 7637 183f 81b5 e3bb
00000060: 1745 d63d 18a6 c1bf 1795 27bf 43a4 053f
00000070: 39bb 52bd 528d 7cbe 910f cbbd e3ba 34bf
00000080: 0c09 2dbe a24f 513e 629d 0b3d 33ee 063e
00000090: 2811 013f d5bf fa3e 9bfe b03e 83a7 b3bd
000000a0: 7fdc 89be 42fb 51be cc3d 46bd e176 bdbe
000000b0: 0734 183f 23cc 833f 67cc afbe 886e 79bf
000000c0: d574 ce3e bdd9 2bbf 15e2 363f 8d48 1cbf
000000d0: 7799 c63d 4c14 d1be aa18 563d 1c36 4a3f
000000e0: 944a 093e 1700 a33e 4fc8 f0be aca6 f43d
000000f0: 1f46 903e dbcc 42bf 6ff2 3f3f 5599 13bd
00000100: b2aa b6bb 329c e5bc e0c9 1bbf f82b 743e
00000110: 3005 1ebf a7ad 04bf a92d 45be 5d04 493e
00000120: 1152 bcbd a614 9ebf c79a 6c3e f0de 0a3e
00000130: afd0 c6be fb77 00be c838 1dbe 4fd1 7c3e
00000140: e755 64bf 735a 2ebd b2bd efbe f832 27bf
00000150: 974e 77be 0f41 51bf 5918 d23e f727 37be
00000160: babb 853f 3406 0c3f 31ce 0d3e e9a0 07be
00000170: d3a4 4dbe 4ea4 2e3e af98 17be ae5d aa3e
00000180: 0909 143f a479 42be 4ce8 1dbe 0f4a 983f
00000190: 9dfe 19bf 0d4e 423e 9b6a 0abf 102b 41bf
000001a0: a952 8fbe f24b 1a3f f6b8 b4bc 755f 1c3f
000001b0: 35b2 19bf cd69 c1be c874 cdbe a167 83bd
000001c0: 07df 563f d29f 63bd b88e d6be 6791 d6be
000001d0: ee12 d0be 8d58 97be 1e88 4cbe 358f 86be
000001e0: 872a 30be a29d bbbe be1d 9dbe c97e 08bf
000001f0: 6aee 1fbf 5de9 ac3c 2bd7 d7bb c17f 11be
00000200: 25c3 8abe 762d c4be 579a 733e b9f9 f8be
00000210: b27a 173d d134 ffbe c53b b4be 7230 b3be
00000220: 344e df3e 00c3 a23f 2857 b2be d8ec 313e
00000230: 0e54 343f 8888 1dbe f94d 0abf 9ef2 77be
00000240: d086 93be 7fa9 043e 67b1 fabd 2351 24bf
00000250: 2b32 db3f f8b7 77be 9f20 f1bd 4faa 64bf
00000260: 431a 193d 3a83 c1bd 0222 1abe 203a fdbe
00000270: 6875 7cbd ff49 84bf 6029 a6bd 5d21 65bf
00000280: e2ed 4c3d 4649 0cbf 0c03 e63a 5e07 0ebd
00000290: 70a0 e03d 5644 e7be 2e2f 9b3e 6a3a 96be
000002a0: 4d16 6bbe afb0 87be 69b0 e0be d97d 14bd
000002b0: b53d f7bb f4ae 5abe 8ab0 fabb bc75 b7bd
000002c0: 3132 e93d b6d3 2f3e 54d3 003d f6cf 09bf
000002d0: 2347 813d 348e fb3e 2413 aebd 9664 9cbe
000002e0: d70e d9bd 01ec 5dbe b1b5 e0bd 56c4 ba3e
000002f0: fa77 86be 4173 da3c cccc c73e 24b7 803e
00000300: 0d5f 803e 2fba e23e 864d 65be 125b 28be
00000310: 5b3d 6c3e ae78 a9be dbd2 c73e e63f 7e3f
00000320: 9d32 9e3d df1b 3f3f 8c05 1d3e 9f4c 48be
00000330: 35ec b73d cd1a da3e 86bb 9bbe f45c e7be
00000340: eb9c 1abe fb70 323f c43d 2abf 7744 423f
00000350: 29f5 f9be 3978 98be 39ea 03bd a5e7 5abe
00000360: 2382 603e b3be 8c3f bb31 243e fd98 83be
00000370: 29ca a9bd 2fbd dbbe 8fca a73e cd74 26bd
00000380: d67d 2bbc 7a5b 823f 55b4 e2bd 3dfd 46be
00000390: 3c89 8d3e 9db2 543d 767e 193d 1557 b3be
000003a0: 42f0 4f3f 0487 0f3f 078e cfbe 1bc9 99be
000003b0: e5e4 c03f 7e19 2e3d 209c 2f3f 2940 853f
000003c0: 2531 723e 3b65 fabe 9513 c8bd e05b 353e
000003d0: 1772 2c3e b6e5 8a3e b5d1 373e 52aa d6bd
000003e0: 30dd 72bb 8bfb 93be 7485 97be c4d0 ffbd
000003f0: dfc6 82bf 08e1 1dbe f8c3 bfbe 474a b5be

L3.bias f4 [176]
-0.022458918 -0.65436417 -0.91165465 -1.8253632 -0.6928957 -1.2008148 -0.59075195 -1.3182573
-1.5572541 -0.6369152 -0.108865745 -1.5949583 -0.9033552 -0.20782544 -0.75085384 -0.25751048
-0.7989383 -0.79466623 -0.3391168 -0.35119313 -0.65597755 0.19426511 -1.6019323 -0.55765706
-1.1291288 -1.3930578 -0.6938977 -1.33967 -1.4367436 -0.64144933 -0.67992103 -0.8333263
-1.2278785 -0.19649711 -0.41779062 -1.1483015 0.2666004 -0.03381376 -1.3028744 -0.82292235
-0.56899315 0.5636618 -1.4715841 -1.5333048 -1.4957677 -0.48703384 -0.01005065 -1.3685097
-0.027132556 -1.4449545 -1.715631 -0.4996162 -0.93202865 -0.78092647 -1.0066487 -1.2217546
-0.68547696 -0.8423615 -0.30889913 0.57615286 -0.9482413 -0.93927705 -0.1951488 -1.2599127
0.31157243 -1.2720432 0.36712992 -0.60747945 -0.92462337 -0.6395544 -0.4529308 -1.5617837
-0.2249867 -0.48613727 -0.9226171 -0.8468005 0.51996887 0.2236127 -0.98956877 0.13814588
-1.4011505 0.8934593 0.19958164 -0.9157714 -1.2064761 -0.03141823 -1.3608017 -1.3496566
-1.3204697 -0.9658159 -1.3043698 -0.9117419 -0.1121956 -1.2080157 -1.1169913 -0.57191324
-0.40938383 -0.6506024 -1.1170123 0.22090438 0.2973224 1.1454322 -1.3408538 -0.7836834
-0.40523118 -1.431755 0.46993992 -0.2965545 -1.3851954 -1.0875336 -0.7851248 -0.38511467
-0.22232373 -1.23393 -1.4772519 -0.9276028 -0.20000054 -0.778893 -0.15324889 -1.4936881
0.029671734 -0.98889285 -0.2661114 -0.8515062 0.61064774 -1.2434645 -0.76367337 -0.65471107
-0.67441815 -0.37810317 0.069711655 -1.1392729 -1.1508985 -0.32701352 -0.7012404 -0.5933868
-0.5407519 -1.0154773 -0.11487638 -0.8519415 0.39332524 -1.9271377 -0.5813604 -0.85642004
-0.64157003 -0.863865 0.13333377 -1.2743499 -0.76852214 -0.40464136 -0.63651377 -0.584281
-1.1800904 -0.94462144 -0.96738106 -0.8680655 -0.61017096 -1.2704961 -1.4794397 -0.8612944
-1.2838124 0.20492253 0.2517272 -0.64118373 -1.0193198 -0.83309907 -0.15671764 -1.4058528
-1.2140384 -0.91542614 -1.2852377 -1.692511 -0.36177245 -0.25719365 -1.5745078 -0.7167932
00000000: c4fb b7bc 6984 27bf 3362 69bf 80a5 e9bf
00000010: 9d61 31bf 4db4 99bf 853b 17bf a8bc a8bf
00000020: 1a54 c7bf e00c 23bf 01f5 debd 9827 ccbf
00000030: 4942 67bf 31d0 54be f537 40bf 6ad8 83be
00000040: 3887 4cbf 3f6f 4bbf b8a0 adbe 96cf b3be
00000050: 25ee 27bf 6fed 463e 1e0c cdbf 9dc2 0ebf
00000060: 4b87 90bf b84f b2bf 48a3 31bf 4e7a abbf
00000070: 37e7 b7bf 0636 24bf 4e0f 2ebf df54 55bf
00000080: 1f2b 9dbf 8a36 49be a7e8 d5be 8bfb 92bf
00000090: d97f 883e 4c80 0abd 97c4 a6bf 0aab 52bf
000000a0: 89a9 11bf 244c 103f de5c bcbf 5543 c4bf
000000b0: 5175 bfbf 805c f9be 7bab 24bc 532b afbf
000000c0: 1845 debc 45f4 b8bf cc99 dbbf b2cd ffbe
000000d0: 6e99 6ebf ccea 47bf ddd9 80bf 7462 9cbf
000000e0: 6b7b 2fbf 01a5 57bf 0728 9ebe c17e 133f
000000f0: f1bf 72bf 7674 70bf 16d5 47be d244 a1bf
00000100: 6c86 9f3e 50d2 a2bf 74f8 bb3e c683 1bbf
00000110: 1eb4 6cbf d6b9 23bf 8ce6 e7be 87e8 c7bf
00000120: ea62 66be fce6 f8be a230 6cbf ebc7 58bf
00000130: ae1c 053f bafa 643e 6154 7dbf 1d76 0d3e
00000140: e658 b3bf c0b9 643f 215f 4c3e ff6f 6abf
00000150: cf6d 9abf 67b0 00bd c02e aebf 8cc1 acbf
00000160: 2705 a9bf b63f 77bf 97f5 a6bf eb67 69bf
00000170: cfc6 e5bd 42a0 9abf 92f9 8ebf e868 12bf
00000180: c29a d1be e18d 26bf 42fa 8ebf c234 623e
00000190: a43a 983e 869d 923f 19a1 abbf 7a9f 48bf
000001a0: 767a cfbe bf43 b7bf f79b f03e fed5 97be
000001b0: 154e b1bf 4d34 8bbf f0fd 48bf c02d c5be
000001c0: d5a8 63be 6bf1 9dbf 9716 bdbf 6177 6dbf
000001d0: f1cc 4cbe 8865 47bf 47ed 1cbe 2c31 bfbf
000001e0: 2312 f33c 1528 7dbf c13f 88be 4ffc 59bf
000001f0: 6953 1c3f d829 9fbf 1980 43bf 259b 27bf
00000200: aba6 2cbf bd96 c1be fcc4 8e3d b2d3 91bf
00000210: a450 93bf 516e a7be 7e84 33bf 33e8 17bf
00000220: b76e 0abf 29fb 81bf 4f44 ebbd d718 5abf
00000230: ed61 c93e 73ac f6bf 09d4 14bf 583e 5bbf
00000240: ef3d 24bf 4226 5dbf a688 083e e61d a3bf
00000250: debd 44bf 272d cfbe 91f2 22bf 7193 15bf
00000260: 340d 97bf b6d2 71bf 49a6 77bf 8a39 5ebf
00000270: 2a34 1cbf 9e9f a2bf 485e bdbf ca7d 5cbf
00000280: f753 a4bf 36d7 513e 63e2 803e 9e24 24bf
00000290: 1279 82bf fb45 55bf 977a 20be fcf2 b3bf
000002a0: 9c65 9bbf 5e59 6abf ab82 a4bf 33a4 d8bf
000002b0: 3d3a b9be e3ae 83be 7989 c9bf c27f 37bf

L4.weight f4 [88, 176]
-0.66106147 -0.08694851 0.29997575 -0.76592237 -0.01753544 -0.057853457 0.7914992 0.6996781
0.5579172 0.097795494 0.063564174 0.81968385 0.17614953 0.18357117 0.7271779 -0.038538415
0.64498955 -0.18242915 1.058084 0.24478924 -0.06468817 0.12955445 0.5752373 -0.11355688
0.34218228 0.16855934 0.32761317 0.9531531 0.75365436 -0.27060458 0.24536438 0.033792797
0.07679975 0.3569271 0.3883625 -0.012513295 0.56329536 -0.12398351 0.9211715 0.6281456
0.0949913 0.35505494 0.9175386 0.3616869 0.303872 -0.3212961 0.45490363 -0.36042914
0.2103685 0.634418 0.6795479 -0.4677442 0.19755311 0.339719 -0.12286795 0.36469072
-0.7295895 0.48236293 0.5778585 0.18687119 0.22494322 -0.029130729 0.15163155 0.76726717
-0.7121368 0.045251545 0.22361101 -0.35897335 -0.4532388 -0.38464868 0.18841581 0.9380737
0.025414087 -0.47200137 0.61128646 -0.2265599 -0.13345717 -0.07233414 -0.002203384 0.34286177
0.55898017 0.80678475 -0.29739988 -0.14558603 0.19580911 -0.2785378 0.7160272 0.2912073
0.742428 -0.18919644 -0.3259537 0.6281517 0.033356354 0.38519034 0.847763 0.8251792
0.57098794 0.16918427 0.67196983 -0.17043646 -0.67700666 0.39792326 0.2148304 -0.7138044
-0.20742214 0.44502145 -0.61833435 -0.15288809 0.9708985 0.11522149 0.645015 0.10790676
0.1938433 -0.56480974 0.69236803 -0.19034009 0.026967963 0.01293029 0.6595671 0.66833365
-0.31659877 0.7447124 0.33767366 0.32880744 0.35712817 0.32528526 -0.92710924 0.7808613
-0.4066186 0.3245762 0.54470074 0.70909905 -0.5463332 0.68842685 0.71602494 -0.45018396
0.24527648 0.51433253 -0.39664277 0.38462994 -0.11179047 0.61450064 -0.4368192 0.12911965
-0.0556918 0.08340875 0.39649126 -0.093424074 0.21380399 0.46918154 -0.33236122 0.008598722
0.5035843 0.1941298 -0.7585141 -0.7617989 -0.030946866 0.33259478 0.63582903 -0.26512697
0.23030812 -0.24119548 -0.13761418 -0.1944692 0.6762685 -0.78606266 -0.11967112 -0.13403344
-0.2202014 0.024224067 0.291218 0.11469011 0.020353701 0.26893762 0.6262245 0.41811842
-0.45703804 0.1648904 0.087529175 -0.12934731 0.06914023 -0.803238 -1.223215 0.031331424
-0.36671957 -0.47378042 -1.032698 -0.7986047 -0.022922026 -0.8244159 0.14902095 -1.0306827
-1.5457222 -0.76374835 -1.3034586 0.447331 -0.31930038 -1.8979554 -0.6025199 -0.08775206
-0.78794 0.20730121 -0.015935292 -0.36073914 -0.6522987 -0.6442595 -1.6456873 -0.77527136
-0.33607346 -1.5769805 -1.0764738 -0.7630096 -1.1200359 -1.5763028 0.28445846 0.09123966
-0.44597074 -1.5281096 -0.71755785 0.7438862 -0.7263559 -1.7743505 -0.39690423 -0.08006892
-0.8313765 0.520704 -0.5376468 -1.7583337 0.18468624 -0.6543795 -1.0074531 0.05160913
-0.9478413 -0.13895363 -1.6559209 -0.8585085 -0.3004422 0.19782732 -0.7987724 -0.7911992
-0.63621897 0.25599906 -0.5315574 -0.94885576 -0.8725654 0.29647517 -0.921468 0.05313127
-0.22385931 -0.71640587 -0.51330876 -1.0804605 -1.315471 -1.2564851 -0.31558028 -0.2491396
00000000: 533b 29bf 0f12 b2bd 6c96 993e 7d13 44bf
00000010: 7ca6 8fbc bff7 6cbd b19f 4a3f 1b1e 333f
00000020: a9d3 0e3f 0149 c83d ef2d 823d cdd6 513f
00000030: 8b60 343e 15fa 3b3e 5528 3a3f 75da 1dbd
00000040: 091e 253f b5ce 3abe 4c6f 873f 08aa 7a3e
00000050: 3b7b 84bd eca9 043e c042 133f 8290 e8bd
00000060: 8432 af3e d29a 2c3e eabc a73e d701 743f
00000070: 7eef 403f af8c 8abe cd40 7b3e 516a 0a3d
00000080: 3049 9d3d 26bf b63e 73d7 c63e 9004 4dbc
00000090: 2034 103f 11eb fdbd e5d1 6b3f 26ce 203f
000000a0: cc8a c23d c3c9 b53e cfe3 6a3f 062f b93e
000000b0: 1c95 9b3e ec80 a4be 21e9 e83e 2b8a b8be
000000c0: d76a 573e 3869 223f daf6 2d3f 2b7c efbe
000000d0: 5d4b 4a3e a6ef ad3e 31a2 fbbd beb8 ba3e
000000e0: 61c6 3abf 46f8 f63e 89ee 133f 295b 3f3e
000000f0: 8457 663e 91a3 eebc 4d45 1b3e 9f6b 443f
00000100: 994e 36bf af59 393d 49fa 643e 5bcb b7be
00000110: ea0e e8be acf0 c4be 13f0 403e 9925 703f
00000120: 3431 d03c 2aaa f1be 457d 1c3f 52ff 67be
00000130: ffa8 08be ec23 94bd a666 10bb 948b af3e
00000140: 5319 0f3f 7289 4e3f cc44 98be 8114 15be
00000150: 2f82 483e 829c 8ebe 8f4d 373f 2019 953e
00000160: c30f 3e3f b6bc 41be 67e3 a6be 8dce 203f
00000170: aca0 083d ab37 c53e ff06 593f f23e 533f
00000180: 442c 123f a43e 2d3e 3706 2c3f e586 2ebe
00000190: 4f50 2dbf 99bc cb3e 80fc 5b3e e3bb 36bf
000001a0: 7866 54be dad9 e33e 294b 1ebf b28e 1cbe
000001b0: ce8c 783f 3ff9 eb3d b41f 253f 38fe dc3d
000001c0: dc7e 463e 5f97 10bf 083f 313f 83e8 42be
000001d0: ebeb dc3c 91d9 533c 64d9 283f ea17 2b3f
000001e0: 3c19 a2be 79a5 3e3f 90e3 ac3e 7359 a83e
000001f0: 81d9 b63e ca8b a63e 0857 6dbf 87e6 473f
00000200: 5030 d0be da2e a63e 8271 0b3f 8487 353f
00000210: 7edc 0bbf be3c 303f 694d 373f 837e e6be
00000220: c229 7b3e 4cab 033f c314 cbbe 37ee c43e
00000230: 67f2 e4bd ea4f 1d3f c4a6 dfbe f137 043e
00000240: 161d 64bd 35d2 aa3d e700 cb3e 1f55 bfbd
00000250: 6fef 5a3e 9038 f03e 402b aabe a7e1 0c3c
00000260: e7ea 003f f6c9 463e fb2d 42bf 4105 43bf
00000270: 4884 fdbc dd49 aa3e b1c5 223f b9be 87be
00000280: e4d5 6b3e f3fb 76be bbea 0cbe ef22 47be
00000290: ef1f 2d3f 673b 49bf 2216 f5bd 1040 09be
000002a0: 7a7c 61be 8d71 c63c 871a 953e a6e2 ea3d
000002b0: cebc a63c 31b2 893e 4050 203f 9e13 d63e
000002c0: e400 eabe 07d9 283e 7f42 b33d 9f73 04be
000002d0: 6599 8d3d 01a1 4dbf 4f92 9cbf 6155 003d
000002e0: abc2 bbbe 5993 f2be 732f 84bf 5c71 4cbf
000002f0: f9c6 bbbc ec0c 53bf f398 183e 69ed 83bf
00000300: 3ada c5bf 0385 43bf bbd7 a6bf 9208 e53e
00000310: 577b a3be 34f0 f2bf bf3e 1abf 5ab7 b3bd
00000320: 70b6 49bf c546 543e bb8a 82bc cdb2 b8be
00000330: 0cfd 26bf 31ee 24bf e2a5 d2bf 2f78 46bf
00000340: d211 acbe 7fda c9bf e5c9 89bf 9954 43bf
00000350: 565d 8fbf 4ac4 c9bf 8aa4 913e dcdb ba3d
00000360: 4756 e4be 1899 c3bf dfb1 37bf 536f 3e3f
00000370: 76f2 39bf eb1d e3bf 0837 cbbe 2dfb a3bd
00000380: 17d5 54bf db4c 053f 38a3 09bf 1411 e1bf
00000390: 641e 3d3e 6a85 27bf 39f4 80bf 1864 533d
000003a0: baa5 72bf dc49 0ebe 37f5 d3bf 37c7 5bbf
000003b0: 8fd3 99be 3f93 4a3e 597c 4cbf 088c 4abf
000003c0: 3fdf 22bf 4f12 833e 2514 08bf 36e8 72bf
000003d0: 7260 5fbf 98cb 973e 54e5 6bbf 2da0 593d
000003e0: 603b 65be 6066 37bf 3468 03bf 884c 8abf
000003f0: 5b61 a8bf 81d4 a0bf bd93 a1be 741e 7fbe

L4.bias f4 [88]
0.30204812 -0.5210817 -0.54962724 0.9341897 0.89789337 -1.0277263 -0.44051358 0.108945355
-0.408778 -1.1337436 -1.2644968 -0.74288505 -1.2724454 -1.2796441 -0.56491166 0.06183361
-0.48708826 0.60853136 -0.8540703 -0.267449 -0.55196404 0.40282914 -0.6200738 -0.12754646
-0.7592388 -0.38257042 -0.70985943 -0.084175766 -0.51990014 -0.25237677 -0.16911869 -0.6925485
-0.24453574 -0.46514833 -0.49040282 -0.5706034 -0.7390742 -0.2603958 -0.19264355 -0.7757314
-0.22502036 -0.18070363 -1.1325402 -0.7473091 -0.2308615 -0.3496685 -0.6667271 -0.41252062
-0.47230124 -2.7408671 -0.81366783 -0.46022648 -1.1240221 -1.0191069 -0.81804717 0.08623895
-0.83101726 -0.5566441 -0.29325846 -1.0083584 0.8422905 -0.8073303 0.8862441 -0.65042424
-0.3041388 -0.7190423 -0.18580264 -1.2110447 -0.7512351 0.7108374 -0.34551036 -1.0428004
-0.7235346 0.058115095 -0.66986203 -0.17125314 -0.506544 -0.078843705 -0.4645578 -0.009239484
1.1844518 0.07120643 -0.6448962 -0.6093968 0.097589776 -0.62613064 -0.6678458 -0.4776016
00000000: 0da6 9a3e 9c65 05bf 5fb4 0cbf 0e27 6f3f
00000010: 57dc 653f 898c 83bf ff8a e1be be1e df3d
00000020: 5a4b d1be 831e 91bf 08db a1bf b72d 3ebf
00000030: 7edf a2bf 61cb a3bf 0d9e 10bf 3d45 7d3d
00000040: a263 f9be b6c8 1b3f 5aa4 5abf 13ef 88be
00000050: 844d 0dbf 9f3f ce3e 28bd 1ebf 8a9b 02be
00000060: 795d 42bf 45e0 c3be 59b9 35bf 5864 acbd
00000070: 2d18 05bf 8737 81be 732d 2dbe dc4a 31bf
00000080: 9467 7abe ec27 eebe 1416 fbbe 1013 12bf
00000090: f733 3dbf 9952 85be 5a44 45be 5596 46bf
000000a0: bd6b 66be 5f0a 39be 14f7 90bf a64f 3fbf
000000b0: f566 6cbe c007 b3be a1ae 2abf e735 d3be
000000c0: 78d1 f1be 5e6a 2fc0 894c 50bf cea2 ebbe
000000d0: f5df 8fbf 1872 82bf 8a6b 51bf 0c9e b03d
000000e0: 8cbd 54bf 3a80 0ebf f925 96be e311 81bf
000000f0: 5aa0 573f 33ad 4ebf e5e0 623f 3482 26bf
00000100: 15b8 9bbe 2813 38bf 0c43 3ebe 8303 9bbf
00000110: f250 40bf 71f9 353f bce6 b0be 7c7a 85bf
00000120: 9039 39bf 180a 6e3d 147c 2bbf fc5c 2fbe
00000130: deac 01bf cf78 a1bd 85da edbe 3461 17bc
00000140: 1e9c 973f add4 913d eb17 25bf 6e01 1cbf
00000150: 26dd c73d 194a 20bf f1f7 2abf 3288 f4be

L5.weight f4 [44, 88]
-0.061109833 0.13725808 0.46347106 0.040807687 -0.30246824 0.60680723 -0.21344589 -0.35204694
0.1190909 0.46995482 -0.21414953 -0.11276418 -0.036735144 0.35528147 -0.04111856 -0.40366027
0.015938804 -0.48236492 0.29357663 -0.0004670096 -0.46567354 -0.4745575 0.6006195 -0.20564038
0.35419658 0.64401907 0.19297715 -0.31067094 0.48386472 -0.16659328 0.09631814 0.2660415
-0.1228539 -0.037710704 -0.24574722 0.34702116 -0.30843753 -0.01774687 -0.036153793 0.070942305
-0.361716 0.13941255 -0.18761252 0.31934386 -0.53759426 -0.37999946 -0.10531764 -0.004454318
-0.29527137 0.6973717 0.42984608 0.119958274 0.06771315 0.21833384 -0.3723677 0.19100083
-0.16136353 0.3266633 -0.2636366 0.08121498 -0.24144238 -0.15592545 -0.16046643 -0.20517018
0.23100123 -0.026765805 -0.05142828 0.22753637 -0.012968883 -0.11741104 -0.21787061 0.5879608
-0.115061924 -0.27363378 0.61577165 -0.3759481 -0.008011768 0.16029876 0.19642016 -0.053863976
-0.5095424 0.030951897 -0.018396402 0.14819682 -0.34719184 0.21441162 0.44769812 0.061403178
-0.35070363 0.892326 0.35621426 -0.3868598 -0.242941 -0.007987665 -0.56879586 -0.2924139
0.054499798 -0.028519833 -0.13426761 0.07199801 0.351867 0.23331682 -0.15391797 -0.048695907
-0.29280385 -0.72992957 0.46840805 1.2847348 0.7429349 0.26330635 1.2500014 -0.24504638
-0.14701526 0.52034223 0.691224 0.08625382 1.1237187 -0.44740924 0.42444372 0.44883037
0.018115807 0.49539462 0.2576918 0.08284306 0.051653255 -0.66319007 -0.7547457 -0.24805287
-0.6837602 0.59241563 -0.59953815 0.082459345 -0.29450467 -0.15823108 0.23913898 -0.2915681
0.43535078 0.90595806 0.20942797 -0.027055101 -0.055931028 0.082343444 -0.2711507 0.43370134
1.0478581 0.28390485 -0.68277 1.2350751 -0.5614325 -0.22595108 0.058154136 -0.13679619
1.2654103 0.40503612 -0.47460994 -0.09473897 -0.09335873 -0.514425 -0.21777031 1.1786678
0.37806147 0.29027894 0.21862037 0.33723125 0.12119098 0.5385911 0.6195973 -0.44170013
-0.6767835 0.8711448 -0.050278958 0.20740893 -0.86921483 -0.13682905 0.3463865 0.5320088
-0.59096825 0.81085086 0.42758933 -0.6160933 -0.35455433 0.11614687 -0.6917381 -0.29572618
0.23585522 0.40446758 -0.4202566 -0.1783122 0.33937383 0.41920045 0.12190631 -0.09412922
-0.20251454 0.18060495 0.51782674 0.966238 -0.71944016 -0.115507446 0.029768651 0.20353153
-0.5003014 0.71237415 0.16274421 -0.0841517 0.58657724 -0.489848 0.18640515 0.18999119
0.087053254 -0.05950641 0.3968235 -0.017449293 0.077770524 -0.22517352 0.0054064356 0.3812302
-0.32152867 0.22532943 -0.5970033 0.4273632 -0.10318655 -0.28078133 -0.17164093 -0.6116149
0.13218905 0.7697894 0.09387742 -0.2661046 0.08644451 0.5742811 -0.5566327 -0.37055796
0.254977 0.21034586 -0.43932864 0.011768146 -0.25250983 -0.2572127 -0.34542152 0.20823196
0.08710976 0.32387358 -0.2112568 0.0666157 -0.37317792 -0.5569922 -0.37303713 0.17604747
-0.33320773 0.029965546 1.1165432 0.17827848 0.048087694 0.13692796 0.056739688 0.05864573
00000000: 4e4e 7abd 628d 0c3e 144c ed3e f625 273d
00000010: 1edd 9abe b857 1b3f 8f91 5abe 7f3f b4be
00000020: eee5 f33d eb9d f03e 044a 5bbe e8f0 e6bd
00000030: 9777 16bd 74e7 b53e ef6b 28bd 8fac cebe
00000040: 1892 823c 89f8 f6be ad4f 963e f8d8 f4b9
00000050: c36c eebe 33f9 f2be 33c2 193f 6493 52be
00000060: 4159 b53e 6fde 243f cd9b 453e 4310 9fbe
00000070: 1ebd f73e 6e97 2abe 7242 c53d 9736 883e
00000080: d39a fbbd 8a76 1abd 29a5 7bbe c2ac b13e
00000090: 86eb 9dbe e261 91bc 0016 14bd 334a 913d
000000a0: d732 b9be 2ac2 0e3e 7f1d 40be 0a81 a33e
000000b0: c79f 09bf 4a8f c2be c6b0 d7bd 87f5 91bb
000000c0: cf2d 97be f486 323f c914 dc3e afac f53d
000000d0: 31ad 8a3d e892 5f3e fba6 bebe b995 433e
000000e0: 7b3c 25be 6940 a73e 60fb 86be 0a54 a63d
000000f0: ac3c 77be ecaa 1fbe 5051 24be 2218 52be
00000100: 968b 6c3e f643 dbbc 76a6 52bd 4bff 683e
00000110: 707b 54bc 3375 f0bd 7919 5fbe 9984 163f
00000120: 96a5 ebbd ba19 8cbe 36a3 1d3f 457c c0be
00000130: ca43 03bc 5c25 243e 5e22 493e 79a0 5cbd
00000140: 5f71 02bf d58e fd3c 0db4 96bc e8c0 173e
00000150: 21c3 b1be b88e 5b3e b038 e53e e681 7b3d
00000160: 6d8f b3be 7a6f 643f b761 b63e 7d12 c6be
00000170: 87c5 78be b2de 02bc 9b9c 11bf 46b7 95be
00000180: 2e3b 5f3d 6da2 e9bc 737d 09be b173 933d
00000190: e927 b43e 9bea 6e3e ac9c 1dbe 5c75 47bd
000001a0: 63ea 95be aadc 3abf 2ed3 ef3e 3172 a43f
000001b0: fb30 3e3f 17d0 863e 0c00 a03f 70ed 7abe
000001c0: 2b8b 16be 2635 053f 0ef4 303f d8a5 b03d
000001d0: 04d6 8f3f d312 e5be b050 d93e 18cd e53e
000001e0: 9a67 943c 5da4 fd3e 2ef0 833e 9fa9 a93d
000001f0: 5d92 533d d3c6 29bf 0437 41bf 9201 7ebe
00000200: e90a 2fbf 8da8 173f 557b 19bf 72e0 a83d
00000210: 51c9 96be 5407 22be d9e0 743e 6a48 95be
00000220: 4ce6 de3e deec 673f 4974 563e a9a2 ddbc
00000230: ef17 65bd aea3 a83d 44d4 8abe 1a0e de3e
00000240: 3720 863f fa5b 913e 04ca 2ebf f116 9e3f
00000250: 0aba 0fbf b85f 67be 0833 6e3d 4d14 0cbe
00000260: f7f8 a13f e560 cf3e 1300 f3be 8106 c2bd
00000270: dd32 bfbd 5bb1 03bf 2eff 5ebe 96de 963f
00000280: 4691 c13e 719f 943e 05de 5f3e 93a9 ac3e
00000290: fa32 f83d 1be1 093f ee9d 1e3f 8526 e2be
000002a0: af41 2dbf 5803 5f3f 4ff1 4dbd 0263 543e
000002b0: dd84 5ebf ea1c 0cbe 9259 b13e bb31 083f
000002c0: b249 17bf ec93 4f3f fdec da3e 4ab8 1dbf
000002d0: 2588 b5be 69de ed3d c015 31bf 6c69 97be
000002e0: 0884 713e 6016 cf3e e02b d7be 7997 36be
000002f0: 68c2 ad3e 71a1 d63e 04aa f93d d2c6 c0bd
00000300: f95f 4fbe 81f0 383e 4b90 043f 605b 773f
00000310: 3b2d 38bf 2b8f ecbd 63dd f33c 926a 503e
00000320: c113 00bf 275e 363f 6ba6 263e ba57 acbd
00000330: ed29 163f 5bcd fabe fee0 3e3e 0d8d 423e
00000340: fa48 b23d febc 73bd 732c cb3e d2f1 8ebc
00000350: 2746 9f3d e393 66be 7828 b13b 9b30 c33e
00000360: 689f a4be c2bc 663e 35d5 18bf 59cf da3e
00000370: 7853 d3bd 92c2 8fbe a4c2 2fbe cb92 1cbf
00000380: 915c 073e eb10 453f ce42 c03d dd3e 88be
00000390: d209 b13d 1604 133f 7b7f 0ebf c6b9 bdbe
000003a0: 588c 823e e864 573e afef e0be 2fcf 403c
000003b0: f848 81be 62b1 83be 17db b0be c23a 553e
000003c0: 9a66 b23d c2d2 a53e b453 58be d06d 883d
000003d0: 2d11 bfbe 0a97 0ebf b9fe bebe ca45 343e
000003e0: 349a aabe 4e7a f53c e3ea 8e3f a28e 363e
000003f0: 9af7 443d d836 0c3e e067 683d 8136 703d

L5.bias f4 [44]
-0.60391134 -1.0366735 -0.3650462 -0.577131 -0.6154749 -0.6290097 -0.12221055 -0.5944711
-0.8724692 -0.4686661 -0.5496295 -1.0915412 -0.9847602 -0.6902854 -0.6234918 -0.80173635
-0.976753 -0.06669661 -1.7966807 -0.86661166 -1.3836707 -0.40313256 -0.7137857 -0.7946785
-1.1184365 -1.219299 -0.9448149 -0.9723728 -0.4518426 -0.76177555 -0.4670735 -1.148657
-0.97422355 -0.6220184 -0.6745188 -1.1807486 -0.821993 -0.82638276 -1.0700076 -0.9220487
-1.1008427 -0.56625956 -0.4199015 -1.0137469
00000000: ef99 1abf b8b1 84bf 56e7 babe dbbe 13bf
00000010: c38f 1dbf c806 21bf 8649 fabd 422f 18bf
00000020: 245a 5fbf 01f5 efbe 85b4 0cbf 9fb7 8bbf
00000030: 3f19 7cbf 8bb6 30bf 299d 1fbf 983e 4dbf
00000040: 7c0c 7abf 3b98 88bd a2f9 e5bf 43da 5dbf
00000050: 1f1c b1bf 6467 cebe a9ba 36bf 0d70 4bbf
00000060: ed28 8fbf fd11 9cbf 64df 71bf 6ced 78bf
00000070: ea57 e7be b903 43bf 4224 efbe 3107 93bf
00000080: b766 79bf 993c 1fbf 44ad 2cbf c522 97bf
00000090: 226e 52bf d28d 53bf 02f6 88bf 620b 6cbf
000000a0: 6ae8 8cbf 63f6 10bf 54fd d6be 75c2 81bf

L6.weight f4 [1, 44]
0.040900983 -0.19889003 0.09773291 -0.0033018505 0.02457602 -0.02722931 0.1699216 0.26801392
-0.079760805 0.0036503898 0.028277887 -0.03193592 0.03621614 -0.10075535 -0.14430305 0.11654597
0.11341695 -0.10327997 0.21957925 0.04346438 0.16661525 0.08511366 -0.23241375 0.11549181
0.26726666 -0.15250278 0.022343043 -0.0059379544 0.015657077 -0.12676321 -0.039252352 0.030040845
0.050618563 -0.19383587 0.18640424 0.14454083 0.010595191 0.013006818 0.039581306 -0.23596284
0.20509903 -0.022977665 -0.01159843 -0.09696343
00000000: ca87 273d d4a9 4bbe 3128 c83d dc63 58bb
00000010: a653 c93c 0010 dfbc eeff 2d3e 1f39 893e
00000020: a259 a3bd 613b 6f3b 07a7 e73c 3dcf 02bd
00000030: 6057 143d d258 cebd 2ec4 13be a7af ee3d
00000040: 2547 e83d 7384 d3bd 62d9 603e b507 323d
00000050: 309d 2a3e 1250 ae3d dffd 6dbe f886 ec3d
00000060: 2dd7 883e b029 1cbe c208 b73c 2c93 c2bb
00000070: 4543 803c 37ce 01be 13c7 20bd 3818 f63c
00000080: 6955 4f3d e97c 46be c1e0 3e3e 8302 143e
00000090: 7497 2d3c 8c1a 553c 0220 223d 3ea0 71be
000000a0: 7b05 523e a83b bcbc 5707 3ebc c394 c6bd
