Saved_Models_All_Features_Only_Simulation_Samples/target_Hardness_features_22_epochs_30.pth (torch_old, 162565 bytes, 11 tensors)

L1.weight f4 [44, 22]
0	0xbe9e4929	-0.30915192
1	0x3e7d80af	0.2475612
2	0x3eb68548	0.3564856
3	0x3e43ce22	0.19121602
4	0x3d6c663e	0.057714693
5	0x3f0c18d8	0.5472541
6	0xbe227214	-0.1586383
7	0x3ecf1e47	0.40452787
8	0x3e912dce	0.2835526
9	0xbe0875b5	-0.13326152
10	0xbd1ee376	-0.038791142
11	0xbd2d134f	-0.042254742
12	0xbdc71855	-0.09721438
13	0x3ea13cfa	0.31491834
14	0x3e152e9b	0.1456856
15	0x3e98d9b9	0.2985361
16	0x3e82d2cd	0.25551453
17	0xbe84a89c	-0.2590989
18	0x3f0ba6a4	0.5455115
19	0xbef0e066	-0.47046202
20	0x3e068d8c	0.13139933
21	0x3d24d298	0.0402399
22	0xbe05da0f	-0.13071464
23	0x3e6c6440	0.23085117
24	0x3e7a0f21	0.24419834
25	0x3f015037	0.50513023
26	0xbcea765d	-0.028620893
27	0x3e5308d5	0.20608838
28	0xbe0965e6	-0.13417777
29	0x3dda1f8e	0.1065055
30	0x3ebe05bf	0.3711376
31	0x3dd1d5ed	0.10245881
32	0xbc8a1afa	-0.016858567
33	0x3e427935	0.1899155
34	0x3de5602b	0.11199983
35	0x3f14769c	0.57993484
36	0x3c0d71ab	0.008633058
37	0x3ed1c8ff	0.4097366
38	0xbdb688bc	-0.08912799
39	0xbd2edcdf	-0.042691108
40	0x3ea6341a	0.32461625
41	0x3d23f8a7	0.040032055
42	0x3e3613f1	0.17781045
43	0x3e96f460	0.29483318
44	0x3de36e50	0.11105025
45	0x3f097329	0.53691345
46	0xbe0b189a	-0.13583604
47	0xbd46288c	-0.048378512
48	0x3deaa98d	0.114581205
49	0x3d50b78f	0.050956305
50	0x3dc47c14	0.095939785
51	0x3ee76c16	0.4519965
52	0x3dc6a34f	0.096991174
53	0xbe6a38d0	-0.22873235
54	0x3edbd445	0.42935386
55	0xbea5a5d4	-0.3235308
56	0x3e030b8c	0.12797374
57	0xbdb55106	-0.088533446
58	0xbe8e921f	-0.27845857
59	0x3e59ebf2	0.21281412
60	0x3d4d800b	0.05017094
61	0xbe81e32e	-0.25368637
62	0xbc730f82	-0.01483524
63	0x3e33c895	0.17556985
64	0x3e81dfef	0.2536616
65	0x3df299c6	0.11845736
66	0xbf2b7116	-0.6696943
67	0x3ebdd592	0.37077004
68	0x3e1eca6d	0.15506907
69	0xbd6a9a8d	-0.057276297
70	0x3e9b3bc5	0.30319038
71	0x3e0687ea	0.13137785
72	0xbc9c6be8	-0.019094422
73	0x3e60b59b	0.21944277
74	0x3ee056c4	0.43816197
75	0x3e7de89d	0.24795766
76	0x3e7d4dc6	0.247367
77	0x3ec02701	0.37529758
78	0xbe816aae	-0.25276703
79	0x3eca93f9	0.3956602
80	0x3e32b99a	0.17453614
81	0x3e782adf	0.24235104
82	0xbe0db3f4	-0.13838178
83	0xbf19cb93	-0.60076255
84	0x3e60e297	0.21961437
85	0xbec06d73	-0.37583503
86	0xbdda5737	-0.10661166
87	0x3e1ad28a	0.15119377
88	0x3e8885a0	0.26664448
89	0xbe3549b0	-0.17703891
90	0x3d95545d	0.07291482
91	0xbd19ce57	-0.037550297
92	0x3c192a87	0.009348518
93	0x3c11e8bb	0.008905585
94	0xbe023d1c	-0.12718624
95	0x3f3307f6	0.6993402
96	0x3e57f000	0.21087646
97	0x3e247113	0.1605876
98	0x3ebc18b9	0.36737612
99	0xbe5d17e1	-0.2159114
100	0xbd697d54	-0.057004288
101	0xbe0714a1	-0.13191463
102	0xbd9ab17b	-0.07553383
103	0x3edfe80b	0.43731722
104	0x3dabff5a	0.08398314
105	0xbf4f355b	-0.8094079
106	0x3e8bd58c	0.2731136
107	0xbe9bb5d5	-0.30412164
108	0x3e371b73	0.17881565
109	0x3ecbb018	0.39782786
110	0xbd46774f	-0.048453625
111	0x3f0e0ac9	0.55485207
112	0x3f033823	0.5125753
113	0x3ecb0a27	0.39656183
114	0xbe4fdea5	-0.20299776
115	0x3e91859b	0.28422245
116	0xbdc3c72c	-0.095594734
117	0x3f03feef	0.5156087
118	0x3f481739	0.78160435
119	0x3ea95d24	0.33078873
120	0x3e9bb6b9	0.30412844
121	0xbde29820	-0.11064172
122	0xbc8c4f55	-0.017127672
123	0x3e8e32c6	0.27773112
124	0x3ec75f5b	0.38939938
125	0x3e923387	0.28554937
126	0x3e9374a9	0.28799942
127	0xbe99d0eb	-0.30042204
128	0x3f2ce26d	0.67533
129	0xbe23b01e	-0.15985152
130	0x3edbe4bc	0.42947948
131	0x3e83fbae	0.25777954
132	0xbc5ebba5	-0.013594543
133	0x3ec9f506	0.3944475
134	0x3e78967d	0.24276157
135	0x3ea29cd1	0.31760266
136	0x3e5fdd4b	0.2186176
137	0x3ebdd7a6	0.3707859
138	0x3e4773aa	0.19477716
139	0x3eee60dd	0.46558276
140	0x3e846c16	0.25863713
141	0x3e595277	0.21222864
142	0x3e28c56d	0.16481562
143	0xbbb2627f	-0.0054438706
144	0x3e6cc24f	0.23120998
145	0xbdc8dd52	-0.098078385
146	0x3be19bca	0.0068850266
147	0x3e9c7f16	0.3056571
148	0x3eee666b	0.46562514
149	0xbe65b5c1	-0.22432615
150	0x3e816273	0.25270423
151	0xbdb9dc9f	-0.09075283
152	0x3e447910	0.19186807
153	0x3efa8d75	0.48936048
154	0x3eb0d926	0.3454067
155	0xbe73b8d4	-0.23800975
156	0x3d4631b9	0.048387263
157	0x3d9aeb35	0.075643934
158	0xbcd6e5f6	-0.0262327
159	0xbe79c715	-0.2439235
160	0x3e445ebe	0.19176766
161	0xb9ff213e	-0.00048662157
162	0x3e82c440	0.25540352
163	0xbdd2d5a1	-0.10294653
164	0x3d01643e	0.03158974
165	0x3dad711a	0.08468838
166	0x3dc55917	0.09636133
167	0x3e91d515	0.2848288
168	0x3f8b0493	1.0860771
169	0x3ede4bc7	0.4341719
170	0xbece0b3d	-0.4024295
171	0xbd69daf2	-0.05709357
172	0xbd9fe4b6	-0.07807295
173	0xbd1a94e3	-0.037739646
174	0xbd839908	-0.06425673
175	0x3b8f1303	0.00436628
176	0xbe09ab15	-0.13444169
177	0x3f01cab1	0.5069991
178	0x3e8b81d1	0.2724748
179	0xbda41e91	-0.080136426
180	0x3def190e	0.11674701
181	0x3ef76604	0.4832002
182	0x3cea3ff0	0.02859494
183	0x3ee2ae54	0.44273627
184	0x3f130458	0.57428503
185	0x3e1a99df	0.1509776
186	0x3d864f99	0.06558151
187	0x3e0d42e2	0.13795045
188	0xbdb23d6d	-0.08703122
189	0x3f03e553	0.51521796
190	0xbe87b3b7	-0.265043
191	0x3f90e42c	1.1319633
192	0x3f33162c	0.69955707
193	0xbf0298a3	-0.51014155
194	0xbca8181a	-0.020519305
195	0x3efb18a4	0.49042237
196	0x3e587415	0.21138032
197	0x3e682f1b	0.2267422
198	0x3eb8a393	0.36062297
199	0x3f28fa02	0.6600648
200	0x3f032768	0.51232004
201	0xbe46d56f	-0.19417356
202	0x3f02e5b3	0.51131743
203	0x3e9582a1	0.29201224
204	0xbd339530	-0.04384345
205	0xbc95e1da	-0.018296171
206	0x3f14c40f	0.5811166
207	0x3ebf648c	0.373814
208	0x3e95e13a	0.29273397
209	0xbe7da531	-0.24770047
210	0x3cf52edd	0.029929573
211	0x3f4980fc	0.7871244
212	0x3d3b5821	0.045738343
213	0x3f618175	0.8808816
214	0xbeeb2a56	-0.45930737
215	0xbda07774	-0.07835284
216	0x3d5a1a11	0.053247515
217	0xbe707820	-0.23483324
218	0x3e51ee8d	0.20501156
219	0x3e2b5a0a	0.16733566
220	0x3e0b50f4	0.136051
221	0xbe5dfba2	-0.21678022
222	0xbf293c23	-0.66107386
223	0x3e9c9492	0.305821
224	0x3e8d9988	0.27656198
225	0xbee69a25	-0.45039478
226	0x3c96eff8	0.018424973
227	0xbde23503	-0.110452674
228	0x3e2dec60	0.16984701
229	0xbe81c55c	-0.25345886
230	0x3ed2f66f	0.4120364
231	0xbe8265c4	-0.25468266
232	0xbbd55a75	-0.0065110275
233	0x3ee13e58	0.43992877
234	0x3f66e0d1	0.9018679
235	0xbdeb033c	-0.11475226
236	0xbee3f0e7	-0.4451973
237	0x3f2ff174	0.68727803
238	0x3d87f8cc	0.06639251
239	0xbeb32fa2	-0.34997278
240	0xbdbd1747	-0.092329554
241	0x3e34dd9c	0.17662662
242	0x3eef8362	0.46779925
243	0x3dcf1e32	0.10113181
244	0x3f366091	0.712411
245	0x3ea852e5	0.32875744
246	0x3ef3d1ba	0.47620946
247	0x3cd0760d	0.025446916
248	0x3dfaaac0	0.12239599
249	0x3ed14ed5	0.40880457
250	0x3ee26ae2	0.4422217
251	0x3e8661af	0.26246402
252	0x3e8be308	0.2732165
253	0xbdf8bcb0	-0.12145364
254	0x3ead3819	0.33831862
255	0xbdc5e2f6	-0.0966243

L1.bias f4 [44]
0	0xbf846f09	-1.0346385
1	0xbfd510bd	-1.6645733
2	0xbf81d257	-1.0142316
3	0xbf7fd8ad	-0.99939996
4	0xbf630319	-0.886766
5	0xc00db0e1	-2.2139208
6	0xbfea3000	-1.8295898
7	0xbf73a038	-0.9516635
8	0xbfc81fb7	-1.5634679
9	0xbfa6f981	-1.3044893
10	0xbf3244ea	-0.69636405
11	0xbff433e3	-1.9078335
12	0xbf9d3a4f	-1.2283419
13	0xbf7690b5	-0.96314555
14	0xbfac3052	-1.3452246
15	0xbfe2101c	-1.7661166
16	0xbfced000	-1.6157227
17	0xbf7e6196	-0.99367654
18	0xbf69aec9	-0.91282326
19	0xbf576545	-0.841389
20	0xbfb2b04f	-1.3960055
21	0xbf7fee00	-0.99972534
22	0xbfd89d65	-1.6923033
23	0xbfd4c889	-1.6623698
24	0xbf2af7ea	-0.66784537
25	0xbfa57ac1	-1.2928087
26	0xbfa29102	-1.2700503
27	0xbfbce0c1	-1.475609
28	0xbf91a2c1	-1.1377794
29	0xbfd98a17	-1.6995267
30	0xbfd25f7b	-1.6435388
31	0xbd2145c3	-0.03937317
32	0xbfc71196	-1.5552242
33	0xbf58d302	-0.8469697
34	0xbfd5d39d	-1.6705204
35	0xbf03b1c6	-0.51443136
36	0xbf226cd1	-0.6344729
37	0xbfc4dc93	-1.5379814
38	0xbf952df1	-1.1654645
39	0xbf89ac74	-1.0755754
40	0xbf90cc80	-1.1312408
41	0xbfb5775e	-1.4177053
42	0xbf85c57d	-1.0450894
43	0xbfbad438	-1.4596014

L2.weight f4 [88, 44]
0	0x3de61f81	0.11236478
1	0x3e02fca0	0.12791681
2	0x3c96d056	0.01840989
3	0xbee05d00	-0.43820953
4	0x3e4d606b	0.20056312
5	0x3e725642	0.23665717
6	0x3eaad022	0.33361918
7	0xbe966248	-0.29371858
8	0xbd11f569	-0.035634432
9	0xbf147440	-0.57989883
10	0xbc9afa5d	-0.01891821
11	0x3e140aa4	0.14457184
12	0x3e34a09a	0.1763939
13	0xbe8b10d7	-0.27161285
14	0xbe22a76a	-0.15884176
15	0xbe02c107	-0.12768947
16	0xbc788419	-0.015168213
17	0x3ddb2962	0.107012525
18	0xbeb45253	-0.35219058
19	0xbeb13e68	-0.34617925
20	0x3e3f200c	0.18664569
21	0xbf5639ab	-0.83681744
22	0xbe8ded27	-0.27719995
23	0xbec69e23	-0.38792524
24	0xbec51c0f	-0.3849797
25	0xbefb4282	-0.4907418
26	0xbf0db513	-0.5535442
27	0x3d3910a2	0.045181878
28	0xbdc403dc	-0.095710486
29	0xbdf455fa	-0.11930461
30	0x3e4857ec	0.1956479
31	0xbf1d68ca	-0.6148802
32	0xbec6728f	-0.38759276
33	0xbd8f63a9	-0.070014305
34	0xbe4260f6	-0.189823
35	0xbe06ebe7	-0.13175927
36	0xbe1deb4b	-0.15421788
37	0xbeb45683	-0.35222253
38	0x3e7a7b82	0.24461177
39	0xbea5e9e3	-0.32405004
40	0x3e447f86	0.19189271
41	0xbe42fecb	-0.19042508
42	0xbed66580	-0.41874313
43	0x3ea44a98	0.3208816
44	0x3e1039dd	0.14084573
45	0xbf00587e	-0.5013503
46	0xbd4e8c03	-0.050426494
47	0xbf3fe023	-0.7495138
48	0xbc897264	-0.016778179
49	0xbe7beaa2	-0.24601224
50	0x3ea70169	0.32618263
51	0xbe984083	-0.2973672
52	0x3c7e0141	0.015503229
53	0xbf176104	-0.5913241
54	0xbf22491a	-0.63392794
55	0xbf2e5a2f	-0.6810636
56	0xbe45afbe	-0.19305322
57	0xbfe8b06f	-1.8178843
58	0xbf752c73	-0.9577095
59	0xbee7ccde	-0.4527349
60	0xbe47643b	-0.19471829
61	0x3eade0a0	0.33960438
62	0xbf1e8306	-0.61918676
63	0xbf126004	-0.5717776
64	0xbe856ac5	-0.2605802
65	0x3f131007	0.5744633
66	0xbf186f7f	-0.5954513
67	0xbd532e88	-0.051558048
68	0x3d1d39ba	0.03838513
69	0xbebf3b0c	-0.37349737
70	0xbec27736	-0.37981576
71	0xbeca039d	-0.39455882
72	0xbf040add	-0.51579076
73	0x3e649a98	0.22324598
74	0x3dac552e	0.08414684
75	0xbf4b8a78	-0.7950816
76	0xbe85a4b5	-0.26102224
77	0xbdad9968	-0.084765255
78	0xbf146a4c	-0.57974696
79	0xbf9bd397	-1.2173947
80	0xbf60a47e	-0.87750995
81	0xbe84eb23	-0.25960645
82	0xbf3d7e48	-0.74020815
83	0x3e36a7f1	0.17837502
84	0xbde08561	-0.1096294
85	0xbe5f5ade	-0.21812007
86	0xbd6a41f9	-0.057191823
87	0xbe84a953	-0.25910434
88	0xbe444fae	-0.1917102
89	0xbd908f1d	-0.07058547
90	0xbd441f40	-0.047881365
91	0xbea7ce77	-0.32774708
92	0xbe9e472c	-0.30913675
93	0xbed4afed	-0.4154047
94	0xbd5d588b	-0.05403952
95	0xbe55f8e0	-0.2089572
96	0x3da30977	0.0796079
97	0xbecdb0a3	-0.40173826
98	0xbf0b00b4	-0.5429795
99	0xbf0b45d8	-0.5440345
100	0xbdc858ea	-0.09782584
101	0xbf2066cc	-0.62656856
102	0xbf63c7c5	-0.889767
103	0xbd9cbd21	-0.07653261
104	0xbe67147c	-0.22566408
105	0xbe310f60	-0.17291021
106	0xbede3018	-0.43396068
107	0x3de19914	0.110155255
108	0xbe54b357	-0.20771538
109	0xbe628938	-0.22122657
110	0xbe3eeea3	-0.1864572
111	0xbea6332d	-0.3246092
112	0xbed45a53	-0.41475162
113	0xbf92b72e	-1.1462152
114	0xbea2d874	-0.31805766
115	0xbf25a94c	-0.6471145
116	0xbf306aba	-0.6891285
117	0xbe7a9803	-0.2447205
118	0xbeb2e562	-0.3494063
119	0xbec1f5eb	-0.37882933
120	0xbe49d86e	-0.19711468
121	0xbf069ab8	-0.5257983
122	0xbed76257	-0.42067215
123	0xbf845a11	-1.0339986
124	0xbf1b27e0	-0.6060772
125	0xbef51a46	-0.47871608
126	0xbf2beb77	-0.67156166
127	0xbd80004d	-0.06250057
128	0xbe98b121	-0.2982264
129	0xbef7081c	-0.48248374
130	0xbfa57f30	-1.292944
131	0xbf3d2b89	-0.73894554
132	0xbd21987c	-0.03945206
133	0x3c939d47	0.018019332
134	0xbc32448c	-0.010880601
135	0xbf2a56d3	-0.66538733
136	0xbd8c7e8d	-0.06860075
137	0x3e98c77c	0.29839694
138	0x3ec3ef67	0.38268587
139	0xbedbfce0	-0.42966366
140	0xbdf7d792	-0.12101664
141	0x3d06ec4b	0.03294019
142	0x3d25a4b1	0.040440265
143	0x3d9241c4	0.0714145
144	0x3e85386b	0.26019606
145	0xbf0d96a3	-0.5530798
146	0xbda3def3	-0.080015086
147	0xbe6594ab	-0.22419994
148	0xbe0a564f	-0.13509487
149	0x3dea2f54	0.114348084
150	0xbe29fae3	-0.16599612
151	0xbdedbe46	-0.116085574
152	0x3ee3b039	0.44470385
153	0xbf2bb91e	-0.6707934
154	0xbe412bbb	-0.18864338
155	0x3d453f7e	0.048156254
156	0xbf63be72	-0.8896247
157	0xbe3c0350	-0.18360639
158	0xbe312275	-0.172983
159	0xbcba09e8	-0.022709802
160	0xbd997e81	-0.07494832
161	0xbbdd1241	-0.006746561
162	0xbd9cf89a	-0.076646045
163	0xbf46ceb4	-0.77659154
164	0xbe83d731	-0.25750116
165	0x3ec3ea26	0.3826458
166	0xbe3bf05a	-0.18353406
167	0x3c19219c	0.009346392
168	0xbed4cc50	-0.41562128
169	0xbd46b8cd	-0.048516084
170	0x3e1f9322	0.1558347
171	0x3e6cda6c	0.23130196
172	0xbd8885a4	-0.06666115
173	0xbe48a4f3	-0.19594173
174	0xbf1bb7e1	-0.6082745
175	0x3dd62021	0.10455347
176	0x3e429d54	0.19005328
177	0xbd527ea0	-0.05139029
178	0xbf0caa42	-0.5494729
179	0x3e4863b6	0.19569287
180	0xbdb89158	-0.09012097
181	0xbe58ec89	-0.21183981
182	0xbea4907b	-0.3214148
183	0x3e4859f4	0.19565564
184	0x3e834431	0.25637963
185	0xbec59cbe	-0.38596147
186	0xbcf60b6f	-0.030034749
187	0x3e5643ad	0.20924254
188	0x3e83c916	0.25739354
189	0xbec373c6	-0.38174266
190	0xbd2ad157	-0.04170355
191	0x3caad664	0.020854183
192	0x3cdf76b6	0.027278285
193	0x3dd9417e	0.10608195
194	0xbee23bdf	-0.44186303
195	0xbe3a232a	-0.18177477
196	0xbbbff818	-0.0058584325
197	0xbdd71be9	-0.1050337
198	0x3e16bffa	0.14721671
199	0x3e5baf81	0.21453668
200	0xbe20259a	-0.15639344
201	0x3d9ed814	0.077560574
202	0xbeddd206	-0.43324298
203	0x3e8773d7	0.26455566
204	0xbf36576f	-0.71227163
205	0x3e8e8e4c	0.2784294
206	0xbe1f6836	-0.15567097
207	0xbf0a907b	-0.5412671
208	0x3e0015b4	0.12508279
209	0x3eed1cf8	0.46311164
210	0xbe58de0a	-0.21178451
211	0xbe1701c3	-0.14746766
212	0xbeb844a4	-0.3598987
213	0xbde0776c	-0.10960278
214	0x3d97204a	0.073792055
215	0x3e409718	0.18807638
216	0x3e25f126	0.16205272
217	0x3ec3196f	0.38105342
218	0x3ee6228b	0.4494823
219	0xbb838593	-0.004013726
220	0xbf1b1dd1	-0.6059237
221	0xbdb1ec85	-0.08687691
222	0x3eaefd18	0.3417747
223	0xbeb6426e	-0.35597557
224	0x3d0c8e16	0.03431519
225	0xbf3f3957	-0.7469687
226	0x3b7b176c	0.003831352
227	0xbe168d52	-0.14702347
228	0xbf2f1e47	-0.68405575
229	0xbe86b573	-0.2631031
230	0xbead33e4	-0.33828652
231	0xbe503dac	-0.20336026
232	0x3e0f46e4	0.13991886
233	0xbf74e7fb	-0.95666474
234	0xbe908b1f	-0.2823114
235	0x3e8be3f8	0.27322364
236	0xbe88e3aa	-0.26736194
237	0xbe18cdaf	-0.14922212
238	0xbe10e96b	-0.14151542
239	0x3c99755e	0.018732723
240	0xbe64044a	-0.22267261
241	0xbf06f1cb	-0.52712697
242	0xbeec6d87	-0.46177313
243	0xbef92026	-0.4865734
244	0xbf26e672	-0.6519538
245	0xbfad336d	-1.3531319
246	0xbf714d8d	-0.9425896
247	0x3debccda	0.11513682
248	0xbf1e4638	-0.61825895
249	0xbf1e25e7	-0.61776584
250	0xbf0cc65f	-0.5499019
251	0xbc89281a	-0.016742755
252	0xbfa86a40	-1.3157425
253	0xbf4ebceb	-0.80757016
254	0x3e8bb432	0.27285916
255	0xbe6ae56f	-0.22939084

L2.bias f4 [88]
0	0xbf580e08	-0.8439641
1	0xbf53e911	-0.82777506
2	0xbf82be63	-1.0214351
3	0xbece8973	-0.4033924
4	0xbf186995	-0.59536105
5	0xbfaf9fbf	-1.3720626
6	0xbf7cb2c1	-0.98710257
7	0xbea8411a	-0.3286217
8	0xbe834aab	-0.25642905
9	0xbf2c2b12	-0.6725322
10	0xbf2db231	-0.67850024
11	0xbf0c9db8	-0.5492816
12	0xbe95af7a	-0.2923544
13	0xbf200342	-0.6250497
14	0xbf8b962e	-1.0905206
15	0xbe80dbe4	-0.25167763
16	0xbea0c1f5	-0.31397977
17	0xbf19b9e4	-0.6004927
18	0xbfa59cca	-1.2938473
19	0xbf2e117d	-0.67995435
20	0xbf7f9d96	-0.9984983
21	0xbf2b4269	-0.6689821
22	0xbeab6df4	-0.33482325
23	0xbf73f1e3	-0.95290965
24	0xbf6e77c8	-0.9315152
25	0xbef6c0ac	-0.48193872
26	0xbe25851d	-0.1616406
27	0xbe4a63ab	-0.19764583
28	0xbe526cb0	-0.20549273
29	0xbea487d5	-0.32134882
30	0xbda353e2	-0.07974984
31	0xbe42a2af	-0.19007371
32	0xbf602dc6	-0.87569845
33	0xbf39a7ca	-0.7252165
34	0x3eb7471b	0.35796437
35	0xbf4d6b5d	-0.8024195
36	0x3eed5acc	0.46358335
37	0xbf357d58	-0.70894384
38	0x3eff279d	0.4983491
39	0xbd6f45a6	-0.05841603
40	0x3e964ae9	0.29354027
41	0xbf846339	-1.034278
42	0xbf38c4f9	-0.72175556
43	0xbf649400	-0.8928833
44	0xc006759a	-2.1009278
45	0xbf37e4ce	-0.71833503
46	0xbe9f1e0d	-0.31077614
47	0xbcc0a13f	-0.023514388
48	0xbecc3421	-0.3988352
49	0xbfbd3159	-1.4780685
50	0xbf5a5c67	-0.85297245
51	0xbe8a3487	-0.269932
52	0xbf486dae	-0.7829236
53	0xbf74e633	-0.95663756
54	0xbe545b38	-0.20737922
55	0xbf411069	-0.75415665
56	0xc0116b63	-2.2721794
57	0xbfc8658d	-1.5655991
58	0xbf46c7c2	-0.77648556
59	0xbebca706	-0.3684618
60	0xbfa3dacc	-1.2801147
61	0xbd9e45ca	-0.07728155
62	0xbe13985f	-0.14413594
63	0xbf075eb6	-0.5287889
64	0xbf0964a5	-0.53669196
65	0xbe0f989a	-0.14023057
66	0xbf56f664	-0.8396971
67	0xbee171ce	-0.4403214
68	0xbee7e75f	-0.4529371
69	0xbf46e802	-0.77697766
70	0xbf4ce812	-0.8004161
71	0x3ccb11a1	0.02478868
72	0xbf279329	-0.65458924
73	0x3e42baed	0.19016619
74	0x3e86e760	0.263484
75	0xbea54b43	-0.32283983
76	0xbea86914	-0.32892668
77	0xbfc7f029	-1.5620166
78	0xbf7644d6	-0.96198785
79	0xbe5ab397	-0.2135757
80	0xbec8007e	-0.39062876
81	0xbf5ef37c	-0.8709028
82	0xbf1497e0	-0.5804424
83	0xbed01d76	-0.40647477
84	0xbf2ca6f6	-0.6744226
85	0x3da773b9	0.08176369
86	0xbf1a58d1	-0.60291773
87	0x3dc40472	0.095711604

L3.weight f4 [176, 88]
0	0x3e32e6b9	0.17470826
1	0xbd34811e	-0.04406845
2	0x3ab5b3a3	0.001386274
3	0x3b194bcc	0.0023391126
4	0x3f148b3f	0.5802497
5	0xbefaefae	-0.49010986
6	0xbe88ff1e	-0.2675714
7	0x3e616ee0	0.22014952
8	0x3e25d1dd	0.16193338
9	0xbebcfbb6	-0.3691079
10	0xbeec4c4b	-0.46151957
11	0xbe7aa3c5	-0.24476536
12	0xbf16950c	-0.5882118
13	0xbf448076	-0.76758516
14	0x3e7752a8	0.24152625
15	0xbf04d36e	-0.51885116
16	0x3dfe9501	0.12430764
17	0x3eaece2a	0.34141666
18	0xbf2877a8	-0.6580758
19	0x3ed9b5cc	0.42521513
20	0xbeb74839	-0.3579729
21	0x3e823853	0.25433597
22	0x3f227e90	0.6347437
23	0x3962c0da	0.00021624882
24	0x3dd154e4	0.1022127
25	0xbfc15df0	-1.5106792
26	0xbf177324	-0.59160066
27	0x3f0759e2	0.52871525
28	0xbd66d21c	-0.05635272
29	0xbe4cabf3	-0.19987468
30	0xbdbe6863	-0.09297254
31	0xbf3780db	-0.7168099
32	0xbe310bbc	-0.17289633
33	0x3e345ba9	0.1761309
34	0xbcb328c5	-0.021870026
35	0x3e0015f3	0.12508373
36	0x3f0a599c	0.54042983
37	0x3efc12b7	0.49233028
38	0x3eb1eb4a	0.34749824
39	0xbdcbfe6d	-0.09960637
40	0xbe8c7c48	-0.2743857
41	0xbe468d5b	-0.1938986
42	0xbd6c947b	-0.05775879
43	0xbebb9940	-0.36640358
44	0x3f167069	0.58765274
45	0x3f83b4f9	1.0289603
46	0xbeaad7f4	-0.33367884
47	0xbf638828	-0.8887963
48	0x3ecf57fb	0.4049681
49	0xbf2b23e2	-0.6685163
50	0x3f3691d8	0.7131629
51	0xbf0deed6	-0.5544256
52	0x3dc671aa	0.096896484
53	0xbecd3415	-0.40078798
54	0xbd3ab39a	-0.045581438
55	0x3f49fdea	0.7890307
56	0x3e020b9d	0.12699743
57	0x3e95a3c7	0.29226515
58	0xbf027253	-0.50955695
59	0x3d837d32	0.064203635
60	0x3e930305	0.2871324
61	0xbf5e490d	-0.86830217
62	0x3f3d9226	0.7405113
63	0x3ddbfa10	0.10741055
64	0xbe9ad909	-0.3024371
65	0xbe1b0d47	-0.15141784
66	0xbf279e17	-0.654756
67	0x3e74dc47	0.23912154
68	0xbf1db2cb	-0.6160094
69	0xbf075121	-0.5285817
70	0xbe4c6bab	-0.19962947
71	0x3e5796e0	0.21053648
72	0xbdbd18c8	-0.09233242
73	0xbf90df0a	-1.1318066
74	0x3e74489b	0.23855822
75	0x3e61b678	0.22042263
76	0xbea11e94	-0.31468642
77	0xbe28b033	-0.16473465
78	0xbe4657fa	-0.19369498
79	0x3dd25d1b	0.10271665
80	0xbf5d511a	-0.86451876
81	0xbd51abb7	-0.05118915
82	0xbef48717	-0.47759315
83	0xbf241cfa	-0.64106715
84	0xbe7945c5	-0.24343021
85	0xbf12203c	-0.57080436
86	0x3ecfdab3	0.40596542
87	0xbe2aa6bf	-0.16665171
88	0x3f853280	1.0406036
89	0x3f0d9a86	0.5531391
90	0x3e1052c9	0.1409408
91	0xbe073a9d	-0.13205953
92	0xbe42666a	-0.1898438
93	0x3e2c2ed0	0.16814733
94	0xbe12491e	-0.14285704
95	0x3eaab76e	0.3334307
96	0x3f168393	0.58794516
97	0xbe425295	-0.18976815
98	0xbe1fab10	-0.15592599
99	0x3f98372b	1.1891836
100	0xbf1a444c	-0.6026046
101	0x3d1eb2a4	0.038744584
102	0xbf0a55fe	-0.54037464
103	0xbf2c9c84	-0.67426324
104	0xbe626e23	-0.22112326
105	0x3f1ad1f0	0.6047659
106	0xbcb7fdc0	-0.022459865
107	0x3f1c6167	0.61086124
108	0xbf1a96bf	-0.6038627
109	0xbec0ffa7	-0.37695047
110	0xbecef8ab	-0.40424094
111	0xbd8910ba	-0.066926435
112	0x3f56b3a0	0.83867836
113	0xbd5eac43	-0.0543635
114	0xbed989a4	-0.42487824
115	0xbed749ef	-0.42048594
116	0xbecf9c2c	-0.40548837
117	0xbe9563ac	-0.29177606
118	0xbe4956c4	-0.19662005
119	0xbe869806	-0.2628786
120	0xbe2f3cb9	-0.17113008
121	0xbebc41ef	-0.36769053
122	0xbe9ce8f0	-0.30646467
123	0xbf08b4cc	-0.53400874
124	0xbf1fe67c	-0.62461066
125	0x3cabe16b	0.020981511
126	0xbba11a18	-0.0049164407
127	0xbe1253fb	-0.14289849
128	0xbe812e94	-0.2523085
129	0xbec43212	-0.3831945
130	0x3e7ccb01	0.24686815
131	0xbef8b6e1	-0.48577026
132	0x3d10fa1b	0.03539477
133	0xbeff3312	-0.4984365
134	0xbea6d7ca	-0.3258651
135	0xbeacbcf2	-0.33737904
136	0x3edf4f39	0.4361513
137	0x3fa2e36d	1.2725655
138	0xbeb2a0bf	-0.34888265
139	0x3e31c4f8	0.17360294
140	0x3f3457f7	0.70446724
141	0xbe1c87c9	-0.15286173
142	0xbf07fa85	-0.5311664
143	0xbe7480c5	-0.23877247
144	0xbe95a117	-0.29224464
145	0x3e043d21	0.12913944
146	0xbdfbc650	-0.122936845
147	0xbf169052	-0.58813965
148	0x3fdb5331	1.7134763
149	0xbe64568d	-0.22298642
150	0xbdd4186a	-0.10356219
151	0xbf6bacc9	-0.92060524
152	0x3d133731	0.035941307
153	0xbdb3439d	-0.087531306
154	0xbe17accf	-0.14812015
155	0xbefd12c0	-0.49428368
156	0xbd786ed7	-0.06065258
157	0xbf844350	-1.0333042
158	0xbda89015	-0.082306065
159	0xbf6536be	-0.89536655
160	0x3d6c23bb	0.057651263
161	0xbf113ca3	-0.5673315
162	0x3aa12b3b	0.0012296209
163	0xbd02737a	-0.03184841
164	0x3deafd6e	0.11474119
165	0xbedf289c	-0.4358567
166	0x3e992b60	0.29915905
167	0xbe8e0439	-0.27737597
168	0xbe67077a	-0.22561446
169	0xbe87f798	-0.26556087
170	0xbee154ed	-0.44010106
171	0xbcdf89e0	-0.027287424
172	0xbbf0c8a0	-0.007348135
173	0xbe5345ff	-0.2063217
174	0xbbad3d4f	-0.0052868496
175	0xbdb75cb9	-0.08953232
176	0x3d71ffe4	0.059081927
177	0x3db96b56	0.09053676
178	0xbeaaab9a	-0.33334047
179	0xbf134de0	-0.575407
180	0xbdbc2501	-0.091867454
181	0x3f4bf552	0.79671204
182	0xbc30fbc4	-0.010802213
183	0xbea754d4	-0.32681906
184	0xbdda1325	-0.10648183
185	0xbe0dd292	-0.13849857
186	0x3e09ccca	0.13457027
187	0x3edc3542	0.43009382
188	0xbd954a9f	-0.072896235
189	0x3db22398	0.08698195
190	0x3ed5b0a9	0.41736344
191	0x3e2b1195	0.16705926
192	0xbddbbe5b	-0.10729667
193	0x3f1cfacc	0.61320186
194	0xbe29c20b	-0.16577928
195	0xbe09afbf	-0.13445948
196	0x3f485acb	0.7826354
197	0xbec07ae0	-0.37593746
198	0x3ec45e5e	0.38353246
199	0x3f88eaa4	1.0696607
200	0x3e1f5c59	0.15562572
201	0x3f42d7a5	0.761103
202	0x3d854dc8	0.06508976
203	0xbddf62da	-0.10907526
204	0x3e37ec6d	0.17961283
205	0x3ec18270	0.37794828
206	0xbef2c784	-0.47417843
207	0xbee6402b	-0.4497083
208	0xbe1e0db6	-0.15434918
209	0x3f4e914c	0.80690455
210	0xbcf11029	-0.029426651
211	0x3f861e92	1.0478079
212	0xbf039d50	-0.51411915
213	0xbe816b03	-0.25276956
214	0xbd81f23e	-0.06345032
215	0xbe18981c	-0.14901775
216	0xbdc75b7a	-0.09734245
217	0x3f82a96e	1.0207956
218	0x3e92663d	0.28593627
219	0xbe728ec2	-0.2368727
220	0xbba542f3	-0.0050433814
221	0xbedd5a1f	-0.4323282
222	0x3e769079	0.2407855
223	0xbd264f95	-0.04060324
224	0xbc1c31e4	-0.009533379
225	0x3f5da2ef	0.8657674
226	0xbb909351	-0.0044120927
227	0xbe3a3a55	-0.18186314
228	0x3e8aba70	0.27095366
229	0x3d2a2bf3	0.04154582
230	0x3d842c06	0.06453709
231	0xbebce300	-0.36891937
232	0x3f886d2b	1.0658315
233	0x3f4d6ca9	0.8024393
234	0xbe1d857e	-0.15382954
235	0xbf1666a8	-0.5875039
236	0x3fde1a49	1.7351772
237	0xbe53a8aa	-0.20669809
238	0x3ed04692	0.4067884
239	0x3f86230a	1.0479443
240	0x3ea09d76	0.31370133
241	0xbe2db2ab	-0.16962688
242	0xbe07b49d	-0.13252492
243	0x3ef781f2	0.48341328
244	0x3e0c0b68	0.13676226
245	0x3ec73606	0.38908404
246	0x3e9e2763	0.30889425
247	0xbe9219b6	-0.2853524
248	0xbc3a2f23	-0.011363777
249	0xbe95181e	-0.29119962
250	0xbe840892	-0.2578779
251	0xbdfcd043	-0.1234441
252	0xbf73e395	-0.9526914
253	0xbe61a832	-0.22036818
254	0xbe7e78f9	-0.24850835
255	0xbf31cb4c	-0.6945083

L3.bias f4 [176]
0	0xbbc69f47	-0.006061468
1	0xbf2856d7	-0.6575751
2	0xbf8670e3	-1.05032
3	0xbfe9944c	-1.8248382
4	0xbf3299c2	-0.69765866
5	0xbf994a30	-1.1975765
6	0xbf1f0267	-0.6211304
7	0xbfa9a0a5	-1.325215
8	0xbfc72538	-1.5558233
9	0xbf253655	-0.6453603
10	0xbe1237e0	-0.14279127
11	0xbfcbd159	-1.5923263
12	0xbf66928c	-0.9006736
13	0xbe5d3d7c	-0.21605486
14	0xbf39f62a	-0.7264124
15	0xbe8dc3ac	-0.27688348
16	0xbf45512e	-0.77076995
17	0xbf5eb6ac	-0.86997485
18	0xbed059d4	-0.40693533
19	0xbebfd5d0	-0.37467813
20	0xbf28c78f	-0.659295
21	0x3e4e666f	0.20156263
22	0xbfccf866	-1.6013305
23	0xbf116fbf	-0.56811136
24	0xbf91c8b6	-1.1389377
25	0xbfb1b3f7	-1.3883046
26	0xbf336c00	-0.7008667
27	0xbfabbec1	-1.3417588
28	0xbfb91746	-1.4460227
29	0xbf52a36d	-0.8228062
30	0xbf3df899	-0.74207455
31	0xbf59ed01	-0.85127264
32	0xbf9dd300	-1.2330017
33	0xbe7758af	-0.24154924
34	0xbee6d56e	-0.4508471
35	0xbf95b1e5	-1.1694914
36	0x3d4b071e	0.049567334
37	0xbd9674da	-0.073465064
38	0xbfa60654	-1.2970681
39	0xbf5510a4	-0.83228517
40	0xbf138200	-0.5762024
41	0x3ed2ef0b	0.41198
42	0xbfbfc370	-1.4981518
43	0xbfc3562e	-1.5260675
44	0xbfbfb08d	-1.4975754
45	0xbf038d03	-0.5138704
46	0xbd92ba6c	-0.071644634
47	0xbfb57133	-1.4175171
48	0xbd123b5e	-0.03570115
49	0xbfb95f72	-1.4482253
50	0xbfdca3e7	-1.7237519
51	0xbefde170	-0.49586058
52	0xbf7ec2c8	-0.9951596
53	0xbf4aaf2f	-0.7917356
54	0xbf80c741	-1.0060807
55	0xbfa36475	-1.2765032
56	0xbf2d6a13	-0.6773998
57	0xbf51816e	-0.8183812
58	0xbea43758	-0.32073474
59	0x3f0fe4dc	0.56208587
60	0xbf82511f	-1.0181006
61	0xbf70feef	-0.94139
62	0xbe6a428c	-0.22876948
63	0xbfa3b2c9	-1.2788936
64	0x3e92a7ea	0.28643733
65	0xbfa2463d	-1.2677685
66	0x3eafc022	0.34326273
67	0xbf21f807	-0.63269085
68	0xbf702a1c	-0.93814254
69	0xbf26967d	-0.65073377
70	0xbeefa4d0	-0.4680543
71	0xbfc8870b	-1.5666212
72	0xbe5ec038	-0.21753013
73	0xbeea4823	-0.4575816
74	0xbf789e8d	-0.9711693
75	0xbf5ea650	-0.8697252
76	0x3ee581ff	0.44825742
77	0x3e4cbb6c	0.19993371
78	0xbf84ce2d	-1.037542
79	0x3ce58fee	0.028022733
80	0xbfb33c39	-1.4002753
81	0x3f45807e	0.7714919
82	0x3e536255	0.2064298
83	0xbf6a7596	-0.9158567
84	0xbf9b1c83	-1.2118076
85	0xbd793c4c	-0.06084852
86	0xbfada509	-1.356599
87	0xbfadc769	-1.357648
88	0xbfa8a672	-1.3175795
89	0xbf7c3c8e	-0.985299
90	0xbfa79c7e	-1.3094633
91	0xbf6ae6b1	-0.9175826
92	0xbe04a460	-0.12953329
93	0xbf994afa	-1.1976006
94	0xbf8f2df6	-1.1185901
95	0xbf1c280a	-0.60998595
96	0xbed17628	-0.4091046
97	0xbf28e051	-0.6596728
98	0xbf9029b6	-1.1262729
99	0x3e5109d1	0.20413901
100	0x3e8a4340	0.27004433
101	0x3f8ab22f	1.0835627
102	0xbfab520d	-1.3384415
103	0xbf44b599	-0.76839596
104	0xbec73cf9	-0.38913706
105	0xbfb738ed	-1.4314247
106	0x3ede6be2	0.43441683
107	0xbea14e5b	-0.31505093
108	0xbfb10a03	-1.383118
109	0xbf8c4e20	-1.0961342
110	0xbf490d15	-0.78535587
111	0xbec7ac13	-0.3899847
112	0xbe7716be	-0.24129769
113	0xbf9d794c	-1.2302642
114	0xbfbd3e12	-1.4784567
115	0xbf700b98	-0.9376769
116	0xbe8020bf	-0.25024983
117	0xbf475bdd	-0.7787455
118	0xbe653bca	-0.22386089
119	0xbfbf4b79	-1.4944907
120	0xbe1297ab	-0.14315669
121	0xbf768dab	-0.9630992
122	0xbe7df4ff	-0.2480049
123	0xbf5cbd16	-0.8622602
124	0x3f1cd356	0.61259973
125	0xbfa09f4a	-1.2548611
126	0xbf351af0	-0.7074423
127	0xbf2945ef	-0.66122335
128	0xbf2825fb	-0.65682954
129	0xbecd4b44	-0.40096486
130	0xbd469c8c	-0.04848914
131	0xbf915e69	-1.1356937
132	0xbf944deb	-1.1586279
133	0xbe158763	-0.14602427
134	0xbf35e5f0	-0.7105398
135	0xbf324ca3	-0.6964819
136	0xbf0d3f75	-0.5517495
137	0xbf82cd64	-1.021893
138	0xbddc1172	-0.10745515
139	0xbf56d1e2	-0.83914006
140	0x3ebd025e	0.3691587
141	0xbff6ea75	-1.9290301
142	0xbf179847	-0.5921673
143	0xbf6ae277	-0.9175181
144	0xbf26e30a	-0.65190184
145	0xbf613b20	-0.8798084
146	0x3e21de44	0.15807444
147	0xbfa328f2	-1.274687
148	0xbf5094ad	-0.8147686
149	0xbeb5b34a	-0.3548835
150	0xbf2d1a91	-0.6761866
151	0xbf2244ad	-0.6338604
152	0xbf966760	-1.1750298
153	0xbf712795	-0.9420102
154	0xbf777f7c	-0.966789
155	0xbf534f3b	-0.8254277
156	0xbf1f3d51	-0.62202936
157	0xbfa2f96b	-1.2732366
158	0xbfbd8d5e	-1.4808767
159	0xbf5cc798	-0.86242056
160	0xbfa2f551	-1.2731115
161	0x3e195d98	0.1497711
162	0x3e7a0655	0.24416478
163	0xbf25a0bc	-0.64698386
164	0xbf7f8bc2	-0.9982263
165	0xbf567bd1	-0.8378268
166	0xbe198345	-0.14991482
167	0xbfb378f4	-1.4021287
168	0xbfa9c2bf	-1.3262557
169	0xbf6a66c9	-0.9156309
170	0xbfa4b43e	-1.2867506
171	0xbfd7875d	-1.6838185
172	0xbedb38fd	-0.42816916
173	0xbea16983	-0.31525812
174	0xbfcad521	-1.5846292
175	0xbf457837	-0.7713656

L4.weight f4 [88, 176]
0	0xbf22efe9	-0.63647324
1	0xbdb71b8d	-0.08940802
2	0x3eb84a4d	0.35994187
3	0xbf44be01	-0.7685242
4	0xbd40a1f6	-0.047029458
5	0xbd7eb3df	-0.062183257
6	0x3f4b671d	0.79454213
7	0x3f363ee1	0.71189696
8	0x3f0c3d36	0.547809
9	0x3dcd00d2	0.10009922
10	0x3d40e58f	0.047093924
11	0x3f5043d4	0.813535
12	0x3e382100	0.17981339
13	0x3e2ea736	0.17055973
14	0x3f32148d	0.6956261
15	0xbd19e9cf	-0.037576493
16	0x3f272895	0.652963
17	0xbe193786	-0.14962587
18	0x3f86ac18	1.0521269
19	0x3e698272	0.22803667
20	0xbd8f6232	-0.07001151
21	0x3e252e74	0.16131002
22	0x3f12e9e1	0.5738812
23	0xbe03336e	-0.12812588
24	0x3ea84d8a	0.32871658
25	0x3e254dd6	0.16142973
26	0x3ea21ba0	0.316617
27	0x3f727344	0.9470713
28	0x3f3fb255	0.7488149
29	0xbe93fdce	-0.28904575
30	0x3e7db49a	0.24775925
31	0x3c86e879	0.016468273
32	0x3d933c60	0.0718925
33	0x3eb43fb0	0.3520484
34	0x3ec2ead9	0.380698
35	0xbca13b30	-0.019681543
36	0x3f144597	0.57918686
37	0xbe15f41f	-0.14643906
38	0x3f6a50cc	0.91529536
39	0x3f1c4b80	0.61052704
40	0x3dae1146	0.084993884
41	0x3eb68215	0.3564612
42	0x3f6ad0fe	0.91725147
43	0x3eb28d30	0.34873343
44	0x3e97f8d2	0.29682022
45	0xbeca4d3a	-0.39512044
46	0x3ee5b050	0.44861078
47	0xbeb6e209	-0.35719326
48	0x3e47579b	0.19467013
49	0x3f23588e	0.63807
50	0x3f2c1554	0.67220044
51	0xbed01021	-0.40637305
52	0x3e490343	0.1963015
53	0x3eac8d1c	0.33701408
54	0xbdfb9318	-0.12283915
55	0x3eb7f786	0.35931033
56	0xbf26a09b	-0.65088814
57	0x3f0b46b1	0.5440474
58	0x3f15e984	0.5855944
59	0x3e39a900	0.18130875
60	0x3e638e77	0.22222315
61	0xbd03097f	-0.031991478
62	0x3e12dce8	0.14342082
63	0x3f43be2c	0.76462054
64	0xbf1a418d	-0.6025627
65	0x3d1c1c13	0.03811271
66	0x3e4e69c0	0.20157528
67	0xbec330b4	-0.38123095
68	0xbef36fd6	-0.47546262
69	0xbec755c6	-0.38932627
70	0x3e3c164b	0.18367879
71	0x3f711f84	0.94188714
72	0xbd2f3023	-0.042770516
73	0xbeed0aea	-0.4629739
74	0x3f1c0d20	0.6095753
75	0xbe699897	-0.22812115
76	0xbd5ccfdf	-0.05390918
77	0xbbd3ebdd	-0.006467326
78	0xbb71830a	-0.0036851787
79	0x3ea541d0	0.32276773
80	0x3f0f2566	0.5591644
81	0x3f452373	0.77007216
82	0xbe9745ea	-0.29545528
83	0xbe1ef79f	-0.15524147
84	0x3e3d3481	0.1847706
85	0xbe93a693	-0.28838024
86	0x3f36c7cf	0.71398634
87	0x3e948b7a	0.29012662
88	0x3f39639e	0.7241763
89	0xbe417ef2	-0.18896082
90	0xbead7b15	-0.33882967
91	0x3f1ed6f6	0.62046754
92	0x3d033781	0.032035355
93	0x3ec6dd9b	0.38840947
94	0x3f58ddc5	0.84713393
95	0x3f4f884f	0.81067365
96	0x3f0da5b5	0.55330974
97	0x3e2b53bc	0.16731161
98	0x3f2859e3	0.65762156
99	0xbe59fae6	-0.21287116
100	0xbf25e0af	-0.64795965
101	0x3ec75446	0.38931483
102	0x3e56031f	0.20899628
103	0xbf38f41a	-0.7224747
104	0xbe589519	-0.21150626
105	0x3ee3565b	0.44401821
106	0xbf27b321	-0.65507704
107	0xbe241817	-0.16024815
108	0x3f762c8b	0.9616172
109	0x3de40a5a	0.11134787
110	0x3f218e60	0.6310787
111	0x3dceaf71	0.100920565
112	0x3e4594c1	0.19295026
113	0xbf125aab	-0.571696
114	0x3f30e6d7	0.69102234
115	0xbe512313	-0.20423536
116	0xbbc6ee0a	-0.006070857
117	0x3c2c1b0c	0.010504495
118	0x3f2b8149	0.6699415
119	0x3f2956dc	0.6614816
120	0xbe9d82ae	-0.30763763
121	0x3f39014b	0.722676
122	0x3ead2f05	0.33824936
123	0x3ea70e7c	0.32628238
124	0x3e8433f5	0.2582089
125	0x3e9ef7f7	0.31048557
126	0xbf712109	-0.9419103
127	0x3f444e71	0.7668219
128	0xbedb8356	-0.4287364
129	0x3ea3aa63	0.31965932
130	0x3f0ebc70	0.5575628
131	0x3f30a8fd	0.69007856
132	0xbf0af142	-0.5427438
133	0x3f39823c	0.72464347
134	0x3f36374c	0.71178126
135	0xbee730a0	-0.45154285
136	0x3e7b5162	0.24542764
137	0x3f0386bd	0.5137747
138	0xbef6f897	-0.48236534
139	0x3eb9ed25	0.3631374
140	0xbdf2a7c2	-0.118484035
141	0x3f1b16a2	0.6058141
142	0xbefb208c	-0.4904827
143	0x3e3e2cbc	0.18571752
144	0xbd8acaaf	-0.0677694
145	0x3da4a15a	0.08038588
146	0x3ee2c036	0.4428727
147	0xbdc68cb7	-0.09694808
148	0x3e523d99	0.2053131
149	0x3efbc067	0.4917023
150	0xbeafb096	-0.34314412
151	0xbb1cee12	-0.0023945612
152	0x3efe602d	0.4968275
153	0x3e3b57ae	0.18295166
154	0xbf4432dd	-0.7664011
155	0xbf3bcc70	-0.7335882
156	0xbd032dbd	-0.03202604
157	0x3ea6bad7	0.32564422
158	0x3f221edf	0.63328356
159	0xbe8fa2fb	-0.28054032
160	0x3e559f17	0.20861469
161	0xbef623a1	-0.48074058
162	0xbe00d93c	-0.12582868
163	0xbe5e7aef	-0.21726583
164	0x3f2ccfa1	0.67504317
165	0xbf4b3c46	-0.79388845
166	0xbdf5a0c2	-0.11993553
167	0xbe11d65b	-0.14241926
168	0xbe6ceaaf	-0.231364
169	0x3c83593b	0.01603376
170	0x3e949ad5	0.29024377
171	0x3de9fed4	0.11425558
172	0x3cad6fa7	0.021171404
173	0x3e991321	0.29897407
174	0x3f1f11ce	0.6213654
175	0x3ed5b742	0.41741377
176	0xbf39a464	-0.72516465
177	0x3e5b4b49	0.21415438
178	0xbe34eabb	-0.17667668
179	0xbdc43a80	-0.095814705
180	0x3e65b5af	0.22432588
181	0xbf3b4f24	-0.73167634
182	0xbf9b8239	-1.2149116
183	0x3e044499	0.12916793
184	0xbe822cda	-0.25424844
185	0xbed65163	-0.41858968
186	0xbf80904a	-1.0044034
187	0xbf366cab	-0.71259564
188	0x3df19af2	0.117971316
189	0xbf354a4c	-0.70816493
190	0x3e8f6c1e	0.28012174
191	0xbf8a4c93	-1.0804619
192	0xbfc78450	-1.5587254
193	0xbf8289d2	-1.019831
194	0xbfa4311f	-1.282749
195	0x3ef8592e	0.4850554
196	0xbe9147fb	-0.2837523
197	0xbff55163	-1.9165462
198	0xbf153416	-0.582826
199	0x3ce0867f	0.027407883
200	0xbf37bbae	-0.7177075
201	0x3eabbcc4	0.33542454
202	0x3d78e744	0.060767427
203	0xbe9e6caf	-0.30942294
204	0xbf177044	-0.5915568
205	0xbf39002b	-0.7226588
206	0xbfd1732a	-1.636327
207	0xbf3dab9c	-0.7408998
208	0xbea75a47	-0.32686064
209	0xbfcf68c6	-1.6203849
210	0xbf9611ee	-1.1724222
211	0xbf3ed32c	-0.7454097
212	0xbfad5d42	-1.3544085
213	0xbfc446ea	-1.5334141
214	0x3ea9b885	0.3314859
215	0x3e33dd0d	0.17564793
216	0xbecd6d12	-0.40122277
217	0xbfc11c16	-1.5086696
218	0xbf36adda	-0.71359026
219	0x3f496232	0.7866546
220	0xbf2ffcfe	-0.6874541
221	0xbfde98a7	-1.7390336
222	0xbe9aa9e3	-0.30207738
223	0xbe5424b2	-0.20717123
224	0xbf606aca	-0.8766295
225	0x3e92ec2c	0.2869581
226	0xbefb674c	-0.49102247
227	0xbff00776	-1.8752277
228	0x3e55d152	0.2088063
229	0xbf24b790	-0.64342594
230	0xbf800abf	-1.000328
231	0x3d7d0c1c	0.061779127
232	0xbf8a8877	-1.0822896
233	0xbe9c147c	-0.30484378
234	0xbfd3624a	-1.651437
235	0xbf4a27ea	-0.78967154
236	0xbe895bf6	-0.26827973
237	0x3ec8b8e5	0.39203563
238	0xbf375b8c	-0.71624064
239	0xbf8b668e	-1.0890672
240	0xbf927479	-1.1441795
241	0x3eb3dba4	0.3512851
242	0xbeff983f	-0.49920842
243	0xbf5afa2f	-0.85538
244	0xbf55a625	-0.8345664
245	0x3ea3c641	0.31987193
246	0xbf68631e	-0.9077624
247	0x3e1c62f3	0.15272121
248	0xbe1baa55	-0.15201695
249	0xbf2d8496	-0.67780435
250	0xbf01bd32	-0.50679314
251	0xbf8982b6	-1.0743015
252	0xbfb377cf	-1.4020938
253	0xbfcb7be6	-1.5897186
254	0xbe9093ba	-0.28237706
255	0xbec0f6cf	-0.376883

L4.bias f4 [88]
0	0x3eb8229d	0.35963908
1	0xbf159ed9	-0.5844551
2	0xbf0d1704	-0.55113244
3	0x3f56d7db	0.8392312
4	0x3f77953a	0.96712077
5	0xbf843d89	-1.0331279
6	0xbee6ab71	-0.45052674
7	0x3cf49025	0.02985389
8	0xbef2bd0c	-0.47409856
9	0xbf914489	-1.134904
10	0xbfa15583	-1.2604221
11	0xbf403c9a	-0.7509247
12	0xbfa28091	-1.2695485
13	0xbfa45ef1	-1.2841474
14	0xbf1241d0	-0.5713167
15	0xbe0c36f6	-0.13692841
16	0xbefe7c97	-0.4970443
17	0x3f094b9d	0.53631
18	0xbf6894a3	-0.908518
19	0xbe8aef08	-0.2713549
20	0xbf01c519	-0.5069137
21	0x3ee47137	0.44617626
22	0xbf23fa90	-0.64054203
23	0xbe0410d4	-0.12897044
24	0xbf3fcecb	-0.74924916
25	0xbec648d9	-0.38727453
26	0xbf37c577	-0.7178568
27	0xbdd77880	-0.105210304
28	0xbef78eaa	-0.48351032
29	0xbec8325a	-0.39100915
30	0xbe3494bd	-0.17634864
31	0xbf333f73	-0.7001869
32	0xbf07ed13	-0.5309612
33	0xbec9d8fb	-0.39423355
34	0xbf09b2eb	-0.5378863
35	0xbf0fb8f4	-0.5614159
36	0xbf3d19b3	-0.7386734
37	0xbe8a1f10	-0.26976824
38	0xbea1e640	-0.3162098
39	0xbf5f18f9	-0.8714748
40	0xbe640e4b	-0.22271077
41	0xbe3e9b13	-0.18613844
42	0xbf904105	-1.1269842
43	0xbf3c4d18	-0.73555136
44	0xbe6a6296	-0.2288917
45	0xbe69428e	-0.22779295
46	0xbf2ccfcb	-0.67504567
47	0xbededbf0	-0.43527174
48	0xbef695c9	-0.48161152
49	0xc02a08f2	-2.656796
50	0xbf48fb22	-0.785082
51	0xbef18928	-0.47174954
52	0xbf8fc554	-1.1232095
53	0xbf8d7fe9	-1.105466
54	0xbf51c687	-0.81943554
55	0x3db3445c	0.08753273
56	0xbf558dd7	-0.83419555
57	0xbf0da6ec	-0.5533283
58	0xbea38773	-0.31939277
59	0xbf80eafd	-1.0071713
60	0x3f451b66	0.7699493
61	0xbf4eed35	-0.808307
62	0x3f44532f	0.7668943
63	0xbf319878	-0.69373274
64	0xbf13c40c	-0.5772102
65	0xbf39a56d	-0.72518045
66	0xbe44b440	-0.19209385
67	0xbf9a1e72	-1.2040541
68	0xbf40cc4c	-0.7531173
69	0x3ef0838f	0.4697537
70	0xbeb2288d	-0.34796563
71	0xbf88245b	-1.0636095
72	0xbf39b177	-0.72536415
73	0x3e081887	0.13290606
74	0xbf411385	-0.7542041
75	0xbe70bdc4	-0.2350989
76	0xbf024899	-0.50892025
77	0xbe1a70ef	-0.15082143
78	0xbef02f4e	-0.4691109
79	0xbe3389b0	-0.17532992
80	0x3f99dd57	1.2020673
81	0x3d371952	0.04470188
82	0xbf28cab3	-0.65934294
83	0xbf059b6f	-0.521903
84	0x3dc03fe4	0.09387186
85	0xbebf6089	-0.37378338
86	0xbf2a9d2a	-0.66646063
87	0xbef2b47e	-0.4740333

L5.weight f4 [44, 88]
0	0xbd4b3881	-0.049614433
1	0x3e4bf0fd	0.19916148
2	0x3f02e79a	0.51134646
3	0xbdae0fac	-0.08499083
4	0xbe96b772	-0.29436833
5	0x3f213b26	0.6298088
6	0xbe6129d0	-0.21988606
7	0xbeaa64dc	-0.33280075
8	0x3e4baf38	0.1989106
9	0x3ef9786b	0.48724684
10	0xbe493867	-0.19650422
11	0xbdd9dbcd	-0.10637627
12	0xbbdf19f5	-0.0068085142
13	0x3ebbe620	0.3669901
14	0xbb7ffb74	-0.003905979
15	0xbecbb852	-0.39789063
16	0x3c6cc4ca	0.014451215
17	0xbeeed5bd	-0.46647444
18	0x3eda1594	0.42594588
19	0x3e79fce7	0.24412881
20	0xbecb7759	-0.39739493
21	0xbef1e3ed	-0.47244206
22	0x3f1a2dfc	0.60226417
23	0xbe5dcc56	-0.21659979
24	0x3eba607b	0.36401734
25	0x3f34273f	0.70372385
26	0x3e442d36	0.19157872
27	0xbe9d556f	-0.30729243
28	0x3eec0278	0.46095634
29	0xbe56c0c9	-0.20971979
30	0x3dc3e346	0.09564833
31	0x3e99755c	0.2997235
32	0xbe084be7	-0.13310204
33	0xbd3ac91a	-0.04560194
34	0xbe72d40f	-0.23713706
35	0x3f009daf	0.50240606
36	0xbe9c9b77	-0.3058736
37	0xbc892139	-0.016739475
38	0xbcf61cb0	-0.030042976
39	0x3d9bbf73	0.076048754
40	0xbeb3c3c7	-0.35110304
41	0x3e11e25a	0.14246503
42	0xbe1692d9	-0.14704455
43	0x3efdeec8	0.49596238
44	0xbf0b01c1	-0.5429955
45	0xbea06126	-0.31324118
46	0xbdd50d03	-0.104028724
47	0x3b835ac7	0.0040086242
48	0xbe967c86	-0.2939188
49	0x3f330bcb	0.6993987
50	0x3e2cc291	0.16871096
51	0x3dfa016b	0.12207302
52	0x3db85879	0.0900125
53	0x3e840e6a	0.25792247
54	0xbebf1470	-0.3732028
55	0x3e4bbbb5	0.19895823
56	0xbe242d47	-0.16032897
57	0x3ea6d9f4	0.3258816
58	0xbe3abe08	-0.18236554
59	0x3dc6f3ee	0.09714495
60	0xbe5cc766	-0.2156044
61	0xbe1a2a31	-0.15055157
62	0xbdeb9045	-0.115021266
63	0xbe52a6fc	-0.20571512
64	0x3e62aff9	0.2213744
65	0xbcd063a1	-0.025438132
66	0xbd509b1c	-0.050929174
67	0x3e9049f1	0.28181413
68	0xbc1a214b	-0.009407352
69	0xbdecb5b8	-0.115580976
70	0xbe62ce6f	-0.2214906
71	0x3f2d98a9	0.67811066
72	0xbdde9946	-0.10869078
73	0xbdd4f035	-0.10397378
74	0x3f2efbb8	0.6835284
75	0xbeb10cf1	-0.34580186
76	0xb95ad9e5	-0.00020871272
77	0x3e3103a6	0.17286548
78	0x3e6ba663	0.2301269
79	0xbd4db262	-0.050218947
80	0xbef45938	-0.47724319
81	0x3c9e0a92	0.01929215
82	0x3c1b8943	0.009493175
83	0x3e17700d	0.14788838
84	0xbeaa939a	-0.33315736
85	0x3e5b7ef8	0.21435153
86	0x3eff107b	0.4981726
87	0x3d9eef13	0.077604435
88	0xbeb885fe	-0.36039728
89	0x3f6e4edb	0.93089074
90	0x3ece81e1	0.40333465
91	0xbee9eb92	-0.45687538
92	0xbeadc001	-0.3393555
93	0x3d1b787c	0.0379567
94	0xbf0ea034	-0.557132
95	0xbf04f4a1	-0.51935774
96	0x3dfcb3de	0.123389944
97	0x3d0bed2a	0.034161724
98	0xbe6df6e2	-0.2323871
99	0x3dcb1565	0.0991619
100	0x3eb385b6	0.3506295
101	0x3e400716	0.18752703
102	0xbde12e75	-0.10995189
103	0xbd745c9a	-0.059658624
104	0xbe9c79fa	-0.3056181
105	0xbf3ddf71	-0.7416907
106	0x3e85c24e	0.26124805
107	0x3f9fc459	1.2481796
108	0x3eec94f5	0.46207395
109	0x3e8857a7	0.26629373
110	0x3fae2693	1.3605522
111	0xbe78f011	-0.24310328
112	0xbe191849	-0.1495067
113	0x3f116ec5	0.56809646
114	0x3f3566fa	0.70860255
115	0x3da631e9	0.08114988
116	0x3f92b700	1.1462097
117	0xbe79e91e	-0.24405333
118	0x3f07e929	0.5309015
119	0x3f097296	0.5369047
120	0x3ed401f9	0.41407755
121	0x3ed77609	0.4208224
122	0x3e8616f6	0.26189393
123	0x3ddf999c	0.109179705
124	0x3d54b6d7	0.051932182
125	0xbf282c73	-0.65692824
126	0xbf442068	-0.7661195
127	0xbe812682	-0.25224692
128	0xbf2fa37e	-0.68608844
129	0x3f1fb0bc	0.6237905
130	0xbf2ccf03	-0.67503375
131	0x3e0e1800	0.13876343
132	0xbe949a4e	-0.29023975
133	0xbe2559e6	-0.16147575
134	0x3e75ae09	0.2399217
135	0xbe97fe4e	-0.29686207
136	0x3edb6dcb	0.42857203
137	0x3f69a2ef	0.9126424
138	0x3e6e8e7d	0.23296542
139	0xbcf1cdce	-0.02951708
140	0x3c0061a3	0.007835778
141	0xbdfd5ca5	-0.12371186
142	0xbe8ae813	-0.27130184
143	0x3ee1bdbf	0.44090077
144	0x3f8718d7	1.0554456
145	0x3e90f093	0.28308544
146	0xbf336990	-0.7008295
147	0x3f948508	1.1603098
148	0xbf09e573	-0.53865737
149	0xbe649ed8	-0.22326219
150	0xbe2ed578	-0.1707362
151	0xbe042fa5	-0.129088
152	0x3fc6654f	1.5499667
153	0x3eca70d1	0.39539197
154	0xbef288c1	-0.4736996
155	0xbd69fab9	-0.057123873
156	0xbd7875c7	-0.060659196
157	0xbf052e99	-0.5202423
158	0xbe5856e5	-0.21126898
159	0x3f8f64d9	1.1202651
160	0x3eb9bbfb	0.3627623
161	0x3ea7dd92	0.32786232
162	0x3ef1c373	0.47219428
163	0x3ea61640	0.3243885
164	0x3e0fac38	0.1403054
165	0x3f302b48	0.6881604
166	0x3f340653	0.7032215
167	0xbeebed2b	-0.46079382
168	0xbf27c728	-0.65538263
169	0x3f8416df	1.031948
170	0x3c4078d5	0.011747559
171	0x3e57380e	0.21017477
172	0xbf5eaa42	-0.8697854
173	0xbda74801	-0.081680305
174	0x3ec2e56d	0.38065663
175	0x3f0ac5c7	0.54208034
176	0xbf10e1be	-0.56594455
177	0x3f8f9eb9	1.1220313
178	0x3f2e9f59	0.68211895
179	0xbf0e3684	-0.55551934
180	0xbeafaad8	-0.3431003
181	0x3ed35a4f	0.41279837
182	0xbf3242b8	-0.69633055
183	0xbe9e7d25	-0.30954853
184	0x3f05a6ae	0.5220746
185	0x3ececcb4	0.4039055
186	0xbed3c2fb	-0.41359696
187	0xbe348f6c	-0.17632836
188	0x3f062f94	0.5241635
189	0x3f2cab47	0.6744885
190	0x3e1c41eb	0.1525952
191	0xbd00d193	-0.031449866
192	0xbb86f80d	-0.0041189254
193	0xbdc65f59	-0.09686155
194	0x3f0ecea9	0.5578409
195	0x3f7975ca	0.97445357
196	0xbf2b8194	-0.66994596
197	0xbddb5e81	-0.107113846
198	0x3c1bd00a	0.00951005
199	0x3e503afa	0.20334998
200	0xbeffd0fc	-0.4996413
201	0x3f7f1612	0.9964305
202	0x3e8060cc	0.2507385
203	0xbcecd91c	-0.02891212
204	0x3f0faff3	0.5612785
205	0xbef6b4ff	-0.48184964
206	0x3dee1d80	0.116267204
207	0x3e3b2585	0.18276031
208	0x3e8f0cff	0.27939603
209	0xbd8657e8	-0.065597355
210	0x3ed163f4	0.4089657
211	0xbc74e782	-0.014947774
212	0x3de08541	0.10962916
213	0xbe55aea8	-0.20867407
214	0x3cb72b50	0.02235952
215	0x3ef0c138	0.47022414
216	0xbe946be7	-0.28988573
217	0x3e6559b8	0.22397506
218	0xbf16c6d0	-0.58897114
219	0x3eeb1228	0.4591229
220	0xbdd9e45d	-0.1063926
221	0xbe4bab59	-0.19889583
222	0xbd952a93	-0.07283511
223	0xbf16f305	-0.5896457
224	0x3e0a13c9	0.1348411
225	0x3f4411da	0.7658974
226	0x3d9c6e32	0.076382056
227	0xbe5ae1ae	-0.21375152
228	0x3df5c281	0.11999989
229	0x3f2435b0	0.6414442
230	0xbf0eef5c	-0.55833983
231	0xbeb89669	-0.36052254
232	0x3eefad16	0.46811742
233	0x3e54fd5a	0.20799771
234	0xbed75b3f	-0.42061803
235	0x3cc85279	0.024453389
236	0xbe7d8442	-0.24757484
237	0xbe83e0cf	-0.25757453
238	0xbeb01940	-0.34394264
239	0x3e60b553	0.2194417
240	0x3d98a8bd	0.07454059
241	0x3eb0df25	0.34545246
242	0xbe470dc9	-0.19438852
243	0x3d629fe2	0.055328257
244	0xbebe60af	-0.3718314
245	0xbf092ad9	-0.53581005
246	0xbec602dc	-0.38674057
247	0x3ef9bae6	0.48775405
248	0xbea8c03d	-0.32959166
249	0x3d64a969	0.055825625
250	0x3fb328f0	1.3996868
251	0xbdd45ba5	-0.10369042
252	0x3d490c37	0.049083915
253	0x3ea3f00f	0.32019088
254	0x3eaff6be	0.34367937
255	0x3d80b0cd	0.06283722

L5.bias f4 [44]
0	0xbf2bdd4a	-0.67134535
1	0xbf96983e	-1.1765211
2	0xbeddd53f	-0.43326756
3	0xbf0fe672	-0.56211007
4	0xbf22f3d2	-0.6365329
5	0xbf27596e	-0.65370834
6	0xbe302df1	-0.17205025
7	0xbf1b69bd	-0.6070822
8	0xbf56a877	-0.83850807
9	0xbe256d64	-0.1615501
10	0xbf07183e	-0.52771366
11	0xbf8f2857	-1.1184186
12	0xbf83fcbe	-1.0311506
13	0xbf2f91ac	-0.6858165
14	0xbf05a12d	-0.5219906
15	0xbf407fe8	-0.7519517
16	0xbf8faa9a	-1.1223938
17	0xbddf0327	-0.10889273
18	0xbfdff2a9	-1.7495929
19	0xbf66bf3f	-0.9013557
20	0xbfae9fc9	-1.3642513
21	0xbf0b98db	-0.54530114
22	0xbf3c1f1f	-0.7348499
23	0xbf713f24	-0.9423697
24	0xbfa09b11	-1.2547323
25	0xbf9088d9	-1.1291763
26	0xbf7060e3	-0.9389784
27	0xbf853419	-1.0406524
28	0xbedb236a	-0.42800456
29	0xbf403610	-0.7508249
30	0xbf1d9650	-0.61557484
31	0xbf97d422	-1.1861613
32	0xbf85b319	-1.0445281
33	0xbf3d61d8	-0.7397742
34	0xbf28a59b	-0.65877694
35	0xbfaf7baf	-1.370962
36	0xbf4f2c5c	-0.8092706
37	0xbf5dd341	-0.8665047
38	0xbf8078ba	-1.0036843
39	0xbf4d1800	-0.80114746
40	0xbf8b2524	-1.087071
41	0xbf2136dc	-0.62974334
42	0xbee1315c	-0.4398297
43	0xbf81746b	-1.0113653

L6.weight f4 [1, 44]
0	0x3d27cb2c	0.040965244
1	0xbe441ba9	-0.19151177
2	0x3c2f0471	0.010682211
3	0xbc8c10d3	-0.017097866
4	0xbcd503a9	-0.026002722
5	0x3d0ea3c8	0.034824163
6	0x3e1ad5b5	0.15120585
7	0x3e60d3e7	0.21955834
8	0xbda4c2fa	-0.08045001
9	0x3dcecb88	0.10097414
10	0x3d152279	0.03640983
11	0x3abf3a5b	0.0014589535
12	0x3d0eafd2	0.034835644
13	0xbd647ad1	-0.05578119
14	0xbe0aa41d	-0.13539167
15	0x3de2e882	0.110795036
16	0x3dc9e1fa	0.09857555
17	0xbd6c111f	-0.057633515
18	0x3e4b380d	0.198456
19	0x3c7cd5e5	0.015431856
20	0x3e32c489	0.17457785
21	0x3d887958	0.066637695
22	0xbe67fb13	-0.22654371
23	0x3dc33fe4	0.095336705
24	0x3e84d190	0.25941133
25	0xbde534bf	-0.11191701
26	0x3cf1662b	0.029467663
27	0x3dd828e0	0.10554671
28	0xbca4876a	-0.020084102
29	0xbe0183e5	-0.1264797
30	0x3dde592c	0.10856852
31	0x3c1dbb1c	0.00962713
32	0x3d45df6b	0.04830877
33	0xbd029001	-0.031875614
34	0x3e4bd915	0.19907029
35	0x3e095430	0.13411021
36	0xbb3648eb	-0.0027814459
37	0x3cb8b16f	0.022545544
38	0xbd0c94e3	-0.034321677
39	0xbe673a17	-0.22580753
40	0x3e48da6a	0.19614568
41	0xb9e705bd	-0.0004406403
42	0x3b9f2f95	0.004857967
43	0xbda83b75	-0.082144655
