Saved_Models_All_Features_Only_Simulation_Samples/target_Hardness_features_22_epochs_5.pth (torch_old, 162565 bytes, 11 tensors)

L1.weight f4 [44, 22]
000000 c6 16 93 3d 68 f0 93 bd bc 55 44 be 8a 40 38 3e
       0.07182078 -0.07223588 -0.1917333 0.1799337
000010 53 54 82 3e 99 99 8c 3d a8 e4 25 3d 00 09 e1 3d
       0.2545496 0.06865234 0.040501267 0.10988045
000020 5c 6f 0a be 49 29 4e be 32 9f eb bb 1c a7 98 bd
       -0.13519043 -0.20132937 -0.0071906084 -0.074537486
000030 61 1e d2 bd 11 4d ae 3d df fc c6 bb e7 d5 24 be
       -0.102597006 0.08510793 -0.006072625 -0.16097222
000040 5f 1f f7 bd b3 b2 03 3e 5f 1c 3b be 09 cf 1f be
       -0.120665304 0.12861137 -0.18272541 -0.15606321
000050 37 86 66 bd 0e 33 39 3e 7d a9 6b 3e b4 78 90 bd
       -0.05628034 0.18085882 0.23013873 -0.07054272
000060 a9 d6 de 3d ee b6 31 be 69 20 23 be 67 49 52 be
       0.10880787 -0.17354938 -0.15930332 -0.20535813
000070 3c 8a 05 be de 3a 54 bd 3d 60 90 3e dc 09 cb 3d
       -0.13041013 -0.051813953 0.28198424 0.0991399
000080 0d 3b 8d 3c ca 38 15 be 13 bf f4 bc cf 9c e6 bc
       0.017240072 -0.14572445 -0.029876268 -0.028150944
000090 12 d8 49 bd 2d c2 83 3d 97 3a ee bd fb e0 f5 bc
       -0.049278326 0.064335205 -0.11632269 -0.030014506
0000a0 a2 ba 1a 3e 0c 25 93 bd 1c ba 72 bc 6c f0 9a 3d
       0.15110257 -0.071848005 -0.01481488 0.07565388
0000b0 26 da 14 bd 35 9e 11 3e 66 2f 3e 3d b4 9c 39 be
       -0.036340855 0.14220507 0.04643192 -0.18126184
0000c0 01 e5 95 bd 3d 55 64 3d a0 36 dc 3d a3 f6 3d 3e
       -0.0731907 0.055745352 0.107526064 0.18551116
0000d0 ff f2 a0 3c 8a e2 7f bd 7a 85 1c 3e 90 bc 9b bc
       0.01964712 -0.062471904 0.15285292 -0.019010812
0000e0 57 8a 10 3d 35 70 f5 bd 5c 64 17 bd 97 77 be bd
       0.03528818 -0.119842924 -0.036960945 -0.09300154
0000f0 85 75 12 be 9a 80 a0 3d 1c 72 81 bd 1c cf 0e 3e
       -0.14302643 0.07837029 -0.06320593 0.13946193
000100 2f ba 61 3e e0 c4 10 3e f2 7a 6b 3d 0b 15 3a bd
       0.2204368 0.14137602 0.057490297 -0.045430224
000110 53 0b 0e be c8 37 dd 3c 04 ac da bd a7 da 30 3e
       -0.13871507 0.027004138 -0.106773406 0.17270909
000120 54 88 b6 3d e6 fd 78 3e b7 a6 32 be ad 90 b7 3d
       0.08912721 0.24315605 -0.17446409 0.089631416
000130 0c 22 17 be e5 b7 26 be 59 29 8a bb e7 5e 84 be
       -0.14759082 -0.16281088 -0.004216355 -0.25853655
000140 f2 11 90 3d 28 59 a5 3d a7 be a5 3d f4 0d db bd
       0.07034673 0.08073646 0.08093005 -0.10696021
000150 6b 57 32 3c bb b3 3a be d8 b2 0c 3d 95 93 28 3c
       0.0108851 -0.18232624 0.034350246 0.010289093
000160 dd f8 1f be 86 06 61 be 22 b8 40 3e 88 f1 9a 3d
       -0.15622278 -0.21975145 0.18820241 0.075656
000170 e4 ed 58 be 96 a1 0d bc 88 84 ab bd a3 dc 13 be
       -0.21184498 -0.008644482 -0.08374888 -0.14439635
000180 b8 f7 5a be 4c 4c 16 3d 3e 8b 4d be 7f 38 6e 3c
       -0.2138356 0.036693856 -0.20072648 0.014539837
000190 6c fd 1f 3e b9 61 a6 3c e5 ad e3 bd 02 41 40 be
       0.15624017 0.02031027 -0.11117152 -0.18774799
0001a0 4d 53 58 be 05 18 52 3d c4 1d 2e 3e 23 33 2b 3d
       -0.21125527 0.051292438 0.17003542 0.041796815
0001b0 be 7b ed bd 2b 47 4f be 4e 76 7d bc 52 55 14 be
       -0.115958676 -0.20241992 -0.015470101 -0.14485672
0001c0 4f 2a 58 bc 96 df 9a 3d 69 b4 c1 bd 09 65 1f be
       -0.013193681 0.07562177 -0.09458239 -0.15565886
0001d0 20 9a da 3d b7 5a 6c bc 60 8f 56 bd 9d 08 42 bd
       0.10673928 -0.014425925 -0.052382827 -0.047371496
0001e0 2c e9 00 3e 5d f0 b4 3c fe 6e 3b 3d 43 6d 01 3e
       0.12588948 0.02208727 0.045760147 0.12639336
0001f0 c8 d1 d0 bd 30 a3 50 be 42 4c f1 3c 18 20 82 be
       -0.101962626 -0.20374751 0.029455308 -0.2541511
000200 57 8b 3f 3e 9b de ec bd 6d 04 b4 3d 59 33 2f 3e
       0.18705498 -0.11565896 0.08789907 0.17109431
000210 97 89 44 bd 30 e6 dd bc 19 e4 a8 3b 8a 6b 95 bd
       -0.04798278 -0.027087301 0.0051541445 -0.07295902
000220 8f c4 3e 3e 12 23 1e 3d 9c 79 f6 3d 79 d4 55 3e
       0.18629669 0.038607664 0.12034914 0.20881833
000230 2f f4 5d 3d ff b6 d3 3d 48 8f 9f bc 16 75 07 3e
       0.05418795 0.10337638 -0.019477502 0.13228258
000240 c4 b5 6a 3d c1 20 fe 3d 58 53 b1 bd 50 e5 1a 3d
       0.05730225 0.12408591 -0.08658475 0.037816346
000250 1a d5 6c bd 19 06 fd bd 65 d5 f7 3d a2 39 3b be
       -0.057820417 -0.12354679 0.12101249 -0.18283704
000260 b6 16 a3 3d 0d 26 40 3e 42 fc dc 3d 2b 0d f5 bd
       0.07963316 0.18764515 0.10790302 -0.11965402
000270 98 60 e5 3d 1d ad 8c bd 4d 23 3a bd fd 93 46 be
       0.112000644 -0.06868956 -0.04544382 -0.1939239
000280 ae ce 03 be 13 24 58 bd ca 90 40 3d c9 bf 0c be
       -0.12871811 -0.052768778 0.04701308 -0.13745035
000290 99 d0 df 3d fa 6f 29 3e 5b fc 65 3c 08 85 d2 bd
       0.10928459 0.16546622 0.014037217 -0.1027928
0002a0 fa a8 a6 bc 92 85 02 3e 14 98 c4 3a 60 ac e7 3d
       -0.020344246 0.12746266 0.0014998936 0.11312175
0002b0 6d a3 1a 3d 7f 32 af bd 8f 48 db 3c 77 88 ad 3d
       0.03775351 -0.08554553 0.026767997 0.08473294
0002c0 38 95 a8 3c 2a 78 53 be b1 ba bb bb 75 d1 2d 3e
       0.020578966 -0.20651308 -0.0057290425 0.16974433
0002d0 b3 35 4a 3e 36 5b 35 bd a8 45 19 3e 4d d8 8f bd
       0.19747047 -0.04427644 0.14967978 -0.07023678
0002e0 e8 fc 41 3d 58 44 e7 3c e5 eb 26 be 93 49 37 be
       0.04736033 0.028230831 -0.16300924 -0.1789916
0002f0 10 f4 d7 3d c0 65 ee 3d d3 8f f4 3d 0c 2d 67 3d
       0.10544598 0.11640501 0.11941495 0.056439444
000300 a1 f0 e4 3d da 6e 5f 3c 1b f3 da 3d 77 8a b2 bd
       0.11178709 0.013637269 0.106909 -0.08717816
000310 f7 fc 50 bd e9 e1 ef bc df 76 45 3e 28 14 b2 3d
       -0.051022496 -0.029282527 0.19283627 0.08695251
000320 aa ab 0c 3e ee 35 85 3d c5 08 92 3d 95 f3 89 bd
       0.1373736 0.06504427 0.07130579 -0.06735913
000330 3a be b1 bd 1a bc 4e be e0 3b 18 3d 78 7e 86 bd
       -0.08678861 -0.20188943 0.037166476 -0.06567091
000340 f4 4a ec bd c7 04 9e 3b a2 1c 36 3d b1 d4 0a 3e
       -0.11537734 0.004822347 0.0444609 0.13557698
000350 7b 45 cd bc 27 1c a1 3d 62 1c e2 3c a9 e3 9a bd
       -0.025057545 0.07866698 0.027601425 -0.07562954
000360 3f a7 73 3c cd 1a c4 ba 51 df b6 3d ca bb 06 bd
       0.014871418 -0.00149616 0.08929313 -0.032893933
000370 35 44 c8 bb aa e5 c9 bd f7 e5 15 3e 00 c9 16 3e
       -0.0061116465 -0.09858258 0.14638506 0.14725113
000380 8d e5 62 bd b1 0f 42 3c a4 c5 22 3e cb 7d 8c bd
       -0.055394698 0.011844561 0.15895706 -0.068599306
000390 9d ab 90 3e 68 bf 39 3e aa e2 24 be cf d8 2d 3e
       0.2825593 0.18139422 -0.1610209 0.16977237
0003a0 5c 29 41 bd e1 76 13 bd 3a 97 cc 3d 4f a8 05 be
       -0.047158584 -0.036002044 0.09989782 -0.13052486
0003b0 14 03 98 bd 26 92 44 bc 5f f4 67 bd 7e 25 92 3d
       -0.07422462 -0.011997735 -0.056629535 0.07136057
0003c0 1d d3 6a 3e 71 5d 08 be 1a 56 df 3c 28 8d 3a 3e
       0.22932096 -0.13316895 0.027262736 0.1821791
0003d0 6d c1 a5 bd 8a 3f 75 bd 45 8b 12 3e ec 2b dd 3d
       -0.08093534 -0.05987505 0.1431094 0.10799393
0003e0 00 ad 53 be 7e 9a f5 bd 92 7e 37 bd 47 47 f3 bd
       -0.20671463 -0.11992358 -0.04479844 -0.118788294
0003f0 ee 54 5a 3d ed 88 16 be 74 53 d2 bb 49 4c 3e be
       0.05330365 -0.1470067 -0.00641864 -0.18583788

L1.bias f4 [44]
000000 37 fb 4d bd 74 a9 46 3e b3 23 1b 3e 2a c2 2d be
       -0.050288405 0.19400579 0.15150337 -0.16968599
000010 ab 47 31 3e 93 5e ac bd cb 3d 2f be 36 92 16 3e
       0.17312495 -0.08416476 -0.17113416 0.14704213
000020 5e a9 2e bd c6 97 19 3d fd a5 3f 3d ef 88 18 3e
       -0.04264199 0.037498258 0.046789158 0.14895986
000030 d3 87 5a 3e 0d 8c 1d 3e cd 37 af 3d 96 b9 e0 3d
       0.21340875 0.15385456 0.08555565 0.10972898
000040 5d d5 a7 3d ee a6 8f 3d 3c 90 2c be d4 bb 74 bd
       0.08194993 0.07014261 -0.16851896 -0.05974944
000050 fd 88 1d 3e 5d 2c 0e bc da c8 5c 3d cb b7 6e be
       0.15384288 -0.008677569 0.053902484 -0.23312299
000060 fe 96 f2 3c fa df b7 3d f1 cf 6d be 1d d7 f5 3d
       0.029613014 0.08978267 -0.23223855 0.1200392
000070 c9 21 a9 bd 32 8c a9 bd 0a 0f fc 3d 51 bd 5e bd
       -0.08258397 -0.08278693 0.12307556 -0.054379765
000080 28 d8 d5 bc 7a 10 e4 3c c1 c4 08 3d 46 9c c3 3d
       -0.026104048 0.027839888 0.033390764 0.09551291
000090 96 9f c2 bd 15 7a 59 3e 96 c9 58 3c 1d 07 be 3d
       -0.09503095 0.21237977 0.013231656 0.092787005
0000a0 0b 32 10 be a8 0f d2 bd e8 02 45 3e bc 61 0a 3e
       -0.1408159 -0.102568924 0.1923939 0.13513845

L2.weight f4 [88, 44]
000000 c7 c7 24 be 91 ef be 3d 9f dd 1e 3e 6a 55 05 bd
       -0.16091834 0.093230374 0.15514229 -0.03255216
000010 ab 85 59 bd b9 89 8b bd 13 4d 33 3d 36 61 f9 bc
       -0.05310599 -0.06813378 0.043774676 -0.030441862
000020 85 26 8d 3c a5 26 93 bd 0b 0a 7f 3d 88 8f 95 bd
       0.017230282 -0.07185105 0.062265437 -0.07302767
000030 af b2 43 bd ab 7a 3f be 0a 19 f7 3d e4 26 83 3c
       -0.047777828 -0.18699138 0.12065323 0.016009755
000040 c6 e0 bc 3d b8 38 9f 3d ff 8a a6 3d ad f7 46 3d
       0.0922256 0.0777449 0.0813198 0.048576046
000050 b6 61 ae bc ef b8 7c 3d 8b 37 4c 3d 6f 0d cf bc
       -0.021286827 0.061699804 0.049857657 -0.02527496
000060 09 13 4e 3d 0a 96 d1 3b ef e7 d4 3d 2c 31 88 bd
       0.050311122 0.00639606 0.103958 -0.06650004
000070 f6 e3 ad bd 44 83 2b bd 05 5f d6 bc 06 19 d1 bd
       -0.08490746 -0.04187323 -0.026168356 -0.10209851
000080 d6 69 d5 3c 62 62 5b bc c1 08 62 bd 94 73 fe 3c
       0.026051443 -0.0133901555 -0.05518413 0.031060971
000090 61 79 22 3d 16 96 fa bc 09 25 e8 3d c9 e2 3b bd
       0.039666537 -0.030589145 0.11335189 -0.045870576
0000a0 e0 32 1f be fa 47 ce 3d 32 71 bc 3d 30 b0 22 be
       -0.15546751 0.10072322 0.09201278 -0.15887523
0000b0 a3 23 c2 bd e0 d9 d8 bd 24 2f 14 be 8f f5 ce bd
       -0.094794534 -0.10588431 -0.14471108 -0.1010543
0000c0 17 4d 87 3d 6c b0 fa bc 19 66 39 3e 9f 39 9b 3d
       0.066065006 -0.030601703 0.18105353 0.0757935
0000d0 4d 3c a9 3d 89 cf b7 bd 10 e2 18 3d 7f 2b e8 3d
       0.082634546 -0.08975131 0.037324965 0.11336421
0000e0 96 a3 6f bd a3 b0 d5 3d 47 e4 03 bd c9 0f ca 3b
       -0.058505617 0.104340814 -0.032200124 0.0061664325
0000f0 59 b0 8b 3d 93 b2 d8 3d 99 9d 1c 3e b6 38 ae bd
       0.06820745 0.10580935 0.15294494 -0.085069105
000100 ca c0 11 bd ba cd fa bd d3 cd 8c 3c 6a 58 ff 3d
       -0.03558425 -0.122462705 0.017187988 0.124680355
000110 be 17 ad 3d c0 24 fe 3c 8a 24 36 bd a2 c2 a6 bc
       0.08451794 0.031023383 -0.04446844 -0.02035648
000120 7d ad e6 3d d0 97 13 bd 69 07 16 3e 8a a2 08 3e
       0.11263559 -0.03603345 0.14651264 0.13343254
000130 32 53 e1 bd 91 63 3f 3e ea c8 ca 3d 9d e8 2b 3e
       -0.11002196 0.18690325 0.099016026 0.16787954
000140 34 57 43 bd 67 40 d5 bd 43 d7 c8 3d df 1a 50 3b
       -0.047690585 -0.104126744 0.09806683 0.0031754298
000150 72 11 01 be 08 55 dd 3d 9e 83 ec bd 9a 7b f1 3d
       -0.12604311 0.10807234 -0.115485415 0.11791153
000160 69 4e bd bd 83 43 b9 3c 2b f4 f6 ba 75 71 b9 bd
       -0.09243471 0.0226152 -0.0018841078 -0.09054843
000170 f0 17 b5 3d ad 85 72 bd 5e 6b 43 bd 8b ee 46 bd
       0.08842456 -0.059209514 -0.047709815 -0.048567336
000180 bf 0a a1 3d c6 4a 45 bd 32 5c 75 3d 25 35 c1 bd
       0.07863378 -0.048167013 0.059902377 -0.09433965
000190 d7 f8 19 3c c7 b6 1b be 73 04 89 bd 83 b9 d2 bd
       0.009397707 -0.15206443 -0.06690302 -0.1028929
0001a0 f5 43 67 bd 9f b5 fb 3c 3d ba 18 be 00 1d 8b 3b
       -0.056461293 0.030726252 -0.14914794 0.0042454004
0001b0 01 6b 26 be bb 5e 05 bd 31 34 31 bd 1c ed 4d be
       -0.16251756 -0.032561045 -0.043262664 -0.20109981
0001c0 bc 91 12 bc 9a a0 d5 3c 58 a4 05 3e dc d8 c4 3d
       -0.008945879 0.026077557 0.13050973 0.09611675
0001d0 ce 29 44 be 35 e5 16 3d b3 7e 8b 3c 12 86 1c 3d
       -0.19156572 0.036839683 0.017028188 0.038213797
0001e0 d4 00 fc bb 29 bd d5 bd 76 03 91 bd e0 92 8f bd
       -0.0076905284 -0.1043647 -0.07080738 -0.07010436
0001f0 ba a5 40 3d 55 f8 36 bc c6 2f 85 bd c8 ad b0 3a
       0.04703305 -0.011167605 -0.06503253 0.0013479525
000200 66 38 bd 3d c2 7e 27 3e 13 72 7a 3d 1f f1 51 3d
       0.09239273 0.16356948 0.061143946 0.05125534
000210 ff 78 9f 3d fd 2f d8 3d 57 0c c6 bd 42 b9 e2 bd
       0.0778675 0.10556028 -0.096703224 -0.110704914
000220 d3 ca 2b be 73 4f 93 bd f8 05 ac bb 77 84 c3 bc
       -0.1677659 -0.07192888 -0.005249735 -0.023866875
000230 47 a1 f6 3d 84 85 84 3d d0 4c b8 bd f9 e5 af bd
       0.1204248 0.064707786 -0.08999026 -0.08588786
000240 c1 a3 92 3d 2d ad a1 3d 89 98 26 bd c4 8e 27 bd
       0.0716014 0.07894359 -0.040672813 -0.040907636
000250 97 b2 91 bd 78 06 de 3d 86 36 e2 bd d8 a6 ef bd
       -0.071141414 0.108410776 -0.11045556 -0.11701745
000260 0f ce b5 3d b7 87 13 3e 86 cb 17 3e b4 05 c8 bd
       0.08877193 0.1440724 0.14823732 -0.09766713
000270 43 f1 08 be f7 52 e0 bd ba 09 48 bd 81 2e c7 3b
       -0.13373284 -0.10953324 -0.0488374 0.0060785417
000280 1c 58 e6 bc 90 7d e9 3d cd 97 34 3e 30 2e 0f 3e
       -0.028118186 0.11400902 0.17636032 0.13982463
000290 53 f1 c6 bd 97 b4 73 bb bb 1d be bd 1c 4b 51 3d
       -0.09713998 -0.0037186497 -0.092830144 0.05109702
0002a0 c7 86 94 bc 46 82 8b bd d0 f5 b1 3d f9 6f ca bd
       -0.018130673 -0.06811957 0.08689463 -0.09884638
0002b0 b7 af c6 bd 0b a9 7b 3d cb d8 08 be 9d bf 51 bc
       -0.09701484 0.06144051 -0.1336395 -0.012802032
0002c0 5a 1d e7 bd ff 43 f5 bd 94 e7 13 3e 60 ff 90 bd
       -0.11284895 -0.1197586 0.14443809 -0.07079959
0002d0 ea d3 29 bc 0c dc 10 3e 5a 3b 1c bd cf 7f 02 3d
       -0.010365466 0.14146441 -0.03814254 0.03186017
0002e0 f1 0e d3 bd 03 9a 01 be 20 bc a6 bd c2 f1 04 3e
       -0.10305584 -0.12656407 -0.08141351 0.12982848
0002f0 b8 d6 fe bc 2c 51 f6 3d a4 b4 43 bd 68 b9 19 3e
       -0.031108245 0.12027201 -0.047779694 0.15012133
000300 19 a9 10 be 1a a1 d8 3d df b2 84 bd 3b d7 9b 3d
       -0.14127006 0.10577603 -0.064794295 0.07609411
000310 44 fd ed 3b 8c 1d 37 3d 87 73 e9 bd 5f f8 cb bb
       0.0072628576 0.044705912 -0.11398988 -0.0062246765
000320 f7 50 c6 bd 60 37 22 3e 28 60 e7 bd 4c 8f 49 3c
       -0.096834116 0.15841436 -0.11297637 0.012302231
000330 55 8f e1 3d d2 1b 2a 3d 5e 2b 84 bd 48 a6 0c be
       0.110136665 0.041530438 -0.06453584 -0.13735306
000340 61 eb bf bd 91 3b bb 3d 04 a3 df bd 46 83 79 3d
       -0.09371067 0.09142221 -0.10919765 0.060916208
000350 01 b2 8a bd 2c cd d6 3d 13 f2 48 bc 7e ca 18 b7
       -0.06772233 0.10488352 -0.012264746 -9.107052e-06
000360 59 37 ee 3d 56 f6 11 be ab 1b 24 be 6a 28 1e bd
       0.116316505 -0.14254126 -0.1602618 -0.03861276
000370 d6 3b bc bd 80 f8 cf bd dc bd 92 3d 69 1d 9c bc
       -0.091911 -0.101548195 0.07165119 -0.019056993
000380 05 73 e5 3d 6c 6c bd bd 19 cc c8 bd 82 68 94 3d
       0.11203579 -0.092491955 -0.098045535 0.07246496
000390 c6 be 2b bc 58 a4 c5 bd f3 c1 5c 3d 6b 9f d2 bc
       -0.010482496 -0.09650487 0.053895902 -0.025710782
0003a0 67 9f a7 bd d3 9a 60 3d ac 34 c0 3d 34 48 9d bd
       -0.081847005 0.054835152 0.09385046 -0.07679787
0003b0 66 32 4a be 77 c7 3c 3e 4b 51 3a bd f5 10 86 3d
       -0.19745788 0.18435465 -0.045487683 0.06546203
0003c0 5d c1 48 bd 10 9a d6 bd 68 16 91 3d 0c 05 c1 3d
       -0.04901253 -0.10478604 0.07084352 0.09424791
0003d0 a3 2e b6 3d 92 fd c1 bd 22 e1 95 bd 77 84 ea bd
       0.08895614 -0.09472193 -0.07318331 -0.11451047
0003e0 bc c5 81 3d 12 73 80 3d e8 23 e9 bd 46 73 1f 3c
       0.06336543 0.06271948 -0.11383802 0.009732073
0003f0 f2 31 09 be df f5 9b 3d 5f ab 24 be 0a fb 65 bc
       -0.13397959 0.076152556 -0.16080998 -0.014036903

L2.bias f4 [88]
000000 26 4c 17 be 2c 3d 8e 3a 17 46 b8 3d f7 a5 4b 3d
       -0.14775142 0.0010851971 0.089977436 0.049718823
000010 55 9c 11 3e 7c 8c 0e bd e0 6f 87 3d ce 1e 92 3d
       0.14219792 -0.034801945 0.06613135 0.07134782
000020 13 89 ae 3d 2c 7e 16 3e 65 68 37 bc d6 9e 41 3d
       0.085222386 0.14696568 -0.011194323 0.04727062
000030 18 b7 86 3d 63 11 d9 3d 35 e0 d7 3d 57 44 c0 3b
       0.06577891 0.105990194 0.10540811 0.0058675217
000040 a4 87 d5 bd 31 73 8d 3d 60 03 13 be de 53 16 3d
       -0.10426262 0.06906737 -0.14356756 0.036701076
000050 c2 f3 9d 3c 31 82 91 bd f2 15 c9 bd 25 ee 0f be
       0.019281272 -0.0710491 -0.09818639 -0.14055689
000060 cd 33 20 3e 6d c6 e4 bd 0a ec 53 bd 3a 19 d3 3d
       0.1564476 -0.11170659 -0.051738776 0.10307546
000070 e6 67 b4 3c 7f a7 93 3c 8b 2a 03 3c 07 9e 12 3b
       0.022022199 0.018024204 0.0080057485 0.0022372024
000080 f3 36 4f 3d d3 87 0c be ae 15 31 bd 63 81 d3 bd
       0.050589513 -0.13723688 -0.043233566 -0.10327413
000090 82 f9 8d 3d 85 23 f8 3d 7f bb f3 3d 34 ef de bc
       0.069323555 0.1211615 0.119009964 -0.02721367
0000a0 f0 4f b4 3d b1 e3 16 3e d9 39 7e bd d9 9d e2 bd
       0.08804309 0.14735295 -0.062066887 -0.11065263
0000b0 ba 8b 0f be ac cd da 3d 91 a9 f6 3c 88 71 9b bd
       -0.14018145 0.1068376 0.030110152 -0.07590014
0000c0 19 0a d6 bd fe c6 6d bd 01 ee 87 bd 16 d6 07 3e
       -0.10451145 -0.058051102 -0.066371925 0.13265261
0000d0 6a 5a e4 bc 89 d6 1a 3d 18 dd 5e 3d 66 7c 0f 3d
       -0.027875144 0.037802253 0.05441007 0.035030745
0000e0 df d3 b1 bd 26 11 91 bd 42 c7 52 3d bb fc ea 3d
       -0.08682989 -0.07083349 0.05145956 0.11473986
0000f0 0c 9a 94 bd 89 6d 19 be 71 3a 37 be bb 67 0a 3d
       -0.072559446 -0.1498319 -0.17893387 0.03379033
000100 79 aa 52 ba da ed 5d bd e9 bb 93 bd b5 28 e0 bc
       -0.00080362667 -0.05418191 -0.072135754 -0.02736316
000110 aa af df 3b 8c c3 d9 bd 3c 15 83 bd a3 e4 87 bd
       0.0068263607 -0.10633001 -0.064005345 -0.06635406
000120 90 76 e0 3d 14 47 93 3c 7a 32 81 bd bd 21 8c 3d
       0.10960114 0.017978229 -0.06308456 0.068423726
000130 91 7c 9e bc 8d 42 a0 bd 97 db d8 3d 20 59 1d be
       -0.019346507 -0.078251936 0.105887584 -0.1536603
000140 a4 ea c1 3a 43 c7 45 3d 87 a7 19 be 91 03 b4 3d
       0.001479466 0.048285734 -0.15005313 0.08789743
000150 cd f9 8f 3d a6 e2 96 bd 98 33 b1 bd d8 8d d8 3d
       0.070300676 -0.073674485 -0.08652419 0.105739295

L3.weight f4 [176, 88]
000000 85 70 89 3d cf cc 58 bd 2d 1d 6b bd cc 3e 97 bd
       0.067109145 -0.052929696 -0.05740087 -0.073850244
000010 fb 2b ec 3d c4 b1 59 bd 18 0b 4b 3d 27 2f 18 be
       0.11531826 -0.053148046 0.049571127 -0.14861737
000020 da 84 85 bc 98 a8 09 bd 2c fb 73 bd d9 06 8d bd
       -0.0162987 -0.03360805 -0.059565708 -0.06886072
000030 3a 01 61 bd c9 24 88 3d 1a db a8 3d fe a6 cf 3d
       -0.05493281 0.06647641 0.08244915 0.10139273
000040 f1 96 b8 3d 40 71 9b bd d2 8c d4 bc 57 61 04 be
       0.09013165 -0.0758996 -0.025946055 -0.12927757
000050 43 be b5 3d 39 16 25 bd d4 2e ba 3a 20 33 5d 3d
       0.0887418 -0.040304396 0.001420463 0.054003835
000060 74 9e 55 bd 27 e0 23 3d d3 5d c1 bd c2 c4 c1 3c
       -0.052153066 0.04000869 -0.09441724 0.023653392
000070 15 61 07 be 56 28 cb 3c 26 2a 97 3b 7b 42 d5 3d
       -0.13220628 0.024799507 0.004613179 0.10413071
000080 6a 67 f7 3c 91 6b e2 bd 7e 2b 42 bd aa bc 5a 3c
       0.030200679 -0.11055673 -0.04740476 0.013350645
000090 86 e1 6f 3d 3b ef a4 3c 2a bd 70 3d 3d 92 8d bd
       0.058564685 0.020133605 0.05877415 -0.06912658
0000a0 e8 44 dc 3d 14 48 88 bd dd fa f5 ba 98 5a 0b bd
       0.1075533 -0.06654373 -0.001876678 -0.034021944
0000b0 f6 ef 93 bc da d1 05 bd fb 75 90 bd d0 cc 39 bd
       -0.018058758 -0.032670833 -0.07053753 -0.04536134
0000c0 de 2e b7 bb 52 64 51 bd bf c1 49 3c 39 52 f4 3d
       -0.005590304 -0.051121064 0.012314259 0.11929745
0000d0 f1 66 35 3d 7f ea 1e bd 50 cc 57 3d c8 bd a4 3d
       0.044287626 -0.03879785 0.052685082 0.080440104
0000e0 14 65 dd bc 4f 10 20 3d ab b7 24 bc 35 fb c3 bc
       -0.027025737 0.039078053 -0.0100535555 -0.023923496
0000f0 90 76 04 3c 90 22 91 3c 04 c2 43 3d 85 17 ce 3d
       0.008084908 0.017716676 0.04779245 0.1006308
000100 cb 13 a5 bd 44 cb 88 3d b9 8d d2 bc f1 15 bf 3d
       -0.08060416 0.06679395 -0.025702344 0.09330357
000110 2d e2 15 be 69 37 0b bd 31 4c 5a 3d 83 02 d5 bd
       -0.1463706 -0.03398839 0.053295318 -0.1040087
000120 c8 fb bd bc 41 dc cb bc b8 bf bc 3d 60 3e 9d 3d
       -0.023191348 -0.024885299 0.09216255 0.07677913
000130 41 0e 55 bc 12 02 08 bd d0 64 a6 bc 15 c0 ab bd
       -0.013003887 -0.0332051 -0.020311743 -0.08386246
000140 8c 5d c9 bd bf 55 16 3d 9c a0 dd bd 63 6d 9e bd
       -0.09832296 0.036702868 -0.108216494 -0.077357076
000150 ef f0 e8 bd 31 65 1b 3d ea 46 ef 3a 9f 6b 1d bd
       -0.113740794 0.0379383 0.0018255387 -0.038432714
000160 f0 d9 bf 3c fb d7 43 3d e8 ca ac bd 4d 9d c1 3c
       0.02341935 0.047813397 -0.08437139 0.023634577
000170 81 59 3a 3d 1e f4 f6 3b d8 25 a9 3d 57 2c 1a 3d
       0.045495514 0.0075364253 0.08259171 0.037639942
000180 b6 e5 02 bd 18 c8 10 3e 11 c5 c6 bd 02 a3 e6 3a
       -0.03195735 0.1413883 -0.09705556 0.0017596188
000190 5e 12 9e 3d 86 64 74 bd 98 cd 41 3d ee 58 93 3d
       0.07718347 -0.05966618 0.04731521 0.07194696
0001a0 82 7c bc bd 71 a0 82 bb d6 3c cd 3d ef cf 6a 3d
       -0.092034355 -0.0039864113 0.10021369 0.057327207
0001b0 f6 d0 14 3c 08 0e 71 bd f9 13 f2 bc 81 5f b6 bd
       0.009083023 -0.058851272 -0.02955054 -0.08904935
0001c0 35 d0 6c 3d 9d ac 4d bd 04 46 97 3d 72 58 2d bc
       0.05781575 -0.050213445 0.07386401 -0.010580169
0001d0 d2 d8 cc 3d 2c 13 ec 3d 1e 84 85 bd 27 f3 2e 3d
       0.10002293 0.11527094 -0.0651934 0.042712357
0001e0 fc 2a 27 3d 50 75 03 bd 1b ec 81 3d 84 88 59 bd
       0.040812477 -0.0320943 0.06343862 -0.053108707
0001f0 02 6f 5f bd 7d 3a a5 bd 68 54 6c 3d 1f 2c d3 bc
       -0.054549225 -0.080677964 0.057697684 -0.025777875
000200 4b a4 40 3b c9 a3 9b 3d c4 08 54 3c c4 b7 ce bd
       0.0029394801 0.07599599 0.012941543 -0.10093644
000210 48 99 f7 bc 8c e3 c4 3c a6 31 67 bd c2 74 b6 bc
       -0.030224457 0.024034284 -0.056443833 -0.022272471
000220 4f b7 be 3d 6c 4d bd bc c4 be 0c bd 08 be 5e bd
       0.09312307 -0.023108207 -0.034361616 -0.054380447
000230 a5 27 92 bd 9e 40 8c bc b7 d2 a5 bb d5 87 9a bd
       -0.07136468 -0.017120656 -0.0050605196 -0.07545439
000240 37 ef 3d bd 0c cf 6c ba e9 bc f3 bd b1 a3 5b bd
       -0.04637071 -0.0009033538 -0.11901266 -0.053622905
000250 9a 05 ac 3d 3f 7f 56 bb 52 37 df bd 28 da 4d 3d
       0.08399506 -0.0032729653 -0.108992234 0.05025688
000260 53 5a 51 bc f1 fe 21 bd 6e 0c b5 bd 8d db 93 bd
       -0.012777883 -0.03954977 -0.088402614 -0.0721961
000270 2b 72 99 3d 4c 94 4e bc b4 df f8 3d 45 72 3d bd
       0.07492479 -0.012608599 0.12152043 -0.046251554
000280 9d 20 8e bd ae 67 66 bc 60 ff 25 3c 12 ef 5b bd
       -0.06939814 -0.014062805 0.010131687 -0.053694792
000290 1d 73 09 be 59 f3 97 3d 9a e4 b1 bd 57 61 c1 3d
       -0.13422818 0.07419462 -0.086861804 0.09442394
0002a0 c9 61 15 3d c5 ff 93 3d 48 91 9f ba 42 ef ac bd
       0.03647021 0.072265185 -0.0012174034 -0.08444072
0002b0 83 09 92 bc bf 0c 07 be 07 4e 44 3c 5a 56 84 bd
       -0.017826801 -0.13188456 0.011981494 -0.06461783
0002c0 5a e8 8e bd 16 77 88 3c 43 a6 a2 3d 92 2f f0 3c
       -0.06977911 0.016658347 0.07941868 0.029319558
0002d0 e4 b3 b7 3d 3d 9c 92 bc c8 a6 0d bd fb 7a a7 3a
       0.08969858 -0.017896766 -0.034582883 0.001277774
0002e0 aa 79 ee bb f4 b6 6b 3d 47 3b 15 bd 64 a9 be 3c
       -0.007277687 0.057547525 -0.036433484 0.023274131
0002f0 f6 45 89 3c f6 31 b0 bd ec 41 7d bd 2e 3b 18 bc
       0.016756993 -0.08603279 -0.061830446 -0.009291453
000300 e3 81 26 be c2 c9 54 bd fd d6 81 bc 09 a3 09 bd
       -0.16260485 -0.051950224 -0.015849585 -0.033602748
000310 54 16 b6 3c 98 fe 53 3d 78 34 31 3d f6 33 03 bb
       0.022227444 0.05175647 0.04326293 -0.0020019985
000320 61 4b a1 bd 41 11 83 bc 9f b6 f0 bb 5b db 62 3d
       -0.078757055 -0.015999438 -0.007345989 0.055384975
000330 62 55 eb bc aa 42 98 bd f1 fc f3 bc c1 b8 b6 bc
       -0.028727237 -0.0743459 -0.029783698 -0.022304894
000340 dc bc 17 bd 97 a4 b1 bd 9e c2 af 3d aa ca 05 b9
       -0.037045345 -0.08673971 0.08582042 -0.00012759367
000350 d9 87 27 3d 98 80 ee bd c7 dd 84 bc 20 3b ce bd
       0.04090104 -0.11645621 -0.016219033 -0.10069871
000360 ca 05 3e 3d 7b 3d 1f bd f1 c1 fe bc bf 26 be bd
       0.04639224 -0.03887699 -0.031098338 -0.09284734
000370 c8 b4 6f 3d 87 6c fd bd f2 ab fb bd 03 e2 79 3d
       0.058522016 -0.123742156 -0.12288655 0.061006557
000380 ec 02 03 3e 28 ce d9 bd ad 1e 28 3e 8b 7b ca 3c
       0.12794083 -0.10635024 0.16417952 0.024717113
000390 4c 72 4b 3d 58 b2 f0 3d de 04 f3 3c 66 eb 8d 3d
       0.04966955 0.11752766 0.029665407 0.06929664
0003a0 cf bc 22 bd 94 26 b6 bd f3 d7 03 3d c1 d0 4a bd
       -0.039730843 -0.08894077 0.032188367 -0.04951549
0003b0 bd 3e 63 3d be b6 80 bd 26 a7 4c 3d af 48 02 3d
       0.055479754 -0.06284855 0.049964093 0.031807598
0003c0 19 51 9b bd 1a 82 96 bd c0 d9 0d bd 2e ec bb bc
       -0.075838275 -0.07349034 -0.03463149 -0.022939768
0003d0 67 75 de 3c 93 4f 16 3e fd 7d 8c b9 47 fc 6d bb
       0.027155591 0.14678793 -0.0002679675 -0.00363137
0003e0 cc cd a0 bd 2d b4 ba bd 11 0f 9f bd 55 37 8b 3d
       -0.07851753 -0.09116397 -0.077665456 0.06797663
0003f0 c6 d0 81 bd d6 ea 63 3d 0b 11 de bc d9 62 b6 3c
       -0.063386485 0.05564388 -0.027107736 0.022263931

L3.bias f4 [176]
000000 4c e2 f7 ba ba 67 d2 3d 98 3f a9 bd 65 e0 0a be
       -0.0018912046 0.102736905 -0.08264083 -0.13562162
000010 b5 96 61 bd 00 13 47 bd cb c5 26 3c d0 bb 4a bd
       -0.055075366 -0.048602104 0.010178993 -0.04949552
000020 26 20 8e 3a 65 41 3d bd c3 9e c8 bc e1 a6 0e bd
       0.0010843321 -0.046204943 -0.024489766 -0.034827117
000030 a4 09 41 3d e1 8b 76 3d 2f bc bd bd 13 20 c2 bc
       0.047128335 0.060191993 -0.09264409 -0.023696935
000040 33 62 a5 3c 3d 00 13 3c 9b 02 86 3d 51 c3 b0 bb
       0.020188427 0.008972225 0.06543466 -0.0053943773
000050 0a 45 57 bc bb 01 1f 3c 83 23 60 3d 42 5e cc bd
       -0.013139019 0.009705002 0.054721367 -0.09978916
000060 52 ed 85 3d 5c d7 84 bd 71 e8 70 bd fe e8 1c bd
       0.06539406 -0.06486389 -0.058815423 -0.038308136
000070 8e 2b 29 bd 04 66 89 3c be 15 d9 bd f9 b7 25 bd
       -0.041301303 0.016772278 -0.1059985 -0.040458653
000080 5e ca 40 3d 9e 67 8b bd 17 d6 3e bc 77 bf 7a 3d
       0.047067992 -0.06806873 -0.011647723 0.06121775
000090 4d ce db bd 64 83 d6 3d 1f 31 e3 3c 1f 73 b7 3c
       -0.10732708 0.104742795 0.027733384 0.022393761
0000a0 46 6e 88 3d 65 a3 ca 3d 1a 23 b2 bd f9 88 db 3d
       0.06661658 0.09894446 -0.08698101 0.10719485
0000b0 de 30 8d bd c1 af 51 3c 1b dc 08 bc f2 b0 af 3c
       -0.06894086 0.012798251 -0.0083532585 0.021446679
0000c0 31 92 51 3d ce c6 19 bd 77 65 38 3c 89 b2 a8 bc
       0.05116481 -0.03754311 0.01125466 -0.020592945
0000d0 58 6f 81 bd 21 09 19 3d 7d 68 91 3c 8a 1c 96 3d
       -0.06320065 0.03736222 0.01775002 0.07329662
0000e0 d3 13 55 3d a2 a2 9f 3c d1 eb 56 3d b5 79 03 3d
       0.05202086 0.019486729 0.052470986 0.03209849
0000f0 b3 73 86 3d aa 47 e2 bd 39 8b f8 3c bf ed 36 bd
       0.065650366 -0.11048825 0.030339824 -0.044660326
000100 ca b1 e6 bd a7 8e 76 bc e5 9a 9e bc bc 64 91 3d
       -0.11264379 -0.015048659 -0.019360969 0.07099292
000110 8a b4 cd 3b 92 81 55 3d 8b d0 a0 3d f7 d5 8c 3d
       0.0062776254 0.05212552 0.078522764 0.06876748
000120 97 e1 3a bd e2 aa 39 3b f2 e6 03 be 12 36 da 3d
       -0.045625295 0.0028330614 -0.12881067 0.10654844
000130 ea c4 1d 3d 0b eb ea 3c 12 97 dd bd c4 b1 6b bd
       0.03851787 0.02867653 -0.1081983 -0.057542577
000140 33 8f 05 bc e2 35 e1 3d 49 d2 eb bc 18 74 8e 3d
       -0.008151817 0.109966055 -0.028786795 0.06955737
000150 08 c5 92 bd cf 15 01 be a1 da 98 3d 89 d9 58 bd
       -0.07166487 -0.12605976 0.07463575 -0.052941833
000160 3a 26 83 bc c9 f0 93 bc 11 42 92 bb 0f f1 0f 3d
       -0.016009439 -0.018059151 -0.004463442 0.035142
000170 9c 22 dc 3c 7b a7 5a 3d eb 99 9c bd ba 0b 15 3d
       0.026871972 0.053382378 -0.07646545 0.036388136
000180 1e 0b e5 bd 3c 89 72 3b e1 9e ba bd 8d da 19 bd
       -0.11183761 0.0037008068 -0.09112335 -0.037561942
000190 67 43 e1 3d 3a ae 54 bd 41 32 8f 3d e4 10 e2 bc
       0.10999184 -0.051923968 0.06992007 -0.027595945
0001a0 72 28 37 3d 63 94 0d 3d e1 15 02 be 07 5f 76 3d
       0.044716306 0.03456534 -0.12703659 0.06014922
0001b0 39 16 e5 3c f2 0c 5c bd a3 9d d5 bd 67 83 71 bd
       0.027964698 -0.053723283 -0.104304574 -0.058963206
0001c0 55 a7 14 3d b9 13 1a bd 2d 7c 84 bd d0 c8 9e bd
       0.036292393 -0.037616465 -0.06468997 -0.07753146
0001d0 f2 9c c3 3d c2 22 37 bd 56 d7 53 3d e3 30 d3 bd
       0.09551419 -0.044710882 0.051719032 -0.10312059
0001e0 9f 38 d3 3c 2c 51 11 3c ec 99 b0 bd 23 bb 99 bd
       0.025783835 0.008869451 -0.08623108 -0.075063966
0001f0 c8 a4 bb 3d 14 38 45 bc 5d 9f 04 bd f9 f7 94 3d
       0.09162289 -0.012037296 -0.032378543 0.072738595
000200 99 ab d9 3d 3a 79 4e 3d 37 a9 dd bd 12 ce d8 bb
       0.10628433 0.05040858 -0.10823291 -0.0066163624
000210 bd 96 6e 3d 40 9c 97 3d 26 4f 71 bc 5e a7 88 3d
       0.058249224 0.07402849 -0.014728343 0.06672548
000220 c4 d8 b5 3d 3b ee aa 3d 66 ff 9b 3b 67 00 c1 bd
       0.088792354 0.0834622 0.0047606705 -0.09423905
000230 9b 38 f2 bd 8a 43 d6 3a a2 a8 a8 bd a7 30 53 3d
       -0.11827203 0.0016347033 -0.08235289 0.05156007
000240 3f db f0 bd 5d 3c 9c 3d a6 3c 04 3e 0c 17 b3 bd
       -0.11760568 0.07628701 0.1291376 -0.0874463
000250 eb 7c a1 3c 24 71 22 3d 16 84 0b be e1 5a 81 bd
       0.019712886 0.03965868 -0.13624606 -0.06316162
000260 4d 5b b4 bd e1 87 b0 bb f7 32 62 bd 97 2e f7 3c
       -0.08806477 -0.005387292 -0.055224385 0.030173583
000270 d1 b2 b8 bd 48 49 7e 3d 6a 2e 0a 3d 88 15 bb bd
       -0.090184815 0.062081605 0.03373567 -0.09134966
000280 d1 5b 91 3d 0d 47 e2 bc 6b 28 79 3d a8 8b b9 3d
       0.07097591 -0.02762177 0.06082956 0.090598404
000290 a1 65 cc bd 07 96 9d bd d8 78 21 bb a1 82 03 3d
       -0.09980322 -0.07694631 -0.002463868 0.032107
0002a0 cd ec c6 bd e8 3f 22 3d 0b ba 32 bd 6f 3b 70 bd
       -0.09713135 0.039611727 -0.043634456 -0.05865043
0002b0 3b ca ea 3d f1 b6 e0 3c 56 01 93 bd 8a ac e3 bd
       0.11464354 0.027430983 -0.07177989 -0.111168936

L4.weight f4 [88, 176]
000000 d5 4a ed bc 8c 3f ea bc 9d 7a 6b 3d 03 ee 3a 3d
       -0.028966347 -0.028594755 0.05748998 0.045637142
000010 4c 27 b0 bb 56 98 25 bc da 1b 09 3d 1c 40 07 3b
       -0.0053757783 -0.0101071205 0.033473827 0.0020637577
000020 9b c4 02 3d ed a5 11 bd 7b 2d 22 bc 28 ce 88 bc
       0.03192578 -0.03555863 -0.009898539 -0.016699865
000030 b7 23 d7 3d 3e a3 75 3d 2f e7 82 3c f3 bd 08 bc
       0.10504859 0.059970133 0.015979378 -0.008346069
000040 61 dc 8b 3c 5a be 5f 3c b3 56 14 3d c2 82 a9 3d
       0.017072858 0.013656223 0.036215495 0.08276893
000050 77 ea 89 3d 43 cd fa bc a6 17 29 3d e1 ed 43 bd
       0.06734174 -0.030615455 0.04128232 -0.04783428
000060 51 d4 2b 3d d3 ca 7d bc 6b 78 5c 3d 45 0a 9c 3d
       0.041950528 -0.015490252 0.053825777 0.07619146
000070 03 8d 09 3d 8d 7f a2 39 bb 56 3b bd 44 6f 2a bd
       0.033581745 0.0003099408 -0.04573701 -0.041610017
000080 91 6c b8 3d cb 72 b8 3d 37 97 d3 bc 3f e8 06 3d
       0.090050824 0.0900627 -0.02582894 0.03293633
000090 ea f1 eb bb 4a b8 05 3d dd 8f 86 bb 59 ce 7d 3d
       -0.0072004693 0.032646455 -0.0041065053 0.061964367
0000a0 f3 66 4b 3d bd ba 03 3e 88 d8 46 39 70 20 74 bd
       0.049658727 0.12864204 0.00018963416 -0.059601247
0000b0 62 a3 60 bd de 42 ac 3d c0 f1 36 bd 65 f0 21 3d
       -0.054843314 0.084111914 -0.044664145 0.0395359
0000c0 b1 97 a8 3d 6b a3 88 bc 09 f5 98 bd 1f c2 06 bc
       0.08232058 -0.016679486 -0.07468612 -0.008224993
0000d0 2c 5c 19 3d a5 58 04 3d 34 cf 42 bb fb 8e 61 bd
       0.037441418 0.0323111 -0.0029725553 -0.055067997
0000e0 bf b2 4e 3d 85 9f fd bc 95 79 f6 bc df 6f ae bc
       0.050463434 -0.030959854 -0.030087272 -0.021293579
0000f0 83 13 73 bc 2e 26 be bc 7b d0 c7 3d ae ee 3a 3c
       -0.014836195 -0.023211565 0.09756561 0.011409445
000100 c8 d4 5e bd 22 72 5e bd 2e dc 17 bd f5 32 0c bd
       -0.054402143 -0.054308064 -0.037075214 -0.034228284
000110 9b 6c 6a 3d 58 db 3c 3b 22 a6 c1 3d 53 33 f5 3d
       0.05723248 0.0028817263 0.094555154 0.1197268
000120 bc 5b ce 3d c4 28 ba bb 09 92 8e bd f9 34 ba 3d
       0.10076091 -0.005681129 -0.06961448 0.09092135
000130 da 3d a5 3d e1 d1 fa 3b 8a ba bc bc bf fb b0 3c
       0.08068438 0.007654414 -0.023038168 0.021604417
000140 1e cf c6 3d d0 01 47 3c bc 66 90 3b 96 ce 98 bd
       0.09707473 0.012146428 0.004406778 -0.07461278
000150 44 c9 53 3d 30 a9 c5 bd 5c af d6 3d 41 cf 50 bd
       0.051705614 -0.096514106 0.10482666 -0.050978903
000160 c0 37 d4 3c 21 1d 84 3d a3 60 60 3d a1 bb c7 3d
       0.02590549 0.064508684 0.05477966 0.09752584
000170 71 cd 28 bd 72 87 ab 3d 51 8e 25 bd e2 76 59 3d
       -0.04121155 0.083754435 -0.040418927 0.05309189
000180 c3 a4 b2 bb 98 c7 d1 3d ce 71 71 3d 42 2f ad 3d
       -0.00545177 0.102431476 0.058946423 0.08456279
000190 2b af a9 bc 24 1b 3c 3c 03 ec ec 3d 16 76 82 bd
       -0.02071341 0.01148108 0.11568453 -0.06370179
0001a0 bb 2d 17 bd ba 55 59 bc 8a 08 5e 3c e5 ea 02 bd
       -0.036908846 -0.013265068 0.013551841 -0.031962294
0001b0 d9 e8 77 3c a2 bc 4d 3b 7b d3 18 3d 24 53 b4 3d
       0.015131199 0.0031392951 0.03731106 0.0880492
0001c0 9a 50 58 3d 44 20 11 3d c3 89 9b 3c ab e7 8d 3d
       0.052811243 0.03543116 0.018986588 0.06928953
0001d0 80 34 a8 3d c3 84 8f 3d 0a 63 90 bd 35 bb 30 3c
       0.082131386 0.07007744 -0.0705014 0.010786821
0001e0 5f f1 c8 bc 65 39 41 3d 2d 37 d2 3d 31 3e a1 bc
       -0.024529157 0.047173876 0.1026443 -0.019682975
0001f0 f8 f8 ff bc 42 b2 c5 bb d5 dc da bc f2 b3 f5 3b
       -0.031246647 -0.006033213 -0.026716629 0.007498258
000200 03 34 bc ba 90 5e d1 bb 0c 1c 95 b9 c1 d8 91 bc
       -0.0014358762 -0.0063894466 -0.0002844039 -0.017803552
000210 9e c5 69 bd be cc 8d 3d 88 1d 48 bc 31 0f a9 3d
       -0.057073228 0.06923817 -0.012214072 0.08254851
000220 13 55 4c 3d 42 4c 73 bc 93 2c 2b 3d 87 1f a9 bd
       0.04988582 -0.014849724 0.041790556 -0.082579665
000230 46 38 42 3d cf ae 54 bc 5a fd 4b bd 75 08 ec bc
       0.047416948 -0.012981131 -0.04980216 -0.028812626
000240 fa 9d a8 bc 79 e5 0d 3c 0a 86 69 bd ca bf 18 bd
       -0.020583142 0.008660668 -0.057012595 -0.03729228
000250 e5 c3 0e bd 45 cb d1 3d b3 53 80 3d 2f ef 0a 3d
       -0.03485479 0.10243849 0.06265964 0.03391951
000260 c7 22 7b 3d 0d 34 3f bd 47 88 b4 3d b1 4c 92 3d
       0.061312463 -0.0466805 0.08815055 0.07143534
000270 c3 be 5c bd 11 52 8a bd 52 75 17 bc 30 d9 e0 3c
       -0.053892862 -0.06753934 -0.00924428 0.027447313
000280 4e ec cf 3d f6 4d ad 3d 45 c4 c6 bc cc 3a 92 3b
       0.101524934 0.084621355 -0.02426351 0.0044625755
000290 d0 f2 92 bd 66 8d ca 3d 5d 13 e9 bc c9 91 e2 bd
       -0.07175219 0.09890251 -0.028451616 -0.110629626
0002a0 5f 60 d5 bc f1 17 85 bd 6e f2 56 3d 09 ec 52 3d
       -0.02604693 -0.06498707 0.052477293 0.051494632
0002b0 88 9a 45 3d 07 3a be bd ef 7d 70 bd c5 a2 58 bd
       0.048243076 -0.092884116 -0.05871385 -0.052889604
0002c0 3b f5 53 3c 54 50 cd bc d9 ad 0f bd 30 97 cc bd
       0.0129368855 -0.025062717 -0.035077903 -0.09989774
0002d0 d4 54 f2 bb fb ce 58 3c 8c bc d9 3d 95 93 4c bd
       -0.007395366 0.013232942 0.106316656 -0.049945433
0002e0 d5 cd 31 bd 1b 04 ac 3c 10 dd a8 bd 5b 27 8e 3d
       -0.043409187 0.020998051 -0.08245289 0.069411
0002f0 ed 40 4e bc 17 07 b9 3d ef 4a 54 3b 7f 7d 23 3d
       -0.012588722 0.090345554 0.0032393297 0.039914604
000300 59 17 14 bd fd 53 49 bc 32 de 1c 3d 7e 4c ef 3c
       -0.03615508 -0.012288091 0.03829784 0.029211279
000310 88 7a 88 3d d2 b7 00 3d a0 cf 10 3d 78 37 d2 3c
       0.06663996 0.031425305 0.035354257 0.025661215
000320 0a 41 1d 3c 08 e9 ac 3c 19 29 71 bd 14 a7 8d bd
       0.009598026 0.021107212 -0.058877084 -0.06916633
000330 7c a3 54 bc 84 19 9c bd 15 3b 1e bd 2f 07 bf bd
       -0.012978431 -0.07622054 -0.038630564 -0.09327542
000340 7b fb 99 bb e0 e0 c4 bd 47 bd 26 3c 85 2c 84 3d
       -0.0046991683 -0.09613204 0.010176963 0.06453804
000350 c2 73 8b bd 83 5d 1f 3d 82 a7 1f bd 4b 38 32 3d
       -0.068091884 0.03890754 -0.038978107 0.043510716
000360 45 44 30 3c d5 db 44 3d 95 1e bc bd 60 80 1e 3d
       0.010758464 0.04806121 -0.091855206 0.038696647
000370 72 33 32 3c 12 72 e3 3c dd 32 03 3c cd 04 27 bd
       0.010876523 0.027764354 0.008007732 -0.040776063
000380 12 30 81 bd db 07 db bd 47 ab dc 3c c9 6b 8c 3c
       -0.06307997 -0.10694858 0.02693714 0.01714124
000390 b3 6c 8a bd 21 ed 06 bd 05 ca d4 bb 00 33 5b 3d
       -0.06759014 -0.032940987 -0.006493809 0.053515434
0003a0 ec 0e 00 3c 27 14 40 3d 4a 3e 8c 3d 8c a5 ad 3c
       0.007816058 0.04689422 0.06847818 0.021197103
0003b0 a2 b9 66 3d b4 3f 0e 3d 61 99 00 3e 87 78 90 bd
       0.056329377 0.03472872 0.1255851 -0.07054239
0003c0 54 4e d6 3c 9c 13 06 3d 4f a4 bf bc 14 8b 9e 3d
       0.026160397 0.032733545 -0.023393778 0.07741371
0003d0 c7 20 9d 3d d4 fc a6 3b ef 27 9e 3d 32 69 ba bb
       0.076722674 0.0050960574 0.077224605 -0.00568881
0003e0 90 de 8a bd 75 2b b8 bd 91 b0 cc 3c 20 b2 be 3c
       -0.06780732 -0.08992664 0.024986537 0.023278296
0003f0 a0 f1 18 3d 43 ce 84 3c 92 5d 84 bc a4 d5 a5 3c
       0.037339807 0.016211635 -0.016157899 0.020243473

L4.bias f4 [88]
000000 e6 b3 3d 3b c8 15 dd bc dd 47 a0 bd 8c 7e 6e bc
       0.002894634 -0.026987925 -0.07826207 -0.014556538
000010 82 e6 4c 3d 56 26 45 b9 a6 6d 78 bc 98 9f ad bd
       0.050024517 -0.00018801665 -0.015162861 -0.08477706
000020 e9 9e 26 3d 35 c3 b6 3c 02 83 86 bd 83 bb 4e bc
       0.040678892 0.022309879 -0.065679565 -0.012617948
000030 3c 50 40 bd d4 6d 47 3d 82 94 9a bc 0b b2 6b 3c
       -0.046951517 0.048688725 -0.018869642 0.0143857105
000040 55 02 7a 3d 3e ea f2 bb 19 28 01 3d 12 da a6 3d
       0.06103738 -0.0074131778 0.03153238 0.08147062
000050 4e 8c 13 3d 5d fe a2 bd dd ec 83 3c 59 88 60 3d
       0.036022477 -0.07958672 0.016104156 0.05481753
000060 ae f1 eb 3b ac 74 f6 3b bb 0e 47 bd 2f f9 31 3d
       0.0072004413 0.0075212326 -0.048598032 0.04345053
000070 ca 71 14 3d 13 3b 00 bd 7f 0a 12 3d 4c 2c d0 3c
       0.03624133 -0.031306338 0.03565454 0.025411747
000080 81 e8 95 3c d3 2d 1f 3c 98 14 38 bd 3f 83 30 bc
       0.018299343 0.009715515 -0.044941515 -0.010773479
000090 64 3b 95 bc 7d 8d 45 3d e4 69 66 bc e2 8d e4 3b
       -0.018216796 0.048230637 -0.014063332 0.0069749216
0000a0 12 c5 9e bd 35 09 06 3d 74 ec 50 bc 11 c2 7a 3d
       -0.07752432 0.032723624 -0.012751687 0.061220232
0000b0 50 1e c2 3c 61 fb 27 3c 72 1e 02 3c 52 c1 b8 3d
       0.023696095 0.0102528045 0.007941829 0.09021248
0000c0 b6 3b a7 bb da a3 83 bc a8 77 53 bd 92 6f 0d bd
       -0.0051035536 -0.016069341 -0.051627785 -0.03453023
0000d0 0a 5b 66 bd 16 65 88 3c d6 70 91 3d ab 6c c6 3c
       -0.056239165 0.016649764 0.071016 0.024221739
0000e0 83 ca 86 3d c4 91 1a bd c6 b6 bc bc 11 82 12 bb
       0.06581595 -0.03773667 -0.023036372 -0.0022355358
0000f0 e6 bb 55 bd e5 5c 78 bd df e4 c3 3c 2b 44 23 3c
       -0.052181147 -0.060635466 0.023912845 0.009964983
000100 df 5c 56 3d e9 a5 43 3d b8 89 3b 3d c9 15 09 bd
       0.052334663 0.047765646 0.045785636 -0.03346804
000110 6f 6f 32 bd 77 b7 12 bd ec 36 9d 3c ee 72 b5 bb
       -0.043563303 -0.035819497 0.019191228 -0.0055373823
000120 83 3e 23 bd af 3e 0a 3d c5 0a 38 3d 9c c8 8f 3d
       -0.039854538 0.033751186 0.044932146 0.07020685
000130 a7 c3 91 3d ec 80 9e bd 8c 81 53 3c 3d 87 08 bc
       0.07117396 -0.07739434 0.012909304 -0.008333025
000140 0f 14 2c 3d fa 22 33 3d 2d b9 0f 3b 30 4f 7a bd
       0.042011317 0.043734528 0.0021930442 -0.061110675
000150 f8 31 b3 ba 24 d1 44 3d 70 1d 2f bc cf 0b 51 bd
       -0.0013671508 0.048051015 -0.010688171 -0.051036652

L5.weight f4 [44, 88]
000000 f1 c1 db bd 66 7d 23 bc df e7 86 bd e4 13 a9 3d
       -0.10730351 -0.009978628 -0.06587195 0.08255747
000010 99 02 89 3d 73 d2 a3 3c 2e ed d2 3b 19 22 a9 bd
       0.066899486 0.019997811 0.0064369654 -0.08258457
000020 89 a2 2b 3d 5a 74 da bc a3 b5 6c bd ce 7b 01 be
       0.041903052 -0.026666809 -0.05779041 -0.12644884
000030 6b 17 1c 3c ab 49 fd bd b1 ad 70 bd ee 80 84 3d
       0.009527068 -0.12367567 -0.058759395 0.06469904
000040 f8 ee 05 be fd 61 4e bd ad 33 a0 bd ad 27 0f 3c
       -0.1307944 -0.050386418 -0.078223564 0.008737487
000050 e4 1a 10 3e 13 42 c8 bc f3 e4 9d bd 68 0e 41 bd
       0.14072758 -0.02444557 -0.07709684 -0.04713288
000060 3f 7f 66 3d 1e 3b 82 bc 7f 88 9a 3d 7f 41 3a bd
       0.056273695 -0.01589733 0.07545566 -0.04547262
000070 e4 10 03 be 72 da db bd b2 93 79 3d 28 95 08 bd
       -0.12799412 -0.107350245 0.06093187 -0.03334537
000080 a8 79 c9 bd 20 f5 e7 bd 3c 0f 04 be b4 d5 b2 bd
       -0.09837657 -0.11326051 -0.12896436 -0.08732167
000090 d6 6c 02 bb dd 86 ca bd 81 f0 bb bc 09 de 87 3d
       -0.0019901297 -0.098890044 -0.02294183 0.06634147
0000a0 11 45 78 3d 0d d1 a4 3d 5d eb c4 3b 59 f2 d6 3d
       0.06061274 0.08047686 0.006009503 0.10495443
0000b0 54 22 d8 bd 50 95 7d 3c b5 c2 25 bd 02 e9 5a bd
       -0.105534226 0.015477493 -0.04046889 -0.05344487
0000c0 80 97 b9 3c 4d 74 a2 3c 5a f5 86 bd 0a ae 3c bd
       0.022655249 0.019830847 -0.06589766 -0.046064414
0000d0 e3 00 48 3d 14 9a ee ba 57 e4 4d 3d 10 51 4f bd
       0.04882897 -0.0018203878 0.05026659 -0.050614417
0000e0 9e a3 66 3b f8 e3 ef bc 60 0a ca bd cf 30 1b 3d
       0.0035192738 -0.029283509 -0.0986526 0.037888344
0000f0 5e cb 9e 3d 5f 98 09 3d e8 16 f0 bd 19 98 c0 bd
       0.07753633 0.033592578 -0.11723119 -0.0940401
000100 ba 93 89 3d 6d 8b a2 3d fc e8 0a bd d3 c7 be 3d
       0.0671763 0.079367496 -0.033913597 0.09315457
000110 76 0f 85 bd 2c 0b 53 3d 8e 1d a2 3d 24 51 6a bc
       -0.064970896 0.051524326 0.07915793 -0.014301572
000120 59 24 42 3d ee 08 9d bc bb 70 96 bd e3 52 88 3d
       0.047397945 -0.019169297 -0.073457204 0.066564344
000130 b7 f4 64 bd e4 07 15 3d 49 a8 c4 3d e6 59 a8 3d
       -0.05589744 0.03638448 0.0960241 0.08220272
000140 3d 3e 91 bd 8e ea b3 bd c6 ae ee bc 26 10 ab bd
       -0.07091949 -0.08784972 -0.029136073 -0.083526894
000150 b8 84 b8 bd 6b 27 8c bc 87 8b 15 3b 2b c1 93 3d
       -0.09009689 -0.01710864 0.002281876 0.07214578
000160 5c ce 99 bd 49 2c 22 bb 63 3e ad 3d ba 36 c6 bd
       -0.07510063 -0.0024745634 0.08459165 -0.09678407
000170 67 d5 c8 bc 43 ce 83 bc d4 ce 88 bd 8b bf 41 bc
       -0.02451582 -0.016089564 -0.06680074 -0.011825453
000180 77 34 10 bd 04 96 c2 bd c3 fb 29 3d 5b 95 aa bd
       -0.035206284 -0.095012695 0.041499864 -0.083292685
000190 7a 3c c2 bd 7b 91 14 be f2 36 2f 3d 64 02 a6 3c
       -0.09484191 -0.14508621 0.04277701 0.020264812
0001a0 c2 6c 52 3d f2 fb 27 3d ad 07 cf bd a6 72 e7 3d
       0.05137325 0.04101176 -0.10108886 0.11301164
0001b0 0e 81 2e bd af 6e 4b 3d a5 50 d7 3d 51 08 46 bd
       -0.042603545 0.049666103 0.105134286 -0.048347775
0001c0 b9 c2 48 bd f7 fd b5 bd 58 a8 7e 3d 18 b9 19 bb
       -0.049013827 -0.088863306 0.062172264 -0.0023456272
0001d0 0e 88 26 3a 26 91 c9 3d 20 e3 9a 3c 2d 65 e7 3d
       0.0006352671 0.09842138 0.01890713 0.112985946
0001e0 66 08 77 3c aa d4 d2 bd cb 4a d9 bd 24 27 b7 3d
       0.015077686 -0.10294469 -0.10609969 0.08943012
0001f0 f0 92 74 3c a2 5d 9b bd 64 52 7a bd 1b 84 8a bc
       0.014927611 -0.075862184 -0.06111373 -0.016908696
000200 21 0b 1a 3c 03 e7 85 bd 3a 1c a2 3d 6f 6b 43 3d
       0.009402067 -0.065382026 0.0791554 0.04770988
000210 22 24 61 bd 59 e7 02 bd 35 43 55 3d 70 96 18 bd
       -0.0549661 -0.03195891 0.052066047 -0.037252843
000220 f2 77 23 3d 76 2c eb 3c c8 d6 d5 3d 79 c6 c8 3d
       0.03990931 0.028707724 0.10441357 0.09803481
000230 99 a6 bd bd f1 07 0e bd fb e9 d0 bd 73 b6 c9 bc
       -0.092602916 -0.034675542 -0.10200878 -0.024623131
000240 60 a0 73 bd 30 bd 77 3d 93 42 15 3d 6a 3e bd bd
       -0.059479117 0.060483158 0.036440443 -0.0924042
000250 d6 60 99 3c 20 c5 d3 bd 92 d5 93 bd 45 3b be bd
       0.018722933 -0.10340333 -0.0721847 -0.092886485
000260 d9 57 0e 3e 3d ac 85 bd 04 4e 16 3d fa 1c d6 bd
       0.13900699 -0.065269925 0.036695495 -0.104547456
000270 98 b0 be bd 10 59 07 bd 7a 73 c9 3d 98 a9 f1 bc
       -0.09311026 -0.03304392 0.098364785 -0.029499814
000280 01 46 7a 3d 7f b1 44 bd f2 51 8e 3d 6a 20 89 bd
       0.061101917 -0.048020836 0.069492236 -0.066956356
000290 16 f8 9d bd 9a 42 d0 3c 8a 8f 0e bd 42 4c 0a 3d
       -0.07713334 0.025422383 -0.03480486 0.03376413
0002a0 c9 eb f8 3d 46 4a 20 3d f2 3f 5a bd ae 32 92 3d
       0.121543474 0.039133333 -0.05328364 0.07138573
0002b0 a6 93 4d bd 62 8e af 3c 67 db e2 3c 9a a5 7a bd
       -0.050189637 0.021430198 0.02769251 -0.061193086
0002c0 1d 9b 6e 3d 3a 3a ba 3d 56 b6 65 bc 51 93 a6 3d
       0.058253396 0.09093137 -0.014020523 0.08133567
0002d0 ba fb 3e 38 ad 5e 3d 3c ac f8 9a bd 6f 9f 6e 3d
       4.553397e-05 0.011558217 -0.07566962 0.058257516
0002e0 88 c8 c1 3d d2 b5 83 bc ce c6 bd 3c 36 a4 6f 3d
       0.094620764 -0.01607791 0.023166087 0.058506213
0002f0 10 e6 ff 3b 6b 5b c7 3d 1e c9 b0 bd ad 0d 6b 3d
       0.007809408 0.097342335 -0.0863211 0.05738609
000300 7f 9a bf 3d e6 df b7 bd 3d 71 84 bc 70 df c0 3d
       0.0935564 -0.08978252 -0.016167277 0.09417617
000310 07 e9 d3 bd 49 1f 95 3d 3e f5 0c bd cd 25 88 3d
       -0.10347181 0.07281358 -0.03441357 0.06647835
000320 59 ea e5 ba 83 07 93 bd 72 62 5e bd dc 38 6e bd
       -0.0017541155 -0.07179167 -0.054293104 -0.058159694
000330 73 49 28 bd 2f 2c d0 3b 00 28 73 3c 5c 01 73 3d
       -0.04108567 0.0063529233 0.01484108 0.05932747
000340 8f ad 76 3d 83 f0 f9 3d 1d 5c 3f 3b 19 f0 8b bb
       0.060224112 0.12204077 0.002919919 -0.004270565
000350 a4 05 43 3d e0 04 ea bc e7 d6 9f 3d 73 2e 8a 3d
       0.0476128 -0.028566778 0.07804661 0.06747141
000360 ef 38 25 3d 98 1e 1b 3c 25 0a 5a bd 2e 2d 00 be
       0.0403375 0.009467743 -0.05323233 -0.12517235
000370 d6 4d 90 3d 63 51 ab 3d 1c 35 6b bd 60 94 b3 bd
       0.07046096 0.08365133 -0.057423696 -0.08768535
000380 c1 dc 1c 3d 32 2b 13 3d 26 0f b0 bc f0 ae ea 3d
       0.038296465 0.035929866 -0.021491598 0.11459148
000390 38 3d 5a bd 25 9b 92 3d 0d d4 fe 3c 8f 05 c5 3c
       -0.05328104 0.07158498 0.031106973 0.024050502
0003a0 b3 75 ea bd a4 dd 8c 3d a8 63 54 3d e7 6e 8d bb
       -0.114482306 0.06878212 0.051852852 -0.004316199
0003b0 b2 d9 e1 3c 79 cc 91 bd 66 2e 05 bd 7b e5 16 bd
       0.027569626 -0.07119078 -0.032514952 -0.036839943
0003c0 7d 9f c0 3d 15 96 93 3d 17 a8 bb bd 3d 7d b5 3c
       0.0940542 0.0720636 -0.0916292 0.022154445
0003d0 38 78 bc bc a6 6b 3d 3d f5 2c d0 bd b3 1a 38 3c
       -0.023006544 0.04624524 -0.10164825 0.011236834
0003e0 3f 38 5e 3d 4c df ca 3d 7b 68 91 bd 6b 16 35 bd
       0.05425286 0.09905872 -0.07100006 -0.044210833
0003f0 1d e5 9d 3d 84 68 aa bd 84 ea 4c bd 8f 2e 82 bd
       0.077097155 -0.08320716 -0.05002834 -0.063565366

L5.bias f4 [44]
000000 70 de 93 bd 4f 6c 19 bd 85 ff 76 bd 69 ac c4 bc
       -0.07220161 -0.037456807 -0.060302276 -0.024007993
000010 37 c4 39 bd 55 3d 63 3d 7e af 1e bd 5a c5 88 bd
       -0.04535314 0.055478413 -0.03874158 -0.06678267
000020 d7 5c 33 bd 04 27 c9 bc 43 d3 95 3c 74 1b 47 3c
       -0.04378971 -0.024554737 0.018289214 0.012152541
000030 6f 78 da 3d df 6b 84 3a 62 54 5f 3d 26 df 3c bd
       0.10667502 0.0010102949 0.054523833 -0.04611125
000040 31 e7 54 bd 6f 2c 8a 3d 2c 7d b9 3d b3 ce 59 bd
       -0.051978294 0.06746756 0.09057078 -0.05317564
000050 70 08 b5 3d fc e0 98 3d 4f 04 f0 bd 01 a1 e6 3c
       0.088395 0.07464787 -0.11719572 0.028152945
000060 9b 8c a9 3d 6a 1d 0d 3d eb 0e 3b 3d 3e 59 08 3d
       0.082787715 0.03445188 0.045668524 0.033288233
000070 d7 c2 22 3a 55 65 4d 3d 6f cd 8b bd 06 0e 5c 3d
       0.0006208843 0.050145466 -0.06826293 0.05372431
000080 aa 18 58 bd 36 13 0b 3b 1d 1b d2 bc d0 15 c8 3d
       -0.052757896 0.0021221167 -0.025647694 0.097697854
000090 57 95 95 bd 48 99 f3 3d af 5e 97 3b 4b 6e 0b 3d
       -0.07303875 0.118944705 0.0046194415 0.03404073
0000a0 c7 f6 e1 3d 94 83 fe bc 70 a7 09 bc fa 36 b6 3d
       0.11033397 -0.0310686 -0.008401737 0.08897205

L6.weight f4 [1, 44]
000000 69 3a 21 be 04 e7 34 bd e8 20 82 3d db 0c 3d bd
       -0.15744938 -0.044165626 0.063539326 -0.046154838
000010 7d cf 0e bd 45 1f 0a 3e dd 25 a6 3d 4b e4 00 3e
       -0.034865845 0.13488491 0.081126906 0.12587087
000020 e4 a7 c7 bc 06 2f f9 bd 61 05 97 3d bd 6f 9d bc
       -0.024372049 -0.12167172 0.07374073 -0.01921832
000030 ac b7 f3 bd 89 6f 6e 3d 03 cf a3 3d 27 59 5f 3d
       -0.11900267 0.058211837 0.07998469 0.05452838
000040 36 22 68 bd c5 6f b1 bc 0b f1 1e bc 9c 3f 80 bd
       -0.05667325 -0.021659741 -0.009701024 -0.062621325
000050 94 c3 a8 bc 20 35 f0 bb 88 25 83 bc 8c ca bb 3d
       -0.020601071 -0.0073305517 -0.016009107 0.09169492
000060 ee ef 13 be dc f8 ae bd 5e 0c 36 bd b0 53 5a 3d
       -0.14446995 -0.0854356 -0.044445388 0.053302467
000070 cb fc 07 3e 94 b4 30 3e d8 76 69 bd b2 c7 62 3d
       0.13280027 0.17256385 -0.056998104 0.055366226
000080 97 c8 fe bd e9 5c fa bc 6e 0c bf 3a c4 32 0a be
       -0.12440603 -0.030561881 0.0014575848 -0.13495928
000090 ee c7 b2 3d 2c 37 be bd 2e 6a 68 bd 8c 8d ee bb
       0.0872954 -0.09287867 -0.056741886 -0.0072800573
0000a0 13 b3 29 bd 2b 8c 9f 3d b9 8b 06 be b7 9d 0d 3d
       -0.041430544 0.07790407 -0.13139237 0.034574237
