Saved_Models_All_Features_Only_Simulation_Samples/target_Hardness_features_22_epochs_0.pth (torch_old, 162565 bytes, 11 tensors)

L1.weight f4 [44, 22]
0.07451937 -0.08149601 -0.18903732 0.17461333 0.21064593 0.083904766 0.040501267 0.062289096
-0.030940259 -0.16919598 -0.048314773 -0.1144021 -0.13465588 0.12226277 -0.060529497 -0.19231379
-0.15360484 0.1583739 -0.14961517 -0.07256377 -0.018802257 0.20959526 0.20367184 -0.044775464
0.10182684 -0.16636573 -0.16287841 -0.17577533 -0.13041013 -0.013396829 0.19966966 0.1258379
0.054949302 -0.12929298 -0.031825442 -0.038371284 -0.02591177 0.10610697 -0.07904083 -0.06266141
0.10784873 -0.17792635 -0.054789584 0.03657235 -0.035563286 0.16385761 0.047794465 -0.18015236
-0.08347899 0.06566238 0.107526064 0.20973486 -0.050004225 -0.0402509 0.15815823 -0.0050100586
0.048868548 -0.1133687 -0.05082192 -0.086034685 -0.13363357 0.083487116 -0.10928579 0.081620134
0.18798922 0.105583124 0.07425853 -0.05221379 -0.1956417 0.026069988 -0.1926734 0.18855266
0.08912721 0.19448182 -0.12636083 0.13326116 -0.1231802 -0.13884391 0.0144484285 -0.20459959
0.07833869 0.08463324 0.0870326 -0.10551913 -0.004627298 -0.17034544 -0.0018230112 -0.020554159
-0.16838324 -0.20909438 0.16118269 0.09759228 -0.17404056 -0.05577541 -0.08374888 -0.09651854
-0.20564994 0.001168625 -0.17819767 0.031031214 0.13673742 -0.07144517 -0.09798046 -0.16286674
-0.20414747 -0.04806497 0.20332032 0.042277347 -0.09257826 -0.17628735 -0.044877473 -0.17633028
0.009212858 0.043386135 -0.16490321 -0.15765256 0.10673928 -0.012173421 -0.09170523 -0.045079924
0.14363702 0.058643177 0.08183409 0.17238942 -0.1369492 -0.20801285 0.025650455 -0.21606764
0.17630424 -0.12694016 0.048496056 0.12303269 -0.058778483 -0.04019159 -0.01869679 -0.044012517
0.19553833 0.019181753 0.12034914 0.1947737 0.07307169 0.06808175 -0.029354649 0.1123427
0.04413422 0.10911291 -0.09753951 0.044381645 -0.07331895 -0.1620746 0.13907662 -0.18029894
0.09339095 0.21025819 0.09189313 -0.11376938 0.07886421 -0.035553917 -0.045823444 -0.15884067
-0.12871811 -0.062888786 0.031226078 -0.11636309 0.13593154 0.19613709 0.023976084 -0.1313677
-0.083847605 0.14944091 0.016118549 0.13986227 0.03419051 -0.12283659 0.007676439 0.07742176
0.03924248 -0.16592182 -0.02437584 0.16764869 0.16173509 0.010613886 0.14967978 -0.119945146
0.012171274 0.105065666 -0.15001175 -0.176539 0.106919765 0.14055423 0.15594777 0.045491822
0.11502674 0.08134347 0.061271444 -0.12088573 -0.083023936 -0.059102733 0.17243354 0.045258645
0.14161916 0.08779247 0.08923496 -0.054846276 -0.08678861 -0.19011804 0.009509658 -0.0814749
-0.089651115 -0.010750153 0.029284138 0.11054806 -0.0309536 0.09568718 0.06595779 -0.11454072
0.019782243 -0.005608512 0.08929497 -0.028210089 -0.023211781 -0.06305912 0.15204296 0.2150002
-0.012334461 0.03325967 0.15895706 -0.10142865 0.19290182 0.19257332 -0.16771893 0.16228443
-0.042616483 -0.07039507 0.13575529 -0.1372377 -0.086119846 0.023399875 -0.09113435 1.9299605e-05
0.20729372 -0.14462471 0.0311816 0.20125426 -0.0397221 -0.08761741 0.11487167 0.14581086
-0.20671463 -0.16093148 0.012163439 -0.068249464 -0.00010503536 -0.17292394 -0.035968002 -0.1489395
00000000: 9d9d 983d 61e7 a6bd 0093 41be d6cd 323e
00000010: 91b3 573e 43d6 ab3d a8e4 253d da22 7f3d
00000020: 6d76 fdbc b641 2dbe b6e5 45bd a64b eabd
00000030: 3be3 09be e764 fa3d c7ed 77bd e8ed 44be
00000040: 964a 1dbe c52c 223e b834 19be 509c 94bd
00000050: 3107 9abc 24a0 563e 5a8f 503e 7a66 37bd
00000060: 978a d03d c75b 2abe 99c9 26be 73fe 33be
00000070: 3c8a 05be 607e 5bbc 3476 4c3e a7db 003e
00000080: 8512 613d 6165 04be 655b 02bd 352b 1dbd
00000090: ec44 d4bc 9c4e d93d 29e0 a1bd a054 80bd
000000a0: ccdf dc3d 5332 36be 0b6b 60bd e3cc 153d
000000b0: cfaa 11bd 4aca 273e 21c4 433d dc79 38be
000000c0: 08f7 aabd ff79 863d a036 dc3d bcc4 563e
000000d0: 3bd1 4cbd 21de 24bd 3bf4 213e 6b2b a4bb
000000e0: 632a 483d d92d e8bd a52a 50bd f432 b0bd
000000f0: 3dd7 08be 4bfb aa3d 3ad1 dfbd 7528 a73d
00000100: 3f80 403e f73b d83d db14 983d 21de 55bd
00000110: 4c56 48be ba90 d53c 2d4c 45be f313 413e
00000120: 5488 b63d 3e26 473e bc64 01be 9d75 083e
00000130: e745 fcbd 192d 0ebe 1ab9 6c3c 8e82 51be
00000140: 0970 a03d 3154 ad3d 263e b23d 6a1a d8bd
00000150: 97a0 97bb 096f 2ebe 1bf2 eeba 3261 a8bc
00000160: a86c 2cbe d61c 56be 130d 253e 76de c73d
00000170: b037 32be c274 64bd 8884 abbd 83ab c5bd
00000180: e695 52be 8c2c 993a 7379 36be 2c35 fe3c
00000190: e504 0c3e d851 92bd fba9 c8bd 8ac6 26be
000001a0: 090c 51be c6df 44bd 3433 503e 032b 2d3d
000001b0: ac99 bdbd ac84 34be 71d1 37bd ed8f 34be
000001c0: 87f1 163c a9b5 313d 63dc 28be ac6f 21be
000001d0: 209a da3d 0773 47bc f4cf bbbd baa5 38bd
000001e0: 9515 133e d433 703d a298 a73d da86 303e
000001f0: 693c 0cbe 5201 55be e720 d23c d640 5dbe
00000200: 1989 343e 9afc 01be cda3 463d 90f8 fb3d
00000210: b5c1 70bd f09f 24bd 032a 99bc 7846 34bd
00000220: 333b 483e 0d23 9d3c 9c79 f63d c272 473e
00000230: 9ca6 953d 726e 8b3d 2979 f0bc ee13 e63d
00000240: 15c6 343d 9776 df3d cbc2 c7bd 87c9 353d
00000250: 3f28 96bd e2f6 25be 1a6a 0e3e 49a0 38be
00000260: c143 bf3d ec4d 573e 7732 bc3d ecff e8bd
00000270: 8f83 a13d fca0 11bd 5db1 3bbd 21a7 22be
00000280: aece 03be d6cb 80bd d5cd ff3c c64f eebd
00000290: a331 0b3e 29d8 483e 7e69 c43c 4185 06be
000002a0: 4bb8 abbd 0a07 193e 0c0b 843c 0e38 0f3e
000002b0: 590b 0c3d c091 fbbd a38a fb3b 4d8f 9e3d
000002c0: b9bc 203d 69e7 29be d7af c7bc 19ac 2b3e
000002d0: e29d 253e dde5 2d3c a845 193e cda5 f5bd
000002e0: 066a 473c ab2c d73d ae9c 19be a4c6 34be
000002f0: c0f8 da3d 73ed 0f3e c6b0 1f3e a255 3a3d
00000300: 2493 eb3d 6897 a63d c4f7 7a3d f092 f7bd
00000310: 7408 aabd b515 72bd 6b92 303e 2161 393d
00000320: 9d04 113e 8acc b33d d2c0 b63d 7da6 60bd
00000330: 3abe b1bd 4eae 42be 66ce 1b3c 50dc a6bd
00000340: 019b b7bd 6921 30bc 4ae5 ef3c 0567 e23d
00000350: 6792 fdbc a4f7 c33d e114 873d 5394 eabd
00000360: 5f0e a23c 9cc7 b7bb 48e0 b63d d818 e7bc
00000370: a226 bebc 2425 81bd 26b1 1b3e 0329 5c3e
00000380: 7b16 4abc 4b3b 083d a4c5 223e d3b9 cfbd
00000390: 0e88 453e f131 453e 83be 2bbe e42d 263e
000003a0: 9f8e 2ebd 4a2b 90bd 6f03 0b3e 0a88 0cbe
000003b0: 9a5f b0bd 18b1 bf3c a5a4 babd 96e5 a137
000003c0: ce44 543e 8018 14be 8e70 ff3c 9915 4e3e
000003d0: a4b3 22bd c270 b3bd d741 eb3d 714f 153e
000003e0: 00ad 53be 39cb 24be 2949 473c 60c6 8bbd
000003f0: 6e46 dcb8 f912 31be 2f53 13bd 9983 18be

L1.bias f4 [44]
-0.018911434 0.16322926 0.14307636 -0.17848815 0.16522723 -0.051790554 -0.15695606 0.14441575
-0.05524614 0.050026592 0.057561103 0.14082548 0.16846861 0.17003855 0.07736388 0.13384265
0.115531944 0.07780418 -0.1342355 -0.077105574 0.15520062 0.03488319 0.08692877 -0.19988927
0.032842416 0.11735189 -0.17056108 0.16661447 -0.10131871 -0.07171342 0.14072521 -0.024851937
-0.013548231 0.0016385176 0.068966985 0.13066761 -0.062097754 0.1837891 0.07585686 0.08710359
-0.16728565 -0.08132464 0.17479812 0.10689065
00000000: 27ec 9abc 9225 273e 9c82 123e 99c5 36be
00000010: 5431 293e 5522 54bd 17b9 20be b9e1 133e
00000020: c749 62bd afe8 4c3d 31c5 6b3d 8e34 103e
00000030: 0983 2c3e 961e 2e3e f470 9e3d 0c0e 093e
00000040: 039c ec3d cc57 9f3d 0875 09be 87e9 9dbd
00000050: e9ec 1e3e ade1 0e3d b607 b23d c6af 4cbe
00000060: c585 063d 3056 f03d 90a7 2ebe fc9c 2a3e
00000070: 2f80 cfbd 7cde 92bd 451a 103e 4a96 cbbc
00000080: 66f9 5dbc 87c3 d63a 903e 8d3d bbcd 053e
00000090: 375a 7ebd 3633 3c3e d75a 9b3d 5e63 b23d
000000a0: ee4c 2bbe 888d a6bd 47fe 323e 7ce9 da3d

L2.weight f4 [88, 44]
-0.1334511 0.068564154 0.1460271 -0.015585076 -0.05113368 -0.052695572 0.057732575 -0.062108006
0.06987029 -0.050913874 0.08299693 -0.043426186 -0.010277666 -0.17852885 0.13735321 0.025506929
0.115505636 0.113482125 0.076065965 0.025108974 0.01567794 0.08064363 0.041903887 0.017491842
0.030135537 0.024377206 0.12784858 -0.05670649 -0.0792633 -0.07324043 -0.028812569 -0.08846179
0.021661978 0.026368758 -0.054371513 0.06370337 0.017564172 -0.009675972 0.12466845 -0.040939443
-0.12802464 0.1363215 0.10086415 -0.1181389 -0.11870189 -0.044531368 -0.08851818 -0.11786176
0.13707522 -0.010182674 0.16490199 0.09308782 0.031610195 -0.059808575 0.079489306 0.13446192
-0.06889123 0.07348709 0.01902044 -0.02196481 0.049973935 0.14599907 0.15546799 -0.04825827
-0.0027868901 -0.1414894 0.006794773 0.113908604 0.14447457 0.02104453 0.015785674 -0.021145066
0.1438465 -0.026241595 0.15098694 0.06893543 -0.1264283 0.12945822 0.10020347 0.13183932
-0.02407633 -0.07823552 0.12785515 0.03786105 -0.051533222 0.07319991 -0.05979884 0.063043565
-0.04523814 -0.006571426 0.046682447 -0.03960687 0.09793366 -0.09309438 0.008575591 -0.015972747
0.07390454 -0.061808944 0.022930222 -0.04176031 0.10268474 -0.0987716 -0.07682742 -0.14569297
-0.13454752 0.07548379 -0.14626423 0.059896663 -0.10247112 -0.05071442 -0.008586402 -0.15907995
-0.00026709095 -0.021537872 0.11634901 0.12656748 -0.12055686 -0.05097292 0.03746957 0.073908284
-0.0113082295 -0.12572676 -0.0843064 -0.12723435 0.11055072 0.012435717 -0.0030613977 0.025790174
0.09801494 0.09525756 0.028939521 0.069077775 0.056337383 0.11091538 -0.10617879 -0.09501036
-0.16087523 -0.060474973 -0.053058255 -0.0456904 0.11858249 0.053977665 -0.057446107 -0.093267515
0.0066860276 0.05136134 -0.019844146 -0.043021027 -0.09244791 0.08039776 -0.1034942 -0.07769986
0.063928135 0.14789039 0.13220914 -0.0730905 -0.10334224 -0.1489081 0.0036527622 0.0075783124
0.0016826441 0.15604775 0.13478746 0.119892485 -0.055559795 -0.091967046 -0.067564614 0.022821601
-0.014975892 -0.06307107 0.12749079 -0.12811269 -0.046249524 0.054794848 -0.12208561 0.008947912
-0.084675975 -0.14399126 0.12596025 -0.05722317 -0.018118715 0.14018638 -0.01073692 -0.006639723
-0.07352314 -0.15815412 -0.106502466 0.11769562 -0.03945459 0.08765924 -0.09971421 0.15249504
-0.13529335 0.07348122 -0.061108638 0.048648644 0.023535877 0.0057650497 -0.13659674 0.01107818
-0.09966682 0.10181322 -0.07355227 -0.018673986 0.1083161 0.055446688 -0.039522033 -0.09736761
-0.08205488 0.0910805 -0.12539871 0.015430832 -0.11408265 0.11964198 -0.0071637346 0.01770679
0.15210623 -0.121358626 -0.15574364 -0.018877093 -0.121205285 -0.08881195 0.04992234 0.0034182274
0.08691908 -0.09088959 -0.0678108 0.08896873 0.0013366506 -0.059986576 0.0789352 0.024522183
-0.040516596 0.10436798 0.12580432 -0.037413392 -0.11324937 0.14383753 -0.06166727 0.023764368
-0.09646088 -0.0325676 0.10314529 0.10553968 0.09484244 -0.02991281 -0.041952323 -0.08020773
0.011942429 0.054488264 -0.11734666 0.058802597 -0.13453628 0.11026203 -0.13857618 0.022114592
00000000: 68a7 08be 5d6b 8c3d 2188 153e 8c58 7fbc
00000010: 8d71 51bd 50d7 57bd fe78 6c3d f764 7ebd
00000020: 2818 8f3d 118b 50bd 4bfa a93d a8df 31bd
00000030: a863 28bc 44d0 36be 52a6 0c3e e8f3 d03c
00000040: 388e ec3d 5169 e83d 79c8 9b3d 56b1 cd3c
00000050: 066f 803c 7d28 a53d 69a3 2b3d 0d4b 8f3c
00000060: cdde f63c b5b2 c73c bdea 023e 1145 68bd
00000070: cc54 a2bd 14ff 95bd 5608 ecbc 742b b5bd
00000080: 7674 b13c 4b03 d83c aab4 5ebd ea76 823d
00000090: bde2 8f3c f887 1ebc 2c52 ff3d 1eb0 27bd
000000a0: e418 03be dd97 0b3e dd91 ce3d cff2 f1bd
000000b0: fa19 f3bd 8666 36bd 0549 b5bd 8261 f1bd
000000c0: 725d 0c3e 3bd5 26bc 11dc 283e d4a4 be3d
000000d0: b179 013d d6f9 74bd 4acb a23d 63b0 093e
000000e0: d816 8dbd 6680 963d c1d0 9b3c 8cef b3bc
000000f0: 78b1 4c3d c880 153e 0033 1f3e 77aa 45bd
00000100: 42a4 36bb 99e2 10be b0a6 de3b ea48 e93d
00000110: 24f1 133e 9465 ac3c f550 813c 6b38 adbc
00000120: 7f4c 133e 9df8 d6bc 529c 1a3e 052e 8d3d
00000130: 6c76 01be b290 043e 7a37 cd3d e300 073e
00000140: b93b c5bc f239 a0bd 76ec 023e 3014 1b3d
00000150: 8014 53bd d6e9 953d a1ef 74bd fc1c 813d
00000160: a14b 39bd 1e55 d7bb 1836 3f3d d03a 22bd
00000170: 7191 c83d 44a8 bebd a380 0c3c 47d9 82bc
00000180: 435b 973d 602b 7dbd 29d8 bb3c dc0c 2bbd
00000190: 614c d23d c448 cabd b257 9dbd 8a30 15be
000001a0: d3c6 09be 3f97 9a3d 4ac6 15be 3456 753d
000001b0: 61dc d1bd ecb9 4fbd fbad 0cbc dbe5 22be
000001c0: 5708 8cb9 3170 b0bc 6448 ee3d e89a 013e
000001d0: 84e6 f6bd fbc8 50bd b179 193d 3a5d 973d
000001e0: 2746 39bc 84be 00be d5a8 acbd b949 02be
000001f0: 6a68 e23d 2dbf 4b3c bba1 48bb ea45 d33c
00000200: 0fbc c83d 6516 c33d 9312 ed3c a678 8d3d
00000210: 07c2 663d 9a27 e33d 4474 d9bd cb94 c2bd
00000220: 7abc 24be 9bb4 77bd 9d53 59bd db25 3bbd
00000230: 60db f23d af17 5d3d 9c4c 6bbd 0a03 bfbd
00000240: 7716 db3b 4560 523d 3190 a2bc d136 30bd
00000250: 5455 bdbd 95a7 a43d c4f4 d3bd 1b21 9fbd
00000260: c1ec 823d 9470 173e d561 073e 79b0 95bd
00000270: 19a5 d3bd 5d7b 18be 2e63 6f3b 7e53 f83b
00000280: 2b8c dc3a fbca 1f3e b905 0a3e 318a f53d
00000290: ab92 63bd 3859 bcbd 515f 8abd 5ef4 ba3c
000002a0: 725d 75bc 682b 81bd f28c 023e f92f 03be
000002b0: 2470 3dbd 9070 603d 0508 fabd 439a 123c
000002c0: 996a adbd 7272 13be b9fb 003e d862 6abd
000002d0: b36d 94bc 058d 0f3e e8e9 2fbc 0992 d9bb
000002e0: 4d93 96bd 27f3 21be f71d dabd 670a f13d
000002f0: 239b 21bd b086 b33d f736 ccbd a927 1c3e
00000300: 578a 0abe 527d 963d 0d4d 7abd cd43 473d
00000310: 50ce c03c bee8 bc3b 04e0 0bbe 4181 353c
00000320: 1e1e ccbd 7383 d03d 93a2 96bd 30fa 98bc
00000330: d5d4 dd3d 111c 633d dbe1 21bd ab68 c7bd
00000340: 640c a8bd 6a88 ba3d 8568 00be 9ad1 7c3c
00000350: 2aa4 e9bd db06 f53d c3bd eabb d40d 913c
00000360: bcc1 1b3e df8a f8bd 437b 1fbe 22a4 9abc
00000370: 7a3a f8bd 0ae3 b5bd 5e7b 4c3d 5704 603b
00000380: a102 b23d 5224 babd 64e0 8abd 3d35 b63d
00000390: 8d32 af3a 7cb4 75bd c7a8 a13d bfe2 c83c
000003a0: bbf4 25bd e1be d53d d9d2 003e c93e 19bd
000003b0: 49ef e7bd 254a 133e d296 7cbd 7ead c23c
000003c0: 488d c5bd 9b65 05bd d63d d33d 3025 d83d
000003d0: c13c c23d b60b f5bc 33d6 2bbd f343 a4bd
000003e0: 2daa 433c 162f 5f3d 7253 f0bd feda 703d
000003f0: e1c3 09be 0fd1 e13d eae6 0dbe a929 b53c

L2.bias f4 [88]
-0.1310361 0.017515697 0.11376288 0.029826539 0.13302761 -0.018539073 0.06760615 0.08254239
0.07896795 0.14242414 0.00930735 0.034778003 0.06097957 0.14246935 0.1318986 0.015799288
-0.085397 0.084367074 -0.11034648 0.045841366 -0.0036739057 -0.0909839 -0.10691022 -0.13652587
0.16644847 -0.13206106 -0.09110221 0.13786602 -0.0351477 0.023390174 -0.0025792285 -0.0526647
0.07045945 -0.119162336 -0.024237098 -0.08702465 0.07457371 0.11743976 0.12140925 -0.017428024
0.03083458 0.12662901 -0.064384684 -0.1353678 -0.1364231 0.10458462 0.030344266 -0.047151413
-0.09989045 -0.10894666 -0.0719488 0.14480112 -0.049712177 0.06255119 0.06034355 0.02525614
-0.06688659 -0.0858278 0.06062786 0.11265328 -0.06443385 -0.1338754 -0.15614052 0.029725773
-0.028600028 -0.039330624 -0.04067626 -0.023723202 -0.0018800476 -0.13752227 -0.06177814 -0.08799289
0.12258816 -0.03452969 -0.092471994 0.07139389 -0.04498577 -0.087791555 0.10515657 -0.13370651
0.033366345 0.07921241 -0.15170528 0.09080278 0.066907994 -0.07888334 -0.09339854 0.07936915
00000000: 542e 06be 147d 8f3c 83fc e83d c956 f43c
00000010: 6438 083e 41df 97bc 1875 8a3d fc0b a93d
00000020: f3b9 a13d a2d7 113e db7d 183c 6173 0e3d
00000030: b7c5 793d 7ce3 113e 6d10 073e 826d 813c
00000040: 9fe4 aebd a5c8 ac3d 56fd e1bd 28c4 3b3d
00000050: e9c5 70bb c455 babd bff3 dabd 70cd 0bbe
00000060: 7871 2a3e 043b 07be cc93 babd c02c 0d3e
00000070: 09f7 0fbd c09c bf3c 4608 29bb f1b6 57bd
00000080: 0b4d 903d 620b f4bd e18c c6bc fb39 b2bd
00000090: 1aba 983d 4284 f03d 6aa5 f83d 37c5 8ebc
000000a0: cd98 fc3c 09ab 013e 1edc 83bd db9d 0abe
000000b0: 7fb2 0bbe 7630 d63d 8a94 f83c d721 41bd
000000c0: 5d93 ccbd 6d1f dfbd e459 93bd bf46 143e
000000d0: ff9e 4bbd d71a 803d cc2a 773d f7e5 ce3c
000000e0: d6fb 88bd 7cc6 afbd eb54 783d c3b6 e63d
000000f0: e5f5 83bd a216 09be 4de3 1fbe 7783 f33c
00000100: 9b4a eabc 2619 21bd 269c 26bd 2957 c2bc
00000110: ee6b f6ba a3d2 0cbe 130b 7dbd 9e35 b4bd
00000120: 800f fb3d 016f 0dbd f561 bdbd f636 923d
00000130: 0043 38bd 0fcc b3bd 545c d73d 5cea 08be
00000140: 26ab 083d 1e3a a23d a158 1bbe cff6 b93d
00000150: 0f07 893d 978d a1bd bc47 bfbd 4b8c a23d

L3.weight f4 [176, 88]
0.08058827 -0.037076812 -0.052168913 -0.084220424 0.10634802 -0.03047827 0.043510452 -0.09683613
-0.025767494 -0.051346533 -0.037007254 -0.04819261 -0.036567777 0.06622752 0.07877789 0.0785914
0.07942116 -0.092308745 -0.02696807 -0.11227156 0.11526695 -0.031705104 0.022472132 0.07482601
-0.0585869 0.030849775 -0.07918544 0.033983894 -0.049778014 0.056660794 0.0096137365 0.09820886
0.029193554 -0.07899564 -0.022105452 -0.0009351274 0.074279375 0.032113846 0.074594624 -0.078084856
0.050730117 -0.016902376 -0.011783874 -0.07617517 -0.040733155 -0.03406046 -0.052168496 -0.030291395
-0.015372105 -0.021884197 0.028541565 0.1114814 0.012706439 0.008860685 0.04923983 0.099123724
-0.031155592 0.043480385 0.017578742 0.006539917 0.0004933848 0.022299007 0.06885528 0.06961382
-0.091027245 0.0690307 -0.05710291 0.039140403 -0.11770678 -0.016878646 0.0025893429 -0.091598585
-0.016342496 -0.013221907 0.08926803 0.08759917 -0.049467247 -0.06360773 -0.02781042 -0.07132272
-0.101941995 0.064644076 -0.1065744 -0.0670075 -0.0846589 0.015694175 -0.028834742 -0.02169597
0.042402014 0.07567918 -0.10121663 0.06065888 0.074460156 -0.024174431 0.06768458 0.03594004
-0.018761683 0.10844605 -0.08025357 0.021390589 0.058207855 -0.05712066 0.050135966 0.084128834
-0.098969825 0.012621307 0.07696823 0.058702093 0.010624439 -0.0474823 -0.05413796 -0.05400477
0.06847358 -0.05286989 0.02790822 0.010477141 0.045649957 0.10579819 -0.068432145 -0.02085112
0.01358652 -0.022259355 0.09543453 -0.048035443 -0.010605421 -0.08016173 0.051834624 0.010368282
0.0615236 0.057648104 0.011196029 -0.05233035 -0.020295683 0.03570689 -0.07434651 -0.04592321
0.08285611 -0.023974223 -0.014571561 -0.032625936 -0.038303766 -0.007890397 0.017509362 -0.06058754
-0.049125917 -0.007891129 -0.09998917 -0.048149735 0.07791794 -0.025040377 -0.0980339 0.107097924
0.023475233 -0.050954577 -0.073472396 -0.018718299 0.06361024 -0.06072791 0.108104035 -0.049790893
-0.06233553 0.052368112 0.045166425 -0.089409575 -0.07082013 0.12622763 -0.07736847 0.08845536
0.04247936 0.047748465 0.011914845 -0.08736911 -0.034666687 -0.106519565 0.07159493 -0.06945253
-0.03681659 0.0023638648 0.0810793 0.03406221 0.06974688 -0.007774158 0.0040127593 0.05239593
-0.017705156 0.05729348 -0.054063622 0.02993826 0.023590464 -0.06554222 -0.076521434 0.005478108
-0.07309814 0.020021528 -0.042021576 -0.022959173 0.028861633 0.09149813 0.06704274 -0.009271261
-0.0472828 0.0007596451 -0.011796025 0.066059716 0.018528113 -0.042575777 -0.03484394 -0.08736245
-0.0024407182 -0.09316725 0.06700867 0.0114325015 -0.028278735 -0.08698153 0.044967286 -0.08910548
0.03380884 -0.051726658 -0.041869473 -0.08523712 0.09848362 -0.07578606 -0.0926846 0.06363997
0.08274986 -0.10327581 0.09981488 0.014695541 0.09717841 0.07828268 0.047507375 0.057970177
-0.08287706 -0.07340694 0.055201024 -0.040622663 0.05836471 -0.07902618 0.036499593 0.04237583
-0.046859674 -0.07960886 -0.032117575 -0.028448476 0.055842925 0.11495715 -0.02507309 0.014336909
-0.021408688 -0.08147554 -0.084011085 0.08990457 -0.025357023 0.033233643 -0.001558745 0.022961391
00000000: 770b a53d dbdd 17bd 12af 55bd c27b acbd
00000010: fecc d93d 91ad f9bc 0438 323d 0552 c6bd
00000020: 5a16 d3bc be50 52bd eb94 17bd 9d65 45bd
00000030: 18c8 15bd 4ba2 873d 4d56 a13d 87f4 a03d
00000040: 90a7 a23d 5e0c bdbd 24ec dcbc a2ee e5bd
00000050: 1411 ec3d 36dd 01bd 7a17 b83c 613e 993d
00000060: d1f8 6fbd abb8 fc3c fa2b a2bd b232 0b3d
00000070: 08e4 4bbd 2615 683d ef82 1d3c ba21 c93d
00000080: 5227 ef3c 77c8 a1bd 7e16 b5bc 5623 75ba
00000090: c91f 983d cf89 033d 11c5 983d f4ea 9fbd
000000a0: 62ca 4f3d da76 8abc 2611 41bc ba01 9cbd
000000b0: cfd7 26bd fb82 0bbd a2ae 55bd a925 f8bc
000000c0: 48db 7bbc 7d46 b3bc 00d0 e93c 5c50 e43d
000000d0: ab2e 503c 682c 113c b4af 493d 6101 cb3d
000000e0: 033a ffbc 7d18 323d 4b01 903c cd4c d63b
000000f0: 7e56 013a 68ac b63c ff03 8d3d b191 8e3d
00000100: 7e6c babd f85f 8d3d bee4 69bd b051 203d
00000110: 4110 f1bd 1645 8abc f7b1 293b 0a98 bbbd
00000120: b3e0 85bc b3a0 58bc 28d2 b63d 3267 b33d
00000130: 2b9e 4abd c544 82bd aed2 e3bc a511 92bd
00000140: f7c6 d0bd 1d64 843d ae43 dabd 3a3b 89bd
00000150: a561 adbd 1291 803c d636 ecbc bfbb b1bc
00000160: bcad 2d3d b0fd 9a3d aa4a cfbd 7275 783d
00000170: 917e 983d 7509 c6bc 379e 8a3d dd35 133d
00000180: 1ab2 99bc f618 de3d fc5b a4bd 513b af3c
00000190: 5c6b 6e3d 5af7 69bd 5f5b 4d3d bd4b ac3d
000001a0: b1b0 cabd 99c9 4e3c 85a1 9d3d 9b71 703d
000001b0: 2112 2e3c cd7c 42bd c4bf 5dbd 1b34 5dbd
000001c0: e03b 8c3d 198e 58bd c89f e43c 50a8 2b3c
000001d0: 73fb 3a3d b9ac d83d 2726 8cbd f8cf aabc
000001e0: ff99 5e3c 4059 b6bc 2e73 c33d d0c0 44bd
000001f0: 5cc2 2dbc d52b a4bd 8b50 543d badf 293c
00000200: 2c00 7c3d 6b20 6c3d 8d6f 373c 5958 56bd
00000210: 2243 a6bc 6341 123d fc42 98bd fa19 3cbd
00000220: 77b0 a93d 9765 c4bc 8ebd 6ebc c6a2 05bd
00000230: 69e4 1cbd b946 01bc cb6f 8f3c a42a 78bd
00000240: 4238 49bd cb49 01bc 1fc7 ccbd a838 45bd
00000250: 7193 9f3d 7a21 cdbc ffc5 c8bd 2856 db3d
00000260: 224f c03c bfb5 50bd b278 96bd 1e57 99bc
00000270: 1646 823d d4bd 78bd a665 dd3d 89f1 4bbd
00000280: 8a53 7fbd f27f 563d 6e00 393d 5e1c b7bd
00000290: 250a 91bd d141 013e 5c73 9ebd 1528 b53d
000002a0: d6fe 2d3d e593 433d 7b36 433c 93ee b2bd
000002b0: a8fe 0dbd ee26 dabd 5da0 923d 213d 8ebd
000002c0: fecc 16bd 12eb 1a3b e70c a63d d184 0b3d
000002d0: 74d7 8e3d 5dbe febb 777d 833b 1d9d 563d
000002e0: 670a 91bc 91ac 6a3d d171 5dbd 1541 f53c
000002f0: ca40 c13c 003b 86bd 45b7 9cbd b381 b33b
00000300: 7ab4 95bd 3004 a43c d11e 2cbd e014 bcbc
00000310: 3b6f ec3c 5f63 bb3d b44d 893d 7de6 17bc
00000320: 9cab 41bd eb22 473a 1d44 41bc 514a 873d
00000330: 45c8 973c f063 2ebd 85b8 0ebd 16eb b2bd
00000340: 75f4 1fbb 79ce bebd d73b 893d 634f 3b3c
00000350: cea8 e7bc 5f23 b2bd 9e2f 383d ef7c b6bd
00000360: 237b 0a3d 55df 53bd 537f 2bbd cd90 aebd
00000370: c8b1 c93d b935 9bbd 6cd1 bdbd ac55 823d
00000380: c278 a93d 4582 d3bd be6b cc3d 91c5 703c
00000390: 7905 c73d ab52 a03d 1897 423d 2372 6d3d
000003a0: 73bb a9bd 6156 96bd 781a 623d f363 26bd
000003b0: d60f 6f3d 7ad8 a1bd 9980 153d 4792 2d3d
000003c0: eeef 3fbd f809 a3bd b88d 03bd c70c e9bc
000003d0: 8dbb 643d a76e eb3d 1566 cdbc 5be5 6a3c
000003e0: 4661 afbc a6dc a6bd 010e acbd e31f b83d
000003f0: 88b9 cfbc 0020 083d ce4e ccba 8719 bc3c

L3.bias f4 [176]
0.010869826 0.095750906 -0.040348634 -0.09156767 -0.075930305 -0.016328461 -0.019341212 -0.032072056
0.017942846 -0.019469224 0.0157444 -0.03568094 0.039488923 0.054533176 -0.09167512 -0.008933368
0.033538386 0.0033263566 0.081620686 0.0087126875 -0.059414126 0.022216098 0.082139924 -0.08883902
0.034643352 -0.029431872 -0.03429872 -0.04251388 -0.015306267 0.026080068 -0.101907566 -0.032856133
0.055510342 -0.06624754 0.0048959 0.04297026 -0.11496912 0.08049492 0.038533013 0.058687605
0.071665324 0.09219248 -0.07666337 0.1086956 -0.10877981 0.029348912 -0.017370364 0.02356036
0.037059784 -0.06748385 -0.016788324 -0.046832994 -0.082862556 0.064550854 0.0514653 0.064883135
0.028867727 0.009273684 0.03744878 0.041298054 0.04530464 -0.08060992 0.0031409895 -0.019410085
-0.07962278 0.01872987 0.010922698 0.07644261 0.006277012 0.100324236 0.07515457 0.080726445
-0.061970122 0.028611735 -0.10222303 0.0817381 0.023137756 0.04420245 -0.054993883 -0.042797837
0.0070667514 0.102097586 0.023194898 0.050424952 -0.06324016 -0.105672985 0.06561225 -0.025720371
0.009141877 -0.02395096 0.008539004 0.034679513 0.0525379 0.08404555 -0.059527516 0.01618335
-0.10531415 -0.00934307 -0.07999658 -0.042563275 0.09060344 -0.08060469 0.064384684 -0.0218671
0.03339421 0.013701546 -0.08642642 0.07756903 0.028206151 -0.059160158 -0.0749421 -0.066819996
0.047948625 -0.081019185 -0.049175467 -0.06531261 0.09700459 -0.030684303 0.033971637 -0.10254411
0.01272895 0.007659241 -0.059050124 -0.065365255 0.09357578 0.010025586 -0.021284731 0.036714073
0.06722588 0.03747277 -0.07702105 0.021219296 0.06918492 0.090563565 0.014556738 0.08077881
0.04989842 0.049096864 0.028835094 -0.07694795 -0.1092626 -0.0012201255 -0.055916514 0.095291786
-0.07920716 0.09166275 0.097251624 -0.066371895 0.04376195 0.07525346 -0.10309474 -0.05808765
-0.08572741 0.033448037 -0.074205905 0.070795685 -0.06470805 0.043289617 -0.0001587204 -0.090123646
0.07815512 -0.040773068 0.07488129 0.075374044 -0.09154447 -0.058892746 -0.018956205 0.063420966
-0.08163313 0.04718755 -0.03917474 -0.021667533 0.094536275 0.035893988 -0.08090043 -0.10696056
00000000: 5b17 323c 0d19 c43d 9c44 25bd d587 bbbd
00000010: 5981 9bbd 44c3 85bc 7671 9ebc fd5d 03bd
00000020: e0fc 923c ec7d 9fbc 66fa 803c 2d26 12bd
00000030: 23bf 213d 2e5e 5f3d 2ac0 bbbd 435d 12bc
00000040: 8c5f 093d 01ff 593b bf28 a73d a9bf 0e3c
00000050: 3a5c 73bd 89fe b53c fa38 a83d 3bf1 b5bd
00000060: 30e6 0d3d 1c1b f1bc d17c 0cbd 0923 2ebd
00000070: 23c7 7abc dea5 d53c eab4 d0bd 2794 06bd
00000080: d05e 633d caac 87bd c96d a03b 9501 303d
00000090: ee74 ebbd 85da a43d cbd4 1d3d 6a62 703d
000000a0: 45c5 923d 69cf bc3d af01 9dbd cc9b de3d
000000b0: f3c7 debd 216d f03c 4b4c 8ebc a801 c13c
000000c0: 00cc 173d f934 8abd ab87 89bc f4d3 3fbd
000000d0: d8b3 a9bd 3d33 843d 47cd 523d 73e1 843d
000000e0: 037c ec3c a6f0 173c e463 193d 2628 293d
000000f0: 5c91 393d d016 a5bd 0fd9 4d3b e601 9fbc
00000100: 4511 a3bd 626f 993c 1ef5 323c f18d 9c3d
00000110: 65af cd3b cb76 cd3d a4ea 993d e853 a53d
00000120: 62d4 7dbd 2863 ea3c 4f5a d1bd 4e66 a73d
00000130: 648b bd3c a10d 353d 4441 61bd c94c 2fbd
00000140: 3590 e73b 8a18 d13d 3a03 be3c 658a 4e3d
00000150: 0f84 81bd 146b d8bd b75f 863d 87b3 d2bc
00000160: d0c7 153c ce34 c4bc 2ee7 0b3c 1b0c 0e3d
00000170: fb31 573d 1320 ac3d 20d3 73bd f292 843c
00000180: f2ae d7bd ad13 19bc 3fd5 a3bd d456 2ebd
00000190: 4c8e b93d 1214 a5bd 1edc 833d a222 b3bc
000001a0: 5ec8 083d 737c 603c 5600 b1bd 83dc 9e3d
000001b0: 9610 e73c ec51 72bd 3e7b 99bd ecd8 88bd
000001c0: c765 443d 63ed a5bd 376c 49bd 9ec2 85bd
000001d0: 58aa c63d a65d fbbc d825 0b3d a502 d2bd
000001e0: 168d 503c 5ffa fa3b 8bde 71bd 38de 85bd
000001f0: a9a4 bf3d 5b42 243c 515d aebc 7f61 163d
00000200: b9ad 893d 0c7d 193d 36bd 9dbd 17d4 ad3c
00000210: d3b0 8d3d 6479 b93d 627f 6e3c 5c6f a53d
00000220: 4962 4c3d cb19 493d 9337 ec3c e396 9dbd
00000230: 12c5 dfbd 9eec 9fba b708 65bd 5728 c33d
00000240: 5d37 a2bd aeb9 bb3d dc2b c73d fded 87bd
00000250: bb3f 333d 7c1e 9a3d 5623 d3bd 51ed 6dbd
00000260: da91 afbd cf00 093d 44f9 97bd 54fd 903d
00000270: a785 84bd 7450 313d 2f6e 26b9 bf92 b8bd
00000280: cb0f a03d a901 27bd 5d5b 993d b55d 9a3d
00000290: ab7b bbbd 8539 71bd 0b4a 9bbc dae2 813d
000002a0: 452f a7bd bc47 413d b175 20bd 1c80 b1bc
000002b0: 3c9c c13d 9305 133d 20af a5bd 230e dbbd

L4.weight f4 [88, 176]
-0.05148299 -0.047193635 0.059865735 0.021637147 -0.039065097 -0.025255231 0.034229267 0.027605971
0.005348335 -0.049991418 -0.019932592 -0.007355961 0.053257134 0.036132727 -0.02285651 -0.022498788
-0.011495014 0.0001167772 0.028476503 0.060054217 -0.0032286702 -0.06706331 0.03475145 -0.062909245
0.0061955005 -0.044642676 0.041918863 0.063440494 0.06243491 -0.032352787 -0.05972103 -0.030885898
0.09450865 0.06470781 -0.049897842 0.024750825 -0.0372395 0.017979423 0.008409911 0.033643954
0.03942166 0.09705149 0.000106713785 -0.06841308 -0.05661223 0.06829136 -0.037347376 0.01184384
0.06659604 -0.03421783 -0.051628947 0.008474241 0.022528049 0.045330647 -0.029877244 -0.06323569
0.02752304 -0.046359528 -0.027678488 -0.051748447 -0.015095826 -0.02831146 0.07602605 -0.00048768375
-0.06054464 -0.04550232 -0.025667962 -0.059989527 0.046294592 -0.019415535 0.07419719 0.07105414
0.055511046 -0.00646759 -0.04526005 0.057940956 0.05267752 0.007469354 0.013387756 -0.008995801
0.069156595 -0.0010828527 -0.0033447475 -0.07821654 0.05851036 -0.05413529 0.08474802 -0.04499513
0.022714997 0.053736456 0.048479915 0.06795847 -0.057115722 0.030460674 -0.019193286 0.013579152
-0.015883235 0.07593351 0.031210642 0.07470441 -0.059762627 0.03439134 0.03397669 -0.07475669
-0.046317704 -0.0033799862 0.014095481 -0.0642718 -0.02062312 0.0020724584 0.032120004 0.061025623
0.038492363 0.01720691 -0.010371136 0.06916464 0.052483212 0.05500841 -0.035058495 -0.01119915
-0.027209615 0.026661234 0.0807315 -0.041186213 -0.03974993 -0.030150784 -0.03837541 0.0006831452
-0.005963742 -0.02095478 -0.0014110255 -0.02573394 -0.06393561 0.025981486 0.018495027 0.0678099
0.014437255 -0.053553093 0.044802003 -0.07366782 0.060517233 -0.051135518 -0.031162336 -0.053362913
-0.036281127 0.019590396 -0.06587368 -0.045858912 -0.04635295 0.05125939 0.032869272 -0.021264097
0.055533223 -0.049502164 0.068454035 0.030312393 -0.056973986 -0.06675408 -0.03391791 0.0035464042
0.083771095 0.055938262 -0.038034234 -0.028476534 -0.08101042 0.044675764 -0.023151001 -0.083670534
-0.061763987 -0.07094422 -0.0022313897 0.012116699 0.009629119 -0.07793492 -0.031725034 -0.07653516
-0.016420323 -0.072849385 -0.06486136 -0.08216427 0.0053251116 0.02110883 0.06317236 -0.049592398
-0.0106028 0.010434663 -0.084534004 0.058708712 0.015849916 0.04976168 -0.036444083 0.05573032
-0.03160509 -0.03603348 -0.03783649 0.0625716 -0.015697706 0.04491798 0.06294721 0.027922591
-0.038279288 0.030696345 -0.053708337 -0.048290834 -0.012426386 -0.028038442 -0.010405275 -0.06865615
-0.020640485 -0.07112801 0.019216292 0.019494567 -0.053104486 -0.034429472 -0.012535907 0.017550949
-0.02613897 0.037441622 -0.033089474 0.0345589 -0.041184142 0.0022882172 -0.05191089 -0.039544284
-0.045872953 -0.04107688 -0.03720308 -0.031432446 -0.011652737 -0.042465568 -0.023009958 0.0036851037
0.044407364 -0.026514504 0.0075514554 0.042570528 -0.010651568 0.057521813 0.05690224 -0.051031042
0.045169964 -0.0029179247 -0.0028616393 0.042392783 -0.028590012 -0.014992122 0.04551153 -0.0019758495
-0.066057734 -0.08535202 0.06555261 -0.07352073 -0.0076326095 0.024340749 0.00806836 0.035105426
00000000: d4df 52bd 1d4e 41bd c635 753d 6340 b13c
00000010: b902 20bd 0fe4 cebc fd33 0c3d eb25 e23c
00000020: 1641 af3b cdc3 4cbd ad49 a3bc 460a f1bb
00000030: 2724 5a3d e9ff 133d 933d bbbc 614f b8bc
00000040: 9555 3cbc 48e6 f438 8e47 e93c 69fb 753d
00000050: 1998 53bb 7d58 89bd 8957 0e3d 90d6 80bd
00000060: a003 cb3b 3ddb 36bd 1db3 2b3d 17ed 813d
00000070: c0bb 7f3d 5b84 04bd 0a9e 74bd 6c04 fdbc
00000080: c08d c13d 8785 843d ae61 4cbd 3ec2 ca3c
00000090: 7288 18bd 9549 933c b9c9 093c 3ece 093d
000000a0: 9b78 213d eec2 c63d 87cb df38 281c 8cbd
000000b0: 3ae2 67bd 57dc 8b3d 90f9 18bd aa0c 423c
000000c0: 8163 883d ff27 0cbd e078 53bd 8bd7 0a3c
000000d0: be8c b83c a1ac 393d 1fc1 f4bc b781 81bd
000000e0: 0078 e13c 7de3 3dbd ffbd e2bc 2ef6 53bd
000000f0: 7c54 77bc 6fed e7bc 8cb3 9b3d ceaf ffb9
00000100: a8fd 77bd a460 3abd 9e45 d2bc 94b7 75bd
00000110: 669f 3d3d 540d 9fbc b2f4 973d d584 913d
00000120: 8d5f 633d 14ee d3bb 9a62 39bd 7f53 6d3d
00000130: 62c4 573d 7cc1 f43b 5258 5b3c 2063 13bc
00000140: f9a1 8d3d 82ee 8dba 8d33 5bbb fe2f a0bd
00000150: 8fa8 6f3d f7bc 5dbd 5f90 ad3d d04c 38bd
00000160: cd14 ba3c c21a 5c3d e092 463d cf2d 8b3d
00000170: 2df2 69bd aa88 f93c 3d3b 9dbc 177b 5e3c
00000180: 8f1d 82bc 0783 9b3d 76ad ff3c a0fe 983d
00000190: a8c9 74bd efdd 0c3d 242b 0b3d 091a 99bd
000001a0: a2b7 3dbd c282 5dbb bbf0 663c efa0 83bd
000001b0: d1f1 a8bc 15d2 073b 4490 033d 01f6 793d
000001c0: 2baa 1d3d 81f5 8c3c b2eb 29bc 31a6 8d3d
000001d0: a3f8 563d 8050 613d 7f99 0fbd a47c 37bc
000001e0: b3e6 debc a968 da3c 8f56 a53d e0b2 28bd
000001f0: d3d0 22bd c7fe f6bc 892f 1dbd 1915 333a
00000200: 7e6b c3bb 5ca9 abbc 29f2 b8ba fccf d2bc
00000210: acf0 82bd 20d7 d43c e282 973c ebdf 8a3d
00000220: 3d8a 6c3c 7d5a 5bbd 4e82 373d 27df 96bd
00000230: ebe0 773d 7a73 51bd 2848 ffbc 1293 5abd
00000240: 859b 14bd 0a7c a03c c8e8 86bd 8ed6 3bbd
00000250: 97dc 3dbd 5ef5 513d eea1 063d 0b32 aebc
00000260: ce76 633d c8c2 4abd a131 8c3d b251 f83c
00000270: 8e5d 69bd 5db6 88bd 82ed 0abd ca6a 683b
00000280: 2e90 ab3d 851f 653d c9c9 1bbd 9f47 e9bc
00000290: cbe8 a5bd effd 363d 2ba7 bdbc 755b abbd
000002a0: 3cfc 7cbd 344b 91bd 823c 12bb 1e85 463c
000002b0: 74c3 1d3c 589c 9fbd 1cf2 01bd 77be 9cbd
000002c0: ea83 86bc 0f32 95bd 08d6 84bd be45 a8bd
000002d0: 467e ae3b 6dec ac3c 8360 813d 6621 4bbd
000002e0: 5eb7 2dbc 26f6 2a3c 2a20 adbd 8c78 703d
000002f0: afd7 813c e7d2 4b3d 6446 15bd 7a45 643d
00000300: 5774 01bd d897 13bd 6ffa 1abd 8a25 803d
00000310: 7a98 80bc eafb 373d 78ea 803d ebbd e43c
00000320: beca 1cbd e776 fb3c 46fd 5bbd 9ccc 45bd
00000330: 0a98 4bbc e0b0 e5bc e37a 2abc 989b 8cbd
00000340: 3c16 a9bc 90ab 91bd 7c6b 9d3c 12b3 9f3c
00000350: 1784 59bd eb05 0dbd 6863 4dbc 02c7 8f3c
00000360: 6521 d6bc 635c 193d d488 07bd a28d 0d3d
00000370: b4b0 28bd eaf5 153b 83a0 54bd 30f9 21bd
00000380: 47e5 3bbd 3b40 28bd 4262 18bd 4fbf 00bd
00000390: 1feb 3ebc 60f0 2dbd 617f bcbc c881 713b
000003a0: 7fe4 353d f234 d9bc 3372 f73b 6f5e 2e3d
000003b0: ea83 2ebc fe9b 6b3d 5312 693d ed05 51bd
000003c0: 2404 393d a73a 3fbb 578a 3bbb 0ea4 2d3d
000003d0: 9a35 eabc 84a1 75bc 4c6a 3a3d 417d 01bb
000003e0: 4749 87bd 0acd aebd 7240 863d 0992 96bd
000003f0: f81a fabb 4066 c73c 2831 043c b5ca 0f3d

L4.bias f4 [88]
-0.037413795 -0.065815546 -0.07322539 -0.0026598885 0.07255528 -0.0340387 0.007609016 -0.069615714
0.043240394 0.0063762786 -0.054761685 -0.014268795 -0.025948113 0.04099594 0.0012513552 0.028478293
0.015310848 -0.005500775 0.023930136 0.05784226 0.028382054 -0.08394538 0.029976472 0.05342844
0.0008487127 0.028954605 -0.055717133 0.007918977 0.01952454 -0.01942363 0.0038439478 0.02412903
0.012850403 -0.046651427 -0.051005553 0.012652248 -0.010687031 0.054325316 -0.03169544 0.021984585
-0.07060621 0.023922466 -0.011235269 0.06298505 0.027484067 0.023143647 0.019432986 0.08259571
0.0012869457 0.0011469859 -0.04271898 -0.07288594 -0.055332404 0.015221854 0.048113123 -0.0026343826
0.05870767 -0.021436684 -0.02097007 -0.017625976 -0.03977718 -0.07683398 0.01567475 0.027697846
0.034243148 0.044635005 0.042945005 -0.01978955 -0.04438176 -0.02404346 0.010748597 -0.004085518
-0.03155506 0.041951843 0.004289979 0.03407582 0.03862264 -0.06595474 0.022383599 -0.01053333
0.028859766 0.055435617 0.0051392927 -0.0479758 0.022704823 0.022408055 -0.0040279953 -0.050371885
00000000: 353f 19bd 4dca 86bd 31f7 95bd 8651 2ebb
00000010: dd97 943d 2a6c 0bbd 0d55 f93b af92 8ebd
00000020: d71c 313d 1af0 d03b ca4d 60bd aac7 69bc
00000030: 2391 d4bc 5ceb 273d 8304 a43a 4f4b e93c
00000040: 5ada 7a3c d83f b4bb 2209 c43c 01ec 6c3d
00000050: 7b81 e83c 8eeb abbd 3891 f53c c8d7 5a3d
00000060: 257c 5e3a 3532 ed3c a637 64bd 99be 013c
00000070: eef1 9f3c 4e1e 9fbc beea 7b3b 3eaa c53c
00000080: 7f8a 523c 9115 3fbd 33eb 50bd 604b 4f3c
00000090: a818 2fbc 3984 5e3d 14d3 01bd 0419 b43c
000000a0: fd99 90bd 0cf9 c33c 2214 38bc 4efe 803d
000000b0: 4426 e13c bf97 bd3c ed31 9f3c f127 a93d
000000c0: bbae a83a 7656 963a 19fa 2ebd 3945 95bd
000000d0: 3ba4 62bd 1565 793c 4412 453d 9ba5 2cbb
000000e0: 7477 703d fc9b afbc 6dc9 abbc 5a64 90bc
000000f0: 65ed 22bd 225b 9dbd 5568 803c 98e6 e23c
00000100: 8b42 0c3d 32d3 363d 1ae7 2f3d b21d a2bc
00000110: a6c9 35bd caf6 c4bc e21a 303c cfdf 85bb
00000120: e13f 01bd b2d5 2b3d f492 8c3b 1693 0b3d
00000130: c632 1e3d 4713 87bd cf5d b73c fd93 2cbc
00000140: 516b ec3c 7510 633d 8367 a83b 4682 44bd
00000150: 77ff b93c 1991 b73c 46fd 83bb c052 4ebd

L5.weight f4 [44, 88]
-0.104675785 0.03810382 -0.051633608 0.09231283 0.07568553 -0.012699983 0.02537721 -0.10106175
0.061148047 -0.025071189 -0.08120336 -0.10839274 0.0032827524 -0.09553744 -0.06073332 0.047710948
-0.103577495 -0.053247698 -0.047045793 0.019433513 0.10661041 -0.019348692 -0.07172009 -0.027076097
0.05464284 -0.027166462 0.055772204 -0.086257 -0.12285063 -0.09651714 0.09603667 -0.05093379
-0.07761077 -0.101662695 -0.13478409 -0.097775996 -0.00796371 -0.086496204 -0.035604183 0.0695414
0.0626912 0.07360015 0.0053469357 0.07261389 -0.09525964 0.025772447 -0.04863874 -0.020285426
0.029620245 0.014702769 -0.06785404 -0.008292858 0.049520582 0.017103642 0.0869245 -0.042872358
0.03802042 -0.014198073 -0.09977799 0.03020819 0.07694113 0.091706455 -0.11330899 -0.09385753
0.069054246 0.087026656 -0.022684433 0.08720801 -0.07066453 0.06524088 0.085332744 0.007565146
0.047247577 -0.015884256 -0.10208275 0.047448985 -0.07026752 0.046401747 0.09837563 0.11251409
-0.07114234 -0.08021365 -0.04577429 -0.06364464 -0.07689138 0.02747611 -0.021831071 0.07553164
-0.06987715 -0.026795443 0.06729011 -0.09818055 -0.029525086 -0.0027717415 -0.0645543 -0.019886892
-0.058712948 -0.10039138 0.040854707 -0.10349484 -0.09402711 -0.10216632 0.041817527 -0.003893976
0.07637428 0.06649383 -0.08667568 0.106442876 -0.054297812 0.05198968 0.11062831 -0.03139147
-0.042518783 -0.067157894 0.067289755 0.028020998 -0.021787016 0.11721713 0.02046827 0.107349396
0.039701216 -0.062202357 -0.1053849 0.10090532 0.01740475 -0.06881044 -0.08099996 -0.01966911
0.00398266 -0.05741556 0.079688385 0.04657272 -0.04288955 -0.017992796 0.049853127 -0.034719
0.024717787 0.020480465 0.10576796 0.11557491 -0.09607216 -0.029326688 -0.090823874 -0.06155838
-0.0789427 0.03899557 0.026796397 -0.09532719 0.026077652 -0.07620434 -0.054042358 -0.099317275
0.12300349 -0.052475467 0.0037406236 -0.09170607 -0.08484243 -0.021495646 0.09417769 -0.015650595
0.07519021 -0.032791987 0.0917135 -0.053539477 -0.08830707 0.040000416 -0.024254356 -0.0014730898
0.07268745 0.03386755 -0.038217273 0.05293489 -0.012190523 0.017332127 0.017853022 -0.04993333
0.07166907 0.04725758 -0.0033989248 0.07449458 0.022022365 0.086034745 -0.07298837 0.09569094
0.09214056 0.012111239 0.042843193 0.079491235 0.0165937 0.061088566 -0.08470993 0.06654142
0.05312535 -0.07277056 -0.04674719 0.067154594 -0.07549676 0.08145783 -0.07719668 0.04579312
0.030620143 -0.07332651 -0.068665005 -0.035994224 -0.0060645 -0.011792244 -0.015597436 0.04900595
0.061577555 0.07607888 0.038810182 0.028639257 0.07488347 -0.007854373 0.08403981 0.06907399
0.011893256 0.0390608 -0.06073367 -0.08717456 0.07310876 0.089578226 -0.057037443 -0.08584283
0.041161086 0.040984284 -0.02612102 0.09144427 -0.06736883 0.06979643 0.0009098171 0.016291585
-0.096915625 0.07886208 0.03358058 -0.014900037 0.011305501 -0.06207645 -0.012950753 -0.030204054
0.089752115 0.051614266 -0.080620944 0.024220105 -0.02074342 0.031174581 -0.08092245 -0.011393841
0.023818314 0.08831697 -0.07485466 -0.05479313 0.09308014 -0.0695886 -0.07332527 -0.08814243
00000000: 4260 d6bd c012 1c3d c37d 53bd 820e bd3d
00000010: 0401 9b3d 9713 50bc dee3 cf3c 76f9 cebd
00000020: 6076 7a3d 1862 cdbc f24d a6bd 03fd ddbd
00000030: 7223 573b 22a9 c3bd 80c3 78bd 8e6c 433d
00000040: 7020 d4bd 421a 5abd 17b3 40bd 0833 9f3c
00000050: 8f56 da3d 2681 9ebc fce1 92bd b1ce ddbc
00000060: 2cd1 5f3d 338c debc 6571 643d 83a7 b0bd
00000070: 1c99 fbbd c7aa c5bd e0ae c43d f39f 50bd
00000080: 65f2 9ebd 8834 d0bd d704 0abe c83e c8bd
00000090: 397a 02bc ec24 b1bd b1d5 11bd b96b 8e3d
000000a0: 3e64 803d adbb 963d 5935 af3b 97b6 943d
000000b0: 7c17 c3bd bd20 d33c 6a39 47bd 9f2d a6bc
000000c0: 28a6 f23c e2e3 703c 0ff7 8abd c4de 07bc
000000d0: 18d6 4a3d f01c 8c3c 7905 b23d ed9a 2fbd
000000e0: 4dbb 1b3d 099f 68bc 6758 ccbd 2b77 f73c
000000f0: 5093 9d3d 98d0 bb3d 8b0e e8bd 6038 c0bd
00000100: 506c 8d3d 083b b23d b4d4 b9bc 1d9a b23d
00000110: 91b8 90bd 039d 853d efc2 ae3d 0be5 f73b
00000120: ad86 413d b31f 82bc c310 d1bd de59 423d
00000130: 6be8 8fbd c20f 3e3d 2a79 c93d ca6d e63d
00000140: 13b3 91bd 0e47 a4bd d27d 3bbd 1f58 82bd
00000150: 3a79 9dbd 9415 e13c 13d7 b2bc 55b0 9a3d
00000160: c01b 8fbd 1e82 dbbc 66cf 893d e212 c9bd
00000170: 98de f1bc 1ba6 35bb 0b35 84bd d6e9 a2bc
00000180: fd7c 70bd ff99 cdbd 4457 273d 1af5 d3bd
00000190: 4991 c0bd 933c d1bd db48 2b3d 1432 7fbb
000001a0: 1e6a 9c3d eb2d 883d 0583 b1bd b9fe d93d
000001b0: 6267 5ebd 21f3 543d 1891 e23d 5894 00bd
000001c0: 2d28 2ebd 148a 89bd 36cf 893d 4b8c e53c
000001d0: af7a b2bc 890f f03d 13ad a73c 00da db3d
000001e0: be9d 223d e6c7 7ebd 0ad4 d7bd 73a7 ce3d
000001f0: 6894 8e3c 7dec 8cbd 4fe3 a5bd 1d21 a1bc
00000200: f980 823b 942c 6bbd aa33 a33d 09c3 3e3d
00000210: f4ac 2fbd a165 93bc cb32 4c3d 8335 0ebd
00000220: f57c ca3c a6c6 a73c df9c d83d 8ab2 ec3d
00000230: 7bc1 c4bd 863e f0bc de01 babd a424 7cbd
00000240: b6ac a1bd d2b9 1f3d 1e84 db3c e73a c3bd
00000250: cda0 d53c 0511 9cbd 855b 5dbd db66 cbbd
00000260: 41e9 fb3d 84f0 56bd 4025 753b 64d0 bbbd
00000270: dec1 adbd a317 b0bc 3ce0 c03d ad35 80bc
00000280: 53fd 993d e450 06bd 4ad4 bb3d 364c 5bbd
00000290: 56da b4bd 7ad7 233d 12b1 c6bc b114 c1ba
000002a0: 28dd 943d b3b8 0a3d b789 1cbd 41d2 583d
000002b0: c2ba 47bc 1bfc 8d3c 8040 923c e486 4cbd
000002c0: 3cc7 923d 2a91 413d 7fc0 5ebb 9d90 983d
000002d0: 3f68 b43c fc32 b03d ed7a 95bd 9df9 c33d
000002e0: 31b4 bc3d 386e 463c 587c 2f3d 4dcc a23d
000002f0: 83ef 873c 0138 7a3d 667c adbd de46 883d
00000300: f899 593d bb08 95bd fb79 3fbd 5988 893d
00000310: 0c9e 9abd 5dd3 a63d 4b19 9ebd 9191 3b3d
00000320: 18d7 fa3c 362c 96bd 3da0 8cbd ae6e 13bd
00000330: b7b8 c6bb 4234 41bc 638c 7fbc 77ba 483d
00000340: bf38 7c3d 3ecf 9b3d 6df7 1e3d e09c ea3c
00000350: 815c 993d a1af 00bc 101d ac3d aa76 8d3d
00000360: eedb 423c 38fe 1f3d dec3 78bd 9388 b2bd
00000370: 0cba 953d ca74 b73d 18a0 69bd 5ece afbd
00000380: 8798 283d 23df 273d c0fb d5bc 2247 bb3d
00000390: abf8 89bd 6ef1 8e3d cb80 6e3a ee75 853c
000003a0: b37b c6bd 7182 a13d ca8b 093d 491f 74bc
000003b0: b53a 393c e043 7ebd 652f 54bc 7e6e f7bc
000003c0: f5cf b73d 7b69 533d 981c a5bd 3e69 c63c
000003d0: 1bee a9bc d661 ff3c abba a5bd 3cad 3abc
000003e0: a01e c33c 87df b43d 664d 99bd c36e 60bd
000003f0: cda0 be3d 7884 8ebd 8f2b 96bd 0584 b4bd

L5.bias f4 [44]
-0.065650515 -0.042405307 -0.06451546 -0.015751937 -0.099534154 0.0403205 -0.053224888 -0.091444544
-0.051752154 -0.061346274 -0.025230885 0.0135694705 0.092220254 -0.008616397 0.03726797 -0.063104406
-0.03601327 0.06757056 0.081733175 -0.06398454 0.09075425 0.07508094 -0.091212586 -0.006263586
0.06753582 0.007218813 0.0398818 0.016233621 -0.011739234 0.037049584 -0.07221906 0.04249928
-0.07051009 0.024286743 0.0011666808 0.07738553 -0.092675306 0.09871179 -0.0037181855 0.048801117
0.09981789 -0.062494177 -0.058088724 0.07148764
00000000: c773 86bd 30b1 2dbd ae20 84bd 350a 81bc
00000010: 90d8 cbbd 1c27 253d 5702 5abd 4747 bbbd
00000020: 11fa 53bd 3b46 7bbd 00b1 cebc 7c52 5e3c
00000030: f9dd bc3d ca2b 0dbc 4da6 183d e23c 81bd
00000040: a782 13bd 6f62 8a3d b963 a73d 540a 83bd
00000050: 5ddd b93d 09c4 993d aacd babd c53e cdbb
00000060: 3850 8a3d cb8b ec3b 195b 233d 5ffc 843c
00000070: eb55 40bc 4ec1 173d 96e7 93bd ba13 2e3d
00000080: 9867 90bd fef4 c63c 50eb 983a 4e7c 9e3d
00000090: 8dcc bdbd 6829 ca3d cdac 73bb aee3 473d
000000a0: 526d cc3d e5f9 7fbd 71ee 6dbd 1d68 923d

L6.weight f4 [1, 44]
-0.15258256 -0.05035021 0.073268674 -0.025981454 0.0047920137 0.116066046 0.09994676 0.107839294
-0.024900328 -0.119935736 0.037267026 -0.03680153 -0.11556928 0.06839662 0.077862576 0.05755427
-0.09270814 -0.031342395 -0.026176164 -0.042335797 -0.034571126 -0.021360295 0.042114455 0.109804876
-0.13634996 -0.096795455 -0.007392918 0.04072731 0.1211351 0.14665388 -0.036519628 0.05975795
-0.13514689 -0.046414644 0.0012573965 -0.12484913 0.11497169 -0.09632041 -0.054441836 -0.0049206745
-0.038184967 0.080240235 -0.123587824 0.019644225
00000000: 9a3e 1cbe 063c 4ebd e30d 963d 0fd7 d4bc
00000010: 5306 9d3b 09b4 ed3d e3b0 cc3d d9da dc3d
00000020: c6fb cbbc dea0 f5bd 4fa5 183d 33bd 16bd
00000030: 96af ecbd 8713 8c3d 6a76 9f3d 07be 6b3d
00000040: c4dd bdbd e260 00bd 656f d6bc 4d68 2dbd
00000050: 749a 0dbd c9fb aebc 3580 2c3d 61e1 e03d
00000060: 539f 0bbe b23c c6bd 4b40 f2bb aed1 263d
00000070: ae15 f83d 6f2c 163e 9b95 15bd c1c4 743d
00000080: f263 0abe 481d 3ebd 3acf a43a e7b0 ffbd
00000090: 4776 eb3d a343 c5bd 67fe 5ebd 9c3d a1bb
000000a0: d767 1cbd fe54 a43d 9d1b fdbd edec a03c
