Saved_Models_All_Features_Only_Simulation_Samples/target_Hardness_features_22_epochs_2.pth (torch_old, 162565 bytes, 11 tensors)

L1.weight f4 [44, 22]
0	0x3dd1980b	0.10234078
1	0xbd827a0d	-0.063709356
2	0xbe486de7	-0.19573174
3	0x3e31760d	0.17330189
4	0x3e5820d9	0.2110628
5	0x3d8a219c	0.06744692
6	0x3d25e4a8	0.040501267
7	0x3d881f18	0.06646556
8	0xbd91ebd9	-0.071250625
9	0xbe3acae0	-0.18241453
10	0xbc0ef773	-0.008725989
11	0xbd9939c3	-0.0748172
12	0xbdc24b5f	-0.09487032
13	0x3ddfd642	0.10929538
14	0xbd128618	-0.035772413
15	0xbe1b7299	-0.15180434
16	0xbde432ba	-0.11142488
17	0x3e0c3748	0.13692963
18	0xbe2db3ba	-0.16963091
19	0xbdc0fad4	-0.09422842
20	0xbd2e6f99	-0.042586897
21	0x3e40a0cc	0.18811339
22	0x3e594519	0.21217765
23	0xbd94ef03	-0.0727215
24	0x3dff9454	0.12479463
25	0xbe36c172	-0.17847231
26	0xbe27a9d5	-0.1637338
27	0xbe54c84c	-0.20779532
28	0xbe058a3c	-0.13041013
29	0xbd0bd874	-0.034141973
30	0x3e81c10b	0.25342593
31	0x3dc5f36c	0.0966557
32	0x3d35367e	0.04424142
33	0xbe0e4d42	-0.13896659
34	0xbd0521eb	-0.03250305
35	0xbd1a9a4a	-0.037744798
36	0xbccae48a	-0.024767179
37	0x3db40727	0.08790427
38	0xbdf0951a	-0.11747189
39	0xbcf41bae	-0.029798355
40	0x3e15ce84	0.1462956
41	0xbdbf8ac0	-0.09352636
42	0xbcb955ac	-0.02262386
43	0x3d82b90b	0.063829504
44	0xbd2a6f3c	-0.041609988
45	0x3e1f5f62	0.1556373
46	0x3dab9d8c	0.08379659
47	0xbe52513d	-0.20538802
48	0xbdba6ad1	-0.09102405
49	0x3d3120ca	0.04324416
50	0x3ddc36a0	0.107526064
51	0x3e463a1e	0.19358107
52	0x3bdfeee6	0.006833899
53	0xbd67e41b	-0.056614023
54	0x3e207bc3	0.15672211
55	0xbc4a6f93	-0.012355703
56	0x3d33928d	0.043840934
57	0xbe0e7519	-0.13911857
58	0xbd436f84	-0.04771377
59	0xbde442b2	-0.111455336
60	0xbe24dc1d	-0.16099592
61	0x3dde0108	0.108400404
62	0xbd791dbe	-0.06081938
63	0x3e1ab4c7	0.15108024
64	0x3e64294c	0.22281379
65	0x3e0ae5f3	0.13564281
66	0x3d25f767	0.040519144
67	0xbd0a0b52	-0.033702202
68	0xbe13d2f8	-0.14435947
69	0x3d3c7a1f	0.0460149
70	0xbe129775	-0.14315589
71	0x3e29b910	0.16574502
72	0x3db68854	0.08912721
73	0x3e7d51aa	0.24738184
74	0xbe0f0634	-0.1396721
75	0x3dd58f1a	0.10427685
76	0xbe2d1893	-0.16903906
77	0xbe3cf36f	-0.18452238
78	0xbcb889e6	-0.022526693
79	0xbe81ad04	-0.25327313
80	0x3d80e3d4	0.06293455
81	0x3d777125	0.060410637
82	0x3d7636b6	0.06011077
83	0xbdb924f9	-0.09040255
84	0x3cc359f8	0.023846611
85	0xbe363236	-0.17792591
86	0x3d41a481	0.047276024
87	0x3cdb1e4a	0.026747841
88	0xbe2dca16	-0.16971621
89	0xbe4e3a1d	-0.20139356
90	0x3e3467d7	0.17617737
91	0x3db1310d	0.08651934
92	0xbe373769	-0.17892231
93	0xbd16a11c	-0.03677474
94	0xbdab8488	-0.08374888
95	0xbdee9425	-0.1164935
96	0xbe3c9420	-0.1841588
97	0x3cb238be	0.021755572
98	0xbe4806ca	-0.1953384
99	0x3c550f33	0.013004112
100	0x3e0953f6	0.13410935
101	0xbd4a55db	-0.049398284
102	0xbdb80c22	-0.08986689
103	0xbe1ce848	-0.15322983
104	0xbe47c1e0	-0.19507551
105	0x3ca27160	0.019829452
106	0x3e512cb5	0.2042721
107	0x3d7171ad	0.0589463
108	0xbdbf8e1b	-0.09353276
109	0xbe32ab21	-0.17448093
110	0xbd11a738	-0.035559863
111	0xbe2f352e	-0.1711013
112	0x3c0fb016	0.0087700095
113	0x3d56ceaf	0.052443203
114	0xbe178c4c	-0.14799613
115	0xbe2bab72	-0.1676462
116	0x3dda9a20	0.10673928
117	0x3c6f7eec	0.014617663
118	0xbdbb6b0c	-0.09151277
119	0xbd8943b3	-0.06702366
120	0x3e1ad815	0.15121491
121	0x3d5fd719	0.054648492
122	0x3da278ed	0.07933221
123	0x3e0e62bd	0.13904853
124	0xbe04b819	-0.12960853
125	0xbe605f8f	-0.21911453
126	0x3cd18790	0.025577337
127	0xbe62baaa	-0.22141519
128	0x3e38aee3	0.18035464
129	0xbe025556	-0.12727866
130	0x3d81d865	0.06340102
131	0x3e0c22f5	0.1368521
132	0xbd12a6d4	-0.03580363
133	0xbc614131	-0.013748453
134	0xbc6481e4	-0.013946984
135	0xbdad1ef6	-0.08453171
136	0x3e54afd9	0.20770206
137	0x3d06e666	0.03293457
138	0x3df6799c	0.12034914
139	0x3e4136d0	0.18868566
140	0x3d899583	0.0671797
141	0x3dc145fa	0.09437175
142	0xbb868b39	-0.004105952
143	0x3dfc7f0b	0.12328919
144	0x3d86a7fa	0.06575008
145	0x3de6384b	0.11241206
146	0xbd96a908	-0.07356459
147	0x3d6552c0	0.05598712
148	0xbd36c4b5	-0.04462119
149	0xbdf1b5b1	-0.11802233
150	0x3e024dcd	0.12724991
151	0xbe2bf10e	-0.16791174
152	0x3d9de906	0.07710461
153	0x3e49522b	0.19660251
154	0x3df8c7ab	0.12147459
155	0xbddbdaae	-0.10735069
156	0x3dae1919	0.08500881
157	0xbd4043d0	-0.04693967
158	0xbd91b03f	-0.071136944
159	0xbe29c8a3	-0.16580443
160	0xbe03ceae	-0.12871811
161	0xbda76cab	-0.08175024
162	0x3cdbe4db	0.026842525
163	0xbdee0ab0	-0.11623132
164	0x3e179a72	0.1480501
165	0x3e502d95	0.20329888
166	0x3d175098	0.036942095
167	0xbe069710	-0.13143563
168	0xbd455cc4	-0.04818417
169	0x3e02feef	0.12792562
170	0x3c60b74f	0.013715579
171	0x3e260f97	0.16216885
172	0x3ca8f440	0.02062428
173	0xbdd5c626	-0.104381844
174	0x3b9b281d	0.0047350065
175	0x3d88816f	0.066653125
176	0x3d45d9f7	0.04830357
177	0xbe435f17	-0.19079243
178	0xbce29769	-0.027660089
179	0x3e21b9a5	0.15793474
180	0x3e26676e	0.16250393
181	0xbb3f7f88	-0.0029220302
182	0x3e1945a8	0.14967978
183	0xbe048fd4	-0.12945491
184	0x3c1cfa5b	0.009581174
185	0x3d9bd0c9	0.07608182
186	0xbe12a31c	-0.14320034
187	0xbe25c41b	-0.1618809
188	0x3dfbe68e	0.12299834
189	0x3e183fb2	0.14868048
190	0x3e1b2dc4	0.15154177
191	0x3d69fc91	0.05712563
192	0x3de52f00	0.11190605
193	0x3d570fb8	0.052505225
194	0x3d75f4d1	0.06004793
195	0xbdecb5e5	-0.11558131
196	0xbdb8f73a	-0.0903153
197	0xbd8a1df8	-0.06743997
198	0x3e2ac09d	0.16675039
199	0x3d5c0996	0.05372008
200	0x3e2ca70e	0.16860601
201	0x3da4b21d	0.08041785
202	0x3d6c78fb	0.057732563
203	0xbdb4bbb0	-0.08824861
204	0xbdb1be3a	-0.08678861
205	0xbe454f9a	-0.19268647
206	0x3d369dec	0.0445842
207	0xbdc0d060	-0.094147444
208	0xbdc07c86	-0.09398751
209	0xbbeab6b7	-0.0071628946
210	0x3cc54819	0.02408223
211	0x3de02882	0.10945226
212	0xbd31477b	-0.04328106
213	0x3dd27b98	0.1027748
214	0x3d360112	0.044434614
215	0xbde90864	-0.113785535
216	0x3d1cc2ea	0.038271822
217	0x3c7e73ae	0.01553051
218	0x3dd0a7a8	0.10188228
219	0xbcb9a745	-0.022662768
220	0xbc8db65e	-0.017298874
221	0xbdb1ca76	-0.086811945
222	0x3e338e28	0.17534697
223	0x3e3513dd	0.17683358
224	0xbd1e91b1	-0.03871316
225	0x3cac5216	0.021035235
226	0x3e22c5a4	0.15895706
227	0xbdb9cf88	-0.090727866
228	0x3e7dd3a5	0.24787767
229	0x3e3887f2	0.18020609
230	0xbe286638	-0.16445243
231	0x3e293deb	0.16527526
232	0xbd4df025	-0.050277848
233	0xbd7acb50	-0.06122905
234	0x3df348bb	0.118791066
235	0xbe10bb4a	-0.14133945
236	0xbdaf9e50	-0.085751176
237	0x3c8f0331	0.017457576
238	0xbd7c8b51	-0.0616563
239	0x3d50ac27	0.050945427
240	0x3e6e1bde	0.23252818
241	0xbe04e7e8	-0.1297909
242	0x3d38c734	0.04511185
243	0x3e591c36	0.21202168
244	0xbd8ccb39	-0.06874699
245	0xbda2e398	-0.07953566
246	0x3e0dc86b	0.13845985
247	0x3e04a569	0.12953724
248	0xbe53ad00	-0.20671463
249	0xbe18ee84	-0.14934736
250	0xbcaccc3b	-0.021093478
251	0xbda0c8d6	-0.078508064
252	0x3c18ea71	0.009333239
253	0xbe282edf	-0.1642413
254	0xbc84afac	-0.016197048
255	0xbe3a76a8	-0.18209326

L1.bias f4 [44]
0	0xbd773ee7	-0.060362723
1	0x3e48f547	0.19624816
2	0x3e2d8060	0.16943502
3	0xbe1a8db1	-0.15093113
4	0x3e207d44	0.15672785
5	0xbd68d0d7	-0.05683979
6	0xbe3bf428	-0.18354857
7	0x3e17ee3e	0.14836976
8	0xbd3e1648	-0.046407968
9	0x3d80b84c	0.06285152
10	0x3d6eef0f	0.058333453
11	0x3e124e93	0.14287786
12	0x3e492cb7	0.19645964
13	0x3e30fe3c	0.17284483
14	0x3d882bfd	0.06649015
15	0x3deabe32	0.11462058
16	0x3de54a65	0.1119583
17	0x3da180bd	0.07885883
18	0xbe176f76	-0.14788613
19	0xbdb61ec5	-0.088925876
20	0x3e12682e	0.14297554
21	0x3ccd05a1	0.025027098
22	0x3d9e5b64	0.07732275
23	0xbe4891d0	-0.19586873
24	0x3d1216bf	0.035666224
25	0x3de6c9b9	0.11268944
26	0xbe515f27	-0.20446454
27	0x3e14b72d	0.14523001
28	0xbda6ed91	-0.08150781
29	0xbd830394	-0.06397167
30	0x3de98a05	0.11403278
31	0xbd04e391	-0.032443587
32	0xbc4f6629	-0.012658634
33	0x398c23ea	0.0002672964
34	0x3d39b23d	0.045335997
35	0x3e12e2cf	0.14344333
36	0xbd932e91	-0.07186616
37	0x3e471bca	0.19444194
38	0x3d30596b	0.043054026
39	0x3dd3a3db	0.10333987
40	0xbe2d4f90	-0.16924882
41	0xbda191c9	-0.078891344
42	0x3e30cea1	0.17266323
43	0x3e14a9aa	0.14517847

L2.weight f4 [88, 44]
0	0xbe1de8c0	-0.15420818
1	0x3dad49b0	0.084613204
2	0x3e181c4a	0.14854541
3	0xbce994dc	-0.028513364
4	0xbd8d3fd0	-0.06896937
5	0xbda0c4cc	-0.07850036
6	0x3d5d9f65	0.05410709
7	0xbd2f0e47	-0.042738225
8	0x3d2e572d	0.042563606
9	0xbdafdec5	-0.08587412
10	0x3d56ad2d	0.052411247
11	0xbd963fb7	-0.073363714
12	0xbd33585a	-0.04378543
13	0xbe346be3	-0.1761928
14	0x3dfa8c76	0.12233822
15	0x3c1d2cf5	0.009593238
16	0x3dc63a49	0.09679086
17	0x3da1e42d	0.07904849
18	0x3da4543f	0.08023881
19	0x3d46e3b3	0.048556995
20	0xbcb191cb	-0.021675965
21	0x3d80dbc2	0.062919155
22	0x3d900cd2	0.07033695
23	0xbca3560b	-0.01993849
24	0x3d14d25b	0.036333423
25	0x3c1c4f8f	0.009540453
26	0x3dd595c0	0.10428953
27	0xbd831e17	-0.064022236
28	0xbdb39232	-0.08768119
29	0xbd2fb0ed	-0.04289334
30	0xbd011492	-0.031513758
31	0xbdc639e5	-0.09679011
32	0x3cded966	0.027203273
33	0xbb275cc6	-0.0025537475
34	0xbdac3cdd	-0.08410046
35	0x3d154f6a	0.03645269
36	0x3d19e2df	0.037569877
37	0xbcf099fa	-0.029370297
38	0x3de8688b	0.11348065
39	0xbd3992d1	-0.04530603
40	0xbe209a03	-0.15683751
41	0x3df13d35	0.117792524
42	0x3db1ac64	0.08675459
43	0xbe153e9a	-0.14574662
44	0xbdb0bd1f	-0.08629822
45	0xbdc39ab8	-0.09550995
46	0xbe0886f5	-0.13332732
47	0xbdb1ee1f	-0.08687996
48	0x3dce7bfd	0.10082243
49	0xbcb52929	-0.022114353
50	0x3e1d184b	0.15341298
51	0x3da28643	0.07935765
52	0x3d764210	0.060121596
53	0xbdd1c2e1	-0.10242248
54	0x3d5b57b9	0.053550456
55	0x3e1b85a2	0.15187696
56	0xbd632362	-0.055453666
57	0x3db7dcc0	0.089776516
58	0x3c2d01f1	0.010559545
59	0xba6d307a	-0.0009048056
60	0x3da42efd	0.08016775
61	0x3de37bd8	0.11107606
62	0x3e2c73ab	0.16840999
63	0xbdac5b35	-0.08415834
64	0xbb8302f9	-0.003998157
65	0xbdfa5576	-0.12223332
66	0x3c68f9d7	0.014219723
67	0x3de983f4	0.11402121
68	0x3dc48d1a	0.095972255
69	0x3d1a8fd8	0.037734836
70	0x3b2b8a42	0.0026174937
71	0xbc71c00b	-0.014755259
72	0x3e0da038	0.1383065
73	0xbce98dd8	-0.02851002
74	0x3e097e7c	0.13427156
75	0x3dc77d38	0.097406805
76	0xbe05ae42	-0.13054755
77	0x3e16c1d9	0.14722385
78	0x3dd6d2e5	0.10489444
79	0x3e182eef	0.14861654
80	0xbd05d0f8	-0.03266999
81	0xbd7f7de8	-0.062375933
82	0x3e0cb574	0.13741094
83	0xbb9f2cf6	-0.0048576547
84	0xbd8ff0b2	-0.07028331
85	0x3dbf1bff	0.09331512
86	0xbdccb01a	-0.09994526
87	0x3dcdd28a	0.10049923
88	0xbdbb050d	-0.09131823
89	0x3cf6bb0b	0.030118486
90	0x3d18b9f1	0.037286703
91	0xbd8b5639	-0.06803555
92	0x3db28af6	0.08717911
93	0xbde1c42a	-0.110237435
94	0xbcba4990	-0.022740155
95	0xbcbf9c61	-0.023389997
96	0x3d168422	0.036747105
97	0xbd664524	-0.05621828
98	0x3d2a784b	0.041618627
99	0xbd9c281e	-0.07624839
100	0x3d2c713c	0.042100176
101	0xbdfd1baf	-0.12358796
102	0xbda1719b	-0.07882997
103	0xbe31c864	-0.17361599
104	0xbe0337ab	-0.12814204
105	0x3d4e5b0b	0.050379794
106	0xbe0de980	-0.13858604
107	0x3d2a9154	0.041642502
108	0xbe0e7945	-0.13913448
109	0xbd25acc2	-0.040447958
110	0xbcf3fe85	-0.02978445
111	0xbe44c846	-0.19217023
112	0x3c7770d7	0.015102587
113	0xbcc2c893	-0.023777282
114	0x3de5c2d6	0.11218803
115	0x3de6c2c8	0.1126762
116	0xbe2354ad	-0.1595027
117	0xbc70d387	-0.01469887
118	0x3cc34bfe	0.023839947
119	0x3d82dbb2	0.0638956
120	0xbc3abc51	-0.011397437
121	0xbe19b6f9	-0.15011205
122	0xbdd3450f	-0.10315906
123	0xbe1513b2	-0.14558294
124	0x3d9918e4	0.07475451
125	0xbc5d9e19	-0.013526463
126	0xbd106475	-0.035252053
127	0x3ccd6578	0.025072798
128	0x3dd954fc	0.106119126
129	0x3db9a56a	0.09064753
130	0x3d3f5306	0.046710037
131	0x3d1b8e72	0.037977643
132	0x3d5e9e6c	0.0543503
133	0x3dfbb61b	0.12290593
134	0xbddd7c3d	-0.10814712
135	0xbde23d5a	-0.11046858
136	0xbe2dcced	-0.16972704
137	0xbd75a418	-0.059970945
138	0xbcfb2a77	-0.030659897
139	0xbcbcb114	-0.023033656
140	0x3df809ae	0.12111221
141	0x3d517d36	0.0511448
142	0xbd831fa3	-0.064025186
143	0xbdb1e275	-0.086857714
144	0x3d0940c3	0.033509027
145	0x3d93c2ff	0.07214927
146	0xbcc90212	-0.02453712
147	0xbd15882c	-0.036506817
148	0xbdaa3b34	-0.08312073
149	0x3da19d33	0.078913115
150	0xbdc86339	-0.0978455
151	0xbdbe5278	-0.092930734
152	0x3d8672a3	0.06564834
153	0x3e1a151f	0.1504712
154	0x3e1a964c	0.15096396
155	0xbdacc888	-0.08436686
156	0xbe063386	-0.13105592
157	0xbdf4d3bb	-0.11954447
158	0xbc620c39	-0.013796859
159	0x3c2e198d	0.010626209
160	0xbcac83f0	-0.021059006
161	0x3e168c6d	0.14702006
162	0x3e17d03a	0.14825526
163	0x3e03e10b	0.12878816
164	0xbdc65175	-0.096835054
165	0xbd4745bf	-0.0486505
166	0xbd9d1197	-0.076693706
167	0x3d43acb6	0.04777213
168	0xbae5ec6d	-0.0017541774
169	0xbd92efa1	-0.07174612
170	0x3dd5a15e	0.10431169
171	0xbdf6e1cc	-0.12054786
172	0xbda7d332	-0.08194579
173	0x3d8a44f8	0.06751436
174	0xbe003cb8	-0.12523162
175	0xba7511fe	-0.00093486893
176	0xbd7d7b82	-0.061885364
177	0xbe1ce856	-0.15323004
178	0x3e0e3fd3	0.13891535
179	0xbd5c7b97	-0.053828802
180	0xbd296813	-0.04135902
181	0x3e026b8a	0.12736335
182	0x3aa1b3d6	0.001233692
183	0xbbca49b3	-0.0061733364
184	0xbda1e885	-0.07905678
185	0xbe32587a	-0.17416564
186	0xbdd3cdab	-0.103419624
187	0x3e132470	0.14369369
188	0xbca03695	-0.019557277
189	0x3dbc8d40	0.09206629
190	0xbd87e069	-0.066346
191	0x3e17bfae	0.14819214
192	0xbe0327f2	-0.12808207
193	0x3dc170c6	0.09445338
194	0xbda6ca9f	-0.08144116
195	0x3d60226f	0.05472034
196	0x3d096164	0.033540145
197	0x3cae6002	0.021286014
198	0xbe111764	-0.14169079
199	0xbc2c0fdb	-0.010501827
200	0xbe042a95	-0.12906869
201	0x3e036884	0.12832838
202	0xbd880fb2	-0.06643619
203	0xbc912911	-0.017719777
204	0x3dbb9268	0.09158784
205	0x3d2f6a6a	0.042826094
206	0xbd1d593d	-0.038415182
207	0xbe076fcc	-0.13226241
208	0xbdb6df5e	-0.08929323
209	0x3e0cec64	0.13762051
210	0xbe09c210	-0.13452935
211	0x3d107115	0.035264093
212	0xbdcccf7f	-0.10000514
213	0x3e018a11	0.12650324
214	0x3c2344b8	0.009965114
215	0x3cfbe6d3	0.030749714
216	0x3e08ceb1	0.13360097
217	0xbe0d6f1a	-0.13811913
218	0xbe1deb93	-0.15421896
219	0xbcca31c6	-0.024681937
220	0xbdfa6044	-0.122253925
221	0xbdc208a6	-0.09474306
222	0x3d80dc42	0.06292011
223	0xbb82baf7	-0.003989573
224	0x3dc5d5b8	0.09659904
225	0xbdccf478	-0.10007566
226	0xbd6a2833	-0.057167243
227	0x3d9f5619	0.07780094
228	0xbad723d5	-0.0016413877
229	0xbd946f4d	-0.072477914
230	0x3d940b2b	0.072286926
231	0x3c29a5f4	0.010354508
232	0xbd2ea960	-0.042641997
233	0x3db3d02b	0.08779939
234	0x3df0e0df	0.11761641
235	0xbd50b95c	-0.050958022
236	0xbe0e0c12	-0.13871792
237	0x3e22f3d6	0.15913329
238	0xbda853ea	-0.0821913
239	0x3d10c5d0	0.0353449
240	0xbd9fc65e	-0.078015074
241	0xbd676ef9	-0.056502316
242	0x3db645d6	0.08900039
243	0x3dc08cfa	0.09401889
244	0x3dc086ad	0.09400687
245	0xbd513e3f	-0.051084753
246	0xbd381df4	-0.04495044
247	0xbdbbe404	-0.0917435
248	0x3cf49bc8	0.029859439
249	0x3d0fe4fd	0.03513049
250	0xbdc5445e	-0.09632181
251	0x3d65b77f	0.0560832
252	0xbe09e953	-0.13467912
253	0x3de04a22	0.1095164
254	0xbe15d97f	-0.1463375
255	0x3c8468e5	0.016163299

L2.bias f4 [88]
0	0xbe136a6d	-0.14396067
1	0x3c05016d	0.008118016
2	0x3dc4078d	0.09571753
3	0x3d16374e	0.036673836
4	0x3e14aab4	0.14518243
5	0xbcb5d9e9	-0.022198634
6	0x3d9e8e58	0.07741994
7	0x3dd4cc3f	0.10390519
8	0x3db3ed40	0.08785486
9	0x3e1276c1	0.14303114
10	0x3beface6	0.0073143123
11	0x3d4c06c5	0.049811143
12	0x3db7a646	0.08967261
13	0x3dd6f80f	0.10496532
14	0x3dfa385e	0.122177824
15	0x3ce869da	0.028370786
16	0xbdeb2b7a	-0.11482902
17	0x3d980598	0.07422942
18	0xbe000d11	-0.12504984
19	0x3cc9312f	0.024559585
20	0x3cfb038e	0.030641343
21	0xbd9e598b	-0.07731923
22	0xbdbf6502	-0.093454376
23	0xbe0c323f	-0.13691042
24	0x3e13cafe	0.14432904
25	0xbe0afde2	-0.13573411
26	0xbdb2ae48	-0.08724648
27	0x3df64dd4	0.12026563
28	0xbbdb2226	-0.0066874204
29	0x3cc4b1d2	0.024010573
30	0x3bacf751	0.005278506
31	0xbc2261df	-0.00991103
32	0x3d55e870	0.052223623
33	0xbe122829	-0.14273132
34	0xbcace865	-0.021106908
35	0xbdd25c0c	-0.10271463
36	0x3da31daf	0.07964646
37	0x3dfa82ba	0.12231965
38	0x3e0440aa	0.12915292
39	0xbd099645	-0.033590574
40	0x3d896c9a	0.06710167
41	0x3e05b61d	0.13057752
42	0xbd6c6455	-0.05771287
43	0xbe18debe	-0.1492872
44	0xbe0b4ff7	-0.13604723
45	0x3dca2e66	0.09872131
46	0x3cfe1bbf	0.03101909
47	0xbd934088	-0.07190043
48	0xbde0c3c3	-0.109748386
49	0xbdb4cc2e	-0.08828007
50	0xbd603d19	-0.054745767
51	0x3dfb1d97	0.12261503
52	0xbd766e33	-0.060163688
53	0x3d8c593a	0.06852956
54	0x3d40f36f	0.047107156
55	0x3d3d0ab6	0.046152793
56	0xbd8f5f8e	-0.070006475
57	0xbd608328	-0.05481258
58	0x3d22fc4c	0.03979139
59	0x3ddf17fd	0.10893247
60	0xbd8ef185	-0.0697966
61	0xbe075bf5	-0.13218673
62	0xbe267f94	-0.16259605
63	0x3d3bbb91	0.045833174
64	0xbc783339	-0.015148931
65	0xbd1eb367	-0.03874531
66	0xbd5c30b1	-0.053757373
67	0xbcbc6437	-0.022997005
68	0x3c78969a	0.015172625
69	0xbdd7a266	-0.10529022
70	0xbd9420ca	-0.072328165
71	0xbd7f1456	-0.062275253
72	0x3e01aa4b	0.12662618
73	0xbcb3d6db	-0.021953037
74	0xbdb23c4a	-0.087029055
75	0x3d7ac71a	0.061225034
76	0xbc1f0544	-0.009705845
77	0xbd556691	-0.052099768
78	0x3dd38767	0.1032856
79	0xbe0fc6c0	-0.14040661
80	0x3c779e13	0.015113371
81	0x3d83b6b2	0.06431331
82	0xbe12fcc7	-0.1435424
83	0x3dbe6acb	0.09297713
84	0x3d9455c4	0.07242921
85	0xbd81a41c	-0.063301295
86	0xbd9f8f39	-0.077909894
87	0x3db7b6e2	0.08970429

L3.weight f4 [176, 88]
0	0x3d98d355	0.074621834
1	0xbd16429c	-0.036684617
2	0xbd691f98	-0.056914896
3	0xbd96394f	-0.073351495
4	0x3e02f518	0.12788808
5	0xbcc8d6e1	-0.024516525
6	0x3d2a06fd	0.04151057
7	0xbdfd2268	-0.12360078
8	0xbc73e296	-0.014885565
9	0xbd3e6c86	-0.046490215
10	0xbd3a4da9	-0.04548422
11	0xbd544c49	-0.051830564
12	0xbd1a7710	-0.037711203
13	0x3d85d26f	0.06534278
14	0x3da84bf8	0.08217615
15	0x3da2252c	0.07917246
16	0x3dad58db	0.084642135
17	0xbdb7ac6a	-0.08968432
18	0xbd29e08f	-0.04147392
19	0xbdd7469b	-0.10511514
20	0x3ddcecc3	0.10787346
21	0xbd07ad6f	-0.033124384
22	0x3cb67761	0.022273721
23	0x3d8f429d	0.06995127
24	0xbd42a960	-0.04752481
25	0x3d1fe671	0.039038125
26	0xbd9fa83a	-0.077957585
27	0x3ca6ac90	0.020345956
28	0xbdb1bd64	-0.086787015
29	0x3d047751	0.03234035
30	0x3cc8a646	0.024493348
31	0x3dddd4c2	0.10831596
32	0x3cc3cd7f	0.0239017
33	0xbdcba167	-0.099428944
34	0xbce12664	-0.027484126
35	0x3bbe098d	0.0057994784
36	0x3da7ec7c	0.08199403
37	0x3cdf1708	0.027232662
38	0x3d6291d4	0.055314854
39	0xbd8bd2f8	-0.068273485
40	0x3d9eb7d8	0.07749909
41	0xbc82860d	-0.015933061
42	0xbbb5fee9	-0.0055540693
43	0xbd7444f1	-0.05963606
44	0xbc86964c	-0.016429089
45	0xbc54f64a	-0.012998173
46	0xbd94445b	-0.072396
47	0xbcea5e61	-0.028609456
48	0x395adf83	0.00020873365
49	0xbcf7ef21	-0.030265393
50	0x3ce31d4a	0.027723927
51	0x3df10932	0.11769332
52	0x3ca25398	0.019815251
53	0xbaf35ae9	-0.0018566522
54	0x3d6b31de	0.057420604
55	0x3db9d18a	0.090731695
56	0xbd20753f	-0.039174315
57	0x3d3e31fc	0.046434388
58	0x3802c8ba	3.1181356e-05
59	0x3b2c6a13	0.0026308342
60	0x3caf6353	0.021409666
61	0x3cad188a	0.021129865
62	0x3d641acf	0.05568963
63	0x3dc6d386	0.09708314
64	0xbd8ad70f	-0.067793004
65	0x3d885fe1	0.066589125
66	0xbd542ad8	-0.05179867
67	0x3d9424b8	0.07233566
68	0xbe12018a	-0.142584
69	0xbcd9633a	-0.026536573
70	0x3d1f8808	0.03894809
71	0xbd97b973	-0.074084185
72	0xbd0b355f	-0.033986446
73	0x3c12b192	0.008953469
74	0x3dbcdc6a	0.09221728
75	0x3d9d1ebc	0.07671878
76	0xbd30eec0	-0.04319644
77	0xbcee0449	-0.029054778
78	0xbbc5954d	-0.006029761
79	0xbd97e438	-0.07416576
80	0xbdcadac8	-0.099050105
81	0x3d69eff8	0.057113618
82	0xbdf21d60	-0.11822009
83	0xbd8b2cd9	-0.067956634
84	0xbdd908e5	-0.105973996
85	0x3d21dc26	0.03951659
86	0xbc610ea7	-0.013736404
87	0xbcbafc42	-0.022825364
88	0x3cfcef99	0.030875968
89	0x3d5af867	0.05345955
90	0xbd99a884	-0.07502845
91	0x3cbb65ce	0.022875693
92	0x3d6c5ff8	0.05770871
93	0xbc8bf112	-0.017082725
94	0x3dd449f9	0.10365672
95	0x3d5950f4	0.05305572
96	0xbcd4078d	-0.025882507
97	0x3e04c665	0.12966307
98	0xbdbc50fb	-0.09195133
99	0x3c06d737	0.008230022
100	0x3dd4b136	0.10385363
101	0xbd673afe	-0.056452744
102	0x3d5c4f65	0.053786654
103	0x3d8bdf10	0.06829655
104	0xbddfb0e0	-0.10922408
105	0x3a6dc403	0.00090700405
106	0x3dcc7351	0.09982932
107	0x3d8703ff	0.06592559
108	0x3cf7b31b	0.030236771
109	0xbd44a6a6	-0.04801049
110	0xbcb091a9	-0.021553831
111	0xbd93017b	-0.07178017
112	0x3d7e446c	0.06207697
113	0xbd40b181	-0.04704428
114	0x3d6a4a78	0.057199925
115	0x3b9162c1	0.004436821
116	0x3da64f15	0.081205525
117	0x3e10645c	0.14100784
118	0xbd9c09f3	-0.07619085
119	0x3d0f75a4	0.0350243
120	0x3cf9d70a	0.030498046
121	0xbcc8c9e3	-0.02451033
122	0x3db0828a	0.08618648
123	0xbd57845f	-0.052616473
124	0xbd0eefdc	-0.034896716
125	0xbd533542	-0.051564462
126	0x3dae4931	0.08510054
127	0xbc48c965	-0.012255047
128	0x3cc731a0	0.024315655
129	0x3d916503	0.070993446
130	0x3b3bc9a7	0.002865413
131	0xbd7c0194	-0.061524943
132	0xbd1c8988	-0.038217098
133	0x3cc174a7	0.023615194
134	0xbd7e7442	-0.06212259
135	0xbca2e414	-0.019884147
136	0x3dac8985	0.08424667
137	0xbc599de4	-0.013282273
138	0xbd52f1e7	-0.051500227
139	0xbd4360ac	-0.047699615
140	0xbce59545	-0.028025279
141	0xbcc16f12	-0.023612533
142	0x3ca7251e	0.020403441
143	0xbd96ca35	-0.07362787
144	0xbd405b42	-0.04696203
145	0x3c0bfe74	0.008544553
146	0xbe015ec9	-0.12633814
147	0xbd44807f	-0.047974106
148	0x3da2afd2	0.07943691
149	0xbcae08db	-0.021244457
150	0xbdce3982	-0.100695625
151	0x3da8f857	0.08250492
152	0x3d29e089	0.0414739
153	0xbd1f056e	-0.038823538
154	0xbdbba100	-0.09161568
155	0xbd464d31	-0.04841346
156	0x3dc9ce2d	0.09853778
157	0xbb943c60	-0.004523799
158	0x3de607ea	0.11231978
159	0xbd489e75	-0.04897924
160	0xbd2f1208	-0.042741805
161	0x3cf15b47	0.02946247
162	0x3cb7b5f4	0.02242563
163	0xbd73929e	-0.059465997
164	0xbde610d3	-0.11233678
165	0x3db0a303	0.08624842
166	0xbdaa4d35	-0.08315507
167	0x3dac78fc	0.084215134
168	0x3d0b13f9	0.033954594
169	0x3d8fc694	0.07020298
170	0x39ef9339	0.00045695322
171	0xbd9e94a1	-0.077431925
172	0xbc821aeb	-0.015881976
173	0xbdfa263f	-0.12214326
174	0x3ccf82fc	0.025331013
175	0xbd698a9d	-0.057016958
176	0xbda053bf	-0.07828473
177	0x3c2d9229	0.010593929
178	0x3da5e4eb	0.08100303
179	0x3c99a313	0.018754518
180	0x3dcebcaf	0.10094582
181	0xbb53b110	-0.0032301582
182	0xbc114b6e	-0.0088680815
183	0x3c3619e9	0.011114576
184	0xbb942b54	-0.0045217667
185	0x3d60dd57	0.054898586
186	0xbd821a98	-0.063527286
187	0x3cd0fe02	0.025511745
188	0x3c419caf	0.011817141
189	0xbda3c004	-0.079956084
190	0xbd97f281	-0.07419301
191	0xbbf4f2d9	-0.0074752388
192	0xbde4d0af	-0.11172616
193	0xbc0b166c	-0.0084892325
194	0xbd0bf1ec	-0.03416626
195	0xbd27c7de	-0.040962093
196	0x3c72ff47	0.014831371
197	0x3da49d64	0.080378324
198	0x3d5505ae	0.05200737
199	0xbcaba6b0	-0.020953506
200	0xbdab0b0f	-0.08351719
201	0xbbe34277	-0.0069354135
202	0xbc6f414d	-0.014602971
203	0x3d58b64e	0.052908234
204	0xbc933d5d	-0.017973596
205	0xbd9c8cb8	-0.076440275
206	0xbd1a836f	-0.037723
207	0xbd9bc9d6	-0.076068565
208	0xbcb9bde1	-0.02267355
209	0xbdc99977	-0.09843724
210	0x3da29a09	0.07939536
211	0x3b7a799a	0.0038219453
212	0x3c1270e6	0.00893805
213	0xbddfa277	-0.109196596
214	0x3b14706b	0.0022650014
215	0xbdd03f9b	-0.10168382
216	0x3d5efab8	0.054438323
217	0xbd1ad749	-0.03780297
218	0xbd2ff00c	-0.042953536
219	0xbd971601	-0.07377244
220	0x3d75bcd7	0.059994545
221	0xbdd14351	-0.10217918
222	0xbde49b02	-0.11162378
223	0x3d4c7be4	0.04992284
224	0x3dc3aa0a	0.09553917
225	0xbda423aa	-0.08014615
226	0x3e1324c1	0.14369489
227	0x3b200cdd	0.002442173
228	0x3dacf6d0	0.08445513
229	0x3d9176b5	0.0710272
230	0x3d17b9e2	0.037042506
231	0x3d79e05a	0.061004974
232	0xbd7aea75	-0.061258752
233	0xbdf29003	-0.11843874
234	0x3d320815	0.04346474
235	0xbd701958	-0.05861792
236	0x3d60139b	0.054706197
237	0xbda092ef	-0.07840525
238	0x3d4f7d84	0.05065681
239	0x3cd6dcf1	0.0262284
240	0xbcfceb96	-0.030874055
241	0xbd872aae	-0.065999374
242	0xbd1d58c9	-0.03841475
243	0xbd0a07e3	-0.033698928
244	0x3d52b760	0.05144441
245	0x3df4f0b0	0.1195997
246	0xbc0c322b	-0.008556883
247	0x3c21cd8a	0.0098756645
248	0xbd3f55bf	-0.046712633
249	0xbdd3a9b1	-0.103351004
250	0xbdb2ba2f	-0.08726918
251	0x3d8e13cd	0.069373704
252	0xbcce3061	-0.025169553
253	0x3d1ee61e	0.038793676
254	0xbc9d7d94	-0.01922492
255	0x3c5717f3	0.0131282685

L3.bias f4 [176]
0	0x3c269513	0.010167378
1	0x3de82d43	0.11336758
2	0xbd8494fc	-0.06473729
3	0xbdda7bad	-0.106681205
4	0xbd79f081	-0.061020378
5	0xbd0b5cf4	-0.034024194
6	0x3c64f671	0.013974772
7	0xbd7b85e9	-0.061407004
8	0x3bba38c7	0.005683038
9	0xbd2e0c69	-0.042492304
10	0x3c293d6c	0.0103295855
11	0xbcf70e40	-0.030158162
12	0x3d34675c	0.044043884
13	0x3d54af03	0.051924717
14	0xbdd8b54a	-0.10581453
15	0xbd07ad19	-0.033124063
16	0x3c68092b	0.014162342
17	0xbc271684	-0.010198239
18	0x3d831ef9	0.06402392
19	0x3c08c80b	0.008348475
20	0xbccdc043	-0.025116092
21	0x3c6a3a1f	0.014296084
22	0x3da2ba84	0.07945731
23	0xbd927cbb	-0.07152697
24	0x3d718fb7	0.058974948
25	0xbd122685	-0.035681266
26	0xbd5c9cae	-0.05386036
27	0xbd2ae939	-0.041726325
28	0xbce2140c	-0.02759745
29	0x3c8a3252	0.016869698
30	0xbde9c6fe	-0.11414908
31	0xbd59b06b	-0.05314676
32	0x3d051279	0.03248832
33	0xbd804192	-0.062625065
34	0xbbf04a84	-0.0073331017
35	0x3d8c44ab	0.06849035
36	0xbdcfde1e	-0.10149787
37	0x3dc29185	0.09500412
38	0x3d3cfae7	0.046137717
39	0x3d02d277	0.031938996
40	0x3d84cf11	0.06484807
41	0x3dbfa4c7	0.09357601
42	0xbda07c63	-0.07836225
43	0x3def60eb	0.116884075
44	0xbdafc10f	-0.08581745
45	0x3c103b3f	0.008803188
46	0xbb4a06a9	-0.0030826724
47	0x3b795700	0.003804624
48	0x3cfdd6bd	0.030986184
49	0xbd92f267	-0.07175141
50	0x3c868609	0.016421335
51	0xbd0a9d29	-0.033841286
52	0xbdc87311	-0.09787572
53	0x3d33c48c	0.043888614
54	0x3d283028	0.04106155
55	0x3d975bde	0.07390569
56	0x3d0ecdc2	0.034864195
57	0x3c85e503	0.016344553
58	0x3d42c887	0.04755452
59	0x3d196ebb	0.037459116
60	0x3d5da8a8	0.05411592
61	0xbdd29541	-0.10282374
62	0x3c935184	0.017983206
63	0xbd25bc3c	-0.040462717
64	0xbdbb0a57	-0.091328315
65	0xb883eaf0	-6.290327e-05
66	0x3c234df6	0.009967318
67	0x3da85a67	0.08220368
68	0xbb84b422	-0.004049794
69	0x3da85192	0.08218683
70	0x3da68506	0.08130841
71	0x3d8d247b	0.06891724
72	0xbd77f0a0	-0.060532212
73	0x3c30d521	0.010793001
74	0xbdf54d8f	-0.11977684
75	0x3dbb7de5	0.09154872
76	0x3cecaae9	0.02889009
77	0x3d24b1a2	0.040208466
78	0xbdb011d5	-0.08597151
79	0xbd5aa59c	-0.053380594
80	0xbc2495e5	-0.010045503
81	0x3dc9f148	0.09860474
82	0xbc1c9775	-0.009557595
83	0x3d938ac7	0.07204204
84	0xbd956f73	-0.07296648
85	0xbe03ceb1	-0.12871815
86	0x3d868c44	0.06569722
87	0xbce9a6cb	-0.028521916
88	0xbc0cc9b9	-0.008593016
89	0xbc7ca2dd	-0.015419689
90	0x3b918afe	0.004441618
91	0x3d1ee3f9	0.03879163
92	0x3d169bec	0.036769792
93	0x3d7a1a2e	0.061060123
94	0xbd6d0d8b	-0.057874244
95	0x3ccbd338	0.02488099
96	0xbdc66f85	-0.096892394
97	0xbc21b24b	-0.0098691685
98	0xbdb98938	-0.090593755
99	0xbd2b4f04	-0.041823402
100	0x3ddd10ca	0.10794218
101	0xbd474f5a	-0.04865966
102	0x3d897944	0.06712583
103	0xbc5f2927	-0.013620651
104	0x3d15a6af	0.036535915
105	0xbb570d79	-0.0032814427
106	0xbde80fa6	-0.1133111
107	0x3d5b69c1	0.05356765
108	0x3c77d805	0.015127187
109	0xbd6dad0a	-0.05802635
110	0xbdd9c0da	-0.10632487
111	0xbd8b0191	-0.06787408
112	0x3d382700	0.04495907
113	0xbd5712ad	-0.052508045
114	0xbd7b580c	-0.061363265
115	0xbdaab631	-0.083355315
116	0x3da36e8a	0.07980068
117	0xbd2891ba	-0.0411546
118	0x3d293a8b	0.041315597
119	0xbdb71614	-0.08939758
120	0x3c8722df	0.01649612
121	0x3bd02dfc	0.006353138
122	0xbda1a88b	-0.07893475
123	0xbd7c176b	-0.06154577
124	0x3d9fc27f	0.07800769
125	0xbc30144f	-0.010747029
126	0xbcfce4e5	-0.030870864
127	0x3d89bb17	0.06725138
128	0x3dc2d2c1	0.09512854
129	0x3ce0ea87	0.027455581
130	0xbdae2087	-0.08502298
131	0x3c84d1da	0.016213346
132	0x3d96274c	0.07331714
133	0x3dc25a0e	0.09489833
134	0xbc3f7d9d	-0.011687663
135	0x3d91d066	0.07119827
136	0x3d9fc1f5	0.07800666
137	0x3d865f8a	0.065611914
138	0x3c35f2ff	0.011105298
139	0xbd938b6f	-0.07204329
140	0xbe04fb85	-0.12986572
141	0xbb7a658c	-0.00382075
142	0xbd9d2ab4	-0.076741606
143	0x3da77a9a	0.08177681
144	0xbdc791e6	-0.09744625
145	0x3db5f793	0.08885112
146	0x3de8175d	0.11332581
147	0xbda6763b	-0.081280194
148	0x3ceda820	0.029010832
149	0x3d6caec2	0.05778385
150	0xbdfceee0	-0.12350249
151	0xbd59f9db	-0.053216796
152	0xbd8ed17d	-0.069735505
153	0x3ca60e67	0.02027054
154	0xbd47ce33	-0.04878063
155	0x3d896cb6	0.06710188
156	0xbda83531	-0.082132705
157	0x3d5f11ec	0.05446045
158	0x3c821473	0.015878892
159	0xbd7bb0f0	-0.061448038
160	0x3dba2476	0.090889856
161	0xbd36b4b2	-0.04460592
162	0x3d7d5985	0.06185295
163	0x3dc204ad	0.09473548
164	0xbdb68dae	-0.08913742
165	0xbd93c8ee	-0.07216059
166	0xbc0ee7f5	-0.008722295
167	0x3d682e30	0.056684673
168	0xbdcff524	-0.10154179
169	0x3d010541	0.03149915
170	0xbd3d1ed0	-0.046171963
171	0xbcc94c96	-0.024572652
172	0x3dda4aa3	0.10658767
173	0x3c7f527c	0.015583631
174	0xbdacba01	-0.08433915
175	0xbdfa9466	-0.12235336

L4.weight f4 [88, 176]
0	0xbd42fe1b	-0.047605615
1	0xbd1b6c4d	-0.03794508
2	0x3d0db6aa	0.03459803
3	0x3d0303f5	0.031986196
4	0xbcdd6062	-0.027023498
5	0xbcc3d33b	-0.023904433
6	0x3d046367	0.03232136
7	0x3c753705	0.014966731
8	0x3aaff1e8	0.0013423534
9	0xbd6a6a8b	-0.057230514
10	0xbce6df72	-0.028182719
11	0xbd260e6f	-0.04054111
12	0x3dcbfd41	0.09960414
13	0x3ce5c362	0.028047267
14	0xbbbeaaee	-0.0058187163
15	0xbc96c46c	-0.018404208
16	0x3bc84a0e	0.0061123436
17	0x3ab1c922	0.001356397
18	0x3d38aacc	0.04508476
19	0x3d80a55d	0.062815405
20	0x3c8a0c9e	0.01685172
21	0xbd6eafff	-0.05827331
22	0x3d3a2ca6	0.045452736
23	0xbd82b4f8	-0.06382173
24	0x3c590ca0	0.013247639
25	0xbcedf90f	-0.029049424
26	0x3c9545fd	0.01822185
27	0x3d9c26cb	0.07624587
28	0x3d034dfe	0.0320568
29	0xbca6b5ea	-0.020350415
30	0xbd6d5e70	-0.05795139
31	0xbd05118c	-0.032487437
32	0x3db22cc2	0.08699943
33	0x3d95f6ed	0.07322488
34	0xbd14018b	-0.036134284
35	0x3cd8a7c0	0.026447177
36	0xbcdda45d	-0.027055914
37	0x3ce2d46c	0.027689181
38	0x3aea5d9c	0.0017880681
39	0x3d5eae64	0.05436553
40	0x3d243a34	0.04009457
41	0x3ddc3585	0.107523955
42	0x3c6619a2	0.014044197
43	0xbda3855a	-0.07984419
44	0xbd762bb8	-0.060100287
45	0x3dd4a333	0.1038269
46	0xbd164777	-0.036689248
47	0x3c01f8b3	0.00793283
48	0x3d5f6d5f	0.054547664
49	0xbd151cec	-0.036404535
50	0xbd8c4ad5	-0.068502106
51	0xbc5300c0	-0.012878597
52	0x3c9ae772	0.01890919
53	0x3d06c2bf	0.032900568
54	0xbba9f18d	-0.005186266
55	0xbd554ce7	-0.052075293
56	0x3d0a1ac1	0.03371692
57	0xbd49aa29	-0.049234543
58	0xbcaa9639	-0.020823585
59	0xbd12a24a	-0.035799302
60	0xbc66955e	-0.014073698
61	0xbce62d4c	-0.028097771
62	0x3dbc0a4c	0.091816515
63	0xbbafab70	-0.005361013
64	0xbd857409	-0.065162726
65	0xbd4807cc	-0.04883556
66	0xbd037ca3	-0.032101285
67	0xbd794d67	-0.060864832
68	0x3d73905a	0.059463836
69	0xbc5f7990	-0.013639823
70	0x3da6718b	0.08127125
71	0x3dc70a3f	0.09718751
72	0x3d794379	0.060855363
73	0x3b40f059	0.0029440133
74	0xbd2846ce	-0.04108315
75	0x3d8733ec	0.066017
76	0x3d8b587a	0.06803985
77	0xbab35267	-0.0013681174
78	0xbcee40a0	-0.02908355
79	0x390065f2	0.00012245009
80	0x3daa3ad2	0.08312
81	0xbb4060ec	-0.0029354645
82	0x3c87fa62	0.016598884
83	0xbd98d803	-0.07463076
84	0x3d815b28	0.06316215
85	0xbdab9894	-0.08378711
86	0x3dce4ecc	0.10073623
87	0xbd6310a3	-0.055435788
88	0x3cdf1d0f	0.027235536
89	0x3d4898b0	0.04897374
90	0x3d398147	0.045289304
91	0x3db3fb0f	0.0878812
92	0xbd444fba	-0.047927596
93	0x3d51ef7f	0.051253792
94	0xbce4274a	-0.027850766
95	0x3cdf14cf	0.027231602
96	0xbc957fb3	-0.018249368
97	0x3da2913b	0.07937857
98	0x3d2a4cca	0.041577138
99	0x3da3013f	0.07959222
100	0xbd67d1b0	-0.056596458
101	0x3cb153fd	0.021646494
102	0x3d91193a	0.0708489
103	0xbd99ce99	-0.075101085
104	0xbd4501c0	-0.048097372
105	0xbc8b4c65	-0.017004201
106	0x3be46f0c	0.0069712456
107	0xbd762c80	-0.060101032
108	0xbc4ae76d	-0.012384278
109	0xbc159a1b	-0.00913098
110	0x3d0227ab	0.03177611
111	0x3d7c01f2	0.061525293
112	0x3d994706	0.0748425
113	0x3c87494b	0.016514441
114	0xbb3e37fd	-0.002902507
115	0x3d8d3664	0.0689514
116	0x3d7e5496	0.062092386
117	0x3d8f4c8d	0.06997023
118	0xbdadfdc5	-0.08495668
119	0xbc754562	-0.014970155
120	0xbce6bc8b	-0.028166076
121	0x3d3387eb	0.043830793
122	0x3dc3cf0a	0.09560974
123	0xbcd10dda	-0.0255193
124	0xbcd448a5	-0.025913546
125	0xbcfe62ef	-0.031053035
126	0xbcdeb0ed	-0.027183974
127	0x3b690db0	0.0035561137
128	0xba5ac074	-0.0008344718
129	0xbba3fc10	-0.0050044134
130	0x3ca4a667	0.020098878
131	0xbcde3270	-0.02712366
132	0xbd8bae17	-0.068203144
133	0x3d80c636	0.06287806
134	0xbc4af305	-0.012387042
135	0x3d9a7f24	0.075437814
136	0x3d31f292	0.043444224
137	0xbd4b7870	-0.049675405
138	0x3ca0f236	0.019646745
139	0xbdd9cccf	-0.10634767
140	0x3d47dacd	0.04879265
141	0xbd1ff2c5	-0.039049882
142	0xbd1af269	-0.037828837
143	0xbd18259c	-0.037145242
144	0xbcb222a9	-0.021745043
145	0x3d27b2d7	0.04094204
146	0xbd74d111	-0.059769694
147	0xbd3754d8	-0.044758648
148	0xbd370c1a	-0.044689275
149	0x3ddc8262	0.10767056
150	0x3d1572b1	0.03648633
151	0x3be30490	0.006928034
152	0x3d3e6dfe	0.046491615
153	0xbd526dcc	-0.05137424
154	0x3d941e90	0.07232392
155	0x3d77312b	0.060349625
156	0xbd74cf21	-0.059767846
157	0xbd872e89	-0.06600673
158	0xbc886541	-0.016649844
159	0x3d2de6c2	0.042456396
160	0x3db840cd	0.08996735
161	0x3d7ca376	0.061679326
162	0xbcd2b392	-0.025720391
163	0xbc7f69ce	-0.015589191
164	0xbda5673c	-0.08076331
165	0x3dae1341	0.08499766
166	0xbcd9a9d9	-0.026570247
167	0xbd99e5f5	-0.07514564
168	0xbd3920ef	-0.045197424
169	0xbd8f27c4	-0.069900066
170	0x3bdab236	0.0066740764
171	0x3cf25ad4	0.029584326
172	0x3cfcddea	0.030867536
173	0xbd5a185b	-0.053245883
174	0xbd8a3652	-0.06748642
175	0xbd324e8c	-0.04353194
176	0xbcaa02b3	-0.02075324
177	0xbd391bf8	-0.04519269
178	0xbd8227f3	-0.06355276
179	0xbdbebe98	-0.093136966
180	0xbc141318	-0.009037755
181	0x3c21834f	0.009857967
182	0x3db4722f	0.08810841
183	0xbd2ce41c	-0.04220973
184	0xbcca754c	-0.024714135
185	0xbba4e769	-0.005032469
186	0xbdc6c820	-0.097061396
187	0x3d445f0e	0.047942214
188	0xbc690535	-0.014222433
189	0x3d8b73ef	0.06809222
190	0xbb9c60ba	-0.004772273
191	0x3d4c3275	0.049852807
192	0xbcfb6f75	-0.030692795
193	0xbcbcc0f1	-0.02304122
194	0xbc655525	-0.013997351
195	0x3d2d6298	0.042330354
196	0x3c97c580	0.018526793
197	0x3cdfcb2b	0.027318558
198	0x3d8b2969	0.06795008
199	0x3ca02b1c	0.019551806
200	0x3ad16fae	0.0015978718
201	0x3d384642	0.044988878
202	0xbd895a50	-0.06706679
203	0xbd70481a	-0.05866251
204	0xbc191f11	-0.009345786
205	0xbd400423	-0.046878945
206	0xbbc32957	-0.005955856
207	0xbd983177	-0.0743131
208	0xbd140d58	-0.036145538
209	0xbda4ada8	-0.08040935
210	0x3c87255e	0.01649731
211	0x3d4c80f9	0.049927685
212	0xbda56a38	-0.080769
213	0x3be70566	0.007050204
214	0xbc988050	-0.018615872
215	0x3cf721fb	0.03016757
216	0xbb5ef0be	-0.0034018005
217	0x3d76d986	0.06026604
218	0xbd432c2a	-0.04764954
219	0x3d37fffc	0.04492186
220	0xbbea5aad	-0.0071519227
221	0x3c12ddd1	0.008964018
222	0xbc880a69	-0.016606526
223	0xbce3bb3e	-0.027799245
224	0xbd7b171b	-0.061301332
225	0xbd68cf76	-0.056838475
226	0x3c3d381f	0.011549025
227	0x3bf1eca5	0.0073829466
228	0xbd076132	-0.033051677
229	0xbcec32c4	-0.0288328
230	0xbcdc8b33	-0.026921844
231	0x3d402096	0.046906076
232	0x3cd003ac	0.025392376
233	0xbc1fd434	-0.009755183
234	0x3d3f45a0	0.04669726
235	0x3cce8154	0.025208153
236	0x3cdbae87	0.02681662
237	0x3d61378a	0.054984607
238	0x3dae3da8	0.08507854
239	0xbd35dc08	-0.04439929
240	0x3d041089	0.03224233
241	0x3a3b5c5d	0.0007147247
242	0xbc77d977	-0.015127531
243	0x3d89a4f9	0.06720919
244	0xbca3efab	-0.020011744
245	0xbbd9cc4b	-0.006646668
246	0x3d52d52c	0.051472828
247	0x3c791d99	0.015204811
248	0xbdabfad4	-0.08397451
249	0xbdc82836	-0.09773295
250	0x3d9534fe	0.07285498
251	0xbcf18f20	-0.029487193
252	0x3c3008ce	0.010744287
253	0x3c419aa2	0.0118166525
254	0xbc66f710	-0.01409699
255	0x3ca22432	0.01979265

L4.bias f4 [88]
0	0xbc612daa	-0.013743797
1	0xbd40b2f9	-0.04704568
2	0xbd961ff2	-0.07330312
3	0xbb4d046b	-0.003128315
4	0x3d8e69e1	0.069537885
5	0xbc29b321	-0.010357649
6	0xbc2f35b5	-0.010693957
7	0xbda407eb	-0.08009323
8	0x3d184fbc	0.037185416
9	0x3c75d75c	0.015004959
10	0xbd7773eb	-0.060413282
11	0xbc017689	-0.007901796
12	0xbd0f84f7	-0.035038915
13	0x3d1ee119	0.03878889
14	0x390b10cb	0.00013262329
15	0x3c6ef4cf	0.014584734
16	0x3d0311a0	0.03199923
17	0xbbf331cc	-0.0074217077
18	0x3cc26155	0.023728052
19	0x3da0fc45	0.078606166
20	0x3ca103db	0.019655159
21	0xbda18400	-0.07886505
22	0x3cdc4d93	0.026892459
23	0x3d6bbee2	0.057555087
24	0xbba8e0bd	-0.005153744
25	0x3c99a902	0.018757347
26	0xbd5bcea3	-0.05366386
27	0xbb2ac7b3	-0.0026058971
28	0x3d1bdb24	0.038050786
29	0xbcb6595c	-0.022259407
30	0x3d1747d8	0.03693375
31	0x3cf60f6a	0.030036647
32	0x3b38b875	0.0028186117
33	0xbd4353ba	-0.04768727
34	0xbd4f3d80	-0.05059576
35	0xbbc62783	-0.0060471906
36	0xbc8d438e	-0.017244127
37	0x3d87a87b	0.06623932
38	0xbd1aceb9	-0.037794802
39	0x3c189bd6	0.009314498
40	0xbd9ad9ed	-0.07561097
41	0x3cf2b7ec	0.029628716
42	0xbc53c102	-0.012924435
43	0x3d7fe96b	0.062478464
44	0x3cb76000	0.022384644
45	0x3c8d56f5	0.017253378
46	0x3c1d0f84	0.009586219
47	0x3da97e7b	0.08276077
48	0xbba30395	-0.0049747922
49	0xbb1ac688	-0.002361687
50	0xbd408aab	-0.047007244
51	0xbd09239b	-0.03348122
52	0xbd633de1	-0.055478934
53	0x3cb09305	0.02155448
54	0x3d8d186f	0.06889426
55	0x3c222d90	0.009898558
56	0x3d76ef04	0.060286537
57	0xbd2b56e8	-0.041830927
58	0xbcc590a6	-0.024116825
59	0xbcb4c6c8	-0.022067443
60	0xbd493128	-0.049119145
61	0xbdb66177	-0.08905309
62	0x3ce4f6f9	0.027949797
63	0x3c948e5c	0.018134288
64	0x3d1b2b1a	0.0378829
65	0x3d3620fb	0.044465046
66	0x3d6fba92	0.058527537
67	0xbd08639a	-0.033298112
68	0xbd1fb7d1	-0.03899366
69	0xbd08f141	-0.033433203
70	0x3c9af6e0	0.018916547
71	0xbc8f0c07	-0.01746179
72	0xbd0d344a	-0.034473695
73	0x3cd693b9	0.026193487
74	0x3ce3e775	0.027820328
75	0x3d80ee16	0.06295411
76	0x3d28c59a	0.041204073
77	0xbda69881	-0.081345566
78	0x3cb6d55e	0.022318538
79	0xbc23f061	-0.010006041
80	0x3d15ac9d	0.03654157
81	0x3d1c5417	0.03816613
82	0xbb9fe179	-0.0048791734
83	0xbd60a4a7	-0.054844525
84	0xbb51d533	-0.0032017946
85	0x3d4f9763	0.050681483
86	0xbb818227	-0.003952283
87	0xbd77885d	-0.06043278

L5.weight f4 [44, 88]
0	0xbdc64a46	-0.09682135
1	0x3cd2f1bf	0.02575004
2	0xbd451e26	-0.048124455
3	0x3dbc4c1c	0.09194204
4	0x3d920138	0.07129139
5	0xbcbb495d	-0.02286213
6	0x3bccf6b6	0.006254996
7	0xbdd82a48	-0.105549395
8	0x3d42983d	0.047508467
9	0xbcb255da	-0.021769453
10	0xbda35cf3	-0.07976713
11	0xbdc8fa8e	-0.098134145
12	0x3cb5d4be	0.02219617
13	0xbdf23cf3	-0.118280314
14	0xbd87e8ec	-0.06636223
15	0x3d63e58d	0.05563884
16	0xbde41660	-0.1113708
17	0xbd5c07f2	-0.053718515
18	0xbd8df08e	-0.06930648
19	0x3c9fc8ad	0.01950487
20	0x3de942c6	0.11389689
21	0xbcb54da5	-0.02213175
22	0xbdc01f09	-0.093809195
23	0xbd2cd3bd	-0.042194117
24	0x3d715d9c	0.058927163
25	0xbcdd5291	-0.02701691
26	0x3d905e8d	0.07049284
27	0xbdcee359	-0.10101957
28	0xbde0fce9	-0.10985739
29	0xbdddcf9c	-0.10830614
30	0x3daa34a6	0.08310823
31	0xbd25b94f	-0.040459927
32	0xbdba320f	-0.09091579
33	0xbdbc4886	-0.0919352
34	0xbe079248	-0.13239396
35	0xbdb48321	-0.08814073
36	0xbab57a6e	-0.0013845691
37	0xbdc9e7ee	-0.0985869
38	0xbd31363c	-0.043264613
39	0x3d8b2900	0.067949295
40	0x3d576473	0.05258603
41	0x3d85bd27	0.065302186
42	0x3bad1934	0.0052825455
43	0x3d966326	0.0734313
44	0xbdc54a92	-0.09633364
45	0x3c6252a0	0.013813645
46	0xbd38016e	-0.04492324
47	0xbcf57319	-0.02996211
48	0x3d04c47f	0.032413956
49	0x3c9347a8	0.017978504
50	0xbd8a1f91	-0.06744302
51	0xbcf5a25f	-0.029984651
52	0x3d49a6bd	0.04923128
53	0x3bba8810	0.0056924894
54	0x3d88e50a	0.06684311
55	0xbcf7fd6b	-0.030272206
56	0x3d09e8f8	0.033669442
57	0xbcf030c7	-0.029320134
58	0xbdce291e	-0.10066436
59	0x3cb66818	0.022266433
60	0x3d9cd7c9	0.07658345
61	0x3dae9281	0.08524037
62	0xbdebe1b9	-0.115176626
63	0xbdc344ca	-0.09534605
64	0x3d82d17e	0.06387614
65	0x3da5b235	0.08090631
66	0xbcabf69b	-0.020991614
67	0x3dbbc518	0.09168452
68	0xbd8cf0d0	-0.06881869
69	0x3d76d55b	0.060262065
70	0x3db42521	0.08796144
71	0x3c0540a7	0.00813309
72	0x3d44a946	0.048012994
73	0xbcd12c65	-0.025533864
74	0xbdd88c1d	-0.105735995
75	0x3d815ea1	0.06316877
76	0xbdb17327	-0.08664542
77	0x3d146565	0.03622951
78	0x3dd42c4c	0.103600115
79	0x3df203db	0.118171416
80	0xbd9fd9aa	-0.07805188
81	0xbdabf399	-0.08396072
82	0xbd1b8255	-0.03796609
83	0xbd924ace	-0.07143174
84	0xbdad9a9f	-0.08476757
85	0x3c155806	0.009115225
86	0xbbf0c4e6	-0.007347691
87	0x3d901fb1	0.07037295
88	0xbd92246b	-0.071358524
89	0xbc958cb9	-0.018255578
90	0x3dc0268d	0.09382353
91	0xbdc505bf	-0.096202366
92	0xbcb8df54	-0.022567429
93	0xbc90306b	-0.017601212
94	0xbd89444d	-0.067024805
95	0xbc703581	-0.014661194
96	0xbd5f5ad0	-0.054529965
97	0xbdc59cbc	-0.09649035
98	0x3d34aea5	0.044111867
99	0xbdd6c44c	-0.104866594
100	0xbdd93143	-0.10605099
101	0xbe0e4ae3	-0.13895755
102	0x3d65a058	0.05606112
103	0x3ca61c47	0.020277156
104	0x3d2b0cdc	0.04176031
105	0x3d4b9029	0.04969803
106	0xbdc8df3d	-0.09808204
107	0x3dcda3ea	0.1004103
108	0xbd394d85	-0.045239944
109	0x3cc839eb	0.02444168
110	0x3dbf0d5f	0.09328722
111	0xbd4d2074	-0.050079778
112	0xbd7828cc	-0.060585782
113	0xbdb32db4	-0.087489516
114	0x3d86e8e0	0.06587386
115	0x3c92ec0d	0.017934823
116	0x3b9dc7e0	0.0048150867
117	0x3dce6cc7	0.100793414
118	0x3bbf2f78	0.005834516
119	0x3dd373ff	0.10324859
120	0x3c7cda57	0.015432916
121	0xbd8d12b9	-0.06888337
122	0xbddceedb	-0.107877456
123	0x3db87cb2	0.09008159
124	0x3c957d8b	0.01824834
125	0xbdbbf5af	-0.0917772
126	0xbd99b5e2	-0.075053945
127	0xbc8be6c4	-0.017077811
128	0x3bee651c	0.007275237
129	0xbd76018b	-0.060060065
130	0x3da2710e	0.0793172
131	0x3d7b6ff7	0.061386075
132	0xbd870b78	-0.06593984
133	0xbcf7d5e4	-0.030253358
134	0x3d6bce99	0.057570074
135	0xbcfe7395	-0.031060973
136	0x3d2b9397	0.0418888
137	0x3d0967b3	0.03354616
138	0x3dd76661	0.10517574
139	0x3dd2c8f5	0.10292236
140	0xbdbd44a9	-0.092416115
141	0xbd152a9f	-0.0364176
142	0xbdd1740b	-0.102272116
143	0xbd5306ed	-0.051520277
144	0xbd85590f	-0.06511127
145	0x3d3db5ce	0.04631596
146	0x3d191045	0.03736903
147	0xbdb70f33	-0.08938446
148	0x3c9f2efe	0.019431587
149	0xbd76a16d	-0.06021254
150	0xbd92df62	-0.07171513
151	0xbdb9922d	-0.09061084
152	0x3e0efb5b	0.13963072
153	0xbd7d8864	-0.06189765
154	0x3d0bc691	0.034124915
155	0xbdccc4f6	-0.09998505
156	0xbdd46cb5	-0.10372297
157	0xbc56946b	-0.013096909
158	0x3ddb26eb	0.107007824
159	0xbc7080f5	-0.014679183
160	0x3d93e7a9	0.0722192
161	0xbd38e957	-0.045144405
162	0x3d89c9d4	0.06727949
163	0xbd2b6f7c	-0.041854367
164	0xbdbebb6a	-0.0931309
165	0x3cd92cb9	0.026510583
166	0xbcd0c5d0	-0.02548495
167	0xbc64da1b	-0.013968016
168	0x3de5641d	0.11200736
169	0x3cbdc5d8	0.023165628
170	0xbd59d632	-0.05318279
171	0x3d828be5	0.06374339
172	0xbd4b9a6d	-0.04970782
173	0x390d9aa8	0.00013504422
174	0x3ce75497	0.028238578
175	0xbd765ef1	-0.060149137
176	0x3d900af1	0.07033337
177	0x3d9c32e9	0.07626898
178	0xbb8946c6	-0.004189345
179	0x3daf9be8	0.08574659
180	0x3c05b915	0.008161803
181	0x3d967350	0.07346213
182	0xbd9a770d	-0.075422384
183	0x3da1904d	0.07888851
184	0x3dbe0050	0.09277403
185	0xbb100321	-0.0021974521
186	0x3c135054	0.00899132
187	0x3da84a7e	0.08217333
188	0x3cad9718	0.021190211
189	0x3dab6b4a	0.08370073
190	0xbd8bca3e	-0.06825684
191	0x3d68d876	0.05684706
192	0x3d9d4c5c	0.0768058
193	0xbdae026f	-0.08496558
194	0xbc06386d	-0.008192164
195	0x3dc00cbc	0.09377429
196	0xbd97b5da	-0.07407732
197	0x3da0392d	0.078234054
198	0xbcff8bfc	-0.03119468
199	0x3d9866e0	0.07441497
200	0x3cc4703c	0.023979299
201	0xbd8eb727	-0.06968527
202	0xbd2b89e3	-0.041879546
203	0xbd0f4279	-0.034975503
204	0xbcfb232a	-0.030656416
205	0x3bfaa2df	0.0076488103
206	0x3c8ac578	0.016939864
207	0x3d824dbe	0.063624844
208	0x3d8c4034	0.06848183
209	0x3d7abca9	0.061215077
210	0x3cb0e6be	0.021594401
211	0xbb9fd90c	-0.004878169
212	0x3d79e176	0.061006032
213	0xbb438286	-0.0029832437
214	0x3db7c721	0.08973528
215	0x3d893fd5	0.06701628
216	0x3d2d20fd	0.04226779
217	0x3d39b7f7	0.04534146
218	0xbd76043b	-0.06006263
219	0xbdd34717	-0.10316294
220	0x3d9371f3	0.071994685
221	0x3dc96410	0.098335385
222	0xbd72a96d	-0.05924361
223	0xbda8a11e	-0.08233856
224	0x3d11bf9c	0.035583124
225	0x3cdb7c29	0.026792603
226	0xbcccdbd2	-0.025007162
227	0x3e04d770	0.12972808
228	0xbd7afb3b	-0.06127475
229	0x3dbb826e	0.09155737
230	0x3d229139	0.039689276
231	0x3ce40b8a	0.027837534
232	0xbdd7ee2b	-0.10543474
233	0x3db33292	0.0874988
234	0x3d318d4f	0.043347653
235	0x3b53eb71	0.003233638
236	0x3cf3fbf3	0.029783225
237	0xbd8e2f67	-0.06942635
238	0xbc7f64db	-0.015588011
239	0xbd0b1d03	-0.033963215
240	0x3dd5eeb6	0.10445921
241	0x3da3ad72	0.079920664
242	0xbd8d63c2	-0.06903793
243	0x3cb3b410	0.021936446
244	0xbcead5d2	-0.02866641
245	0x3c97e6b1	0.01854262
246	0xbdc0a048	-0.09405571
247	0xbc9d2e74	-0.01918719
248	0x3cdd1da6	0.026991677
249	0x3de98cec	0.11403832
250	0xbd54610e	-0.05185037
251	0xbd0b150a	-0.03395561
252	0x3dd34dc8	0.1031757
253	0xbd93b37d	-0.07211969
254	0xbdab93cf	-0.083778016
255	0xbd89de77	-0.06731885

L5.bias f4 [44]
0	0xbd8f1428	-0.069862664
1	0xbd2ebc49	-0.04266003
2	0xbd80c747	-0.06288009
3	0xbc2a812c	-0.010406774
4	0xbd9b39c7	-0.075793795
5	0x3d4b059d	0.0495659
6	0xbd316813	-0.043312144
7	0xbdb7866d	-0.089611866
8	0xbd1ba0da	-0.037995197
9	0xbd610078	-0.054932088
10	0x3c1423f9	0.00904178
11	0x3c7820ee	0.01514457
12	0x3dbe98a9	0.09306461
13	0xbb446958	-0.0029970016
14	0x3d53161e	0.051534764
15	0xbd5e976e	-0.054343633
16	0xbd59d31b	-0.05317984
17	0x3d80a3cd	0.062812425
18	0x3dabde7f	0.08392047
19	0xbd68cc21	-0.056835297
20	0x3db14ac2	0.08656837
21	0x3d94546c	0.07242665
22	0xbde351c5	-0.11099581
23	0x3c96d492	0.018411908
24	0x3d8792a9	0.0661977
25	0x3c689a7f	0.014196991
26	0x3d12cda9	0.035840664
27	0x3cc64219	0.02420144
28	0xbc24e4d9	-0.010064327
29	0x3d35f51b	0.044423204
30	0xbd9998a5	-0.07499818
31	0x3d4fddcc	0.05074863
32	0xbd80398b	-0.062609755
33	0x3c3bbe3b	0.011458929
34	0xbc6857dc	-0.014181104
35	0x3dbcaef3	0.092130564
36	0xbdc44a13	-0.09584441
37	0x3dd0e0d2	0.10199131
38	0xbabb0850	-0.0014269445
39	0x3d169191	0.036759917
40	0x3dc5b6c2	0.09653999
41	0xbd439882	-0.047752865
42	0xbcf35854	-0.029705204
43	0x3db2eddb	0.087367736

L6.weight f4 [1, 44]
0	0xbe1f320b	-0.15546434
1	0xbd2f5f32	-0.042815395
2	0x3da44510	0.08020985
3	0xbd32e365	-0.04367389
4	0xbcfd7d89	-0.030943649
5	0x3e0ed00c	0.13946551
6	0x3ddf744f	0.10910856
7	0x3e05cef0	0.13067222
8	0xbd0a72b9	-0.033800814
9	0xbe048fe1	-0.1294551
10	0x3d9eed1c	0.07760069
11	0xbd1077ec	-0.035270616
12	0xbde6c256	-0.112675354
13	0x3d9808b1	0.07423533
14	0x3db406a9	0.08790333
15	0x3d9ca529	0.07648689
16	0xbd9a1a28	-0.0752452
17	0xbcbfead5	-0.023427406
18	0xbc9e8b01	-0.019353392
19	0xbd6c3815	-0.05767067
20	0xbcd040d5	-0.02542154
21	0xbc9ddb72	-0.019269679
22	0xbbb8aa20	-0.005635515
23	0x3dee9f73	0.11651506
24	0xbe10cf13	-0.14141493
25	0xbdbde014	-0.09271255
26	0xbcb041ad	-0.021515692
27	0x3d8089ca	0.06276281
28	0x3e0c3e3b	0.13695614
29	0x3e2f3d75	0.17113288
30	0xbd20b1f4	-0.03923221
31	0x3d761724	0.060080662
32	0xbe055ddb	-0.13024084
33	0xbd03d680	-0.032186985
34	0xba8bee7d	-0.0010675933
35	0xbe0debc8	-0.13859475
36	0x3dc4e268	0.09613496
37	0xbdbd4c8b	-0.09243115
38	0xbd3dab41	-0.0463059
39	0xbbd39834	-0.006457353
40	0xbd156303	-0.036471378
41	0x3dbd770a	0.092512205
42	0xbe092929	-0.13394608
43	0x3cf0a452	0.029375229
