Saved_Models_All_Features/target_Hardness_features_22_epochs_4.pth (torch_old, 162565 bytes, 11 tensors)

L1.weight f4 [44, 22]
000000 2b f1 b0 bd 32 36 bc 3e 93 a4 d2 3e 42 14 94 3e
       -0.08639749 0.36760098 0.41141185 0.28921705
000010 a1 08 b6 3e 9e 3c ec bd 4b 00 3b bd a8 d9 1b 3f
       0.35553458 -0.11534999 -0.045654576 0.6087899
000020 51 b4 96 3d 62 5f b6 3d 7b 8f 56 be 9e 77 0b 3d
       0.073586114 0.089049116 -0.20953171 0.034049623
000030 a1 02 9b 3d ba 1e 1c be 74 21 40 be f4 fa 92 3e
       0.07568861 -0.15246096 -0.18762761 0.28707087
000040 05 e6 b3 3e 62 9e da be cb 82 10 bc d6 78 5d be
       0.35136428 -0.42698961 -0.008820246 -0.21628127
000050 e4 80 41 3e ea 5c d6 b8 ec 13 d5 bc 18 78 6e 3c
       0.18896824 -0.00010221622 -0.026010476 0.014555
000060 96 98 2e 3e ae 0c de 3d e6 f1 d7 bd e9 9a 22 3e
       0.17050394 0.10842262 -0.10544185 0.15879406
000070 70 bd 49 3e 62 e8 63 3e 67 c5 63 3e 70 7d a7 3d
       0.19701171 0.22256616 0.22243272 0.08178222
000080 5a 0e b7 3d 00 a4 2d 3e d7 cf 2d be 13 e8 05 3d
       0.08938284 0.16957092 -0.16973816 0.032692026
000090 fc 1f 5a 3e 8d 25 4c 3d 25 e3 48 bd 44 bf 8a bd
       0.21301264 0.0498405 -0.049044747 -0.06774762
0000a0 8d 81 5a bd b9 40 cf 3d 22 8b 1d be 63 0f 4a 3e
       -0.053346206 0.10119767 -0.15385106 0.19732432
0000b0 73 9f 02 3f b2 21 ac bd f7 8a 48 3e 87 89 c5 bd
       0.5102455 -0.08404864 0.19584261 -0.09645372
0000c0 42 e3 71 3e 03 9f 99 bd d4 3d c9 bd 68 e5 9e 3e
       0.23621848 -0.07501032 -0.09826246 0.31034398
0000d0 a8 a6 eb 3e 5b 4c 26 be 85 08 da 3d eb f3 89 3c
       0.46025586 -0.16240065 0.10646156 0.016839942
0000e0 9e 2e bf 3e 96 92 6a 3e 66 d8 a5 3d 53 13 62 3e
       0.37340254 0.2290748 0.08097915 0.22077684
0000f0 e2 f7 2f 3e 6c 37 39 bf 00 09 98 3d 26 7f 11 be
       0.17184404 -0.7235019 0.074235916 -0.1420866
000100 a6 30 b2 3e 65 a9 0f 3e c9 99 73 be b8 e0 e3 bc
       0.3480274 0.14029463 -0.23789133 -0.027817115
000110 44 3c 72 3e 61 73 af be 0d b1 2a 3e 9e 6e 93 be
       0.23655802 -0.34267715 0.16669102 -0.28795332
000120 43 0b 53 3e 5a 7a 86 bc 84 fe b6 bd 1d 72 9c 3d
       0.20609765 -0.016415764 -0.08935264 0.07638953
000130 2e 77 9d be 0a 8e 4f 3d ec 8b dc 3c 72 13 9c 3e
       -0.3075499 0.05067257 0.026922189 0.30483586
000140 d1 c0 8a 3c 55 02 92 3e 4d c0 41 3e 8a 32 05 3e
       0.016937645 0.28517404 0.18921013 0.1300756
000150 8f c0 81 3d 95 14 ef 3c 31 f3 1c 3e 79 03 38 3e
       0.06335556 0.029184619 0.15327145 0.17970075
000160 03 98 9a 3e 4b 7e 00 3f 4c 1f 3c 3e 33 eb fd 3d
       0.301941 0.5019271 0.18371314 0.12398376
000170 c4 e3 13 be 53 0a b9 be 3a 8b c2 3c b7 eb 0d 3e
       -0.14442354 -0.3614069 0.023748029 0.1385945
000180 bb e0 b6 3e 1f 2e 53 3e b4 8d bb 3e 7d 01 8b 3d
       0.3571833 0.20623063 0.36631548 0.06787393
000190 22 80 1d be cf f1 c7 bc 83 b1 54 3d 38 74 f0 3e
       -0.1538091 -0.024407296 0.0519271 0.46963668
0001a0 7d 22 f5 3d 5f be 7d be 78 ce 4d bc 4d 24 a2 3d
       0.11969469 -0.24779652 -0.012561433 0.0791708
0001b0 c2 6e 8b 3e 47 0b db 3d 53 d9 92 3d 2f cc 82 bd
       0.2723294 0.1069551 0.071703576 -0.06386601
0001c0 dd eb c6 3e 04 94 c3 3c 64 28 d5 be 2f a4 f4 3d
       0.38851824 0.02387429 -0.41632378 0.11945378
0001d0 e5 ed 09 3e 19 b0 5f 3e ba 2b dc 3d d4 53 da 3c
       0.13469656 0.2184452 0.10750528 0.0266513
0001e0 d6 11 a2 3b 17 50 4a 3e 00 ac 9c 3b 45 53 4f 3d
       0.004945974 0.19757114 0.004781246 0.05061652
0001f0 79 73 ee 3e c8 50 6d 3e 3f 6b 2a bd 64 02 94 3d
       0.46572474 0.23175347 -0.041606184 0.072270185
000200 f2 36 63 3d 92 d0 50 be 83 ec 4c 3e b7 62 d0 bc
       0.05547232 -0.20392063 0.20012097 -0.025437696
000210 7a c2 55 3e f1 e7 a5 3e 38 c7 8d 3d 84 b9 28 3d
       0.20874968 0.3240352 0.069227636 0.041192546
000220 45 75 35 3e b3 21 aa be 98 59 a7 3e d8 2f 10 3e
       0.17720516 -0.33228835 0.32685542 0.14080751
000230 5a 8f cd 3e 43 a8 6a bc f3 6c 0d 3e 83 c7 47 3d
       0.4014843 -0.014322343 0.13811092 0.048774254
000240 60 82 d9 3d 3c 2e 03 3e 31 04 bf be a3 af ca 3e
       0.1062057 0.12810606 -0.37307885 0.39587125
000250 60 dc 1b 3f f9 b0 1e bf c1 a0 79 3d ae 40 4a be
       0.6088314 -0.6198879 0.060944322 -0.19751236
000260 73 3f 7d bd b3 a2 81 3e e9 83 b0 3b 18 97 4d 3d
       -0.061828088 0.25319442 0.0053868187 0.050192922
000270 ed f0 0a 3f af 81 41 be f8 b7 14 bf 99 7b 1f 3e
       0.54273874 -0.18897127 -0.58093214 0.15574493
000280 5e 55 8f be a1 4e a1 bd f4 b7 a8 3d 63 3f c8 3e
       -0.27994817 -0.078763254 0.08238211 0.3911086
000290 60 88 e0 3c e1 6e 07 3f f9 be 38 3e e5 47 74 3e
       0.027408779 0.5290356 0.180416 0.2385555
0002a0 2d 4d a3 bd cc 21 fa 3d e0 20 da 3e 60 c9 cd 3d
       -0.079737045 0.122134775 0.42603207 0.10048175
0002b0 96 44 59 3e c3 7e ce 3c 91 f4 85 bd a2 65 91 3d
       0.2121757 0.02520693 -0.06540788 0.07099463
0002c0 8d dd 1f be 7e 48 ad 3d 8c 3b a3 3e 08 b8 06 3e
       -0.15611859 0.084610924 0.31881368 0.1315614
0002d0 fd f1 62 be 1d a6 cb 3e 13 37 ac 3e 5e 6d 9d 3e
       -0.22162624 0.39775172 0.33635768 0.30747503
0002e0 ac b5 0a be f6 02 c3 3e ae bd 16 3e 68 ce 39 3d
       -0.13545865 0.38088197 0.14720795 0.04536286
0002f0 96 37 28 be 0b 85 a2 3a 04 3c e3 bd 08 2c 48 3d
       -0.16427454 0.0012399269 -0.110954314 0.048870116
000300 21 61 10 3e e3 ff 46 be bc 99 de 3e 09 0a 83 3d
       0.14099552 -0.1943355 0.43476665 0.063983984
000310 dd ff 10 3c 0b f0 07 3d 68 70 b6 3d 20 48 09 be
       0.008850065 0.033187907 0.089081585 -0.1340642
000320 ca 1f 25 3e 42 dc ee bd 8b 25 6f be cf d2 6b 3d
       0.16125408 -0.116631046 -0.23354165 0.05757409
000330 b0 9e 62 3e 5a 8a c6 3d 51 05 1f be f2 20 2e 3d
       0.22130847 0.09694357 -0.15529372 0.042511888
000340 c0 b1 78 bc 60 87 96 bc 8f fb 7d be e2 54 3b be
       -0.015179098 -0.018375099 -0.24802993 -0.18294099
000350 af eb 21 3e 94 31 b3 3b 0b 1b b1 3d 6f f8 14 be
       0.15812562 0.0054685567 0.08647736 -0.14547895
000360 aa 64 8f 3e 52 4f 28 3e c9 ef 7d 3d 4a 14 ee 3d
       0.28006488 0.16436508 0.061996255 0.116249636
000370 a5 77 ac 3e 55 cb 58 3d 6e 9e 24 3e 32 d7 90 bd
       0.33685032 0.052928288 0.16076061 -0.07072295
000380 dc 52 0e be ec 64 f2 3d 9b 5a b3 3d 71 a4 6d bd
       -0.13898796 0.118356556 0.08757516 -0.05801815
000390 0b 1a e5 3d f0 6f 2e 3e e9 d7 72 3d d4 80 6b 3d
       0.11186608 0.17034888 0.05928794 0.057495907
0003a0 3c 0d 13 bd 19 52 eb be 9e b3 f1 3e 2d 19 1a 3e
       -0.035901293 -0.45961073 0.4720735 0.15048666
0003b0 86 55 6f 3e 56 5c ae bd 77 67 3e be 09 7a ba 3d
       0.23372468 -0.085137054 -0.18594156 0.091053076
0003c0 13 89 b5 3e 5a 63 68 be aa 12 8f 3e 23 a7 8c 3e
       0.35456142 -0.2269415 0.27943927 0.27471265
0003d0 23 0c c6 3e 91 f5 ac 3e ac 2e ad 3d 0c 24 a3 3e
       0.38681135 0.33781102 0.084561676 0.3186344
0003e0 38 2e 38 bd 73 40 73 3e 47 03 85 3e 0f 2c 29 3e
       -0.044965953 0.23755054 0.25979063 0.16520713
0003f0 00 d5 d5 bd 8e f6 e4 bd f6 ca d3 bd 70 a4 2a 3d
       -0.10441017 -0.11179839 -0.10341446 0.041660726

L1.bias f4 [44]
000000 0a 8c f2 be f6 ec 31 bf 38 d0 8c bf 68 42 cd be
       -0.47372466 -0.695022 -1.1001043 -0.40089726
000010 b5 b1 69 bf 11 f4 e3 be 89 d0 58 bf c1 06 00 bf
       -0.91286784 -0.44522145 -0.846932 -0.50010306
000020 7d 57 26 bf f4 66 e1 be 71 55 ba be 31 bb 78 bf
       -0.64977247 -0.4402386 -0.36393312 -0.9716063
000030 18 8e 5a bf c7 6c 19 bf 8e 18 8a bf be 3e f2 be
       -0.8537307 -0.59931606 -1.0788743 -0.47313493
000040 25 af c0 be a7 15 9e bd 0a c5 46 bf 9f e6 2d bf
       -0.37633625 -0.077189736 -0.7764441 -0.67930025
000050 92 f7 18 bf 0b a8 3e bf 97 94 0d bf 0f cc a6 be
       -0.5975276 -0.74475163 -0.55304855 -0.3257756
000060 67 43 4d bf c0 ea 54 bf 77 46 21 bf fa ae 1d bf
       -0.8018097 -0.831707 -0.62998146 -0.6159512
000070 bc 0b 21 bf 4c 81 1b bf d1 13 1b bf 58 0f 29 bf
       -0.6290853 -0.60744166 -0.6057711 -0.6603904
000080 91 16 90 3e d4 87 0d bf 5f 9d da be 2d 2e 36 bf
       0.28142217 -0.5528538 -0.4269819 -0.7116421
000090 eb c4 5c bf 4c 66 4e bf e5 1b 6b bf d9 82 10 bf
       -0.8623797 -0.8062484 -0.9183944 -0.5644966
0000a0 4e 39 04 bf 65 eb 7e bf ea 3f 93 bf 7e 6d 69 be
       -0.5164994 -0.99577934 -1.150388 -0.22795674

L2.weight f4 [88, 44]
000000 7f b9 b0 be b6 60 f6 3d 19 e4 9a 3e 0b 08 03 3d
       -0.34516522 0.12030165 0.3025215 0.031990092
000010 e1 30 0d 3f 3a 38 e9 3d 68 09 6a 3d 4d fd ab 3e
       0.5515271 0.113876775 0.057137877 0.3359169
000020 76 4b 55 3c c3 a9 0c be 24 9a be 3b 8f 6e 58 3e
       0.01301848 -0.13736634 0.005816715 0.21135925
000030 30 96 a5 be f2 76 12 be fc 31 95 3e b5 86 c2 be
       -0.32341146 -0.14303187 0.29139698 -0.37993398
000040 ef 70 8d be 99 4f 0d be bc 39 c2 3e 4a 87 70 bd
       -0.27625224 -0.13799895 0.37934673 -0.05872277
000050 fd b3 5c 3d e8 0b d7 bc 58 4f 26 3e 8c a7 aa bd
       0.053882588 -0.026250795 0.16241205 -0.08332738
000060 e5 4f 3b 3e 6c c0 7c 3e bd c6 9b be df 62 21 bf
       0.18292196 0.24682778 -0.30425063 -0.6304149
000070 2f 76 9d bc c8 5b 9e 3e 4b 26 e4 be 56 a0 a5 3c
       -0.019221393 0.309294 -0.44560465 0.020218056
000080 ea 23 4f be cb 90 51 3e 78 11 63 3e 43 05 bc bd
       -0.20228544 0.2046539 0.22174633 -0.09180691
000090 e3 c2 6a 3e cb c0 9a 3e b2 a0 f4 3d dc ed c0 bc
       0.22925906 0.30225214 0.11944713 -0.02355092
0000a0 53 82 af 3a 5c bd 02 3f d6 73 c6 3e f8 f5 12 3e
       0.001339028 0.5107019 0.3876025 0.14351642
0000b0 45 1f e8 bd e7 9d 86 3d f2 fe 86 bb 26 1b 93 be
       -0.11334089 0.06573086 -0.0041197473 -0.2873165
0000c0 2e 41 4b be 1c 12 aa bd 04 10 a9 bc e5 91 61 ba
       -0.19849083 -0.08304235 -0.02063752 -0.0008604809
0000d0 74 8f e1 bd 52 1e b3 3a a3 4f 2c be 54 aa dd bd
       -0.1101369 0.0013665652 -0.16827254 -0.10823503
0000e0 04 1e eb bd 10 f7 19 be 74 de 0d be 08 e1 bd 3b
       -0.114803344 -0.15035653 -0.1385439 0.005794648
0000f0 65 de f8 bc 3e 62 dc bd 79 47 43 3d 0f 69 3c bd
       -0.030379483 -0.10760926 0.047675584 -0.04599863
000100 92 1a 05 bd c9 05 75 be ea 18 b4 be 84 f7 8d be
       -0.032496043 -0.23927988 -0.35175258 -0.27727902
000110 b6 b0 50 3e c6 0e be bd 74 cb b7 3d 04 eb d4 3c
       0.2037991 -0.092801616 0.089743525 0.02599097
000120 ca 8e 2f be 3a 89 ab 3d 3d c3 02 bd 1e 3e 99 bc
       -0.17144313 0.08375783 -0.031924475 -0.018706378
000130 92 4d 78 be fb 23 00 be e3 d0 73 bb cd ae 49 be
       -0.2424834 -0.12513725 -0.0037203364 -0.19695587
000140 d3 d1 6a bd e9 e3 00 3c 7d a7 1a 3e 4b e8 4d be
       -0.05732901 0.007866838 0.15102954 -0.20108144
000150 2b 10 4c be f6 42 3d bd cd 5c 96 3d 9c 5d ed bd
       -0.19928043 -0.046206437 0.07341919 -0.1159012
000160 5f 25 92 bd 6c 09 59 3e 43 a8 ad be fd 02 19 3e
       -0.07136034 0.21195 -0.33917436 0.14942546
000170 dd ea 5f be 6b 12 bd be a1 23 40 3d 9e 71 aa bd
       -0.21866937 -0.36928114 0.04690898 -0.08322452
000180 f1 45 11 bf c8 d3 0e bd f4 f8 dd be 2b 68 00 3e
       -0.5674735 -0.03486994 -0.43354 0.12539737
000190 00 bf 34 3e c6 f1 68 be e1 41 3a 3e 0f 93 cd 3e
       0.17650986 -0.22748479 0.18189193 0.4015126
0001a0 09 95 09 be 7f 74 01 bf 24 99 53 be 7a c5 70 bc
       -0.13435759 -0.50568384 -0.20663887 -0.01469552
0001b0 07 e4 87 3d 7e 44 a1 3d e1 aa cb be be db b8 be
       0.0663529 0.07874392 -0.39778808 -0.3610515
0001c0 42 a0 d9 3c c5 e5 b0 bd 5f 9b 77 be 9f dd 83 3d
       0.026565675 -0.08637575 -0.24180363 0.06438755
0001d0 4c 4d bb 3d bb eb 36 be c4 1f 80 3e fc 6c 48 be
       0.091456026 -0.17863362 0.25024235 -0.19572824
0001e0 47 81 4f be 4c a4 0c bf ca d3 e9 bd 73 85 22 3e
       -0.20264159 -0.549382 -0.11417349 0.1587122
0001f0 31 9c 99 3d 67 a8 5c be 72 2e 4f 3e aa 21 40 bd
       0.07500494 -0.21548615 0.20232561 -0.046907105
000200 b1 7e 82 be d2 95 65 3e ab 97 20 3e cc 7c 82 be
       -0.25487283 0.22420433 0.15682857 -0.25485837
000210 1f 26 59 3d 5f 73 4b be 00 66 83 bd 5f 61 91 bd
       0.05301487 -0.1986823 -0.06415939 -0.0709865
000220 05 ff ae bd d3 1a 4e be 2c ec 08 be 01 74 c6 bd
       -0.08544735 -0.2012742 -0.13371342 -0.09690095
000230 52 17 89 bc 67 44 3e bc 2f 4e 58 be 2b 37 d5 3d
       -0.016734753 -0.011612988 -0.21123575 0.10410913
000240 9c 78 cc bd 6a 5c 71 be 3f 0e 02 3b c6 2e d2 bd
       -0.09983942 -0.2357041 0.0019844917 -0.102628276
000250 c3 73 8a bc bd 38 84 be 08 23 19 bd 4d c0 f4 bd
       -0.016900903 -0.25824538 -0.037386924 -0.11950741
000260 fa d1 6c bd a2 c7 29 be 9d f9 dc bc 46 00 9e 3c
       -0.057817437 -0.1658006 -0.026974494 0.01928724
000270 ec ec be bd 3e 41 35 3d 9c 49 1d bd e5 12 05 bf
       -0.09322533 0.044251673 -0.038400277 -0.51981956
000280 89 4a 2e 3d 11 ac 6f 3d 85 49 0a 3c 3e df 8c bd
       0.04255155 0.058513705 0.00844038 -0.068785176
000290 71 11 8d be bd 76 cd bd f6 10 cb bd 79 d9 13 be
       -0.2755237 -0.10032413 -0.099153444 -0.14438428
0002a0 89 af 5a bd ce 50 5a be 38 0d d5 bd 3d 48 9d bd
       -0.05339006 -0.21319887 -0.10402912 -0.07679794
0002b0 29 25 1e bd cb 39 43 be 4f 7f 5a be ca 09 43 be
       -0.038609657 -0.19065015 -0.21337627 -0.19046703
0002c0 54 35 ee 3e 32 e1 97 be cf 9d f5 3d 46 dc 74 bd
       0.4652506 -0.29663998 0.1199299 -0.05978038
0002d0 72 d8 91 3d 3c c5 23 be fb c4 e1 bc db 5a 99 3e
       0.07121362 -0.15993208 -0.027559748 0.2995213
0002e0 92 ee 32 be 6d f8 00 bf e3 d7 98 bd fc 36 d7 3d
       -0.1747382 -0.5037907 -0.07463052 0.10508534
0002f0 7b 2e e7 be 26 d5 e4 3d 1a 2f e4 3d 2f 29 bb 3e
       -0.4515265 0.11173467 0.111417964 0.36554858
000300 f3 40 e0 bc aa aa fb 3e 45 32 a6 3e 99 21 24 3e
       -0.02737472 0.49153644 0.32460228 0.16028441
000310 41 96 ea bd 39 0e d9 bd c3 b9 90 be 3c 71 65 3c
       -0.1145444 -0.10598416 -0.28266725 0.014004048
000320 f6 97 18 3f 41 01 69 be 4d a2 10 3d 1d 85 15 bd
       0.59606874 -0.22754385 0.035311032 -0.0365039
000330 18 8b d7 3d b3 ff 24 bf 02 0a 09 bf e3 55 68 3e
       0.10524577 -0.64452666 -0.53530896 0.22689013
000340 69 8c 75 3d d3 48 03 be 1d b6 d1 bd ba 89 3e 3e
       0.05994836 -0.12820749 -0.102398135 0.18607226
000350 4e 9d 3a be 5b 2a 84 3d bd 69 1d 3e a5 1f 32 bd
       -0.1822407 0.06453391 0.15372367 -0.04348721
000360 34 cb 51 be 8a ae 33 3b 6d 27 6b bd b7 3f eb be
       -0.20487672 0.0027417266 -0.057410646 -0.45947048
000370 23 74 32 be a0 40 2e be dc 66 05 3e e6 72 dd 3a
       -0.17427115 -0.1701684 0.13027519 0.0016895204
000380 1f 19 1e 3e 2d 1c 30 3e 52 f9 b3 bd d2 d9 3e bd
       0.1543927 0.17198248 -0.087877885 -0.04659445
000390 16 6c 08 be d4 05 16 be 11 8f 2a be 81 86 ae 3d
       -0.13322482 -0.14650661 -0.16656138 0.08521748
0003a0 ba c7 ea 3b 39 a9 98 bd 70 ea 5c be 7a 51 57 be
       0.0071649225 -0.07454152 -0.21573806 -0.21027175
0003b0 6f 97 95 be 4d 50 67 bd f4 9b 3e 3d 4d 48 6c bd
       -0.29217097 -0.056473065 0.046535447 -0.05768614
0003c0 ea ce 13 be 6e bc e8 3c 60 3f 31 be c6 15 b6 3d
       -0.144344 0.028410163 -0.17309332 0.08890872
0003d0 dc a6 56 be 25 83 35 be fd d6 18 be 67 5a b1 bd
       -0.2096209 -0.17725809 -0.14925762 -0.08659821
0003e0 c5 e3 c9 3d 8a 90 d3 3d 15 db 8e be 70 a4 50 be
       0.09857897 0.10330303 -0.2790152 -0.20375228
0003f0 b9 7f 4b be 87 88 c1 bd 98 4e 2f be 12 3f 9a bd
       -0.19872941 -0.09449869 -0.17119825 -0.07531561

L2.bias f4 [88]
000000 df 2f 0a bf 20 2e 15 be 92 98 13 bf 41 f0 c3 3c
       -0.53979295 -0.14568377 -0.5765468 0.023918273
000010 58 4a 8b bc 62 95 20 3d 55 11 84 be b4 e7 81 be
       -0.017003223 0.039204963 -0.25794473 -0.25372088
000020 f4 48 59 be 0d cf 4f be 48 31 30 bc af 7a 4a be
       -0.21219236 -0.20293827 -0.010753937 -0.19773363
000030 78 c4 af be c7 f5 ff be 60 da 2b 3e b2 64 8f be
       -0.3432958 -0.499922 0.16782522 -0.28006512
000040 a7 96 00 bf 75 7a aa be 4f e0 75 be 13 c7 c8 be
       -0.5022988 -0.33296552 -0.24011348 -0.39214382
000050 3d 0c 14 be 1c 9f bf be 62 e2 d0 be c5 b0 9d bd
       -0.14457794 -0.37426078 -0.40797716 -0.07699732
000060 b5 d9 26 bf 28 83 26 be 79 1b a4 be ac 8a 26 be
       -0.65175945 -0.1626097 -0.3205221 -0.16263837
000070 fa 8a 11 3e 58 cb 82 be 82 fa 8c be 23 33 17 be
       0.14213172 -0.25545764 -0.27534872 -0.14765601
000080 8f da 61 bd 9e a9 cd be 40 f4 ee be 3b 1c c7 3e
       -0.055140074 -0.4016847 -0.46670723 0.38888726
000090 67 4a 30 be 9e e9 33 bb d5 59 37 be 45 58 26 be
       -0.17215882 -0.002745248 -0.17905362 -0.1624461
0000a0 3e 7c d8 bc 0b 96 3c bf a4 4b a7 bd ca 77 04 bf
       -0.02642643 -0.7366645 -0.08168724 -0.51745284
0000b0 06 fa 93 be fe a4 a7 bc fb 49 2c be 1e d0 8f bd
       -0.2890169 -0.020464417 -0.16825096 -0.07022117
0000c0 ee 4f 08 be a5 bf d8 3d 12 13 be bd a6 87 ee be
       -0.13311741 0.10583428 -0.09280981 -0.46587867
0000d0 7b a3 c9 be df 09 dd be a2 39 e2 be ea a5 2d 3e
       -0.39382538 -0.43171594 -0.44184595 0.16957822
0000e0 d7 45 ff be 27 19 90 be 70 fb 99 bd 5b ec 46 be
       -0.4985797 -0.2814419 -0.07518661 -0.194261
0000f0 71 e4 b2 bd 86 56 32 bd 3c c4 a0 3d 65 63 e7 bd
       -0.08734978 -0.043539546 0.07849929 -0.11298255
000100 be 5d 6d be 8f d5 49 be 19 51 3c be 2a 99 d4 be
       -0.23180291 -0.19710372 -0.18390311 -0.41523105
000110 fc fa 20 be 1f 3a 8a be 02 f2 6b bd 0f dc 05 3e
       -0.15720743 -0.26997468 -0.057603844 0.13072227
000120 c2 ce 22 be 3b a8 89 be c3 6b 97 bd 8c 71 37 be
       -0.15899184 -0.26886162 -0.07393601 -0.17914408
000130 87 67 03 be c1 6b 19 be ca 23 1e be 3a 32 5f be
       -0.12832461 -0.14982511 -0.1544334 -0.21796504
000140 05 d7 ff bc ac b6 3c bd d5 73 b5 bc c0 d5 70 be
       -0.031230459 -0.046072647 -0.02214996 -0.23519039
000150 9e 48 80 be a0 da 15 bf 5d 72 67 3e 61 5d b5 be
       -0.25055403 -0.5853672 0.2260222 -0.35422805

L3.weight f4 [176, 88]
000000 c9 0e 6f bc 1e 0b 00 3e d5 fe 1d 3f 83 4f 4c 3e
       -0.014590927 0.12504241 0.6171697 0.19952206
000010 17 15 43 be fc 20 af bc e9 96 14 3f ee 81 19 3f
       -0.19051014 -0.021378033 0.5804277 0.5996388
000020 61 81 ec 3d 02 10 e6 3d 6e 7b 2f 3d 89 f2 e0 bd
       0.115481146 0.11233522 0.04284232 -0.1098376
000030 02 d5 ae 3c d6 9e 3d 3e a5 6b 01 bf 7a 6e eb bd
       0.021341804 0.18517622 -0.5055488 -0.11495681
000040 e9 9c 49 be e9 83 34 be fc 95 b6 3e 09 ec 17 3e
       -0.19688763 -0.17628445 0.35661304 0.14836134
000050 34 37 aa 3e e9 72 90 3e 32 69 8f be 7a 8a 81 3e
       0.33245242 0.2821267 -0.28009945 0.25300962
000060 be 0e 45 be f4 9a 0a 3e 06 b1 ba 3d 77 84 96 3e
       -0.19243905 0.13535672 0.09115796 0.29397938
000070 82 b4 c8 be 4b d0 86 bc a1 d6 49 3f d8 86 cf 3e
       -0.39200217 -0.016456744 0.7884312 0.40532565
000080 ad cc 8a 3e 21 f5 a3 3d 53 49 4f 3e 5a 4c b9 be
       0.2710928 0.08005739 0.20242815 -0.36191064
000090 b4 84 71 be a6 f7 a5 be 53 29 18 3f 98 5a 7d bb
       -0.23585778 -0.32415503 0.59438056 -0.0038658734
0000a0 18 ec 50 3d 85 6c 3f 3b 75 99 c6 3e d9 e3 bd bd
       0.051006407 0.002920897 0.38788953 -0.09271974
0000b0 00 5c 9c bd 16 9f 94 3e dd 02 1e bd 0d 3d ba 3e
       -0.07634735 0.29027623 -0.03857695 0.36374703
0000c0 b1 56 81 be 11 20 6a be 56 74 93 be 01 45 36 3e
       -0.25261453 -0.22863795 -0.28799695 0.1779976
0000d0 76 a2 c4 be fc d7 43 3d 35 14 0d 3c 39 83 90 3d
       -0.38405198 0.0478134 0.008610775 0.07056279
0000e0 a3 b8 15 3f b4 ff c6 3e 28 b9 cf 3c 0a 26 29 3b
       0.5848486 0.3886696 0.025356844 0.0025810027
0000f0 9f 96 e4 bd 82 96 66 3e 1c 7a e0 be 84 c1 c9 3c
       -0.11161541 0.22518352 -0.43843162 0.024628408
000100 16 7e 21 3f 0f a9 30 3e 5c 2d 9e bd 10 2c 3f be
       0.63083017 0.1725199 -0.07723495 -0.18669152
000110 e4 f8 2d be 79 10 08 be 78 da 5d 3e af d2 08 be
       -0.16989475 -0.13287534 0.2166537 -0.1336162
000120 4c 94 af 3e 5c 68 d5 3e b4 28 95 3e 51 7a 72 be
       0.3429283 0.41681182 0.29132617 -0.23679473
000130 d7 52 32 3e df a7 2f bf 4e a4 e1 bd f1 bd 97 3e
       0.17414413 -0.68615526 -0.11017667 0.296371
000140 a3 94 9f be c8 58 01 bf 48 ee 4a 3d 14 bf 85 3b
       -0.31168088 -0.50526094 0.04954365 0.004081616
000150 97 11 c9 3e e1 e7 61 3f dd 49 dc bd 3f 03 a1 bd
       0.39271232 0.88244444 -0.10756276 -0.07861947
000160 00 51 01 be 3b 03 db 3e 1b 64 f2 bd ba 04 c2 bd
       -0.12628555 0.42775902 -0.118355 -0.09473558
000170 74 1f c9 3e 92 54 af 3b 36 c0 aa bd 5b 26 f7 3d
       0.3928181 0.0053506577 -0.083374426 0.120678626
000180 d9 e4 f3 3d 41 58 00 bd 4f 61 28 be 5b e0 7b 3d
       0.119088836 -0.031334165 -0.1644337 0.06149326
000190 73 67 1d be c8 2c f6 3e 1c b7 51 3e 02 d1 d6 3b
       -0.15371494 0.4808104 0.20480007 0.0065556774
0001a0 41 63 1c 3e 8d 37 5a be 54 e6 61 3d f1 55 a5 bc
       0.15272237 -0.21310253 0.0551513 -0.020182582
0001b0 42 69 46 3d 72 62 0b bd 90 1e 17 3d 4f eb 78 3e
       0.048440225 -0.03402943 0.03689438 0.24308513
0001c0 53 6a 2c 3e 62 68 8d 3e e4 f0 18 be 18 32 7d 3d
       0.16837434 0.276187 -0.14935642 0.06181535
0001d0 69 ea a6 bd a5 8f 85 3e 38 ea 50 3e c0 8f 8b 3d
       -0.08150179 0.26086155 0.20401847 0.068145275
0001e0 29 c7 46 bd 56 56 d9 3d 70 50 ae bc da 79 91 3d
       -0.048529778 0.106121704 -0.02127859 0.071033195
0001f0 2d e0 17 bf 4c 89 ce bc 5c 9c 21 3d f7 8e 25 3a
       -0.5932644 -0.025211953 0.039455757 0.0006315554
000200 7d 6c 95 3d ac 99 97 be 5b 65 a0 bc 62 98 40 bd
       0.07296083 -0.2960943 -0.01957958 -0.047020324
000210 04 12 3c be db b1 1e be c5 10 d1 bd 87 a3 79 be
       -0.18366247 -0.15497534 -0.10208277 -0.24378787
000220 1e c3 f5 3e 63 e2 2e be 50 92 f8 be 2f 2a b9 bc
       0.48000425 -0.17078547 -0.48549128 -0.022603123
000230 42 19 df be 62 61 0b bd d5 b2 a6 3e 04 8d 9f 3d
       -0.43573958 -0.03402842 0.32558313 0.077905685
000240 d6 f3 fc 3c d0 c7 77 bd 0b 7a 23 3e 72 1a e0 3d
       0.030877989 -0.06049329 0.15964524 0.10942544
000250 6d 24 e1 be eb 6b cd 3d ef 82 05 bd bf 0f 96 bc
       -0.43973103 0.10030349 -0.03259557 -0.018318055
000260 32 5d 13 3d fd 54 8c bd 79 7b 15 be b2 76 4b bd
       0.03597755 -0.06852148 -0.14597882 -0.049673744
000270 fd 7e 4e bd 62 e7 b3 bd f5 5b d7 3b 7f 98 2c be
       -0.050414074 -0.08784367 0.0065722414 -0.16855048
000280 3e 34 6c 3d 7e 71 3f 3e fb c0 1f 3e ed 43 91 3d
       0.05766701 0.18695638 0.1560096 0.07093034
000290 52 71 94 be a6 30 ae be 01 cf 3e bd b8 7f 0e 3d
       -0.28992707 -0.3402149 -0.046584133 0.03478977
0002a0 28 cd 0e 3e 8a ce 7d be e4 d6 0b be 97 df 6b 3c
       0.13945448 -0.2478582 -0.13656193 0.01439657
0002b0 cd 1f 93 3d 9f cc 6a bb 6d c1 22 bf 15 5d cc 3d
       0.071838 -0.003582753 -0.63576394 0.099786915
0002c0 98 d0 91 bc 2b 5f 3c 3e a8 ee 84 3d a9 06 e0 3d
       -0.01779966 0.18395679 0.064908326 0.1093877
0002d0 58 ae 6f be e2 26 c7 3c 0b 35 71 bd da d3 96 bd
       -0.2340635 0.024310533 -0.058888476 -0.07364626
0002e0 07 9e c2 3d e9 38 2b be 87 b7 d1 3d 28 50 13 bd
       0.095027976 -0.16720928 0.10240083 -0.035965115
0002f0 69 29 ab 3d b6 b3 27 3e c9 f9 5d be 4e fe 0a be
       0.08357508 0.16377148 -0.21677317 -0.13573572
000300 59 26 21 bd 60 88 f7 3d 63 6b fe 3d 7d 75 c8 bd
       -0.03934321 0.12086558 0.12422826 -0.09788034
000310 8b a8 a0 3d 16 ce 4d 3e 4b bd 87 be 65 29 90 3d
       0.07844647 0.20098147 -0.26511607 0.070391454
000320 ed 2c 99 3e ec 85 55 bc 86 91 10 be 75 fc 9b 3e
       0.29917088 -0.013032418 -0.14118013 0.30466047
000330 d9 38 d1 bd 05 6e df bd ad 6e ee 3d b1 1f b5 bd
       -0.10215921 -0.109096564 0.116422035 -0.08843935
000340 aa 5f 39 be 25 e9 b3 3d 57 ff 22 bd bf 8e 46 3c
       -0.18102899 0.08784703 -0.039794292 0.012118994
000350 d8 f5 5c 3d 3e b8 44 be 37 a6 88 3d 6f 9c c0 bd
       0.053945392 -0.19210908 0.06672328 -0.09404837
000360 08 2d 2a bc a1 58 26 bd 02 35 a3 3c e9 95 d9 3d
       -0.010386713 -0.040611867 0.019922737 0.10624296
000370 80 9a 2c be 45 39 3d 3e 9f 8f 91 be 56 1b fb be
       -0.16855812 0.18478878 -0.28429887 -0.49044293
000380 1a fa ea 3c 65 9e 97 bd 69 3d 29 be 70 96 ca 3c
       0.02868371 -0.07403258 -0.16527332 0.024729937
000390 08 1f 6c 3e c0 af 0f 3e e1 50 05 3e 31 6c 7f bd
       0.23058712 0.14031887 0.13019134 -0.06235904
0003a0 c9 3c 53 3e fd fc f7 3c 94 34 c2 3d 62 30 a5 3c
       0.20628656 0.030272001 0.09482685 0.020164672
0003b0 91 b4 31 be 62 d6 1a bd 28 2d 83 bd 02 da d7 bc
       -0.17354037 -0.037802108 -0.06405097 -0.026349071
0003c0 d8 bd 62 3e 2c 90 83 3c 2c 05 a3 3d 5d 82 25 3d
       0.22142732 0.016059957 0.07959971 0.040407527
0003d0 f7 42 b3 be d7 bd 3f be ee 2b a1 bd e8 d4 bc bd
       -0.35012028 -0.18724762 -0.07869707 -0.09220296
0003e0 de 66 8d 3e 9c 78 7c 3d 9f 6c 91 3e 7f 7b 7c 3e
       0.27617544 0.06163846 0.28403184 0.24656485
0003f0 cb 1a d9 bd cf 61 3c 3e 46 60 c3 bd b5 d9 70 bc
       -0.106008135 0.18396686 -0.09539847 -0.014700343

L3.bias f4 [176]
000000 ef 3b 08 bf 92 72 80 be 61 97 ba be 46 08 2b bf
       -0.5321645 -0.2508741 -0.36443618 -0.668095
000010 4a 07 a9 be a1 eb 1c bf 15 3d b6 be c3 dc 6b be
       -0.33013374 -0.6129704 -0.35593477 -0.23033433
000020 e2 d3 8d be 9a d2 4d be eb 02 06 bf eb 29 a0 be
       -0.27700716 -0.2009987 -0.523482 -0.3128198
000030 83 36 10 bf 78 fd f8 be a1 f7 ae be 8d 92 4d bf
       -0.5633318 -0.4863088 -0.341733 -0.80301744
000040 67 e7 0b be e1 be d1 be 7a a1 2e bf 76 99 f4 be
       -0.13662492 -0.40965942 -0.68215144 -0.4777333
000050 a3 30 4c bf ae 4d 24 bf f8 69 ce be e4 29 7f be
       -0.79761714 -0.6418103 -0.40315223 -0.24918324
000060 e4 3d 47 bf 37 84 b0 be c5 a7 3f bf 4d 26 d3 be
       -0.7782881 -0.34475872 -0.7486537 -0.4124016
000070 33 4f d3 be 28 7d e1 be 70 78 05 bf 37 c1 24 bf
       -0.41271362 -0.440408 -0.521369 -0.6435732
000080 e0 45 d9 be 30 43 d2 be 1a 30 ce be 5f 53 ef be
       -0.42436123 -0.41066885 -0.40271074 -0.46743295
000090 84 21 3b be b2 3b b9 be 68 bd ad bd 91 62 ac be
       -0.18274504 -0.36178356 -0.08483392 -0.3366895
0000a0 e4 01 c2 be 2b b7 96 be 90 dd 55 bf 8f b7 94 be
       -0.37892067 -0.2943662 -0.835412 -0.29046294
0000b0 a4 98 33 be f2 d1 24 bf d8 67 23 bf a3 a7 4b be
       -0.17538697 -0.6438285 -0.6383033 -0.19888167
0000c0 4f a8 d4 be 7d 0b 2e be d6 d8 e8 bd f9 81 c9 be
       -0.4153466 -0.1699657 -0.11369483 -0.39356974
0000d0 78 09 0f bf bc 71 cd be 40 12 b0 be de b5 d1 be
       -0.55873823 -0.40125835 -0.34388924 -0.40959066
0000e0 26 37 c4 be 42 e6 21 be 3c 13 c1 be 5f 49 1c be
       -0.38323325 -0.15810493 -0.37709987 -0.15262364
0000f0 48 31 37 be c0 aa fd be 79 af 9e be 35 04 e8 be
       -0.17889893 -0.49544334 -0.3099325 -0.4531571
000100 63 5d b7 be 99 65 5c be 33 05 1b bf 4f e6 fc be
       -0.35813436 -0.21523131 -0.6055481 -0.49394462
000110 7e 9e 37 bd 40 8b 0c be 23 0f 27 bf 5a 95 eb be
       -0.044828884 -0.13724995 -0.6525747 -0.46012384
000120 64 ce 85 be 40 04 18 bf 07 93 e5 be ed 0b 3f be
       -0.26134026 -0.59381485 -0.44838735 -0.18656893
000130 12 a8 81 be 07 6c a3 be 91 95 b7 3b 58 d8 1a 3c
       -0.2532354 -0.31918356 0.0056025465 0.009450994
000140 dc e5 97 be 70 29 26 3e 53 0c 6f be d6 f3 fe be
       -0.29667556 0.16226745 -0.23344545 -0.49795407
000150 98 2a 0f bf 22 32 ed be a5 8a 9c be 45 92 db be
       -0.5592437 -0.4632731 -0.30574527 -0.42885032
000160 b5 4f ca be 32 af 0a bf a0 71 a7 be 16 de 3a be
       -0.39513937 -0.54173577 -0.32703876 -0.18248782
000170 c6 48 a1 be 7a fa 94 be 54 10 c8 bd ab fd c8 be
       -0.31500834 -0.29097348 -0.09768739 -0.39256033
000180 99 b3 bb be 3d 9f 11 bf b4 d0 66 3d 5a 04 23 bf
       -0.3666046 -0.56883603 0.05635138 -0.63678515
000190 b3 9b 47 be 0e 4a bf be 68 32 d0 be 2a f8 69 be
       -0.19492988 -0.37361187 -0.40663457 -0.22848573
0001a0 be 78 ed be 67 95 33 bf 8c 4a 1e be 88 8c 83 bd
       -0.4638118 -0.70149845 -0.15458125 -0.064232886
0001b0 f2 8e 34 bf c0 4e 68 be db eb 96 be 6e 17 81 be
       -0.7053062 -0.2268629 -0.29476818 -0.25213188
0001c0 a5 3a a5 be 49 a3 aa be f5 49 ec be 9c 72 a0 be
       -0.32271305 -0.33327702 -0.46150175 -0.3133744
0001d0 33 41 90 be e2 22 df be 8c 36 35 bf 59 eb 64 be
       -0.28174743 -0.435813 -0.70786357 -0.22355403
0001e0 d2 c9 0b bf 96 fe 29 bf b1 bf 8b be 55 90 a0 be
       -0.5460483 -0.6640409 -0.27294686 -0.31360117
0001f0 18 95 1b bf d1 7a 5d be cc b8 c3 be 51 f4 ad be
       -0.60774374 -0.21628882 -0.38226926 -0.3397546
000200 c3 84 ae be 9f f4 56 be 74 75 3f be f5 2d 0f bf
       -0.34085664 -0.20991753 -0.18697149 -0.559295
000210 de 31 f0 be dd 05 09 bf 6d 84 9c be c4 49 28 bf
       -0.46913046 -0.5352457 -0.30569783 -0.6573756
000220 69 f9 8b bd 4b 97 05 bf 55 bf ad be 09 ee e1 be
       -0.068346806 -0.5218398 -0.33935037 -0.4412692
000230 cc 1a 17 be be 00 df be ba aa 0e be 66 ff 94 be
       -0.14756316 -0.43555254 -0.13932315 -0.29101104
000240 60 27 03 bf 8e 32 cf be d9 c3 87 be 93 1f d2 be
       -0.51231956 -0.40468258 -0.26516607 -0.41039714
000250 d1 81 a7 be 13 ad f0 be 66 98 0f bf 7d 24 ad be
       -0.3271623 -0.47007045 -0.56091917 -0.338169
000260 af 66 83 bd 70 7f 09 bf b0 a6 e7 be 03 c4 d0 be
       -0.0641607 -0.5371008 -0.4524436 -0.40774545
000270 65 3b 63 bf 94 1c 74 be 85 26 4b bf 24 4a a3 be
       -0.88762504 -0.23839027 -0.7935565 -0.31892502
000280 c0 64 ef be 0e 69 ea be 94 35 b3 be 79 d9 e9 bd
       -0.46756554 -0.45783275 -0.35001814 -0.11418433
000290 93 4c fc bd 6a 67 9f be a9 6c cf be 71 54 b3 be
       -0.12319293 -0.31133586 -0.4051259 -0.3502536
0002a0 d3 b4 98 be b2 af ba bd 0d 76 b7 be 44 98 33 be
       -0.29825458 -0.091155425 -0.35832253 -0.17538553
0002b0 a1 08 a8 be 42 e4 39 be dd 07 ea be 7e 10 13 bd
       -0.32819083 -0.1815348 -0.45709124 -0.0359044

L4.weight f4 [88, 176]
000000 1a 8d f3 bd 06 4d 3a 3d 52 48 97 3c a0 e7 04 be
       -0.11892147 0.04548361 0.018467102 -0.12978983
000010 d4 d8 ac be 70 8d e8 bd 30 48 2e 3e 9b 76 3a bd
       -0.33759177 -0.11355102 0.17019725 -0.045523267
000020 c4 6d 43 bd f3 2c 67 be 60 68 8c 3e 55 6f d6 3c
       -0.047712103 -0.2257574 0.27423382 0.026176134
000030 da cf 6a bd 0c 6a f8 bd d7 9d 52 bd 93 55 4e be
       -0.05732713 -0.12129602 -0.05142006 -0.20149831
000040 e1 50 f9 bb 7b f6 45 be bf 80 8f be ec 0e c5 bd
       -0.0076085185 -0.19332306 -0.28027913 -0.09621987
000050 28 52 b0 be 0b d1 7e 3e d6 e0 44 be cc 45 37 3e
       -0.3443768 0.24884431 -0.19226393 0.17897719
000060 93 72 ec bd 56 3d 82 bc c6 d7 06 bd 00 83 d3 be
       -0.11545291 -0.015898388 -0.03292062 -0.41310883
000070 1f d2 7f bd b9 60 88 be 07 84 17 3e 8d be ec 3e
       -0.062456246 -0.26636294 0.14796458 0.4623913
000080 17 de b6 bd af 38 0d 3e a3 25 61 be f7 ef 68 3e
       -0.08929079 0.13791154 -0.21987014 0.2274779
000090 78 46 d9 3d ad 7d 8f 3d 78 3c ae bd 63 97 d2 bb
       0.10609144 0.07006393 -0.08507627 -0.006426738
0000a0 21 12 24 be 9e db 79 bc 49 78 c8 bc 21 c0 2b be
       -0.1602254 -0.015250115 -0.024471419 -0.1677251
0000b0 38 0b 97 be 8d 37 76 3e 28 ad a0 bd 04 ea 83 be
       -0.29500747 0.24044628 -0.07845527 -0.25764477
0000c0 82 99 c9 3d fc f0 c4 3d d3 d1 8e bd 4c 07 87 3e
       0.098437324 0.096162766 -0.069736145 0.26372755
0000d0 a0 97 a8 be bf 61 d7 be 99 2c 2b be 57 0a 38 bd
       -0.3292818 -0.42066762 -0.16716231 -0.044931736
0000e0 b7 df b4 be 18 ee 56 be 2e ad e3 3d f9 f1 d3 bd
       -0.3532693 -0.20989263 0.11117016 -0.10348887
0000f0 c9 ef 8d be d9 3e c1 be 9a 1d 63 be 1b f9 de bd
       -0.27722004 -0.3774326 -0.22179261 -0.10887357
000100 e2 a8 a1 3d 05 fb 5a be e8 37 9e bc d7 40 bd be
       0.0789354 -0.21384819 -0.019313768 -0.3696353
000110 4f a9 fe 3b 16 a9 74 bd dd 69 8d bc ae c8 b0 3c
       0.007771648 -0.059731565 -0.017262394 0.021580067
000120 6f c5 f1 bd 0f 23 31 be 6d 89 f1 bd e7 a8 c7 bd
       -0.118052356 -0.1729853 -0.1179379 -0.097490124
000130 ca d2 bc bd 2e 35 e5 be f6 b4 48 be 68 4f 45 3e
       -0.09219892 -0.44767135 -0.19600281 0.19268572
000140 7b b9 e9 bd 29 e0 d3 be 76 7b 40 be 86 c0 a3 3c
       -0.11412331 -0.41381958 -0.18797097 0.019989263
000150 e7 fa 63 bd e7 29 8a 3b 00 56 3f bd 20 75 da bd
       -0.0556592 0.004216421 -0.046712875 -0.10666871
000160 12 06 e1 be 79 a7 7e be e6 f3 c6 be b7 23 c4 be
       -0.43949944 -0.24868573 -0.38857955 -0.38308498
000170 13 43 1b be b0 65 d5 3c 0f 11 a2 be 03 69 2b be
       -0.15162306 0.026049465 -0.3165364 -0.16739278
000180 9a 3a 9c bb d3 ac 52 bd 34 75 cf bd e5 50 0b be
       -0.004767728 -0.05143435 -0.101297766 -0.13605078
000190 db 95 0e be 9e 4b 2b 3e 86 2f 6b 3d 22 45 b9 be
       -0.13924353 0.16728064 0.05741837 -0.36185557
0001a0 2d e5 87 bd ff 86 35 be d2 4d ff be e5 06 73 bd
       -0.06635509 -0.17727278 -0.4986406 -0.059332747
0001b0 bc f6 9d 3d e9 7c 22 3e a1 b0 2d bd 0a bf c6 bd
       0.077130765 0.15867962 -0.042404775 -0.097044066
0001c0 af d0 b9 be 85 6e 85 bd db bd 74 3d c4 e8 1a 3e
       -0.36292025 -0.065152206 0.059751373 0.15127856
0001d0 58 ee 1f bf a7 35 04 be 40 6f a2 3c 42 67 98 be
       -0.6247306 -0.12911092 0.019828439 -0.2976628
0001e0 49 17 38 3f ab 4a ae 3e fa 55 d5 3d fb c3 e5 3d
       0.7191053 0.34041342 0.10416789 0.11219021
0001f0 97 f0 88 be b0 17 a1 be 4b 1b 22 3d f1 a9 9c bb
       -0.26746055 -0.31463385 0.03957681 -0.004781001
000200 0e 94 17 3d 76 0b d3 be 20 0e 17 be 6f 35 c3 3d
       0.03700643 -0.41219682 -0.14751482 0.09531676
000210 53 97 27 3e 0e 6c c3 3c fe 21 9e be d9 ee 9d be
       0.1636632 0.023855235 -0.3088531 -0.3084629
000220 6d a0 08 be 29 f3 22 3e 1d 87 31 be 90 b8 18 be
       -0.13342448 0.1591307 -0.17336698 -0.14914155
000230 00 69 de bd 32 f1 91 be 75 93 b9 be 6b 62 1d be
       -0.10859871 -0.2850433 -0.36245313 -0.15369575
000240 82 9d 17 3e 98 c8 b3 be 44 ee 62 bc 7b b9 c5 be
       0.14806178 -0.35113978 -0.013850752 -0.38618073
000250 d8 2e 04 be 98 b4 6c 3e f2 37 8e 3d 26 ff 61 be
       -0.12908494 0.23115766 0.069442645 -0.22069988
000260 3e 06 64 be 6d 11 ff bd 09 f9 fa bd bb 2d 99 bd
       -0.22268006 -0.124544956 -0.12254531 -0.074794255
000270 b8 4a 7d be 9b 21 96 bd 43 f3 c8 bd 34 36 97 be
       -0.24735534 -0.073306285 -0.098120235 -0.2953354
000280 91 ea 20 be 51 3b 59 be 11 05 e9 bd 84 16 19 bc
       -0.1571448 -0.21214034 -0.113779195 -0.009343747
000290 a2 d3 2f be 98 41 85 bd 9a bd be 3c cc 5a 8a be
       -0.17170575 -0.06506652 0.023283768 -0.27022398
0002a0 e8 dc be 3d c6 ba 36 be 56 e6 8b be af 83 15 3e
       0.09319478 -0.17844686 -0.2732417 0.14601015
0002b0 40 55 32 be 3e 27 3f be 0c d8 29 3e f3 53 54 be
       -0.17415333 -0.18667313 0.16586322 -0.20735149
0002c0 78 04 da 3d db 19 9e bc a7 a5 a1 bc 73 b8 41 be
       0.106453836 -0.019299438 -0.01973231 -0.18918018
0002d0 42 4c fa bd 63 a3 48 be 74 a2 0b be 98 a7 bf 3c
       -0.12221576 -0.19593577 -0.1363619 0.023395345
0002e0 61 57 88 be bc 00 0f be 68 fe 3a 3e 50 ae 1c 3e
       -0.26629165 -0.13965124 0.18261111 0.1530087
0002f0 12 60 13 bd 61 68 ed bc 27 e5 88 bc f0 6e 45 3e
       -0.03598029 -0.028980436 -0.01671083 0.192806
000300 e7 94 68 be 5b 28 bf bd 63 3b 89 3c 8a 5d 13 be
       -0.22713052 -0.09333869 0.01675195 -0.14391151
000310 d4 31 8f bd 04 24 64 3d 13 97 51 bd 34 f9 6b 3d
       -0.06991926 0.05569841 -0.051169466 0.057610705
000320 5b a2 64 bd 90 75 aa bd 70 f0 cb bd 49 73 e1 bd
       -0.055818897 -0.083232045 -0.09957969 -0.11008317
000330 4b e6 11 be 35 23 80 bc 61 31 a0 bd f1 97 8d 3e
       -0.14248006 -0.015641788 -0.07821918 0.27654985
000340 f1 15 b8 bd 3c 83 b6 3c ca 39 e7 bd 5f 2b 51 be
       -0.0898856 0.022279374 -0.11290319 -0.20426701
000350 93 25 c2 bd 0b b5 eb 3e 8a 20 d8 bd 47 e3 c6 bb
       -0.09479823 0.46036562 -0.10553081 -0.006069574
000360 1b 45 ba bd 64 c4 35 be 8f fa 0c be 40 d0 47 be
       -0.09095212 -0.17750698 -0.13767456 -0.19513035
000370 3a f2 89 3d 6e 31 d5 bd 01 71 31 be 49 89 6f be
       0.06735654 -0.104098186 -0.17328264 -0.23392214
000380 0d dc 8a 3b 41 7a 05 bd aa 77 73 3c 97 2e 38 bd
       0.004237658 -0.032587294 0.014860073 -0.044966307
000390 f9 82 23 bd df 40 91 bd 7c a2 2c be d4 99 e3 3d
       -0.039919827 -0.07092451 -0.16858858 0.11113325
0003a0 ce 2a e1 bd 67 f4 5c be dc 0d a6 be 11 7d 8c 3c
       -0.109944925 -0.21577607 -0.3243245 0.01714948
0003b0 83 1a 4f be ca 9e 8b bd b5 b6 3b be 8e e8 01 be
       -0.20224957 -0.06817396 -0.18331416 -0.12686369
0003c0 14 96 95 bc fe dd 37 3d 24 9d 1c 3e bc 54 bb bd
       -0.01826004 0.044889443 0.1529432 -0.09147021
0003d0 57 21 f4 bd d3 4c 10 be 4b 44 1d 3e 91 33 bc 3e
       -0.119204216 -0.14091806 0.15358083 0.36758092
0003e0 8f f8 1b 3d dd 67 aa 3d a4 06 12 be b8 a3 17 be
       0.03807884 0.083205916 -0.14260346 -0.14808547
0003f0 0b 30 4d be 66 38 f3 bd 6e 47 71 be 07 62 5b be
       -0.20037858 -0.118759915 -0.23562405 -0.21424113

L4.bias f4 [88]
000000 08 b3 90 be 41 74 5b be d4 18 57 be 51 24 35 be
       -0.2826159 -0.21431066 -0.21005565 -0.17689635
000010 e1 c2 97 be 46 2e 24 bf c8 62 00 3e 19 e1 82 bd
       -0.29640868 -0.6413311 0.12537682 -0.0639059
000020 ce 87 1c 3e e7 25 8a be 1a 4b 70 be 22 b0 84 3d
       0.1528618 -0.26982042 -0.23466149 0.06478907
000030 7f 2c 40 3e b0 c8 6d be 02 d3 56 be 5c 7f 0b bf
       0.18766974 -0.23221087 -0.2097893 -0.5449121
000040 92 f0 fc bd 4c c0 b8 be 65 d6 93 be 5f 78 ba be
       -0.12350573 -0.3608421 -0.28874508 -0.3641996
000050 53 a3 a4 be 1a fc 54 be 0b 2c 55 be 1e b2 bd 3d
       -0.32155856 -0.20799294 -0.20817582 0.09262489
000060 eb a8 06 bf 5d 39 f1 bd 78 35 e9 39 18 45 12 bf
       -0.526015 -0.11778519 0.0004448106 -0.5713668
000070 f4 8d 1f bd 50 78 e7 be a2 60 45 be f8 bb df bd
       -0.038953736 -0.4520898 -0.19275144 -0.10924524
000080 b0 52 2f be b5 d9 0e bf 59 c3 bc bd 42 50 cb be
       -0.17121387 -0.55800945 -0.09216947 -0.3970967
000090 1b ed 6f be 93 42 25 be 95 ea b0 be 12 c4 12 bf
       -0.23430292 -0.16138677 -0.34553972 -0.5733043
0000a0 ee 80 ca be 8e 08 c0 bd c8 db 95 be a9 b2 91 be
       -0.3955149 -0.09376632 -0.29269242 -0.2845662
0000b0 4c 3d 3d 3e 09 13 b6 bd 42 2d c7 be 15 70 c3 be
       0.18480414 -0.088903494 -0.38901716 -0.3817145
0000c0 54 8e 0c 3d e0 97 9c 3e 86 61 ce be f0 e3 f5 3d
       0.034315422 0.3058462 -0.4030878 0.12006366
0000d0 7c be 42 3e d6 3f 8f be 4f 3e 8c be 8e 8e 28 bf
       0.19017977 -0.2797839 -0.27391288 -0.6584252
0000e0 25 1b 96 be fa c5 d4 be f5 d1 7f be e2 ba af 3e
       -0.29317585 -0.41557294 -0.24982436 0.34322268
0000f0 a1 9c b4 be 9a 46 1d 3e 5b 18 6e be 93 84 a3 be
       -0.35275748 0.15358964 -0.23251478 -0.31937084
000100 bd 53 70 be d3 58 8b be 0b 8e 0a bd a7 be 80 bd
       -0.23469444 -0.27216205 -0.03382687 -0.06286364
000110 49 a9 82 be 76 cb 8a bd 81 1f 35 be 66 ed 04 be
       -0.2551978 -0.06777088 -0.17687799 -0.12981185
000120 80 7a 0c bf a1 d3 eb be ae d1 85 be dd 34 bc be
       -0.5487442 -0.46059898 -0.26136535 -0.3675908
000130 e4 e3 25 bf ca 22 37 3d 54 0c 5f bb 1b 90 be be
       -0.6480086 0.04471091 -0.0034034448 -0.3721932
000140 43 2e 2b bf c8 5f 7f be 52 fc 04 bf 7c 75 85 be
       -0.66867465 -0.24938881 -0.5194751 -0.26066196
000150 4c e4 b7 be 01 6c 04 3f 40 5f 8b be e5 95 3e be
       -0.35916364 0.517273 -0.27221107 -0.18611868

L5.weight f4 [44, 88]
000000 27 0e f3 be 5c 36 ec bd f3 7e c7 bc ff 54 92 3e
       -0.47471735 -0.11533806 -0.024352526 0.28580472
000010 43 ba 49 be 54 4b 4b be 96 24 88 be 86 ec 36 be
       -0.1969996 -0.19852954 -0.26590413 -0.17863664
000020 8f 20 35 be dd d8 70 b9 09 2b 85 3e d7 f5 8b be
       -0.17688201 -0.00022968971 0.26009396 -0.27335998
000030 11 57 3b be 10 52 a8 bd 03 86 e1 3d c2 64 13 3f
       -0.18294932 -0.08218777 0.11011889 0.5757562
000040 fc 37 11 3e 9e 70 de 3e d1 2e 1a 3f 4e ac 51 3f
       0.14181513 0.43445295 0.60227686 0.8190354
000050 3b 17 9b 3e f6 5c 90 3d c3 bd a9 3e 3c fd d5 be
       0.3029116 0.07048981 0.3315259 -0.41794765
000060 e6 22 06 3b 2e 54 da bc a8 49 83 be 84 18 f4 3d
       0.0020467578 -0.026651468 -0.25642133 0.119187385
000070 b9 02 20 bf fd 3c d7 3e 18 4b 93 bd 19 04 e8 bc
       -0.62504154 0.42038718 -0.07192057 -0.028322266
000080 43 b0 01 bf 10 1b 75 be 7c f7 4b bc f2 89 2e bf
       -0.5065958 -0.23936105 -0.012449142 -0.6817924
000090 44 44 a7 bb 9b e2 39 3d b4 69 d1 3d de e6 e8 bd
       -0.0051045734 0.045382123 0.102252394 -0.113721594
0000a0 ca b0 01 3f a9 1d 4f 3d 94 fb 92 3e d4 9f 71 3e
       0.50660384 0.050565396 0.28707564 0.23596126
0000b0 f9 5f 69 be 61 a3 ab be a9 f9 2f 3d 19 86 cd 3d
       -0.22790517 -0.33523086 0.042962704 0.10035343
0000c0 69 f3 c0 be cd 6f ca 3d 7e a4 b1 3e 23 16 ed 3d
       -0.37685707 0.098846056 0.3469581 0.11576488
0000d0 85 21 61 3e bb df 80 3e 79 fb 18 3e 47 c1 13 3c
       0.21985443 0.25170693 0.14939679 0.009018249
0000e0 6e 9e 27 3f de 56 09 3e b9 dc 25 bf c8 ef 33 be
       0.6547612 0.13412043 -0.6478992 -0.17571938
0000f0 a5 96 c1 3d fc 10 ca be 4d 73 89 bd 55 4b 3c 3e
       0.09452561 -0.39466083 -0.06711445 0.18388112
000100 93 cc 87 3b 25 96 c0 3e 61 f1 91 3d a2 3c 6a be
       0.00414426 0.3761455 0.071261175 -0.22874692
000110 dc 56 a7 3b 31 c7 ab 3d 43 1b 7a bd d2 8c 39 3e
       0.00510679 0.08387602 -0.061061155 0.18120125
000120 36 38 14 3f db b5 77 bd 83 91 90 3e 6c fc b3 be
       0.5789827 -0.060476165 0.28236017 -0.3515352
000130 ad b5 7d 3e ff bf f3 3c c0 46 24 bc b2 4d a0 bd
       0.24776335 0.029754637 -0.010026634 -0.07827319
000140 57 ed 09 3f 4b 50 07 be 51 95 45 3e 14 1a 1e 3e
       0.53877777 -0.13214223 0.19295241 0.15439636
000150 81 65 f0 bc d7 3b 23 3e 55 b9 c9 bd ca 49 05 be
       -0.029345276 0.15940796 -0.098498024 -0.1301643
000160 7e 75 2b 3d ea ab f8 3e 50 fb 12 bd cf e9 34 be
       0.041860096 0.4856866 -0.0358842 -0.17667316
000170 2e 8f 5e 3e 1c c2 ac be 33 43 e9 be 0f d6 64 3e
       0.21734306 -0.33741844 -0.4555908 0.22347282
000180 4f 6d d6 3e 4c 21 f7 bd 5f 21 c0 3d 1e e6 c8 bd
       0.4188027 -0.12066898 0.09381365 -0.09809516
000190 dc ac 8b be 1a 8f 47 3c 5f aa 40 3c 32 05 90 be
       -0.2728032 0.012180114 0.01175937 -0.28128964
0001a0 25 70 9c 3e 6f da d0 3e 58 eb 2f 3d 2c d5 62 bd
       0.3055431 0.40791652 0.04294905 -0.055379078
0001b0 d6 28 0c 3f f7 7f 8f bd 27 18 96 be e2 db ac bd
       0.5474981 -0.07006829 -0.29315302 -0.08440377
0001c0 c1 ff d9 be 8e 45 62 bd 41 af 87 be 9a 3c 8f bb
       -0.42577937 -0.055242114 -0.26500896 -0.004371238
0001d0 04 35 66 3e 91 a3 92 be fc 01 f0 be 21 fd 59 bd
       0.22481161 -0.28640416 -0.46876514 -0.05321992
0001e0 32 0e f7 bd a4 3c d7 be 9d 9e 7b bd f1 fb c6 3d
       -0.120632544 -0.42038453 -0.061430562 0.09716023
0001f0 3a a6 25 bf 55 a3 2d bf 7f 93 5e 3e 5e d9 bf bd
       -0.64706767 -0.6782735 0.21735953 -0.093676314
000200 cd b7 00 be 62 f0 86 be 00 73 1c 3e 10 e1 bf bd
       -0.12570114 -0.26355273 0.15278244 -0.09369099
000210 cc e9 2f bc 89 11 c0 bb 05 75 12 be 9a 49 14 3f
       -0.010736894 -0.0058614654 -0.14302452 0.5792481
000220 1b af ef 3c 1e 11 2e be f2 da 85 be 03 f3 8a 3d
       0.029258301 -0.16998717 -0.26143605 0.06784632
000230 4a 0d 08 bf 00 1f 3c 3f 7d 13 a5 bc be 21 05 3d
       -0.5314528 0.734848 -0.020150894 0.032502882
000240 d7 12 b9 bd 8f 00 90 be 44 84 c5 bd ad eb d8 be
       -0.090367965 -0.28125426 -0.09644368 -0.42367306
000250 22 a8 f3 3d 1c df 4b be 8f 3a 55 be 37 5a 6e 3e
       0.11897303 -0.19909328 -0.2082312 0.23276602
000260 e1 71 72 be 3c fa 3a be 17 9c ab bc 56 26 9a 3d
       -0.23676254 -0.1825952 -0.020948453 0.07526843
000270 09 53 99 3e 40 37 97 be 3c cb b2 3e 3b 14 66 3e
       0.29946163 -0.2953434 0.3492068 0.22468655
000280 e1 be 0b 3f ad 88 b0 bd 14 80 71 be 04 26 c6 bd
       0.54588133 -0.08619819 -0.23584014 -0.0967522
000290 eb 7f 88 be 01 9e 21 be 31 2a 13 3d 0f 91 3e 3c
       -0.26660094 -0.1578293 0.03592891 0.011631264
0002a0 23 99 7a be 23 f3 b5 be 48 8f dd 3e 85 5b 9d bd
       -0.2447248 -0.3553706 0.43273377 -0.076834716
0002b0 03 56 d5 bd c7 4f 6d 3d ab 89 83 3d 87 8b 3b bf
       -0.10416796 0.05793741 0.064227425 -0.73259777
0002c0 c2 57 bd 3d 33 99 23 3f 4e 28 1e be 7a 35 24 3e
       0.09245254 0.6390564 -0.15445063 0.16036025
0002d0 30 2d c5 be 2e af e2 be 6a 17 17 3c c6 e1 1e bf
       -0.38511038 -0.44274276 0.009221891 -0.6206325
0002e0 4e 69 2a be 8d 34 73 3e 81 64 af bc 10 d4 5c 3e
       -0.16641733 0.23750515 -0.021410229 0.2156527
0002f0 65 0c 12 3d 62 63 5a 3f 42 cb 22 bf 2b e4 19 be
       0.03565635 0.85307896 -0.63591397 -0.15028445
000300 4f 59 ec 3d e7 5e 47 3e 75 8d 9d bd 6d 73 02 3d
       0.11540472 0.19469796 -0.076929964 0.03184836
000310 a1 d1 19 be 33 27 42 be 24 e6 07 3d b9 dc ee be
       -0.15021373 -0.18960266 0.033178464 -0.46652773
000320 66 f4 74 3e a5 dc b8 3c 0f e6 97 be b2 2a 07 bd
       0.23921356 0.022566149 -0.29667708 -0.0329997
000330 f3 02 f4 be 40 59 4e bc 52 6d f2 bd 2f 37 11 3d
       -0.476585 -0.012594521 -0.118372574 0.035453018
000340 d2 9d 92 be 86 b6 1a 3e 7d a7 25 3e 90 4b 83 3e
       -0.28636032 0.1510869 0.16177173 0.25643587
000350 2e e7 11 be 9d 7f ff ba 0a 93 fc 3e 8a a3 3b 3d
       -0.14248344 -0.0019492988 0.49330932 0.04581026
000360 f6 27 09 bf fd ca 19 be 8f d7 da 3e 38 4c 80 3e
       -0.535766 -0.1501884 0.42742583 0.2505815
000370 cc ab c4 be 53 ca 6b bd 48 ea 53 be c5 9f 73 3c
       -0.3841232 -0.057566 -0.2069484 0.014869635
000380 7d cf 70 bb 84 d5 a9 3d 4c f8 b4 3e 8b c0 82 be
       -0.0036744766 0.08292678 0.35345685 -0.25537524
000390 b1 93 d6 bd 72 a6 cd 3e 0b a0 23 3e 83 33 82 be
       -0.10477389 0.4016605 0.1597902 -0.25429925
0003a0 24 5c ea 3d 08 f3 24 be 57 6b 36 3d 2b 5e 2d bf
       0.11443356 -0.16108334 0.04453596 -0.67721814
0003b0 2e 9d be be 89 e6 de be 2a ab b2 be 9a 3c 83 3e
       -0.37229294 -0.4353526 -0.34896213 0.25632173
0003c0 ff 90 e7 3e 5f d1 63 3e ad 1f 17 be 11 bd b5 be
       0.4522781 0.22247837 -0.14758177 -0.3549581
0003d0 99 a4 65 3d a9 51 ec 3d 14 d2 ca 3d 6e 29 63 bc
       0.056065176 0.11539013 0.099033505 -0.013864858
0003e0 80 f6 cf 3e ba 7f 7f bc 96 6d d6 bd 21 95 e0 be
       0.40617752 -0.015594417 -0.104701206 -0.43863776
0003f0 87 14 87 be 1c 81 f2 bd e0 0e c7 bd 1e 3e 0b bd
       -0.2638285 -0.11841032 -0.09719634 -0.033994786

L5.bias f4 [44]
000000 23 ba f0 be 97 08 99 be 07 97 26 bf eb ed 9a be
       -0.4701701 -0.29889366 -0.650742 -0.30259642
000010 dc 2a d1 3d 28 d6 ad bd bd 46 10 bf cb a6 90 be
       0.10213253 -0.08488113 -0.5635794 -0.28252253
000020 01 90 13 be 50 d3 d5 be d9 36 4c be fa 59 69 be
       -0.14410402 -0.4176278 -0.19942798 -0.2278823
000030 4e 15 22 be 05 2c a4 be d6 4e 7f be f0 20 fe be
       -0.1582844 -0.32064834 -0.24932417 -0.49634504
000040 74 14 84 be 18 2e 49 be b0 b1 5a be cd a2 d3 be
       -0.25796854 -0.1964649 -0.21356845 -0.41335145
000050 31 b9 90 be 53 f6 ab bd 88 a0 0c bf cd b7 b4 be
       -0.2826629 -0.08396592 -0.5493245 -0.3529648
000060 86 20 ef be 5e 6f 97 be 27 2c 0c 3e 6e 43 b1 be
       -0.467045 -0.29577154 0.13688718 -0.34621757
000070 c9 21 71 be 12 1b 9f be 8f 42 1d be c9 65 cd be
       -0.23548044 -0.3107534 -0.15357421 -0.40116718
000080 cf 32 f3 bd 95 54 ae be e9 19 a5 bd 62 f7 8a be
       -0.11874925 -0.34048906 -0.080615826 -0.27141863
000090 37 9a 7a be 85 f6 c5 be 2d a4 ec be 7d 8e 91 be
       -0.24472891 -0.38664642 -0.46219006 -0.28429022
0000a0 a2 7f d6 be fa 0c 0f be 03 08 08 be 56 fb 97 be
       -0.4189425 -0.13969794 -0.13284306 -0.29683942

L6.weight f4 [1, 44]
000000 59 6b 3f 3d f9 39 92 bd a4 e6 9c 3d 27 90 c8 bd
       0.046733234 -0.07139964 0.07661179 -0.0979312
000010 a5 91 67 3d 3b bc e5 3c ff be 26 bd 2f 40 82 3d
       0.05653538 0.028043857 -0.04070949 0.06359898
000020 7d bf 79 3d b0 55 39 bd c1 d1 2d bc 15 69 6f 3c
       0.060973633 -0.045247734 -0.010609091 0.014612456
000030 2b f5 8d ba 2d 3e 93 39 d5 13 35 bd 39 ae 89 3d
       -0.0010830512 0.0002808435 -0.044208366 0.067226835
000040 96 a4 17 3e 13 15 f6 bc 6b 39 e5 3d 2e 52 13 bd
       0.14808878 -0.030039346 0.11192592 -0.035967045
000050 74 a3 e6 3d 9e 15 20 bd a0 87 1e be 83 f0 01 bc
       0.11261645 -0.039083116 -0.15481424 -0.007930878
000060 31 af 2c 3e e4 81 01 3e 37 7c 97 bb a0 15 48 3d
       0.16863705 0.12647206 -0.004622962 0.04884875
000070 d4 f8 88 bd 80 01 92 bd ab a0 0c 3c 7d 1f 33 bc
       -0.06688085 -0.07129192 0.008583228 -0.0109328
000080 f7 33 ec 3d 7b b6 a7 bd 33 b1 4b 3c 66 2a 38 3d
       0.11533349 -0.08189102 0.012432384 0.04496231
000090 d4 44 b2 bd 20 3c 9c 3c e8 6e 4e 3c 38 2c 11 bc
       -0.08704534 0.019071639 0.012599684 -0.00886064
0000a0 19 6b dd 3d b2 46 1c 3e 45 a2 ac 3d dd b3 2e be
       0.10811443 0.15261343 0.08429388 -0.170608
