Saved_Models_All_Features/target_Hardness_features_22_epochs_0.pth (torch_old, 162565 bytes, 11 tensors)

L1.weight f4 [44, 22]
00000000: 9b7c ce3d fae8 40be c91a 1b3e bf62 a8bd
00000010: 2bad 06be 5e41 75be 3acd dbbd 8e99 a93e
00000020: 74c8 a83d 6f6b e63d 81c4 c03c c742 6f3e
00000030: 2de3 5d3e 6479 053e 9056 7cbe 93b5 863e
00000040: ad3b c53e 2fc4 34be eed3 46be 0bb5 2b3e
00000050: bd3a a5bc 0e07 96be 531f fc3d c5df 89bb
00000060: 459e c3bd 817e 10bd 60f9 33be c90b 893e
00000070: 2f5c e53e f526 7d3e ffcf a9bb 485e 993d
00000080: 5bfb 183e b889 143e 3f59 03be 6a44 1cbe
00000090: 2093 b33e 3443 293b c6be 253d fa1b d0bd
000000a0: 4a32 06be 5753 183e d680 2bbe 080c d73d
000000b0: 71b1 833d 0133 023d 645a 8e3d 934e 0e3d
000000c0: 178d 4d3d a373 21be 3986 a4bd c14c 8abc
000000d0: 841c 973d 6cfa 51bc 93e7 423c 7d99 6bbd
000000e0: 3eff 043e 2b20 a13d b4df 75bd 29a3 99bd
000000f0: b6e4 87bd a0ae 99be 9160 6b3d 58fc 7cbe
00000100: 4c61 6d3e 5257 383d eb2b ccbd 1b58 5abe
00000110: a347 413d 23d5 c0be 0aac dabd 2179 c73d
00000120: 85eb 7b3e 5034 87bd dfdc 75bc 5e76 e33d
00000130: 2dab febd f07f e93d b9f8 0abd 29ce 123e
00000140: ebdd 5a3d 84b4 183e 2441 263e 136b 3e3e
00000150: 7fcb b23c a0b1 b23d 3ea2 dc3d 249e 9f3d
00000160: 97fb 3d3e 4a09 123e ab50 24bd b456 82bd
00000170: a66e 60be 7920 253e a747 143e ef56 04be
00000180: 01e2 6b3e d8b3 723e 6653 103e 8765 c4bd
00000190: f282 7ebd 64fc 873e e663 a4bd 4c5c a13e
000001a0: 8856 82bd a541 5e3d ce37 d9bd 0357 943d
000001b0: 2412 dd3d 7097 afbd 5d5f 863d cc48 813d
000001c0: bdd4 1d3e 71a5 5ebe aaef 77be 802f 083e
000001d0: 132a db3e 7a83 363e edbb 413d 49ab c5bd
000001e0: 8d13 77bd dfda c93d db40 b6bd 032c fa3a
000001f0: 261c 663e 3e37 b93e f206 853d 7672 9b3d
00000200: 02be 393e a6ea 8abd 5106 933e 8671 a63d
00000210: 738a 6b3e cde4 b93d dc86 883a cb33 f7bd
00000220: e145 06bd 457b 2bbe abf5 19be 5110 85be
00000230: 1b30 8a3d d1b4 ea3d a4ff a8bd 01c0 dabd
00000240: 2688 0d3e b061 703e 9ea6 34be 6611 753e
00000250: b2de 303e 3518 5abe 77b4 b1be 37a3 93be
00000260: 5879 bbbe 5db5 fabd 94aa 853d f3b0 8f3c
00000270: 0e69 153d bf9c d5bb a652 dfbe 3b63 263d
00000280: a00a 103d 6ce0 733e 5533 443e 659c 083e
00000290: 204d bdbd ae4f 683e 7d49 c5bc e077 88bd
000002a0: 9be9 9a3d c3c0 2d3e 8975 a03e de7a a73c
000002b0: a51b af3e 719b 853d 4e8b 073e cc4d 923e
000002c0: a58c 903d 55e5 423e deea b93d cb3d 2bbe
000002d0: 459b b2bd 6a54 7a3e 3170 ad3e 35dd 5d3e
000002e0: f9fc 96be cfa8 503d 92a7 993d 686f 213c
000002f0: 0423 46bd b164 3c3d 019f f03d a61f 83bd
00000300: 7b92 93bd 206d d03d c6d9 433e 86c4 b23d
00000310: 4c96 b8bd 8e4d bbbd fea4 683e 6537 cabc
00000320: 17e3 05be 2100 7fbe 4257 d3bd 0c5f 9c3d
00000330: 1711 683e 9727 513d 9d36 8fbe 7347 b9bd
00000340: db2b d4bd e68a 3cbd 031c 0cbe 5310 86bd
00000350: 1c1d 5d3e e51e 37bd 284e f33c 7bd8 003d
00000360: 29a1 2d3d 6359 ec3d fdca 1cbd 8ab4 a63b
00000370: 62e1 1c3e eae6 49bd 6555 973c 263d 30be
00000380: 9297 0cbe e183 cb3d d152 cc3e eb1b d2bd
00000390: 4505 2e3e 2fff 4f3d c4da 0fbe 75eb f0bd
000003a0: 1fd7 c8bd 542f 68be 7639 1f3e 2801 b43e
000003b0: cf83 9a3d f93c d43d 4848 63bc 6634 6b3e
000003c0: f4bf d73e a415 0fbe 8deb a13e 70c7 313d
000003d0: 6404 463d fc37 db3b 581e 08be 9a31 073f
000003e0: a245 27be b4df 163e f9f3 8a3e 2799 56bd
000003f0: 1925 35bd 3507 11bd c2b2 463d 14d0 1b3d
0.1008236 -0.18838874 0.15146936 -0.08221959 -0.13151996 -0.23950717 -0.10732503 0.33124965
0.082413584 0.1125096 0.0235312 0.23365317 0.21668692 0.13034588 -0.24642396 0.26310405
0.38522092 -0.17652963 -0.19416782 0.16768281 -0.02016961 -0.29302257 0.12310662 -0.0042075836
-0.09551672 -0.035276894 -0.17575598 0.26766804 0.44796893 0.24721892 -0.005182266 0.07488686
0.14939635 0.1450566 -0.12827013 -0.15260473 0.35073185 0.002582741 0.04046514 -0.10161586
-0.13105121 0.14875542 -0.16748366 0.10500342 0.06430329 0.031786922 0.069508344 0.034742903
0.050183382 -0.15766768 -0.080334134 -0.016882302 0.07378486 -0.012816053 0.011896032 -0.057519425
0.12987992 0.07867464 -0.060027793 -0.075018235 -0.0663542 -0.3001604 0.05746514 -0.24705637
0.23181647 0.04500515 -0.09969314 -0.21322672 0.04718746 -0.3766261 -0.10677345 0.097399004
0.24601562 -0.06601775 -0.015006273 0.11106561 -0.12434993 0.11401355 -0.033928607 0.14336456
0.053434294 0.14912611 0.16235787 0.18595533 0.02182555 0.087252855 0.10773133 0.07793835
0.18553005 0.14261356 -0.040115993 -0.063641936 -0.21917209 0.16125669 0.14480458 -0.12923788
0.23035432 0.23701417 0.14094314 -0.09589677 -0.062136598 0.26559746 -0.080268666 0.3151573
-0.06364161 0.054261822 -0.10606347 0.07243159 0.10794476 -0.08573806 0.06561158 0.06312713
0.15413184 -0.21742798 -0.24212518 0.1329937 0.42805538 0.17823592 0.04729836 -0.09651811
-0.06032138 0.098561995 -0.08899089 0.0019086603 0.22471675 0.3617496 0.06495465 0.07590191
0.18138888 -0.06783037 0.28715757 0.081271216 0.23002033 0.090768434 0.0010416168 -0.120704256
-0.032781485 -0.16746242 -0.15035121 -0.2598901 0.06747457 0.11460269 -0.082518846 -0.10681153
0.13821468 0.23474765 -0.17641684 0.23932418 0.17272452 -0.21298297 -0.34707996 -0.2883546
-0.36616015 -0.122416236 0.06526676 0.01754043 0.03647714 -0.0065189297 -0.43617743 0.040621977
0.035166383 0.23816079 0.19160207 0.1334091 -0.09243226 0.22686645 -0.024082894 -0.06663489
0.07564088 0.16968064 0.31339672 0.02044433 0.3420078 0.06523789 0.13236734 0.2857498
0.07058076 0.19032796 0.090780005 -0.16722791 -0.087210216 0.24446264 0.33874658 0.21666415
-0.29489878 0.05094224 0.075026646 0.0098532215 -0.048373237 0.045994464 0.117490776 -0.06402521
-0.07205673 0.10177064 0.19126043 0.0872889 -0.09013042 -0.09145652 0.2271919 -0.024684617
-0.13074909 -0.24902393 -0.103193775 0.07635316 0.2266277 0.051063146 -0.27971354 -0.09046831
-0.10359927 -0.0460309 -0.1368256 -0.06546082 0.21593136 -0.044707198 0.029700354 0.031456452
0.042390022 0.11540487 -0.038279522 0.00508744 0.15320352 -0.049292482 0.018473336 -0.17210826
-0.13729694 0.09937263 0.39906934 -0.10259231 0.16994198 0.05078047 -0.14048296 -0.1176366
-0.09806656 -0.22674304 0.15549263 0.35157132 0.07544672 0.10363192 -0.013872214 0.22969207
0.42138636 -0.13973099 0.31625023 0.04340309 0.04834403 0.0066900235 -0.13292825 0.5281006
-0.16335157 0.14733773 0.2713926 -0.05239215 -0.044224832 -0.035407264 0.04851032 0.038040236

L1.bias f4 [44]
00000000: dd7b 193d 7478 45be a5d4 29be d1aa b1bd
00000010: b333 86bd 1f63 8cbd 5551 4ebe e64c 1bbd
00000020: ae22 a8be a88f 76be ea7f 493d edbe 73be
00000030: 8b57 63be 99ba 8dbe 3239 d8be 2f0f 5bbe
00000040: afb3 6abd 42be 803d a3a6 9abe 3d63 1cbe
00000050: 6078 0cbb 425a 973d 63fc 86be 10cb 843d
00000060: c38d 09be c25b 04bc ef93 42be 5a7d 21be
00000070: 08e0 54be ac24 34be 7a75 a2bd d32c 49bd
00000080: b929 1e3e 8c20 d7bc 7e96 0dbe 0f8f dbbd
00000090: beee 73be d36c 98bd 8bdb babe 9027 dcbd
000000a0: 5de0 39be f452 bcbe 877b d6be 0ac5 7cbd
0.03747164 -0.1928423 -0.16585024 -0.08675159 -0.065528296 -0.06854843 -0.20148213 -0.037915133
-0.32838959 -0.24078238 0.049194254 -0.23803301 -0.22201364 -0.27681425 -0.42231137 -0.21392511
-0.057300266 0.06286289 -0.3020526 -0.15272231 -0.0021434054 0.07390262 -0.2636443 0.064840436
-0.13432984 -0.008078517 -0.19001745 -0.15770474 -0.20788586 -0.17592114 -0.07932563 -0.049115013
0.15445603 -0.026260637 -0.1382694 -0.10720646 -0.23821542 -0.074426316 -0.36495623 -0.107497334
-0.18151994 -0.36782038 -0.4189112 -0.06171135

L2.weight f4 [88, 44]
00000000: e4ca c33d 3941 10be 32f8 d93d a188 ff3d
00000010: 62fa c8bc a2fb 5bbd 0d08 e0bd 9b7f b5bd
00000020: 6f35 5c3d d23f d5bd 10a7 d9bc 87af afbc
00000030: 97da e6bd 4f5a 1ebe b0a5 343b 3158 11be
00000040: cf08 ffbd e47a 01be 15f0 61be 41bf 17be
00000050: 0414 dd3c 3e3a 7e3c a218 91bd c187 1dbe
00000060: 8637 91bd b420 2f3e 17b7 71bd c713 22bd
00000070: 12d2 1ebe 5d1a e93d 3b57 e63c 091a b4bd
00000080: 4a18 52be 091b cf3d 2875 1dbb 8eb0 bbbd
00000090: 530a 18bd d3c6 eebd 3b86 57bd 1069 bc3d
000000a0: 2952 4fbd 0233 e7bd 357a 1bbe eaf6 c43c
000000b0: 303a a5bd 6517 183e 3492 61bc da4e 6ebe
000000c0: d8a8 33be 42d3 c1bd f4b1 083d da82 14bd
000000d0: cd2d 15be 1d84 1fbd 402a 20be 7564 f0bd
000000e0: eb84 2abe 4a31 1abe d6ff febd 4ee7 063d
000000f0: 208a 5ebd cc9e 243d 9f0b 453d 0c0f 7b3d
00000100: 5260 4e3d baf0 27be a71a 95be d6dd 12be
00000110: 4e4b a33e c859 c8bd 98da 0a3e e392 2dbd
00000120: 53ed 38be ad6b 173e bcdd 08bd c16d 043d
00000130: 2690 56be af8c 22be 23a2 cf3d f754 43be
00000140: 7741 90bd 98dd 783d d59f 1a3e cbf5 5fbe
00000150: 70e0 58bc de59 a63c 24c3 403e c485 f1bd
00000160: 0978 36be b39f 52bd ac62 eabd c587 1f3e
00000170: 712e fdbc 31f1 83bd 174c 843d 1199 3abe
00000180: 0543 79bd f6b0 05be 9560 b1bd 8961 2fbd
00000190: 43af 973d ad43 f1bd 639c b1bd d4bf cdbd
000001a0: 8d20 f5bd 4f52 43bd 9d84 cbbd ac58 b8bd
000001b0: d980 843e 3359 f83d 64d2 f9bd 5451 54be
000001c0: 3388 2a3c f7f3 4bbd 583c 8fbe c5b3 913d
000001d0: ddc9 063d 4e63 64be 6530 343e 9dd2 10bc
000001e0: 24a8 283d 103d 2d3b 2acc 46be 2347 ab3d
000001f0: 36ee 25bd 5fe9 36be 3055 f2bc 44f4 70bd
00000200: 79c3 89be d68d 0f3c 884a 0b3b 74cc f0bc
00000210: 6c45 883d 34bf 41be 33d0 66bd 0377 6dbd
00000220: 031f a8bd a69f 2bbe b3d2 06be fa20 bbbd
00000230: c305 ea3c 38d7 413c dd28 24be 2f7d ca3d
00000240: 77f5 a1bd 7b73 6bbe 530e 3b3b 8522 78bd
00000250: 0bfd c43b 5f0d 6ebe 3d7b 07bc 13b2 a2bd
00000260: 0859 44bd 0daa 26be 907e e7bc 7326 c03d
00000270: 5813 d8bd 1ef8 043d 4340 90bc 1be6 6abe
00000280: 2fcd 283d 160d bf3d 575d ca3b 9dff 8ebd
00000290: d3ca 48be 049f b9bd 9e63 8bba d235 18be
000002a0: 8115 40bd b6ec 4fbe 43c6 f2bd fc13 93bd
000002b0: 1768 1abd 2665 4bbe c06d 59be 6570 0fbe
000002c0: ac92 7d3d e900 9abe 1284 1a3e 403e c23d
000002d0: 4aea 153e 0f34 3cbd 6b31 153e fa5b 0cbe
000002e0: 9084 27bd f728 94be 757b d839 4d33 043e
000002f0: a87b 31be cac4 bf3d cb12 f43d fa82 323d
00000300: 4ee9 7bbd 10eb 833d 1a9b 893c 200b ab3d
00000310: 86f2 7dbd 27d4 85bd 5137 24be 031d 1abd
00000320: 7f0a 2a3e 7b57 3abe 10b3 093e 4004 de3d
00000330: b752 6b3b 4f63 323d 6ca9 5f3d e1f5 c93d
00000340: db46 06bd 4284 23be e691 34be c43d 9ebd
00000350: 40a6 a83d 5d8d 8f3d 9893 103e 357f 03bd
00000360: e57a 73bd 81b7 e9bc 29ea 8a3b 04fb 14be
00000370: e05c 87be 49ae 31be 9a1c f13d a42d 173d
00000380: 6afa 2e3e 0b0e 573e ad8f dfbd bfdd 1cbc
00000390: 2395 1ebe 048f 19be 906c 0ebe b764 aa3d
000003a0: 6502 073d 2611 87bd 7cde 64be f99f 5abe
000003b0: bfdb 7dbe cea2 92bd 5372 2c3d 398f 6dbd
000003c0: 14c5 fabd 929e 373c 4fbf 30be af3e bb3d
000003d0: 4387 7dbe 47b7 6dbe efcf e0bd 2727 6ebd
000003e0: a702 c53d 21f2 b93d e0f6 75be b68d 29be
000003f0: 181e 33be 9a6c a6bd 26a9 ecbd ff8d a9bd
0.09560183 -0.1408738 0.106430426 0.12477232 -0.024533454 -0.053706773 -0.109390356 -0.088622294
0.053761896 -0.104125634 -0.02656892 -0.021446003 -0.112721615 -0.15464137 0.0027564578 -0.14193799
-0.12452852 -0.12644535 -0.2206424 -0.14819051 0.026987083 0.015516816 -0.070847765 -0.15383817
-0.070906684 0.17102319 -0.0590125 -0.039569642 -0.15509823 0.113819815 0.028117767 -0.08794028
-0.20517078 0.101125784 -0.002402613 -0.091645345 -0.03711922 -0.116590165 -0.052618247 0.091997266
-0.050615463 -0.11289026 -0.15183337 0.024043519 -0.08067739 0.14852674 -0.013767768 -0.23272267
-0.17544878 -0.09464122 0.033372834 -0.036257602 -0.14568253 -0.038944352 -0.15641117 -0.11737911
-0.16652267 -0.15057865 -0.124511406 0.032935433 -0.054330945 0.040190503 0.048106786 0.061293647
0.050384827 -0.16400424 -0.29121897 -0.14342436 0.3189339 -0.097827494 0.1355995 -0.04237641
-0.18059282 0.14787169 -0.033414587 0.032331232 -0.20953426 -0.15873979 0.10138347 -0.1907538
-0.070437364 0.060758203 0.15100034 -0.21871106 -0.013237104 0.020306524 0.1882444 -0.11793092
-0.17819227 -0.051421832 -0.114446014 0.15579136 -0.030905934 -0.06442488 0.064598255 -0.18222453
-0.06085493 -0.13055786 -0.08661 -0.042817626 0.074064754 -0.11780486 -0.086724065 -0.10046354
-0.11969099 -0.047685917 -0.09937403 -0.09001288 0.25879553 0.121263884 -0.12198332 -0.20734149
0.010408449 -0.04979321 -0.27975726 0.071143664 0.032907356 -0.22303507 0.17596586 -0.008839277
0.041175976 0.0026434101 -0.1941382 0.083631776 -0.04051038 -0.17862462 -0.029581636 -0.0588267
-0.26906946 0.008761844 0.002125414 -0.029394366 0.06653866 -0.18920594 -0.056350898 -0.057974827
-0.0820904 -0.1676012 -0.13166313 -0.09137149 0.0285672 0.011831097 -0.16031213 0.09887158
-0.07908147 -0.22993271 0.0028542473 -0.060579795 0.0060116104 -0.23247288 -0.008269128 -0.07944121
-0.04793647 -0.16275807 -0.028258592 0.093823336 -0.105505645 0.032463185 -0.017608767 -0.22939341
0.041211303 0.09328668 0.0061756778 -0.06982348 -0.19608621 -0.09063533 -0.0010634547 -0.14864281
-0.046895508 -0.20305142 -0.11854222 -0.07181546 -0.037696924 -0.19862804 -0.21233273 -0.14007719
0.061907455 -0.3007882 0.15089443 0.094845295 0.14640155 -0.045948084 0.14569633 -0.13706961
-0.040897906 -0.28937504 0.00041290713 0.12910195 -0.17332327 0.093637064 0.11917647 0.04358194
-0.061501794 0.06441319 0.016797591 0.08351731 -0.061998866 -0.065346055 -0.16036727 -0.037625324
0.16605566 -0.18197434 0.13447213 0.108406544 0.0035907456 0.04355174 0.054604933 0.09861351
-0.032782417 -0.15968421 -0.17633781 -0.077266246 0.08234835 0.07009385 0.14118803 -0.032103736
-0.059443373 -0.028529884 0.00423934 -0.1454888 -0.26438046 -0.17351641 0.117730334 0.03690876
0.17087713 0.2100145 -0.10916076 -0.009574353 -0.15486579 -0.14995962 -0.13908601 0.08319991
0.032961268 -0.06595068 -0.22350496 -0.21350087 -0.24790858 -0.07159959 0.042101216 -0.057997916
-0.12244621 0.01120724 -0.17260478 0.09142815 -0.2475863 -0.23214446 -0.1097716 -0.058142807
0.096196465 0.090793855 -0.24019957 -0.16557965 -0.17491949 -0.08126183 -0.115557 -0.08279037

L2.bias f4 [88]
00000000: b9e1 783a 3307 c1bd 5665 f9bd 916e a43d
00000010: 0a5f fc3d 61fd 833d 39d1 a4ba 2266 99bd
00000020: 4266 36bd 86e3 8c3c e6fa a23d 0d5a d53c
00000030: 69b3 60be 60f1 dabe a930 c7bd 8bf0 5b3d
00000040: 71ca 3fbe f36b fa3c 5acf 53be d3b0 ad3d
00000050: ff9c f4bd 6622 69be 0e3a 9bbe 0475 81bd
00000060: 430c 80be ba43 86bd 99e4 67be bdc6 0dbe
00000070: fb52 2e3a 5bf0 7fbe f334 80be 91af a53d
00000080: 218d ec3c e16b 1cbe 7185 51be d0b2 f23e
00000090: 5bb1 553c 6a4a 0c3e a4c4 14be d4d5 36be
000000a0: 8be6 073d 43ee 8d3b 35f1 0ebd 8c18 58bd
000000b0: a918 733d 0c98 633d 4fe9 97bd 2bba 06be
000000c0: 6f6a 9c3c e33d 813d cc7f 323b 6d8c 27be
000000d0: 9d24 56be c31e 89be 0d11 89be 9563 dd3e
000000e0: aec9 3cbe f193 0cbe 1110 83bd 7914 d5bd
000000f0: 3ea5 01bd 8247 aebc ab36 453e a25d eabd
00000100: bf48 883b 58a5 9fbc e087 883c b4a7 29be
00000110: fd4a d53b 1c3b 31be d86a 4bbd 4605 a9bd
00000120: b874 22be 44d0 c4bd 7274 c4bc 5b26 093c
00000130: 921a a7bd 0218 ccbd 6bc5 b6bd d6fa 51be
00000140: d40d 223b b52d c13d 69dc fcbc b4d2 3dbe
00000150: a296 22be 9fe0 4cbe 34b6 853c be77 24be
0.00094940845 -0.09425201 -0.121775314 0.08028901 0.12322815 0.064448126 -0.001257456 -0.074901834
-0.044531114 0.017198335 0.07958011 0.026043916 -0.2194344 -0.4276228 -0.09726078 0.053696197
-0.18729569 0.030569052 -0.20684567 0.08480992 -0.11944007 -0.22767028 -0.3031773 -0.06321147
-0.25009355 -0.065558866 -0.22645797 -0.13845344 0.00066499383 -0.24994032 -0.25040397 0.08090127
0.02887589 -0.15275528 -0.2046106 0.47402048 0.013042773 0.13700262 -0.14528137 -0.17855006
0.033178847 0.0043313815 -0.034898 -0.052757785 0.05934969 0.055564925 -0.07417547 -0.13156955
0.01909372 0.06310632 0.0027236817 -0.16362162 -0.20912404 -0.26781282 -0.2677082 0.43240038
-0.1843631 -0.1372831 -0.06399549 -0.104042955 -0.031651728 -0.021274332 0.19259135 -0.1144364
0.0041590626 -0.019488022 0.016666353 -0.1656788 0.0065091834 -0.17307705 -0.04966244 -0.08252959
-0.15864837 -0.09610036 -0.023981307 0.008370961 -0.08159365 -0.099655166 -0.08924373 -0.20505843
0.002472748 0.09432546 -0.030866819 -0.18537408 -0.15877774 -0.20007561 0.016322233 -0.16061303

L3.weight f4 [176, 88]
00000000: 1100 f0bd 406f b93d 2d01 063e ed66 b3bc
00000010: 428a acbd 4d15 4ebd f8bd d83d af28 71bd
00000020: 9523 b43d fe81 773d 0142 a1bd 10a0 89be
00000030: 51dd 1fbe 0b90 e83b aa24 39be d5e2 4abe
00000040: 392a 3fbe 81b0 63bd 3586 0d3e f9ae 0cbe
00000050: 5028 533e ac84 14be 9a70 5fbe 72fe af3b
00000060: 87c1 fabd 2c9c 7cbe 66ac c93c 42ac 14be
00000070: d1a9 11be 4cf8 50bc 0faa 213e 71b6 15bd
00000080: 58eb e5bd 8778 1e3d 59b0 60bd a051 40be
00000090: 85f9 9dbd 245c 93bd 2588 4e3d e06c 4cbd
000000a0: 569f 58bd cdf1 87bc 6c77 823e 1fa7 473d
000000b0: b279 34bd db7d 22bd 8787 97bd 300a 53bd
000000c0: fb74 34be 759c 18be b7f4 03be d0ec a9bd
000000d0: ede6 0dbe ba33 bd3d 66a8 6d3e 785f c1bd
000000e0: 10d8 4f3e 6874 f33d 9a32 063d 5a4a a4bd
000000f0: 888c 26bd 5289 d3bc 029c f9bc 9839 a0bd
00000100: 5f61 8bbd 999d ffbd 4ccf 3bbe fa7c 9cbd
00000110: 1dba d6bd 512e f43c 662e f3bc 34cb acbc
00000120: 48a3 2a3e 7508 e3bc 5450 31bd 645d c3bd
00000130: 540f 203d 6768 39be b6b6 b7bd 7184 933b
00000140: 2750 debd ca94 a4bd 9035 9c3d c73f 0bbe
00000150: 09e9 413e 103a 503d c111 e1bc 5b95 7ebd
00000160: 6f4c 803d c1c5 af3c 42ca 37be 7981 e9bd
00000170: 443a 603e 3ec0 0abe 121c d0bd 2074 7bbc
00000180: 2a48 f13c 9ff5 d2bd bfa1 18be 6794 253d
00000190: deff 05be aaef 61bd 3409 3e3d 2baf 97bd
000001a0: 5de1 a7bc bc44 5bbe 900d 77bb 4016 9e3d
000001b0: 14e0 023e e7b6 fb3d dedc 5fbd 135e c93d
000001c0: c0da 1cbd ae76 f53c d26b 543e 4c35 2a3c
000001d0: f3ed acbe c2f9 063e 698a 093d 6284 78bb
000001e0: 285b 88bd 497d 25bc ade7 c0bd 14e7 8fbc
000001f0: cae2 dbbd f5ad 4c3c 7b06 403c 3b38 0dbd
00000200: bd28 9ebd d8c2 b8bc 206d 1cbe 1cec ecbc
00000210: 680e 4abe 9c86 54bd 3c1c cabd acf9 66be
00000220: f24e 823e af86 03bc b920 14be 2eee 35be
00000230: c1fb 7a3b 6ab7 1bbe 0f8e 4a3e 4090 23bd
00000240: ab69 80bc 4f8d e2bd 7bc3 0c3d 0d12 843d
00000250: bad5 8d3d 69a3 b43d 7a0e 123d ab07 5dbd
00000260: 8a82 22be c855 42bd 4e00 6c3d bedd 66bd
00000270: 2833 6fbd e475 313d 4749 cebc 00d7 273b
00000280: f42e 13bc 01e4 c93d 3ed9 973c 0338 7f39
00000290: 46b6 54bd 55ac 3fbc 68b3 88bb a36e 063c
000002a0: f5cc 073e 0d19 6dbe 5c56 f5bd 21af 66bc
000002b0: eb4c a63d d3a5 83bc 56d4 c6be 2e09 29bd
000002c0: 40c6 f23c d62b 383e 4fd4 0cbd e17d ea3d
000002d0: c038 87be 2948 bc3c 74b4 d8bd 6096 e5bd
000002e0: d01b 003e 647d 4dbe fef5 cdbc 346b 3c3c
000002f0: 6b10 993d e437 2e3e a10a 20bd d6dd ee3d
00000300: 5ff5 b6bd cc8e 9dbc 2c67 fa3d 2d16 5abd
00000310: 62b8 9abd c323 3a3e 9ea5 56be f6a1 893d
00000320: 2f80 9a3e 02a1 a9bc 9c04 993d 4db8 393e
00000330: 27b0 17be 87fb 05be 3da5 cf3d 2d02 053a
00000340: 9508 3fbe c233 673c a701 e93d 825e bd3c
00000350: 45f7 9a3d 357c 4fbd 9f04 e8bd 47f3 cbbd
00000360: f063 a2bb ccfb 45bd b4a9 e63b 8dab 09bd
00000370: 5b03 67be fc9c 263e eb10 81be cbb9 93be
00000380: a573 8a3d 7c40 43bd fa49 39bd 58ab e33d
00000390: 0f68 813e 85ed bcbd 21db 65bc 32fe 35bd
000003a0: e9f4 863d 1979 28bd e62e a93d 387e c83c
000003b0: efcc 05be 8f29 3cbd 0b43 bb3d 8de9 753c
000003c0: 337b 3d3e d792 ed3c 2b3a 8d3d 4657 a8bd
000003d0: daef 48be d0ad 12be c72f c4bd e6b6 96bc
000003e0: d479 9dbd 312d 513d f3e0 e73d ea53 fa3b
000003f0: 1c17 09be cdfb 2a3e 05f8 5a3d 31bb b3bc
-0.11718763 0.090544224 0.13086386 -0.021899665 -0.08424808 -0.050313283 0.10583109 -0.05887669
0.08795849 0.060426705 -0.07873917 -0.2687993 -0.1561177 0.0070972494 -0.18080392 -0.19813092
-0.1866845 -0.05558825 0.13820727 -0.13738622 0.20620847 -0.14503735 -0.21820298 0.0053709084
-0.12243944 -0.2466895 0.024618339 -0.14518836 -0.14224936 -0.012754511 0.15787528 -0.036550943
-0.11226529 0.038689163 -0.05485568 -0.18781137 -0.07713608 -0.07195309 0.050422806 -0.04990852
-0.05288633 -0.016594792 0.25481737 0.048743363 -0.04406137 -0.039670806 -0.07398897 -0.051523387
-0.1762275 -0.14903434 -0.1288632 -0.082971215 -0.13857622 0.09238382 0.2320877 -0.09442037
0.20297265 0.11887437 0.0327631 -0.08021994 -0.040661365 -0.025822315 -0.030469898 -0.07823485
-0.068056814 -0.12481231 -0.18340796 -0.07641025 -0.10484717 0.029807242 -0.02968521 -0.021092989
0.1666385 -0.027713994 -0.043289497 -0.09539297 0.039077118 -0.18106233 -0.08970396 0.004501872
-0.108551316 -0.08036192 0.07627404 -0.13598548 0.18936552 0.050836623 -0.027474286 -0.062154155
0.062645786 0.021456601 -0.17948249 -0.11401648 0.21897227 -0.13549897 -0.10161604 -0.015347511
0.029453356 -0.10300755 -0.14905451 0.04042473 -0.13085887 -0.055160202 0.046395496 -0.074064575
-0.020493204 -0.21412939 -0.0037697293 0.077190876 0.12780792 0.12290745 -0.054653995 0.09832396
-0.038294554 0.029963817 0.20744255 0.0103886835 -0.3377529 0.13181213 0.033579264 -0.0037920703
-0.06658012 -0.010100671 -0.09419189 -0.017566241 -0.10736616 0.012492646 0.011720295 -0.034477454
-0.07722614 -0.022553846 -0.15276003 -0.02892118 -0.19732058 -0.051886186 -0.098686665 -0.2255618
0.25450855 -0.008027717 -0.14465608 -0.1776664 0.003829703 -0.15206686 0.19780754 -0.03993249
-0.015675386 -0.11062109 0.034366112 0.064487554 0.06925531 0.088202305 0.035658337 -0.05396239
-0.15870109 -0.04744509 0.057617478 -0.056363814 -0.058398396 0.04332532 -0.025181426 0.0025610328
-0.0089833625 0.098579414 0.018536206 0.00024339561 -0.051931642 -0.011698802 -0.0041717775 0.008205089
0.13261779 -0.23154087 -0.11979362 -0.01407984 0.0812014 -0.016070282 -0.38833874 -0.04126852
0.029635549 0.17985472 -0.03438216 0.11449791 -0.26410484 0.022983627 -0.10581294 -0.112103224
0.1251061 -0.20067364 -0.025141712 0.011500169 0.074738346 0.17013508 -0.039072637 0.116634056
-0.089335196 -0.01923313 0.1222671 -0.053243805 -0.075546995 0.18177705 -0.20961615 0.06720345
0.3017592 -0.020706657 0.07471582 0.18136711 -0.1481329 -0.13084231 0.101389386 0.00050738716
-0.18655618 0.014111461 0.11377268 0.023116354 0.07566694 -0.050655562 -0.113290064 -0.09958511
-0.004955761 -0.048335835 0.007039273 -0.03361087 -0.22559874 0.16270822 -0.2520822 -0.28852686
0.06760339 -0.04766892 -0.045236565 0.111166656 0.25274703 -0.09224991 -0.014029295 -0.044431873
0.06589682 -0.041131113 0.08260898 0.024474248 -0.13066457 -0.04593807 0.09143647 0.015009296
0.18504028 0.029000683 0.0689586 -0.08219771 -0.19622746 -0.14324117 -0.09579425 -0.01839776
-0.076892525 0.05106849 0.113222025 0.007639398 -0.13387722 0.16697617 0.053459186 -0.021939846

L3.bias f4 [176]
00000000: 1a7f 4fbe c22e e6bd cd37 14be 6f2a 34be
00000010: ea15 243d 76f4 d9be 4c83 6cbe 5f32 2abd
00000020: 7417 0bbe 1e72 2bbe 3c7d 8abe 1177 38be
00000030: 9cbe 98bd f34d 9dbe f2a0 0abe 16aa 86be
00000040: cdb9 81bd e60e bdbc ce16 e9bc f412 5abc
00000050: 7fbe 26be 05d0 f9bc 4fcf 43be 4349 d33b
00000060: 7279 a0be 0b4f 2cbd 8409 c9be c5fa 65be
00000070: 6730 6fbe 2016 813c 0056 3fbe b2fd 86be
00000080: 8203 79be ca7b 0abe a7e2 88be 89e7 0cbe
00000090: c75d 02be 2ef1 43be 1e8a 6ebc 6967 4d3e
000000a0: eeda 76be 1ab0 26be 5fe2 81be a5c2 14be
000000b0: edac 40bd 8417 09be 2704 87be 1a6e a8bd
000000c0: cf37 72be 299d 9bbd 4361 323d 5b53 65bd
000000d0: 8956 0fbe ea35 2ebe 4671 aabd e496 b8bd
000000e0: 94dc 38be cde8 28be 34c3 d6bd dfe5 543d
000000f0: 375b 87bc 3393 48be 0bcc bdbd 01aa 34be
00000100: 61e1 c3bd 0282 54be 367d 2cbe f853 20bc
00000110: db71 e33d 6468 0abe 739f 36be 3cb9 8abe
00000120: 5582 88bd 9ae7 c9bd d6b4 c8bd adba 90bd
00000130: b323 943d 77ee 11be f6fd 483c e0e8 cd3d
00000140: b5e5 46be 890d 2abd 5c8c 103d ae98 1dbe
00000150: b407 5cbe 2ff9 30bd 1941 d2bd de76 f6bd
00000160: c782 76be 3d9a 05be 3be2 3fbe 1c57 cd3d
00000170: 3ee2 74be 790c 56bd 43dc f0bd 89f0 293e
00000180: 6c0f 3abe 648a aabe ad04 a5bd c792 2abd
00000190: 7c05 4f3d 1bf7 11bd 51fa 87bb 51c8 dbbd
000001a0: 7e4f 0bbe 69ec 22be 849a 0abe e5d8 02bc
000001b0: 88ac aabe 9ef0 57be ef94 93bd 3d61 8fbd
000001c0: 60fe 06be 7d88 6a3d 8ef7 30be b9d9 babd
000001d0: 70b0 743c 6aca 0cbe ae04 08be e457 68be
000001e0: b354 4fbe 7609 49be 3f93 53be a171 e5bd
000001f0: bef2 a8be 2a2c 1ebe 6bd2 debd 0d75 1abc
00000200: 962c 98be a5b6 1bbd 34a1 5cbd b25a d5bd
00000210: 6b16 42be 1a6d 55be 9fee 59bd 4138 b3be
00000220: fe6c 1e3e 418a f4bd 4f8a 933d a3d8 2abe
00000230: 7c18 b5bd 023f 49be 65c5 fdbd b207 fbbd
00000240: febb 2a3d ede0 5dbd e485 77bd b03d 2fbe
00000250: a9f2 4dbe fab7 92be 59f8 82be 551c 35be
00000260: beb9 ca3d 1ace 92bd 871d e2bd 9813 0bbe
00000270: ff30 eabd 2dcb 2c3d 3e84 8cbe 179a 26be
00000280: ed84 84be db5d 12be 21ef 493c 15da 66bc
00000290: ad59 013e e4f4 453d 7a7c 61be 0802 21be
000002a0: 340e a23b 4216 bb3d 8f1c 60bd 0706 fbbd
000002b0: 8040 9d3c f6d0 0abd b37b ccbc 6479 b6bb
-0.20263329 -0.11239387 -0.14474411 -0.17594312 0.04005996 -0.4256932 -0.23096961 -0.041551944
-0.13583165 -0.16742751 -0.2704867 -0.1801417 -0.07458231 -0.30723533 -0.13537958 -0.2630164
-0.06334267 -0.023078393 -0.028453257 -0.013310183 -0.16283606 -0.0304947 -0.1912205 0.0064479425
-0.31342655 -0.04206757 -0.39265072 -0.22458942 -0.23358308 0.01575762 -0.1868515 -0.2636543
-0.24317744 -0.13523784 -0.26735422 -0.13760199 -0.12731086 -0.19134971 -0.014559297 0.20058979
-0.24106953 -0.16278115 -0.2536802 -0.14527376 -0.047039915 -0.13387877 -0.26370355 -0.08224125
-0.23654102 -0.07598335 0.043549787 -0.055987697 -0.13997854 -0.17012754 -0.083223864 -0.09013155
-0.18052894 -0.16495056 -0.10486451 0.051977035 -0.016522987 -0.19587402 -0.09267434 -0.17642976
-0.09564472 -0.20752719 -0.16844639 -0.009785645 0.111057006 -0.13516384 -0.17834263 -0.27094448
-0.06665484 -0.098586276 -0.09800117 -0.070668556 0.072333716 -0.14251123 0.01226758 0.10054183
-0.19423564 -0.041516814 0.035290107 -0.15390274 -0.21487314 -0.04320639 -0.10266323 -0.12034391
-0.24073325 -0.13047118 -0.18738644 0.100263804 -0.2391443 -0.05225799 -0.117607616 0.16595663
-0.18169945 -0.3330871 -0.080575325 -0.041643884 0.05054234 -0.03563605 -0.004149713 -0.10731567
-0.13604543 -0.15910496 -0.13535506 -0.007986282 -0.33334756 -0.21087882 -0.07206141 -0.070009686
-0.13182974 0.05725907 -0.17281935 -0.091235586 0.014934644 -0.1374909 -0.13283035 -0.22689778
-0.20247154 -0.19632515 -0.20661639 -0.112033136 -0.32997698 -0.15446535 -0.10879978 -0.009427321
-0.29721516 -0.03801598 -0.053864673 -0.104176894 -0.18953864 -0.208424 -0.053206082 -0.35003856
0.15471265 -0.11940432 0.07204115 -0.16684203 -0.08842561 -0.19652942 -0.12391166 -0.12257327
0.04168319 -0.054169584 -0.060430422 -0.17113376 -0.20112099 -0.28655988 -0.255801 -0.17686589
0.09898709 -0.07168217 -0.11040788 -0.13581693 -0.114351265 0.04218595 -0.27444643 -0.16269718
-0.25882664 -0.14293616 0.012325079 -0.014090081 0.12631865 0.04832925 -0.2202014 -0.15723431
0.004945541 0.09135105 -0.054714736 -0.12257009 0.019195795 -0.033890687 -0.024961328 -0.00556867

L4.weight f4 [88, 176]
00000000: 7301 023c a853 c53c 6150 123d e5c8 1dbe
00000010: 4467 163d 455c bb3c dd36 1fbd ecfb 6c3c
00000020: 39be eebd ae57 63bc 982c 393e e6d9 83bb
00000030: 132b e53d bcab c33c 4872 cf3a 2e01 91bd
00000040: 2d33 393d 0dfb 53be 9f2e d8bc eaba 70bd
00000050: 6850 d8bc 44a2 9f3c a014 c4bd cad5 cbbc
00000060: 18dc d5bc 57e3 e7bd 15c9 ec3d 382c edbc
00000070: b9b6 993d d1b0 c73d cfd7 aa3a 9777 5f3e
00000080: 9f5a 32be 0ffd ea3b 171f 1bbc f065 60bc
00000090: 16a5 193d 0141 cf3d 6a57 01be 863a 123d
000000a0: 14a2 09bd 6259 e3bb 5d64 3cbd 471f b0bd
000000b0: fbe8 2f3d d773 febd e031 0fbe 8a98 25be
000000c0: d203 8c3c ca17 573d 2b84 d1bd 2f15 c13c
000000d0: 585c 313d 0ec5 ac3d 97b2 d7bd a846 853b
000000e0: 0b4c c5bd 1652 ebbd 67f5 3fbd 6c69 f4bc
000000f0: 1d34 a6bd 7101 e5bd cf9c 3dbe 825c f5bd
00000100: df47 0fbd 9d6d debd 3204 90bd 66e7 b53c
00000110: db25 49bd 60e3 0abb d589 84bd 6fc6 7dbd
00000120: f3f6 f1bb 0637 2fbd a3a1 2b3c d542 d03c
00000130: 931b 24bc 5f4e 0ebe 7e81 e7bd cb89 1a3d
00000140: 3f27 c53b e482 5cbe d823 80bd d822 a03d
00000150: 0f0d ea3c 8451 db3c 341d 10be 0123 f73d
00000160: aa08 56be 8dd6 86bd 120b 52be 3a95 abbd
00000170: efd3 1abe a3b5 1bbe c5af 1b3b 80f3 62bd
00000180: 3734 6bba b2a5 72bd 79c3 c0bd 8378 553d
00000190: f18b dbbc 27a3 a039 9e17 a83c 100a a7bd
000001a0: e50b 14bd a1da 41bd c378 c4bd 0f92 7fbd
000001b0: 2cda 2f3c 9bd9 86bd ab57 f03c 9fef 36be
000001c0: 952e 00bd 7e7f 59bd 4a1f b0bb 3413 4b3e
000001d0: f5b1 eabc 24e2 28bd 7c41 ad3b 5995 67bd
000001e0: 894d bc3d 3110 093e 967c a5bd f33e e33c
000001f0: 8cb8 d43c 436d 0abc cf26 ce3a b516 a8bd
00000200: fb1d 563d 3007 b2bd 6396 e43c 1bcf 8abb
00000210: fa29 eabc ba69 493d 3429 1f3c c9d0 d1bd
00000220: afa6 1cbe cc8c 563d 8a17 b0bb 99a2 67bc
00000230: 8ced b6bd d417 b0bd 425d d0bb 761c 093d
00000240: 2580 f73d 1ad3 2cbe fd0d 8bbd 6ff4 dbbc
00000250: d6da 65be e0ea 84bd 6887 2cbd 81ca d4bd
00000260: edc7 15bd 96ca 053d c359 5e3c d5d1 9abd
00000270: b6e8 b4bd cdd4 d5bd bc1b 71bd e0a4 d3bd
00000280: cd79 03be ba45 bfbd a894 00bd ce24 dc3c
00000290: eae6 52be 9b52 2e3d 6294 d9bc d0fe 60bd
000002a0: 6bc1 3ebd 2262 233d fda0 69bd 1bcf 1a3b
000002b0: 8c13 8ebd 58f0 75bd f5fd bebd 5eef ed3d
000002c0: dbd9 0f3e f2fc 15bd 9ebf c5bc 0f11 41be
000002d0: 6427 13be 8c67 a3bd 56bd f7bd 66ff 83b8
000002e0: 7eb1 88be 5483 d03c 6f1f 623e a265 e53d
000002f0: f6f2 a23b 20a8 82bc 4a5e a5bc 548b 3a3e
00000300: 60af 6abd 1404 c8bd 6441 343d d11b 0dbe
00000310: 222b cf3d 296b b1bc 1ae4 13bd a77f 613c
00000320: ddfe b2bc 7fd8 a4bd 53c1 cebd e92d 9abd
00000330: 7ea7 413d bffb d73b f3e5 a0bd a750 483e
00000340: a196 b7bd 80f4 ae3c 5216 09be 70f2 8cbd
00000350: 4417 e5bc 2cf7 743e 292f fcbd 093f 5bbd
00000360: 9520 6a3d b67f 36be e149 fcbd 4571 08bd
00000370: 3e35 e33d ab5a 0cbe f70e 06bc bea3 83be
00000380: 1480 70b9 8e09 5abd 8477 253c 2b2b 353d
00000390: cb2e a4bb 1452 07bd b3c5 11be 85a3 df3d
000003a0: b48d dabd 3659 0ebe ce0c 1dbe cd26 8abd
000003b0: f8f3 273c 2ef6 99bd c60d 37be 8b89 0cbe
000003c0: b5bb babc 974c 93bc 98d3 6a3c 04da 75bc
000003d0: ac6d 29be 6fe2 debc d99d 8a3d 1cca 873d
000003e0: b332 2d3d 6458 4d3d c29c 85bc d838 93bd
000003f0: bbdf 3dbe 50d2 e9bd 9f9e 71be 3eaa 5dbe
0.007934916 0.024087742 0.035721187 -0.15408666 0.036719576 0.022871146 -0.03887068 0.01446436
-0.11657376 -0.013875885 0.18083417 -0.0040237783 0.111898564 0.0238856 0.0015826905 -0.07080303
0.04521482 -0.20701237 -0.026389418 -0.058772005 -0.026405528 0.019486554 -0.095742464 -0.024882216
-0.026105925 -0.113226585 0.11561791 -0.02895175 0.07505555 0.09750522 0.0013034287 0.21822964
-0.17417382 0.00717128 -0.009467862 -0.013696179 0.037510954 0.101198204 -0.12631002 0.035700344
-0.033601835 -0.0069381455 -0.04599415 -0.08599716 0.042946797 -0.124244384 -0.1398387 -0.1617147
0.017091665 0.05251292 -0.10230287 0.023569671 0.043300956 0.08436023 -0.1053211 0.004067261
-0.09633645 -0.11490266 -0.046864893 -0.029835425 -0.081154086 -0.111819156 -0.18516849 -0.11980535
-0.03498065 -0.10860751 -0.0703205 0.022205066 -0.049108367 -0.0021192655 -0.06471602 -0.06195682
-0.007384175 -0.042777084 0.010475549 0.025422493 -0.01001634 -0.13897084 -0.113039955 0.037729066
0.0060166414 -0.21534306 -0.06256837 0.07819146 0.02857068 0.026772268 -0.1407364 0.12067223
-0.20901743 -0.06583891 -0.20512035 -0.08378072 -0.15119909 -0.15206008 0.002375589 -0.055408
-0.0008972319 -0.05924005 -0.094122835 0.052116882 -0.026800128 0.00030639136 0.020519074 -0.08156216
-0.036144156 -0.04732764 -0.09593346 -0.06239515 0.010733169 -0.06584474 0.029338678 -0.17864846
-0.031294424 -0.0531001 -0.0053748237 0.19831544 -0.02864931 -0.04123129 0.0052873474 -0.056538913
0.09194476 0.13385083 -0.080804035 0.027739977 0.025966905 -0.008448902 0.0015728119 -0.08207456
0.052274685 -0.08692777 0.027903741 -0.0042361147 -0.02858447 0.049173094 0.009714413 -0.10244901
-0.1529796 0.052380368 -0.0053739 -0.014137887 -0.08932027 -0.08598295 -0.0063587734 0.033474408
0.120849885 -0.16877404 -0.067897774 -0.026849953 -0.2244676 -0.06490111 -0.04212132 -0.10390187
-0.036567617 0.032663904 0.013571206 -0.075595535 -0.088334486 -0.10440979 -0.05886434 -0.10334182
-0.12839432 -0.09339471 -0.03139177 0.026873019 -0.20595899 0.042559247 -0.026560012 -0.054930508
-0.046571176 0.03988851 -0.057038296 0.002362198 -0.06937322 -0.060043663 -0.09325782 0.11617921
0.14047949 -0.03661818 -0.024139222 -0.18854164 -0.14370495 -0.079787344 -0.1209666 -6.2941384e-05
-0.26697916 0.025453247 0.22082303 0.112010255 0.004972811 -0.015949309 -0.020186562 0.18217212
-0.057296157 -0.09766403 0.044007674 -0.13780142 0.10115649 -0.021657543 -0.036106206 0.013763345
-0.021850044 -0.08049106 -0.100954674 -0.07528288 0.047278874 0.00659129 -0.07856359 0.19562016
-0.08964277 0.021356821 -0.13387421 -0.06882179 -0.027965195 0.23922414 -0.123136826 -0.053526912
0.05715998 -0.17822155 -0.12318779 -0.033311147 0.110941395 -0.13706462 -0.008182279 -0.25710863
-0.00022935896 -0.05323177 0.0100992955 0.04423062 -0.005010461 -0.03303726 -0.14235573 0.10919861
-0.10671559 -0.13901219 -0.15336916 -0.06745682 0.010251038 -0.07517658 -0.17876348 -0.13724343
-0.022794584 -0.017980857 0.014332674 -0.015005592 -0.16545743 -0.027207581 0.06768388 0.06630346
0.04228468 0.050133124 -0.0163101 -0.071885765 -0.18542378 -0.11417067 -0.23595665 -0.21646973

L4.bias f4 [88]
00000000: e266 aabc b643 24be d209 f3bc 687d 11be
00000010: 062e 38be 6589 eebd 91c4 b73d 0937 0cbd
00000020: 9f54 e03e 79a5 91bc a029 bebd 51e7 4abe
00000030: 56db 8c3d c073 00bd 5348 c2bd bcb5 2bbe
00000040: c271 81bd 9e3b 06be f3e5 c5bd d3b4 ccbd
00000050: cffe febd 0c66 da3c a0db 12be ea15 cebd
00000060: c9cf 0ebe 5283 05bc 9114 2d3e 9064 6bbd
00000070: 037f bfbb 2e00 55bd f530 73be 1592 5abc
00000080: 7349 33be 2346 11be 681a 1dbe 0c85 543d
00000090: b844 c4bd f4aa 24bd 66ca 32be 992a 18be
000000a0: cb1a 6ebe 2e24 0f3d 83bb 0bbe e968 00bd
000000b0: 1578 90bc fdd7 9b3d eb4f 1fbe 5cf4 51bd
000000c0: 5061 3abd a823 92bc 947c 7bbe 79a1 f13d
000000d0: a554 03bd dd0c 61be c396 55be ae89 5dbd
000000e0: 1f51 abbd a931 dbbd 044a 21be 387e 123d
000000f0: 1b1b 0abe 5dac 7d3e bc79 acbb 0656 88bd
00000100: 7b09 43be 4576 2dbe b89e 44be 7f90 803c
00000110: 81cd f5bc dfbe 34be 8ead 82bd 2ef3 66bd
00000120: 524d 24be 1b82 dcbd 9757 7ebc 1ff3 80be
00000130: 422e 33be a2a3 b8bc 2b41 c3bd bd83 10be
00000140: 7808 8ebe 3f96 cfbc 3575 69be 296b dfbd
00000150: 7e2f 31be 4235 12bd 5c6a 383d 5acd 81be
-0.020801011 -0.16041455 -0.029667769 -0.14207995 -0.17986307 -0.116473 0.08973039 -0.034232173
0.4381456 -0.017779099 -0.09285283 -0.19814803 0.068777725 -0.031360388 -0.09486451 -0.16768545
-0.06320526 -0.1310868 -0.09663 -0.09995427 -0.12450945 0.026659988 -0.14341593 -0.100627735
-0.13946451 -0.008148985 0.16902377 -0.05746895 -0.0058439984 -0.052002124 -0.23749144 -0.013340493
-0.17508487 -0.14186911 -0.15342104 0.051884696 -0.095834196 -0.040202096 -0.17460021 -0.1486
-0.23252408 0.034946613 -0.13645749 -0.03135005 -0.017635385 0.07609556 -0.1555783 -0.05125843
-0.04550296 -0.017839268 -0.24559242 0.117983766 -0.032063145 -0.21977563 -0.20858292 -0.05408638
-0.08365082 -0.10702831 -0.15750891 0.035764903 -0.13486902 0.24772783 -0.0052635353 -0.06657033
-0.19046585 -0.16939647 -0.19201171 0.015693901 -0.030005218 -0.17650937 -0.06380759 -0.056384258
-0.1604512 -0.10767003 -0.015523813 -0.25185487 -0.17498115 -0.022538964 -0.09533914 -0.14112754
-0.27740836 -0.025340198 -0.22798617 -0.10909111 -0.17303273 -0.03569532 0.045023307 -0.25351983

L5.weight f4 [44, 88]
00000000: 240c 213e 6dc0 1ebd 8435 253e a090 f53b
00000010: 3f46 1cbd 3457 6cbd da8e 80be af7a f33d
00000020: 7b44 6bbe 9a58 fbbb 48f4 223e 083c 503e
00000030: 34ab 75bd cbb7 14be 147d e73d ba87 393c
00000040: 5ad6 6f3d c10a 9cbc d983 653e 5b43 e43d
00000050: c172 143d 813d dbbc 217f 0f3e 10e0 19bd
00000060: 7f25 1ebd a459 bc3d 7917 96ba 38a3 30bd
00000070: 91de 59be 7a2e 6b3e 39d1 483c c665 5dbc
00000080: 1c43 003a 926a 09be f8da 433a f71c 05be
00000090: ec25 0ebe e9fd 17be d7cd 0c3d 48ed c13c
000000a0: 4bc5 423e 7d83 02be 6ec4 093e 1232 a63a
000000b0: c0c7 40be 1db0 5dbe 9c67 623e fe4e 283d
000000c0: acd3 63bd 0fc9 a33c b054 cd3d ecd5 963d
000000d0: 1c45 0f3e c9cb 503e 474c 2dbd f824 04bd
000000e0: ddf5 293e 9b77 543e 4006 cebd 1467 f8bd
000000f0: 8c1c 8c3e 0ba0 dbbd 008a e3bd 3ce2 f93d
00000100: 90cd 86bc 0fa2 18bd 828f 783d 59ec dcbd
00000110: dc5b de3d dcde 3bbe e0cf 97bd da81 2b3c
00000120: 5769 903d 7045 47bd 0d0d c03c 8827 b8bd
00000130: 2b82 65bd 2670 1bbe 8474 143e 713a 5cbd
00000140: 0e60 153e 1c96 8cbc 89aa 96bd cce6 dc3d
00000150: 0b0e 74be f931 353e 68d7 43bc 6085 dcbc
00000160: 26cf 623c 5c79 c7bc 82f9 8abd cb56 b13d
00000170: d9ac a9bc 3aa6 02be 7de9 08bd ef71 d3bc
00000180: ebf5 54be 7289 a3bd 4fe7 593d d537 8ebd
00000190: 656c 3cbe abdc 08be b3d0 84bd 87ef 7fbd
000001a0: 5b36 d23c b898 3c3e 83dc 083d 2016 81bd
000001b0: 8c85 c53d 40bd a5bd 3562 e53c 2bbf 1f3d
000001c0: cda7 7abd d02a 44bd 203b 87bd d3f6 2b3b
000001d0: 3580 e83b fb98 7cbd b66a 30be 9243 eabd
000001e0: 5e44 ccbc a812 413d 3cd7 f83d bd89 8bbd
000001f0: 81b7 dcbd ca27 b63c d271 94bd f653 8e3c
00000200: 79b3 8cbc b354 903d bcf9 6d3d 765b 58bd
00000210: 928b 9e3c 1ae9 b3bc 73b6 88be 889d 843e
00000220: 316d c8bd 8f64 0dbc 0b13 3fbd 3cde a23d
00000230: 538c 06be 4870 e93d 763e 203c 2fe9 073d
00000240: 8bff d93c 418f 5f3d cf52 eabc ea55 0bbe
00000250: 954a d2bd 9c1f 57be 72d0 bdbd 0364 1ebc
00000260: b222 7d3d 229f 8abd 607d 47be 4305 37be
00000270: 6449 013e 0d8e b7bd 04d1 0d3d 4d1c 623d
00000280: 217a 223e bcac ae3d b1f9 7ebd 44f7 91bd
00000290: beed 28be 3ab6 17be d06c e8ba df34 92bc
000002a0: e41d 2cbe f62b 3abd ad7a 4e3e 3ea6 d9bd
000002b0: d3bb 44bd c899 0fbe b8f7 29be 7326 4e3d
000002c0: 78a0 953d 9f53 5f3d 72e0 fcbd 0e10 053d
000002d0: 9f87 23bd 4f92 013e 7f81 2e3d a1dc 43be
000002e0: bfa9 13bd 1aed e73c d7f5 dabd 75a5 49bd
000002f0: 6abc 4ebd 6c03 1f3e 8561 92bd a0bf a53d
00000300: 2a0a 8e3d 4b9d 5c3c c6f4 3abd 269e f1bd
00000310: 58ee 573b fb54 6d3c 1ca4 a8bd 9419 20bd
00000320: 1fb5 7b3d 4f38 6e3b 9cdc b2bd dc4e 0e3d
00000330: 91b1 7d3c fa17 9cbb 3d9e e7bc 0a71 69bd
00000340: 85f6 d9bd 4766 31bc 5148 283e d6fe 3bbc
00000350: d1b6 43be 4b99 38bd 0eae 893e 6438 443e
00000360: c724 ac3d 826f 6a3d d535 493e 78f6 723d
00000370: f658 c0bc 4988 663d f850 97bd aa93 503c
00000380: 0a38 113d 7bf7 d1bc 2f0c c63d 1376 5bbe
00000390: 2244 0cbd f738 f53d 04bd dfbd cd5b b6bb
000003a0: 66a2 e73d 64f2 16bd fcc9 4bbd 0c37 4fbe
000003b0: 78da 5d3b eced aabc b409 87bd 50ce 373e
000003c0: 7cbb ed3d d587 273d f4e7 e1bc 5d01 c3bd
000003d0: 3381 4fbd 3911 bebd 55ad 94bd 4ef3 c93c
000003e0: 24c8 0c3d ced4 71bd aa2f c9bd d590 55bc
000003f0: 8417 333e 6288 13be e1e9 973d a378 a33c
0.15727288 -0.03875773 0.16133696 0.0074940473 -0.03815293 -0.05770035 -0.25108987 0.118886344
-0.22975342 -0.0076704742 0.15913498 0.203354 -0.059977725 -0.14523236 0.11303154 0.011323864
0.05855403 -0.019048097 0.22413577 0.111456595 0.03624225 -0.026762726 0.1401334 -0.0375672
-0.038609978 0.09196785 -0.0011451087 -0.043124408 -0.21276309 0.22966948 0.012256914 -0.013513034
0.00048928126 -0.1341956 0.00074712886 -0.1299933 -0.13881654 -0.14842953 0.03437599 0.023672715
0.19020574 -0.12745471 0.13453838 0.0012679717 -0.18826199 -0.21649213 0.22109836 0.041090958
-0.055621788 0.019993333 0.100259185 0.07365021 0.13991207 0.20390238 -0.042309072 -0.03226182
0.16597696 0.20748751 -0.10059786 -0.121290356 0.2736553 -0.10723885 -0.11110306 0.12201354
-0.016455442 -0.037263926 0.060683735 -0.10787267 0.108573645 -0.18346733 -0.07412696 0.010467971
0.07051342 -0.048650205 0.023443723 -0.08991915 -0.05603234 -0.151795 0.14497572 -0.05376667
0.14587423 -0.017161421 -0.07356746 0.107862085 -0.23833482 0.17694844 -0.011953212 -0.026919067
0.013843333 -0.02434986 -0.06785871 0.086591326 -0.020712303 -0.12758723 -0.033425797 -0.025811164
-0.20796935 -0.079852 0.05319911 -0.06944243 -0.18400724 -0.13365428 -0.06485119 -0.06248429
0.025660684 0.18417633 0.03341342 -0.06303048 0.09644613 -0.08092737 0.02800093 0.03900067
-0.061195184 -0.04789239 -0.06603074 0.0026239648 0.0070953616 -0.06166933 -0.17228207 -0.11438669
-0.024934944 0.047136933 0.12150428 -0.06813381 -0.10777188 0.02223577 -0.07248272 0.01737402
-0.017175423 0.07047405 0.058099493 -0.0528216 0.019353662 -0.021961737 -0.26701698 0.25901437
-0.097864516 -0.008629932 -0.04664902 0.07952544 -0.13139467 0.11398369 0.009780517 0.033181366
0.02661111 0.054579977 -0.02860394 -0.13606992 -0.10268132 -0.21008152 -0.092682734 -0.009667399
0.061800666 -0.067686334 -0.1948142 -0.17873101 0.12625653 -0.08962641 0.03462316 0.05520277
0.15866901 0.0852904 -0.062249843 -0.0712724 -0.16496941 -0.14815608 -0.0017732624 -0.017847477
-0.16808277 -0.04545208 0.20163985 -0.10627411 -0.048030686 -0.14023507 -0.16598403 0.050329637
0.073059976 0.054523107 -0.12347497 0.032486014 -0.03992426 0.12653469 0.042603966 -0.19127132
-0.036050554 0.028311301 -0.106914215 -0.049230058 -0.050472654 0.15528649 -0.071475066 0.0809319
0.069355324 0.013465236 -0.04564359 -0.117977425 0.003294846 0.014485593 -0.082344264 -0.039086893
0.061452027 0.003634948 -0.08733484 0.034743175 0.01548423 -0.0047636004 -0.028273696 -0.056992568
-0.10642723 -0.0108276075 0.16433837 -0.011474332 -0.19112708 -0.045068067 0.26890606 0.19162136
0.08405452 0.05723525 0.19649442 0.059317082 -0.02347992 0.056282315 -0.073884904 0.012730518
0.035453834 -0.025630703 0.096702926 -0.2143176 -0.034244664 0.11973756 -0.10924724 -0.0055651427
0.11310272 -0.036852255 -0.049753174 -0.20235842 0.0033852141 -0.020865403 -0.065936476 0.17949796
0.116080254 0.040901024 -0.027576424 -0.095217444 -0.050660323 -0.09280629 -0.07259623 0.02465215
0.034370556 -0.059040837 -0.09823544 -0.013035019 0.17489439 -0.14407495 0.07417656 0.019954985

L5.bias f4 [44]
00000000: e2a3 81bd fd40 90bd 4884 1ebe d1b6 2ebe
00000010: 6d37 c93d cf5c ca3b 911a 1cbe 49de 01be
00000020: c7eb 23bd e9f8 803c 4ba0 95bd 4c9c 83bd
00000030: c587 eabc 123f 47be f75c abbd 220c 07be
00000040: 73b3 05bd 4938 57be ebd0 a8b9 c0b0 6ebe
00000050: f8a5 96bb 5ecd 91bc 2f74 8cbe 2bd3 61be
00000060: c7ab 60be 74c0 4abe d237 56bd e98f 6cbe
00000070: 6f46 1fbe ef94 143d 16d9 bbbd b4ce febd
00000080: a84b d1bd 157f c7bd 80aa e6bd 7a0a 82bd
00000090: 097a 86bd bd6b 4e3c 4cec 9ebc 5801 27be
000000a0: c692 dbbd 8fea 7abd 0498 dbbc 84f3 13be
-0.06330086 -0.070436455 -0.15480149 -0.17061926 0.09825025 0.0061756144 -0.1524451 -0.12682451
-0.040019777 0.01574369 -0.07305964 -0.06426296 -0.028629193 -0.19457653 -0.08367341 -0.13188222
-0.03264184 -0.21017565 -0.00032199113 -0.23309612 -0.0045974217 -0.017798122 -0.2743239 -0.2205321
-0.21940528 -0.19799978 -0.05229933 -0.23101772 -0.15554212 0.036274847 -0.09172265 -0.12441769
-0.102195084 -0.09741036 -0.11262989 -0.063496545 -0.06566245 0.012598929 -0.019399785 -0.16309106
-0.10721354 -0.06125885 -0.026805885 -0.14448363

L6.weight f4 [1, 44]
00000000: e189 bb3d 9d6f 53bc 411e 713c b417 c03c
00000010: 3fea d13c 70e2 b7bd 3491 13bd bccc 05bd
00000020: 8bd3 2c3d c7ab 69bc 772f 04bd cb17 433c
00000030: acd2 1a3c fbe8 2a3c 055a 8d3c 1bf7 ab3c
00000040: 8bed 83bc 23dd f0bd 8244 313c ca8d 17bd
00000050: ecad 8ebc 536e 873c 3fac 053d 5802 083d
00000060: 2b30 3239 776e 5bbb 16d9 943c 4dcd 283d
00000070: 2a3d f33c 01d9 2b3b 7fcd 7b3d 6a7b 33bd
00000080: 79d1 16bd b5c7 633c 7989 3f3c 4d5a 253c
00000090: 8f74 07bd e258 893c e947 96bc 5c80 5bbc
000000a0: 1ed5 98bc d68e f13c 2c91 533d f4c2 a43c
0.09157158 -0.012905029 0.014716686 0.023448803 0.025624393 -0.089787364 -0.03602715 -0.032665953
0.04219393 -0.014262146 -0.03227183 0.011907528 0.009449642 0.010431523 0.017254839 0.020991853
-0.01610448 -0.117609285 0.010819556 -0.037000455 -0.017416917 0.016532099 0.03263497 0.03320536
0.00016993347 -0.003348259 0.01816992 0.041211415 0.029692251 0.0026221874 0.061475273 -0.04381887
-0.036820862 0.013902594 0.011690491 0.01009233 -0.033070143 0.016766015 -0.018344836 -0.0133973025
-0.01865631 0.029487055 0.05165212 0.020112492
