Saved_Models_All_Features/target_Hardness_features_22_epochs_12.pth (torch_old, 162565 bytes, 11 tensors)

L1.weight f4 [44, 22]
-0.51123303 0.39019874 0.41106597 0.282899 0.3314915 0.1235322 0.62331694 0.7718933
-0.03248747 -0.07560856 -0.3140986 0.21003617 0.038799886 0.6458919 -0.24277183 0.34297034
0.103755556 -1.0044299 0.21888134 -0.4074006 0.12076204 -0.16062464 -0.012366729 0.3140046
-0.25821495 0.62873566 -0.5251329 0.8113121 0.30287778 0.49225792 0.2363594 0.0418376
-0.24051617 -0.14757642 -0.4794412 -0.013908703 0.07434475 -0.24488115 -0.08956254 0.38197005
-0.3673149 -0.27191037 -0.28932035 0.044116624 0.3417616 -0.13462275 -0.10094632 0.08742634
0.18108746 -0.043144047 -0.15916508 0.76338464 -0.006022679 -0.1983293 0.13438822 0.22659427
0.3020361 0.738361 -0.124676675 0.7212113 0.4612112 -0.8471792 -0.2560647 -0.6133549
-0.05869974 -0.25682142 -0.6158645 -0.17397809 0.50655794 0.04978095 0.06997723 -0.26144636
0.114483334 0.6517017 -0.07390042 -0.02658264 0.25343615 0.19582537 -0.0025949816 0.15319684
0.09475277 -0.11469865 -0.3115426 0.350046 0.29098177 -0.17433558 0.22684364 0.18825042
0.06823747 0.8707599 -0.103354394 0.24449994 -0.45193592 0.20397814 0.05584555 0.02083977
0.2453065 0.24270645 0.5616733 0.11300667 -0.5128373 0.33971372 0.96825105 -0.10285874
-0.48528075 0.5629782 -0.3202137 -0.39094028 0.033995565 -0.13495126 0.20550352 0.041601136
0.3545363 0.15936044 -0.17334718 0.010803261 0.11410943 0.21570715 0.22710739 -0.056269195
0.033165112 0.2369851 -0.19453177 -0.14361778 0.69204026 0.42540228 0.009695804 0.415757
0.08205841 -0.17626742 0.29137385 0.11127374 0.31641528 0.3172098 0.20287682 0.11022004
0.12075046 -0.1961686 0.20254916 0.07533925 0.39293444 0.028862128 -0.016245795 -0.081282355
-0.02794025 0.06645423 -0.1753401 0.041878622 0.5073341 -0.22316247 -0.018330097 -0.23773628
-0.014821335 0.26926738 0.101204336 0.33539173 0.66898465 -0.20138197 -0.31540048 0.5266467
0.007927992 0.22654237 0.23884037 0.26643386 -0.24283357 0.07789096 -0.16558424 0.2541555
-0.04227474 0.12944703 0.112643816 0.24109018 0.24522884 0.031728595 0.24166305 0.26655546
-0.3471362 0.38146427 -0.013738956 0.004530339 0.17622316 -0.06857494 0.31799343 0.6774647
0.09514122 0.07745265 0.35145622 -0.006693772 0.075910605 -0.16368224 0.08268242 0.22608714
0.1477729 -0.43606776 0.70706487 0.14994767 0.068038635 0.2240463 0.06403184 0.035324108
0.11895707 -0.008720175 0.3077795 -0.074885495 0.10854494 0.19579056 0.20944688 -0.100174956
-0.06775102 0.13703535 -0.32295534 0.05326481 0.1121911 0.24176468 -0.08424995 0.03184848
0.43569595 0.18195535 0.20839694 0.36341646 0.47039443 0.20422004 -0.031836376 0.4433543
-0.079967916 0.2816373 0.28612012 -0.06725026 0.54879194 0.4804246 0.009413403 -0.036736358
-0.1393249 -0.91709346 0.34018472 0.8733133 0.14128791 -0.10134149 -0.11612159 0.17733012
0.58745426 0.0071728444 0.30571097 0.22288759 0.2516392 0.36055678 0.056820966 0.31678757
-0.008725748 0.27238306 0.18512866 0.13117926 -0.06103222 -0.030768042 -0.034786303 0.14991495
00000000: 2be0 02bf 21c8 c73e 3d77 d23e 23d8 903e
00000010: 41b9 a93e 73fe fc3d b391 1f3f cd9a 453f
00000020: 9511 05bd a9d8 9abd 88d1 a0be b913 573e
00000030: a1ec 1e3d 2c59 253f 2e99 78be cf99 af3e
00000040: cb7d d43d 2991 80bf 6e22 603e d096 d0be
00000050: 1752 f73d c97a 24be d29d 4abc 36c5 a03e
00000060: c034 84be d2f4 203f 1c6f 06bf 26b2 4f3f
00000070: cc12 9b3e 3b09 fc3e 3308 723e e75d 2b3d
00000080: df49 76be 461e 17be 5179 f5be 54e1 63bc
00000090: 0f42 983d 20c2 7abe 916c b7bd 9491 c33e
000000a0: b310 bcbe d637 8bbe cc21 94be a2b3 343d
000000b0: 60fb ae3e 8cda 09be f2bc cebd 950c b33d
000000c0: fe6e 393e d0b7 30bd 2cfc 22be 2d6d 433f
000000d0: e559 c5bb d616 4bbe 119d 093e 5408 683e
000000e0: 7aa4 9a3e 3a05 3d3f 7c56 ffbd 4ea1 383f
000000f0: e023 ec3e bce0 58bf ea1a 83be d404 1dbf
00000100: 236f 70bd 197e 83be 4ca9 1dbf 5027 32be
00000110: c8ad 013f 1ce7 4b3d 3950 8f3d 4cdc 85be
00000120: 3d76 ea3d ecd5 263f 1a59 97bd d6c3 d9bc
00000130: 62c2 813e 7286 483e 9110 2abb a2df 1c3e
00000140: be0d c23d 20e7 eabd 8382 9fbe 3b39 b33e
00000150: 90fb 943e 0785 32be b349 683e b8c4 403e
00000160: 16c0 8b3d 1fea 5e3f 78ab d3bd 315e 7a3e
00000170: 2564 e7be a5df 503e 4ebe 643d 2ab8 aa3c
00000180: a131 7b3e 0a88 783e d2c9 0f3f 0a70 e73d
00000190: 4e49 03bf f5ee ad3e 4ddf 773f 9aa7 d2bd
000001a0: b876 f8be 571f 103f 0df3 a3be 5329 c8be
000001b0: ef3e 0b3d aa30 0abe 846f 523e f465 2a3d
000001c0: c885 b53e 622f 233e ec81 31be 2900 313c
000001d0: 34b2 e93d 56e2 5c3e d78e 683e 877a 66bd
000001e0: 24d8 073d 39ac 723e 5633 47be 8a10 13be
000001f0: 8d29 313f 54ce d93e 26db 1e3c 1ade d43e
00000200: 3d0e a83d 727f 34be f42e 953e 7de3 e33d
00000210: 2f01 a23e 5369 a23e f1be 4f3e 0bbb e13d
00000220: 044c f73d 6ce0 48be 0c69 4f3e 774b 9a3d
00000230: b42e c93e 4570 ec3c e715 85bc 5d77 a6bd
00000240: f3e2 e4bc 2819 883d 5b8c 33be eb88 2b3d
00000250: a6e0 013f b484 64be 0029 96bc 2471 73be
00000260: 2fd5 72bc 6add 893e 3844 cf3d 77b8 ab3e
00000270: 9442 2b3f 1337 4ebe 2c7c a1be 51d2 063f
00000280: 69e4 013c b9fa 673e 9292 743e 056a 883e
00000290: 5da9 78be 4c85 9f3d ea8e 29be ab20 823e
000002a0: 4728 2dbd c38d 043e cdb1 e63d 58e0 763e
000002b0: 451d 7b3e d8f5 013d 8576 773e f579 883e
000002c0: d6bb b1be 494f c33e 5c19 61bc 3d73 943b
000002d0: d873 343e 0571 8cbd 09d0 a23e 546e 2d3f
000002e0: 66d9 c23d 7f9f 9e3d 12f2 b33e 6e57 dbbb
000002f0: 0577 9b3d 519c 27be 6755 a93d 6383 673e
00000300: c751 173e 4644 dfbe 3402 353f e28b 193e
00000310: d757 8b3d 656c 653e 2023 833d 03b0 103d
00000320: c49f f33d 11df 0ebc 4695 9d3e 915d 99bd
00000330: cf4c de3d 527d 483e 3e79 563e 8728 cdbd
00000340: 0cc1 8abd ff52 0c3e 675a a5be 342c 5a3d
00000350: 73c4 e53d 2991 773e 3d8b acbd 8d73 023d
00000360: 8a13 df3e 8152 3a3e 0266 553e b911 ba3e
00000370: 8ad7 f03e 0f1f 513e dc66 02bd 56ff e23e
00000380: 38c6 a3bd c432 903e 567e 923e 81ba 89bd
00000390: a17d 0c3f 37fa f53e ad3a 1a3c dd78 16bd
000003a0: 30ab 0ebe a3c6 6abf b12c ae3e 7691 5f3f
000003b0: c7ad 103e 218c cfbd 28d1 edbd 0796 353e
000003c0: 6763 163f 2e0a eb3b 2686 9c3e a53c 643e
000003d0: dad6 803e e69a b83e 1abd 683d fb31 a23e
000003e0: 71f6 0ebc cb75 8b3e 5e92 3d3e db53 063e
000003f0: ecfc 79bd 430d fcbc 157c 0ebd 4e83 193e

L1.bias f4 [44]
-1.3787609 -0.6184076 -1.1133554 -1.2074528 -1.2929925 -1.1646123 -1.2372441 -1.1639813
-1.1508867 -1.2278943 -1.1506413 -1.0264959 -1.1446158 -1.4077289 -1.6688255 -1.1607867
-1.2400771 -0.3993209 -1.755971 -1.4249667 -0.9247762 -0.9868092 -1.3900834 -0.9073949
-1.2638953 -1.0394465 -1.2563089 -1.4347996 -1.3912954 -1.2149304 -1.3674401 -1.5008713
-0.4850924 -1.1615981 -0.89335626 -1.3265339 -1.4412618 -0.9999629 -1.1061642 -0.9157045
-1.3738724 -1.392319 -1.5676383 -0.9496627
00000000: 3d7b b0bf f64f 1ebf 6e82 8ebf d08d 9abf
00000010: c780 a5bf 0412 95bf 045e 9ebf 57fd 94bf
00000020: 4150 93bf a42b 9dbf 3748 93bf 3864 83bf
00000030: c582 92bf 7630 b4bf 139c d5bf a994 94bf
00000040: d9ba 9ebf ca73 ccbe a8c3 e0bf 4f65 b6bf
00000050: 22be 6cbf 879f 7cbf 41ee b1bf 084b 68bf
00000060: 52c7 a1bf 950c 85bf bbce a0bf 83a7 b7bf
00000070: f815 b2bf d782 9bbf 4708 afbf 8d1c c0bf
00000080: 085e f8be 3faf 94bf ffb2 64bf ddcb a9bf
00000090: 447b b8bf 92fd 7fbf ca96 8dbf 9c6b 6abf
000000a0: 0ddb afbf 8237 b2bf 5fa8 c8bf 181d 73bf

L2.weight f4 [88, 44]
-0.33265656 0.4903075 0.39047545 -0.39867887 0.8690095 0.28282252 -0.19241269 0.5338334
0.09699607 -0.124727495 0.28527728 0.22054191 -0.34555385 -0.073886745 0.34816957 -0.11540374
-0.111249715 -0.3034237 0.6610214 0.12209352 -0.165264 -0.018782664 0.013138847 -0.100999475
-0.11122204 0.2982495 -0.4735355 -0.5309899 -0.017087149 0.6017328 -0.48040956 0.50601244
-0.09523703 0.21054447 0.2902272 0.15344462 0.09349277 0.7478125 0.19964367 0.049142115
-0.14620222 0.57776123 0.21137813 -0.0010422923 -0.3461468 -0.43752372 -0.41255525 0.25003266
5.8506e-05 0.4832069 -0.12939958 0.7571989 0.13695903 -0.13548996 -0.23307502 0.041894846
0.85185635 0.12081404 0.11106581 -0.5935145 -0.017762471 -0.38341203 0.2046256 0.43625912
-0.83144265 -0.122990124 -0.60897267 -0.4460408 0.69081837 -0.81540567 -0.65685886 -0.06436449
0.25127065 0.5630246 0.3250416 -0.78441876 -0.024754114 -0.6127232 0.31492242 -0.28510994
0.28793687 -0.70452815 0.38218942 -0.32522205 -0.3612128 -0.19536884 0.2728147 -0.80852634
-0.5612688 -0.05475601 -0.26283488 -0.37676045 -0.693205 -0.7087912 0.005052833 0.2786983
-0.27199024 0.18974778 -0.43007424 0.30719033 -0.036896978 -0.09888759 0.11316185 0.34734023
-0.13663326 -0.47842702 -0.4141462 -0.026735779 0.06866505 0.10852144 -0.6320891 -0.63561016
-0.0461692 -0.0658743 -0.30490884 0.0030445862 0.07282763 -0.38173127 0.10018402 0.11092961
-0.19129202 -0.60388094 -0.27697623 0.29293823 0.08597976 0.15235126 0.3841218 0.0039057438
-0.56810254 0.27429068 -0.15038854 -0.23468322 -0.27670643 0.31118035 -0.6325072 0.22580668
-0.15409146 -0.61990345 -0.7984249 -0.13680454 -0.10731955 -0.14555441 -0.8136731 0.47840077
-0.34874395 -0.45534363 -0.36036032 -0.3969704 -0.07149778 -0.30147403 0.22560272 -0.45075858
-0.44413275 -0.66538674 0.07540549 -0.08492367 0.17064363 0.43635902 -0.035848904 -0.6499025
0.17992207 0.061081987 -0.4068008 -0.24425164 0.1417254 -0.6968195 -0.15068907 -0.68311775
-0.5663178 -0.5349545 0.4703003 0.13067421 0.2337505 -0.15147474 -0.19330882 -0.27511933
0.8100704 0.32722306 0.6496399 0.54339343 0.61485815 0.7012054 0.16121615 0.10803696
0.0936595 0.28319162 0.20467298 -0.040745858 -0.25299922 0.047803476 0.4984272 0.5383209
0.08049487 0.3879173 0.5888105 -0.056475427 -0.06867398 -0.12512337 0.82430166 0.18171066
0.8912664 0.033224337 0.17790781 0.09918894 -0.015319602 -0.50630456 -0.14564179 0.4504564
0.028899094 0.08744202 0.90021676 -0.30292088 -0.46525306 0.405622 0.06776966 -0.27784175
0.055578154 -0.10841747 -0.45680812 0.37150368 -0.3905753 -0.17656055 -0.09463047 -0.14592226
0.06495873 0.14661735 -0.20031852 -0.05089848 -0.16890213 -0.24467227 -0.2307562 0.06893061
-0.0020513977 -0.13253129 -0.3364149 -0.42087632 -0.3459632 0.06126546 -0.013438994 0.17534919
-0.1575729 -0.19462772 -0.18016438 0.1105832 -0.39421377 -0.04818764 -0.36968678 -0.2559346
0.06413098 -0.10877606 -0.31751537 -0.48654875 -0.19332367 -0.10645349 -0.14367704 -0.31878155
00000000: f651 aabe 9609 fb3e 66ec c73e a31f ccbe
00000010: 6877 5e3f 1dce 903e d507 45be 4ea9 083f
00000020: e0a5 c63d 2171 ffbd dd0f 923e bdd5 613e
00000030: 6fec b0be ef51 97bd 4843 b23e cc58 ecbd
00000040: e4d6 e3bd 5a5a 9bbe b338 293f 2b0c fa3d
00000050: f73a 29be 1ade 99bc 5244 573c d0d8 cebd
00000060: 62c8 e3bd 29b4 983e 3f73 f2be f4ee 07bf
00000070: 59fa 8bbc 290b 1a3f 3ef8 f5be 088a 013f
00000080: a20b c3bd f898 573e a998 943e 9620 1d3e
00000090: 2379 bf3d a470 3f3f 646f 4c3e 3e49 493d
000000a0: 09b6 15be 29e8 133f 8273 583e 879d 88ba
000000b0: 273a b1be 1c03 e0be 713a d3be 4804 803e
000000c0: 5764 7538 e566 f73e 5381 04be cad7 413f
000000d0: fd3e 0c3e e1bd 0abe 38ab 6ebe ee99 2b3d
000000e0: 4213 5a3f 5a6d f73d 7976 e33d 91f0 17bf
000000f0: 9a82 91bc 954e c4be 6089 513e 5b5d df3e
00000100: 6dd9 54bf 3fe2 fbbd a2e5 1bbf 765f e4be
00000110: 79d9 303f 6dbe 50bf e727 28bf 88d1 83bd
00000120: 8ca6 803e 6122 103f da6b a63e abcf 48bf
00000130: 24c9 cabc 6ddb 1cbf 833d a13e eef9 91be
00000140: 766c 933e f55b 34bf 55ae c33e 8183 a6be
00000150: e2f0 b8be c50e 48be 5eae 8b3e 95fb 4ebf
00000160: 50af 0fbf d747 60bd 4b92 86be bfe6 c0be
00000170: e275 31bf 5773 35bf 3c92 a53b 8bb1 8e3e
00000180: 4e42 8bbe 3e4d 423e b132 dcbe 0d48 9d3e
00000190: 4921 17bd 9485 cabd 66c1 e73d 94d6 b13e
000001a0: 97e9 0bbe 63f4 f4be f90a d4be fe04 dbbc
000001b0: 43a0 8c3d 7d40 de3d 97d0 21bf 59b7 22bf
000001c0: ea1b 3dbd 1be9 86bd 031d 9cbe ae87 473b
000001d0: a726 953d 4872 c3be 482d cd3d 102f e33d
000001e0: 0ee2 43be f197 1abf d4cf 8dbe 00fc 953e
000001f0: 2816 b03d f801 1c3e 9dab c43e 82f7 7f3b
00000200: 2b6f 11bf d46f 8c3e 74ff 19be cc50 70be
00000210: 77ac 8dbe 0853 9f3e feeb 21bf de39 673e
00000220: 27ca 1dbe feb1 1ebf 9365 4cbf 7d16 0cbe
00000230: 5aca dbbd 370c 15be e14c 50bf f2f0 f43e
00000240: 918e b2be cd22 e9be 2681 b8be b43f cbbe
00000250: 6e6d 92bd ce5a 9abe 6604 673e d4c9 e6be
00000260: 5e65 e3be c956 2abf 326e 9a3d 76ec adbd
00000270: 34bd 2e3e 736a df3e 4dd6 12bd 0360 26bf
00000280: 7e3d 383e 1b31 7a3d 3248 d0be 1a1d 7abe
00000290: 7720 113e c362 32bf 3c4e 1abe cee0 2ebf
000002a0: 34fa 10bf c7f2 08bf 33cb f03e 76cf 053e
000002b0: 4b5c 6f3e 321c 1bbe bff2 45be 71dc 8cbe
000002c0: c660 4f3f c889 a73e cd4e 263f d51b 0b3f
000002d0: 5867 1d3f 3282 333f d915 253e 7b42 dd3d
000002e0: 8dd0 bf3d 7efe 903e cb95 513e 21e5 26bd
000002f0: 1d89 81be 94cd 433d da31 ff3e 66cf 093f
00000300: 7fda a43d 199d c63e 49bc 163f c752 67bd
00000310: f2a4 8cbd 5720 00be 6f05 533f 5c12 3a3e
00000320: 092a 643f 3e16 083d 772d 363e 9223 cb3d
00000330: 11ff 7abc 2d9d 01bf 1f23 15be 39a2 e63e
00000340: cbbd ec3c cd14 b33d 9b74 663f 7218 9bbe
00000350: a635 eebe b0ad cf3e d2ca 8a3d 4641 8ebe
00000360: eba5 633d fa09 debd c1e2 e9be bb35 be3e
00000370: 7cf9 c7be 4acc 34be 9fcd c1bd a56c 15be
00000380: 1509 853d dc22 163e 4c20 4dbe ed7a 50bd
00000390: aef4 2cbe 5e8b 7abe 5a4b 6cbe 7e2b 8d3d
000003a0: be70 06bb 48b6 07be 933e acbe 1a7d d7be
000003b0: 1722 b1be 7ef1 7a3d 3a2f 5cbc bd8e 333e
000003c0: ca5a 21be 7d4c 47be 037d 38be 7279 e23d
000003d0: 63d6 c9be 6760 45bd 9647 bdbe dc09 83be
000003e0: 1a57 833d fcc5 debd 6091 a2be eb1c f9be
000003f0: a4f6 45be 4a04 dabd 1320 13be 5637 a3be

L2.bias f4 [88]
-0.5473874 0.06393015 -0.90454984 -0.36692023 0.3549786 -0.09563556 -0.746207 -0.5909517
-0.2271969 -0.32697925 -0.43741778 -0.36676913 -0.51128054 -0.6478933 -0.17954451 -0.6649289
-0.60792243 -0.6332795 -0.029299358 -0.81725526 -0.39870763 -0.31099516 -0.41452155 -0.5516115
-1.1799259 -0.29983142 -0.44020903 -0.8895954 0.3383617 -0.33371338 -0.96305925 -0.29861683
-0.41914147 -0.3372616 -0.46788484 0.13806193 -0.328723 0.18802588 -0.2675347 -0.70238066
-0.18242586 -0.77866274 -0.72918934 -0.6032978 -0.22170438 -0.16172314 -0.2783923 -0.2730882
-0.64883584 -0.65968394 0.81929535 -1.1632951 -0.69097114 -0.5608146 -0.6420445 0.37372515
-1.027719 -1.2645346 -0.4303726 -0.23921351 0.04016043 -0.15597096 0.15600103 -0.76128167
-0.29321802 -0.22402261 0.20162024 -0.8672396 -0.20266624 -0.32234305 -0.3018729 0.15057261
-0.36490968 -0.82159126 -0.53005135 -0.10110944 -0.551197 -0.31202456 -0.2851848 -0.4948023
0.028265346 -0.010863652 -0.4814399 -0.39929485 -0.80842614 -1.1573182 0.073862255 -0.74731815
00000000: 9521 0cbf cfed 823d 9490 67bf f8dc bbbe
00000010: c1bf b53e 94dc c3bd 6c07 3fbf 9c48 17bf
00000020: 4ea6 68be d369 a7be 39f5 dfbe 2ac9 bbbe
00000030: 48e3 02bf 56dc 25bf 84da 37be c838 2abf
00000040: cea0 1bbf 9b1e 22bf 3505 f0bc a437 51bf
00000050: 6823 ccbe c23a 9fbe 2b3c d4be 6936 0dbf
00000060: d007 97bf 8183 99be 1463 e1be 86bc 63bf
00000070: bf3d ad3e 7bdc aabe 0d8b 76bf 4ee4 98be
00000080: b699 d6be 8dad acbe 9a8e efbe 1b60 0d3e
00000090: 624e a8be db89 403e 4ffa 88be 38cf 33bf
000000a0: d8cd 3abe 7156 47bf 27ac 3abf ba71 1abf
000000b0: 7906 63be c09a 25be 6f89 8ebe 37d2 8bbe
000000c0: 1b1a 26bf 0ce1 28bf 57bd 513f dbe6 94bf
000000d0: 7ce3 30bf 8c91 0fbf 075d 24bf e758 bf3e
000000e0: 4c8c 83bf 45dc a1bf cc59 dcbe 63f4 74be
000000f0: 437f 243d dab6 1fbe bcbe 1f3e 5be3 42bf
00000100: ac20 96be 2f66 65be 8975 4e3e 6a03 5ebf
00000110: bd87 4fbe 260a a5be 168f 9abe b52f 1a3e
00000120: 71d5 babe ce53 52bf 72b1 07bf 7712 cfbd
00000130: 3f1b 0dbf afc1 9fbe be03 92be ba56 fdbe
00000140: ba8c e73c 76fd 31bc 4a7f f6be 6070 ccbe
00000150: 04f5 4ebf 0123 94bf 1845 973d 3e50 3fbf

L3.weight f4 [176, 88]
0.24390075 -0.104849294 0.4020524 -0.062376305 -0.4358292 0.4644023 1.1374288 0.21735492
0.43618453 0.14695036 0.32438982 -0.22541301 0.29346377 0.29575974 -0.85606915 -0.46803233
-0.092220195 -0.1694423 1.3190092 -0.16415557 0.24286062 0.45938388 -0.3204367 -0.15672709
-0.10704169 0.18009824 0.09990819 0.54226905 -0.26068422 -0.19556722 0.30259237 0.8119428
0.28000215 0.09066965 0.2564017 0.3727382 -0.17917176 -0.7540602 0.54383695 -0.5351661
-0.5112628 -0.05911074 0.3003793 -0.05108316 0.22230993 0.31154755 0.3394945 0.2156321
-0.36092734 0.025757007 -0.60790485 0.22205864 -0.1259842 0.052031517 -0.5500334 -0.1509226
0.49511275 0.084505826 0.20496099 0.032551024 -0.13470335 0.144336 -0.5821248 -0.0063380627
0.91218424 0.05316727 0.23887719 0.15893285 0.37395883 -0.32680368 0.08004684 -0.27855688
0.4316837 1.0081201 -0.17429028 -1.1504005 0.05857784 -0.6750529 -0.14824681 0.34722006
-0.42284074 -0.77098763 0.0029051595 0.6060741 0.8841322 0.8198562 -0.44611153 -0.38599846
-0.11712107 0.1682478 -0.2376335 -0.17836858 0.2456294 0.3037165 0.11533908 -0.07360959
0.2632796 -0.27062255 0.5568681 -0.4864618 -0.15319309 0.62111634 0.04445896 -0.21382783
0.34910965 -0.18231913 -0.13362119 -0.23758127 0.15628292 0.25160334 0.04379283 0.22651923
0.39956957 0.47388333 -0.025897354 0.12887898 -0.21461312 0.35311833 0.22483902 0.058298055
0.3549963 0.17350827 0.14165159 -0.02368028 -0.46399567 -0.14398824 -0.35332784 -0.2380404
-0.27290016 -0.28954646 0.10612379 0.0331647 -0.14773598 -0.027206851 0.11776492 -0.14257327
0.4500658 -0.3135043 -0.8186181 0.10089899 -0.87940586 -0.25934225 0.14730947 -0.18381958
0.33514032 0.28781757 -0.32250196 0.13162236 -0.40760276 -0.14365043 -0.17402193 -0.19213025
-0.35009187 -0.34255716 -0.06778512 0.123683326 -0.034399506 -0.506857 0.17625538 -0.2020809
-0.07395379 0.66296774 0.052635487 -0.24801612 -0.10650821 -0.39798725 0.056144048 0.1154554
0.14972082 -0.33401984 -0.002170987 0.073890805 0.07678702 0.4473923 -0.9816675 0.60001606
0.66819954 0.30989975 0.21181984 -0.41187537 -0.74161667 0.16207899 -0.40686715 0.10531568
0.19946638 -0.5574315 -0.19924258 -0.038114708 0.21521728 0.5105643 0.19414328 -0.19360523
0.19641533 -0.29690614 0.21352655 -0.39982572 0.28773868 0.2827559 -0.57359934 0.4491881
0.5468561 0.53470266 -0.18804714 0.7642465 0.2867187 0.28415343 -0.08538403 -0.52231765
-0.6204434 0.17507555 -0.022679528 -0.32515594 -0.18328132 -0.37045974 0.18962601 -0.27984157
-0.22447665 -0.035058256 -0.51810837 0.1894452 0.109894976 0.02200853 0.29169965 -0.41983822
-0.16957586 -0.62072915 -0.67995954 0.42117408 0.09175328 -0.097359784 -0.28846067 -0.2898296
0.6917627 -0.5183212 0.45699534 0.12820564 -0.32937497 0.41563043 -0.4772002 -0.07544879
1.0835495 0.8333064 0.37549412 0.45121902 -0.12917365 -0.5216614 -0.10269528 0.27336967
0.43383613 0.16165446 0.71797603 0.37691817 0.45939872 -0.19079334 -0.13426867 0.4155897
00000000: 1ec1 793e 3abb d6bd d0d9 cd3e 4c7e 7fbd
00000010: 0125 dfbe 23c6 ed3e 4497 913f 4a92 5e3e
00000020: 9453 df3e 287a 163e 6c16 a63e abd2 66be
00000030: e240 963e d26d 973e 5927 5bbf efa1 efbe
00000040: f1dd bcbd 4882 2dbe 4bd5 a83f 6618 28be
00000050: 74b0 783e 5d34 eb3e 4710 a4be 117d 20be
00000060: ac38 dbbd ac6b 383e aa9c cc3d 25d2 0a3f
00000070: 6778 85be c642 48be 63ed 9a3e 7cdb 4f3f
00000080: 715c 8f3e 02b1 b93d 1547 833e 8bd7 be3e
00000090: cd78 37be 170a 41bf e638 0b3f a500 09bf
000000a0: 1ee2 02bf 1a1e 72bd 51cb 993e 933c 51bd
000000b0: 37a5 633e 2983 9f3e 39d2 ad3e a9ce 5c3e
000000c0: 78cb b8be 5c00 d33c a79f 1bbf 5763 633e
000000d0: 0102 01be 001f 553d fdce 0cbf 748b 1abe
000000e0: 6b7f fd3e 6411 ad3d 4be1 513e 3954 053d
000000f0: adef 09be d1cc 133e 2206 15bf 86af cfbb
00000100: e884 693f ecc5 593d 399c 743e 4bbf 223e
00000110: 8877 bf3e d052 a7be 99ef a33d 029f 8ebe
00000120: a505 dd3e 140a 813f 2779 32be 5340 93bf
00000130: 51ef 6f3d 44d0 2cbf 03ce 17be d4c6 b13e
00000140: 957e d8be 725f 45bf 7d64 3e3b ac27 1b3f
00000150: 7d56 623f 19e2 513f bb68 e4be 97a1 c5be
00000160: 2cdd efbd 2749 2c3e 3256 73be 41a6 36be
00000170: 4686 7b3e bb80 9b3e e536 ec3d a0c0 96bd
00000180: 95cc 863e 0a8f 8abe e88e 0e3f 8511 f9be
00000190: a6de 1cbe 7b01 1f3f 991a 363d aff5 5abe
000001a0: 80be b23e deb1 3abe fed3 08be 8148 73be
000001b0: a108 203e 27d2 803e 1c60 333d a8f4 673e
000001c0: 6294 cc3e d6a0 f23e b026 d4bc daf8 033e
000001d0: 8bc3 5bbe edcb b43e 333c 663e f1c9 6e3d
000001e0: 13c2 b53e 27ac 313e 1d0d 113e 26fd c1bc
000001f0: d790 edbe a771 13be 63e7 b4be ddc0 73be
00000200: 92b9 8bbe 6f3f 94be 6e57 d93d b5d7 073d
00000210: 1a48 17be e7e0 debc bc2e f13d bafe 11be
00000220: 066f e63e a383 a0be f590 51bf 21a4 ce3d
00000230: be20 61bf 82c8 84be 4bd8 163e 333b 3cbe
00000240: 8397 ab3e d35c 933e fa1e a5be 03c8 063e
00000250: 4fb1 d0be 1919 13be ce32 32be cbbd 44be
00000260: 3e3f b3be a763 afbe edd2 8abd af4d fd3d
00000270: 7fe6 0cbd 61c1 01bf 4a7c 343e 4cee 4ebe
00000280: 1675 97bd 41b8 293f 4f98 573d f0f7 7dbe
00000290: fa20 dabd fcc4 cbbe 4df7 653d e173 ec3d
000002a0: 6a50 193e a604 abbe 1e47 0ebb 1054 973d
000002b0: 8342 9d3d 9b10 e53e 904e 7bbf a79a 193f
000002c0: 200f 2b3f 2eab 9e3e 4de7 583e 54e1 d2be
000002d0: 97da 3dbf 09f8 253e e450 d0be bfaf d73d
000002e0: ea40 4c3e d5b3 0ebf 3f06 4cbe 2b1e 1cbd
000002f0: eb61 5c3e 58b4 023f 7fcd 463e 7340 46be
00000300: 1a21 493e 1504 98be b4a6 5a3e f5b5 ccbe
00000310: 7c52 933e 62c5 903e 68d7 12bf fcfb e53e
00000320: c3fe 0b3f 46e2 083f 6e8f 40be a9a5 433f
00000330: cbcc 923e 8f7c 913e d3dd aebd 9cb6 05bf
00000340: 61d5 1ebf 0147 333e 6bca b9bc d77a a6be
00000350: 19ae 3bbe e6ac bdbe 522d 423e 6547 8fbe
00000360: 35dd 65be 3f99 0fbd c0a2 04bf ecfd 413e
00000370: 9e10 e13d 3c4b b43c a859 953e 09f5 d6be
00000380: 4ba5 2dbe 1be8 1ebf d411 2ebf 21a4 d73e
00000390: 25e9 bb3d 9164 c7bd 1eb1 93be 8c64 94be
000003a0: 5c17 313f b3b0 04bf 4bfb e93e 5748 033e
000003b0: d6a3 a8be 83cd d43e 9653 f4be e584 9abd
000003c0: c0b1 8a3f 9153 553f c440 c03e 2e06 e73e
000003d0: 1946 04be 9a8b 05bf e751 d2bd 1cf7 8b3e
000003e0: c51f de3e bf88 253e 47cd 373f 6bfb c03e
000003f0: 4f36 eb3e 545f 43be ba7d 09be 2cc8 d43e

L3.bias f4 [176]
-0.885293 -0.7589447 -0.17531037 -0.7250769 -0.7490356 -0.7632514 -0.40033847 -0.42737168
-0.6963285 -0.6122153 -0.90069544 -0.7522427 -1.1746722 -0.49447185 -0.7785849 -1.5120802
-0.24610175 -0.79982734 -1.1041092 -0.8385998 -0.6849275 -1.0967416 -0.80099475 -0.56317145
-1.5223742 -0.89475 -1.4223254 -0.9080948 -0.9112544 -0.9558898 -0.59779984 -1.1807868
-0.6594058 -0.7015823 -0.97718596 -0.98552805 -0.6060348 -0.50568837 -0.26292634 -0.7147958
-0.38153052 -0.01514418 -0.8840397 -0.57922065 -0.6592244 -0.74528635 -0.9790554 -0.17664254
-0.43582597 -0.47053114 0.0031932693 -0.71915483 -0.83105403 -0.59422636 -0.3613459 -1.206477
-0.511914 0.2617086 -1.1136309 -0.13111897 -0.20406768 -0.9916222 -0.6617995 -1.0309193
-0.83456886 0.0037020368 -0.93496877 -0.49747756 -0.3596566 -0.19460481 -1.2633259 -0.5998215
-0.18391518 -1.2460059 -0.7671339 0.17244779 -0.0872429 -0.36802968 0.0017789793 -0.20956226
-0.6296788 -0.12703343 -0.30320963 -0.6908833 -0.75434273 -0.52778965 -0.78530246 -0.9583949
-0.41511837 -0.58403665 -0.58484286 -0.20149808 -0.71220386 -0.5368022 -0.39701897 -0.65703017
-1.0692594 -0.67431194 0.1375171 -1.4081306 -0.14871103 -0.6941474 -0.50769407 -0.60894614
-0.98336464 -1.197569 -0.5430568 -0.70674443 -1.0118945 -0.35992926 -0.9786401 -0.82017034
-0.21482094 -0.69774354 -0.38853574 -0.6447311 -0.7757128 -0.67915434 -0.68181705 -0.68064815
-0.66368383 -0.9055059 -0.41592282 -0.11829621 -0.9650554 -0.76529145 -0.8142966 -0.45420226
-0.89774114 -0.39763328 -0.8092107 -0.74420047 -0.6962831 -1.2058364 -0.110297434 -0.8277781
-0.114853024 -0.68764585 -0.7406711 -0.8874933 -0.56681025 -0.72866946 -0.39415288 -0.51718926
-1.4389621 -0.8644852 -0.4461165 -0.6575025 -1.065563 -0.92386323 -0.9263157 -0.4617122
-0.45447597 -1.0808291 -0.6209478 -0.42350695 -0.99096996 -0.29518616 -1.2704228 -0.70527256
-0.830121 -0.45462582 -0.74895275 -0.39066526 0.35092777 -0.7866641 -0.55496573 -0.41520688
-0.620525 -0.0840397 -0.23338461 -0.9546218 -0.49687234 -1.3206495 -0.6786649 -0.5721827
00000000: 90a2 62bf 334a 42bf 9084 33be a49e 39bf
00000010: ccc0 3fbf 7264 43bf 2af9 ccbe 76d0 dabe
00000020: 9642 32bf 24ba 1cbf fa93 66bf fa92 40bf
00000030: a95b 96bf 6a2b fdbe 5751 47bf d88b c1bf
00000040: 1902 7cbe 7cc1 4cbf 7353 8dbf 7aae 56bf
00000050: 6957 2fbf 0762 8cbf fe0d 4dbf 012c 10bf
00000060: 28dd c2bf 560e 65bf c20e b6bf e778 68bf
00000070: f847 69bf 32b5 74bf 6909 19bf 0624 97bf
00000080: d2ce 28bf e69a 33bf dc28 7abf 914b 7cbf
00000090: 1925 1bbf cb74 01bf 489e 86be dcfc 36bf
000000a0: f857 c3be 4b1f 78bc 6d50 62bf ce47 14bf
000000b0: eec2 28bf 16cb 3ebf 60a3 7abf c8e1 34be
000000c0: 9524 dfbe 75e9 f0be 2b46 513b 881a 38bf
000000d0: f5bf 54bf 381f 18bf 5402 b9be d76d 9abf
000000e0: cc0c 03bf abfe 853e 758b 8ebf 0d44 06be
000000f0: 1ef7 50be f4da 7dbf b16b 29bf 2af5 83bf
00000100: 4ea6 55bf df9d 723b 1d5a 6fbf 61b5 febe
00000110: e924 b8be 7c46 47be aab4 a1bf e78d 19bf
00000120: 4354 3cbe 1f7d 9fbf e362 44bf 2796 303e
00000130: 68ac b2bd 636e bcbe a42c e93a 7d97 56be
00000140: a132 21bf 0d15 02be 4b3e 9bbe badd 30bf
00000150: 9b1c 41bf 391d 07bf 9509 49bf 5e59 75bf
00000160: 658a d4be 6d83 15bf 43b8 15bf 8355 4ebe
00000170: fe52 36bf de6b 09bf 1246 cbbe 2133 28bf
00000180: 7edd 88bf b59f 2cbf 48d1 0c3e a03d b4bf
00000190: b447 18be a5b3 31bf 3df8 01bf e5e3 1bbf
000001a0: c9bd 7bbf f149 99bf c505 0bbf 34ed 34bf
000001b0: c285 81bf a648 b8be 2888 7abf aff6 51bf
000001c0: 05fa 5bbe 529f 32bf 28ee c6be 190d 25bf
000001d0: 1d95 46bf 0fdd 2dbf 908b 2ebf f53e 2ebf
000001e0: 2fe7 29bf 3ccf 67bf d6f3 d4be 4945 f2bd
000001f0: df0d 77bf 24ea 43bf be75 50bf 338d e8be
00000200: 5dd2 65bf 9796 cbbe 6f28 4fbf ec83 3ebf
00000210: 9c3f 32bf d958 9abf 9fe3 e1bd 44e9 53bf
00000220: 1038 ebbd 8f09 30bf 9f9c 3dbf c332 63bf
00000230: 7a1a 11bf 158a 3abf 68ce c9be 8466 04bf
00000240: e92f b8bf e74e 5dbf 6269 e4be 1552 28bf
00000250: 5e64 88bf 4d82 6cbf 0723 6dbf 8b65 ecbe
00000260: 13b1 e8be 9c58 8abf 6ff6 1ebf e7d5 d8be
00000270: 35b0 7dbf a422 97be 379d a2bf be8c 34bf
00000280: cf82 54bf b7c4 e8be 5ebb 3fbf 4705 c8be
00000290: ceac b33e d262 49bf 3c12 0ebf ff95 d4be
000002a0: bada 1ebf 021d acbd 60fc 6ebe 1862 74bf
000002b0: 0d66 febe 0b0b a9bf fcbc 2dbf 917a 12bf

L4.weight f4 [88, 176]
0.097893156 0.05239084 -0.17362115 -0.0028871954 -0.5809205 0.19235037 -0.061658327 0.1690493
-0.016579911 -0.32940724 0.22591472 0.023397863 -0.0058749546 -0.055731155 0.31834087 -0.15896286
-0.016171305 -0.39727286 -0.11609609 0.31855023 -0.31309354 0.50913924 -0.42141214 -0.09798481
0.29438028 0.24551667 0.022757784 -0.13388427 0.16753592 -0.21387033 0.31302655 0.9114456
-0.3158199 0.08423037 -0.16244459 0.289671 0.116688915 0.412807 0.326053 -0.17444226
0.013237724 0.043595932 0.37163395 0.20799758 -0.425111 0.17972189 0.36433893 -0.048612803
0.17844333 0.35549593 0.21598548 0.20613894 -0.14807785 -0.27355394 -0.14193302 -0.05742871
-0.34690017 -0.5129678 0.51385874 -0.20930015 -0.121554404 -0.19397503 -0.15425506 0.78739923
0.35038605 -0.23112498 -0.1598146 -0.6774185 0.31769937 -0.08868023 -0.036296852 0.18098871
0.14290491 0.13009416 -0.021180803 -0.30908674 -0.07118838 -0.38175413 -0.08275551 -0.3138424
-0.103382155 -0.6228313 -0.037123125 0.2845418 -0.024690943 -0.08525013 0.48870704 0.29559264
-0.14515221 -0.18651214 0.056111764 -0.3933498 -0.1025025 -0.34182227 -0.28486064 -0.15075274
0.24766466 0.2137655 -0.5057687 0.21271686 -0.17350595 0.21363671 0.16945688 -0.26615298
0.1769289 0.0033330703 -0.9524041 -0.020349093 0.069240466 -0.15053746 0.09182565 -0.084879555
-0.28779188 -0.105095424 0.19810362 0.15261231 -0.5752282 -0.29468057 -0.0946033 -0.27365533
0.65450025 0.6315895 0.11636359 -0.06417257 -0.20907913 -0.42151672 0.088612765 0.3504386
0.12632895 -0.24608915 -0.08678766 0.3289402 0.17150837 0.4153588 -0.24475075 -0.27863136
-0.18291041 0.43803924 0.1138459 0.048763648 -0.012681039 -0.15960589 -0.29306743 -0.10507917
0.5646074 -0.3284403 -0.41432592 -0.2934212 -0.13151735 0.48744398 0.39031136 0.050681185
-0.2740537 -0.08591729 0.22663887 0.10380686 -0.08393425 0.20075342 -0.18739782 -0.5422157
-0.03350912 0.054478854 -0.55111 -0.080474615 -0.29705465 0.4883542 0.038652446 -0.080353945
0.45071176 -0.34230584 -0.027721433 0.22091576 -0.053688288 -0.26668206 0.18555796 -0.12649499
-0.23752576 0.09243847 -0.08998702 -0.010086316 -0.09476144 0.1622983 -0.07835199 0.39573833
-0.21627177 -0.23003331 0.3363374 0.3654405 0.10218587 -0.0013409569 0.26619327 -0.05600611
-0.28255242 -0.3726244 0.018915573 -0.020239389 -0.5334931 0.057642795 -0.025471458 -0.37669975
0.23816088 0.22593209 0.19892895 -0.09508194 0.02598489 -0.3239184 -0.19306818 0.12658595
-0.052116077 0.04333546 0.27323818 -0.08411907 0.1302896 -0.013438203 0.078383945 -0.044038523
-0.01727006 -0.36692467 -0.028655201 -0.1448766 -0.17575787 0.24937506 0.1264291 -0.019698484
-0.01462384 0.18485083 -0.34819618 0.18714026 0.11521205 0.099735215 -0.375832 -0.36320147
-0.09366264 -0.03368804 -0.44561288 -0.031102186 -0.47146204 0.08905513 -0.42514172 0.09191258
0.37647438 -0.14322066 -0.14068507 -0.6278253 -0.25207636 -0.10952987 -0.26498145 0.56556827
0.1790716 0.04275997 0.14863259 -0.6221348 -0.6699905 0.013718261 -0.076958634 0.2090364
00000000: 357c c83d c797 563d bec9 31be 1a37 3dbb
00000010: 35b7 14bf 7ff7 443e 718d 7cbd 421b 2d3e
00000020: 98d2 87bc 11a8 a8be 3056 673e e0ac bf3c
00000030: b182 c0bb 5a46 64bd 93fd a23e 29c7 22be
00000040: af79 84bc 5967 cbbe c9c3 edbd 0419 a33e
00000050: cc4d a0be f356 023f 55c3 d7be 43ac c8bd
00000060: 03b9 963e b968 7b3e 886e ba3c f518 09be
00000070: 898e 2b3e d300 5bbe 0445 a03e 8054 693f
00000080: 25b3 a1be f980 ac3d e057 26be c24f 943e
00000090: 99fa ee3d 705b d33e 6bf0 a63e fea0 32be
000000a0: 0ae3 583c a691 323d ce46 be3e 51fd 543e
000000b0: 26a8 d9be 0409 383e a28a ba3e 381e 47bd
000000c0: d9b9 363e 9003 b63e 4c2b 5d3e 1616 533e
000000d0: b8a1 17be 430f 8cbe e456 11be 5e3a 6bbd
000000e0: e69c b1be dc51 03bf 3f8c 033f c752 56be
000000f0: 84f1 f8bd 64a1 46be 0af5 1dbe ff92 493f
00000100: cd65 b33e 07ac 6cbe 70a6 23be 4c6b 2dbf
00000110: 7ea9 a23e fb9d b5bd 02ac 14bd 1b55 393e
00000120: aa55 123e 6737 053e 5d83 adbc 9e40 9ebe
00000130: 37cb 91bd 4775 c3be b97b a9bd f3af a0be
00000140: 06ba d3bd df71 1fbf 6b0e 18bd 76af 913e
00000150: a944 cabc 9f97 aebd cf37 fa3e eb57 973e
00000160: c8a2 14be 0afd 3ebe 73d5 653d 2565 c9be
00000170: d5ec d1bd 5403 afbe 41d9 91be ed5e 1abe
00000180: ce9b 7d3e 58e5 5a3e 0f7a 01bf 73d2 593e
00000190: 8bab 31be 95c3 5a3e 1b86 2d3e 3445 88be
000001a0: d92c 353e a46f 5a3b c1d0 73bf 24b3 a6bc
000001b0: f2cd 8d3d 7e26 1abe 160f bc3d 55d5 adbd
000001c0: 7559 93be 453c d7bd addb 4a3e 6746 1c3e
000001d0: 2842 13bf 5fe0 96be 60bf c1bd 8d1c 8cbe
000001e0: 548d 273f d9af 213f 0950 ee3d e96c 83bd
000001f0: d718 56be 0ad1 d7be 9c7a b53d b06c b33e
00000200: 605c 013e cbfe 7bbe bbbd b1bd da6a a83e
00000210: e49f 2f3e e9a9 d43e f19f 7abe c5a8 8ebe
00000220: de4c 3bbe ae46 e03e 0a28 e93d 64bc 473d
00000230: 22c4 4fbc ba6f 23be ef0c 96be bf33 d7bd
00000240: 1c8a 103f 5429 a8be 8722 d4be 4e3b 96be
00000250: 7cac 06be 4292 f93e e4d6 c73e 1397 4f3d
00000260: c450 8cbe 67f5 afbd 0514 683e b198 d43d
00000270: b8e5 abbd 4e92 4d3e 37e5 3fbe a6ce 0abf
00000280: dc40 09bd 3825 5f3d 8c15 0dbf e0cf a4bd
00000290: 8c17 98be 9009 fa3e 0752 1e3d 9c90 a4bd
000002a0: b1c3 e63e b642 afbe 0f18 e3bc be37 623e
000002b0: 40e8 5bbd 8d8a 88be e802 3e3e e787 01be
000002c0: f439 73be 6150 bd3d 1d4b b8bd 1341 25bc
000002d0: 4912 c2bd 8731 263e 0277 a0bd 379e ca3e
000002e0: 5976 5dbe da8d 6bbe 6a34 ac3e 041b bb3e
000002f0: d346 d13d 0cc3 afba 7c4a 883e aa66 65bd
00000300: b6aa 90be a0c8 bebe d5f4 9a3c 13cd a5bc
00000310: 0193 08bf da1a 6c3d 85a9 d0bc cade c0be
00000320: 72e0 733e be5a 673e 08b4 4b3e 52ba c2bd
00000330: 44de d43c a2d8 a5be aab3 45be bf9f 013e
00000340: ab77 55bd 8680 313d e0e5 8b3e 9e46 acbd
00000350: a36a 053e e92b 5cbc c387 a03d bd61 34bd
00000360: f179 8dbc 8ddd bbbe 50be eabc 885a 14be
00000370: dff9 33be 2d5c 7f3e a176 013e b75e a1bc
00000380: d598 6fbc 8949 3d3e c546 b2be b2a1 3f3e
00000390: 4cf4 eb3d fa41 cc3d 0d6d c0be 8bf5 b9be
000003a0: 33d2 bfbd 78fc 09bd 5f27 e4be 03ca febc
000003b0: 7963 f1be 8962 b63d 2dac d9be aa3c bc3d
000003c0: 40c1 c03e 70a8 12be bf0f 10be 29b9 20bf
000003d0: 2710 81be 3251 e0bd a6ab 87be 15c9 103f
000003e0: 8c5e 373e 1425 2f3d 2433 183e 3a44 1fbf
000003f0: 7f84 2bbf 8fc2 603c 7d9c 9dbd a30d 563e

L4.bias f4 [88]
-0.5255405 -0.22582155 -0.41278696 -1.1986067 -0.32016686 -0.9316106 0.35729915 -0.073180184
0.35783055 -0.41710803 -0.3755253 -0.1038345 -0.20795695 -0.2077513 -0.37993756 -0.99918365
-0.24810466 -0.5002573 -0.6356302 -0.6436992 -0.08501789 -0.5440455 -0.73018223 -0.12730901
-0.7043505 -0.62700504 0.18276343 -0.78554106 -0.3529707 -0.69352895 -0.35379368 -0.22637893
-0.58528304 -0.75004447 -0.41064274 -0.24166909 -0.4360058 -0.32739294 -0.6485959 -0.6218886
-0.6524713 -0.26946446 -0.91499543 -0.8978006 -0.006843196 -0.038710445 -0.7118344 -1.0271397
0.21447606 0.9669904 -0.6278975 0.35236955 0.19499867 -0.66743386 -0.7304686 -0.5966817
-0.62461895 -0.3431583 -0.24077597 0.7325687 -0.35802314 0.38338012 -0.09759082 -0.46455693
-0.7466635 -0.51202 -0.866071 -0.21230087 -0.33794555 -0.49964195 -0.28439438 -0.20058344
-0.6776622 -0.52353865 -0.6094776 -0.7981876 -0.93634206 -0.13101348 -0.433567 -0.3843768
-1.0220523 -0.28156802 -0.92837566 -0.56397843 -0.5789332 0.66819936 -0.2433596 -0.42663738
00000000: d289 06bf c43d 67be d058 d3be f26b 99bf
00000010: e9ec a3be 087e 6ebf eaef b63e 7edf 95bd
00000020: 9135 b73e 2f8f d5be da44 c0be 2fa7 d4bd
00000030: abf2 54be c2bc 54be 2d87 c2be 80ca 7fbf
00000040: 260f 7ebe dd10 00bf a9b8 22bf 79c9 24bf
00000050: dc1d aebd 9146 0bbf 39ed 3abf 4b5d 02be
00000060: 5050 34bf 6783 20bf 5626 3b3e 3819 49bf
00000070: 93b8 b4be 1d8b 31bf 7224 b5be e1cf 67be
00000080: 1cd5 15bf ea02 40bf c43f d2be 1a78 77be
00000090: 273c dfbe 0ca0 a7be 620a 26bf 1734 1fbf
000000a0: 5c08 27bf 3ff7 89be 243d 6abf 43d6 65bf
000000b0: e43c e0bb d88e 1ebd c73a 36bf 5079 83bf
000000c0: 9d9f 5b3e af8c 773f e4bd 20bf c869 b43e
000000d0: bbad 473e f2dc 2abf fdff 3abf 22c0 18bf
000000e0: 07e7 1fbf 72b2 afbe fa8d 76be 9f89 3b3f
000000f0: cf4e b7be 664a c43e b2dd c7bd 68da edbe
00000100: 5725 3fbf be13 03bf d4b6 5dbf 6665 59be
00000110: 3307 adbe 12d1 ffbe 249c 91be bf65 4dbe
00000120: 457b 2dbf a106 06bf b906 1cbf 0656 4cbf
00000130: 1db4 6fbf 6628 06be 7efc ddbe 09cd c4be
00000140: 9cd2 82bf af29 90be 07aa 6dbf e460 10bf
00000150: f734 14bf 1d0f 2b3f 4233 79be 3770 dabe

L5.weight f4 [44, 88]
-0.45379466 -0.44770268 -0.29674253 -0.06052636 -0.57717824 -0.41025072 -0.77988595 -0.36933583
-0.44108364 0.060844686 0.0046741925 -0.44773427 -0.4949658 0.30168012 0.41959244 0.7410028
0.48366228 0.63685745 1.2733148 1.0198903 1.029858 0.021271901 0.4681285 0.101108946
-0.014330663 0.32708335 0.12471503 0.61570185 -0.6359858 0.47342578 -0.5383933 -0.09132291
-0.49153796 -0.090478435 0.06608166 -0.4868506 -0.70433813 0.33432886 0.4024453 0.32270896
0.67486817 -0.33075723 0.11947431 -0.01296098 -0.1980417 -0.10616871 0.17178226 0.5927094
-0.44079098 -0.2185479 0.8342907 -0.18261518 0.19987196 0.37029296 0.19908272 0.47382858
0.848107 0.13514245 -0.47151387 -0.023386858 0.5354732 -0.46076152 -0.080020875 0.24714257
-0.002939258 0.54270244 -0.2602328 0.017115848 0.097929485 -0.12572375 0.05792416 0.36786857
0.2879883 0.16705276 0.21529946 -0.45763427 0.4115859 0.041786868 -0.053920772 0.018289816
1.1577247 -0.07857615 0.5274722 0.50825334 0.32461986 -0.29780924 -0.15668641 -0.06272245
-0.17009684 0.33512858 -0.54285604 -0.72353786 0.18960896 -0.16028349 -0.6635783 0.1563966
-0.07055939 0.06141549 -0.15106712 -0.15761682 0.07598783 0.074066624 0.19329724 -0.01343421
0.5949425 0.71091354 0.06779737 0.17862457 0.9837325 -0.15454042 0.0123475455 -0.30808645
-0.29982066 -0.06445828 -0.7817499 0.51916534 0.27360922 -0.18091923 -0.75587314 0.09045804
-0.4250601 -0.5966848 0.33763453 0.2503706 -0.90420485 -0.77674705 0.28306505 -0.05253049
0.13105646 -0.52287674 -0.19402052 0.5950052 -0.21282011 -0.3163229 -0.024118844 0.49373844
0.13558057 -0.06483977 -0.17041235 -0.6210762 -0.4401758 0.762051 -0.5356597 -0.01367204
0.27559602 -0.46006978 -0.3990037 -0.14209497 -0.002164024 -0.3352511 -0.7576334 0.46853048
-0.23233528 0.07006363 0.265769 0.0333951 0.32115492 -0.63077605 0.44849467 0.17422895
1.1421326 0.2663896 -0.49657837 0.41868156 0.18599758 -0.40574428 -0.21292827 -0.0020241477
0.15771815 -0.42734835 0.117168404 0.54456127 0.1018445 0.065405324 -0.1927962 -0.6493616
0.07305928 0.70910835 0.1841234 -0.57255083 -0.060116608 -0.42674533 -0.5681335 -0.28817275
-0.27052757 0.22970423 -0.26599646 0.27978468 0.06449239 0.5026795 -0.6263077 -0.09571051
0.25898302 0.26158452 -0.05247972 0.016055744 -0.1623405 0.028583167 0.21866922 -0.5834594
0.23787656 0.1487165 -0.53363943 -0.0210979 -0.4785869 -0.035426214 -0.2575674 0.030131342
-0.24371779 0.20394507 0.21064796 -0.023003887 -0.4739686 0.46019632 0.9930492 0.07225604
-0.5072667 0.43579444 0.5817094 0.6015421 -0.5339443 -0.055173256 -0.6373101 0.39045325
-0.060214777 0.037104618 0.51402915 -0.20738842 -0.3016285 0.09928401 0.10794419 -0.2113003
0.27341935 -0.13122942 -0.19140708 -1.1857877 0.30190924 -0.46661633 -0.36670196 0.4183945
0.23488727 0.92685497 -0.04583224 -0.39919326 0.09940847 -0.0898085 0.027154712 -0.026738765
0.17213257 -0.0011401806 -0.15094422 -0.43964228 -0.24136512 -0.22047256 0.86578816 -0.19348706
00000000: c657 e8be 4939 e5be a3ee 97be 7dea 77bd
00000010: f4c1 13bf 620c d2be 9ba6 47bf 9619 bdbe
00000020: b7d5 e1be 4738 793d f829 993b 6d3d e5be
00000030: 286c fdbe d175 9a3e d2d4 d63e 5cb2 3d3f
00000040: 95a2 f73e 1709 233f fbfb a23f c48b 823f
00000050: 63d2 833f 6942 ae3c 8aae ef3e 3512 cf3d
00000060: 28cb 6abc 7877 a73e 986a ff3d a39e 1d3f
00000070: f7cf 22bf dd64 f23e 25d4 09bf 8107 bbbd
00000080: ddaa fbbe c24c b9bd d255 873d 7b44 f9be
00000090: 814f 34bf 272d ab3e 4f0d ce3e 1c3a a53e
000000a0: 29c4 2c3f 0359 a9be f2ae f43d 4a5a 54bc
000000b0: 72cb 4abe fb6e d9bd b0e7 2f3e cebb 173f
000000c0: 5baf e1be 05cb 5fbe 1394 553f 79ff 3abe
000000d0: 3cab 4c3e 0a97 bd3e 57dc 4b3e a999 f23e
000000e0: 8a1d 593f c862 0a3e 446a f1be cc95 bfbc
000000f0: c614 093f efe8 ebbe fce1 a3bd f112 7d3e
00000100: 91a0 40bb 8cee 0a3f 3c3d 85be 8936 8c3c
00000110: 418f c83d babd 00be e241 6d3d 4559 bc3e
00000120: 3473 933e e10f 2b3e 7677 5c3e 0a4f eabe
00000130: 63bb d23e b528 2b3d 07dc 5cbd 86d4 953c
00000140: 5330 943f 88ec a0bd 6b08 073f e41c 023f
00000150: 9334 a63e 747a 98be 6772 20be a174 80bd
00000160: de2d 2ebe f995 ab3e 9df8 0abf c739 39bf
00000170: da28 423e 5b21 24be 44e0 29bf 6e26 203e
00000180: 7181 90bd cf8e 7b3d 57b1 1abe 4e66 21be
00000190: 829f 9b3d 3eb0 973d b6ef 453e 291b 5cbc
000001a0: 274e 183f 6efe 353f 59d9 8a3d 5ce9 363e
000001b0: e5d5 7b3f d83f 1ebe 5c4d 4a3c 82bd 9dbe
000001c0: 1882 99be b402 84bd c320 48bf 05e8 043f
000001d0: 8216 8c3e e442 39be e780 41bf 1142 b93d
000001e0: 7aa1 d9be 56c0 18bf 6fde ac3e 9330 803e
000001f0: f879 67bf e5d8 46bf e7ed 903e 362a 57bd
00000200: aa33 063e 40db 05bf 51ad 46be 4352 183f
00000210: 84ed 59be 13f5 a1be e294 c5bc 49cb fc3e
00000220: a2d5 0a3e b7ca 84bd 9380 2ebe dafe 1ebf
00000230: b95e e1be c615 433f fe20 09bf b100 60bc
00000240: ec1a 8d3e 448e ebbe 374a ccbe 5881 11be
00000250: 4cd2 0dbb 08a6 abbe 43f4 41bf 3ae3 ef3e
00000260: 4de9 6dbe 857d 8f3d e012 883e 4dc9 083d
00000270: 6b6e a43e 8a7a 21bf 18a1 e53e 1369 323e
00000280: 6731 923f 3864 883e 853f febe 6e5d d63e
00000290: 2676 3e3e b7bd cfbe de09 5abe 90a7 04bb
000002a0: de80 213e 67cd dabe fdf5 ef3d 5e68 0b3f
000002b0: d993 d03d 3af3 853d 5e6c 45be 903c 26bf
000002c0: 1ba0 953d 2088 353f d88a 3c3e b192 12bf
000002d0: d53c 76bd 5d7e dabe 3271 11bf 618b 93be
000002e0: 9782 8abe 9637 6b3e b030 88be f03f 8f3e
000002f0: 9614 843d 9baf 003f b455 20bf df03 c4bd
00000300: 6c99 843e 68ee 853e faf4 56bd 5687 833c
00000310: 973c 26be 3f27 ea3c d3ea 5f3e 985d 15bf
00000320: ea95 733e 2349 183e 989c 08bf 81d5 acbc
00000330: 5809 f5be 141b 11bd e0df 83be 01d6 f63c
00000340: 2891 79be fad6 503e 19b4 573e a672 bcbc
00000350: 03ac f2be da9e eb3e 7938 7e3f fafa 933d
00000360: 3bdc 01bf 7320 df3e e8ea 143f aafe 193f
00000370: 93b0 08bf 5afd 61bd c126 23bf 7de9 c73e
00000380: c5a3 76bd 03fb 173d 6a97 033f a15d 54be
00000390: 0d6f 9abe 6a55 cb3d d811 dd3d 1b5f 58be
000003a0: 9ffd 8b3e 0161 06be 3800 44be e4c7 97bf
000003b0: d993 9a3e 56e8 eebe 5cc0 bbbe ce37 d63e
000003c0: 4a86 703e 5e46 6d3f 96ba 3bbd 0f63 ccbe
000003d0: ab96 cb3d 85ed b7bd 8f73 de3c 410b dbbc
000003e0: 8543 303e 1d72 95ba 1f91 1abe cb18 e1be
000003f0: 6b28 77be 8fc3 61be 4ba4 5d3f 7921 46be

L5.bias f4 [44]
-0.788915 -0.7196585 -0.98787796 -0.52986586 0.014342417 -0.29662535 -1.151931 -0.5078537
-0.5135546 -0.81692016 -0.26593086 -0.23774439 -0.18623976 -0.94913983 -0.4040761 -1.2724589
-0.8032221 -0.37018016 -0.5221879 -0.8907853 -0.80295116 -0.28478438 -0.8768119 -0.23945335
-0.7249574 -0.4339637 -0.1252432 -0.84875894 -0.4279787 -0.5292843 -0.35027176 -0.944132
-0.20022923 -0.8413756 -0.8299837 -0.75260323 -0.33990633 -0.9120645 -0.72207636 -0.6485455
-0.8015242 -0.07187162 -0.16342212 -0.7562155
00000000: 55f6 49bf 8a3b 38bf 92e5 7cbf 4aa5 07bf
00000010: 75fc 6a3c 47df 97be 7a72 93bf b302 02bf
00000020: 5078 03bf ae21 51bf 1728 88be 4473 73be
00000030: a3b5 3ebe d4fa 72bf 10e3 cebe efdf a2bf
00000040: f79f 4dbf 4188 bdbe 1bae 05bf 810a 64bf
00000050: 358e 4dbf 42cf 91be bf76 60bf 4233 75be
00000060: cf96 39bf 7d30 debe c13f 00be 4448 59bf
00000070: 0620 dbbe 2d7f 07bf d256 b3be a2b2 71bf
00000080: e408 4dbe 6464 57bf d079 54bf 9baa 40bf
00000090: 3408 aebe 0f7d 69bf ffd9 38bf 1407 26bf
000000a0: b130 4dbf 6e31 93bd 2158 27be 5797 41bf

L6.weight f4 [1, 44]
-0.12577371 0.021097898 0.12128002 0.03366434 0.047206886 0.011288625 0.054154225 0.019544497
-0.009230739 0.22826588 -0.019020699 0.04411427 0.112856515 0.0069876486 -0.24717419 -0.16876037
-0.06769724 0.060327142 0.03994136 -0.06731398 -0.06292222 0.047678053 0.07660292 0.054125816
-0.07084178 -0.030885046 0.09110422 0.02594502 -0.020033196 -0.123545706 0.0942383 0.18087938
0.10753521 -0.04623091 0.04678629 0.065103985 -0.024816528 0.18973334 -0.09651603 0.08750853
0.040840194 -0.0489341 0.09160494 -0.015810674
00000000: d3ca 00be 80d5 ac3c a961 f83d 9ee3 093d
00000010: 025c 413d edf3 383c d2d0 5d3d c81b a03c
00000020: 873c 17bc 88be 693e 4cd1 9bbc 2ab1 343d
00000030: 5121 e73d a5f8 e43b 3b1b 7dbe 85cf 2cbe
00000040: daa4 8abd 9819 773d 8d99 233d e9db 89bd
00000050: 5ddd 80bd 104a 433d fee1 9c3d 08b3 5d3d
00000060: 7f15 91bd a302 fdbc d994 ba3d a78a d43c
00000070: a81c a4bc 8805 fdbd 0300 c13d 7238 393e
00000080: 6c3b dc3d 9f5c 3dbd fba2 3f3d 3d55 853d
00000090: 084c cbbc 7549 423e 32aa c5bd ac37 b33d
000000a0: 0c48 273d 1f6f 48bd 5f9b bb3d 6385 81bc
