Saved_Models_All_Features/target_Hardness_features_22_epochs_45.pth (torch_old, 162565 bytes, 11 tensors)

L1.weight f4 [44, 22]
000000 03 01 1c bf 21 b3 5b bd f2 8e c7 3f bc 68 94 be
       -0.60939044 -0.053637628 1.5590498 -0.28986156
000010 64 d6 6f 3e 6c b7 a3 bb dc 34 b4 be 05 e8 69 3f
       0.23421627 -0.004996231 -0.35196579 0.9136966
000020 1a 51 87 3e d4 35 23 be 45 a5 c5 3e 74 71 3e 3f
       0.26429063 -0.15938503 0.38602653 0.74391866
000030 0c d8 28 3f 64 a3 29 bc 0d e6 15 bf 52 9c cf bd
       0.6595466 -0.010353897 -0.58554155 -0.101372376
000040 68 12 74 be aa 15 21 bf 11 af 1f 3e ce 52 30 be
       -0.23835146 -0.6292368 0.15594126 -0.17219087
000050 df f2 1b be 5d 00 ba be 4e cd 90 3e 62 45 4c 3e
       -0.15229367 -0.36328402 0.28281635 0.19948342
000060 20 67 91 3e 1e 42 41 3e 23 3e d6 bd 4b 4d 7e 3e
       0.2839899 0.18872878 -0.104610704 0.24834172
000070 cd 0d f1 3d a7 ba b2 3e 4c 2e 8b 3e 51 af e0 3b
       0.117702104 0.3490803 0.2718376 0.006856837
000080 4b 3e 75 3d 26 bd 31 3e 0d a1 7e be c7 aa 16 be
       0.05987386 0.1735731 -0.24866123 -0.14713584
000090 0e 96 e0 3d 9d 4f 09 3e 5a f6 b8 3e ab c5 2c be
       0.10966121 0.13409276 0.3612545 -0.1687228
0000a0 b8 ca 46 be f4 93 bb 3d 52 be 4a bb 8d 88 db 3e
       -0.19413269 0.09159079 -0.0030936194 0.42877617
0000b0 80 f4 c2 3e 50 a8 2b 3f 0c 5b c0 be 15 07 08 3e
       0.38077164 0.670537 -0.37569463 0.13283952
0000c0 f1 fe cf 3e c7 82 66 be 04 50 96 3e 39 81 12 3f
       0.40624192 -0.22510825 0.29357922 0.5722843
0000d0 19 3d 16 3e 4e 4b 81 be ec 2d 1a 3f 57 65 a6 3e
       0.14671744 -0.25252765 0.6022632 0.3249919
0000e0 a8 a9 df 3e 84 08 4a 3e fa 65 09 3f 5e 5c 57 3f
       0.43684125 0.19729811 0.5367123 0.84125316
0000f0 1e d4 34 3f 16 5a 2a bf 50 07 09 be 8a a7 94 be
       0.70636165 -0.6654371 -0.13381696 -0.29034072
000100 5d 84 f9 bd fb 6a 6a be 42 de 6f bf f3 ef 0f be
       -0.121834494 -0.22892372 -0.93698514 -0.14056377
000110 ba 3d 72 3f c7 28 b4 bd 09 06 40 bf 04 18 3f bf
       0.9462544 -0.0879684 -0.7500921 -0.7464602
000120 c5 0d e2 3e 38 75 53 3f ff 35 49 bf bf f6 ac be
       0.4415113 0.82600737 -0.78598017 -0.33782002
000130 c4 5e f0 3e d2 9a e3 3e dd a5 55 3e 9f f8 0c be
       0.469473 0.44454056 0.20864053 -0.13766716
000140 1f e8 87 be 3f ae d3 be c8 ec 1d bf 0c dd 2d 3f
       -0.26544282 -0.41343877 -0.61689425 0.67915416
000150 4f 7e a9 3e cf 40 07 be ea a0 0c 3e 28 c6 c2 bd
       0.33104178 -0.13208316 0.13733259 -0.095104516
000160 77 0a a0 be a2 cc 04 3f ea e5 16 3f df a4 63 3d
       -0.31257984 0.51874745 0.5894457 0.055577155
000170 c1 e7 7a bf 70 2a dd be 57 8b cf 3e 50 16 57 3f
       -0.9800988 -0.4319644 0.40535995 0.8401842
000180 5e 68 e6 3e 2c e4 da be 9b e9 6b bd 2e 16 f0 be
       0.450015 -0.42752206 -0.05759583 -0.46891922
000190 a1 a3 76 bf 98 98 97 3c f2 83 ae 3e 91 d4 a9 be
       -0.9634343 0.01850538 0.3408504 -0.33169988
0001a0 17 5a 56 bf 87 e8 45 be 80 5b 07 3f 2c d6 10 3e
       -0.83731216 -0.19326983 0.5287399 0.141442
0001b0 e8 22 55 3f c1 1e ca 3e ed b3 01 3e c5 65 71 3f
       0.8325639 0.39476588 0.12666292 0.94295913
0001c0 5b ae 5c 3e f0 19 b6 3d 41 2d 10 3e 62 77 3e 3f
       0.21550886 0.08891666 0.14079763 0.74400914
0001d0 06 04 1e bd 98 13 85 3f e8 d5 6e 3f 10 80 2e 3f
       -0.038578056 1.0396605 0.93295145 0.6816416
0001e0 0f 74 cd be 59 98 14 be 0b fe 1a bf cd 47 ce 3e
       -0.40127608 -0.14511241 -0.6054389 0.40289155
0001f0 d4 3b ee 3e 4d 53 24 3f 22 b4 57 3f 10 76 0e 3e
       0.4653002 0.64189607 0.84259236 0.13912225
000200 2c 5b cd 3d b8 d7 02 bf 9c 18 d6 3e d9 b0 94 3e
       0.10027155 -0.5111041 0.4181565 0.29041174
000210 8d f5 42 3f 26 e0 24 3d d0 8e 22 3f 45 5e a4 bd
       0.7615593 0.040252827 0.63499165 -0.08025793
000220 02 16 d5 bd 80 c5 5b bc 11 3f 4d be 42 42 4d 3d
       -0.10404588 -0.013413787 -0.20043589 0.050112016
000230 ee 09 18 3f ef 0b 39 3f b3 39 4b 3f 23 91 40 3f
       0.5939015 0.72283834 0.7938492 0.7522146
000240 4d 47 36 3f a9 5b 5c 3f ef b3 d1 3d d2 50 0e 3f
       0.71202546 0.8607736 0.10239398 0.5559207
000250 61 0b 15 3f 5a 85 a5 be c2 33 bf bc e8 23 86 be
       0.5822049 -0.32328302 -0.02334011 -0.2619927
000260 45 fd df bc 51 b8 9d be 18 60 93 3e f5 16 29 3f
       -0.027342448 -0.30804685 0.2878425 0.66050655
000270 79 0b 5b 3f c5 f0 5a be d3 27 22 bd 71 82 31 3f
       0.8556438 -0.21380909 -0.03958876 0.6933966
000280 69 2f 93 be af 59 ed 3e 22 e2 30 3f 64 95 02 3f
       -0.2874711 0.46357486 0.6909505 0.510092
000290 ef 74 4a 3e d8 10 0d 3f 9f 0a c7 3d 52 de ef 3e
       0.19771169 0.55103827 0.09718823 0.46849304
0002a0 4b 97 93 3e ac 84 f1 3e ec 33 47 3f 02 19 08 be
       0.28826365 0.47171533 0.778136 -0.1329079
0002b0 72 60 84 bb 16 ca 8e be 4b e7 21 bd 7b d8 c2 ba
       -0.0040398175 -0.27888554 -0.03952722 -0.0014865542
0002c0 26 a0 35 be 5e 3f 3b 3e ad 1f ae 3e d6 1d 93 bd
       -0.17736873 0.18285891 0.34008542 -0.07183425
0002d0 30 2b 9c 3e 4e 21 d0 3e dd a7 1c 3d f9 f2 e2 3e
       0.305017 0.4065041 0.038246024 0.44325998
0002e0 42 49 b4 3e fc 0b b1 3e 46 8c ae 3e 60 27 02 3d
       0.3521214 0.34579456 0.34091395 0.031775832
0002f0 4b a2 dc 3d 1d 18 bf 3d 8d 5c 30 3d df 3c da 3e
       0.107731424 0.09330771 0.043057013 0.42624566
000300 d4 10 68 3e df 37 8b be 90 eb 07 3f 59 21 7d 3e
       0.2266267 -0.27191064 0.53093815 0.24719752
000310 dd b3 40 3d 3f a9 99 3e a7 c1 f7 bd 66 6a 5e 3e
       0.04704653 0.30011937 -0.12097483 0.21720275
000320 6c 2e b5 3d c5 cb ca bd b2 01 64 3e 15 55 6a 3e
       0.08846745 -0.09902147 0.22266272 0.22884019
000330 d2 a1 2e 3e 50 99 35 3e bc 1b 78 be 17 51 a6 3d
       0.17053917 0.17734265 -0.2422933 0.081209354
000340 fc 4c 0b 3e 86 80 0a 3f 77 71 ce bd b5 ee e5 3e
       0.13603586 0.5410236 -0.100802355 0.44908682
000350 0f 1c 2e 3d e2 01 2c 3f 00 7a a8 bd ac 6c b8 be
       0.042507228 0.6719037 -0.08226395 -0.3602041
000360 e1 12 b2 3e 49 66 65 bd e5 ad 91 bd a6 42 b2 3d
       0.34780028 -0.05600575 -0.07113246 0.087041184
000370 f0 28 69 3f c9 fd 11 be 76 9d 4d 3e 04 41 dc bd
       0.9107809 -0.14256968 0.20079598 -0.10754588
000380 d3 79 b9 bd f2 6e cf be 8a 7a e3 bd 6b c3 dd be
       -0.09056439 -0.40514332 -0.11107357 -0.43313155
000390 c8 7c 42 3e 57 d8 df 3d 05 f8 95 3e 72 0a 95 3e
       0.18992913 0.109299354 0.29290786 0.29109532
0003a0 cd 31 fc 3d e8 b1 8f bf 6e b8 87 3f 96 0c fd 3e
       0.12314186 -1.1226168 1.0603158 0.49423665
0003b0 4f 05 96 ba 4a ce 5a bd 24 ce bc be 3c 8c df 3e
       -0.0011445674 -0.05341939 -0.36876023 0.43661678
0003c0 e6 74 0b 3f df d6 a7 bd df 6e 84 3e 49 15 54 3e
       0.5447525 -0.0819528 0.25865838 0.20711245
0003d0 9b 53 38 3d 61 4e 91 3f 86 6c be 3e 02 ac 7a 3e
       0.045001607 1.1352044 0.37192172 0.24479678
0003e0 4e 9c 26 3e 69 4c f9 3e 99 5d 4d 3e 05 85 cb 3e
       0.16270563 0.4869111 0.20055236 0.39749923
0003f0 7e 28 20 bd e7 89 02 be 79 b6 c1 bc 48 8c b4 3e
       -0.039101116 -0.12747918 -0.02364658 0.35263276

L1.bias f4 [44]
000000 83 4b c3 bf 7c c6 a0 bf 17 77 b8 bf e4 b1 69 bf
       -1.5257419 -1.2560573 -1.4411343 -0.91287065
000010 7a 5f 8e bf 0c db 04 c0 3f fd d8 bf 53 64 0a c0
       -1.1122887 -2.0758696 -1.6952285 -2.1623733
000020 c6 76 e4 bf 95 e2 cb bf 08 93 93 bf e7 70 0b c0
       -1.7848747 -1.5928522 -1.1529245 -2.178766
000030 75 b6 74 bf dc 86 0f c0 e6 d7 f2 bf 1c 2c 11 bf
       -0.9559091 -2.2426062 -1.8972137 -0.5670793
000040 eb 49 d4 bf 8f 06 1d 3e fa 20 ca bf 95 39 f2 bf
       -1.6585058 0.15334533 -1.5791314 -1.8923823
000050 2a 77 93 bf 9a 22 17 c0 c3 70 a1 bf 8f 04 8a bf
       -1.1520741 -2.361487 -1.2612537 -1.0782641
000060 d2 a6 bc bf 45 9d 8e bf 11 4e aa bf 54 9b ca bf
       -1.473841 -1.1141745 -1.3305074 -1.5828652
000070 3a 07 fb bf 6b 65 d9 bf 44 ec 02 c0 bf 6e d5 bf
       -1.961158 -1.6984075 -2.0456705 -1.6674422
000080 2e 87 f3 be 9d 22 a5 bf 98 d3 9c bf e9 94 0c c0
       -0.4756407 -1.2901188 -1.2252073 -2.1965888
000090 93 47 a2 bf 26 ed b3 bf 47 39 6e bf 06 a5 80 bf
       -1.2678093 -1.4056747 -0.9305615 -1.0050361
0000a0 91 78 02 c0 b6 6d 1e c0 e0 c0 1d c0 47 21 fb be
       -2.0386088 -2.4754462 -2.4648972 -0.49048826

L2.weight f4 [88, 44]
000000 4e 18 03 3e 12 9d 88 3f 33 a2 3e 3e 29 12 e3 bd
       0.1280224 1.0672934 0.18616562 -0.11087448
000010 8d 6c 33 3f 6d ad b7 be 63 11 c0 be 24 55 4c 3e
       0.7008751 -0.358745 -0.37513265 0.19954354
000020 40 e2 a2 bc 3f 83 96 bc 77 be 62 3e 95 9e 38 3e
       -0.019883275 -0.01837313 0.22142969 0.18029244
000030 5a 14 5f bf 02 80 15 bf cb 4c b9 bd f8 47 b3 bd
       -0.8714043 -0.5839845 -0.0904785 -0.08753961
000040 33 f6 d5 be 2b d3 b4 be 8a 1f 40 3f d7 71 b0 3e
       -0.41789398 -0.35317358 0.75048125 0.34461853
000050 54 1b cf 3d 7e a2 88 be 66 92 20 3e 52 22 d2 be
       0.10112634 -0.26686472 0.15680847 -0.4104181
000060 19 91 af 3e 35 45 b5 bd 49 13 41 3e 65 ca 41 3c
       0.34290388 -0.08851091 0.18855013 0.01182804
000070 ac 06 81 be 33 d8 47 3f 95 7f d2 be df 20 c2 bd
       -0.25200403 0.7806427 -0.41112962 -0.09478926
000080 ff e4 29 be 74 df bb 3e 67 a7 5f 3f ae 56 0e bf
       -0.16591261 0.3669392 0.8736481 -0.5560101
000090 41 12 03 3d 20 6e 5d 3f 34 f4 57 3d eb c5 a7 be
       0.03199983 0.8649616 0.052723125 -0.32768187
0000a0 1c 01 4e be 72 17 01 be 9d 05 31 3e 8f 3e 58 be
       -0.2011761 -0.126066 0.17287298 -0.21117614
0000b0 f3 23 c1 be 13 eb c9 be aa fb 9b be 84 0a 1e 3e
       -0.3772274 -0.3943716 -0.30465442 0.15433699
0000c0 ee c5 9c 3e 76 61 2e 3f 69 30 40 be f5 f8 44 3f
       0.30619758 0.68117464 -0.18768467 0.7694238
0000d0 55 79 3a 3e b4 92 74 be 2d 8e 48 bc fc a3 4d 3d
       0.18210347 -0.23884088 -0.012240929 0.050205216
0000e0 71 98 fc 3f c7 65 b1 3e ab b6 f6 3e 12 64 33 be
       1.9734021 0.34647962 0.4818624 -0.17518643
0000f0 e8 1a c5 be 04 f1 01 3f 33 b6 16 3f 14 6d ae 3e
       -0.3849709 0.50758386 0.58871764 0.34067595
000100 a5 4e 24 bf 6f 81 57 bf c2 a5 45 bf a6 e0 49 bb
       -0.641825 -0.84181875 -0.7720605 -0.0030804067
000110 9c 85 4d 3f ea a0 5e bf 44 eb 15 bf 60 9c 20 bd
       0.80281997 -0.86964285 -0.5856211 -0.03921163
000120 b9 57 0c bf 02 69 1f 3f ce 40 3f bd 3d 32 0c bf
       -0.54821354 0.62269604 -0.046692662 -0.5476416
000130 23 07 a5 be e0 96 23 bf b3 b7 53 3e 21 ad c7 bd
       -0.32232007 -0.6390209 0.20675544 -0.097498186
000140 e6 20 02 3f 09 1e f4 be 8e f1 c1 3e d2 72 fd be
       0.5083145 -0.47679165 0.37879604 -0.49501663
000150 1e 4f 96 be df 5a f6 be d8 bf b7 3e e7 5e b2 be
       -0.29357237 -0.48116204 0.35888553 -0.3483803
000160 47 3c ac bf 6c 4a 44 3e a8 4a 18 bf fa 64 01 bf
       -1.3455895 0.19169015 -0.59488916 -0.50544703
000170 be 36 8c bf 85 c8 33 bf e1 78 6c bf 1f 4b 2c 3c
       -1.0954206 -0.70227844 -0.92371947 0.010515957
000180 f8 83 27 3d 21 bf 8a bd 88 a8 16 bf e9 bc 2c 3e
       0.04089734 -0.06774736 -0.5885091 0.16868939
000190 a6 79 e9 be 78 bc 6a be 1c bb 5d 3d 64 1d fb 3e
       -0.45600623 -0.22923458 0.05413352 0.4904586
0001a0 76 9e 26 3d 2a 10 2d bf 68 70 d0 be 88 64 cc bd
       0.040678464 -0.6760279 -0.4071076 -0.09980112
0001b0 b7 0e 48 3e a4 bf 38 3d d2 2b 42 bf 2f 92 a4 bf
       0.19536863 0.045104638 -0.75848114 -1.2857112
0001c0 00 8e 6a be d6 06 a5 be 40 dc bd be 59 1e 5c 3e
       -0.22905731 -0.32231778 -0.370821 0.21495952
0001d0 4d f9 b8 bd 18 8c 93 be 22 2c 6e 3e e7 ff 97 bd
       -0.09031925 -0.2881782 0.23259023 -0.074218564
0001e0 ae 85 eb bd 4f ec d5 bf c2 5f ce 3e 98 97 af be
       -0.11500107 -1.6712741 0.40307432 -0.34295344
0001f0 1d dd a2 3e 95 73 72 3d a6 41 b4 be d4 1d ed bd
       0.3180932 0.05919226 -0.35206336 -0.11577955
000200 bc 18 e8 be 55 1f 19 3f 24 d2 d1 be df ba d3 be
       -0.4533137 0.59813434 -0.40980637 -0.4135351
000210 b8 86 87 be ad cd 18 3f f0 19 0d bf b5 34 b0 3b
       -0.2646997 0.59688836 -0.551177 0.005377377
000220 4c ad 6a 3d 4a 18 0d bf 0b d8 09 bf 25 47 2e bd
       0.057294175 -0.5511519 -0.5384528 -0.042548317
000230 18 e9 da bd e1 b2 ee bd 85 78 13 bf 11 eb 6b 3f
       -0.1068899 -0.11655212 -0.57605773 0.9215556
000240 ce 2b 9c 3c 77 2e f8 3a 53 ec f4 bd 26 18 2a bf
       0.019063856 0.0018934746 -0.11959138 -0.664431
000250 9e b6 24 bd ce 33 91 be c4 ad 38 3f 74 ea 01 bf
       -0.04021322 -0.28359836 0.72140145 -0.5074837
000260 03 46 26 bf d4 14 67 be 8a 7a 87 be e7 12 b0 bd
       -0.6495058 -0.22566539 -0.26460677 -0.08597355
000270 3a 9c 07 3f 83 7c 0f 3f 2e 05 0c bd fa 9c 02 bf
       0.5297276 0.56049365 -0.034184627 -0.5102078
000280 78 47 d1 bc 40 bc ca 3d ab f1 2a bf 2a 54 1a 3e
       -0.025546774 0.09899187 -0.66775006 0.15071169
000290 98 6e 37 bd 89 a3 2a bf 5e d2 05 bf e7 21 d5 be
       -0.044783205 -0.66655785 -0.5227412 -0.41627428
0002a0 d5 a9 15 be 38 26 c4 be 01 8f a7 3e fb 6a dc 3d
       -0.14615567 -0.3831041 0.3272629 0.107625924
0002b0 22 55 76 3e 22 0e a2 3e 05 3c 9c bd 60 3d a6 be
       0.24055913 0.31651407 -0.07628635 -0.324687
0002c0 03 27 d7 3e 5f a0 b5 be 92 99 44 bd e3 bb 42 3f
       0.4202195 -0.35473916 -0.04799802 0.7606794
0002d0 7a 8f fc be f2 de eb bd c7 50 ae be 6e 04 35 bf
       -0.49328214 -0.11517133 -0.34046003 -0.70709884
0002e0 73 1d 09 3f a4 61 d7 3d 8d f5 ca be 5f 1d 93 be
       0.5356056 0.1051667 -0.39640465 -0.28733346
0002f0 5c 0e 31 bf 27 6c 67 be 01 8a 26 be f1 e1 de bd
       -0.69162536 -0.2259985 -0.16263582 -0.10882939
000300 95 45 1f 3f 66 5e 02 bf aa ef 6e be 3a fc 62 be
       0.6221555 -0.5092529 -0.23333612 -0.2216653
000310 cf 0e a2 bf ab 5d cd be 26 7f 1c 3f cf bd 44 3e
       -1.2660769 -0.40110525 0.61131513 0.19213031
000320 a3 16 96 3f d3 a1 25 bd 5f 9e ae be 5c 1e ff be
       1.1725658 -0.04043753 -0.34105203 -0.4982785
000330 39 04 ae 3e 13 94 bb bf 3f bd 66 3d 62 89 bb 3e
       0.33987597 -1.4654564 0.056332823 0.36628252
000340 ca ff 39 3f b0 2e 10 bf 3d 51 e0 3e f8 05 88 be
       0.7265593 -0.5632124 0.4381198 -0.26567054
000350 43 17 2a bf 52 02 cf 3e e6 b5 93 be 45 37 bc bd
       -0.66441745 0.40431458 -0.28849715 -0.09190229
000360 0e a2 31 be ac f0 a5 be 14 50 46 bf 29 59 98 be
       -0.17346975 -0.3241018 -0.7746594 -0.29755524
000370 60 2a 23 bf 9f 16 a6 be 91 93 b1 be b2 03 1a bf
       -0.63736534 -0.32439134 -0.34682897 -0.6016189
000380 ae 47 a9 be c9 29 d3 bd 48 b1 f8 bd 8d c4 dd be
       -0.330625 -0.10310704 -0.12143189 -0.4331402
000390 47 79 2f be 8e 42 b9 be 85 24 5c be 38 e5 83 3e
       -0.17136107 -0.3618359 -0.21498306 0.25760818
0003a0 81 f4 c6 be d8 48 aa be c9 96 9a 3e 59 e7 63 bf
       -0.38858417 -0.332587 0.30193165 -0.89024884
0003b0 cc 59 22 bf 03 b9 1c be 5a ae e7 3e 2f 68 40 3f
       -0.6341827 -0.15304951 0.45250207 0.7515897
0003c0 e0 73 15 bf 54 22 f3 be c1 9a a0 bf 4c 48 a9 3d
       -0.58379936 -0.47487128 -1.2547227 0.08265743
0003d0 f8 b8 62 bf 89 b2 aa 3e 82 93 c5 be 4c e4 27 be
       -0.8856349 0.33339337 -0.38589102 -0.16395682
0003e0 c5 0d 59 be 09 af b3 be 59 c9 08 bf 4b 63 73 be
       -0.21196659 -0.3509448 -0.5343223 -0.23768346
0003f0 44 04 85 bf e7 cd 3e be f2 66 2d bf b0 b5 a1 3d
       -1.0391927 -0.18633233 -0.6773521 0.07895982

L2.bias f4 [88]
000000 7d dc a1 be 4d a3 63 be 46 29 2f bf ae 37 28 bf
       -0.31613532 -0.22230263 -0.68422353 -0.6570996
000010 4a 71 16 3f 6a dd 76 bf e7 d0 c2 bf 72 71 59 bf
       0.58766615 -0.964316 -1.5220002 -0.8493873
000020 bf 7e 4e bf 0e f4 2f bf 61 17 6f bf 07 9c 39 3e
       -0.8066215 -0.6873177 -0.9339505 0.18125926
000030 00 99 84 bf a5 cf fb bf ad 49 35 be d6 64 9e 3e
       -1.0359192 -1.9672743 -0.17703886 0.30936307
000040 f0 05 ce bf f6 11 8a be bb d8 9b be 52 15 99 bf
       -1.6095562 -0.26966828 -0.3043879 -1.1959631
000050 e9 c4 bb bf 9d 21 74 bf 00 05 89 bf 5f 60 b3 bf
       -1.4669467 -0.9536379 -1.0704651 -1.4013785
000060 13 47 eb bf 56 c3 12 bf 70 26 9b bf c2 2d 90 bf
       -1.8381065 -0.5732931 -1.2121105 -1.1263964
000070 ba 8f 4f bd e8 dd 92 bf 04 0f f3 bf 12 15 14 bf
       -0.050674178 -1.147397 -1.8988957 -0.5784465
000080 9d 78 39 bf 9d b6 83 bf aa c0 62 bf b5 87 8d 3e
       -0.72449666 -1.0290104 -0.8857523 0.276426
000090 9b ce 8c be 88 3e a9 3e 7e e0 9f be cc ac de be
       -0.27501377 0.3305552 -0.3122596 -0.4349121
0000a0 63 80 c8 be c4 0a a7 bf ba 43 a6 bf 5d 69 10 bf
       -0.3916045 -1.305016 -1.2989419 -0.5641077
0000b0 33 ed 66 bf 03 33 77 bf 34 88 4c be c4 e4 d3 be
       -0.9020569 -0.9656221 -0.19973832 -0.41385472
0000c0 0c bf 8d bf a0 a8 22 bf c8 12 c7 3f ff da 00 c0
       -1.1073928 -0.6353855 1.5552607 -2.0133665
0000d0 70 2c 95 bf 0a 1d 86 bf ed 84 3c bf cd 54 17 3e
       -1.1654186 -1.0477612 -0.7364033 0.14778443
0000e0 b1 53 04 c0 de f7 e5 bf f7 b8 1d bf f8 e8 9d bf
       -2.067608 -1.7966268 -0.6161036 -1.2336721
0000f0 71 a7 5e 3f 41 5f f5 be bb 61 d9 3e 46 86 61 bf
       0.86974245 -0.47924235 0.42457375 -0.8809551
000100 1b 37 1a bf c3 00 a2 3e dd 84 50 bf 00 68 90 bf
       -0.60240334 0.31641206 -0.81452733 -1.1281738
000110 15 6f 48 be 67 19 27 bf 07 09 48 bf 6d 61 42 3f
       -0.19573624 -0.65273136 -0.78138775 0.7592991
000120 6a f0 56 3d d8 ce d5 bf f4 4c 50 bf f9 0f 7d be
       0.05247537 -1.6703749 -0.8136742 -0.24713124
000130 51 15 3d bf 36 21 4c 3f 07 b2 60 bf e9 8e d9 bf
       -0.7386065 0.79738176 -0.8777165 -1.6996738
000140 02 3f a7 bd 87 6b 84 3f a8 69 c5 be 17 a1 9b bf
       -0.08166315 1.0345315 -0.38557172 -1.2158536
000150 f7 cd d3 bf ae bb f6 bf cd 63 04 3f b3 0a 89 bf
       -1.654723 -1.9276025 0.51714784 -1.070639

L3.weight f4 [176, 88]
000000 e6 a1 0d bd 7d 2d 4d be b9 82 0d 3f 75 31 ec bd
       -0.034578227 -0.20036884 0.5527759 -0.11532871
000010 e6 cd 0a bf 65 32 88 3f 1f cd 92 3f 31 33 7f 3f
       -0.54220426 1.0640379 1.1468848 0.99687487
000020 c7 5a 77 3f ed 16 22 3e ac 9f d2 3e 09 ce 7e be
       0.9662289 0.15829058 0.41137445 -0.24883284
000030 60 18 a9 3e 44 1c 1a 3f a7 4d f4 be 78 77 29 bf
       0.3302641 0.6019938 -0.47715494 -0.6619792
000040 1c 50 34 3f 80 eb 55 3c 92 e7 67 3f 00 65 bc be
       0.7043474 0.013056636 0.90587723 -0.36795807
000050 3d c6 83 3f 35 60 66 3f 3a a0 48 be 76 30 a2 3e
       1.0294873 0.8999055 -0.19592372 0.31677598
000060 8e f3 91 3e 07 72 6f 3f 48 fb d7 3e 14 b7 11 3f
       0.2850613 0.93533367 0.421839 0.5691998
000070 2a 4f 39 bf c4 2f d0 3e fa de 07 3f 2d 6b 3c 3f
       -0.7238642 0.40661442 0.5307461 0.7360104
000080 a5 c5 e1 3e 87 37 fe 3e 4c 9b 82 3e 57 0a c0 be
       0.44096103 0.4965174 0.25509107 -0.3750789
000090 3f 08 a0 3c 15 ed 30 bf 4b 60 4e 3f ca 9e b5 bf
       0.019535182 -0.6911176 0.8061568 -1.4189084
0000a0 da 00 f0 be 24 71 a3 3e 62 5f f5 3e b4 b2 8b 3c
       -0.4687565 0.31922257 0.47924334 0.017052986
0000b0 30 ea 47 be 56 55 33 3d b2 f2 bf 3e 85 63 90 3e
       -0.19522929 0.043782555 0.3748985 0.28200927
0000c0 a6 c0 16 bf 6d 09 c3 3e 5c ba 4d bf 81 93 41 3e
       -0.5888771 0.3809313 -0.80362487 0.18903925
0000d0 36 0d 0b bf 92 74 08 be 9a 20 0c bf 4e aa 8e be
       -0.54317033 -0.13325718 -0.54737246 -0.27864307
0000e0 7b 49 8e 3f ec 53 b7 be c6 56 da 3e 03 d3 da 3e
       1.1116174 -0.35806215 0.42644328 0.42739114
0000f0 f8 eb bf be 45 cb 06 3e 81 e3 70 bf 22 94 0e 3c
       -0.37484717 0.13163479 -0.94097143 0.00870231
000100 16 31 c7 3f 50 57 42 bd 5e d4 a7 bd a3 f7 d8 3d
       1.5561855 -0.04744655 -0.08194803 0.10594108
000110 12 60 08 3f 23 78 e6 3c 6e 44 a7 3e 33 35 fa be
       0.5327159 0.028133458 0.32669395 -0.48868713
000120 95 88 ff bd d6 c4 be 3f 82 27 14 bf 49 f7 a8 bf
       -0.12477223 1.490382 -0.57872784 -1.3200465
000130 82 88 02 bf 0f f3 86 bf e2 bf a2 3e 6f 76 92 3f
       -0.50989544 -1.0542926 0.3178702 1.1442393
000140 fb 2d dd be f3 ac 21 bf cc af 82 bd 26 74 90 3f
       -0.43199143 -0.63154525 -0.06381187 1.1285446
000150 f6 ae 14 3f c2 15 a8 3f 83 9f 0b bf de 1f 95 3d
       0.5807947 1.313164 -0.5454027 0.07281469
000160 b7 3c 7d be 17 63 b9 3c 60 bb 0c 3e 0f fd 28 be
       -0.24730192 0.022630258 0.13743353 -0.16502784
000170 53 79 5b be 0c f1 14 3f 22 e5 59 3f 7a e1 0e 3e
       -0.21433 0.5818031 0.85115254 0.139532
000180 68 2e 21 3f 8a 08 7d be 1d ef ec 3e 46 20 fc be
       0.62961435 -0.24710289 0.4627618 -0.49243373
000190 dc b5 43 bf 0d 8e 58 3f 73 56 9d bc c8 af fd bd
       -0.7644937 0.8459175 -0.019206261 -0.12387043
0001a0 ae 40 1d 3f a5 15 3a 3d c6 40 e7 3d 2b e4 24 bf
       0.6142682 0.045430798 0.112916514 -0.64410657
0001b0 62 50 c2 3d ca da 52 3f 5b c5 53 3e 73 41 0b 3f
       0.09487988 0.82365096 0.20680754 0.5439674
0001c0 50 dc 57 3f 2e 31 8e 3f 43 c1 de 3e 91 da 3b 3e
       0.84320545 1.1108758 0.43506822 0.18345095
0001d0 fb 2d 31 bf 04 b6 5f 3f 54 70 0f 3e ef 3b 37 be
       -0.69210786 0.8738711 0.14007694 -0.17893957
0001e0 d9 0e 51 3f 51 56 a8 3e 30 67 8e 3e 14 74 b2 be
       0.8166328 0.32878354 0.278131 -0.34854186
0001f0 8f 19 d3 be e5 26 2c bf 49 8c a2 bd d6 38 4e be
       -0.41230437 -0.6724685 -0.079369135 -0.20138869
000200 51 ab 23 3e 68 ed 74 3d 65 d9 52 be a7 4c 89 3e
       0.15983321 0.05979672 -0.20590742 0.26816294
000210 7b ad cd be 97 ae 4f 3e 6a 45 ec 3e 75 d6 dd 3e
       -0.40171418 0.20281444 0.4614671 0.4332768
000220 cd f3 c4 3e 5a dd 5b bd b6 b8 d1 be 88 f0 27 3f
       0.38467255 -0.053677894 -0.40961236 0.65601397
000230 42 6d ef be f5 43 15 be 25 65 a4 3e 23 91 99 be
       -0.46763045 -0.14576705 0.32108417 -0.29993543
000240 04 81 21 3f 1f 8c 04 3f 7a e3 f4 3c 7c de b7 3e
       0.6308749 0.5177631 0.029893626 0.3591193
000250 ef 3e 55 bf e1 58 55 3e 82 5d 00 bf af 1e 56 be
       -0.83299154 0.20834686 -0.5014268 -0.20910142
000260 0b de 8b 3d da 70 2f bf ff 4d cf 3e 36 29 1e 3f
       0.06829461 -0.6853157 0.40489194 0.6178163
000270 30 08 b0 3e 42 98 bc 3c 2e 26 8e 3f b1 f9 d0 be
       0.34381247 0.023021821 1.1105402 -0.408155
000280 b3 83 2f bd 15 56 5d 3f 26 51 48 3e 2b 7a 60 be
       -0.042850208 0.86459476 0.19562206 -0.21921603
000290 2e 5a a3 3e c8 70 98 bf 28 58 1a 3e 3d b1 38 3f
       0.3190474 -1.1909418 0.15072691 0.72145444
0002a0 10 fb 07 3e d5 ce 64 bf d2 fd 2b be e5 05 31 3f
       0.13279366 -0.893781 -0.16796044 0.6914962
0002b0 ad f6 31 be 1e d7 60 3f 79 3a 86 bf 46 0d fc 3e
       -0.17379256 0.8782824 -1.0486594 0.49228877
0002c0 a1 bb 25 3f c6 89 6c 3f a2 75 16 3e 59 0e a4 be
       0.64739424 0.92397726 0.14693311 -0.32042196
0002d0 46 1b 1d bf 62 2d 04 3f 83 4b 3e bf c8 e9 99 3e
       -0.6136974 0.5163175 -0.7433397 0.30061173
0002e0 b1 e1 9c 3f 3a e3 0a bf 10 7e d9 3d f5 23 15 3f
       1.2256376 -0.5425297 0.10619748 0.5825799
0002f0 d6 18 b1 be 4f d4 cc 3e c5 1e 4f 3f d1 24 ee be
       -0.3458926 0.4000573 0.80906326 -0.46512464
000300 e3 cd 76 3f 0c 52 24 bf 9e e6 58 3e c9 44 93 bf
       0.9640791 -0.64187694 0.21181723 -1.1505367
000310 6c 88 31 be 23 b7 f5 3e e8 38 cd be 24 cc 69 3f
       -0.17337197 0.47991285 -0.4008248 0.9132712
000320 e8 74 02 3f 57 2e 0f 3f c5 5b 92 3f 57 67 92 3e
       0.50959635 0.55930084 1.1434256 0.28594467
000330 5d ad 93 3e 73 9c 81 3f ba 26 27 3f fc e3 ab bf
       0.28843203 1.012587 0.6529347 -1.342895
000340 03 0c 10 bf c1 a6 cd 3e de 20 57 3e ea 62 94 be
       -0.5626833 0.40166286 0.21008632 -0.28981715
000350 e3 d4 24 bf 99 2d 59 bf 4c a0 3f 3d 81 9e 16 bf
       -0.6438734 -0.848352 0.04678373 -0.5883561
000360 2c dc 61 be f9 0f b7 3e 18 c3 91 3e cb e7 6b 3d
       -0.22056645 0.35754374 0.28469157 0.057594102
000370 3d 5f 5c 3d fa 07 04 bf e9 c1 c2 3e ed 7b 2f bf
       0.053801764 -0.5157467 0.38038567 -0.6854847
000380 fb 5c 32 bf 25 af 7f bf 9f b8 c9 bf 12 7a 51 3e
       -0.69673127 -0.99876624 -1.5759467 0.20456722
000390 bf fb 0f 3e 0f b3 9b bd 9d e9 9c bd c1 ea 82 3e
       0.14060877 -0.07602512 -0.07661746 0.25569728
0003a0 34 ca bc 3e b0 f9 bd be e5 86 0c 3f e6 b4 86 3b
       0.3687302 -0.3710456 0.5489333 0.0041109202
0003b0 28 b9 05 3e 3a 94 07 3f 38 59 b4 be 8a 29 b1 bd
       0.13058913 0.5296055 -0.35224319 -0.08650501
0003c0 9a 31 a1 3f bc 0d 0a 3f ca cd d3 3e 68 02 d0 3e
       1.2593262 0.53927207 0.41367942 0.40626836
0003d0 6a 4c 1b 3f c3 14 74 be f8 17 16 bf 62 57 0a bf
       0.60663474 -0.23836045 -0.58630323 -0.54039586
0003e0 c1 c4 00 3e 13 06 bc 3f 34 71 bb 3e 4d 87 91 be
       0.12575056 1.4689354 0.36609805 -0.2842354
0003f0 e3 92 0a 3e c4 7f 2f be f4 9d d9 3e ca 82 66 3f
       0.13532595 -0.17138582 0.4250332 0.9004332

L3.bias f4 [176]
000000 2f 2c c8 bf 50 e8 90 bf bb 4d aa be 99 43 94 bf
       -1.5638484 -1.1320896 -0.3326243 -1.1583129
000010 b1 29 81 bf bd 82 8a bf ff d0 60 bd eb 90 b3 bf
       -1.0090848 -1.0821148 -0.054886814 -1.40286
000020 8d 7d 94 bf d9 5e b0 be fc d0 9f bf 23 83 c1 bf
       -1.1600815 -0.34447363 -1.2485652 -1.5118145
000030 bb ef ca bf 96 70 67 bf b1 70 8a bf e0 ee 02 c0
       -1.585441 -0.9040617 -1.0815641 -2.0458298
000040 a6 53 e5 3e 34 ff 54 bf 75 99 da bf 19 01 c8 bf
       0.4479038 -0.8320191 -1.7078081 -1.5625335
000050 f4 0f 69 be 17 82 72 bf 32 97 9f bf 83 18 3e bf
       -0.22759992 -0.9472975 -1.2468016 -0.7425615
000060 2f 88 ed bf f0 46 ce bf b6 5d 13 c0 71 a4 e5 bf
       -1.8557185 -1.6115398 -2.3025947 -1.7940809
000070 c9 7f e8 bf c3 6e cb bf 46 a3 cc be 8c 7c f9 bf
       -1.8163997 -1.5893177 -0.39968318 -1.9491134
000080 a0 17 93 bf 87 16 01 bf e3 f5 02 c0 7d 33 ca bf
       -1.1491585 -0.50425 -2.0462577 -1.5796963
000090 30 d0 a2 be 18 51 75 bf 49 df 07 bf 7b 43 81 bf
       -0.3179946 -0.95826864 -0.5307508 -1.0098718
0000a0 f6 ab 98 be 61 4f fd 3c 9a 48 be bf 21 79 88 be
       -0.29818696 0.03092164 -1.4865906 -0.26654914
0000b0 c9 d6 26 bf 36 6f 72 bf b7 6e aa bf be a1 70 bf
       -0.65171486 -0.94700944 -1.3315037 -0.939968
0000c0 f9 41 84 bf 95 ba 63 bf ea 9c fd 3c 00 39 a8 bf
       -1.0332633 -0.88956577 0.030958612 -1.3142395
0000d0 be 23 bc bf c3 ec 92 bf 0c 85 55 bf 18 d3 d4 bf
       -1.4698408 -1.1478504 -0.8340614 -1.6626921
0000e0 16 f3 e5 bc 55 20 8f 3f 84 bf bd bf eb 41 40 be
       -0.028070014 1.1181742 -1.4824071 -0.18775146
0000f0 c5 ff b0 be 16 c4 c5 bf ad c6 80 bf 00 89 b4 bf
       -0.34570137 -1.5450466 -1.0060631 -1.4104309
000100 68 19 a4 bf 3c b5 5d bd 56 be d0 bf c0 9a 70 bf
       -1.2820253 -0.054127917 -1.6308086 -0.9398613
000110 c4 d5 e4 bf 91 05 e2 be 47 0e fd bf 5e e7 6f bf
       -1.7877736 -0.44144872 -1.9769982 -0.93712413
000120 04 7d 7e bf cb 70 04 c0 f1 2c 85 bf ba 1b c1 3e
       -0.9940951 -2.0693843 -1.040434 0.37716466
000130 ba 74 70 bf 6e f7 59 bf 49 89 27 3f 28 18 63 3f
       -0.9392811 -0.8514317 0.65443856 0.88708735
000140 9c 70 b6 be b1 d2 51 3e 87 76 6e bf 64 2a 8a bf
       -0.3563279 0.20490529 -0.9314961 -1.0794187
000150 b8 40 89 bf 92 46 15 bf 81 db d0 bf c5 ce 00 c0
       -1.0722876 -0.58310807 -1.6316987 -2.0126202
000160 02 31 d6 3d 0c 64 33 be 63 e3 41 bf 93 95 8f bd
       0.10458566 -0.17518634 -0.7573759 -0.07010951
000170 ba b4 d6 bf 02 ef 1d bf 91 a9 73 bf 52 e8 8e bf
       -1.6773903 -0.6169282 -0.9518061 -1.1164649
000180 2a 60 ce bf bd c6 a0 bf 79 26 69 3f 5a 52 1a c0
       -1.6123097 -1.256065 0.9107433 -2.4112763
000190 94 19 c5 bd cf 0b 87 bf 6a 98 6c bf 04 12 be bf
       -0.09624019 -1.0550479 -0.92420065 -1.4849248
0001a0 f7 5a ad bf 38 cd c5 bf ef 0a c6 bc c4 c0 79 bf
       -1.3543385 -1.5453253 -0.024175135 -0.9755976
0001b0 b7 10 ba bf 24 e2 fc 3e 2a 88 b2 bf 12 5a 68 bf
       -1.4536351 0.49391282 -1.3947804 -0.90762436
0001c0 9c 32 c0 3e c5 66 c0 bf a8 59 a6 bf 3a 05 89 bf
       0.37538612 -1.5031363 -1.2996111 -1.070472
0001d0 93 25 88 bf 1f e7 f9 be 52 9b 4a bf 87 31 a0 bf
       -1.0636467 -0.48809144 -0.7914325 -1.2515115
0001e0 07 85 21 bf 63 70 94 bf a7 b2 cc bd 1d 2c de 3e
       -0.6309361 -1.1596798 -0.09995013 0.4339303
0001f0 90 03 ac bf 9f 72 ac bf ac d2 db bf 5a 22 38 bf
       -1.3438587 -1.347248 -1.7173667 -0.71927416
000200 be 1f a9 bf 48 02 c5 bf 8c ee c5 bf 46 26 c7 bf
       -1.3212812 -1.5391321 -1.5463424 -1.5558555
000210 b2 cc 81 bf f5 8c c8 bf 11 c7 28 bf 92 c6 a7 bf
       -1.0140593 -1.5668017 -0.6592875 -1.3107474
000220 89 e6 10 be e4 68 c9 bf c6 86 8e bf f0 7b ce bf
       -0.14150442 -1.5735135 -1.113488 -1.6131573
000230 2d 4d 84 bf 8c 24 93 bf 30 bd 5b bf 70 f3 96 bf
       -1.0336052 -1.1495528 -0.8583555 -1.1793041
000240 9d 2d f3 bf 5b 8e 1b bf 59 1c 79 bf de 88 bc bf
       -1.8998295 -0.6076409 -0.9730888 -1.4729269
000250 6a 8c 97 bf b4 1e bf bf 17 e0 cd bf 24 49 a5 bf
       -1.1839726 -1.4931245 -1.6084012 -1.2912946
000260 94 c5 6e bf 9f e9 ad bf f3 7a c2 bf 92 49 32 bf
       -0.9327023 -1.358692 -1.5193771 -0.6964351
000270 f0 24 d3 bf d3 d3 4f bf 78 1b c2 bf 24 ea 19 be
       -1.6495647 -0.81182593 -1.5164633 -0.15030724
000280 04 d7 9d bf 7c 59 a5 bf d7 28 c2 bf 45 3b b1 bf
       -1.2331243 -1.2917933 -1.5168713 -1.3846213
000290 35 e2 a3 3d 42 06 a4 bf 94 75 77 bf 76 d8 6d bf
       0.0800213 -1.281441 -0.96663785 -0.9290842
0002a0 57 2b b8 bf 61 26 36 3e c7 1a a4 bf e9 e2 90 bf
       -1.4388226 0.17788078 -1.2820672 -1.1319247
0002b0 f2 0d ba bf 32 99 d9 bf f0 32 81 bf cc ab 50 bf
       -1.4535506 -1.6999876 -1.009367 -0.8151214

L4.weight f4 [88, 176]
000000 a2 b1 f3 3d 7d d4 eb 3d 61 1b af 3b 74 f9 b5 3e
       0.11899115 0.11515138 0.00534384 0.3554188
000010 7b 6b 15 bf b7 b1 92 3c 47 50 07 bd 73 af 2b be
       -0.5836713 0.017907007 -0.033035543 -0.16766147
000020 b1 a1 0f bd dd be a8 be 9a 17 6c 3e c9 b2 99 3e
       -0.03506631 -0.32958117 0.23055878 0.30019215
000030 8e 6e 6e bc 8f 31 1e be d0 60 18 3e d0 7b b6 be
       -0.0145527255 -0.15448593 0.14880681 -0.35641336
000040 e3 d0 06 bd c6 e2 d1 be 59 dc c2 be 10 d1 37 3e
       -0.032914054 -0.40993327 -0.38058737 0.17950845
000050 ac fc 1c bf 8a 7e b8 3e 79 3a c5 be 21 e5 cd bc
       -0.61323047 0.36034042 -0.38521174 -0.025133671
000060 e7 b6 02 3e c4 f0 05 3e c2 e8 15 bd 98 ec 87 be
       0.12765084 0.13080126 -0.03659893 -0.26547694
000070 45 5e 31 3c 17 86 56 be e5 57 31 bd 6f 98 3a 3f
       0.010825698 -0.20949589 -0.043296713 0.72888845
000080 5e 1a d8 be 62 7a e7 3d 94 43 a8 be 52 8f 59 3e
       -0.42207617 0.113026395 -0.32864058 0.21246079
000090 2f 96 f3 3d d6 18 09 3f 4d 88 b1 3d 95 98 41 be
       0.118938796 0.5355352 0.086685754 -0.18905862
0000a0 bc f2 6d be 88 94 bc be 76 8f 51 3e f8 1b d2 be
       -0.23237127 -0.3683207 0.20464882 -0.41036963
0000b0 5f 77 14 bf 9b 5d 3b 3e 15 2e 3e 3e b1 b6 2f be
       -0.57994646 0.18297426 0.18572266 -0.17159535
0000c0 bb d3 03 3f 0f bf 18 3e 04 ab 1e 3e 0e 57 88 3e
       0.5149495 0.14916633 0.15494925 0.26628917
0000d0 a2 99 a0 be be d3 ce be 54 f3 0a be 07 2e b5 bd
       -0.31367213 -0.4039592 -0.13569385 -0.0884667
0000e0 ec 10 ab be 0f b9 6e bf a9 e6 a9 3e ab 0e 83 be
       -0.33411348 -0.93251127 0.33183792 -0.25597128
0000f0 41 9f 02 bd ab 7a bf be 0f 96 99 bd dd cf 61 3f
       -0.031890158 -0.37398276 -0.074993245 0.882078
000100 ad 6e 06 3e c4 d6 e6 be 34 a9 9e bd 03 08 30 bf
       0.13128157 -0.45085728 -0.07747117 -0.68762225
000110 95 50 96 bf 6d c8 2c 3c fa b8 59 be 63 b0 10 3d
       -1.1743342 0.010545832 -0.21261969 0.035324465
000120 1d 4c 00 3d 34 dd ac bc d2 f1 0f be 5b 84 06 bf
       0.031322587 -0.021101572 -0.14057091 -0.5254571
000130 a3 70 5d bd 3c b7 16 bf 2f 36 f7 bc 7f e0 09 bf
       -0.054062497 -0.58873343 -0.030177204 -0.5385818
000140 a4 36 1e be a9 10 11 bf 1e ac f2 bc 6b 82 1f 3e
       -0.15450531 -0.56666046 -0.029623087 0.15577094
000150 31 12 cb bc ea 13 ac bd 5a 66 29 3f fe 36 ca 3d
       -0.024788948 -0.08402236 0.661718 0.0987377
000160 9b 64 36 bf a5 23 47 bf 14 80 9d bd ea d8 21 bf
       -0.7124726 -0.77788764 -0.076904446 -0.6322161
000170 5f 89 cf bd 5e be ac be 1c 89 83 be 38 1d 53 be
       -0.10133623 -0.3373899 -0.25690544 -0.20616615
000180 82 eb 00 3d 70 3e 4f 3e eb 92 09 bf de 4a 14 3d
       0.031474598 0.20238662 -0.53739804 0.03620421
000190 d2 e6 08 be df 48 e3 3e cb 3c 51 3f f8 52 b2 be
       -0.13369301 0.44391534 0.8173339 -0.34828925
0001a0 e9 dd 1a 3e ae f2 31 be 9c 10 83 bf ea d2 88 bc
       0.15123715 -0.17377731 -1.0239444 -0.016702134
0001b0 8d 81 e7 bd 2a f1 99 be 71 5f b9 bd 84 16 12 be
       -0.11304007 -0.30066806 -0.09051407 -0.14266402
0001c0 74 e1 2a bd e1 e3 a3 3e 45 4d 43 bd e2 79 13 ba
       -0.041718915 0.32009795 -0.04768111 -0.0005625767
0001d0 ac 95 3b bf fc 8d 8c be 91 ff 95 bd 57 ff a0 be
       -0.73275256 -0.27452075 -0.07324136 -0.3144481
0001e0 e2 3d 01 3f ed 97 f5 3e 36 eb e3 3d d4 d1 47 3d
       0.5048505 0.47967473 0.11128847 0.048784092
0001f0 63 a1 86 be 04 ad eb be 55 2f c3 bd 75 71 27 3e
       -0.26295003 -0.46030438 -0.09530512 0.16351874
000200 7d 7f 68 3c 1e a0 e5 be f2 8e 4f be 99 8a 82 3e
       0.014190552 -0.44848722 -0.20269373 0.25496367
000210 59 8d 25 3e bd c3 5c 3e e9 d2 aa be 46 27 c7 be
       0.16167201 0.21559043 -0.33364037 -0.3889715
000220 55 a1 3a be f3 e5 ca 3e 00 4b 84 3e ae 5b 0b bd
       -0.18225606 0.39628562 0.2583847 -0.03402298
000230 0a 27 f5 bd 27 32 f3 bd bb 20 b6 be 20 44 37 be
       -0.11970337 -0.118748 -0.35571846 -0.17897081
000240 84 4a 9f 3e 72 0d a8 be 39 fd ba be d2 ae 39 be
       0.31111538 -0.32822758 -0.3652132 -0.18133095
000250 45 50 bb bd 58 88 96 3e 54 7a 44 3e 96 54 0b be
       -0.091461696 0.29400897 0.1918729 -0.13606486
000260 6b 98 fc be d6 09 0b 3d f6 a5 96 3d d4 61 ca 3e
       -0.49335036 0.033944927 0.07355873 0.39527762
000270 cf 8e 90 be 78 31 3b 3c 99 93 a1 be af fb 45 bf
       -0.28233954 0.0114253685 -0.3155792 -0.77337164
000280 7a 6f 88 be 91 f6 6d 3e 43 b2 0a bf d2 15 c9 be
       -0.2664755 0.23238589 -0.54178256 -0.3927446
000290 9c 80 cf bc 9d 7e 8a 3e b5 a4 0e 3d 80 3b 61 be
       -0.02532988 0.27049723 0.034825046 -0.21995354
0002a0 4f 8e 7f 3e 56 8b 0b bf 6b 4f 10 be ef 10 53 bc
       0.2495663 -0.54509485 -0.14092796 -0.012882455
0002b0 f1 62 03 be 3c 55 9f be 0b 64 a1 bc dc f5 6b be
       -0.12830712 -0.31119716 -0.019701025 -0.23043007
0002c0 fe 43 fa 3e ae 38 32 3f 39 56 e8 3c 85 85 15 3f
       0.4888 0.69617736 0.028361427 0.5840686
0002d0 8a 97 21 3f a9 49 66 3f c2 7c 82 3f 54 54 2d 3f
       0.63121855 0.89956146 1.0194323 0.677068
0002e0 cc 42 f7 bd c8 87 94 bd 8f 9e de 3e 07 92 00 3f
       -0.12073287 -0.07252461 0.43480346 0.5022282
0002f0 06 53 f5 3e 29 ef be 3e c1 1d 76 3f 2f 72 f6 3e
       0.47914904 0.3729184 0.9613915 0.4813399
000300 01 9f 90 3e de 25 d6 be 1c 58 d3 bd a6 1a 3a 3f
       0.2824631 -0.41825765 -0.1031954 0.7269691
000310 f1 3c 50 be c0 3b 19 3f 93 57 d9 3c a8 c6 ad be
       -0.20335747 0.59856796 0.026531016 -0.33940625
000320 c2 8a 50 3f 69 a9 81 3f 7e b9 ca 3e 32 f2 4f 3f
       0.8146173 1.0129825 0.39594644 0.81228936
000330 f6 a7 42 3f 0b 24 71 3d 42 89 8b be 97 02 3e 3f
       0.7603754 0.058872264 -0.27253157 0.742227
000340 93 ae 0c 3f bd 4b 09 bd 5d 20 0a 3e cf 44 eb 3e
       0.5495388 -0.033519495 0.13488908 0.45950934
000350 51 17 75 3f 8a 2b 8c 3e de 61 6a 3f c5 7c 32 bc
       0.95738703 0.27376968 0.91555583 -0.010894005
000360 4c b9 c6 be f8 a6 cc bd 70 08 1c 3f 82 4b ab ba
       -0.38813245 -0.09992784 0.60950375 -0.0013068768
000370 22 de 07 be 7e 5b 61 3f e4 96 47 3f c2 80 8e bc
       -0.1326833 0.8803023 0.77964616 -0.01739538
000380 f2 ff 65 be f2 5e 4c 3f 07 14 81 be 8e 6e b8 3e
       -0.22460917 0.79832375 -0.25210592 0.36021847
000390 f5 53 62 3f 77 ad 41 3f c3 3d 19 3f 60 72 da be
       0.8840936 0.7565531 0.59859866 -0.42665386
0003a0 c4 13 d8 3d ba 9c ca be c0 e0 dd 3d d1 24 73 be
       0.10550645 -0.39572698 0.10833883 -0.23744513
0003b0 1a 1c 0c bf be ce cc 3e 8a 5b eb be f1 81 04 3f
       -0.5473038 0.40001482 -0.45968276 0.51760775
0003c0 b2 02 16 3f 37 ae 84 be a8 2f 81 3d 1f 9e 83 be
       0.5859786 -0.25914165 0.06307918 -0.25706574
0003d0 5a b5 f7 3d 8c 4f b5 3c e1 48 61 3e 1e 59 92 3f
       0.12095137 0.022132657 0.22000457 1.1433446
0003e0 37 cd 56 3f c5 77 46 3f 44 9c 55 3f a4 83 27 bf
       0.83906883 0.77526504 0.8344157 -0.6543524
0003f0 68 ce 51 bf 93 ee 06 3f ed 70 5e be 96 01 90 bd
       -0.81955576 0.52707785 -0.21722765 -0.070315525

L4.bias f4 [88]
000000 66 19 ef be 8d e6 74 bf 4f 89 3c bf 67 2f e3 bf
       -0.46699065 -0.9566429 -0.73647016 -1.7748841
000010 05 29 19 3e ad ad da be 75 5d 3d 3f d7 2e 0f 3e
       0.14957054 -0.4271063 0.7397073 0.13982712
000020 70 84 f0 3e 49 87 a7 bf 40 5a 78 bf b5 3b 99 be
       0.46976042 -1.3088161 -0.9701271 -0.29928365
000030 0a c1 d6 be 70 48 e8 be 13 d1 3c bf 48 13 55 bf
       -0.41944152 -0.45367765 -0.7375652 -0.83232546
000040 99 b2 17 bf b5 26 81 bf cc c8 8d bf 19 4f 8b bf
       -0.59256893 -1.0089937 -1.1076903 -1.0883514
000050 6e 6e 28 bf da 7b 35 bf 76 ac b2 bf 2a ce 46 3d
       -0.657935 -0.7089211 -1.3958881 0.048536457
000060 ed b8 a5 bf 6f f6 34 bf 54 52 82 3f 10 a9 90 bf
       -1.294706 -0.7068853 1.0181375 -1.1301594
000070 80 50 5f be 21 7b 5e bf 92 71 f1 3d 20 2a e1 be
       -0.21808052 -0.8690663 0.1178924 -0.4397745
000080 7e 91 46 bf 59 95 dc bf 44 4d b3 bf f6 50 44 3e
       -0.77565753 -1.7233077 -1.4007955 0.19171509
000090 d1 3b 19 bd 06 27 93 bf dc c7 99 bf ad 97 b5 bf
       -0.03741056 -1.1496284 -1.2014117 -1.4186913
0000a0 61 ae 95 bf 23 8c 20 bf ff 05 98 bf 79 f2 ee bf
       -1.1693841 -0.6271383 -1.187683 -1.8667747
0000b0 ac 37 19 3f d8 fc 4f be 97 4b a7 bf 9d 61 ab bf
       0.59850574 -0.20311296 -1.3069943 -1.3389164
0000c0 f1 d7 df 3e 4e 60 c4 3f a3 36 9d bf 98 1c 06 3e
       0.43719438 1.534189 -1.2282299 0.13096845
0000d0 8c 81 81 3e a7 78 5a bf c1 75 61 bf a8 58 88 bf
       0.2529415 -0.8534035 -0.88070303 -1.0652056
0000e0 3f 78 b7 bf 3e 3d 29 bf 13 a0 25 3f e7 0b 9e 3f
       -1.4333571 -0.66109073 0.6469738 1.2347382
0000f0 01 bf 5c bf f9 9d eb 3e ce 86 95 bc 20 b8 b0 bf
       -0.8622895 0.4601896 -0.018252756 -1.380619
000100 8e b9 af bf 5d aa 9a bf de 69 9e bf 92 93 a1 be
       -1.3728502 -1.2083241 -1.2376058 -0.315579
000110 60 e3 80 bf c0 ae 98 bf eb f6 52 bf 63 51 75 bf
       -1.0069389 -1.192833 -0.82408017 -0.9582731
000120 19 d1 34 bf 0b 00 7c bf 7a 88 52 bf ba 2c c6 bf
       -0.7063156 -0.98437566 -0.82239497 -1.54824
000130 3c 36 99 bf d3 75 b5 be 4b ff 36 bf 17 2c 85 bf
       -1.1969676 -0.35441455 -0.71483296 -1.040408
000140 63 8a c1 bf 4d 67 c7 be 9e d2 be bf 44 01 73 bf
       -1.5120357 -0.38946 -1.4908025 -0.94923806
000150 f7 12 40 bf 8f d5 be 3f cf 2d 5f bf b4 2a 1a bf
       -0.7502894 1.4908923 -0.87179273 -0.6022141

L5.weight f4 [44, 88]
000000 a3 a4 72 bd d6 a2 5f be 78 5e f8 be 54 c5 0c 3f
       -0.05923904 -0.2183946 -0.48509574 0.549886
000010 64 85 0b bf 0d 18 ba be c2 18 ef be b4 f2 57 bf
       -0.5450041 -0.36346474 -0.46698576 -0.8435471
000020 90 1a 07 bf f3 31 1f bd 74 d7 07 bf f4 4d 1a bf
       -0.52774906 -0.038865995 -0.5306313 -0.602752
000030 0d bf 49 bf 67 a3 14 3f 8a 37 34 3e f4 dd 7d 3f
       -0.78807145 0.5806183 0.17599311 0.991668
000040 0d f7 37 3f 50 4a 4b 3f 2a fe 71 3f 50 06 74 3f
       0.71861345 0.79410267 0.9452845 0.9532213
000050 29 ce ec 3e fb 55 a4 3e aa 60 f5 3e 45 71 5e be
       0.46251038 0.32096848 0.4792531 -0.21722896
000060 5a e1 b6 3e d5 bb 42 3f 8f 77 92 3d 3c a8 90 3f
       0.35718805 0.7606786 0.0715171 1.1301341
000070 3b c0 3e bf b3 3d 8c 3e 0f 89 bd bf f7 c6 1e bd
       -0.7451207 0.27390823 -1.4807452 -0.038763966
000080 d5 1e 34 bf bb 47 cb 3d 58 63 17 bd 3d 26 4d bf
       -0.70359546 0.09925791 -0.036959976 -0.8013647
000090 ac d9 36 bb d2 b7 bb 3f be 53 74 3f dc e5 5d be
       -0.0027900739 1.4665473 0.9544028 -0.21669716
0000a0 64 f0 9b 3f 76 3f 2b bf 59 45 ad 3d f2 f9 1d 3e
       1.2182736 -0.6689371 0.08460493 0.15427378
0000b0 e7 47 16 bf 70 f3 dc be ba 62 ab 3d fa ad 62 3f
       -0.58703464 -0.43154478 0.0836844 0.8854672
0000c0 eb b7 14 bf c3 dd b9 be c6 49 dc 3e fd 72 cb be
       -0.58093137 -0.36302003 0.43025035 -0.39736167
0000d0 33 43 49 3d 54 e0 1e 3f 9e be a0 3d dd 80 ce 3e
       0.04913635 0.6206105 0.07848857 0.4033269
0000e0 3e 6d 53 3f e3 0d 4b 3e 28 75 3b bf 5c 21 06 bf
       0.82588565 0.19829516 -0.7322564 -0.5239465
0000f0 02 47 69 3f 26 a5 43 bf 3e a0 7d be f3 27 77 3e
       0.91123974 -0.7642387 -0.24768159 0.24136333
000100 55 f4 89 bd 22 b7 e4 3f 79 7d 85 bd 79 4d 77 3e
       -0.06736056 1.7868388 -0.06518073 0.24150647
000110 1b d3 d9 bd 91 76 5f 3d 0d 29 69 3e 02 54 bf bd
       -0.10635968 0.054556433 0.22769566 -0.09342195
000120 a9 47 86 3d 62 31 b9 3c 94 34 bf 3b 56 ec aa bd
       0.06556637 0.022606555 0.005835125 -0.08345859
000130 3f e6 8e 3e 22 01 1c 3f 06 0d 9b be 48 ae 54 3e
       0.2791004 0.6093923 -0.30283374 0.20769608
000140 85 e1 d8 3f 33 ed 7f be 6f c9 96 3f 22 36 9c 3f
       1.6943823 -0.24992828 1.1780223 1.220402
000150 f2 b2 10 3f ce 9f 16 be a6 69 85 3e a9 7c 0b bd
       0.5652305 -0.14709398 0.26057166 -0.034054432
000160 a9 de 58 be 05 26 f0 3e e4 74 8a bf 1f 45 4b bf
       -0.21178688 0.46904007 -1.0816922 -0.79402345
000170 05 5f bb bd 77 ca 09 be 14 74 8a be 68 27 a4 be
       -0.09148983 -0.1345614 -0.27041686 -0.32061315
000180 d1 a9 7b be 07 08 32 3e f2 c2 44 3e 5b 74 a4 be
       -0.24576499 0.17385875 0.1921499 -0.32120022
000190 f4 99 c0 bc 70 5f 99 be dd 7a a8 3e 0c fa e5 3d
       -0.02351091 -0.29955626 0.32906237 0.11229333
0001a0 6c d0 fe 3e 06 f0 ab 3f f8 71 c8 3e 14 0c 1d 3f
       0.49768388 1.3432624 0.3914945 0.61346555
0001b0 f3 cc e9 3f 21 16 bf bd f5 5e 9f bd 50 e9 c0 be
       1.826567 -0.09330393 -0.077817835 -0.37678003
0001c0 58 42 37 3f 39 86 88 bb 04 8c f5 be 13 59 70 3f
       0.7158561 -0.004166391 -0.47958386 0.93885916
0001d0 79 f6 8d 3d 87 00 59 3c af c5 73 bd 1c b2 2b 3f
       0.069317766 0.013244755 -0.059514698 0.6706865
0001e0 1f 65 03 bd 7f 66 6b bf f4 bf ca 3e f7 10 bb bd
       -0.03207886 -0.9195327 0.39599574 -0.09134095
0001f0 ca 50 63 bf 98 89 62 bf 52 fd 22 3f 69 9b 80 3e
       -0.8879515 -0.884912 0.63667786 0.2511857
000200 49 7c bf 3e ff cf 7f bf 32 e0 9a 3e 0f 1d 24 3e
       0.3739951 -0.9992675 0.30249172 0.1602671
000210 96 bd 06 be e9 9c 83 3d cd 45 d6 3a 78 a0 2a 3f
       -0.13158259 0.064264126 0.0016347707 0.66651106
000220 74 bb 69 be 63 7e ce be 5e b1 d8 3d 89 81 ee be
       -0.22825414 -0.403308 0.10580705 -0.46583202
000230 60 0c d9 bd 14 6b a5 3f 27 36 2f bf 0a 66 73 3e
       -0.105980635 1.2923303 -0.68442005 0.23769394
000240 a8 ac d3 3e 48 46 0d bf 53 a9 12 bf 88 6f e5 be
       0.41342664 -0.55185366 -0.5728962 -0.44811654
000250 9f 28 f8 3e 50 8d 28 bf 18 aa e1 be 11 cd 27 3f
       0.4846849 -0.65840626 -0.44075084 0.6554728
000260 5d 48 f0 3d d6 cc 13 3f cc 1a 4b 3f 88 11 02 3d
       0.11732552 0.5773443 0.79337764 0.031755
000270 90 a2 2b 3f d7 33 b9 be c4 75 ba 3d a5 c6 5b 3f
       0.67044926 -0.36172363 0.09104493 0.8584998
000280 9b 65 9f 3f 9a f1 10 3f 25 74 9e be a7 1c b5 3d
       1.2452883 0.56618655 -0.30947986 0.088433556
000290 f9 48 4f 3f c2 79 13 bf 48 9a ba 3e 9c 63 30 3e
       0.8097072 -0.5760766 0.36445832 0.17225498
0002a0 ef 8f 7a 3f 2d 1b cb bd ed c1 19 3f 95 53 8b 3f
       0.97875875 -0.09917293 0.6006153 1.0884882
0002b0 ea 8f 80 3e 99 3b 1b be 1e 1a dc be 8a 5f 0c bf
       0.25109798 -0.15159453 -0.42988676 -0.5483328
0002c0 84 95 e4 3c 14 ae df 3e c6 73 c4 3d 13 58 c8 be
       0.027903326 0.436875 0.095923945 -0.39129695
0002d0 da 1f 7c 3e 3b 1f 23 be 3e 75 32 bf 47 07 16 bf
       0.24621525 -0.15929882 -0.6971015 -0.58604854
0002e0 ba d8 ba be e4 ea 01 3e 98 5b 43 3d f6 75 98 be
       -0.36493474 0.1268726 0.047694772 -0.29777497
0002f0 de 79 17 3e 1d 9c 3e 3f e6 1d e9 bd f4 7d 28 3e
       0.14792582 0.7445696 -0.11382656 0.16454297
000300 3f e1 07 3f 95 d5 7a 3e 33 82 ae be ae 9a a2 bd
       0.53078073 0.24495538 -0.3408371 -0.07939659
000310 06 a3 90 3e e7 a7 ba 3e 6e f9 2b 3f ce 6a 0c be
       0.28249377 0.36456224 0.67177474 -0.13712618
000320 7c f1 1e 3e ea eb b6 3e de 4a 0d bf 48 6f 4a 3f
       0.15521806 0.35726863 -0.55192363 0.7907605
000330 b5 a2 0b be 9a 5a cc 3e 48 c1 a7 bd da f4 01 3f
       -0.13636287 0.39912874 -0.08191162 0.5076424
000340 4c 47 29 3f 8d 4c c1 3e 87 40 b6 3e 17 de 02 3e
       0.66124415 0.37753716 0.35596105 0.12780033
000350 d6 b2 d3 be d9 f4 60 3f 6b c2 84 3f c2 48 8d 3f
       -0.41347378 0.8787361 1.0371832 1.1037829
000360 51 1e f0 be e2 25 7a 3e 28 0b 47 3f 83 b7 72 3f
       -0.4689813 0.24428514 0.777514 0.94811267
000370 7a 12 01 bf 53 4f 17 be 8e 9a 50 bf 69 56 88 3e
       -0.5041882 -0.14776354 -0.8148583 0.26628426
000380 5d 88 65 be ae 5d 13 bf f9 aa 02 40 f5 d2 a0 be
       -0.224153 -0.5756482 2.0416853 -0.31410947
000390 bf 66 61 be 4e c1 56 3f 90 ee 38 be 82 c6 4b 3e
       -0.22011851 0.8388871 -0.18059754 0.19899943
0003a0 8a 9e a2 3f 3e 50 fc 3e 9e e5 e7 be 7b 99 4d be
       1.2704632 0.4927997 -0.45292372 -0.2007808
0003b0 31 65 6b be 83 64 da be 53 b6 1b bf 37 2d 93 3f
       -0.2298782 -0.4265481 -0.6082508 1.1498173
0003c0 df ae 0c be 29 2f cd 3f fb 54 27 be 08 38 cf be
       -0.13738583 1.6030017 -0.16341011 -0.40472436
0003d0 39 33 65 3e 95 8a b7 3e f5 8b 88 bd 11 51 57 3e
       0.22382821 0.35847917 -0.0666732 0.21027018
0003e0 c6 dd 74 3e 37 9b 6c 3e a8 e6 92 3e 83 32 90 bd
       0.23912725 0.23106085 0.28691602 -0.07040884
0003f0 4e 4f 59 3f 86 9c cf be be 63 26 3f ac f5 47 3f
       0.84886634 -0.40549105 0.64995944 0.7810924

L5.bias f4 [44]
000000 6b f3 b7 bf 66 76 84 bf 24 be dd bf 6e c2 a8 bf
       -1.437116 -1.0348632 -1.7323651 -1.3184335
000010 70 59 6e be fb 53 68 bf ca 1e 05 c0 24 70 bf bf
       -0.23276305 -0.90753144 -2.0800042 -1.4956098
000020 6a a0 8f bf da b7 a7 bf 21 1f 73 bf 11 30 6d bf
       -1.122083 -1.3102982 -0.94969374 -0.9265147
000030 45 9d 6b bf f8 81 a9 bf 0b 7f 82 bf 99 51 d6 bf
       -0.9203685 -1.3242788 -1.019502 -1.6743652
000040 29 d0 d6 bf 98 d6 aa bf 9f cf 81 bf 54 4a ea bf
       -1.6782275 -1.3346739 -1.0141486 -1.8303933
000050 5a ab a6 bf e5 fa 26 bf 75 fa 83 bf 64 c0 28 bf
       -1.3021042 -0.65226585 -1.0310808 -0.65918565
000060 0a 07 a5 bf a8 c8 8c bf 17 8c 86 bf 5e be 05 c0
       -1.2892773 -1.0998735 -1.0511502 -2.089744
000070 94 78 7d bf 04 9e 9a bf ab 09 98 bf d7 93 c5 bf
       -0.9901211 -1.2079473 -1.187795 -1.5435742
000080 1f 7d 7f bf 98 de e5 bf 07 ad 02 c0 5b 88 65 bf
       -0.99800295 -1.7958555 -2.0418108 -0.89661187
000090 6d 64 87 bf f4 65 cd bf 55 55 a1 bf 08 f9 a8 bf
       -1.0577523 -1.6046739 -1.2604166 -1.3200998
0000a0 e9 3c b9 bf c5 95 ea be 09 aa f7 be 81 13 89 bf
       -1.4471713 -0.4581739 -0.48371914 -1.0709077

L6.weight f4 [1, 44]
000000 2f c3 17 3d 4f c3 4f 3d d3 48 3a 3e 87 57 16 bd
       0.037051376 0.05072337 0.18191843 -0.036704566
000010 ee f4 1f 3c 30 dd 6e 3e 49 47 af 3d 93 0b 5d bc
       0.009762986 0.23326564 0.085585184 -0.013491529
000020 a0 b6 ac bd a0 77 83 3c 3b 46 6f 3d ba 4e d7 bd
       -0.084332705 0.016048253 0.058416586 -0.10513063
000030 9a e3 d2 3c b7 4e 3c bd 86 2c e8 bd da f2 c4 3d
       0.025743295 -0.045973506 -0.11336617 0.09616633
000040 72 59 92 3c cd 51 14 3d 68 4e 0a bd d7 a4 49 bd
       0.017864916 0.036210824 -0.03376618 -0.04922947
000050 9f 6d cd bd 67 2c 1b 3d 15 2c 87 3c 12 17 50 be
       -0.10030674 0.037884142 0.016500512 -0.203213
000060 64 73 13 be 8c b7 9d be f5 6a ba 3d f0 18 77 be
       -0.14399487 -0.30804098 0.09102432 -0.24130607
000070 41 0a 91 3d f0 e8 4d 3a 45 48 3a 3e 26 3a 87 3c
       0.07082034 0.000785484 0.18191631 0.01650722
000080 e2 b3 51 3d fb 5e 33 3c 23 6e a0 3d 96 f1 ee bb
       0.05119694 0.010947938 0.07833507 -0.007291983
000090 13 7e 77 bd 43 03 f8 3d 91 36 80 3e d7 2f 6b 3e
       -0.060422968 0.12109997 0.2504163 0.22967468
0000a0 e7 0e c8 3d 83 97 4e 3d e3 49 fd bc 97 0b ef bd
       0.097684674 0.05043746 -0.030919021 -0.116721325
