Saved_Models_All_Features/target_Hardness_features_22_epochs_55.pth (torch_old, 162565 bytes, 11 tensors)

L1.weight f4 [44, 22]
000000 d4 c5 25 bf 0d fb b2 bd 53 e6 d0 3f f8 ad 80 be
       -0.64754987 -0.087392904 1.6320289 -0.25132728
000010 27 b3 96 3e bf c3 d3 bd 1f 9d c1 be 13 b9 61 3f
       0.29433557 -0.1034007 -0.37815186 0.88173026
000020 fe 22 bc 3e e7 d6 34 be 59 d7 ad 3e 85 21 33 3f
       0.36745447 -0.17660104 0.3395336 0.6997302
000030 b0 ef 1b 3f 54 fc 6d bc 4f 2b 19 bf e2 a1 d4 bd
       0.6091261 -0.014525492 -0.5983171 -0.10382439
000040 b1 d5 80 be 4b 4a 33 bf 8d dd 81 3e 96 f7 59 bd
       -0.25163034 -0.7003524 0.25364342 -0.053214632
000050 dd 03 72 bd 23 99 8a be e5 4b 90 3e 6c 37 4c 3e
       -0.059085716 -0.2706996 0.28182903 0.19943017
000060 9c 48 91 3e af 7f 46 3e 3e 54 d2 bd d8 23 7d 3e
       0.2837571 0.19384645 -0.10269974 0.24720705
000070 18 7e ed 3d 05 bc b3 3e fd 6a 8a 3e 3b d1 8c 3b
       0.11596316 0.35104385 0.2703475 0.004297403
000080 97 80 72 3d a9 fb 30 3e 09 eb 7d be 04 06 1a be
       0.059204664 0.172835 -0.2479669 -0.15041357
000090 f4 05 e2 3d 6f 9e 14 3e 7f d9 b9 3e 70 b4 2c be
       0.11036292 0.14513563 0.3629875 -0.16865706
0000a0 ce c9 47 be bd 44 b1 3d 13 e1 8e bb 03 c3 db 3e
       -0.19510576 0.08655689 -0.004360327 0.4292222
0000b0 3c 21 c5 3e df 0a 38 3f 54 29 e1 be 10 30 1a 3e
       0.38501918 0.7189159 -0.43976843 0.15057397
0000c0 79 0c d8 3e 2c 71 84 be d4 1a 8e 3e 44 15 11 3f
       0.42197016 -0.25867593 0.27754843 0.56673074
0000d0 16 e9 1f 3e f9 59 8c be fa 3f 1c 3f 33 25 a4 3e
       0.15616259 -0.27412394 0.6103512 0.3205963
0000e0 76 5e d7 3e f7 6a 7a 3e 8d 18 16 3f 9e 0c 4d 3f
       0.42064255 0.24454866 0.5863121 0.8009738
0000f0 f7 82 2e 3f d6 45 2e bf 4d 0c 27 be f4 4c b5 be
       0.68168586 -0.6807531 -0.16313286 -0.35410273
000100 18 7e 0d be 9c db 72 be ca f6 6c bf 01 1d 13 be
       -0.13817632 -0.23716587 -0.9256407 -0.14366533
000110 a5 8b 6f 3f e8 03 b3 bd 6f 66 3f bf 96 28 3d bf
       0.93572456 -0.087409794 -0.74765676 -0.73890054
000120 e6 ed e5 3e f7 47 54 3f 46 4d 48 bf 1a 20 aa be
       0.44908065 0.8292231 -0.7824291 -0.33227617
000130 d2 87 ee 3e 9e 75 e1 3e 60 24 52 3e 74 58 07 be
       0.46587998 0.44035047 0.20521688 -0.13217336
000140 7a 83 89 be 5e 17 d1 be 24 e5 1c bf 78 ab 2d 3f
       -0.2685812 -0.4083814 -0.6128714 0.67839766
000150 2f 88 a8 3e 29 06 01 be b6 51 11 3e e1 ed bc bd
       0.329164 -0.12600006 0.14191326 -0.09225059
000160 e3 35 a2 be 13 98 05 3f 6b 6a 15 3f ac 89 34 3d
       -0.31681737 0.5218517 0.58365506 0.044076607
000170 29 6c 75 bf a0 54 dc be 5b 2d b7 3e d5 7e 5d 3f
       -0.95868164 -0.43033314 0.3577679 0.86521655
000180 67 f4 da 3e b6 7a cb be 98 fd e2 bc 83 d3 e0 be
       0.4276459 -0.3974206 -0.027708814 -0.4391137
000190 8b 0d 6f bf fd 94 45 3d 30 5c bd 3e 54 f8 99 be
       -0.9338004 0.04823779 0.36984396 -0.30072272
0001a0 dc eb 4e bf 5b f0 4c be 2d ba fc 3e 68 2d cc 3d
       -0.8082864 -0.20013563 0.4936079 0.09969598
0001b0 0a ab 4b 3f 42 f7 b5 3e 6e 90 0d 3e 53 77 65 3f
       0.7955786 0.35540205 0.13824627 0.896352
0001c0 8c 5f 67 3e 6a 2a b8 3d 07 4c 0f 3e 50 60 38 3f
       0.22595042 0.08992465 0.13993846 0.7202196
0001d0 59 8c 05 bd 08 e9 84 3f 76 11 6d 3f a1 cf 29 3f
       -0.03260455 1.0383615 0.9260477 0.6633244
0001e0 11 48 ca be 84 57 0d be 00 3d 19 bf 9b f9 c4 3e
       -0.39508107 -0.13802916 -0.59858704 0.38471684
0001f0 2c ba ee 3e 60 16 26 3f bc d7 5b 3f 49 15 0a 3e
       0.46626413 0.6487789 0.8587606 0.13484682
000200 b6 bf dc 3d 9d c0 fc be 82 17 db 3e 88 52 96 3e
       0.107787535 -0.49365702 0.42791373 0.2935984
000210 ae a8 2f 3f 90 72 8a 3d c9 3a 28 3f 3d c1 92 bd
       0.6861676 0.06760132 0.657147 -0.071657635
000220 13 d1 d6 bd cc a8 0f bb 6f f9 49 be 61 26 9c 3d
       -0.104890965 -0.002192068 -0.19724058 0.07624508
000230 57 ee 1a 3f 1f 02 40 3f 43 d1 4a 3f 81 6c 3f 3f
       0.6051993 0.75003237 0.7922556 0.7477494
000240 09 41 2a 3f bb 24 48 3f 70 72 94 3d aa 43 10 3f
       0.66505486 0.78181046 0.0724839 0.5635325
000250 14 71 0c 3f 0f 82 96 be a8 ff 53 3b 05 45 88 be
       0.54860044 -0.29396102 0.0032348428 -0.26615158
000260 69 b7 3d bc cd c5 8f be 7f 86 88 3e 5b 9a 2e 3f
       -0.011579373 -0.28080598 0.26665112 0.6820428
000270 31 5f 5b 3f 94 eb 4d be d1 35 1c bd ed e9 35 3f
       0.85692126 -0.20109397 -0.03813726 0.7106007
000280 93 2d 92 be 55 ee f0 3e 8f 33 30 3f c9 3a 10 3f
       -0.28550395 0.47056833 0.6882867 0.563397
000290 df de 46 3e ca 46 0c 3f 62 34 9b 3d c6 6e fd 3e
       0.19420956 0.54795516 0.075783506 0.49498576
0002a0 82 b8 88 3e 88 dd f2 3e 8c de 4a 3f eb 06 09 be
       0.26703268 0.4743464 0.7924583 -0.13381545
0002b0 c3 a8 0d bb 85 4f 94 be bc e4 0c bd ed 2c 7a 3b
       -0.0021615482 -0.2896692 -0.034397826 0.003817375
0002c0 05 57 3d be 3d af 37 3e 11 73 b5 3e 6b 37 a3 bd
       -0.18490227 0.17937942 0.3543935 -0.079695545
0002d0 bb ed a0 3e 33 9e c8 3e 5f d8 72 3d 35 9a d8 3e
       0.31431374 0.39183196 0.05928838 0.4230515
0002e0 9e db b8 3e 8c 17 ab 3e 21 65 aa 3e 9f a5 c1 3c
       0.36105055 0.33416402 0.3328028 0.023638545
0002f0 c4 05 cd 3d b1 2f ab 3d d4 54 29 3d c6 a9 d7 3e
       0.10010865 0.08358706 0.041340664 0.42121714
000300 d5 8e 66 3e 7a 08 94 be fa 29 11 3f 58 26 96 3e
       0.22515424 -0.28912717 0.56704676 0.2932613
000310 9a ef a2 3d 6e 8c a8 3e b8 5a e8 bd 53 5b 69 3e
       0.079558566 0.3291964 -0.11345428 0.22788744
000320 81 23 b7 3d 4a 12 d5 bd 02 89 5e 3e fa 92 5e 3e
       0.08942319 -0.10403879 0.21731952 0.21735755
000330 b6 f4 31 3e 56 c4 3a 3e a4 08 7a be e4 45 b2 3d
       0.17378506 0.18238959 -0.24417359 0.08704737
000340 be 4f 11 3e 03 e4 09 3f e6 c4 c3 bd 22 24 db 3e
       0.14190575 0.53863543 -0.0955904 0.42801005
000350 8a 4a 24 3d e6 24 2d 3f de d3 a2 bd 94 cf b1 be
       0.04011015 0.6763443 -0.07950567 -0.34728682
000360 b5 fa b2 3e c6 07 49 bd 7f 95 89 bd 0e 00 b8 3d
       0.349569 -0.04907968 -0.06717967 0.089843854
000370 19 82 66 3f 11 f9 ee bd 03 25 68 3e c9 26 0e be
       0.90042263 -0.116685994 0.22670369 -0.13881983
000380 af bb 8d bd 95 39 e1 be d6 d0 04 be 23 5a d9 be
       -0.069205634 -0.43989244 -0.1297029 -0.4245158
000390 90 63 0b 3e ca 05 f1 3d e7 45 a0 3e 2c 2d 9f 3e
       0.13612199 0.11768682 0.3130333 0.3108915
0003a0 f6 5b 0a 3e 7a 0e 90 bf 22 aa 87 3f 9e 9a 03 3f
       0.13511643 -1.1254418 1.0598795 0.514078
0003b0 b4 61 3c 3d fd 17 92 bd db 36 c0 be 64 4d d3 3e
       0.045991614 -0.07133482 -0.3754185 0.41269982
0003c0 4d 82 06 3f 94 de c2 bd 92 ac 8e 3e 2e 52 5f 3e
       0.52542573 -0.0951511 0.27866036 0.21808693
0003d0 eb 0b 02 3d 20 a6 8d 3f bb 0d bb 3e 5b e8 80 3e
       0.031749647 1.1066322 0.36533913 0.25177273
0003e0 ae 8a 2d 3e 07 d2 fa 3e 7a 5e 43 3e c2 2d cf 3e
       0.16947433 0.48988363 0.19079009 0.40464598
0003f0 51 79 dd bc 8b 12 ed bd c1 ac 44 bc 2f 55 b8 3e
       -0.027035387 -0.115758024 -0.012004078 0.3600249

L1.bias f4 [44]
000000 08 fa bf bf 34 0d a1 bf 1d d8 b4 bf 40 ba 6a bf
       -1.4998178 -1.2582154 -1.4128453 -0.91690445
000010 4f 30 92 bf 8c c9 05 c0 69 11 da bf 73 bc 0a c0
       -1.1420993 -2.0904264 -1.7036563 -2.167752
000020 fd ae e2 bf 9a 1c cd bf b8 b1 94 bf b6 4e 0c c0
       -1.7709652 -1.6024354 -1.1616735 -2.1923041
000030 7d 44 78 bf a6 12 10 c0 e0 39 f1 bf ae b4 14 bf
       -0.96979505 -2.2511382 -1.8845787 -0.58088195
000040 99 aa d3 bf 7a 18 ff 3d c9 06 c0 bf 33 dc ec bf
       -1.6536437 0.124558404 -1.5002071 -1.85047
000050 48 e3 91 bf fc d0 13 c0 94 22 a1 bf 50 1b 8c bf
       -1.1397486 -2.3096304 -1.2588677 -1.0945835
000060 f1 3a be bf 1b 77 8b bf 98 3f a7 bf d7 ec cd bf
       -1.4861737 -1.0895723 -1.3066282 -1.6087903
000070 85 b1 fa bf 18 c9 d9 bf 37 16 03 c0 de 11 d9 bf
       -1.9585425 -1.7014494 -2.048231 -1.6958578
000080 0a 9a d6 be b2 b7 a9 bf b8 8d 9c bf 54 c5 0c c0
       -0.41914397 -1.3259184 -1.2230749 -2.199544
000090 f5 aa a5 bf e1 8b af bf c9 99 6d bf 10 55 82 bf
       -1.2942797 -1.3714563 -0.9281278 -1.0182209
0000a0 bb d9 00 c0 ae 9b 1e c0 8d 20 1e c0 7c 2c 03 bf
       -2.0132892 -2.478252 -2.4707367 -0.5123975

L2.weight f4 [88, 44]
000000 2f ea 16 3e 7e a6 88 3f 69 9c 67 3e 4e c2 d2 bd
       0.14737771 1.0675809 0.2261826 -0.10290967
000010 26 15 28 3f 21 0c ba be f7 03 c0 be 45 4c 86 3e
       0.6565727 -0.3633738 -0.37503025 0.26230064
000020 40 32 ab bc a7 12 b5 3c ed 6b 89 3e 19 82 49 3e
       -0.020897985 0.02210362 0.26840153 0.19678535
000030 7f 87 62 bf cc 0d 11 bf 11 7c b4 bd 38 2f 10 be
       -0.88488 -0.5666168 -0.08812726 -0.14080513
000040 b7 4e b8 be c9 ce 9e be 4f 4e 3f 3f 6c 43 bf 3e
       -0.35997555 -0.3101714 0.74728864 0.37356126
000050 34 68 ce 3d 63 80 9c be 11 bd 0b 3e e9 c4 d2 be
       0.10078469 -0.305667 0.13646342 -0.41165856
000060 a7 17 ac 3e 3e 0d 90 bd 00 56 43 3e 98 a9 1f 3d
       0.33611795 -0.07033776 0.19075775 0.038980097
000070 3f 9d 3e be de d4 43 3f a7 6e bc be 65 48 2b bd
       -0.18614672 0.76496685 -0.3680317 -0.041817088
000080 e9 45 61 be 2d cd af 3e be bc 5b 3f 7f ed 0b bf
       -0.21999325 0.34336224 0.8583487 -0.54659265
000090 c7 88 90 3b 9b 77 5c 3f a7 94 a6 3d 84 0c c0 be
       0.0044108364 0.86120003 0.08133822 -0.3750955
0000a0 b1 0d 6d be 49 b2 ba bd f7 85 5d 3e 24 7d 87 be
       -0.23149754 -0.091160364 0.21633135 -0.26462662
0000b0 4d c5 cb be e8 21 cf be 9e b6 93 be ba e3 05 3e
       -0.39798966 -0.40455556 -0.28850263 0.13075152
0000c0 e1 9a 7b 3e 74 a1 24 3f be 3d 25 be 3a ab 3a 3f
       0.245708 0.6430886 -0.16136834 0.7291752
0000d0 68 b9 3a 3e 00 d3 87 be 83 75 96 bb 18 57 74 3d
       0.1823479 -0.26528168 -0.004591645 0.05965337
0000e0 0b 49 f9 3f 1f 5d ae 3e 52 a5 e4 3e 7c 49 31 be
       1.9475416 0.3405542 0.4465738 -0.17313188
0000f0 1f 64 c5 be 01 f3 00 3f 1b 02 14 3f 39 11 a5 3e
       -0.3855295 0.50370795 0.5781571 0.32239702
000100 e9 3d 2c bf 88 9f 58 bf a4 e2 48 bf e6 ef 77 3c
       -0.6728197 -0.84618425 -0.78470826 0.01513288
000110 3c 35 4f 3f e2 11 5e bf 22 4c 0c bf 2d fe 60 bd
       0.80940604 -0.86746037 -0.5480367 -0.0549299
000120 d0 6d 0c bf 4a a1 24 3f 86 c8 83 bd 1f 65 11 bf
       -0.5485506 0.6430861 -0.06434731 -0.56794924
000130 4f 87 a5 be 10 b4 15 bf cd 3f 4c 3e 11 3a ce bd
       -0.32329795 -0.5847788 0.19946213 -0.10069669
000140 17 d2 ef 3e 5d 91 02 bf b4 c9 b6 3e f7 b6 03 bf
       0.46839973 -0.51003057 0.35700762 -0.5145106
000150 0a b3 9d be 96 8f 03 bf 38 ca aa 3e ea 49 d2 be
       -0.30800658 -0.5139097 0.33357406 -0.41072017
000160 e1 90 b3 bf d6 61 4b 3e 42 6a 18 bf e6 7e 06 bf
       -1.4028589 0.1986154 -0.59537137 -0.5253738
000170 66 6c 8a bf db 71 39 bf d3 74 6a bf 6e 55 9d 3c
       -1.081433 -0.72439355 -0.9158451 0.019205775
000180 da 62 25 3d 22 ce 53 bd d3 9e 08 bf 9a df 39 3e
       0.040377475 -0.051710255 -0.53367347 0.18151703
000190 c1 f8 e1 be ab 8d 70 be 69 6b 6c 3d f9 a1 03 3f
       -0.44135097 -0.23491542 0.05771962 0.51419026
0001a0 79 b4 01 3d 02 23 3c bf e8 f6 ee be 5b ba 92 bd
       0.031666253 -0.7349092 -0.4667275 -0.07164451
0001b0 3a f7 54 3e 82 e6 11 3d cc 2b 3e bf 9c 7d 9d bf
       0.20797434 0.03562022 -0.7428558 -1.2303958
0001c0 f9 76 69 be e8 a8 a5 be 9d 94 c8 be 1b d4 5e 3e
       -0.2279929 -0.32355428 -0.39175883 0.217606
0001d0 65 22 dc bd ef 4e 86 be 2a 53 79 3e 02 f4 db bd
       -0.10748748 -0.26232097 0.24348131 -0.107399
0001e0 b3 24 87 bd 5f 03 d6 bf 79 2f d2 3e 3b 90 b7 be
       -0.06598797 -1.6719779 0.41051844 -0.35852227
0001f0 da 5b a2 3e 1d bb a9 3d af 37 9f be 9f df 8d bd
       0.31710702 0.08287642 -0.3109717 -0.06927418
000200 98 fc eb be 46 65 19 3f 35 ea c8 be 66 5f cc be
       -0.4609115 0.59920156 -0.39241186 -0.39916533
000210 01 c6 8a be ee 2f 13 3f 09 b5 16 bf c4 c2 27 bc
       -0.2710419 0.5749501 -0.5886999 -0.010239307
000220 92 76 7b 3d 45 fc 11 bf 43 4e 15 bf 85 81 51 bd
       0.061392374 -0.5702556 -0.5832254 -0.05114891
000230 d7 d2 f8 bd 82 b8 0b be f6 99 01 bf c0 ff 65 3f
       -0.121495895 -0.13644603 -0.5062555 0.8984337
000240 e1 15 6f bd 42 df a5 bc 49 9a 19 be 11 14 1f bf
       -0.058370475 -0.02024806 -0.15000261 -0.62139994
000250 99 e9 36 bd 40 c6 8e be 40 c3 4b 3f c5 64 e8 be
       -0.04465637 -0.27885628 0.795948 -0.4538938
000260 57 09 2a bf fa 8a 58 be 34 b6 89 be 75 9d b8 bd
       -0.664205 -0.21146765 -0.26896822 -0.090144075
000270 52 17 03 3f 3c e3 17 3f 84 29 18 bd 2d aa 0a bf
       0.5120746 0.5933111 -0.037148967 -0.5416592
000280 d9 fb 90 bc 76 2c 05 3e f2 0c 2c bf 07 16 02 3e
       -0.017698215 0.13005242 -0.6720725 0.12703715
000290 1d 2e db bc 29 94 2b bf 82 09 07 bf 69 4e de be
       -0.026755387 -0.6702295 -0.5274888 -0.43419197
0002a0 44 1c 27 be 0f b6 d2 be 66 c1 b7 3e 8f f9 d1 3d
       -0.16319376 -0.41154525 0.3588974 0.10252678
0002b0 86 c7 74 3e ba bc 96 3e 8a 41 fe bd ef 11 a1 be
       0.23904237 0.29440862 -0.12414844 -0.31458995
0002c0 0b 93 c3 3e 2a 75 b2 be ba f7 41 bd 61 36 3d 3f
       0.38198122 -0.34855014 -0.04735539 0.739111
0002d0 aa 15 db be cf 45 f0 bd c0 8e c4 be de 01 37 bf
       -0.42789966 -0.11732065 -0.3839016 -0.71487224
0002e0 a1 c6 0d 3f 75 6f cf 3d 73 b1 db be 2a bd 91 be
       0.5538121 0.101286806 -0.4290882 -0.28464633
0002f0 4b ca 29 bf 3c 5a 62 be 48 45 25 be 30 a9 32 bd
       -0.663243 -0.22104734 -0.1613971 -0.04361838
000300 42 16 1f 3f 3c 7d 04 bf 8b a4 5d be 61 2d 88 be
       0.6214334 -0.5175359 -0.216448 -0.2659712
000310 5d 92 a2 bf 61 58 c1 be 74 13 19 3f 16 c0 44 3e
       -1.2700917 -0.3776274 0.5979531 0.192139
000320 74 30 95 3f d8 55 34 bc 1b 96 a9 be 40 ff 18 bf
       1.1655412 -0.011006795 -0.33122334 -0.5976448
000330 0c 9f ae 3e 18 06 c1 bf 9b a7 66 3d 1a de cb 3e
       0.34105718 -1.5079985 0.056312185 0.39817888
000340 10 cf 3e 3f 1f 6d 1b bf 89 54 de 3e a1 ef 77 be
       0.745347 -0.6071338 0.4342387 -0.24212505
000350 26 79 1e bf de f3 d1 3e 82 63 bc be 1c ba 94 bd
       -0.6190361 0.41006368 -0.36794668 -0.0726206
000360 63 86 1c be b0 64 b9 be e0 52 46 bf 98 ec 81 be
       -0.1528564 -0.3620963 -0.7747021 -0.2537582
000370 3f d9 30 bf 89 20 ba be f2 ae d0 be 51 e7 28 bf
       -0.6908149 -0.36352947 -0.40758473 -0.6597796
000380 34 e9 bc be 22 d8 21 be cc 3d 39 be 83 d8 f8 be
       -0.3689667 -0.15805104 -0.1808998 -0.48602685
000390 a6 2b 84 be 79 9f d7 be 38 93 13 be 56 74 59 3e
       -0.2581455 -0.42113855 -0.14411628 0.21235785
0003a0 b9 cf de be b1 fc be be cf b5 79 3e 99 f1 61 bf
       -0.43517855 -0.37302163 0.2438576 -0.88259274
0003b0 8c 8c 23 bf 05 be 1f be 0e 28 0c 3f 95 e0 59 3f
       -0.6388633 -0.1559983 0.5474862 0.8510831
0003c0 62 97 25 bf be 74 fa be 4d c0 a5 bf ce 60 ff 3c
       -0.64684117 -0.48917192 -1.294931 0.03117409
0003d0 6a 03 66 bf e3 3c d8 3e 8b 1c ed be d1 1c 5e be
       -0.8984896 0.42233953 -0.4631084 -0.2169068
0003e0 bf 4e 5f be e9 53 ca be 3d f2 0f bf cc 37 a1 be
       -0.21807383 -0.39517143 -0.56229 -0.31487882
0003f0 7e 1c 88 bf 76 25 7b be 7b 8a 30 bf c7 b1 ae 3c
       -1.0633695 -0.24526009 -0.68961304 0.021325005

L2.bias f4 [88]
000000 e7 50 a2 be fc 8f 64 be d1 31 30 bf d1 0b 1f bf
       -0.3170235 -0.2232055 -0.68826014 -0.62127405
000010 a1 08 17 3f 2d 3d 65 bf 8d 0d c3 bf 1c 3b 5a bf
       0.5899754 -0.8954647 -1.523851 -0.85246444
000020 7d 3c 4f bf d9 c8 28 bf 1c 28 76 bf 0f 7f 14 3e
       -0.8095167 -0.6593147 -0.9615495 0.14501594
000030 bd ac 84 bf e1 74 fb bf da 2a 0e bd 1f 4d 8c 3e
       -1.0365216 -1.9645044 -0.034708835 0.2740259
000040 e1 c7 ca bf 2a b7 8a be 94 ba 9e be c7 61 99 bf
       -1.5842248 -0.27092868 -0.31001723 -1.1982964
000050 0b 82 be bf 17 22 79 bf 5c 08 89 bf 70 54 b3 bf
       -1.4883436 -0.9731764 -1.0705676 -1.4010143
000060 60 d1 e4 bf 08 59 13 bf d1 ef 9b bf bf 6f 90 bf
       -1.7876396 -0.57557726 -1.2182561 -1.1284102
000070 68 94 c2 bd 68 36 94 bf a8 51 f2 bf 2b f9 19 bf
       -0.095009625 -1.1579103 -1.893117 -0.60145825
000080 be 69 3a bf 73 45 84 bf fa e7 6d bf df c9 84 3e
       -0.728176 -1.0333694 -0.92932093 0.25935265
000090 4a 3b 9a be 30 5a a1 3e 30 95 9c be 64 08 e6 be
       -0.3012336 0.3151412 -0.3058257 -0.44928277
0000a0 17 f7 cb be 1e eb a6 bf 68 6c ae bf ca a1 0e bf
       -0.39836952 -1.3040502 -1.3626833 -0.5571562
0000b0 14 ec 66 bf 83 44 77 bf ea 36 25 be 49 e6 d6 be
       -0.90203977 -0.96588916 -0.1613423 -0.4197257
0000c0 c0 bc 8c bf 99 3f 21 bf 98 65 c5 3f b2 dc 00 c0
       -1.0995102 -0.6298767 1.5421629 -2.0134702
0000d0 63 e1 96 bf 16 ce 86 bf 24 63 36 bf dd 98 17 3e
       -1.1787533 -1.0531642 -0.71245027 0.14804406
0000e0 34 02 05 c0 8e 59 e8 bf d0 52 0e bf ba ea 9e bf
       -2.0782595 -1.815233 -0.5559511 -1.2415383
0000f0 28 6d 5d 3f 23 fa eb be 3b da e8 3e 0c e1 68 bf
       0.86494684 -0.46089277 0.45478997 -0.90968394
000100 7e 57 13 bf 11 fb 9b 3e 88 7e 50 bf c7 7a 8e bf
       -0.5755538 0.30464986 -0.8144307 -1.1131219
000110 65 cf 4e be 79 1f 29 bf ce 92 48 bf 0f 23 41 3f
       -0.20196302 -0.6606365 -0.78349006 0.7544412
000120 34 03 69 3d d2 26 d5 bf 5b 4f 4e bf c7 f4 96 be
       0.05688782 -1.6652472 -0.80589837 -0.29483625
000130 48 4e 3a bf 63 1c 48 3f f3 cf 61 bf 25 ee d9 bf
       -0.727757 0.78168315 -0.8820793 -1.7025801
000140 5a 3d 30 3c 0f c0 84 3f 39 df ab be 04 57 9c bf
       0.010756815 1.0371112 -0.33568743 -1.2214055
000150 04 ce d3 bf 39 9d fa bf 89 89 fe 3e 03 be 87 bf
       -1.6547246 -1.957923 0.49714306 -1.0604862

L3.weight f4 [176, 88]
000000 13 77 3c bd 51 76 52 be bf 08 0e 3f c5 6b e7 bd
       -0.046011996 -0.20552947 0.55482095 -0.11299852
000010 9f 8d 08 bf c0 12 90 3f 6a 08 93 3f 9c 4f 80 3f
       -0.53341097 1.1255722 1.1486943 1.0024295
000020 c7 19 81 3f 98 47 fc 3d 20 4a e4 3e 7a ba 8a be
       1.0085992 0.12318343 0.44587803 -0.27095395
000030 ce 09 a2 3e db 0d 25 3f fa 9f e9 be 64 27 1f bf
       0.31648105 0.64474267 -0.45629865 -0.6216948
000040 74 a9 34 3f 76 e3 3b 3c c5 e8 67 3f 52 b9 bf be
       0.70571065 0.011467805 0.90589553 -0.37446076
000050 68 d4 85 3f f5 30 69 3f 9d bc 48 be 3f 9e a1 3e
       1.0455446 0.9109033 -0.196032 0.31566045
000060 59 a3 89 3e ae b0 70 3f 3c 5b d8 3e e8 f8 11 3f
       0.26882437 0.9401959 0.42257106 0.57020426
000070 30 f3 3a bf 67 0c d0 3e 3c d2 08 3f e6 44 48 3f
       -0.73027325 0.40634462 0.5344579 0.7823013
000080 3f c4 e2 3e ae 0a ff 3e 29 d9 96 3e 9b de c0 be
       0.4429035 0.49812835 0.29462555 -0.37669834
000090 13 f7 d5 3c 93 7f 39 bf 40 6d 4e 3f ec a7 af bf
       0.02611879 -0.7246029 0.8063545 -1.3723121
0000a0 e0 ec e8 be 78 ed a4 3e ae fc 04 3f db 78 48 3d
       -0.4549322 0.32212424 0.5194806 0.04894338
0000b0 de cf 47 be 48 b4 48 3d 2a 1f c2 3e af 79 98 3e
       -0.19512889 0.049000055 0.379144 0.29780337
0000c0 76 92 14 bf 9d 8c c7 3e 9d d6 5c bf 8e 26 3f 3e
       -0.5803598 0.38974467 -0.86264974 0.18667051
0000d0 92 db 07 bf bc 87 15 be 49 67 0c bf c7 be 8b be
       -0.5306941 -0.1460256 -0.548451 -0.2729399
0000e0 77 86 8e 3f 81 bd ba be 78 e0 da 3e 84 af da 3e
       1.1134785 -0.36472705 0.4274938 0.42712033
0000f0 24 77 c8 be d4 ae 1a 3e 3c a5 72 bf 5f 3c b9 3b
       -0.39153397 0.15105754 -0.9478338 0.0056529487
000100 19 36 d1 3f a9 1f 3d bd d0 9b 9e bd 25 d0 0e 3e
       1.6344634 -0.04617277 -0.077445626 0.13946588
000110 64 dd 08 3f ed 96 e7 3c b3 83 a7 3e 46 25 f9 be
       0.53462815 0.02827021 0.32717666 -0.4866125
000120 5f f2 ff bd 75 b7 be 3f 24 51 14 bf 1d 75 ae bf
       -0.124974005 1.4899737 -0.5793631 -1.362949
000130 ec 00 12 bf 4c a6 8f bf bb 6c 9c 3e a6 84 97 3f
       -0.57032657 -1.1222625 0.30551705 1.1837356
000140 e5 ad dd be b6 40 2c bf a6 39 93 bd ff be 96 3f
       -0.43296733 -0.6728624 -0.0718873 1.1777037
000150 cf ae 14 3f 91 02 ac 3f 91 bc 1a bf 2e a1 97 3d
       0.58079237 1.3438283 -0.6044398 0.074037895
000160 b9 cc 85 be 5d 6f b6 3c 7f c5 11 3e c6 2f 2c be
       -0.26132753 0.022269899 0.14235495 -0.16815099
000170 d0 ba 5b be be 3a 14 3f be c6 59 3f ca b2 08 3e
       -0.21457982 0.57902133 0.8506888 0.13349453
000180 fa a1 23 3f 24 51 7e be 33 64 f3 3e fc 7e 01 bf
       0.6391903 -0.2483564 0.47537383 -0.5058439
000190 52 91 43 bf 26 69 58 3f 5e a8 1b bd 12 6b 02 be
       -0.76393616 0.84535444 -0.038002364 -0.12736157
0001a0 28 74 1d 3f 29 4d 23 3d a7 9e e7 3d 9b 3b 22 bf
       0.61505365 0.039868508 0.113095574 -0.633722
0001b0 9a 97 c2 3d 50 d8 50 3f 02 df 55 3e 89 4a 0b 3f
       0.09501572 0.81580067 0.20885852 0.54410607
0001c0 ab b4 58 3f 72 1f 8e 3f 77 83 dd 3e 52 79 1b 3e
       0.8465068 1.1103346 0.43264362 0.15182999
0001d0 77 1c 37 bf bc 74 60 3f dc 8c 17 3e bc 21 40 be
       -0.7152781 0.8767812 0.14799827 -0.18762869
0001e0 4d fe 57 3f f1 59 ad 3e fa 69 96 3e ef 19 ac be
       0.8437241 0.33857682 0.2937773 -0.33613536
0001f0 0d 57 d8 be 1e f8 2b bf 15 5d a3 bd 7c 5a 6a be
       -0.42253914 -0.6717547 -0.07976738 -0.2288608
000200 6b 16 26 3e e1 cb 85 3d 9c 89 51 be 60 1f 89 3e
       0.1621949 0.065330274 -0.2046265 0.2678175
000210 d0 dd ce be 6f bf 58 3e 35 d5 dc 3e 13 1c e2 3e
       -0.40403605 0.21166776 0.43131414 0.44162044
000220 46 e2 c4 3e d5 07 54 bd 3d 14 dc be 35 46 29 3f
       0.38453883 -0.05176528 -0.4298419 0.6612275
000230 69 1b ef be 2a 59 f8 bd 1c 4b a5 3e de 92 99 be
       -0.467006 -0.12126382 0.32283866 -0.29994863
000240 d7 fc 21 3f f1 fb 04 3f 9e d4 80 3c 4a d3 b9 3e
       0.6327643 0.5194693 0.015726384 0.36294013
000250 76 a3 55 bf b0 a3 51 3e 07 06 01 bf 27 d9 55 be
       -0.83452547 0.20472598 -0.5039982 -0.20883618
000260 f4 f6 a2 3d b8 f6 30 bf ca d2 bf 3e ed b2 1b 3f
       0.07957259 -0.6912646 0.37465507 0.60819894
000270 5a 8b b1 3e a9 18 d6 3c 68 ed 84 3f de 80 dd be
       0.3467663 0.026134806 1.0384951 -0.4326238
000280 26 90 19 bd ae 54 60 3f da 4d 46 3e bc 00 71 be
       -0.037490986 0.8762921 0.19365636 -0.23535436
000290 7c f9 90 3e 36 cc 90 bf ab 64 26 3e 52 a3 38 3f
       0.2831534 -1.131232 0.1624934 0.7212421
0002a0 4c e7 d6 3d ef 01 65 bf 07 0a 2f be 05 ff 30 3f
       0.10493335 -0.89456075 -0.17093669 0.6913913
0002b0 cf c7 32 be 98 ed 5e 3f f4 64 83 bf 7e 58 02 3f
       -0.17459033 0.8708129 -1.0265183 0.5091628
0002c0 a1 f2 20 3f 31 68 73 3f a1 11 54 3e f6 39 9d be
       0.6287022 0.9508086 0.2070985 -0.30708283
0002d0 db 06 1c bf 0e f6 0a 3f 3a d1 3a bf 43 43 a1 3e
       -0.6094796 0.542817 -0.72975504 0.3149663
0002e0 0d 09 9f 3f ed 91 0b bf 18 f6 ad 3d ae 2c 23 3f
       1.2424637 -0.5451954 0.08494204 0.6374005
0002f0 0e f4 a0 be 60 8c d1 3e 7f 43 6d 3f 41 73 ef be
       -0.314362 0.4092741 0.92681116 -0.4676762
000300 f0 b2 75 3f cc 43 25 bf 90 f5 58 3e b2 4f 93 bf
       0.9597616 -0.64556575 0.21187425 -1.1508696
000310 4e ea 52 be cc 31 fa 3e f9 89 d0 be 7b 72 66 3f
       -0.20597193 0.48866117 -0.40730265 0.90018433
000320 e2 0a f6 3e 2f 70 0a 3f 50 47 96 3f 2a 5c a6 3e
       0.48055178 0.5407743 1.1740513 0.3249219
000330 88 50 8c 3e f1 01 82 3f 5d 36 27 3f 36 d3 a9 bf
       0.2740519 1.0156842 0.65317327 -1.3267581
000340 bb 97 09 bf 76 b2 c1 3e ad 5a 54 3e 7b 72 87 be
       -0.5374715 0.37831467 0.20737715 -0.2645453
000350 90 80 18 bf f4 35 52 bf 3c 74 40 3d 41 0d 0d bf
       -0.5957117 -0.82113576 0.04698585 -0.5509835
000360 62 38 62 be bb e3 b3 3e 88 29 99 3e 65 7d 85 3d
       -0.22091821 0.35134682 0.29914498 0.06518058
000370 c4 8d 58 3d 47 55 01 bf e1 ac e1 3e a0 28 2e bf
       0.052869573 -0.5052075 0.4407721 -0.6803074
000380 72 4a 37 bf 11 78 80 bf f3 a2 c9 bf e0 06 5c 3e
       -0.7159797 -1.0036641 -1.5752853 0.21486998
000390 03 98 12 3e 33 fa 95 bd 70 1e 98 bd 4d 9b 9b 3e
       0.143158 -0.07323112 -0.074276805 0.30391923
0003a0 39 5a b9 3e d0 87 bf be 5a 64 0e 3f 34 53 87 bc
       0.36201647 -0.37408304 0.55621874 -0.016519167
0003b0 d4 92 e2 3d 3a db 0a 3f d7 2a b1 be 26 68 c2 bd
       0.110631615 0.54240763 -0.34602997 -0.09492521
0003c0 24 b7 a2 3f ef b2 09 3f 18 bd d6 3e 0a 51 d0 3e
       1.271214 0.53788656 0.41941142 0.40686828
0003d0 5e 32 15 3f 8c 48 88 be 43 2b 0f bf 98 6f 0b bf
       0.5827998 -0.2661785 -0.5592539 -0.54467154
0003e0 c2 46 fe 3d 20 5c c0 3f ab 72 ba 3e 51 71 b2 be
       0.1241584 1.5028114 0.3641561 -0.3485208
0003f0 6f fd 02 3e 87 25 4d be 1d 25 cc 3e 80 d3 66 3f
       0.1279199 -0.20033847 0.39872065 0.90166473

L3.bias f4 [176]
000000 cb dd c7 bf 2b 5d 91 bf e4 88 97 be 7f f0 94 bf
       -1.5614561 -1.1356558 -0.29596627 -1.1635894
000010 18 f5 80 bf 30 bf 8d bf 04 fb af bd d0 86 b3 bf
       -1.0074797 -1.1073971 -0.08592799 -1.4025517
000020 7f 45 94 bf 93 e0 c1 be 7e 8e a0 bf 5a 93 c2 bf
       -1.1583709 -0.3786665 -1.2543485 -1.5201218
000030 e2 44 cb bf f3 51 63 bf 39 84 8d bf dc fe 02 c0
       -1.5880396 -0.8879692 -1.1055976 -2.0468054
000040 de e8 e4 3e 35 61 52 bf 19 9b da bf 78 b3 cd bf
       0.44708914 -0.82179576 -1.7078582 -1.6070395
000050 19 7d 76 be 27 d4 77 bf 59 b1 9f bf a2 ec 3a bf
       -0.24071158 -0.96808094 -1.2475997 -0.73017323
000060 b0 d3 ed bf a9 96 ce bf 62 67 13 c0 b7 f3 e5 bf
       -1.8580227 -1.6139728 -2.303185 -1.7965001
000070 25 68 e8 bf 96 9c cb bf d4 8a cc be 0b 21 fa bf
       -1.8156782 -1.5907161 -0.39949667 -1.9541334
000080 bb 8c 93 bf c3 58 f1 be 8d ed 02 c0 b5 30 ca bf
       -1.1527323 -0.47138032 -2.045749 -1.5796114
000090 30 8b b3 be fa 38 69 bf 4d 44 07 bf f5 88 84 bf
       -0.3506713 -0.91102564 -0.52838594 -1.0354296
0000a0 4d c4 95 be fe 17 85 3d a1 61 be bf b5 17 7a be
       -0.29251328 0.06498717 -1.4873544 -0.24423106
0000b0 51 c4 27 bf 17 9a 7d bf 96 bd ac bf 32 84 70 bf
       -0.6553393 -0.9906325 -1.3495357 -0.93951714
0000c0 34 1a 84 bf 36 c1 62 bf 6a 52 95 3d 98 8c a7 bf
       -1.0320497 -0.88576066 0.0729111 -1.3089781
0000d0 02 64 bd bf 44 21 95 bf 3e b0 58 bf 6d 13 d5 bf
       -1.4796145 -1.1650777 -0.84643924 -1.6646553
0000e0 57 b9 62 bd 67 b4 93 3f 8c 48 c0 bf 10 78 0d be
       -0.055352535 1.153943 -1.502214 -0.13815331
0000f0 56 a8 b2 be ad bf c6 bf 44 cc 88 bf fe 9e b6 bf
       -0.34894055 -1.5527245 -1.0687337 -1.426727
000100 fe 87 a4 bf 18 af 3a bd aa b4 cf bf 3c ae 6b bf
       -1.2854002 -0.04557714 -1.6227009 -0.92062736
000110 58 77 e6 bf ab 8b ee be 02 40 fd bf f8 a6 67 bf
       -1.8005171 -0.46590933 -1.9785159 -0.9048915
000120 20 2f 83 bf 52 3e 04 c0 64 f0 87 bf ab c8 cb 3e
       -1.0248756 -2.0663037 -1.0620236 0.39801535
000130 cc b6 6f bf 7c 93 5a bf ff c5 26 3f 0d d1 68 3f
       -0.936383 -0.85381293 0.6514587 0.90943986
000140 db 5b c1 be 0a fa 67 3e b0 ec 6e bf 9e 94 89 bf
       -0.37765393 0.22653976 -0.93329906 -1.0748479
000150 61 10 89 bf 09 f1 fa be 87 01 d1 bf 8f f2 01 c0
       -1.0708123 -0.4901202 -1.6328591 -2.0304296
000160 66 63 fc 3d 6b c2 25 be ae 0e 42 bf 5f dc 51 bd
       0.12323646 -0.16187446 -0.7580365 -0.051235553
000170 bc a7 d6 bf dd 80 2a bf 20 d7 71 bf 01 ab 8e bf
       -1.6769938 -0.6660288 -0.9446888 -1.1145936
000180 32 92 ce bf 55 5d a0 bf c5 93 6c 3f cf 53 1a c0
       -1.6138365 -1.2528483 0.9241298 -2.4113653
000190 2a 37 f5 bd 2e 33 89 bf aa ef 68 bf c2 f9 c0 bf
       -0.11973412 -1.0718744 -0.909907 -1.507622
0001a0 3f 17 ac bf 09 f1 c8 bf 8e 61 9a bd 57 f7 79 bf
       -1.3444594 -1.5698558 -0.07538138 -0.97643036
0001b0 19 de bb bf 9d 71 fa 3e e6 92 b3 bf 67 da 67 bf
       -1.4677154 0.48914805 -1.4029205 -0.9056763
0001c0 d6 2d c8 3e 1d 94 c3 bf 86 3c a6 bf a9 d4 86 bf
       0.3909747 -1.5279576 -1.298722 -1.0533649
0001d0 79 ee 87 bf 5b 89 03 bf 2c da 4a bf b3 c9 a1 bf
       -1.0619651 -0.5138146 -0.79239154 -1.2639679
0001e0 b5 b2 2b bf f1 b4 95 bf 03 a8 f1 bd de 27 ce 3e
       -0.6706956 -1.1695844 -0.11799624 0.4026479
0001f0 ca 8f ab bf b6 ce ac bf 10 3a db bf 72 4b 3c bf
       -1.3403256 -1.3500583 -1.7127094 -0.7355262
000200 94 40 a9 bf de 1e c3 bf de d7 c5 bf bf 34 c7 bf
       -1.3222833 -1.5243795 -1.5456502 -1.5562972
000210 c6 f8 81 bf 94 21 ca bf e8 13 27 bf 92 d0 a7 bf
       -1.0154045 -1.5791497 -0.6526475 -1.3110526
000220 97 d5 a9 bd 3c f9 c7 bf 66 3c 90 bf c6 ad cd bf
       -0.08292692 -1.5622935 -1.1268432 -1.6068656
000230 0a d9 84 bf db 4c 94 bf 80 79 5c bf a6 0b 97 bf
       -1.0378735 -1.1585954 -0.86122894 -1.180043
000240 67 43 f3 bf 13 69 1e bf e8 50 83 bf 56 9e bc bf
       -1.9004945 -0.6187908 -1.0259066 -1.473582
000250 12 73 87 bf 40 12 bf bf 15 07 d3 bf 9c 88 a5 bf
       -1.0581992 -1.4927444 -1.6486536 -1.2932315
000260 bf aa 6f bf 68 87 ad bf 5c 85 c2 bf ba 09 2c bf
       -0.9361991 -1.3556948 -1.5196948 -0.6720234
000270 54 5e d4 bf de 0b 51 bf 20 88 c3 bf 66 9e 20 be
       -1.6591287 -0.8165873 -1.5275917 -0.15685424
000280 0e fb 9d bf b0 61 a5 bf ae 46 c2 bf 8c a6 b0 bf
       -1.2342241 -1.2920437 -1.517782 -1.3800826
000290 44 7b 7a 3d 72 32 a4 bf 2c 32 7f bf d7 7a 73 bf
       0.06115271 -1.2827895 -0.9968593 -0.95109314
0002a0 19 97 bc bf cf c1 45 3e 95 46 a7 bf 16 42 92 bf
       -1.4733611 0.19312213 -1.3068415 -1.1426418
0002b0 a2 dd b9 bf 5e a6 d9 bf 0a 2f 7c bf 17 05 53 bf
       -1.4520762 -1.7003896 -0.98509276 -0.8242964

L4.weight f4 [88, 176]
000000 8c 44 fd 3d 25 31 fc 3d 8c 61 91 3c 7b 9c bb 3e
       0.1236659 0.12314061 0.01774671 0.36642823
000010 a9 bb 13 bf 13 c3 e8 3c 32 ed 22 bd 66 fa 21 be
       -0.5770822 0.028413331 -0.03977699 -0.15818176
000020 61 8a f4 bc 5e f1 a6 be e8 98 6e 3e 41 db 99 3e
       -0.02985114 -0.32606024 0.23300517 0.3005009
000030 ff b2 00 bc 70 50 16 be a8 e3 20 3e cd 93 b3 be
       -0.007855176 -0.14679122 0.15711844 -0.350737
000040 06 81 05 bd 27 ce d1 be 9a 73 bd be a7 42 4a 3e
       -0.03259375 -0.40977594 -0.3700226 0.19751988
000050 6e 57 1c bf d5 9b a7 3e af 47 c3 be a5 6b b2 bc
       -0.6107091 0.32736078 -0.38140628 -0.021779845
000060 5f 2d 12 3e 95 34 0e 3e 2b c1 e0 bc 17 d9 84 be
       0.1427512 0.13887246 -0.02743586 -0.25946876
000070 4d 7f 97 3c d2 2c 5e be 24 29 19 bd e0 a0 3c 3f
       0.018493319 -0.21696785 -0.03739275 0.73682976
000080 4c 10 d3 be bb 78 ef 3d 06 8e a4 be a0 1a 5e 3e
       -0.4122337 0.116929494 -0.32139605 0.21689844
000090 e9 57 fb 3d bc 7e 07 3f 47 44 cd 3d 8d 22 38 be
       0.12272627 0.52927756 0.100227885 -0.1798193
0000a0 64 be 69 be 37 85 c3 be c0 9a 5f 3e 1d 1e cb be
       -0.22826535 -0.38187572 0.21836376 -0.39671412
0000b0 66 3b 14 bf 2f 0d 3d 3e 75 d9 45 3e 0f 07 2b be
       -0.57903135 0.1846206 0.19321235 -0.16701911
0000c0 c5 dc 03 3f dd b2 1f 3e c5 6e 23 3e 7b ed 8b 3e
       0.5150874 0.15595575 0.15960224 0.2732962
0000d0 ce 70 9d be d4 37 c8 be 51 5d 07 be 88 d7 aa bd
       -0.30750126 -0.39105093 -0.13219191 -0.083418906
0000e0 b3 0d aa be 24 aa 78 bf c5 6a ad 3e 16 c5 87 be
       -0.33213577 -0.97134614 0.3387052 -0.26517552
0000f0 a1 be f7 bc db 37 bc be 66 c8 e4 bd 13 21 62 3f
       -0.030242266 -0.36761364 -0.111710355 0.8833172
000100 cd 1c 0e 3e 6d 8a e2 be 4e ff 85 bd 3d 21 2f bf
       0.13878174 -0.44246235 -0.06542836 -0.6841009
000110 85 1b 98 bf cc 40 40 3c 07 b2 51 be b2 56 2a 3d
       -1.1883398 0.011734199 -0.20478068 0.041586585
000120 cc 64 24 3d 42 b8 93 bc 00 36 0b be e3 ef 01 bf
       0.04013519 -0.018032197 -0.13594818 -0.50756663
000130 aa f2 4a bd 5b 27 17 bf 92 b2 8f bd 8e eb f0 be
       -0.04954783 -0.59044427 -0.070164815 -0.47054714
000140 53 08 16 be 78 e5 04 bf a1 25 c5 bc af c1 2b 3e
       -0.14651613 -0.5191264 -0.024065794 0.16773103
000150 f3 ec 97 bc db aa a5 bd fc f6 2a 3f 1e d1 db 3d
       -0.018545603 -0.08089229 0.6678312 0.10733245
000160 a1 6b 3c bf 42 54 4d bf 81 ae 84 bd 77 aa 25 bf
       -0.7360173 -0.8020669 -0.064785965 -0.64713234
000170 b0 14 bb bd 37 88 a4 be 80 08 7f be 9b e9 51 be
       -0.09134805 -0.32135174 -0.24905586 -0.2049927
000180 71 d7 0d 3d 71 0b 59 3e 10 20 0f bf d8 80 35 3d
       0.03462929 0.21195771 -0.559083 0.044312328
000190 a3 3b 03 be 85 1c e2 3e df 4d 53 3f 6f 84 ac be
       -0.12815718 0.44162384 0.82540697 -0.3369479
0001a0 06 59 21 3e c9 22 28 be 80 ac 82 bf b6 9c a9 bc
       0.15756616 -0.1641952 -1.0208893 -0.020704608
0001b0 60 3b df bd 13 54 9b be fd b5 ab bd 61 d3 0e be
       -0.10899997 -0.3033758 -0.08384321 -0.13947822
0001c0 b0 ab 1e bd 28 62 a6 3e 64 cb 0b bd 20 23 2a 38
       -0.038737953 0.32496762 -0.034129515 4.056387e-05
0001d0 39 ab 39 bf f8 82 8d be 20 5d 87 bd 44 f4 9c be
       -0.7252689 -0.27638984 -0.06609559 -0.3065511
0001e0 70 17 01 3f f9 0a fc 3e 09 42 f3 3d 9f 1f 2c 3d
       0.5042639 0.4922712 0.118778296 0.042022344
0001f0 af 6a 84 be e3 bc e8 be f3 71 b2 bd 48 ff 2f 3e
       -0.25862643 -0.4545661 -0.0871314 0.17187226
000200 56 af bc 3c ce 96 e4 be a2 8c 4d be 6a 9c 88 3e
       0.023032825 -0.44646305 -0.20073178 0.26681834
000210 27 a9 2b 3e cd 33 69 3e 65 0c aa be f9 f0 bc be
       0.16763745 0.22773667 -0.3321258 -0.36902598
000220 fa 51 26 be c0 7b cd 3e 44 62 89 3e d5 90 ca bc
       -0.16242209 0.40133476 0.26832783 -0.024727264
000230 3a 1a ec bd 77 d0 d8 bd 83 42 b2 be c7 a0 33 be
       -0.1152844 -0.105866365 -0.3481637 -0.175418
000240 1b 7c a3 3e f9 85 a9 be c7 c9 b9 be e1 e5 30 be
       0.31930622 -0.33110026 -0.36286756 -0.17275192
000250 10 b8 8c bd a9 c6 99 3e a4 c9 51 3e 83 60 04 be
       -0.06871045 0.30034378 0.20487076 -0.12927441
000260 0c e8 fa be 7c ed 30 3d ae 7f 9f 3d 47 24 cc 3e
       -0.49005163 0.043195233 0.07788025 0.39871427
000270 ab 03 8d be 48 91 9f 3c 76 45 9d be 48 f2 45 bf
       -0.2754186 0.019478455 -0.30717057 -0.77322817
000280 03 40 85 be 46 6a 74 3e 8b f3 07 bf 63 53 dd be
       -0.260254 0.23868665 -0.5310599 -0.43227682
000290 4f 8b c0 bc 1e c8 8d 3e 41 08 2f 3d 18 ec 5e be
       -0.023503928 0.2769174 0.04273248 -0.2176975
0002a0 75 6b 85 3e 6d d0 10 bf a2 e2 07 be bb c1 8f 3a
       0.26058546 -0.5656803 -0.13270047 0.001096777
0002b0 68 d0 f6 bd bd 22 9d be d3 14 d8 bc 0a d0 65 be
       -0.12051469 -0.30690566 -0.026377117 -0.22442642
0002c0 9a fa fd 3e 90 3f 2d 3f d5 fa e6 3c 87 55 17 3f
       0.49605256 0.67675114 0.028195778 0.5911488
0002d0 19 77 22 3f 24 a3 68 3f ac ea 80 3f d6 7f 2d 3f
       0.6346298 0.9087393 1.0071616 0.6777319
0002e0 dc 36 f9 bd 26 15 90 bd 33 e0 dd 3e 86 67 00 3f
       -0.12168667 -0.07035284 0.43335113 0.50157964
0002f0 fb 21 f5 3e 7b de d5 3e f5 45 78 3f 88 37 fa 3e
       0.47877488 0.41771302 0.96981746 0.48870492
000300 ed 8c 8b 3e b7 a6 cf be d9 8c ce bd a8 04 3b 3f
       0.27255955 -0.4055688 -0.10085458 0.7305398
000310 6d 7f 50 be 93 5e 1a 3f 47 79 f7 3c da fa ae be
       -0.20361109 0.6030056 0.030209197 -0.3417576
000320 eb 28 52 3f 4e 23 84 3f 13 f0 cc 3e 50 78 50 3f
       0.82093686 1.0323274 0.40026912 0.8143358
000330 76 f3 43 3f 21 70 34 3d 6d 43 85 be d5 27 40 3f
       0.76543367 0.044052247 -0.26028004 0.7506078
000340 b8 4d 0e 3f 0d b3 5c bd 12 4d 0d 3e 7e a1 eb 3e
       0.5558734 -0.053881694 0.13798931 0.46021646
000350 d7 29 6c 3f 2e fa 97 3e c2 b7 6b 3f 7c af 1b 3b
       0.9225134 0.2968306 0.9207727 0.002375572
000360 70 a3 c7 be 17 7d d0 bd f0 fd 1a 3f 8b ac 8f 3c
       -0.3899188 -0.10180109 0.6054373 0.01753833
000370 2d 8a 2a be 02 e8 60 3f 10 b3 49 3f 2f 74 97 bc
       -0.16654272 0.87854016 0.7878885 -0.018488018
000380 51 1f 68 be ef 8d 4d 3f ad 74 87 be 7c 54 bb 3e
       -0.22668196 0.802947 -0.26456204 0.36587894
000390 f3 a3 62 3f aa d4 42 3f 91 c3 0f 3f 88 46 db be
       0.88531417 0.7610575 0.56157786 -0.4282725
0003a0 b8 4b ca 3d 9a 09 ce be cd 29 d8 3d 43 4d 4a be
       0.098777235 -0.402417 0.10554848 -0.19756036
0003b0 25 74 0b bf 5c d6 cb 3e 12 38 ec be 56 f8 05 3f
       -0.544741 0.3981198 -0.46136528 0.52332056
0003c0 a1 97 17 3f 12 95 85 be e6 7c 00 3d 69 37 82 be
       0.5921574 -0.26090294 0.031369112 -0.254329
0003d0 58 2a c2 3d 58 48 9e 3c 22 7a 5f 3e 4d ce 92 3f
       0.09480733 0.019321606 0.21823934 1.1469208
0003e0 8c cd 58 3f 12 fa 47 3f b8 b3 55 3f cc 64 2f bf
       0.8468864 0.7811595 0.83477354 -0.6851318
0003f0 9c e0 51 bf 01 f2 07 3f f6 78 5b be 8f 25 ed bd
       -0.8198335 0.53103644 -0.21432862 -0.11579429

L4.bias f4 [88]
000000 54 4a f5 be 39 23 76 bf fa 73 3d bf 19 0e e4 bf
       -0.4790827 -0.96147496 -0.7400509 -1.7816802
000010 b6 c4 21 3e b9 2b b7 be d9 08 4d 3f 89 4a 20 3e
       0.15797696 -0.35775545 0.80091625 0.15653433
000020 16 7f f1 3e 87 74 a7 bf 66 06 75 bf cd 67 97 be
       0.4716727 -1.3082436 -0.9571289 -0.2957138
000030 fa 26 e1 be f2 4c e9 be 19 28 3c bf e5 ec 55 bf
       -0.4397505 -0.45566517 -0.73498684 -0.835646
000040 10 11 1b bf bf c8 83 bf ec 90 91 bf dc ff 8b bf
       -0.6057291 -1.0295638 -1.1372352 -1.0937457
000050 f8 58 2a bf d0 fb 2e bf 62 92 b3 bf 16 7b 9f 3d
       -0.66542006 -0.68352985 -1.4029047 0.07787149
000060 6a cd a5 bf ec 46 31 bf 5a 72 8a 3f 75 fb 91 bf
       -1.2953312 -0.69248843 1.0816147 -1.1404864
000070 71 db ec bd 3f 69 61 bf 2f 08 63 3e 89 b5 e0 be
       -0.115652926 -0.8805122 0.2217109 -0.438885
000080 6b a3 45 bf f2 80 dc bf 09 87 b3 bf 80 6d 50 3e
       -0.7720248 -1.7226851 -1.4025584 0.20354271
000090 51 76 c6 bb c7 e8 92 bf 69 d1 9c bf db 96 b5 bf
       -0.006056585 -1.1477288 -1.2251407 -1.4186662
0000a0 11 c1 8f bf a1 dd 1c bf a0 e1 98 bf 73 13 ef bf
       -1.1230794 -0.6127568 -1.1943855 -1.867781
0000b0 8d ad 29 3f 14 d2 50 be a3 ac a6 bf 99 07 ab bf
       0.6628044 -0.20392638 -1.3021435 -1.3361694
0000c0 9c ba f2 3e fe 41 c7 3f 8d c7 a0 bf f4 11 13 3e
       0.47407997 1.5567014 -1.2560898 0.14362317
0000d0 d2 5e 82 3e be 01 5d bf f9 61 52 bf 3f 24 8e bf
       0.25462967 -0.86330783 -0.82180744 -1.1104811
0000e0 a7 93 b7 bf 56 48 2b bf 7a 6a 2d 3f 35 45 9e 3f
       -1.4341935 -0.6690725 0.67740595 1.236487
0000f0 4e e0 55 bf aa 9e fd 3e 95 9d 15 bd 01 be b0 bf
       -0.83545387 0.49535114 -0.036527235 -1.3807985
000100 56 27 b2 bf fc 7f 9a bf c1 35 9f bf 7e ad a1 be
       -1.3918254 -1.2070308 -1.2438279 -0.31577677
000110 ae f9 80 bf 18 9a 98 bf e4 fe 50 bf d4 4a 77 bf
       -1.0076196 -1.1922026 -0.8163893 -0.96598554
000120 10 07 36 bf a4 16 7a bf 5a f3 50 bf e1 90 c8 bf
       -0.71104527 -0.97690797 -0.81621325 -1.5669214
000130 39 9a 99 bf 78 20 c5 be af 6a 36 bf 33 0e 85 bf
       -1.200019 -0.38501334 -0.71256536 -1.0394958
000140 26 cd c1 bf 12 37 c7 be 75 30 bf bf 36 8b 80 bf
       -1.5140731 -0.38909203 -1.4936663 -1.0042484
000150 dc 5d 44 bf 14 3b c3 3f 2f 6d 5e bf cd 8a 19 bf
       -0.7670572 1.5252404 -0.8688535 -0.5997742

L5.weight f4 [44, 88]
000000 2d b1 86 bd 2e 28 68 be a7 c2 f7 be 73 38 16 3f
       -0.06576762 -0.22671577 -0.48390695 0.58679885
000010 4f ad 09 bf 7e 38 c2 be 3f 19 e5 be 8a 58 59 bf
       -0.5378007 -0.37933725 -0.44745824 -0.84900725
000020 a7 81 02 bf 83 12 18 bd 4b 9a 07 bf fc 13 1d bf
       -0.50979084 -0.03712703 -0.5296981 -0.6135862
000030 e2 15 50 bf db 86 14 3f 69 ac 33 3e 72 91 7b 3f
       -0.8128339 0.58018273 0.17546238 0.98268807
000040 df c5 38 3f db 02 3c 3f 98 63 6e 3f 14 1b 71 3f
       0.7217693 0.7344186 0.9312072 0.9418194
000050 4e c8 ed 3e ed 18 a5 3e 70 c9 f3 3e af 1b 65 be
       0.46441883 0.3224558 0.47614622 -0.22373842
000060 d9 c2 ba 3e 2b 97 41 3f ae 48 c6 3d 91 ba 8d 3f
       0.36476782 0.7562129 0.09681831 1.107256
000070 52 74 46 bf c6 a2 93 3e 9d 74 b9 bf fa de 32 bd
       -0.7752124 0.28835124 -1.4488713 -0.04366968
000080 ee bd 3a bf 2a 97 bf 3d 9a c7 fe bc af b7 4a bf
       -0.7294606 0.09355004 -0.031101037 -0.7918653
000090 be 38 21 bc d7 47 bb 3f 27 74 73 3f 07 db 81 be
       -0.009840189 1.4631299 0.9509911 -0.25362417
0000a0 02 33 9c 3f 81 f2 2d bf 1a a5 a4 3d 53 a1 19 3e
       1.2203066 -0.67948157 0.08039303 0.15002947
0000b0 e6 a8 15 bf 2c 0a dc be a6 77 bf 3d 7b 71 61 3f
       -0.58460844 -0.4297651 0.09348993 0.8806378
0000c0 a2 61 14 bf 00 f9 b5 be 4f 93 de 3e 2c d7 d9 be
       -0.57961476 -0.35541534 0.43471763 -0.42546976
0000d0 06 31 41 3d 0e a2 18 3f d6 65 a7 3d a3 8e c8 3e
       0.047165893 0.59622276 0.081737205 0.39171323
0000e0 7c dd 51 3f aa 42 45 3e fb c7 36 bf b9 02 01 bf
       0.81978583 0.19263712 -0.71398896 -0.5039478
0000f0 00 65 69 3f 8e 89 42 bf 72 6b 7b be a5 98 45 3e
       0.9116974 -0.7599114 -0.24552706 0.1929651
000100 84 a3 86 bd 43 51 df 3f 43 bc a9 bd fd d4 64 3e
       -0.06574157 1.7446674 -0.08287861 0.22346874
000110 c3 e4 d5 bd 63 27 0d 3d 00 f2 67 3e c6 60 02 be
       -0.104440235 0.03446139 0.2265091 -0.12732229
000120 86 ca 8e 3d 84 89 ca bc e7 6f 29 3a e6 52 aa bd
       0.06972222 -0.024723776 0.0006463513 -0.08316593
000130 51 40 87 3e b5 e8 1a 3f 77 1d 9d be f9 23 54 3e
       0.26416257 0.6051133 -0.30686542 0.20716847
000140 b9 8f d6 3f f3 52 89 be b3 e7 95 3f cc 99 9d 3f
       1.6762611 -0.26821098 1.1711334 1.231256
000150 a7 8f 10 3f 24 9f 07 be a0 4f 81 3e 9b da 83 bd
       0.56469196 -0.13244301 0.25256062 -0.0643818
000160 1b 15 60 be 17 1f f3 3e 31 f2 89 bf a4 1e 44 bf
       -0.21883051 0.47484657 -1.0777036 -0.76609254
000170 1d aa aa bd 5e da 20 be e8 f2 82 be 58 26 a5 be
       -0.08333228 -0.157083 -0.25575948 -0.32255816
000180 8e 5d 6e be 25 2c 36 3e f0 a2 48 3e 39 da ab be
       -0.23277876 0.17790277 0.19593406 -0.33564928
000190 50 13 1e bd d6 35 ae be 62 90 a8 3e 44 2d e7 3d
       -0.038592637 -0.3402545 0.32922655 0.112879306
0001a0 2a 9b 01 3f ab 55 a7 3f 18 2d c4 3e 6e dc 16 3f
       0.50627387 1.3073019 0.38315654 0.589301
0001b0 f1 73 ea 3f 86 6b c0 bd 36 38 b6 bd 83 96 c5 be
       1.8316633 -0.093955085 -0.0889744 -0.38591394
0001c0 74 01 3b 3f 0d cf 02 bc 78 fe f6 be 28 fa 6b 3f
       0.7304909 -0.007983935 -0.4824102 0.92178583
0001d0 40 5c 40 3d 22 53 24 3d 03 01 86 bb 61 c5 29 3f
       0.046962976 0.040118344 -0.004089476 0.663168
0001e0 03 38 5b bd 6b 82 6f bf 29 45 cf 3e d4 98 b4 bd
       -0.053520214 -0.9355838 0.40482453 -0.08818212
0001f0 97 83 64 bf a6 b0 62 bf db 92 22 3f e3 4f 76 3e
       -0.8926329 -0.88550794 0.63505334 0.24053912
000200 fc c0 dd 3e 0c 4a 80 bf 88 e3 97 3e dd e7 25 3e
       0.43311298 -1.0022597 0.2966578 0.1620173
000210 34 f4 04 be a9 17 95 3d b8 53 93 3b 38 c5 2c 3f
       -0.12983781 0.072799034 0.004496064 0.6748843
000220 ee c1 6c be 30 4b cd be 7a 4d e6 3d 79 b6 f7 be
       -0.23120853 -0.40096426 0.11245246 -0.48381403
000230 64 39 dc bd 61 c5 9b 3f e7 39 2d bf fc f6 5c 3e
       -0.10753134 1.216961 -0.67666477 0.21578592
000240 81 e2 d2 3e 5b 89 0d bf 27 1f 0b bf b9 da dd be
       0.41188434 -0.5528771 -0.5434441 -0.43330935
000250 2b bf f8 3e d5 53 28 bf e6 c8 de be ac a3 23 3f
       0.4858335 -0.6575292 -0.43512648 0.6392162
000260 f7 31 03 3e af ce 0f 3f 9a 7a 48 3f be 4b ca 3c
       0.12812029 0.5617475 0.78312075 0.02469432
000270 6c f4 2f 3f d3 89 c2 be 7b 70 b8 3d 4f 95 5b 3f
       0.68732333 -0.37995777 0.09005829 0.857747
000280 ba 0d a0 3f e0 20 0a 3f 09 aa a0 be a2 f9 be 3d
       1.2504189 0.53956413 -0.31379727 0.093249574
000290 38 fc 4d 3f 3c d5 10 bf 68 82 b7 3e 9e f2 30 3e
       0.8046298 -0.5657537 0.3584168 0.17280051
0002a0 83 d7 6c 3f 20 43 08 be bc 9f 14 3f 62 c3 98 3f
       0.92516345 -0.13306856 0.58056235 1.1934626
0002b0 f2 49 80 3e 1a 8f 11 be b6 f8 db be 37 b2 14 bf
       0.25056416 -0.14214745 -0.4296319 -0.58084434
0002c0 0e 11 3f 3d b9 25 f0 3e b8 08 d9 3d 67 25 a4 be
       0.046647124 0.4690378 0.10597366 -0.32059786
0002d0 28 1f 85 3e 69 2a 43 be 3d f9 2e bf dc ad 1e bf
       0.26000333 -0.19059147 -0.6834906 -0.6198404
0002e0 e9 a7 94 be 54 ef 13 3e 92 99 10 3c 58 64 97 be
       -0.29034355 0.14446765 0.0088256765 -0.29568744
0002f0 1c 87 cb 3d 1c 42 3e 3f ea 77 b6 bd fa 0b 2e 3e
       0.099378794 0.74319625 -0.089095905 0.16996756
000300 5a 3d 0d 3f 01 2f 84 3e 84 b8 ae be 42 3b b2 bd
       0.5517174 0.2581711 -0.3412515 -0.08702709
000310 5b e2 a0 3e 37 5f bf 3e 4f d7 27 3f 63 df 16 be
       0.31422696 0.3737733 0.6556291 -0.14733653
000320 88 74 29 3e 03 c9 b4 3e 78 fc 0f bf 63 49 4e 3f
       0.1654836 0.3530961 -0.5624461 0.8058073
000330 3c 89 3d be 55 16 e0 3e ed c4 c5 bd d2 11 03 3f
       -0.18509382 0.43767038 -0.09656701 0.51199067
000340 c6 42 23 3f 5d 3d c0 3e 88 46 bb 3e e9 3d 03 3e
       0.63773763 0.37546816 0.3657725 0.12816586
000350 1a 9c d8 be cb a1 60 3f 88 6a 85 3f 26 63 8d 3f
       -0.42306596 0.87746876 1.0423136 1.1045883
000360 ef 21 d6 be 51 2e 79 3e f6 47 40 3f 86 83 73 3f
       -0.41822764 0.24334075 0.75109804 0.95122564
000370 16 ae ff be 5b 42 ea bd 6d 76 4f bf 81 d9 8e 3e
       -0.49937505 -0.114384376 -0.8104008 0.27900317
000380 9b c9 6e be 66 92 13 bf 74 e2 00 40 da c3 a1 be
       -0.23319094 -0.5764526 2.0138216 -0.31594735
000390 6e 3e 49 be 09 8b 54 3f 54 cc 32 be f6 7a 4e 3e
       -0.19652721 0.8302465 -0.17460757 0.20164093
0003a0 11 5e a2 3f 12 2e 04 3f 41 d3 d7 be 8c 13 39 be
       1.2684957 0.516328 -0.4215336 -0.18073863
0003b0 e1 66 5c be 53 d0 df be 84 4a 1b bf c1 e6 92 3f
       -0.2152362 -0.43713626 -0.60660577 1.147667
0003c0 54 2d 03 be 43 d0 ce 3f a8 48 2b be 1c 30 e4 be
       -0.1281026 1.6157306 -0.16726935 -0.44567955
0003d0 dd 67 81 3e 7b f7 ae 3e be a9 a8 bd 1a 7e 62 3e
       0.25274554 0.34173188 -0.08235501 0.22118416
0003e0 d6 d6 8e 3e e4 4d 76 3e 3a ee 95 3e e8 68 8e bd
       0.27898282 0.2405315 0.29283315 -0.06953603
0003f0 98 6e 59 3f 94 c3 c9 be f2 f0 25 3f b3 55 49 3f
       0.8493438 -0.39407027 0.6482078 0.7864639

L5.bias f4 [44]
000000 fd fb b4 bf 83 1f 84 bf df 3c e1 bf 0a 49 a7 bf
       -1.4139401 -1.0322117 -1.7596701 -1.3069165
000010 f1 f7 57 be 55 a7 68 bf b8 21 05 c0 b1 c0 be bf
       -0.21090676 -0.9088033 -2.080183 -1.4902555
000020 14 9f 8b bf ca 8c a6 bf 13 d8 79 bf d7 d0 72 bf
       -1.0907922 -1.3011715 -0.9759533 -0.94849914
000030 f0 2f 6b bf 11 13 ac bf 68 74 8a bf 93 00 d6 bf
       -0.9187002 -1.3443319 -1.0816774 -1.6718925
000040 ac 0b d6 bf ba 67 a8 bf 5a ed 82 bf b6 1b e9 bf
       -1.6722312 -1.3156655 -1.0228684 -1.8211582
000050 87 4a a9 bf 2a f1 2a bf e1 78 7d bf 39 7b 36 bf
       -1.3225869 -0.6677424 -0.9901257 -0.7128177
000060 ad 41 aa bf 5a 39 93 bf 2f 5c 8d bf 2a bf 03 c0
       -1.3301293 -1.1501877 -1.1043757 -2.0585427
000070 db 4c 7d bf 55 c7 99 bf 43 4f 98 bf 62 18 c7 bf
       -0.989454 -1.2013956 -1.1899189 -1.5554316
000080 fc 61 7e bf 83 cc e4 bf f8 a9 02 c0 24 97 69 bf
       -0.9936826 -1.7874912 -2.041624 -0.9124625
000090 6b 23 8c bf fc 8f cd bf 06 d9 a4 bf ce 25 ac bf
       -1.0948309 -1.6059566 -1.287873 -1.3449037
0000a0 70 2f b9 bf e9 5c 00 bf ad 25 f2 be fd c0 87 bf
       -1.4467602 -0.5014177 -0.4729437 -1.060577

L6.weight f4 [1, 44]
000000 93 23 c0 3c bd 40 50 3d 51 15 28 3e 92 3a 18 bd
       0.023454463 0.05084299 0.16414382 -0.037165232
000010 15 07 f4 3c 8c dc 61 3e 82 f7 a7 3d fc 8c bd bb
       0.029788533 0.22056788 0.08201505 -0.005784629
000020 16 09 c4 bd 87 d3 b1 3c cc 62 62 3d e9 e7 e6 bd
       -0.095720455 0.02170731 0.05527 -0.11274702
000030 f7 55 66 3c 20 85 49 bd f7 84 89 bd 05 cd a9 3d
       0.014058582 -0.049199224 -0.06714814 0.082910575
000040 bf e5 37 3c db d8 2b 3d 69 91 ba bc 3a 37 1f bd
       0.011224209 0.041954856 -0.022774415 -0.038871028
000050 0b 67 b6 bd 9d 3c 0c 3b 41 8f 03 3d 54 33 45 be
       -0.08906373 0.0021398433 0.03211904 -0.19257861
000060 1f 90 f6 bd 0c 3b 9a be 5f 38 87 3d 24 cb 77 be
       -0.12039208 -0.30123174 0.06602549 -0.24198586
000070 43 8c 89 3d f7 cb 1d 3c 23 92 35 3e 0f e7 a9 bb
       0.06716206 0.009631149 0.17731528 -0.005185015
000080 36 2c 56 3d 4d 09 6c 3c cb a3 ac 3d a3 db af 3b
       0.052288257 0.014406514 0.084296785 0.005366759
000090 52 73 90 bd 35 cb 00 3e 5f 9e 6e 3e 12 a1 5f 3e
       -0.070532456 0.12577517 0.23302601 0.21838787
0000a0 12 31 bb 3d c5 0d 1f 3d af ee 11 bd 6c 87 df bd
       0.09140219 0.03883149 -0.035628017 -0.109145015
