Saved_Models_All_Features/target_Hardness_features_22_epochs_37.pth (torch_old, 162565 bytes, 11 tensors)

L1.weight f4 [44, 22]
000000 59 14 16 bf 70 a4 40 bd 43 8f c3 3f 51 36 94 be
       -0.586248 -0.04703182 1.5278095 -0.2894769
000010 19 12 68 3e ff 0b 2a 3c f2 78 ad be ca d9 68 3f
       0.22663154 0.010378837 -0.33881336 0.9095732
000020 a6 a9 62 3e fe 7c 14 be 68 00 c7 3e e7 25 42 3f
       0.22135028 -0.14500806 0.38867497 0.75839084
000030 76 5e 2c 3f f7 e7 82 3b d1 a3 12 bf b2 7a e9 bd
       0.67331636 0.0039949375 -0.57281214 -0.114003554
000040 4d 0b 79 be 4a 64 1e bf ab 16 f6 3d 58 ea 61 be
       -0.24320717 -0.6187178 0.12016042 -0.22062051
000050 35 7f 37 be c9 4b c7 be 0b 15 90 3e 79 d6 4b 3e
       -0.1791962 -0.38925007 0.28141055 0.19906034
000060 a4 d8 91 3e 6a 92 3f 3e be 92 d7 bd ce a8 7d 3e
       0.28485596 0.18708196 -0.10526036 0.24771425
000070 cb 99 f1 3d 86 94 b3 3e a0 3d 8b 3e 1c 3b e1 3b
       0.11796912 0.35074252 0.27195454 0.0068735015
000080 66 21 75 3d 4d 09 32 3e 1c 33 7e be 47 b1 14 be
       0.059846304 0.1738636 -0.24824184 -0.14520751
000090 84 d7 e0 3d f5 6b 04 3e 0c e6 b8 3e e5 80 2e be
       0.10978606 0.12931807 0.36113012 -0.17041357
0000a0 34 dc 45 be 10 0f be 3d 38 6f 2f bb a7 68 db 3e
       -0.19322282 0.09280217 -0.0026769172 0.4285328
0000b0 a1 bc b8 3e e7 2a 29 3f d6 3b a6 be 01 6f 13 3e
       0.36081412 0.6608109 -0.32467526 0.14397813
0000c0 2b 5e d6 3e 6f 4e 53 be 80 c8 9a 3e bb ee 15 3f
       0.4186872 -0.20635389 0.30231094 0.585674
0000d0 cf 88 25 3e 37 45 72 be 08 24 12 3f ff 93 9d 3e
       0.1616547 -0.23659216 0.5708623 0.30776975
0000e0 4a 6f da 3e 38 5f 39 3e e1 63 06 3f 00 6b 4f 3f
       0.42663032 0.1810273 0.52496153 0.81022644
0000f0 6a de 25 3f e4 4e 27 bf 64 ff e3 bd 79 e0 91 be
       0.647925 -0.6535475 -0.11132696 -0.28491572
000100 2d f0 bf bd d1 90 53 be d6 3c 6f bf a9 37 14 be
       -0.09371982 -0.20660712 -0.93452203 -0.14474358
000110 65 a1 72 3f 38 6f b8 bd 16 09 40 bf 26 6f 40 bf
       0.9477752 -0.09005588 -0.75013864 -0.751696
000120 e7 5f e4 3e c7 14 53 3f ca b3 48 bf 40 23 ad be
       0.44604418 0.8245358 -0.78399336 -0.33815956
000130 9f 89 f0 3e f3 c7 e3 3e 09 fb 55 3e ab f8 0f be
       0.46979997 0.44488487 0.20896544 -0.14059703
000140 2d 88 8a be 39 c7 d3 be a5 12 1e bf 1e e2 2d 3f
       -0.2705702 -0.41362932 -0.617472 0.6792315
000150 01 6d ae 3e 23 ff ed bd 98 9b 0e 3e 5c 87 c0 bd
       0.34067538 -0.11620929 0.13926542 -0.09400818
000160 6c bd a3 be 5e 91 04 3f df c8 17 3f 1d 27 56 3d
       -0.31980455 0.5178431 0.5929088 0.052283395
000170 56 43 79 bf 78 1a e1 be a2 8a d4 3e 03 a5 56 3f
       -0.9736837 -0.43965507 0.41512018 0.8384554
000180 ca 2a e9 3e 70 09 df be ff d0 86 bd 23 4d f4 be
       0.45540458 -0.43561888 -0.065828316 -0.477151
000190 e3 be 78 bf 2b a2 2b 3c bf 6e aa 3e aa 24 ae be
       -0.9716627 0.010475676 0.33287618 -0.34012347
0001a0 72 7a 58 bf f3 b6 4e be 48 6d 0a 3f f5 5d 1b 3e
       -0.84561837 -0.20186977 0.54073 0.1517256
0001b0 52 77 57 3f f6 5b d0 3e 0b e2 fe 3d 7f e1 6d 3f
       0.84166443 0.4069516 0.12445458 0.92922205
0001c0 44 e4 58 3e ca 75 b7 3d 8c c9 0c 3e 23 f0 40 3f
       0.21180826 0.08958013 0.13748759 0.7536642
0001d0 ea fe 1f bd af 77 85 3f 0f 1b 6f 3f 26 52 33 3f
       -0.039061464 1.042715 0.93400663 0.70047224
0001e0 d9 d5 cd be 54 78 15 be 8e 33 1b bf 3d 73 d9 3e
       -0.40202215 -0.14596683 -0.6062554 0.42470732
0001f0 e7 2d ee 3e c9 21 24 3f e1 29 57 3f 0a 34 0c 3e
       0.46519396 0.6411405 0.8404828 0.13691726
000200 9f 7e c9 3d 5c e5 03 bf 3e ca d4 3e 02 21 93 3e
       0.09838604 -0.5152185 0.4156055 0.2873612
000210 d2 e3 49 3f 46 9b 17 3d fb 68 21 3f e8 5b ab bd
       0.7886325 0.037013315 0.6305081 -0.08367139
000220 ff 4a cc bd 78 0a ba bc d8 b6 4c be 31 d0 37 3d
       -0.09975242 -0.02271007 -0.19991624 0.04487628
000230 a7 91 18 3f 16 49 31 3f 5b 87 4a 3f c6 b7 3f 3f
       0.5959725 0.69252145 0.79112786 0.7488979
000240 51 9a 3b 3f e6 30 61 3f 64 82 cd 3d c5 68 19 3f
       0.73282343 0.8796524 0.10034636 0.5992549
000250 9a 1a 2b 3f 3b ce aa be 15 f4 d1 bc 6f 68 81 be
       0.66837466 -0.33360466 -0.025629083 -0.2527499
000260 7f 2a e6 bc 6e 75 9e be 0e 68 98 3e 49 f7 24 3f
       -0.028096436 -0.30948967 0.29766887 0.6443983
000270 32 99 5a 3f 47 39 5a be 0d 3d 32 bd af 67 2f 3f
       0.8539001 -0.21310912 -0.043515254 0.68517584
000280 b2 f5 92 be ab 24 ed 3e ce 2b 30 3f af 2f 02 3f
       -0.28703076 0.46317038 0.6881684 0.5085401
000290 07 18 52 3e 70 be 0f 3f 11 a1 e2 3d ee c1 f1 3e
       0.20516978 0.5614996 0.11065877 0.4721827
0002a0 e1 01 94 3e 25 4a e6 3e e4 5c 51 3f 71 42 0b be
       0.28907683 0.44978443 0.81782365 -0.13599564
0002b0 d5 a6 94 bb 95 e1 8c be db 6e 24 bd b9 f4 93 bb
       -0.0045364895 -0.27515855 -0.040144783 -0.004515257
0002c0 97 01 34 be 8e 6c 3b 3e b2 be a7 3e eb 10 95 bd
       -0.17578731 0.18303129 0.32762676 -0.072786175
0002d0 35 0f 9d 3e bc f0 d0 3e 72 85 24 3d e1 87 e2 3e
       0.30675665 0.40808666 0.040166326 0.44244292
0002e0 73 e2 b3 3e f3 a1 b1 3e b6 25 af 3e f6 75 06 3d
       0.35133705 0.3469387 0.3420846 0.03282734
0002f0 36 d0 de 3d 52 02 c3 3d e3 a8 31 3d 06 7b db 3e
       0.10879557 0.09521927 0.043373954 0.42867297
000300 bc c7 68 3e 3c 2a 8b be ab 77 07 3f 30 3c 7a 3e
       0.22732443 -0.2718066 0.52916974 0.24437022
000310 3d a4 33 3d 29 c1 98 3e 73 07 fa bd 36 68 58 3e
       0.0438578 0.2983487 -0.12208452 0.21133503
000320 40 ac a7 3d 39 10 e0 bd 48 25 58 3e 88 27 5a 3e
       0.08187151 -0.10940594 0.21107972 0.21304142
000330 25 a6 29 3e 10 cd 2e 3e e8 38 84 be ce e5 9e 3d
       0.16567285 0.17070413 -0.25824666 0.077586755
000340 1e f6 1b 3e 27 02 16 3f cc ba 9c bd 4e 64 fd 3e
       0.15230605 0.58597034 -0.07652816 0.4949059
000350 12 a9 25 3d db f4 33 3f e1 d6 aa bd 3e 7d c2 be
       0.04044444 0.70295495 -0.08341766 -0.37986177
000360 a3 79 ac 3e bc 10 8c bd 8a a5 c3 bd 6b 83 7c 3d
       0.3368655 -0.06839129 -0.095530584 0.061648767
000370 4d dc 61 3f 8d fc f9 bd 01 aa 5c 3e d3 5c da bd
       0.8822678 -0.12206373 0.21549226 -0.10662236
000380 73 11 c6 bd 8a ae da be 8b 78 f1 bd f5 32 d4 be
       -0.09671297 -0.42711288 -0.1179057 -0.41445127
000390 b4 e5 45 3e 23 e2 08 3e 6e fb 95 3e 9e a0 95 3e
       0.19325906 0.13367514 0.29293388 0.29224104
0003a0 60 98 00 3e f7 db 8b bf 2a c2 87 3f 37 5a 04 3f
       0.12558126 -1.0926503 1.0606129 0.51700157
0003b0 59 3e 29 bd e1 c5 9a bd 7a c5 b6 be 05 5e cc 3e
       -0.041319225 -0.07557274 -0.35697538 0.3991548
0003c0 0d 66 0a 3f 91 ea a6 bd f4 53 7a 3e e1 cb 49 3e
       0.5406197 -0.08150209 0.24446088 0.1970668
0003d0 4b 50 66 3d 11 a9 94 3f e9 86 c3 3e b9 b0 74 3e
       0.056228917 1.1614095 0.38188866 0.2389554
0003e0 8c 39 20 3e d5 0b f8 3e 7d 72 57 3e ea df c5 3e
       0.15646952 0.48446527 0.21039768 0.38647395
0003f0 73 20 50 bd 21 54 0e be 91 ad 0f bd 45 47 af 3e
       -0.050812196 -0.1389928 -0.035077635 0.34234062

L1.bias f4 [44]
000000 e9 19 c6 bf 52 d4 a0 bf 9e ff ba bf 0b 9a 69 bf
       -1.5476657 -1.2564795 -1.4609258 -0.91250676
000010 c8 51 8d bf 86 ba 04 c0 68 35 d9 bf e7 75 0a c0
       -1.1040583 -2.0738845 -1.6969423 -2.1634462
000020 53 9c e4 bf a9 c3 ca bf bd 0d 97 bf 9e a0 0a c0
       -1.7860206 -1.5840961 -1.1801068 -2.1660533
000030 47 9f 77 bf 33 20 0e c0 66 a6 f4 bf 14 d3 11 bf
       -0.9672741 -2.2207153 -1.9113281 -0.56962705
000040 95 55 d4 bf db a9 14 3e 84 71 d1 bf b4 c2 f6 bf
       -1.6588618 0.1451792 -1.6362767 -1.9278169
000050 ee 40 92 bf ed 69 17 c0 b8 b0 a1 bf 5c e2 90 bf
       -1.1426065 -2.3658402 -1.2632055 -1.1319079
000060 40 aa bc bf 5f 34 91 bf bc 43 ac bf f6 bb cc bf
       -1.4739456 -1.1344107 -1.3458171 -1.5994861
000070 da 08 fb bf d5 54 db bf c6 b1 02 c0 82 5a d6 bf
       -1.9612076 -1.7135264 -2.0421004 -1.6746371
000080 94 ec f9 be 57 ea a4 bf 2d 96 9d bf 4e 87 0b c0
       -0.48813307 -1.2884015 -1.2311455 -2.1801333
000090 cb f9 a0 bf ba 2a b3 bf 66 cd 6c bf 4f d1 7f bf
       -1.2576231 -1.3997414 -0.92500913 -0.99928755
0000a0 03 bf 02 c0 bb 69 1d c0 d3 b4 1d c0 65 86 f4 be
       -2.0429084 -2.4595783 -2.4641616 -0.47758785

L2.weight f4 [88, 44]
000000 42 c0 00 3e 58 c6 88 3f ef a9 d6 3d a0 b3 c6 bd
       0.1257334 1.068553 0.10481631 -0.097022295
000010 59 a8 2e 3f 44 9f af be 3b 12 e8 be c0 13 09 3e
       0.6822563 -0.34301198 -0.4532641 0.1338644
000020 40 26 10 bb 44 4b ad bd 23 20 21 3e f5 44 55 3e
       -0.0021995455 -0.084616214 0.15734915 0.20827086
000030 1e fa 5a bf 30 56 0f bf 80 10 ac bd 07 d5 ef bd
       -0.855379 -0.55990887 -0.084015846 -0.117105536
000040 0e 3c dd be 54 67 de be 43 34 2e 3f f6 72 86 3e
       -0.4320988 -0.43438208 0.68048495 0.26259583
000050 23 c6 0d 3d 3c ad 97 be c9 68 dc 3d 8a 67 b3 be
       0.034612786 -0.29624355 0.10762174 -0.35039932
000060 09 58 98 3e 71 b4 31 be 9b d2 1a 3e 33 b0 d3 bc
       0.29754665 -0.17353989 0.15119402 -0.025840854
000070 4d d9 85 be b7 d9 33 3f 1c b6 f5 be 4a c7 08 be
       -0.2614235 0.7025408 -0.479905 -0.13357273
000080 23 ac 76 be 4d f6 9f 3e a1 b0 4f 3f 6f 9f 0f bf
       -0.24089102 0.312426 0.8112889 -0.5610265
000090 fe 0d 27 3d 50 95 5e 3f 9a 89 cb bc 5b 94 ae be
       0.04078483 0.8694658 -0.024845887 -0.3409756
0000a0 2f 51 2b be 3d b4 50 be b5 00 c7 3d 88 ad 83 be
       -0.16730188 -0.20381255 0.09716932 -0.2571833
0000b0 5c 31 c0 be 31 0f c6 be d0 22 9c be 6b 3c 18 3e
       -0.37537658 -0.38683465 -0.3049531 0.14866798
0000c0 79 0a 8f 3e 7b 98 24 3f e3 5f 40 be f9 18 48 3f
       0.27937678 0.64295167 -0.18786578 0.78163105
0000d0 f5 17 3b 3e 28 9f 69 be 5c 01 f8 ba 41 83 d2 3c
       0.18270858 -0.2281462 -0.0018921304 0.025697352
0000e0 e5 d6 f4 3f 3f 73 ab 3e 13 16 f6 3e c3 9e 65 be
       1.9128081 0.33486363 0.48063716 -0.22423844
0000f0 54 11 c5 be 62 fe cd 3e 7e 32 1f 3f 9f 16 b7 3e
       -0.38489783 0.4023314 0.6218642 0.35759446
000100 6b 3d 22 bf 76 87 55 bf 5a 13 46 bf 3e 57 c5 bc
       -0.63374966 -0.8340982 -0.7737328 -0.024089452
000110 aa 68 4d 3f 63 3a 5f bf e6 47 18 bf c0 0c 50 bd
       0.8023783 -0.87198466 -0.5948471 -0.05079341
000120 7f 4f 0c bf b3 c7 22 3f 4a 4c 3a bd ca cd 0a bf
       -0.548088 0.63585967 -0.04548291 -0.5422026
000130 77 ab a5 be 9d c1 26 bf 91 62 53 3e fd 79 d0 bd
       -0.3235738 -0.6513918 0.20643069 -0.101795174
000140 f2 32 fc 3e 65 11 ec be 2b 75 ce 3e cb 8c 00 bf
       0.49257618 -0.4610702 0.40323767 -0.50214833
000150 c8 15 96 be c2 8b f0 be 91 63 bc 3e 25 54 b9 be
       -0.29313493 -0.46981627 0.36794713 -0.3619701
000160 cb b8 a6 bf 64 93 46 3e b6 18 15 bf f9 ee f7 be
       -1.3025144 0.19392163 -0.5824083 -0.4842451
000170 81 00 8e bf a8 55 33 bf 9c b5 6b bf b5 ba 96 3c
       -1.1093904 -0.70052576 -0.9207399 0.018399576
000180 53 04 ef 3c f8 a6 8f bd 4b e9 1c bf b3 40 51 3e
       0.029176867 -0.07014269 -0.61293477 0.20434837
000190 7e 6a dd be b2 f2 62 be ee 33 61 3d be 12 e9 3e
       -0.4324531 -0.22162893 0.054981165 0.45522112
0001a0 e0 5f 44 3d 32 a8 23 bf e5 c1 c6 be 30 f7 ec bd
       0.047942996 -0.6392852 -0.38819805 -0.11570585
0001b0 1b d3 47 3e 97 f3 96 3c 77 0d 40 bf 19 bd a7 bf
       0.19514124 0.0184267 -0.75020546 -1.3104583
0001c0 78 06 65 be f8 ee a5 be 20 de ba be 8c 6b 62 3e
       -0.22365749 -0.3240888 -0.36497593 0.22111338
0001d0 be a7 ad bd c0 66 98 be 90 8f 6a 3e 62 47 ab bd
       -0.0847926 -0.29765892 0.22906327 -0.083632246
0001e0 62 a6 46 be 11 43 d5 bf 0b 80 cf 3e d5 99 b6 be
       -0.19399408 -1.6661092 0.40527377 -0.3566424
0001f0 1a b6 9f 3e 86 3d 6d 3d 79 87 bb be d3 28 1b be
       0.3119362 0.05792 -0.36626795 -0.15152292
000200 fd ea f1 be c2 65 19 3f 9f 2d d5 be f5 70 dd be
       -0.47249594 0.59920895 -0.4163637 -0.43250242
000210 b6 52 87 be bf de 18 3f f0 40 0c bf cd 00 b7 3b
       -0.2643029 0.59714884 -0.54786587 0.0055848123
000220 61 61 2c 3d 3e f1 0b bf 06 a3 07 bf d0 3b 2d bd
       0.042085055 -0.5466498 -0.5298313 -0.04229337
000230 83 b7 da bd b2 c7 ee bd 2f 0f 1c bf 08 fd 6c 3f
       -0.10679533 -0.116591826 -0.6096067 0.92573595
000240 36 f0 20 3d 90 47 10 3c bc 15 f2 bd df 05 2e bf
       0.039291583 0.008806124 -0.11820552 -0.6797771
000250 14 22 1e bd bc 3f 8d be 6b 47 30 3f 87 ee 04 bf
       -0.03860672 -0.27587688 0.68858975 -0.51926464
000260 b9 b1 25 bf 52 b7 72 be 66 0e 87 be be 6b ae bd
       -0.6472431 -0.23702744 -0.26378173 -0.08516644
000270 c7 f0 07 3f 16 27 0f 3f df 8e 09 bd 2f 32 01 bf
       0.5310177 0.55919015 -0.033583518 -0.504672
000280 6c 3f ca bc 09 a2 99 3d 1e ff 2a bf e5 08 1a 3e
       -0.024688445 0.07501609 -0.6679553 0.15042455
000290 13 7e 4a bd fc 56 2a bf 50 86 05 bf ec f3 d5 be
       -0.04943664 -0.6653898 -0.5215807 -0.4178766
0002a0 31 19 18 be e4 a3 c4 be d1 93 a5 3e 22 9e d9 3d
       -0.1485336 -0.3840629 0.32339337 0.106258646
0002b0 58 68 76 3e f2 31 a3 3e c9 56 a5 bd c6 29 a8 be
       0.24063241 0.31874043 -0.080731936 -0.3284437
0002c0 aa 20 d9 3e 0f b2 b5 be ad 5f 56 bd 05 fa 43 3f
       0.42407733 -0.3548741 -0.052337337 0.76553375
0002d0 be 1d f9 be 96 45 df bd 41 77 af be c9 ad 34 bf
       -0.48655504 -0.10901944 -0.3427067 -0.70577675
0002e0 49 4e 09 3f 83 7c d4 3d 9d 68 bb be 9f af 93 be
       0.5363508 0.10375311 -0.3660325 -0.28844926
0002f0 09 13 30 bf 88 4f 68 be c7 2d 27 be d4 cc ce bd
       -0.68779045 -0.22686589 -0.16326056 -0.100976616
000300 11 36 1f 3f 36 22 01 bf e3 88 3d be 2c a6 44 be
       0.62191874 -0.50442827 -0.1850925 -0.19204015
000310 81 d1 a2 bf 69 aa c8 be a4 a3 1c 3f 49 02 44 3e
       -1.2720186 -0.39192513 0.61187196 0.19141497
000320 d2 2b 96 3f 86 41 38 bd e2 16 af be 14 80 fb be
       1.1732123 -0.044984363 -0.34197146 -0.49121153
000330 01 dd ad 3e 05 c1 b9 bf ba b8 63 3d a9 8a bf 3e
       0.33957675 -1.451203 0.05559609 0.37410477
000340 ee aa 39 3f 56 11 0f bf 49 89 e0 3e f1 ce 8e be
       0.72526443 -0.5588583 0.4385474 -0.2789226
000350 c7 7b 2f bf b8 68 cf 3e f9 22 72 be 63 8d c4 bd
       -0.68548244 0.40509582 -0.23646154 -0.0959728
000360 78 18 3d be 6c 20 aa be fe 80 46 bf 31 e3 95 be
       -0.18466365 -0.3322786 -0.77540576 -0.29274896
000370 d8 95 24 bf a3 b1 a6 be db fc ab be 3a b0 1c bf
       -0.64291143 -0.325574 -0.3359135 -0.612064
000380 4e 1f af be e9 3d c5 bd 80 ae e2 bd c9 82 da be
       -0.3420357 -0.09630949 -0.110684395 -0.42677906
000390 be 1a 3a be 0b 43 b8 be 4a 9c 56 be 78 a2 84 3e
       -0.18174264 -0.3598865 -0.20958057 0.25905204
0003a0 52 63 c8 be 1a 8c aa be c4 71 99 3e 04 8b 6b bf
       -0.39138275 -0.33310014 0.2996961 -0.92008996
0003b0 1c 47 22 bf 1d fe 11 be de e7 d0 3e 1a eb 40 3f
       -0.63389754 -0.14257093 0.408019 0.75358737
0003c0 b2 c5 10 bf d7 97 f4 be 52 25 a0 bf cb 3b bd 3d
       -0.5655166 -0.47772095 -1.2511389 0.0923992
0003d0 05 8d 62 bf 9a 85 b3 3e 4f b6 bd be 2a 50 18 be
       -0.8849643 0.35062867 -0.37053153 -0.1487433
0003e0 57 57 58 be b5 59 b4 be 8c be 08 bf fc 61 61 be
       -0.21127068 -0.3522469 -0.5341575 -0.22010034
0003f0 96 75 85 bf 53 b2 2c be df ee 2c bf da 87 95 3d
       -1.0426509 -0.168649 -0.6755199 0.07301302

L2.bias f4 [88]
000000 1d a3 c2 be 64 8b 6b be 94 92 32 bf c6 3a 29 bf
       -0.3801507 -0.23002392 -0.6975491 -0.66105306
000010 9f af 16 3f b9 22 75 bf c1 b4 c1 bf d2 ac 59 bf
       0.58861727 -0.9575611 -1.5133287 -0.8502933
000020 5c fe 4d bf af 31 2b bf 57 53 6c bf 66 5a 15 3e
       -0.80466247 -0.66872686 -0.92314667 0.14585266
000030 7d eb 83 bf 64 53 fb bf 93 87 4b be 2f e4 a3 3e
       -1.030624 -1.9634824 -0.19875936 0.32010028
000040 b9 c6 ce bf 79 00 8a be 28 b1 9b be 29 f7 98 bf
       -1.6154395 -0.26953486 -0.30408597 -1.1950427
000050 2d 3b bb bf 24 c3 6c bf 14 03 89 bf 36 ab b2 bf
       -1.4627434 -0.9248526 -1.0704064 -1.39585
000060 96 54 ec bf bc 01 12 bf da 55 9b bf 78 2b 90 bf
       -1.8463314 -0.57033896 -1.2135575 -1.1263266
000070 5c 74 39 bd 67 ec 91 bf b6 f6 f2 bf 49 cf 15 bf
       -0.045276985 -1.1400269 -1.898154 -0.5851942
000080 25 7f 3a bf 9e 8f 82 bf 1d 7d 61 bf 3e e4 7a 3e
       -0.7285026 -1.0200078 -0.8808153 0.2450113
000090 1e 9e 96 be bd 74 a9 3e 19 e2 9f be c4 54 e1 be
       -0.2941751 0.33096877 -0.31227186 -0.44009984
0000a0 e4 7f c7 be b3 c5 a5 bf 26 e1 a5 bf 28 fd 0f bf
       -0.3896476 -1.2950958 -1.2959335 -0.5624566
0000b0 d4 f5 65 bf d9 2e 77 bf 9d 7c 71 be 54 1e d3 be
       -0.8982823 -0.9655586 -0.23582692 -0.41234076
0000c0 2a bb 8d bf eb 1f 1e bf 03 e1 c7 3f e5 d9 00 c0
       -1.1072743 -0.6176745 1.5615543 -2.0132992
0000d0 43 70 94 bf e4 3a 86 bf 7b f7 38 bf d7 a5 17 3e
       -1.159676 -1.0486722 -0.72252625 0.14809357
0000e0 47 10 04 c0 56 f6 e5 bf 70 ef 24 bf 7b 42 9d bf
       -2.0634935 -1.7965801 -0.6442785 -1.2285913
0000f0 04 ec 5f 3f 14 bb 02 bf d9 8e d2 3e b9 36 61 bf
       0.87469506 -0.5106671 0.4112461 -0.87974125
000100 ba 26 1a bf 48 7b 9d 3e 44 98 50 bf e2 ed 8f bf
       -0.6021534 0.3075812 -0.8148234 -1.1244471
000110 c0 12 47 be 61 58 27 bf 7c e7 47 bf 18 bc 43 3f
       -0.19440746 -0.6536923 -0.7808759 0.76458883
000120 e2 ff 7d 3d f4 a3 d5 bf e8 ad 4f bf f3 21 7d be
       0.062011607 -1.669066 -0.81124735 -0.24719982
000130 71 5f 3c bf 2d 67 4c 3f 37 1a 5c bf c4 6b d9 bf
       -0.7358313 0.79844934 -0.859775 -1.6986012
000140 5c 5b cf bd d8 8b 84 3f 17 81 b9 be 74 8b 9a bf
       -0.10124847 1.0355177 -0.362313 -1.2073808
000150 14 cc d3 bf ce 48 f8 bf 14 a1 01 3f 8a b8 88 bf
       -1.6546655 -1.9397218 0.5063641 -1.0681317

L3.weight f4 [176, 88]
000000 0e dc 11 bd a1 38 56 be 4a 86 0d 3f 9e f4 eb bd
       -0.03561025 -0.2092004 0.55283034 -0.115212664
000010 85 06 0a bf 65 d7 88 3f d4 bc 92 3f eb 2c 7f 3f
       -0.539162 1.0690733 1.1463876 0.99677914
000020 26 95 77 3f 06 f0 2d 3e a3 75 cf 3e 36 27 6e be
       0.9671196 0.16986093 0.40519437 -0.23257145
000030 9d d6 a1 3e 23 c5 16 3f 7c af f4 be 90 41 2c bf
       0.3160905 0.58894557 -0.47790134 -0.6728754
000040 a8 4c 34 3f f8 ba 5c 3c 78 e7 67 3f f4 e0 ba be
       0.7042947 0.013472311 0.9058757 -0.3649975
000050 ec 6d 82 3f a5 68 63 3f a3 25 49 be ee 22 a2 3e
       1.0189795 0.8883155 -0.19643264 0.31667274
000060 a5 b2 97 3e c7 c1 6f 3f 13 18 d8 3e 21 7c 11 3f
       0.29628482 0.93655056 0.42205867 0.5683003
000070 7e fb 39 bf 66 31 d0 3e 56 d0 07 3f 58 67 3c 3f
       -0.7264937 0.40662688 0.5305227 0.7359519
000080 18 ab e1 3e 11 3a fe 3e 8d 4a 78 3e e7 87 bf be
       0.44075847 0.49653676 0.24247189 -0.37408373
000090 6c e0 b0 3c 09 ad 2f bf 42 57 4e 3f 0d 18 b4 bf
       0.021591388 -0.68623406 0.80601895 -1.406984
0000a0 3e ae ef be 15 0f a3 3e 49 f2 f7 3e e5 86 a8 3c
       -0.46812624 0.31847444 0.48427036 0.020572135
0000b0 3e ee 47 be 52 67 1c 3d 85 53 b6 3e e7 d4 91 3e
       -0.19524476 0.03818447 0.35610595 0.28482744
0000c0 bb 1a 18 bf ac a0 c2 3e ad 37 4a bf 4c 13 3f 3e
       -0.5941579 0.38013208 -0.78991205 0.18659705
0000d0 11 29 0a bf e9 db 0b be 38 0e 0c bf aa 66 8c be
       -0.5396891 -0.13658108 -0.54709196 -0.27422076
0000e0 0b 49 8e 3f 50 83 b7 be bc 0b da 3e 96 c5 da 3e
       1.1116041 -0.3584237 0.42587078 0.4272887
0000f0 8d b7 bc be 75 b8 f7 3d 52 8a 68 bf 8f 59 8c 3b
       -0.36858788 0.12095729 -0.9083606 0.004283137
000100 a2 c5 c8 3f f0 a9 f1 bc 36 5a ab bd ab 8a c9 3d
       1.5685313 -0.029499978 -0.08366816 0.09840902
000110 99 83 08 3f 41 10 e1 3c c7 42 a7 3e 20 1d f1 be
       0.533258 0.02747357 0.32668135 -0.47092533
000120 1a b1 ff bd e0 a3 be 3f b9 24 14 bf a5 05 aa bf
       -0.12484951 1.4893761 -0.57868534 -1.3282973
000130 9c 4e 05 bf 5a 4c 87 bf bf 6a a2 3e 4d 0e 91 3f
       -0.52073073 -1.0570176 0.31722066 1.1332489
000140 c2 5e e5 be a2 da 24 bf 23 a5 0a bd ae 8c 90 3f
       -0.44798857 -0.6439611 -0.033848893 1.1292932
000150 b0 ae 14 3f 11 5e a8 3f f8 1f 08 bf 89 78 94 3d
       0.5807905 1.3153707 -0.5317378 0.07249553
000160 8a f1 80 be 30 d8 b9 3c 13 9c 0c 3e 6a d1 28 be
       -0.2518428 0.022686094 0.13731413 -0.16486135
000170 87 75 5b be 18 ee 14 3f 59 e8 59 3f 40 2f 0c 3e
       -0.21431552 0.581758 0.8512016 0.136899
000180 46 0a 21 3f e7 0a 7c be 29 77 ed 3e 94 81 f3 be
       0.629063 -0.24613534 0.46379974 -0.47559798
000190 41 ba 43 bf 75 6e 58 3f db 14 9e bc 3b ed ff bd
       -0.76456076 0.84543544 -0.019297054 -0.1249642
0001a0 0a 51 1d 3f 7a 3c 53 3d fb de e6 3d b3 c5 24 bf
       0.6145178 0.051571347 0.11272999 -0.64364165
0001b0 cb 36 bf 3d 98 c0 52 3f 0d d2 53 3e 9a 2f 0b 3f
       0.09336623 0.82325125 0.20685597 0.5436951
0001c0 c1 30 57 3f f0 e5 8d 3f 9e 7f dd 3e ab 5d 3a 3e
       0.8405877 1.1085796 0.43261427 0.18199794
0001d0 f3 84 31 bf ca a9 5f 3f 81 4e 0b 3e 28 fd 39 be
       -0.6934349 0.8736845 0.13604166 -0.18162978
0001e0 38 47 51 3f b1 b9 a9 3e f0 f8 88 3e bf 60 b2 be
       0.81749296 0.33149484 0.26752424 -0.34839436
0001f0 dd a6 ce be 64 1e 2c bf 53 b7 a2 bd 84 f1 54 be
       -0.40361682 -0.6723387 -0.079451226 -0.20795256
000200 fa 41 23 3e 65 17 76 3d 94 5d 56 be c1 52 89 3e
       0.15943137 0.060080905 -0.20934135 0.2682095
000210 e1 f1 cd be 8a 06 55 3e 1a ef eb 3e 6d f6 dc 3e
       -0.402236 0.20803276 0.46080858 0.43156758
000220 48 f3 c4 3e d9 1f 5d bd da 6c cf be 61 4f 28 3f
       0.3846686 -0.05398545 -0.40512735 0.6574612
000230 54 90 ef be 32 bf f8 bd 97 4b a4 3e a6 91 99 be
       -0.467898 -0.121458426 0.3208892 -0.29993933
000240 8c 72 21 3f 62 bc 04 3f 04 1d f4 3c 3c d8 b7 3e
       0.6306541 0.5184995 0.029798992 0.3590716
000250 2d 1f 55 bf aa fd 54 3e 29 ae 00 bf 74 78 56 be
       -0.83250695 0.2079989 -0.5026575 -0.20944387
000260 03 db 86 3d 7e 57 2d bf a0 2c d0 3e 14 e0 1d 3f
       0.06584742 -0.6771163 0.40659046 0.6167004
000270 3d 19 b0 3e 1e 57 bd 3c 28 2a 8e 3f 3f e1 cc be
       0.34394255 0.02311283 1.1106615 -0.400156
000280 c0 ff 3d bd 3f 07 58 3f 4e 7a 49 3e ec e3 51 be
       -0.04638648 0.84386057 0.19675562 -0.20497102
000290 da 21 a4 3e a5 7e 9a bf aa 7a 1a 3e bf a3 38 3f
       0.32057077 -1.2069899 0.15085855 0.72124857
0002a0 da 81 06 3e 3a 9d 64 bf 9b 48 2b be 16 27 31 3f
       0.13135472 -0.8930241 -0.16726916 0.69200265
0002b0 b1 f2 31 be 7b 62 60 3f ab e4 86 bf 8d fb fe 3e
       -0.17377736 0.8765027 -1.0538534 0.49801293
0002c0 7e df 24 3f ac b9 68 3f 73 a4 20 3e be b1 a4 be
       0.6440352 0.9090831 0.15687732 -0.32166857
0002d0 f0 5f 1b bf 4e 0a 04 3f 85 31 41 bf 0b fc 9b 3e
       -0.60693264 0.51578224 -0.75466186 0.3046573
0002e0 a2 26 9d 3f ad 5f 08 bf 3a ff 1a 3e d6 46 03 3f
       1.2277415 -0.5327099 0.15136424 0.5127996
0002f0 45 df b4 be 7d 56 cf 3e f6 a2 54 3f 39 b4 fd be
       -0.3532659 0.40495673 0.8306116 -0.4955156
000300 6f e0 76 3f 7d f3 1f bf e7 f9 58 3e ee 4c 93 bf
       0.9643621 -0.6248091 0.2118908 -1.1507852
000310 64 e1 10 be a2 a8 f4 3e c7 8e cd be b9 b7 69 3f
       -0.1414848 0.47784907 -0.40147993 0.91295964
000320 c9 c3 05 3f db 3f 13 3f 1b bf 94 3f a3 68 9c 3e
       0.5225187 0.5751931 1.1620821 0.3054858
000330 5e 2a 90 3e 1a e9 81 3f d5 9e 2a 3f 2a e3 ab bf
       0.28157324 1.0149262 0.6664861 -1.34287
000340 b9 fe 0f bf 45 7e cf 3e 60 26 57 3e 79 fc 93 be
       -0.5624805 0.40526024 0.21010733 -0.2890356
000350 76 59 26 bf 0b 3b 5a bf f8 45 52 3d 8b e1 11 bf
       -0.64980257 -0.8524634 0.05133626 -0.56984776
000360 8c d1 56 be a0 86 b8 3e 6c b8 93 3e 3f e4 69 3d
       -0.20978373 0.3604021 0.2885164 0.057102438
000370 c3 13 5b 3d 12 9c 03 bf 41 17 b0 3e 0b be 2e bf
       0.053485643 -0.5141002 0.3439274 -0.6825873
000380 39 bc 3b bf de bb 7e bf c6 9a c9 bf 4f 6d 53 3e
       -0.7333408 -0.9950541 -1.5750358 0.20647167
000390 b5 16 11 3e b4 c5 b2 bd ac 53 90 bd 2f 46 71 3e
       0.14168818 -0.08729115 -0.07047209 0.23561929
0003a0 d9 46 bb 3e 58 75 bf be fa 01 08 3f 02 c3 0b 3c
       0.3657749 -0.37394214 0.53128016 0.00853038
0003b0 4a 0d 0b 3e ea 86 05 3f 46 ed ae be 89 ba b0 bd
       0.13579288 0.5215899 -0.341654 -0.08629329
0003c0 b4 59 a2 3f 35 8a 0f 3f 0e 82 d3 3e 09 c6 d5 3e
       1.2683625 0.5607026 0.4131016 0.4175265
0003d0 5a d1 20 3f 1a 33 6b be 60 e1 15 bf 4a c5 04 bf
       0.62819445 -0.22968712 -0.5854702 -0.5186354
0003e0 8c e7 00 3e 85 99 bb 3f 22 a4 bb 3e 22 81 97 be
       0.12588328 1.4656225 0.3664866 -0.29590708
0003f0 01 e6 4d 3e dc 63 25 be 4f 0e e6 3e 9a f4 67 3f
       0.20107271 -0.16151375 0.44932792 0.9060761

L3.bias f4 [176]
000000 ec 53 c8 bf 28 f4 90 bf 01 72 ae be a5 44 94 bf
       -1.5650611 -1.132451 -0.34071353 -1.1583449
000010 64 eb 80 bf b3 b6 8a bf 47 b7 5e bd 4d 90 b3 bf
       -1.0071836 -1.0837005 -0.054374006 -1.4028412
000020 be 70 94 bf c1 7d b3 be cd 4b a0 bf 51 92 c1 bf
       -1.1596906 -0.3505688 -1.2523133 -1.5122777
000030 e3 c4 ca bf bb a6 67 bf 4d 44 8a bf 35 dd 02 c0
       -1.5841335 -0.90488786 -1.0802094 -2.0447514
000040 3c 6f e4 3e 9a bf 56 bf 30 97 da bf 98 54 c6 bf
       0.44616115 -0.8388611 -1.7077389 -1.5494566
000050 a5 33 68 be 9e 12 83 bf d3 c9 9f bf 97 cc 3d bf
       -0.22675951 -1.0240057 -1.2483467 -0.74140304
000060 0c 7e ed bf 8e 60 ce bf 0e 5f 13 c0 fd d2 e5 bf
       -1.8554091 -1.6123216 -2.3026767 -1.7955014
000070 0f 89 e8 bf 48 3e cb bf f7 09 cc be 1e 6b f9 bf
       -1.8166827 -1.5878382 -0.39851353 -1.9485815
000080 74 15 93 bf 7d a6 01 bf 9b f9 02 c0 17 2e ca bf
       -1.1490922 -0.50644666 -2.0464847 -1.5795316
000090 1a a4 b4 be 39 10 79 bf a4 b6 07 bf c2 71 81 bf
       -0.3528145 -0.9729038 -0.5301306 -1.0112841
0000a0 03 70 99 be 28 7f 19 3d a3 45 be bf c1 33 86 be
       -0.2996827 0.03747478 -1.4865001 -0.2621136
0000b0 8f 68 2c bf 77 1c 69 bf 2b 7f aa bf 31 a7 70 bf
       -0.67347044 -0.9105906 -1.3320059 -0.94005114
0000c0 d0 64 84 bf d1 7d 64 bf 02 c3 7a 3c 70 42 a8 bf
       -1.0343266 -0.8925448 0.015305283 -1.3145275
0000d0 e4 db bb bf 7f ea 92 bf 85 d6 4d bf 94 17 d5 bf
       -1.467648 -1.1477813 -0.80405456 -1.664782
0000e0 36 6a ee bc 97 8f 8c 3f db 30 be bf 1d ef 40 be
       -0.02910338 1.098132 -1.485866 -0.18841214
0000f0 43 0e ae be 5e c5 c5 bf 26 2b 7d bf 56 13 b4 bf
       -0.33995256 -1.5450857 -0.98893964 -1.4068401
000100 9b 4c a4 bf 31 d2 4b bd 31 d8 cf bf b9 89 6d bf
       -1.2835878 -0.049761 -1.6237851 -0.92788273
000110 b4 ed e4 bf 4f bf d3 be c9 0b fd bf 39 78 72 bf
       -1.7885041 -0.41356894 -1.9769222 -0.94714695
000120 77 a2 7e bf 8f 73 04 c0 1a c1 84 bf ed 5f c0 3e
       -0.9946665 -2.0695531 -1.037143 0.37573186
000130 a6 ae 70 bf c3 e2 56 bf 40 dd 25 3f 54 83 64 3f
       -0.9401649 -0.8393976 0.64790726 0.8926289
000140 cc c2 b8 be 6e db 4a 3e 41 8b 6e bf 02 df 89 bf
       -0.36086118 0.19810268 -0.93181235 -1.0771182
000150 4c bc 89 bf 6b 34 11 bf e6 e5 d0 bf 08 ba 00 c0
       -1.0760589 -0.5672061 -1.632016 -2.0113544
000160 8c 62 f8 3d 64 13 4f be d4 f5 41 bf ff 4e 7a bd
       0.12128171 -0.2022224 -0.7576573 -0.061110493
000170 9d ce d6 bf 04 64 16 bf 94 64 73 bf 7d 8c 8e bf
       -1.6781803 -0.5874636 -0.95075345 -1.1136624
000180 d7 7b cc bf 32 dc a0 bf 72 ea 62 3f be 52 1a c0
       -1.5975293 -1.2567198 0.88638985 -2.4113002
000190 be 21 7e bd 74 32 86 bf 59 f2 6b bf 4e 8c bd bf
       -0.062043898 -1.0484147 -0.9216667 -1.4808443
0001a0 e5 19 ad bf 8a ab c4 bf fa 9f de bc 77 a1 76 bf
       -1.3523527 -1.536485 -0.027175892 -0.96340126
0001b0 6a 53 ba bf fc e5 fb 3e 5a f2 b2 bf 8f 7f 67 bf
       -1.4556706 0.49198902 -1.398021 -0.90429014
0001c0 98 e5 be 3e c5 7d c0 bf d4 55 a6 bf 39 bf 89 bf
       0.3728454 -1.5038382 -1.2994943 -1.0761482
0001d0 94 0a 88 bf ae 70 01 bf 36 3d 48 bf b5 db 9f bf
       -1.0628228 -0.5056256 -0.782184 -1.2488924
0001e0 d0 f1 20 bf 5d 40 94 bf 07 cf c5 bd 0e 78 eb 3e
       -0.62868977 -1.1582142 -0.09658628 0.45990032
0001f0 50 70 ac bf 9f 4a ac bf c7 ea da bf d0 68 37 bf
       -1.3471775 -1.3460273 -1.7102898 -0.71644306
000200 50 29 a9 bf 6a 24 c5 bf 7d f2 c5 bf 6b 24 c7 bf
       -1.3215733 -1.5401738 -1.5464627 -1.5557989
000210 07 d7 81 bf 84 d2 c8 bf f5 ac 27 bf bb d0 a7 bf
       -1.0143746 -1.5689244 -0.65498286 -1.3110574
000220 73 f6 32 be af 7a c9 bf 00 e5 8d bf 3b c7 ce bf
       -0.17476825 -1.5740565 -1.108551 -1.615455
000230 a3 6f 84 bf 58 e0 92 bf 83 c5 5b bf 91 f6 96 bf
       -1.0346569 -1.1474714 -0.85848254 -1.1793996
000240 49 19 f3 bf c5 5d 19 bf de 00 7b bf 3d 84 bc bf
       -1.8992091 -0.59908706 -0.980482 -1.4727856
000250 70 16 99 bf 3f 2e bf bf 6e 80 cd bf 1a 6c a5 bf
       -1.1959972 -1.4935988 -1.6054819 -1.2923615
000260 ef 13 6c bf 5d cb b0 bf 21 78 c2 bf 9a fc 30 bf
       -0.92217916 -1.3812062 -1.519291 -0.6913544
000270 da 4f d2 bf fc 5f 4f bf b5 ed c1 bf fa 89 1b be
       -1.6430619 -0.81005836 -1.5150667 -0.15189353
000280 95 f0 9d bf a3 59 a5 bf 42 06 c2 bf 45 3b b2 bf
       -1.2339045 -1.291798 -1.515816 -1.3924338
000290 13 c3 97 3d fa 0c a4 bf 13 26 75 bf ea a4 6d bf
       0.07410254 -1.281646 -0.9576122 -0.92829764
0002a0 31 13 b8 bf ed 48 22 3e 94 74 a3 bf c7 fb 8f bf
       -1.4380857 0.15848131 -1.2769952 -1.1248711
0002b0 2a 22 ba bf d0 60 d6 bf bf 3c 86 bf 71 f7 4f bf
       -1.4541676 -1.6748295 -1.0487288 -0.8123694

L4.weight f4 [88, 176]
000000 99 37 ee 3d 6b 96 e5 3d ef e7 8c 3b eb e3 b0 3e
       0.11631698 0.112103306 0.0043001096 0.34548888
000010 4b 4a 16 bf 2f f8 51 3c 0e 73 10 bd 31 57 31 be
       -0.5870711 0.012815519 -0.035265975 -0.17318417
000020 df bd 15 bd f4 c9 ab be 99 d4 6a 3e d5 53 99 3e
       -0.03655803 -0.33552516 0.22932662 0.2994677
000030 8d f6 9c bc 36 ca 21 be 34 15 11 3e a4 44 ba be
       -0.019160533 -0.15799794 0.14168245 -0.36380494
000040 79 46 09 bd 62 76 d1 be e3 ea c6 be e5 d8 30 3e
       -0.033514474 -0.4091063 -0.3885108 0.17270239
000050 8d 3e 1d bf be 6e bf 3e 23 47 c6 be 12 c1 db bc
       -0.6142357 0.37389177 -0.38726148 -0.026825462
000060 42 3d f8 3d 51 6a ff 3d 16 bd 26 bd 4c 7c 8b be
       0.12121059 0.1247145 -0.04070767 -0.27243268
000070 60 59 04 3c 92 c1 58 be 87 c3 56 bd 6c 5c 39 3f
       0.008077949 -0.21167591 -0.052432563 0.7240665
000080 23 2f da be ee df e5 3d cb 8a aa be 2e ae 54 3e
       -0.42614087 0.11224352 -0.33309016 0.2076957
000090 6a b8 f7 3d e6 8d 06 3f c6 74 a4 3d 0b a5 45 be
       0.12095721 0.5256027 0.08030085 -0.1930124
0000a0 e8 a6 70 be 18 d1 bd be a3 48 4c 3e c3 b2 d3 be
       -0.2350117 -0.37073588 0.19949584 -0.41347322
0000b0 b9 8d 14 bf 33 e2 38 3e fa 14 39 3e b9 1d 32 be
       -0.5802875 0.18055038 0.18074408 -0.17394151
0000c0 2f bf 03 3f 0a c5 17 3e 5a 03 1c 3e ac 23 87 3e
       0.514636 0.14821258 0.15235654 0.26394403
0000d0 30 d5 a3 be ac b4 d1 be 73 77 0c be ee 95 bd bd
       -0.31998587 -0.40958154 -0.13717441 -0.092571124
0000e0 83 54 ac be 0c ae 71 bf bc 00 a7 3e 24 3d 85 be
       -0.33658227 -0.944062 0.32617748 -0.2602321
0000f0 b3 44 07 bd c4 44 c1 be 01 9c ae bd e0 62 61 3f
       -0.0330245 -0.37747777 -0.08525849 0.88041496
000100 88 7d 00 3e 77 ad e8 be 29 d1 a5 bd 27 83 30 bf
       0.12547886 -0.45444843 -0.08096535 -0.6895012
000110 9c 8d 96 bf be 4f d9 3c 22 7a 5f be c4 68 00 3d
       -1.1761966 0.026527282 -0.21823934 0.031349912
000120 98 7f dc 3c 4c b7 c3 bc 67 73 13 be a4 16 05 bf
       0.02691631 -0.023891114 -0.14399491 -0.5198767
000130 aa cd 64 bd 68 00 18 bf a0 6f f3 3b 9b 90 08 bf
       -0.0558602 -0.5937562 0.007429078 -0.5334565
000140 7d c2 22 be 0a 0f 14 bf fe 62 02 bd bc be 1b 3e
       -0.15894504 -0.5783545 -0.031832688 0.15209478
000150 46 d8 ed bc a4 7c ad bd 25 67 28 3f c9 0f bf 3d
       -0.029033791 -0.08471039 0.65782386 0.09329183
000160 05 7f 3c bf 6a 17 3f bf 9a 6c af bd b6 6a 22 bf
       -0.73631316 -0.746451 -0.08565636 -0.6344408
000170 5b 26 d2 bd 1e 5b ae be ab 99 84 be 05 98 56 be
       -0.10261222 -0.34053892 -0.2589849 -0.20956428
000180 b2 c2 d1 3c 8a a9 4c 3e 43 c7 0e bf 68 98 f7 3c
       0.025605533 0.19986549 -0.557728 0.03022404
000190 70 93 0a be 55 32 e3 3e 84 bd 50 3f 99 67 b5 be
       -0.13532805 0.44374338 0.8153918 -0.354306
0001a0 f9 e5 18 3e b2 14 39 be 24 96 86 bf c0 74 a7 bc
       0.14931478 -0.18074301 -1.0514569 -0.020441413
0001b0 77 b3 ef bd 7a 1e 9a be 9e 6d c1 bd d4 b2 14 be
       -0.11704152 -0.30101377 -0.09444736 -0.14521343
0001c0 5d 2b 2e bd bb 1b a3 3e e9 45 5b bd ce 34 a9 ba
       -0.042521823 0.31857094 -0.05353347 -0.0012909414
0001d0 db b2 3c bf 3a a7 90 be d7 35 9e bd e8 ba a2 be
       -0.7371041 -0.28252584 -0.07725113 -0.31783223
0001e0 4a 2b 01 3f 49 fc f2 3e ac 21 d6 3d e4 a2 5e 3d
       0.5045668 0.47458103 0.10455641 0.054354563
0001f0 33 ff 88 be 34 e2 ec be 0f 83 ca bd 60 a0 21 3e
       -0.26757202 -0.4626633 -0.09888279 0.15783834
000200 b3 88 09 3c 51 db e6 be d5 58 53 be 98 91 7f 3e
       0.008394408 -0.450892 -0.20639355 0.24957883
000210 bd a0 21 3e 23 26 57 3e 87 d2 ab be ac c6 ca be
       0.15783973 0.21010642 -0.33559057 -0.396047
000220 2b 33 2f be 74 cd c7 3e 7d a0 82 3e 9d 2d 1a bd
       -0.17109363 0.39023936 0.25513068 -0.037641156
000230 2d ea f8 bd 95 eb fa bd cc 9d b9 be 12 71 3a be
       -0.121540405 -0.12251965 -0.36253202 -0.18207195
000240 50 64 9c 3e ff 16 9d be 05 68 bb be bb ac 3a be
       0.30545282 -0.30681607 -0.36602798 -0.18229954
000250 0e d1 bf bd b7 01 95 3e 52 eb 3b 3e f1 44 10 be
       -0.09366046 0.2910287 0.18351486 -0.14088799
000260 21 25 00 bf 5f cc ee 3c 95 4b 8a 3d ed 08 ca 3e
       -0.50056654 0.029150186 0.067526974 0.39459935
000270 3b 36 93 be ff ee 12 3c 91 39 a4 be 12 06 46 bf
       -0.28752312 0.008968114 -0.3207517 -0.7735301
000280 12 5d 8a be 41 76 6b 3e 54 56 0b bf 03 ef a3 be
       -0.27024132 0.22994329 -0.544286 -0.3201829
000290 95 5b d0 bc 72 cf 86 3e c2 71 01 3d 03 96 68 be
       -0.025434295 0.26330143 0.03160263 -0.22713475
0002a0 12 14 7a 3e 5e d8 fc be 8d 7d 19 be ac f2 a7 bc
       0.24421719 -0.49383825 -0.149893 -0.020501457
0002b0 4c e3 07 be e6 28 a1 be e6 14 9f bc 03 d1 71 be
       -0.132703 -0.31476516 -0.019419145 -0.23614888
0002c0 7b e2 fc 3e 08 61 33 3f bd 36 ca 3c 16 ef 16 3f
       0.4939154 0.7006993 0.024684304 0.58958566
0002d0 0b fd 23 3f cf 16 67 3f 00 83 82 3f d0 84 2e 3f
       0.6405799 0.9026918 1.0196228 0.68171406
0002e0 d3 9e eb bd 59 06 8d bd 4e 8b e1 3e b1 c3 00 3f
       -0.11504903 -0.06885976 0.44051594 0.502986
0002f0 9f 70 f7 3e 2d d9 c1 3e 63 55 77 3f 6f 65 f9 3e
       0.4832811 0.37861004 0.96614665 0.487102
000300 30 36 92 3e 6f 36 e6 be af 1a c9 bd 9b 76 3b 3f
       0.28556967 -0.44963405 -0.098195426 0.7322785
000310 c1 43 4f be 7a 59 0e 3f 87 09 ed 3c 65 b6 ad be
       -0.2024069 0.5560528 0.028935207 -0.33928218
000320 fd 14 52 3f ee 31 82 3f fa a5 cd 3e 18 e5 51 3f
       0.82063276 1.0171487 0.40165693 0.81990194
000330 d3 92 43 3f 75 f1 85 3d 28 68 89 be 77 75 3f 3f
       0.7639591 0.06540195 -0.26837277 0.7478861
000340 61 2e 0d 3f d0 49 ed bc c6 bc 0e 3e 1d ac ec 3e
       0.55148894 -0.02896586 0.13939199 0.46225062
000350 af 78 75 3f e6 13 8e 3e 7e 3b 6b 3f 0b c2 0e bc
       0.95887274 0.27749556 0.9188765 -0.008713256
000360 33 02 c5 be 5a f8 ce bd af 38 1e 3f 58 57 ac 3b
       -0.3847824 -0.10105963 0.6180524 0.0052594356
000370 e3 6f 01 be 37 e1 63 3f 41 3f 49 3f 9e 42 4b bc
       -0.12640338 0.89015526 0.7861214 -0.0124060195
000380 3a ac 63 be 84 1c 4e 3f a3 79 9d be 55 02 ba 3e
       -0.22233668 0.8051226 -0.30756864 0.36329904
000390 77 e3 64 3f de dc 42 3f c7 a6 1a 3f 09 24 d9 be
       0.89409584 0.76118267 0.6041073 -0.42410305
0003a0 27 4e db 3d c5 cb d1 be fc ae e6 3d c9 5d 73 be
       0.10708266 -0.40975776 0.11263844 -0.23766245
0003b0 6b 34 0a bf c2 01 d1 3e 2c bb eb be 9f 3f 06 3f
       -0.53986233 0.40821654 -0.46041238 0.5244083
0003c0 c2 54 17 3f 94 4a 85 be 09 5d 8b 3d 65 e5 80 be
       0.59113705 -0.2603346 0.068048544 -0.25175014
0003d0 ad 22 f2 3d d6 8e ca 3c 1b 4a 67 3e 3a f0 92 3f
       0.1182302 0.024726313 0.22586863 1.1479561
0003e0 fe 54 57 3f 4f 6b 48 3f 2c aa 56 3f 4a b5 2b bf
       0.8411406 0.7828874 0.8385341 -0.670735
0003f0 6b 35 51 bf d1 1f 08 3f 3b 73 70 be c0 f1 82 bd
       -0.81722134 0.5317355 -0.23481457 -0.063937664

L4.bias f4 [88]
000000 8a 4f ed be 62 cc 77 bf 37 66 3c bf 0c 45 e3 bf
       -0.46349746 -0.9679624 -0.7359347 -1.7755446
000010 8c c6 1f 3e b5 a0 f9 be c3 0a 2b 3f d8 69 07 3e
       0.15603083 -0.48755422 0.66813296 0.1322397
000020 94 8e f5 3e 62 b7 a7 bf ca 91 81 bf 26 a7 97 be
       0.4796034 -1.3102839 -1.0122616 -0.29619712
000030 97 77 d3 be 68 6e e8 be 1b 09 3d bf 1a 83 54 bf
       -0.41302177 -0.45396733 -0.7384202 -0.83012545
000040 e2 a9 17 bf 21 e3 7e bf da 12 8d bf ba 73 8a bf
       -0.59243596 -0.9956532 -1.1021378 -1.0816567
000050 e3 52 28 bf cf 40 38 bf f2 c2 b2 bf 6a ee 88 3c
       -0.65751475 -0.7197389 -1.3965743 0.016715247
000060 72 de a5 bf 7a c3 34 bf 22 69 7b 3f 3c 4c 8d bf
       -1.295851 -0.70610774 0.98207295 -1.103889
000070 6b 91 65 be 18 f1 62 bf e1 b3 cf 3d d0 69 e1 be
       -0.22418754 -0.8864913 0.10141731 -0.4402604
000080 57 64 3f bf 0c c4 dc bf 6e 1c b3 bf 98 23 37 3e
       -0.7476248 -1.7247329 -1.3993051 0.17884672
000090 b4 f6 70 bd 4c 58 93 bf 7e 58 99 bf 4f 6b b5 bf
       -0.058829024 -1.1511321 -1.1980131 -1.4173373
0000a0 94 85 96 bf 5d 44 21 bf b2 2c 98 bf 31 eb ee bf
       -1.1759515 -0.6299494 -1.188864 -1.8665525
0000b0 31 64 0f 3f bf 81 50 be 89 5e a7 bf 25 22 ab bf
       0.56012255 -0.20361994 -1.3075725 -1.3369795
0000c0 2d f7 c1 3e 58 d2 c5 3f 85 e6 98 bf 83 55 15 3e
       0.37883893 1.5454817 -1.1945349 0.14583401
0000d0 95 cc 80 3e 17 3f 5a bf 77 4b 62 bf 4a 20 87 bf
       0.25156084 -0.8525252 -0.883964 -1.0556729
0000e0 b9 74 b7 bf 24 f2 2a bf 64 f9 1e 3f 4e 1f 9e 3f
       -1.4332496 -0.6677573 0.6209929 1.2353303
0000f0 51 ec 56 bf d5 49 f6 3e d8 93 92 bb 59 93 b0 bf
       -0.8395434 0.48103204 -0.0044731908 -1.3794967
000100 6b b4 af bf 2f 1f 9a bf 92 54 9e bf a8 87 a3 be
       -1.3726934 -1.2040766 -1.2369559 -0.31939435
000110 d6 f4 80 bf ff b8 98 bf 0e dd 56 bf 16 37 75 bf
       -1.0074718 -1.1931456 -0.8393105 -0.9578718
000120 27 a9 34 bf 13 3e 7b bf 36 de 52 bf 04 3d c6 bf
       -0.70570606 -0.9814159 -0.82370317 -1.548737
000130 15 e9 97 bf 8f ab ca be b2 fe 32 bf 15 6c 85 bf
       -1.1868006 -0.39584014 -0.69919884 -1.0423609
000140 dc 5f c1 bf cc e3 cc be 10 c7 be bf 5e 4e 70 bf
       -1.5107379 -0.40017545 -1.4904499 -0.9386958
000150 83 11 41 bf 3b 6e bb 3f ad 4b 5f bf 52 39 16 bf
       -0.75417346 1.4643015 -0.8722485 -0.58681214

L5.weight f4 [44, 88]
000000 42 b0 75 bd 26 87 61 be b8 c2 f8 be 08 f6 06 3f
       -0.059982546 -0.22024211 -0.4858606 0.52719164
000010 70 77 0b bf 4f da c3 be 6c 0e f2 be 5f 5c 57 bf
       -0.5447912 -0.38252494 -0.47276628 -0.8412532
000020 1f d4 08 bf c7 92 21 bd 82 d1 0a bf fa d0 19 bf
       -0.5344867 -0.03944662 -0.54225934 -0.600845
000030 50 33 4a bf 1a a9 14 3f 2a 87 33 3e 42 23 7e 3f
       -0.78984547 0.5807053 0.1753203 0.9927255
000040 1b ed 36 3f 42 b7 3d 3f 62 78 73 3f b7 54 73 3f
       0.71455544 0.74107754 0.95105565 0.9505114
000050 a9 43 ec 3e ac 44 9f 3e e6 96 f4 3e bb 42 5b be
       0.4614537 0.3110708 0.47771376 -0.21412174
000060 0e 16 b4 3e 36 82 42 3f 9a d6 84 3d fb a0 8f 3f
       0.35173076 0.75979936 0.064862445 1.1221002
000070 a1 cd 40 bf 16 72 94 3e b1 e6 bf bf f1 60 34 bd
       -0.75313765 0.2899329 -1.4992276 -0.044037763
000080 3b b7 34 bf f7 8d ca 3d 15 a6 1b bd ba b2 49 bf
       -0.7059209 0.09890359 -0.038000185 -0.7878834
000090 f1 11 43 bc 07 b7 bc 3f a3 f0 73 3f e7 7e 5a be
       -0.011906133 1.4743356 0.9528906 -0.21337472
0000a0 ce e0 9b 3f 19 60 2b bf 0e 8d ab 3d a7 54 1c 3e
       1.217798 -0.6694351 0.083765134 0.15266667
0000b0 19 5b 16 bf 34 c7 de be 3d 09 a6 3d bd 51 62 3f
       -0.58732754 -0.43511355 0.08107231 0.8840597
0000c0 0b 3e 19 bf 35 b8 be be a7 c2 dc 3e c7 7e c9 be
       -0.59860295 -0.37249914 0.43117258 -0.39354536
0000d0 9f de 4b 3d 16 22 20 3f 7f a8 99 3d 41 0c cc 3e
       0.049772855 0.6255201 0.07502841 0.398531
0000e0 3b 1c 53 3f 3a 08 51 3e df 60 3d bf 6c 80 09 bf
       0.8246495 0.20413294 -0.7397594 -0.5371158
0000f0 95 26 68 3f 96 91 45 bf 0f fb 7d be 03 6c 75 3e
       0.9068387 -0.7717527 -0.24802803 0.23966984
000100 4c 5d 8d bd 91 6a e3 3f 9e 6e 8a bd b0 d3 75 3e
       -0.069025606 1.7766896 -0.0675938 0.24006534
000110 22 00 da bd 9b 10 1c 3d 9d d1 68 3e 5c 8e e0 bd
       -0.106445566 0.038101774 0.22736211 -0.10964653
000120 95 d0 81 3d 9c cd c3 bc 5c 71 b2 3b 66 8c 90 bd
       0.06338612 -0.023901753 0.0054456424 -0.07058029
000130 22 7f 7a 3e 8d 1f 1f 3f 2a c3 9c be 38 dd 53 3e
       0.2446256 0.6215752 -0.30617648 0.20689857
000140 10 d1 d8 3f 88 8a 7c be 83 96 96 3f ef 92 9b 3f
       1.6938801 -0.2466222 1.1764683 1.2154216
000150 04 51 10 3f 2b db 16 be 39 f1 84 3e 58 fc 65 3b
       0.5637362 -0.14732043 0.25965288 0.0035093036
000160 19 37 5d be 76 85 ee 3e 97 85 8a bf 54 a9 4d bf
       -0.2160305 0.46586198 -1.0822018 -0.803365
000170 e6 1e bb bd 40 ad 1c be ab 69 8d be 02 d6 a3 be
       -0.09136753 -0.15300465 -0.2761968 -0.31999213
000180 f7 17 7e be e8 52 31 3e 81 c9 30 3e eb 53 a3 be
       -0.2481383 0.17316782 0.17264368 -0.31899962
000190 66 60 c9 bc 4f c8 90 be 55 1a a8 3e 82 7c e6 3d
       -0.0245821 -0.28277823 0.3283259 0.11254217
0001a0 92 59 fc 3e 8d f8 a4 3f 70 a6 c9 3e 5c 20 1a 3f
       0.49287087 1.2888352 0.39384794 0.60205626
0001b0 3b 92 e9 3f 5e 6d cb bd 73 ac aa bd a3 28 c0 be
       1.8247751 -0.099329695 -0.08333673 -0.37531003
0001c0 49 89 35 3f 3b cc a3 bb 0a 06 f9 be 61 38 6d 3f
       0.70912606 -0.0049987114 -0.4863742 0.9266415
0001d0 fc e5 87 3d 77 62 d9 3c 50 63 bf bd 83 b5 29 3f
       0.06635663 0.02653621 -0.09345114 0.6629259
0001e0 a3 15 09 bd b6 8c 6c bf ca 3b ca 3e ee 9c aa bd
       -0.0334679 -0.9240221 0.3949874 -0.08330713
0001f0 ae dd 65 bf 7e 0d 62 bf a8 ba 1e 3f 0a 52 81 3e
       -0.8979138 -0.8830184 0.62003565 0.25257903
000200 60 07 bd 3e f7 de 7f bf 60 4a 9a 3e 29 1b 23 3e
       0.3691969 -0.9994959 0.3013487 0.1592833
000210 87 b0 06 be 58 17 67 3d 0e 74 d6 ba 0a 37 29 3f
       -0.13153277 0.056418747 -0.0016361491 0.6609961
000220 75 e9 6f be 8a 09 d0 be 86 d1 d9 3d c7 ba ec be
       -0.234289 -0.40632278 0.106356665 -0.4623625
000230 c2 e0 d4 bd fc 9c a8 3f a0 de 2f bf 4b 3b 6b 3e
       -0.10394432 1.3172908 -0.68699074 0.22971837
000240 ab 39 d3 3e a5 30 0c bf ef 2b 15 bf 79 33 e9 be
       0.41254935 -0.54761726 -0.5827016 -0.45547083
000250 b6 42 f7 3e c6 b7 28 bf 38 86 e2 be 50 c1 27 3f
       0.48293084 -0.65905416 -0.44243026 0.65529346
000260 e2 bf e6 3d a0 ae 11 3f 8c eb 48 3f c9 8f fe 3c
       0.112670675 0.5690708 0.78484416 0.031074421
000270 4c b3 2b 3f 3a 75 bf be 69 0a ba 3d f1 9a 5b 3f
       0.6707046 -0.37394124 0.09084017 0.85783297
000280 23 2b 9f 3f 81 d6 03 3f b6 70 9e be 8e 79 c9 3d
       1.2435039 0.5149918 -0.30945367 0.09837638
000290 c7 0d 46 3f 1f 40 10 bf 5b b2 b8 3e 16 87 2f 3e
       0.7736477 -0.5634784 0.36073574 0.17141375
0002a0 8b 24 7a 3f d1 b0 bd bd 0f 93 18 3f e1 86 87 3f
       0.9771201 -0.09262241 0.59599394 1.0588037
0002b0 4d b5 6f 3e 27 63 1a be 29 4b dc be 81 07 03 bf
       0.23409005 -0.15076886 -0.43026093 -0.51183325
0002c0 90 43 ad 3c 1e a2 dc 3e 2b e3 c0 3d ae 72 d7 be
       0.02115038 0.43092436 0.09418329 -0.4207968
0002d0 a8 e1 7b 3e 9c 66 20 be 0c 88 32 bf 7b 7f 12 bf
       0.245978 -0.15664142 -0.6973884 -0.5722577
0002e0 2b a5 c5 be 31 1f f8 3d 3d 2f f7 3c 37 81 97 be
       -0.38602576 0.12115324 0.030173892 -0.2959077
0002f0 be 25 12 3e ac b8 3e 3f 67 88 fe bd 3b 18 29 3e
       0.1427221 0.74500537 -0.124283604 0.1651315
000300 14 bc 03 3f d8 99 62 3e 62 2a a9 be c1 79 c8 bd
       0.5145886 0.22128999 -0.33040148 -0.09788848
000310 4d f1 8c 3e 61 19 a6 3e 2f 93 28 3f 91 ef 09 be
       0.27527848 0.32441238 0.65849584 -0.13470294
000320 4f c6 1a 3e 76 ce b3 3e 47 ce 10 bf 35 63 46 3f
       0.15114711 0.35118455 -0.56564754 0.7749513
000330 ea af 15 be 2b 19 d2 3e 80 4c b5 bd af 8b 01 3f
       -0.14617887 0.41034827 -0.08852482 0.50603765
000340 2b c0 26 3f a1 d2 c0 3e de 95 b5 3e 10 a5 09 3e
       0.65136975 0.37660697 0.35465902 0.13441873
000350 22 0e db be 08 db 63 3f 6c 69 84 3f 75 47 8d 3f
       -0.4278422 0.8900609 1.0344672 1.1037432
000360 91 d0 f2 be 9b e7 79 3e cb d4 44 3f f2 8a 72 3f
       -0.4742475 0.24404757 0.76887196 0.94743264
000370 18 dd 00 bf 38 b2 2a be 83 cc 51 bf 96 68 83 3e
       -0.5033736 -0.16669548 -0.81952685 0.2566573
000380 b9 7f 85 be f3 00 15 bf da ba 02 40 36 d9 9f be
       -0.26074007 -0.58204573 2.0426545 -0.31220406
000390 32 df 61 be d0 b3 5b 3f 16 f3 3a be 7a 2f 4a 3e
       -0.22057799 0.8582125 -0.18256792 0.19744673
0003a0 67 96 a1 3f be 17 fd 3e 3b b7 ed be 96 ff 55 be
       1.2624024 0.49432176 -0.46428856 -0.2089828
0003b0 ea 70 80 be 30 cc df be c5 d3 1b bf c3 0e 93 3f
       -0.25086147 -0.4371047 -0.6087001 1.148888
0003c0 4d d1 10 be e3 b1 ca 3f 0c 87 30 be ad fe d2 be
       -0.14142342 1.5835537 -0.17239016 -0.41209927
0003d0 53 dc 63 3e f3 c9 ac 3e 50 f2 94 bd 3d a0 40 3e
       0.22252016 0.33747825 -0.0727278 0.18811126
0003e0 d1 8f 65 3e 9e 9c 40 3e f0 64 91 3e a4 35 8b bd
       0.22418143 0.18809745 0.28397322 -0.067973405
0003f0 b1 1d 51 3f 7e bb c7 be a5 20 27 3f 05 f3 43 3f
       0.8168593 -0.39010233 0.65284187 0.76542693

L5.bias f4 [44]
000000 ac 81 b7 bf 43 dc 83 bf 1e 0c dc bf 1b d1 a9 bf
       -1.4336448 -1.0301594 -1.7191198 -1.3266939
000010 ac 6a 6d be 47 7a 64 bf f0 8f 04 c0 bf 2c be bf
       -0.23185223 -0.8924908 -2.0712852 -1.4857405
000020 67 3c 8e bf 85 c4 a7 bf 5c 9b 71 bf 85 01 65 bf
       -1.1112183 -1.3106848 -0.94377685 -0.89455444
000030 26 2c 6c bf f7 76 ab bf 47 bd 84 bf 2e 61 d4 bf
       -0.92254865 -1.339568 -1.0370263 -1.6592157
000040 77 d3 d6 bf 1b a4 aa bf b7 d8 82 bf 23 7d e9 bf
       -1.6783284 -1.3331331 -1.0222386 -1.8241314
000050 6a 71 a8 bf 58 c2 28 bf d5 31 85 bf e5 a7 1c bf
       -1.3159611 -0.65921545 -1.0405833 -0.61193687
000060 16 5d a7 bf 88 4a 8f bf 1d 11 81 bf 57 ae 06 c0
       -1.3075283 -1.119462 -1.0083348 -2.1043909
000070 0e be 7a bf f6 d8 9a bf 18 60 96 bf f7 e0 c4 bf
       -0.9794625 -1.2097461 -1.1748075 -1.5381154
000080 3c 30 7e bf 2a ad e5 bf 52 3b 02 c0 77 35 64 bf
       -0.9929235 -1.794347 -2.0348706 -0.8914408
000090 e8 ab 88 bf fd 0e c9 bf 4c 06 9d bf 4d 8f a3 bf
       -1.0677462 -1.5707699 -1.2267547 -1.2778107
0000a0 21 04 b8 bf bc e5 e7 be 76 81 f5 be 10 36 8b bf
       -1.437626 -0.4529246 -0.47950333 -1.0875874

L6.weight f4 [1, 44]
000000 fb 25 45 3d cc 16 4a 3d 8b e2 3f 3e c3 e4 12 bd
       0.048131924 0.049338147 0.18738763 -0.035862695
000010 21 93 a0 3c 10 aa 73 3e 8b 8b a8 3d 78 27 29 bc
       0.019601407 0.23795342 0.08229741 -0.0103243515
000020 41 bb bb bd fa 95 a7 3c 12 c6 66 3d 43 6f b8 bd
       -0.09166575 0.020457257 0.05634124 -0.090055965
000030 20 6a 58 3c d5 e7 0a bd 64 a8 c9 bd e3 2a d0 3d
       0.013208896 -0.0339125 -0.09846571 0.1016443
000040 25 13 cc 3c 5c 62 22 3d a6 cb b2 bc 48 a6 46 bd
       0.024911473 0.039644584 -0.021825623 -0.048498422
000050 16 48 c6 bd 2c 91 3a 3c da f1 e0 bb 12 41 65 be
       -0.09681718 0.011387151 -0.0068647685 -0.22388104
000060 3d 95 11 be 9c 0d 9a be 88 53 e6 3d a3 99 75 be
       -0.14217086 -0.30088508 0.11246401 -0.23984389
000070 d1 c6 95 3d 4c d0 c0 3b 07 64 38 3e 92 6c 66 3c
       0.07313312 0.005884206 0.18006907 0.014063971
000080 e9 5b 74 3d f1 71 2c 3c bb 19 a4 3d 1e c7 e6 b9
       0.059657965 0.010525213 0.0801272 -0.00044017372
000090 0e 1b 77 bd 3f bb 08 3e 40 74 7c 3e bc 65 7d 3e
       -0.060328536 0.13352679 0.24653721 0.2474584
0000a0 ba 25 c5 3d 65 26 68 3d 6a 67 f3 bc f1 3c d2 bd
       0.096263364 0.05667724 -0.029712398 -0.1026553
