Saved_Models_All_Features/target_Hardness_features_22_epochs_51.pth (torch_old, 162565 bytes, 11 tensors)

L1.weight f4 [44, 22]
00000000: 2477 27bf 8c2f bcbd a3c1 cf3f 077c 84be
00000010: d4c1 923e 2abb b9bd c844 c6be bfa1 683f
00000020: 7ad3 b73e 8f92 47be 64b6 b13e be82 353f
00000030: 8c46 1d3f 094c 69bc 3e5f 1ebf c079 debd
00000040: 31ab 86be d481 34bf 8fc2 773e 48f8 a4bd
00000050: eab1 9abd 925e 92be 39af 903e 4c76 4c3e
00000060: d666 913e aeb1 443e 5b2f d3bd 2ffe 7c3e
00000070: 0c60 ed3d 08b9 b33e 2042 8a3e c75d e63b
00000080: 795c 743d 565d 313e be36 7ebe 908c 18be
00000090: 0ce5 e33d 50b6 113e 2a26 ba3e 69ad 2dbe
000000a0: 5873 48be 4296 b13d 7464 9abb 4732 db3e
000000b0: fa11 b93e 2bbd 363f e1f4 cdbe 4103 233e
000000c0: 9360 de3e ccb0 71be dc16 933e 86d4 153f
000000d0: f7a5 2e3e b130 83be b831 163f 4dd5 9b3e
000000e0: 1fbf d13e c148 7d3e 73f7 0a3f 437d 4f3f
000000f0: 1b14 2a3f 98f7 2bbf 0c5d 10be 6686 b8be
00000100: d8cd f6bd 7727 61be 13e1 6ebf 82f6 0cbe
00000110: 2851 703f 8c59 b1bd 30a0 3fbf 9266 3dbf
00000120: 8019 e63e 2f07 543f c843 49bf 0349 acbe
00000130: 8910 ef3e 2615 e23e cb34 533e 67da 06be
00000140: eb55 86be 0439 d3be 36ee 1dbf 4c7d 2e3f
00000150: b63f a93e 3572 08be cd41 0f3e a872 bfbd
00000160: 44f9 a0be 9e58 043f f7a5 163f 21e7 813d
00000170: 1677 76bf ace4 e1be 413b bc3e e34f 5b3f
00000180: a547 e03e 4003 d3be 0e00 2dbd ab3c e8be
00000190: d0bb 72bf f599 093d a315 b63e faa6 a1be
000001a0: 187c 52bf 7192 49be 07ef 013f 3e17 ec3d
000001b0: 3625 503f 2ee5 bf3e d6a0 033e fa2f 6d3f
000001c0: 2ec9 623e 7c4e af3d dd6e 103e 6dcf 3f3f
000001d0: 0e7f 16bd 72f0 843f fbcf 6d3f 839f 2c3f
000001e0: 8105 cdbe 85a5 13be cebf 1abf 26bb c43e
000001f0: ca46 ee3e 05b9 233f 82a3 583f 8535 0a3e
00000200: ea60 d23d 9e43 01bf ebcb d73e 6553 953e
00000210: 1536 363f 66ef 7b3d 7164 263f 6e2a 8fbd
00000220: 3c39 bbbd f867 10bc 67e6 47be 823d 943d
00000230: 5f36 1d3f 2a65 3c3f f395 473f 7827 3c3f
00000240: a9b6 2b3f b1e3 483f 732b 963d 0d1c 0d3f
00000250: d6b1 163f 4bc8 9cbe 746e 0f3b 6b75 82be
00000260: 67d0 b4bb 753e 8cbe 1c10 8d3e 2ea4 303f
00000270: 3219 5b3f 9ae6 58be eec2 1dbd 3d97 353f
00000280: e57a 93be c5ca eb3e a193 313f 841b 093f
00000290: 77b0 503e 1aac 0e3f 30a4 b93d e08f fb3e
000002a0: 3cf6 863e 5d05 f73e 9973 4f3f 37c9 0abe
000002b0: a7d9 3ebb 3cdd 8fbe d3fa 22bd 1048 78b9
000002c0: 5359 36be e7af 393e a064 b43e 2e60 9bbd
000002d0: 5bb3 9a3e 974e ce3e b1a7 263d e13e e03e
000002e0: 1e3f b93e b010 ae3e 9f7d ad3e b860 f23c
000002f0: 51b4 d83d 2590 b73d 4cc0 2e3d a386 da3e
00000300: 8cf4 693e 7a24 91be 091b 0b3f 9341 893e
00000310: 0f9b 753d d6ba 9e3e af67 00be 353f 703e
00000320: 9827 c13d 00cd c0bd 010f 643e 7bd8 643e
00000330: c452 323e 324a 3f3e 1c49 75be dc30 b23d
00000340: 2dde 013e 3548 093f ce9b ddbd a21d dc3e
00000350: 4a69 2e3d 8f77 283f 8615 9cbd b3ce b3be
00000360: deb7 b53e e769 4dbd ebcb 78bd fb34 c63d
00000370: 07a5 683f ed57 ffbd 1d07 5c3e e793 f7bd
00000380: 1f29 c1bd c607 dabe a4e1 d5bd 4f37 e3be
00000390: 52ac 223e 1ed6 e73d 8c9e 9c3e 4a73 9b3e
000003a0: 4a30 073e 9fd2 8fbf 19d2 873f d0a8 023f
000003b0: 1be7 0c3d e236 66bd e4f8 bcbe b903 e13e
000003c0: 4d5c 093f dadb b7bd f907 883e c246 5c3e
000003d0: 151e 233d a6f6 8f3f 5f9d bc3e 19d1 7d3e
000003e0: 5377 283e 6972 f93e 59f2 493e f956 cd3e
000003f0: bbf4 0bbd d110 fbbd e3cc 9abc a7c2 b53e
-0.6541617 -0.09188756 1.6230968 -0.25875875 0.28663504 -0.09068902 -0.3872435 0.90871805
0.3590353 -0.19489501 0.34709466 0.7090262 0.6143577 -0.01423932 -0.6186408 -0.10863066
-0.26302484 -0.705106 0.24195312 -0.080551684 -0.07553466 -0.28587776 0.28258684 0.19967002
0.2839877 0.19208404 -0.10311767 0.24706338 0.11590585 0.35102105 0.27003574 0.007030222
0.0596585 0.17320761 -0.2482557 -0.1489737 0.111276716 0.14229703 0.36357242 -0.16960682
-0.1957525 0.086712375 -0.004711682 0.42811796 0.36146528 0.713824 -0.4022589 0.1591921
0.43433055 -0.23602599 0.28728378 0.5852741 0.17055498 -0.25623086 0.58669615 0.30436173
0.40966126 0.24734785 0.5428383 0.8105051 0.6643693 -0.67174673 -0.14097995 -0.36040038
-0.1205098 -0.21987711 -0.93312186 -0.1376591 0.93873835 -0.08659658 -0.748538 -0.73984635
0.4494133 0.8282346 -0.7861905 -0.33649454 0.46692303 0.4415676 0.20625608 -0.13169251
-0.26237425 -0.41254437 -0.61691606 0.6815994 0.3305642 -0.13324817 0.13989945 -0.09348041
-0.31440175 0.5169772 0.5884699 0.063429125 -0.9627546 -0.44119775 0.36763957 0.8566877
0.4380466 -0.41213417 -0.04223638 -0.45358786 -0.9481783 0.03359409 0.35563383 -0.31572706
-0.822206 -0.19684769 0.5075535 0.115278706 0.8130678 0.37479538 0.12854323 0.9265133
0.22147056 0.085598916 0.14104791 0.7492588 -0.036742263 1.0385878 0.9289548 0.67430896
-0.40043262 -0.1441861 -0.6044892 0.38424033 0.46538383 0.6395419 0.84624493 0.13496979
0.10272391 -0.504938 0.42147765 0.29165187 0.7117627 0.061507605 0.6499701 -0.06990515
-0.09141776 -0.008813851 -0.19521485 0.07238294 0.6141109 0.73591864 0.7796318 0.73497725
0.6707559 0.7847243 0.07332506 0.5512093 0.58865106 -0.3062156 0.0021885904 -0.25480208
-0.0055180076 -0.273914 0.27551353 0.6900052 0.8558532 -0.21181718 -0.038515978 0.70933896
-0.288047 0.46053138 0.6936589 0.5355761 0.20379816 0.55731356 0.090645194 0.49133205
0.26359737 0.4824628 0.81035763 -0.1355332 -0.002912143 -0.28098476 -0.039789986 -0.00023677968
-0.17807512 0.18133508 0.3523302 -0.07586704 0.30214962 0.40294334 0.040687267 0.43797973
0.36180967 0.33997107 0.33884904 0.029587135 0.105812676 0.0896304 0.042663857 0.42680845
0.22847193 -0.28348142 0.5433813 0.26807842 0.05996233 0.3100192 -0.12539552 0.23461612
0.0943138 -0.09414101 0.22271349 0.22348206 0.17414385 0.18680647 -0.2395367 0.087007254
0.1268241 0.53625804 -0.10820733 0.42991358 0.04258088 0.6580743 -0.07621293 -0.35118636
0.35491842 -0.050149824 -0.060741346 0.09678074 0.9087681 -0.124679424 0.21487089 -0.12088757
-0.09431671 -0.42584056 -0.10443428 -0.44378135 0.15886047 0.113201365 0.30589712 0.30361396
0.13202015 -1.1236151 1.0610992 0.5103884 0.034400087 -0.056204684 -0.36908638 0.43948153
0.53656465 -0.0897748 0.26568583 0.21511367 0.03982361 1.1247146 0.36838815 0.24786796
0.16451769 0.487201 0.19721355 0.40105417 -0.03416894 -0.12259067 -0.018896526 0.3550007

L1.bias f4 [44]
00000000: 8f5e bdbf fbed a0bf c93d b7bf 31b3 69bf
00000010: ee55 90bf 1df0 04c0 c6d6 dabf df35 0ac0
00000020: c4d0 e3bf f22a cdbf 840e 94bf 6cbd 0bc0
00000030: e230 78bf 28c7 0fc0 2ab7 efbf faea 13bf
00000040: f29f d3bf 4351 f13d 50bc c0bf 63ac efbf
00000050: 6d29 93bf 49a2 14c0 8dbe a0bf 73ae 8abf
00000060: 517a bdbf 9222 8cbf 12b2 a6bf b790 ccbf
00000070: d49b fabf 4933 dcbf 56ed 02c0 0f42 d9bf
00000080: 48ae e2be 38cf a7bf e2c9 9bbf 9133 0ec0
00000090: f02d a3bf 8004 b2bf 169d 6dbf 65bd 81bf
000000a0: b605 01c0 9682 1ec0 8702 1ec0 c2d8 fbbe
-1.4794482 -1.2572626 -1.431573 -0.9128905 -1.1276224 -2.0771554 -1.7096794 -2.159538
-1.7798085 -1.6028731 -1.156693 -2.1834364 -0.9694959 -2.2465305 -1.8727772 -0.5778042
-1.6533186 0.117830776 -1.5057468 -1.8724483 -1.1497017 -2.322405 -1.2558151 -1.0834488
-1.4802953 -1.094805 -1.3023093 -1.5981663 -1.9578805 -1.7203151 -2.0457358 -1.6973284
-0.4427359 -1.3110113 -1.2170985 -2.2218974 -1.2748394 -1.3907623 -0.9281782 -1.0135924
-2.0159736 -2.4767203 -2.4689043 -0.4918881

L2.weight f4 [88, 44]
00000000: af97 0b3e 799e 883f e8c4 5b3e 3a6e ddbd
00000010: 33db 283f fd4d bebe 0ab6 c3be b3c8 803e
00000020: 48fe abbc b50a 5f3c b6f5 823e 6d08 483e
00000030: 9440 61bf c98d 10bf 1b78 b2bd 249a 05be
00000040: 9a64 bebe d26b a5be 8414 403f 918b bc3e
00000050: c4d6 c23d a801 9dbe dac8 0b3e 7a1e c9be
00000060: a337 aa3e ed65 96bd a14d 4b3e 920e e13c
00000070: 6da3 4bbe 5330 423f 4659 c0be b6c2 69bd
00000080: 0249 5cbe 725b af3e a419 5b3f b80f 0cbf
00000090: 5a90 0e3c 889d 5b3f 92b6 a03d 7616 bebe
000000a0: 352b 7fbe fe70 d4bd 0fe1 543e 78dd 85be
000000b0: c191 c8be 49c9 cdbe 5a40 91be cd15 0f3e
000000c0: a0c8 8a3e 8eaf 2b3f 9d62 23be e161 3c3f
000000d0: aa44 3c3e 8f1a 84be c610 67ba f3ac 5b3d
000000e0: 5d95 fa3f 7d02 ab3e f8a3 ea3e 52c6 2ebe
000000f0: d556 c5be 0be2 013f 91da 0f3f 2f74 a63e
00000100: 2c62 2abf a223 59bf 8d29 48bf b0ad b73c
00000110: 58e5 4d3f 8530 61bf a6eb 10bf 75c0 43bd
00000120: d76d 0cbf 5ba7 243f e056 77bd e03d 12bf
00000130: 04ba a3be 07e8 16bf 044c 4c3e 763a c4bd
00000140: 116e ff3e bfba 03bf b70c b73e 9d7d 00bf
00000150: 314d 98be a9d4 01bf be8a ae3e 0aed bdbe
00000160: f71a b5bf f141 493e 73da 17bf 6c5f 0abf
00000170: 5f1e 8cbf 0a57 36bf 5d5a 6dbf 7b2e a33c
00000180: 8463 003d 72c2 6abd f0a5 07bf aeac 473e
00000190: af8d f0be deaf 6abe 3527 6d3d a2a9 fb3e
000001a0: fd56 2c3d 2447 36bf b3f1 e4be 39fd 73bd
000001b0: 5c2d 4f3e cf43 7e3d 5dcb 43bf 0423 9fbf
000001c0: 2e86 6ebe 54a6 a0be d289 c3be cc96 593e
000001d0: 673a b9bd 4c78 8dbe d27d 763e 6e29 a4bd
000001e0: a0fd b2bd 2427 d7bf 53f6 ce3e 7d62 b5be
000001f0: de6f a53e b437 833d 9d3e 9fbe b1b2 bdbd
00000200: 74d9 f2be bea4 193f 9949 cdbe a1bd cdbe
00000210: 2cdc 8abe eb01 133f 87ed 12bf e047 33bc
00000220: cdf9 243d 28f8 12bf 15cb 12bf f3ae 4cbd
00000230: d529 fbbd 89bd 09be 32b9 febe a76f 653f
00000240: fdca 50bd e1a1 dabc 26d9 18be ed54 1fbf
00000250: d5d0 47bd 5dac 8cbe 554d 4d3f 6b55 e7be
00000260: 641f 29bf 8201 50be f88b 89be c960 b8bd
00000270: 555f 053f d053 173f 2ad1 1abd 0575 09bf
00000280: 26e4 debc fb9f 043e 4e66 2bbf ecfd 043e
00000290: d343 0bbd ab44 2bbf a3d5 06bf 612f e0be
000002a0: 5088 2abe 1415 d3be 9922 b93e 9d11 d03d
000002b0: 37d4 733e 3895 983e 3d32 f3bd a976 a3be
000002c0: fde1 cc3e 6e35 b3be 6c6e 2fbd fc3a 3f3f
000002d0: 4522 edbe 3469 e7bd dc69 b5be 3c8f 34bf
000002e0: 9bbe 0d3f 9fa8 db3d 1370 ddbe 5237 92be
000002f0: ce05 2ebf 0d5f 64be 0017 24be a268 a9bd
00000300: ff21 1f3f 9f74 02bf 6b69 63be b761 8abe
00000310: dd04 a2bf 25ee d1be f4cc 1a3f 191d 463e
00000320: 4a9d 953f 765c 30bd 423a a9be 9eeb 0fbf
00000330: 1396 ad3e 615f bdbf 0501 693d bbe3 ca3e
00000340: 9699 3a3f 9696 15bf d467 df3e e4ab 80be
00000350: 1613 26bf 8504 d13e 1d78 aebe 8b66 afbd
00000360: ff7f 21be b2b8 b1be 1535 46bf e5ab 91be
00000370: 0d2b 2fbf ceff b5be 8d77 cabe 0073 27bf
00000380: a880 b6be c740 18be cbc5 2ebe 924e f3be
00000390: 15ec 7fbe a7b5 d1be 5689 13be 2e5e 633e
000003a0: 577b d8be d4b7 babe 3046 813e 5ece 5fbf
000003b0: b183 23bf 4c95 19be f06f 093f 0d31 583f
000003c0: e424 23bf 3f20 f5be dd55 a5bf e861 2a3d
000003d0: 67f0 65bf 5f52 d43e a870 e8be c19a 58be
000003e0: c8a1 5cbe 27c8 c5be d544 0ebf 4904 9cbe
000003f0: 0461 86bf 2116 7dbe dc7a 30bf 4681 f93c
0.13632081 1.0673362 0.21461833 -0.1081204 0.6595947 -0.37168875 -0.38224822 0.2515312
-0.020995274 0.013613393 0.25578088 0.19534464 -0.87989163 -0.56466347 -0.087143146 -0.13047081
-0.37186128 -0.32308823 0.75031304 0.3682523 0.095136195 -0.30665326 0.13650838 -0.39281064
0.33245572 -0.073436595 0.19853832 0.027472768 -0.1988656 0.75854987 -0.3756811 -0.057070456
-0.21512225 0.34249455 0.85586 -0.54711485 0.008701408 0.8578725 0.078473225 -0.3712651
-0.24918826 -0.10373114 0.20788978 -0.2614553 -0.391737 -0.4019263 -0.2836941 0.1397316
0.2710619 0.6706475 -0.15955587 0.7358685 0.18385568 -0.25801513 -0.000881445 0.053631734
1.9576832 0.33400336 0.45828223 -0.1706784 -0.3854281 0.5073554 0.5619288 0.32510516
-0.6655605 -0.84819996 -0.781884 0.022421688 0.80428076 -0.8796466 -0.5660957 -0.047790963
-0.548551 0.64317864 -0.060385585 -0.57125664 -0.31977856 -0.58947796 0.19950873 -0.09581463
0.49888662 -0.51456827 0.35751888 -0.5019167 -0.29746392 -0.5071512 0.34090227 -0.3709491
-1.4148854 0.19654061 -0.593177 -0.5405185 -1.0946769 -0.7122656 -0.9271601 0.019919625
0.031344905 -0.057314344 -0.52987576 0.19499466 -0.46983096 -0.2291865 0.05789872 0.49152857
0.042075146 -0.712023 -0.44715652 -0.059567664 0.20232147 0.062076386 -0.7648218 -1.2432561
-0.23293373 -0.31376898 -0.38191086 0.2124893 -0.090443425 -0.27630842 0.24071434 -0.080157146
-0.087397814 -1.680882 0.40422305 -0.35426703 0.3231191 0.06407109 -0.31102458 -0.09262598
-0.4743153 0.60017 -0.40095213 -0.40183738 -0.27121103 0.574248 -0.5739369 -0.010942429
0.04027729 -0.57409906 -0.5734113 -0.049971532 -0.12263838 -0.13451208 -0.49750668 0.8962349
-0.050974835 -0.026688518 -0.14926586 -0.6223896 -0.048783142 -0.27475253 0.80196124 -0.45182356
-0.66063523 -0.20313075 -0.268646 -0.09002835 0.5209859 0.5911226 -0.03779713 -0.5369418
-0.027208399 0.12951653 -0.6695298 0.12987489 -0.03400023 -0.66901654 -0.52669734 -0.43786147
-0.16653562 -0.4122702 0.36159208 0.101596095 0.23811422 0.29801345 -0.118748166 -0.31926468
0.40016165 -0.350017 -0.042829916 0.7469938 -0.46315208 -0.11299363 -0.35432327 -0.7053106
0.55368966 0.10725521 -0.43249568 -0.2855783 -0.6797761 -0.22301884 -0.16024399 -0.0827191
0.6216125 -0.509592 -0.22208183 -0.27027676 -1.2657734 -0.41002002 0.60468984 0.19347037
1.1688626 -0.043056928 -0.3305226 -0.562189 0.3390356 -1.4794732 0.056885738 0.3962687
0.72890604 -0.584329 0.43633902 -0.25131142 -0.6487287 0.4082376 -0.34076014 -0.085644804
-0.15771483 -0.34711224 -0.77424747 -0.28451458 -0.68425065 -0.35546726 -0.39544335 -0.6540985
-0.35645032 -0.1486846 -0.1706764 -0.47520882 -0.24992402 -0.40958902 -0.14407858 0.22203895
-0.422816 -0.36468375 0.2524886 -0.87424266 -0.6387282 -0.14998358 0.5368643 0.84449846
-0.63728166 -0.47876164 -1.2916828 0.041597277 -0.8981995 0.41469094 -0.4539845 -0.21152784
-0.2154609 -0.38629267 -0.5557378 -0.3047202 -1.0498357 -0.24715473 -0.6893747 0.03045715

L2.bias f4 [88]
00000000: 6154 a2be 217a 62be 6cf7 31bf bfb7 1ebf
00000010: 08f1 153f 466d 67bf ee69 c2bf 2256 5bbf
00000020: 19f5 50bf 6200 30bf d67b 76bf dc95 063e
00000030: 23e6 84bf dffd fbbf 0dc8 91bd 0086 973e
00000040: 7c65 cfbf 3f0e 8abe 2b07 9dbe a6e1 98bf
00000050: 7f29 bcbf c3cf 77bf e207 89bf 1c1d b3bf
00000060: 9ef4 e6bf 5028 13bf e1cf 9bbf c260 90bf
00000070: cef4 a8bd 24e2 93bf a6cf f2bf c9f4 17bf
00000080: bbcb 3abf f414 84bf 55ce 69bf 3d80 8f3e
00000090: 2ff6 a5be d890 ac3e 2993 9fbe f07f dfbe
000000a0: 14f6 c8be 569c a7bf 145d a9bf 4faa 0ebf
000000b0: 7029 68bf 6a40 77bf be67 24be 54e4 d4be
000000c0: e050 8dbf a90b 22bf a409 c93f badc 00c0
000000d0: cbfc 93bf 57f8 86bf 0c91 35bf 1d9e 173e
000000e0: 14c2 04c0 6b5e e7bf 25ed 17bf 04c6 9ebf
000000f0: acfb 5d3f e305 eabe 9ab3 e63e 5e25 63bf
00000100: 6138 1cbf fe97 9c3e 4f04 51bf 0e7c 8ebf
00000110: e110 48be 06fc 28bf 1364 48bf b76c 413f
00000120: d933 733d 7e9d d4bf 5469 4ebf 57ae 94be
00000130: 5a60 39bf 0ed5 493f 6cee 5ebf a345 dabf
00000140: 0caa bc39 81b8 843f db9f a9be 23cb 9cbf
00000150: 5ad0 d3bf ef4d f7bf 7b9d f83e 47b2 88bf
-0.31705 -0.22116901 -0.6951816 -0.61999124 0.5857091 -0.90401113 -1.5188577 -0.85678303
-0.8162399 -0.68750584 -0.9628271 0.13143104 -1.0382732 -1.968685 -0.07118235 0.2959442
-1.6202846 -0.26963994 -0.3066953 -1.1943862 -1.4700164 -0.96801394 -1.0705531 -1.3993258
-1.8043401 -0.57483387 -1.2172815 -1.1279528 -0.08249818 -1.1553388 -1.8969619 -0.5935789
-0.7296712 -1.0318894 -0.9133046 0.28027526 -0.32414386 0.33704257 -0.31166962 -0.43652296
-0.39250243 -1.3094585 -1.323153 -0.5572862 -0.9068823 -0.96582663 -0.160552 -0.4158045
-1.1040306 -0.6329904 1.5706067 -2.013472 -1.1561521 -1.0544537 -0.7092445 0.14806409
-2.0743456 -1.8075689 -0.5934623 -1.240418 0.86712146 -0.45707616 0.450589 -0.8872889
-0.6102353 0.3058471 -0.816472 -1.1131608 -0.19537689 -0.6600956 -0.782777 0.7555651
0.059375618 -1.6610563 -0.8062947 -0.2903926 -0.72412646 0.7884072 -0.8708255 -1.7052501
0.0003598485 1.0368806 -0.33129773 -1.2249492 -1.6547959 -1.9320658 0.48557648 -1.0679406

L3.weight f4 [176, 88]
00000000: 9f18 37bd 4805 5abe 55ce 0d3f 9bb5 e8bd
00000010: 8cfc 0bbf 67fb 8e3f 1a20 933f 333c 803f
00000020: bb65 823f 7abe 263e ac53 e83e feb8 88be
00000030: d12b a33e 273a 283f 4d8e f2be 80c9 27bf
00000040: 9bfb 343f e590 523c 23ed 673f eecf bfbe
00000050: f8bd 873f 3acf 683f 0323 49be 925e a23e
00000060: 734e 933e 283d 713f 19ed d83e e273 123f
00000070: d661 39bf aaf1 d03e 2aeb 093f 4a16 3f3f
00000080: 70e2 e23e 2dfd ff3e c79f 9c3e 1d06 c2be
00000090: 399c 033c 97e5 3abf 21b1 4e3f df80 b4bf
000000a0: a53b e9be ef36 a53e 6929 053f 76f1 353d
000000b0: 7ad7 47be acea 863d b3dc bf3e ba05 9a3e
000000c0: ff1f 19bf 21f1 c53e f2b9 58bf c6f6 463e
000000d0: ab52 08bf c98e 15be 7350 0cbf c0f6 85be
000000e0: b396 8e3f 0166 babe 429e da3e 6dcf db3e
000000f0: 3c95 c3be 9808 213e f33d 79bf 32d4 5d3c
00000100: 58b8 d03f 2e20 86bd 8c46 a3bd d00c fe3d
00000110: a358 093f 2c5a ed3c b617 a73e a19f 00bf
00000120: 6875 ffbd b9d6 be3f 0047 14bf 4565 aebf
00000130: a203 0ebf fe28 90bf 410a a73e 224b 993f
00000140: 1625 ebbe 5e0d 24bf 7055 d4bd d1a7 943f
00000150: 4bb0 143f 4b13 ad3f 4445 19bf 5e54 993d
00000160: 3728 91be fc82 b63c f3d1 113e 7300 2cbe
00000170: 32ba 5bbe ea8a 143f 05c5 593f c8b9 093e
00000180: 429d 233f 220f 8cbe de76 f43e e5fb 00bf
00000190: 3798 43bf eb5b 583f 721c 1bbd 0468 03be
000001a0: 1ba6 1d3f f414 273d 6306 e83d 2728 27bf
000001b0: d8bc c53d 46c9 503f 50a4 553e 607d 0b3f
000001c0: 7c97 583f eaef 8d3f 469b dd3e 9fe0 1b3e
000001d0: 220a 37bf 058e 603f c67b 123e 3c0b 4ebe
000001e0: daaa 573f af2f b03e 53c4 973e fef5 adbe
000001f0: 3db7 d5be 98ff 2bbf f576 a2bd ce25 6abe
00000200: 798e 253e f1f5 853d fa49 4fbe a833 893e
00000210: 355f cebe c5a7 5b3e e3ac f53e f965 e23e
00000220: c3db c43e b1d5 55bd 2abd d4be 7272 293f
00000230: 0d3e efbe 208b f0bd 8aff a43e dd90 99be
00000240: e8ef 213f 5612 053f 988e 873c e9f7 b93e
00000250: 27e1 55bf 1166 513e 7d8d 01bf 7267 55be
00000260: dda4 a63d fc31 32bf 0831 c03e 9aa8 1c3f
00000270: c99c b13e ed28 d63c e3ec 843f 3949 e0be
00000280: d3f7 35bd b96e 613f 3258 453e 39ba 65be
00000290: 744d 913e 37e1 90bf 26c3 263e 8fb9 383f
000002a0: 07aa d13d 54d2 64bf c7f3 33be 4dec 303f
000002b0: f75a 32be 614e 603f a166 83bf ea58 023f
000002c0: 59df 243f a178 723f 3ff7 403e fe59 9dbe
000002d0: d23b 17bf d71e 043f 34d8 3dbf c775 9c3e
000002e0: 41f9 9e3f 274b 09bf 12c3 953d 8da0 1d3f
000002f0: 830d b6be 809f cb3e 34ac 6b3f 4d68 edbe
00000300: 77a0 763f 5416 2cbf 87f2 583e 7cff 92bf
00000310: 6160 4fbe f874 f73e 3c26 d3be 7ba9 683f
00000320: 9f96 ef3e b0e1 103f 6bfb 923f 3fc6 9d3e
00000330: a18e 923e 1610 823f 60aa 263f 5b4e abbf
00000340: 5e72 0dbf c3e7 c53e bb4e 453e 43f4 83be
00000350: 9120 1cbf 5264 58bf 6e80 533d 7ab9 0cbf
00000360: e34a 75be 3bcb b93e 0bca 913e eef6 2d3d
00000370: c9c4 843d 7522 02bf 81be d63e 9538 2fbf
00000380: e925 35bf 4bb6 7fbf 4c81 c9bf cdda 583e
00000390: ba99 123e 07f1 9fbd da9e a5bd 55d7 913e
000003a0: 4bbb b23e 14d2 c6be 9739 0d3f 74b3 a6bc
000003b0: 860d ec3d b8bb 0b3f c103 9dbe 3717 c2bd
000003c0: b54f a23f 938a 0d3f 8bd1 d43e 4ad9 c53e
000003d0: 88dd 163f 1041 89be 6043 16bf c9d6 09bf
000003e0: 201b 013e ec41 bc3f b88d ba3e 134f aabe
000003f0: b613 1e3e d938 36be 1cf6 c53e 0df2 653f
-0.044701215 -0.21291077 0.5539296 -0.113627635 -0.5468223 1.1170472 1.1494172 1.0018371
1.0187296 0.16283599 0.45376337 -0.26703638 0.31869367 0.65713733 -0.47374192 -0.6554184
0.7069642 0.012851928 0.90596217 -0.37463325 1.0604849 0.909412 -0.19642262 0.31712776
0.2877079 0.9423394 0.4236839 0.57208073 -0.7241491 0.40809375 0.53874457 0.74643385
0.44313383 0.49997845 0.3059065 -0.3789529 0.008032852 -0.73006576 0.8073903 -1.4101828
-0.45553318 0.32268474 0.5201631 0.04441973 -0.19515792 0.06587729 0.37473068 0.30082494
-0.5981445 0.3866053 -0.8465873 0.19430074 -0.5325114 -0.1460525 -0.54810256 -0.26164818
1.113974 -0.36405948 0.42698866 0.4293169 -0.38199794 0.15725935 -0.9736015 0.013539361
1.6306257 -0.065491065 -0.0797244 0.124047875 0.53650874 0.028973661 0.32635278 -0.50243574
-0.12473565 1.4909278 -0.5792084 -1.3624655 -0.55474293 -1.126251 0.3262501 1.1976054
-0.45926732 -0.64082897 -0.103678584 1.1613714 0.580815 1.3521513 -0.59871316 0.07486795
-0.28350994 0.022279255 0.14240246 -0.16797046 -0.21457747 0.58024466 0.8506625 0.13449776
0.6391183 -0.27355295 0.47746938 -0.5038436 -0.76404136 0.84515256 -0.037868924 -0.12832648
0.6158158 0.040791467 0.11329343 -0.6529564 0.0965516 0.8155712 0.20863461 0.5448818
0.84606147 1.1088841 0.43282527 0.15222405 -0.71499836 0.87716705 0.14305028 -0.20121473
0.84245074 0.3441138 0.2964197 -0.3397674 -0.41741362 -0.6718688 -0.079328455 -0.22865984
0.1616763 0.0654105 -0.20243064 0.26797223 -0.40307012 0.21450718 0.47983465 0.44218424
0.38448915 -0.052205745 -0.4155057 0.66190255 -0.46727028 -0.11745286 0.3222621 -0.29993334
0.6325669 0.51981103 0.016547486 0.36321953 -0.8354668 0.20449091 -0.5060652 -0.20840243
0.08136914 -0.6960752 0.37537408 0.61194766 0.3468993 0.026142562 1.0384792 -0.43805864
-0.044425797 0.88059574 0.19271925 -0.2243432 0.28379405 -1.131873 0.1628538 0.7215814
0.10237508 -0.89383435 -0.17573462 0.69110566 -0.17417513 0.87619597 -1.0265695 0.5091692
0.644033 0.94715315 0.18844317 -0.3073272 -0.59075654 0.5160956 -0.74158025 0.30558607
1.2419816 -0.536303 0.07312597 0.61573106 -0.35557184 0.39770126 0.92059636 -0.46368638
0.963386 -0.6722157 0.21186267 -1.1484218 -0.2025161 0.48331428 -0.41240108 0.90883607
0.46794602 0.5659437 1.1482977 0.30815312 0.28624442 1.0161159 0.6510372 -1.3383287
-0.55252635 0.38653383 0.19268315 -0.25772294 -0.6098719 -0.84528077 0.051636152 -0.54970515
-0.23954348 0.36287865 0.2847446 0.04247182 0.06482846 -0.5083383 0.41942218 -0.6844571
-0.7076097 -0.9988753 -1.5742583 0.21177216 0.14316455 -0.07809644 -0.08086939 0.28484598
0.34908518 -0.38832152 0.55166 -0.020349242 0.11526017 0.5458331 -0.30666927 -0.09477084
1.2680575 0.5528957 0.4156612 0.3864234 0.5893178 -0.2680745 -0.58696556 -0.5384336
0.12608004 1.4707618 0.36436248 -0.33263454 0.15437207 -0.17795123 0.3866433 0.89822465

L3.bias f4 [176]
00000000: bb7d c8bf 7064 91bf 79c7 98be 3d18 95bf
00000010: 41b9 7ebf c410 8dbf d824 56bd 2b9c b3bf
00000020: 6347 94bf 6a89 c1be fdb6 a0bf 8756 c3bf
00000030: f940 cbbf 15b8 6bbf e463 8cbf fb05 03c0
00000040: 683c e63e e173 52bf 6b90 dabf d152 cdbf
00000050: 593a 67be dc15 77bf 809e 9fbf dc22 3bbf
00000060: acf0 edbf d8bb cebf b46a 13c0 e9ec e5bf
00000070: 2e75 e8bf 425c cabf 96eb cdbe fa66 f9bf
00000080: d486 93bf d9f3 f0be 29fa 02c0 f830 cabf
00000090: 4dbf aebe 18e7 6fbf 910c 08bf ddb5 84bf
000000a0: 25ae 90be 3705 163d 9c70 bebf fb4a 86be
000000b0: 83ad 27bf 8175 77bf 6325 acbf 3c89 70bf
000000c0: 0229 84bf 4a8f 62bf a1bb 8d3d 0c5f a7bf
000000d0: d4ef bdbf 87ce 93bf 8c9c 55bf 2915 d5bf
000000e0: 2cc7 28bd a61b 923f 6377 bfbf 0d8b 32be
000000f0: 4953 b3be d62b c6bf 079b 86bf 88ba b5bf
00000100: 264f a4bf da0d 08bd 21b7 d0bf 127c 6cbf
00000110: b3ff e6bf 22ea e4be 7725 fdbf 38f2 6bbf
00000120: 875d 82bf 6673 04c0 81f6 86bf b119 cf3e
00000130: 286d 70bf 9a71 5bbf 084b 293f fb97 683f
00000140: 685e c2be cd45 593e e0a7 6ebf 568d 8abf
00000150: 4efa 88bf 499d 03bf 1817 d1bf d8a3 01c0
00000160: 6d86 ef3d a099 39be 844c 42bf 8aa2 47bd
00000170: c7c0 d6bf 43b4 26bf 3fea 73bf 5c94 8ebf
00000180: dc7b cebf 948a a0bf 0e49 6b3f 9652 1ac0
00000190: 68b5 d8bd 08ca 87bf 1701 67bf d45e c1bf
000001a0: f026 acbf 1f42 c8bf 493b 69bd b1d3 79bf
000001b0: 4cc1 b9bf 5e4d fc3e 475c b4bf 274c 67bf
000001c0: 22f0 c43e aa48 c3bf df55 a6bf 9c6a 86bf
000001d0: 71d4 87bf fccb fabe 1164 4ebf d02c 9fbf
000001e0: c345 2bbf d904 96bf e33f fdbd 797c d43e
000001f0: b327 acbf 4cb1 acbf 5086 dbbf 9cae 3bbf
00000200: 710f a9bf 6bf7 c4bf 8cef c5bf 8428 c7bf
00000210: 6d21 82bf b970 cabf e2be 28bf e61f a8bf
00000220: f0cc c2bd e04e c8bf 2211 8fbf a4ec cebf
00000230: 2e5c 85bf 80e8 93bf 3856 5cbf bc19 97bf
00000240: 3140 f3bf f763 1fbf 4bb0 7fbf de9c bcbf
00000250: 59f5 8ebf 15fb bebf 8a71 d1bf 2470 a5bf
00000260: 998a 70bf e108 aebf c981 c2bf 962d 2cbf
00000270: 3d89 d4bf f8ef 50bf 11df c3bf dba0 11be
00000280: 7cfc 9dbf e25b a5bf 693b c2bf 8ef5 b0bf
00000290: 9630 a43d 8206 a4bf 8de7 7cbf be08 71bf
000002a0: 3329 bbbf 02a5 2a3e 80b8 a6bf 875e 93bf
000002b0: 00ed b9bf feab d9bf 67b6 77bf 242b 53bf
-1.566337 -1.1358776 -0.29839686 -1.1648022 -0.99501425 -1.1020741 -0.05228123 -1.4032034
-1.1584285 -0.3780015 -1.2555844 -1.5260781 -1.5879203 -0.9207776 -1.0967984 -2.04724
0.4496796 -0.8220807 -1.7075323 -1.6040899 -0.22580852 -0.9651773 -1.2470245 -0.73100066
-1.8589072 -1.6151075 -2.3033876 -1.7962924 -1.816076 -1.5809405 -0.402188 -1.9484551
-1.1525521 -0.4706104 -2.0465186 -1.5796194 -0.34130326 -0.93711996 -0.53144175 -1.0368
-0.28257862 0.036626067 -1.4878116 -0.2622908 -0.6549913 -0.9666367 -1.344891 -0.93959403
-1.0325015 -0.8849989 0.06920553 -1.3075881 -1.4838815 -1.1547402 -0.83441997 -1.6647083
-0.04120557 1.1414688 -1.4958309 -0.17435856 -0.3502448 -1.5482128 -1.051606 -1.419755
-1.2836654 -0.033216335 -1.6305887 -0.92376816 -1.8046783 -0.4470988 -1.9777058 -0.9216647
-1.0184792 -2.0695434 -1.0543977 0.40449288 -0.9391656 -0.8572022 0.66130114 0.90856904
-0.3796265 0.21218033 -0.93224907 -1.0824382 -1.0701387 -0.51411873 -1.6335173 -2.0256252
0.116955616 -0.1812501 -0.75898004 -0.048738994 -1.6777581 -0.6511881 -0.95279306 -1.1139026
-1.6131549 -1.2542291 0.9190835 -2.4112906 -0.105814755 -1.060853 -0.9023604 -1.5107064
-1.3449383 -1.5645179 -0.056941304 -0.9758864 -1.4512115 0.49277776 -1.4090661 -0.90350574
0.38464457 -1.525655 -1.2994956 -1.0501285 -1.0611707 -0.48983753 -0.8062144 -1.2435551
-0.6690332 -1.1720229 -0.12365701 0.41501215 -1.3449615 -1.3491607 -1.7150364 -0.7331331
-1.3207837 -1.5388006 -1.5463729 -1.5559239 -1.0166451 -1.581565 -0.65916264 -1.3134735
-0.09511745 -1.5649071 -1.1177104 -1.6165967 -1.0418756 -1.1555328 -0.8606906 -1.1804729
-1.9003965 -0.6226191 -0.99878377 -1.4735372 -1.1168624 -1.4920374 -1.6362774 -1.2924848
-0.93961483 -1.359646 -1.5195857 -0.6725706 -1.6604382 -0.81616163 -1.530245 -0.14221518
-1.2342677 -1.2918665 -1.517438 -1.3824937 0.080170795 -1.2814486 -0.9879082 -0.94153965
-1.4621948 0.16664508 -1.3025055 -1.1513222 -1.4525452 -1.7005613 -0.967627 -0.824877

L4.weight f4 [88, 176]
00000000: 1960 083e ddbd 063e ffa6 a73c 7de8 c23e
00000010: 36db 10bf d910 263d 7f56 25bd cdca 18be
00000020: 2e7d b7bc 2430 a5be e7da 713e 75eb 993e
00000030: da19 943a 2004 0fbe d5d8 2f3e c0ad adbe
00000040: 9496 fbbc 9dc9 cfbe b4d8 b6be 1ccb 553e
00000050: d2e0 1bbf 7be5 a83e 6713 bfbe 1290 a3bc
00000060: 49c1 1b3e df54 183e eb53 aabc bcf7 7abe
00000070: f56c da3c c15d 53be 153f c6bc 9120 3f3f
00000080: e88f cfbe 2c70 f13d a53e 9fbe 69de 663e
00000090: f1be fd3d 7372 0b3f 1647 e23d 25c1 2dbe
000000a0: acc8 61be dfb0 c2be 6177 673e d1dc c9be
000000b0: c61c 14bf f51e 413e b7ec 513e 3116 22be
000000c0: 481a 043f e051 263e 406a 263e 9d9e 8f3e
000000d0: f8ff 96be a229 c2be 41d9 04be ccdc 9abd
000000e0: 40fd a6be bd9b 75bf 8c9d b33e 2d14 85be
000000f0: f923 ddbc c63a b7be 8632 bcbd 4253 633f
00000100: ded0 183e 7ce5 debe 4f0c 75bd 6970 2ebf
00000110: 2fc6 94bf 8146 243c ce0b 47be 796a 543d
00000120: e115 5f3d 0ee4 1cbc 5c9e ffbd 4443 06bf
00000130: 4064 35bd 4b0b 12bf 773f a1bd 7e3f 06bf
00000140: b770 0ebe 7352 0fbf 49f5 87bc 15b7 363e
00000150: a6c2 2bbc c42d a3bd 2ba6 2d3f f355 f03d
00000160: 5dc0 38bf 0caf 4bbf 1228 56bd 8ebc 24bf
00000170: a490 acbd 5cea a4be ef37 7abe 9a59 49be
00000180: 8c94 463d aa8c 603e 2ed9 11bf 9779 603d
00000190: d89f 00be 1a46 e23e a089 543f 43da a6be
000001a0: 1729 273e e258 1abe 8421 81bf 9fab d2bb
000001b0: 7024 ccbd 6197 9abe f543 97bd fb87 09be
000001c0: 14f5 17bd 1389 a73e 65e0 cabc a3d0 a23a
000001d0: bc15 38bf 58b5 8bbe 85b1 78bd a2c6 98be
000001e0: 8c59 013f f4ae 003f a5ad f83d eb3b 5c3d
000001f0: d869 7dbe 40e0 e5be f902 a7bd a3a9 3c3e
00000200: 62c5 043d ab73 e0be 562a 43be 4206 8f3e
00000210: ea0f 323e 477e 743e 31c0 a2be ab9a babe
00000220: 790e 34be f10c d43e 25c5 8e3e 4d38 8cbc
00000230: 2dc3 d2bd c6e7 ccbd 0c2d acbe 2761 2cbe
00000240: 86da a73e 612b a8be 1ab4 b9be 46ad 2bbe
00000250: 0f12 99bd 695f 9d3e dd00 613e 4683 f2bd
00000260: 2ec9 f1be 3da5 503d bac0 bc3d ebdd cc3e
00000270: 8b2a 87be 0a51 e63c 52df 97be dbaa 45bf
00000280: 26e8 80be 0f8d 7c3e 6532 07bf 3b66 dfbe
00000290: 8811 b4bc fb4d 943e 0943 463d bd86 4fbe
000002a0: f320 8a3e a7d1 17bf eb4d ebbd 3b05 0b3c
000002b0: 5728 e1bd 8b85 99be f6a7 70bc 1857 5bbe
000002c0: 962f ff3e 56ea 2e3f 26e3 713d 31d9 173f
000002d0: 0fc1 243f 3af3 683f f5b7 823f ae8a 2e3f
000002e0: ff09 edbd 7536 88bd 46cd e23e 5d63 013f
000002f0: 4f9c f73e e2c6 c43e b8c9 783f a05a f93e
00000300: 6b1c a03e c9a8 c3be a960 c4bd 1380 3c3f
00000310: ae54 4fbe 8b71 173f 9aa5 003d fbd3 aebe
00000320: 1c54 523f c362 833f f7aa cc3e fea7 513f
00000330: ede5 453f 03fb 8e3d dd4a 84be 2fba 403f
00000340: 8dc9 0e3f c285 50bd 0461 113e 8b3a ef3e
00000350: 541c 6d3f 6541 8e3e 0985 6c3f 2121 3c3a
00000360: c961 c6be 55bc dbbd c932 1c3f 4a2e 8c3c
00000370: 90c7 27be efa0 623f 5531 4a3f 1539 8bbc
00000380: 1e53 63be 5157 4f3f 22fe 5bbe 33a6 bc3e
00000390: 9b3b 643f 1560 443f e07d 153f ba1e dabe
000003a0: e288 d13d fc92 cabe 0d49 e33d 4746 4dbe
000003b0: 5499 0abf f87d cf3e 8540 ebbe fead 063f
000003c0: 9f70 173f d1f7 84be f153 163d d44f 81be
000003d0: 0268 df3d 4b22 c33c 11d3 683e d598 933f
000003e0: f7cc 593f 206a 483f dc77 573f 96c6 2abf
000003f0: 075b 51bf 35ef 083f eb65 3fbe 1efd d2bd
0.13317908 0.13158365 0.020465372 0.38068 -0.5658449 0.04054341 -0.040365692 -0.14921112
-0.022398558 -0.3226329 0.23618661 0.30062452 0.0011299208 -0.13966417 0.17172559 -0.33921623
-0.03071145 -0.40583506 -0.35712206 0.20878261 -0.60889924 0.3298758 -0.3731949 -0.019966159
0.15210451 0.14876126 -0.020791968 -0.24508566 0.026663283 -0.20641233 -0.024200002 0.7465907
-0.4053948 0.11788973 -0.3110248 0.2254578 0.12389935 0.5447151 0.11048715 -0.1696821
-0.22049206 -0.38025567 0.22604133 -0.39426282 -0.57856405 0.18859465 0.20500456 -0.15828778
0.516026 0.1624217 0.16251469 0.280507 -0.29492164 -0.37922388 -0.12973501 -0.07561645
-0.3261509 -0.9594076 0.35081136 -0.25991955 -0.026994692 -0.35787028 -0.09189324 0.88798916
0.14923427 -0.43534458 -0.05982619 -0.68140274 -1.1622981 0.010026575 -0.19438097 0.051859353
0.054464225 -0.009575857 -0.124813765 -0.5244639 -0.04428506 -0.5704848 -0.07873433 -0.5244063
-0.13910185 -0.5598518 -0.016596453 0.17843278 -0.0104834195 -0.079677135 0.6783168 0.117351435
-0.72168523 -0.79563975 -0.052284308 -0.6435021 -0.084260255 -0.32210052 -0.244354 -0.19663087
0.04848151 0.21928659 -0.56972015 0.054803457 -0.12560976 0.44194108 0.830225 -0.32588395
0.16324268 -0.15072969 -1.0088353 -0.0064291502 -0.099678874 -0.30193618 -0.07386009 -0.13430779
-0.03709896 0.32721767 -0.024765203 0.0012421798 -0.71908164 -0.27286792 -0.06071617 -0.29839045
0.5052726 0.5026696 0.12142495 0.05376808 -0.24747407 -0.44897652 -0.08154864 0.18424086
0.0324148 -0.43838248 -0.19059119 0.27934462 0.17388883 0.23876296 -0.31787255 -0.36446127
-0.17583646 0.41416124 0.27884784 -0.01711669 -0.10291133 -0.10005145 -0.33628118 -0.16833936
0.32783908 -0.32845595 -0.3627022 -0.16765317 -0.074741475 0.30736855 0.21972986 -0.11841445
-0.472238 0.050938834 0.09216447 0.4001306 -0.26399645 0.028114814 -0.29662567 -0.7721383
-0.25177115 0.24663185 -0.5281127 -0.43632683 -0.021981016 0.28965744 0.048403773 -0.20266242
0.26978263 -0.5930428 -0.11489471 0.008485134 -0.10994022 -0.29984698 -0.0146884825 -0.21419942
0.49840993 0.6832632 0.059054516 0.5931578 0.64357084 0.90996134 1.0212389 0.6818036
-0.11574172 -0.06651012 0.44297236 0.5054224 0.48361441 0.38432986 0.971828 0.48701954
0.3127168 -0.3821471 -0.09588749 0.73632926 -0.20247146 0.5915763 0.03140793 -0.34146103
0.8215959 1.0264515 0.39974186 0.8189696 0.77303964 0.069814704 -0.25838366 0.75284094
0.5577629 -0.05090881 0.14197165 0.46724352 0.9262135 0.27784267 0.92390496 0.00071765675
-0.3874648 -0.10729281 0.6101499 0.017111916 -0.16384721 0.88526815 0.78981525 -0.016994992
-0.22199675 0.8099261 -0.21483663 0.3684555 0.8915345 0.7670911 0.58395195 -0.42601568
0.102311864 -0.39565265 0.11097918 -0.2004634 -0.5414021 0.40525794 -0.45947662 0.5260924
0.5915622 -0.2597032 0.036701147 -0.25256217 0.1090851 0.023820063 0.22736765 1.1531016
0.85078377 0.78286934 0.84167266 -0.6670927 -0.8177952 0.5349 -0.18691222 -0.103021845

L4.bias f4 [88]
00000000: 8094 f7be 42b6 75bf 28a4 3dbf 4532 e4bf
00000010: f12a 1c3e 5487 cabe 8f66 4f3f e406 103e
00000020: 0ba7 fd3e 2855 a7bf 9115 77bf 6005 97be
00000030: 921c e4be e90e e7be d0f6 3bbf 585a 55bf
00000040: 5f02 1bbf 4ba6 84bf c56d 8fbf 4e61 8bbf
00000050: 4963 29bf 2182 31bf 8be0 b2bf 12f5 943d
00000060: b8f6 a5bf 54b9 35bf b015 863f 2a62 91bf
00000070: d0d5 1abe f75b 5dbf 15c5 3c3e df1b e1be
00000080: 8528 43bf d1a3 dcbf 0d70 b3bf 6187 513e
00000090: 227c fcbc f5fc 92bf 2f25 9bbf b9b2 b5bf
000000a0: f202 93bf eb91 1dbf 49d4 98bf 440b efbf
000000b0: 7d5a 273f a25a 51be 4c75 a6bf 5669 abbf
000000c0: 63cd ee3e 84d9 c43f 4869 a1bf 6b9f 123e
000000d0: cc1b 823e ff68 5cbf 9410 59bf 5734 8abf
000000e0: a9e8 b7bf 6234 2abf f194 2d3f b097 9b3f
000000f0: 09c6 55bf f9cf 003f 1c96 1abd 11bd b0bf
00000100: 6212 b2bf ee45 9bbf eadb 9ebf 2cae a0be
00000110: d914 81bf d1f7 98bf 06be 51bf 5ca2 77bf
00000120: 69c1 35bf f479 7abf 086f 53bf cd46 cabf
00000130: 50c2 98bf 7032 c6be ffab 32bf 3050 85bf
00000140: 38ba c1bf 955f c0be 1d36 bfbf beb7 7dbf
00000150: 005d 44bf 19f6 c33f a25c 5fbf 0683 14bf
-0.48355484 -0.9598123 -0.7407861 -1.7827841 0.15250756 -0.39556372 0.81015867 0.14065129
0.49541506 -1.3072863 -0.9651728 -0.29496288 -0.44553047 -0.45128563 -0.7342348 -0.8334098
-0.60550493 -1.0363249 -1.1205374 -1.088907 -0.6616712 -0.69339186 -1.3974775 0.07273306
-1.2965918 -0.70985913 1.0475368 -1.1358082 -0.15120625 -0.8646845 0.18434556 -0.43966576
-0.762337 -1.7237493 -1.401857 0.20461799 -0.03082091 -1.1483446 -1.2120723 -1.4195167
-1.1485274 -0.6155078 -1.1939784 -1.8675313 0.6537245 -0.2044473 -1.3004546 -1.3391521
0.46641073 1.537888 -1.2610254 0.14318626 0.25411832 -0.8609771 -0.8479092 -1.0797223
-1.4367877 -0.6648618 0.6780539 1.2155666 -0.835053 0.5031734 -0.03774081 -1.3807698
-1.391186 -1.2130716 -1.2410862 -0.31382883 -1.0084487 -1.1950628 -0.8193058 -0.96732116
-0.70998245 -0.97842336 -0.82591295 -1.5802857 -1.19343 -0.38710356 -0.69793695 -1.0415096
-1.5134954 -0.37572923 -1.4938389 -0.99108493 -0.76704407 1.5309478 -0.8725072 -0.58012426

L5.weight f4 [44, 88]
00000000: 6804 83bd 0fd2 6abe c48f f8be 911d 163f
00000010: cab6 09bf 3f5a bcbe e0ab eebe fc6e 58bf
00000020: 9824 05bf 980a 1bbd 8e7c 08bf 9357 1dbf
00000030: c56a 4ebf 988a 143f 92a4 343e 6643 7c3f
00000040: b413 393f fda2 3f3f 2238 743f e01b 723f
00000050: e7b3 ed3e 8c6b a93e 1a45 f53e 3794 62be
00000060: 83ab b83e 68b2 433f 9a58 c63d 9009 913f
00000070: 42b6 44bf 3da2 8c3e 5dd2 babf ea40 1abd
00000080: dee7 35bf 31e3 c13d 1fe8 11bd bc4c 4abf
00000090: 4340 bebb 6b4c bb3f e901 743f 4935 7dbe
000000a0: ad8f 9b3f f6a9 2cbf d5ba a73d 1bb7 183e
000000b0: 79bc 18bf 14f7 dabe 2560 bf3d a359 623f
000000c0: cf1e 13bf 4c0c b9be 0dc4 dc3e 4da3 d4be
000000d0: 931d 483d b384 1a3f 2ab4 a13d 6d0e ca3e
000000e0: 3fe2 523f 8b2c 493e ebf2 36bf 9d2b 01bf
000000f0: 0939 693f 4a92 45bf 8254 7bbe d562 603e
00000100: 96b7 87bd 376b e13f f029 9cbd 2f0a 6d3e
00000110: 1793 d9bd 4926 403d 0d2b 683e 6609 07be
00000120: 89be 8a3d 5c6a babc 6fb4 c63b 6f11 b9bd
00000130: 1117 983e 7e1f 1e3f df20 9bbe 64b6 533e
00000140: 9f00 d83f 8b25 8bbe 6212 963f 5be8 9c3f
00000150: 3812 113f e685 06be f136 803e 5b49 70bd
00000160: 09d2 58be 43dd ee3e f737 8abf 94c9 45bf
00000170: 4dbd abbd 4598 10be bae1 8bbe 0a6d a4be
00000180: ba52 76be 9304 343e 7c8e 413e 7e17 adbe
00000190: 0c95 01bd 1e93 aabe b821 a93e 6eda e73d
000001a0: ce6e 013f 5637 aa3f 295c ce3e 12dd 193f
000001b0: 395f ea3f 49b0 acbd 1220 9ebd 2417 c3be
000001c0: 52c3 383f 2e03 313b bb2f f6be a767 733f
000001d0: 17a6 673d 46d4 8b3c 705c 9abc d590 2c3f
000001e0: 5b82 8abc a28b 6dbf b7cb cb3e ad20 adbd
000001f0: fd11 63bf eebd 62bf 706e 253f adc5 793e
00000200: 02c0 cb3e 60ab 7fbf 730c 993e 2894 243e
00000210: 8fa9 12be c2fd 9a3d 6bee 843b 1eab 2f3f
00000220: 726e 68be d466 cebe c0dc db3d 6504 f1be
00000230: 1ce8 d0bd cc4f a03f de24 2ebf 7e66 603e
00000240: ef95 d43e e637 0dbf 0a83 0abf 3c83 ddbe
00000250: f83c f83e 1135 29bf 53bc debe 522c 263f
00000260: fe18 fb3d badd 153f 3dff 4d3f 4d92 f53c
00000270: 0499 2c3f 19f1 bbbe b293 b83d 7b6f 5b3f
00000280: c8b0 9f3f a3e2 093f 6e4c 9ebe 75fa b23d
00000290: 4075 563f 631d 0dbf eda7 ba3e 7d78 2f3e
000002a0: cb60 753f b8e7 0ebe c7fe 143f 4b07 943f
000002b0: 6b5b 853e 9939 10be 07c9 dcbe 0f2b 13bf
000002c0: 507e 4f3d 5ec8 ea3e 00eb cd3d b33d aabe
000002d0: 2989 843e 3cfa 40be 0abd 31bf c093 18bf
000002e0: 0bbe a6be 9944 0a3e f581 0a3c d642 99be
000002f0: 967c f53d 8652 3e3f 25b8 b3bd fa72 2e3e
00000300: 1d4a 0c3f 2bff 873e 554b a2be 4104 a1bd
00000310: d695 9f3e 42b8 c63e b6b0 2c3f eed4 10be
00000320: 6d39 243e 2353 c33e ebaa 0ebf fe07 533f
00000330: 4e1b 2cbe 6384 d13e a4f9 ccbd 0f93 033f
00000340: 19e5 2e3f 3cdd c03e ca68 b73e 2a66 043e
00000350: eb00 d4be 2127 603f 9995 853f 1481 8d3f
00000360: e27f e6be 3d73 7a3e 039a 423f 854c 733f
00000370: 1804 02bf 03f9 e4bd 12c0 4fbf f5ee 923e
00000380: 6f1e 60be d3dc 13bf 7cd2 0040 3ffa 9dbe
00000390: 7dc3 44be a053 593f d679 35be 6acb 4e3e
000003a0: f3df a33f 59ff 033f 1361 d5be b8da 36be
000003b0: 4162 68be e5eb e3be 6846 1bbf c37c 933f
000003c0: 3f79 08be f302 d13f d863 1fbe ff4b d4be
000003d0: 1e0b 743e c830 b53e 7363 a9bd fee3 573e
000003e0: 792d 873e 1db2 713e 7f44 9b3e 2df6 90bd
000003f0: 99fb 5f3f 685b c2be 0c6f 263f 47a0 453f
-0.06397325 -0.22931693 -0.48547184 0.58638865 -0.5379454 -0.36787602 -0.46615505 -0.8454435
-0.5200896 -0.0378519 -0.53315055 -0.6146175 -0.8063167 0.5802398 0.17640904 0.9854034
0.7229569 0.74858075 0.9539815 0.94573784 0.46426317 0.33089864 0.47904283 -0.22126852
0.36068353 0.764441 0.09684868 1.1331043 -0.76840603 0.27467528 -1.4595448 -0.037659563
-0.71056926 0.094671614 -0.03562176 -0.7902334 -0.0058060004 1.4632696 0.95315415 -0.24727358
1.2153221 -0.6744684 0.08189932 0.14913599 -0.59662586 -0.4276663 0.0934451 0.88418025
-0.57468885 -0.36142194 0.43118325 -0.4153084 0.04885633 0.6035873 0.07895692 0.3946413
0.82376474 0.19645898 -0.71464413 -0.50457174 0.91102654 -0.77176344 -0.24543956 0.21912701
-0.06626813 1.7610844 -0.076251864 0.23148416 -0.10623758 0.04691151 0.22672673 -0.13187179
0.06774623 -0.022755794 0.00606399 -0.09036528 0.29705098 0.61766803 -0.30298516 0.20675045
1.687519 -0.2717708 1.172436 1.2258409 0.56668425 -0.13137016 0.25041917 -0.058663707
-0.21173872 0.46653184 -1.0798329 -0.7726071 -0.08385716 -0.14120586 -0.27320653 -0.3211444
-0.24054995 0.1757987 0.1890201 -0.33806986 -0.031636283 -0.33315367 0.33033538 0.11320959
0.505597 1.3298137 0.40304688 0.6010295 1.831031 -0.08432061 -0.07720961 -0.38103592
0.72173035 0.0027009952 -0.4808329 0.95080036 0.05655488 0.017068993 -0.018842906 0.67408496
-0.016907861 -0.9279119 0.3980386 -0.08453498 -0.8869932 -0.8857106 0.6462164 0.24391814
0.39794928 -0.9987087 0.2989231 0.16072142 -0.14322494 0.07567932 0.004056742 0.6862048
-0.22698382 -0.40312827 0.10735464 -0.47073665 -0.10200521 1.2524352 -0.68025005 0.21914098
0.4152064 -0.5516342 -0.541062 -0.43264186 0.48484015 -0.660966 -0.43503055 0.6491138
0.12260626 0.5854145 0.8046759 0.029976988 0.67420983 -0.3670738 0.09012546 0.8571698
1.2475824 0.53861445 -0.30917686 0.08739177 0.8377266 -0.55122966 0.36456242 0.17135806
0.9585082 -0.13955581 0.5820126 1.1564726 0.2604631 -0.14084472 -0.43122122 -0.5748758
0.05065757 0.45855993 0.10054588 -0.33250198 0.25885895 -0.18845457 -0.69429076 -0.5960045
-0.32566866 0.1350273 0.008453836 -0.29933804 0.119866535 0.7434467 -0.08775357 0.17036048
0.5480059 0.26561865 -0.316981 -0.078621395 0.31169003 0.38812453 0.6745714 -0.14143726
0.16037531 0.38149366 -0.5572955 0.8243407 -0.16807291 0.40921316 -0.10008553 0.5139627
0.68318325 0.37668788 0.35822135 0.12929597 -0.4140695 0.87559706 1.0436279 1.1055017
-0.45019442 0.24458022 0.76016253 0.95038635 -0.50787497 -0.11180308 -0.8115245 0.28697935
-0.2188661 -0.57758826 2.012847 -0.30854985 -0.19215198 0.84893227 -0.17722258 0.20194784
1.2802719 0.51561505 -0.41675624 -0.17856872 -0.22693731 -0.4451591 -0.60654306 1.1522449
-0.13327502 1.6329025 -0.15565431 -0.4146423 0.23832366 0.3538878 -0.082709216 0.21083066
0.2640188 0.23603101 0.30325696 -0.07078204 0.8749328 -0.37960362 0.65013194 0.7719769

L5.bias f4 [44]
00000000: cd83 b5bf a4a7 84bf 2062 e1bf e7e0 a7bf
00000010: 19b9 5cbe e0d6 62bf 035d 05c0 7f20 bfbf
00000020: fec9 8bbf d0ea a6bf 7a78 79bf e8ea 6bbf
00000030: 03bd 6ebf 9fe9 aebf e1f2 88bf 48d7 d6bf
00000040: 2a85 d6bf ddbb a8bf d596 83bf 1098 e9bf
00000050: 3f82 a9bf 2894 2bbf cb52 7dbf 0177 2cbf
00000060: d9eb a9bf 4945 93bf 8ac9 8bbf 87c8 03c0
00000070: dc80 7ebf c84e 9abf 59c1 98bf a767 c7bf
00000080: aac4 7fbf 899b e5bf 83de 02c0 0d72 6cbf
00000090: 6d64 8cbf 61d0 cdbf 11f4 a1bf 7f39 acbf
000000a0: 44be b9bf d56f f6be 7b1a f4be 50f2 87bf
-1.4180847 -1.036366 -1.760807 -1.311551 -0.21554984 -0.88609123 -2.083802 -1.4931792
-1.0921018 -1.3040409 -0.9744946 -0.92155313 -0.9325716 -1.3665045 -1.0699121 -1.6784449
-1.6759388 -1.3182331 -1.0280405 -1.8249531 -1.3242873 -0.67022943 -0.9895446 -0.67369086
-1.32751 -1.1505519 -1.092088 -2.0591142 -0.99415374 -1.2055292 -1.1934005 -1.5578507
-0.9990946 -1.793809 -2.044831 -0.9236153 -1.0968148 -1.6079217 -1.2652608 -1.3455046
-1.451119 -0.48132196 -0.47676453 -1.0620823

L6.weight f4 [1, 44]
00000000: 0a61 e83c 4883 4b3d 2e3f 2c3e 2fcb 29bd
00000010: e6a2 963c 14b7 693e 82dc ac3d aad6 28bc
00000020: 5add babd b112 c63c 188b 5a3d 7c35 f0bd
00000030: 80fe 453c 9935 2fbd 7fba b1bd aa3f b03d
00000040: 1e71 253c c5e6 2b3d 2b48 cabc cc4c 3ebd
00000050: 0371 c6bd 0580 32bb fa00 133d 646d 4bbe
00000060: c459 fcbd 812b 9dbe 46d9 883d ab78 7ebe
00000070: f3bc 853d 979b aa3b f188 393e bf05 413b
00000080: 8a00 5e3d 28a9 903c 797d a43d b472 973b
00000090: 5843 95bd 3b78 fa3d 8a4e 823e 12b8 5e3e
000000a0: 4968 ba3d 2b91 0e3d 425c 22bd f03a f0bd
0.028366584 0.049685746 0.16820976 -0.041453537 0.018388223 0.22823745 0.08440496 -0.010305086
-0.09124251 0.024178835 0.053355306 -0.11728951 0.012084603 -0.042775724 -0.086781494 0.08605893
0.01009777 0.041968126 -0.024692615 -0.046459958 -0.09689524 -0.002723695 0.035889603 -0.19865948
-0.12321809 -0.30697253 0.066820666 -0.24850719 0.0653018 0.005206536 0.18118645 0.0029452888
0.054199733 0.017658785 0.080317445 0.004621828 -0.072882354 0.122299634 0.25450546 0.21749905
0.09101922 0.03480641 -0.039638765 -0.117299914
