Saved_Models_All_Features/target_Hardness_features_22_epochs_41.pth (torch_old, 162565 bytes, 11 tensors)

L1.weight f4 [44, 22]
0	0xbf16583a	-0.58728373
1	0xbd33df00	-0.04391384
2	0x3fc34b91	1.5257436
3	0xbe9d37a6	-0.3070652
4	0x3e69d895	0.22836526
5	0x3c5bdfd1	0.013420061
6	0xbeae7e86	-0.34080905
7	0x3f68e637	0.9097628
8	0x3e631aca	0.22178188
9	0xbe1630b5	-0.14667018
10	0x3ecb233e	0.39675325
11	0x3f4352e5	0.7629836
12	0x3f2d993e	0.67811954
13	0x3b53291f	0.0032220555
14	0xbf1334f7	-0.5750269
15	0xbdd99d47	-0.106257014
16	0xbe5df147	-0.21674071
17	0xbf1ed062	-0.62036717
18	0x3df9d714	0.12199226
19	0xbe580f6a	-0.2109963
20	0xbe3aa18f	-0.18225692
21	0xbec84bac	-0.39120233
22	0x3e90320d	0.28163186
23	0x3e4c3405	0.19941719
24	0x3e91a442	0.2844563
25	0x3e3f9ba2	0.18711713
26	0xbdd77871	-0.10521019
27	0x3e7d8226	0.24756679
28	0x3df241ff	0.11828994
29	0x3eb369aa	0.35041553
30	0x3e8b0991	0.27155736
31	0x3bd933a8	0.0066284724
32	0x3d779b48	0.060450822
33	0x3e32777a	0.17428389
34	0xbe7dbccc	-0.24779052
35	0xbe155142	-0.14581779
36	0x3de1b896	0.11021535
37	0x3e0a2ca7	0.13493596
38	0x3eb8f7f7	0.36126682
39	0xbe2dd131	-0.16974331
40	0xbe45d1d2	-0.19318321
41	0x3dbe3b04	0.092886
42	0xbb3d3d74	-0.002887574
43	0x3edb4c4c	0.42831647
44	0x3eb765fe	0.3582
45	0x3f2baf22	0.67064106
46	0xbeabdef1	-0.33568528
47	0x3e15069f	0.14553307
48	0x3ed6e58a	0.41972
49	0xbe5852b3	-0.21125297
50	0x3e9a915a	0.3018902
51	0x3f15cebb	0.5851857
52	0x3e245352	0.16047409
53	0xbe74d973	-0.23911075
54	0x3f141f16	0.57859933
55	0x3e9f6d62	0.3113814
56	0x3eda5f44	0.42650807
57	0x3e3c307b	0.18377869
58	0x3eff4601	0.49858096
59	0x3f51e3f5	0.8198846
60	0x3f2adafa	0.6674038
61	0xbf2b1407	-0.66827434
62	0xbde2481f	-0.11048912
63	0xbe93cd3a	-0.28867513
64	0xbdcab624	-0.09898022
65	0xbe550bb6	-0.20805249
66	0xbf6f9784	-0.9359057
67	0xbe12256e	-0.14272091
68	0x3f726472	0.9468452
69	0xbdb71c44	-0.08940938
70	0xbf400da7	-0.7502083
71	0xbf3ff9a0	-0.7499027
72	0x3ee2f1fe	0.4432525
73	0x3f534492	0.82526505
74	0xbf48e649	-0.7847639
75	0xbead09ae	-0.33796448
76	0x3ef09383	0.46987543
77	0x3ee3d3ae	0.44497436
78	0x3e5612bd	0.20905586
79	0xbe0db0c1	-0.13836958
80	0xbe87ce5e	-0.26524633
81	0xbed3b140	-0.4134617
82	0xbf1dfd8c	-0.61715007
83	0x3f2dae88	0.6784444
84	0x3eabd3e6	0.33560103
85	0xbdfe16a5	-0.12406663
86	0x3e0d3d80	0.13792992
87	0xbdc2235c	-0.094794005
88	0xbea3b5dd	-0.31974688
89	0x3f0532de	0.5203074
90	0x3f175203	0.59109515
91	0x3d7d3767	0.061820414
92	0xbf79824e	-0.97464454
93	0xbee1389c	-0.43988502
94	0x3ed2f058	0.41198993
95	0x3f56f5af	0.83968633
96	0x3ee90b76	0.45516557
97	0xbede72d9	-0.43446997
98	0xbd8483da	-0.06470461
99	0xbef3badb	-0.47603497
100	0xbf787544	-0.97053933
101	0x3c3ce7cf	0.011529877
102	0x3eab06d6	0.33403653
103	0xbead5b76	-0.33858842
104	0xbf5830e2	-0.8444959
105	0xbe4c0295	-0.1992286
106	0x3f09cc55	0.5382741
107	0x3e1716b2	0.14754751
108	0x3f56e9f5	0.8395074
109	0x3ecf8d63	0.40537557
110	0x3e01426c	0.12622994
111	0x3f6f6e42	0.93527615
112	0x3e5ad428	0.21369994
113	0x3db5d475	0.088784136
114	0x3e0d9243	0.13825326
115	0x3f3fe78c	0.7496269
116	0xbd1d93a7	-0.03847089
117	0x3f8534fe	1.0406797
118	0x3f6f5bec	0.93499637
119	0x3f2f4714	0.6846783
120	0xbecd91a8	-0.4015019
121	0xbe14da33	-0.14536361
122	0xbf1b0e99	-0.6056915
123	0x3ed5dd61	0.4177046
124	0x3eee36c8	0.4652617
125	0x3f2442d6	0.64164484
126	0x3f577b1a	0.84172213
127	0x3e0cea7e	0.13761327
128	0x3dcc3732	0.09971465
129	0xbf0310fc	-0.5119779
130	0x3ed59930	0.41718435
131	0x3e93eb31	0.28890374
132	0x3f48f9d5	0.78506213
133	0x3d23c90c	0.039986655
134	0x3f22d4af	0.6360578
135	0xbdac0e85	-0.08401207
136	0xbdc3faba	-0.09569307
137	0xbcd8a123	-0.026444023
138	0xbe4ada34	-0.198098
139	0x3d53d893	0.051720213
140	0x3f1aad53	0.6042072
141	0x3f300d78	0.6877055
142	0x3f478595	0.77938205
143	0x3f3d3f87	0.7392506
144	0x3f3946cb	0.72373646
145	0x3f572eda	0.84055865
146	0x3dea9762	0.11454655
147	0x3f0e2340	0.5552254
148	0x3f235dbf	0.6381492
149	0xbea96579	-0.3308523
150	0xbc9e82aa	-0.019349415
151	0xbe7ce353	-0.24696092
152	0xbc94db4d	-0.018170977
153	0xbe9839d2	-0.29731613
154	0x3e978200	0.2959137
155	0x3f25e773	0.6480629
156	0x3f5acf0f	0.85472196
157	0xbe5afdf6	-0.21385941
158	0xbd2b8ce6	-0.041882418
159	0x3f2fef3c	0.6872442
160	0xbe930e47	-0.2872183
161	0x3eed3485	0.46329132
162	0x3f309205	0.6897281
163	0x3f01442b	0.5049464
164	0x3e508b4a	0.20365635
165	0x3f0ee860	0.55823326
166	0x3dddb2ef	0.108251445
167	0x3eef0197	0.466809
168	0x3e944688	0.2896006
169	0x3eeb2e97	0.45933983
170	0x3f4f1bba	0.8090168
171	0xbe0a333d	-0.13496108
172	0xbb84a371	-0.004047804
173	0xbe8ce3ba	-0.27517492
174	0xbd223882	-0.03960467
175	0xbb4df224	-0.0031424845
176	0xbe32c7b0	-0.17458987
177	0x3e3bd176	0.18341622
178	0x3ea977b6	0.33099145
179	0xbd921cb6	-0.071343824
180	0x3e9bd5fc	0.30436695
181	0x3ed1a568	0.40946507
182	0x3d1e9800	0.038719177
183	0x3ee36c32	0.44418484
184	0x3eb1fd4b	0.3476356
185	0x3eb1db5f	0.3473768
186	0x3eafa0f5	0.34302488
187	0x3d0a9729	0.033835564
188	0x3de1062d	0.10987506
189	0x3dc47883	0.09593298
190	0x3d329d02	0.043606766
191	0x3edb9fa4	0.42895234
192	0x3e694af2	0.22782496
193	0xbe88a3c8	-0.26687455
194	0x3f062d09	0.5241247
195	0x3e74055e	0.23830172
196	0x3d27325e	0.04081952
197	0x3e96634d	0.29372635
198	0xbdff3646	-0.12461524
199	0x3e5e9d24	0.21739632
200	0x3db5e4e6	0.088815495
201	0xbdceb855	-0.10093752
202	0x3e6018ed	0.21884508
203	0x3e615a5b	0.22007124
204	0x3e2e0a23	0.16996054
205	0x3e36a9c2	0.17838195
206	0xbe7dbd6e	-0.24779293
207	0x3da52649	0.08063943
208	0x3e127325	0.14301737
209	0x3f0c6e40	0.5485573
210	0xbdbe728d	-0.092991926
211	0x3eea6481	0.45779803
212	0x3d320ec1	0.0434711
213	0x3f2ed966	0.68300474
214	0xbda69496	-0.08133809
215	0xbeba51b3	-0.36390457
216	0x3eb18454	0.3467127
217	0xbd7131c5	-0.058885355
218	0xbd9db6e4	-0.07700899
219	0x3da62fe8	0.08114606
220	0x3f6390cb	0.8889281
221	0xbe01cc07	-0.12675487
222	0x3e5b31c7	0.21405707
223	0xbddca724	-0.10774067
224	0xbdc3b981	-0.095568664
225	0xbedc2d09	-0.4300311
226	0xbde1e14f	-0.11029302
227	0xbed62598	-0.41825557
228	0x3e42654a	0.18983951
229	0x3e02d753	0.12777452
230	0x3e9657d6	0.29363889
231	0x3e95d4e7	0.29263994
232	0x3e0052f5	0.12531646
233	0xbf8cc834	-1.0998597
234	0x3f87c580	1.0607147
235	0x3f01e0f5	0.5073388
236	0xbd01ef44	-0.031722322
237	0xbd8efd75	-0.06981937
238	0xbeb768b6	-0.35822076
239	0x3ed6dbbf	0.41964528
240	0x3f0af193	0.54274863
241	0xbda6adf6	-0.08138649
242	0x3e81694d	0.2527565
243	0x3e4f73d2	0.20259026
244	0x3d4b7180	0.04966879
245	0x3f92d3c1	1.1470872
246	0x3ec0b17f	0.3763542
247	0x3e7829fc	0.24234766
248	0x3e236358	0.15955865
249	0x3ef8b23e	0.48573488
250	0x3e5161f8	0.20447528
251	0x3ec91f68	0.39281774
252	0xbd357d25	-0.0443088
253	0xbe07aece	-0.13250276
254	0xbce9ca79	-0.02853893
255	0x3eb2261f	0.3479471

L1.bias f4 [44]
0	0xbfc5aa08	-1.5442514
1	0xbfa0d644	-1.2565389
2	0xbfba6664	-1.4562497
3	0xbf69a995	-0.91274387
4	0xbf8d750b	-1.1051344
5	0xc004d0a5	-2.0752347
6	0xbfd9daea	-1.7019932
7	0xc00a7378	-2.1632977
8	0xbfe4d7f2	-1.7878401
9	0xbfcbd21a	-1.5923493
10	0xbf9637cc	-1.1735778
11	0xc00b123a	-2.1729875
12	0xbf75e0ac	-0.9604595
13	0xc00f4a9a	-2.2389283
14	0xbff2a994	-1.8958001
15	0xbf120a52	-0.57047
16	0xbfd45d5d	-1.6590992
17	0x3e2770fa	0.16351691
18	0xbfcab40d	-1.5836197
19	0xbff63a35	-1.9236513
20	0xbf92d70f	-1.1471881
21	0xc016d3d7	-2.3566797
22	0xbfa18d2f	-1.2621211
23	0xbf91778d	-1.1364609
24	0xbfbcabd4	-1.4739938
25	0xbf90da29	-1.1316577
26	0xbfabdb39	-1.3426276
27	0xbfcd50ee	-1.6040323
28	0xbffb162f	-1.9616145
29	0xbfda31e7	-1.7046479
30	0xc002ba8b	-2.0426357
31	0xbfd5d40c	-1.6705337
32	0xbef57156	-0.4793803
33	0xbfa58e8d	-1.2934128
34	0xbf9d19b5	-1.227347
35	0xc00cb735	-2.198682
36	0xbfa191df	-1.2622641
37	0xbfb3c261	-1.4043695
38	0xbf6cdc56	-0.92523706
39	0xbf801ada	-1.0008194
40	0xc002f889	-2.0464194
41	0xc01e08f5	-2.4692967
42	0xc01dc53c	-2.4651632
43	0xbef7480d	-0.48297158

L2.weight f4 [88, 44]
0	0x3dfb50df	0.12271284
1	0x3f88b73e	1.0680921
2	0x3e340ced	0.17583056
3	0xbdd9408a	-0.10608013
4	0x3f2f5ab8	0.684978
5	0xbeb1e008	-0.34741235
6	0xbec61492	-0.3868757
7	0x3e412691	0.18862368
8	0xbb95cd75	-0.0045716115
9	0xbc8a18bd	-0.0168575
10	0x3e50935f	0.20368718
11	0x3e4d36b3	0.20040397
12	0xbf5c3f52	-0.8603412
13	0xbf126166	-0.5717987
14	0xbdca62ce	-0.09882127
15	0xbde5abb4	-0.112143904
16	0xbed5ab1b	-0.41732106
17	0xbebc662c	-0.367967
18	0x3f36d01c	0.714113
19	0x3e9d54c0	0.30728722
20	0x3dc89d54	0.09795633
21	0xbe93994c	-0.28827894
22	0x3e2217b9	0.15829362
23	0xbebf7ed4	-0.3740145
24	0x3ea94c51	0.33066037
25	0xbe09f75c	-0.13473266
26	0x3e336a27	0.17520963
27	0x3ba4caf5	0.005029077
28	0xbe7f5e6a	-0.2493836
29	0x3f43066c	0.76181674
30	0xbed2ba3a	-0.41157705
31	0xbdfd4a02	-0.123676315
32	0xbe54d80e	-0.20785543
33	0x3eb64d22	0.35605723
34	0x3f5d657b	0.8648297
35	0xbf0b79e8	-0.5448289
36	0x3d1227c3	0.03568245
37	0x3f5e320e	0.8679513
38	0x3bca3b27	0.0061716023
39	0xbeb0e730	-0.34551382
40	0xbe326d17	-0.17424427
41	0xbe05fdca	-0.13085094
42	0x3e3249c6	0.17410955
43	0xbe7ceb7f	-0.2469921
44	0xbeb6717a	-0.3563345
45	0xbec7fcb8	-0.39059997
46	0xbe9f9537	-0.3116853
47	0x3e2115ee	0.15731022
48	0x3ea087c6	0.31353587
49	0x3f289f1e	0.65867794
50	0xbe480b5a	-0.1953558
51	0x3f4504a3	0.769602
52	0x3e3a5cfd	0.18199535
53	0xbe75a250	-0.23987699
54	0xbc5403cf	-0.012940361
55	0x3d090ebb	0.033461314
56	0x3ffca5cf	1.9738101
57	0x3eaa3042	0.33239943
58	0x3ef7fea4	0.48436463
59	0xbe437adb	-0.19089834
60	0xbec51835	-0.3849503
61	0x3ef2ec69	0.47445992
62	0x3f191230	0.59793377
63	0x3eb0ce72	0.34532505
64	0xbf24a620	-0.64315987
65	0xbf56a4de	-0.8384532
66	0xbf466de0	-0.77511406
67	0xbcd8d0f5	-0.026466826
68	0x3f4d4c6b	0.8019473
69	0xbf601d48	-0.8754468
70	0xbf185f2b	-0.59520215
71	0xbd5aaad3	-0.053385567
72	0xbf0c5525	-0.5481742
73	0x3f1ddfa1	0.61669356
74	0xbd3efbf1	-0.04662699
75	0xbf0c4552	-0.54793274
76	0xbea4f99e	-0.32221693
77	0xbf28948e	-0.65851676
78	0x3e52b6b9	0.20577516
79	0xbdcb2da3	-0.09920814
80	0x3f02d296	0.5110258
81	0xbef44181	-0.47706226
82	0x3ec62d92	0.38706642
83	0xbefd0a35	-0.4942185
84	0xbe954190	-0.29151583
85	0xbef7d993	-0.48408183
86	0x3eb6db8b	0.35714373
87	0xbeadcf97	-0.3394744
88	0xbfaa546e	-1.3307016
89	0x3e4585ff	0.19289397
90	0xbf178891	-0.5919276
91	0xbefc2a05	-0.49250808
92	0xbf8de3a3	-1.1085094
93	0xbf33524f	-0.7004747
94	0xbf6d280c	-0.9263923
95	0x3c18a254	0.009316046
96	0x3d024b5c	0.03181015
97	0xbd8e26a7	-0.06940966
98	0xbf1c09d4	-0.60952497
99	0x3e416c6c	0.18889016
100	0xbee2f213	-0.44325313
101	0xbe631b32	-0.22178343
102	0x3d5d5c94	0.054043368
103	0x3ef3bee2	0.4760657
104	0x3d37a107	0.044831302
105	0xbf27a51a	-0.654863
106	0xbed3a2ec	-0.41335237
107	0xbdde26a4	-0.10847214
108	0x3e46e2ca	0.1942245
109	0x3d26b92c	0.040703937
110	0xbf418f0e	-0.7560891
111	0xbfa540bb	-1.2910379
112	0xbe6919c4	-0.22763735
113	0xbea5bb5a	-0.323695
114	0xbebc9bfb	-0.36837754
115	0x3e5ee33a	0.21766368
116	0xbdb26da4	-0.087123185
117	0xbe9a515c	-0.30140197
118	0x3e691077	0.22760187
119	0xbdb4698b	-0.08809193
120	0xbe24a736	-0.16079411
121	0xbfd5f051	-1.6713964
122	0x3ece3728	0.40276456
123	0xbeb9f1f4	-0.36317408
124	0x3ea19ae4	0.31563485
125	0x3d7361d3	0.059419464
126	0xbeb992c5	-0.3624479
127	0xbe030305	-0.1279412
128	0xbef145c0	-0.47123528
129	0x3f192dbd	0.59835416
130	0xbed45a6d	-0.4147524
131	0xbed947b5	-0.4243752
132	0xbe8771ca	-0.26454002
133	0x3f18d253	0.5969593
134	0xbf0c5265	-0.54813224
135	0x3bb5a895	0.005543778
136	0x3d138194	0.036012247
137	0xbf0c3b56	-0.5477804
138	0xbf089c01	-0.53363043
139	0xbd2df633	-0.042471122
140	0xbddaf781	-0.10691739
141	0xbdeded72	-0.11617555
142	0xbf1b7374	-0.6072304
143	0x3f6cdb4d	0.92522126
144	0x3ce6311d	0.02809959
145	0x3bcfe9e7	0.006345022
146	0xbdf3f003	-0.11911013
147	0xbf2efd39	-0.6835514
148	0xbd1eeff2	-0.03880305
149	0xbe8ea0aa	-0.27856952
150	0x3f2b868b	0.6700217
151	0xbf04beee	-0.51853836
152	0xbf25e458	-0.6480155
153	0xbe73c658	-0.23806131
154	0xbe872268	-0.26393437
155	0xbdae9ba2	-0.08525778
156	0x3f07e182	0.5307847
157	0x3f0f4705	0.5596774
158	0xbd0a97a1	-0.03383601
159	0xbf018530	-0.50593853
160	0xbccad1ae	-0.024758186
161	0x3d8db9fa	0.06920238
162	0xbf2afe28	-0.6679406
163	0x3e18bde7	0.14916192
164	0xbd47a0c7	-0.048737314
165	0xbf2a6d12	-0.6657268
166	0xbf05990b	-0.5218665
167	0xbed6c52b	-0.41947302
168	0xbe1df30a	-0.15424743
169	0xbec4ef37	-0.38463756
170	0x3ea5d27f	0.32387158
171	0x3dd78ce4	0.1052492
172	0x3e764856	0.24051031
173	0x3ea2a4f6	0.3176648
174	0xbd95e13e	-0.07318352
175	0xbea85ae5	-0.32881847
176	0x3ed81462	0.4220305
177	0xbeb604bc	-0.35550487
178	0xbd59f29a	-0.05320988
179	0x3f437642	0.7635232
180	0xbef6ae0f	-0.4817967
181	0xbde609c1	-0.11232329
182	0xbeb19c7c	-0.346897
183	0xbf34e5e5	-0.7066329
184	0x3f090654	0.5352528
185	0x3dd69b3d	0.10478828
186	0xbeca7ca9	-0.39548233
187	0xbe936851	-0.28790525
188	0xbf3005de	-0.6875895
189	0xbe67e9c7	-0.22647773
190	0xbe270ca9	-0.16313423
191	0xbdcd95ec	-0.10038361
192	0x3f1f310c	0.62184215
193	0xbf006847	-0.50159115
194	0xbe5ad74a	-0.21371189
195	0xbe6bf33b	-0.23042004
196	0xbfa2bc37	-1.2713689
197	0xbece35dd	-0.4027547
198	0x3f1c8de8	0.6115403
199	0x3e46acf6	0.19401917
200	0x3f9619f6	1.1726673
201	0xbd56093b	-0.052254897
202	0xbeaecc9f	-0.34140489
203	0xbeffcc9c	-0.49960792
204	0x3eadc0f1	0.33936265
205	0xbfbb0bc4	-1.4612966
206	0x3d66ea68	0.05637589
207	0x3ebd61cb	0.36988673
208	0x3f3a2304	0.7270968
209	0xbf1016b4	-0.5628464
210	0x3ee06cbc	0.43832958
211	0xbe87e340	-0.26540565
212	0xbf29577f	-0.66149133
213	0x3ecf26de	0.4045934
214	0xbe8f0a7a	-0.2793768
215	0xbdb9c918	-0.09071559
216	0xbe30ec2b	-0.17277591
217	0xbeabed46	-0.33579463
218	0xbf4671ee	-0.7751759
219	0xbe94e887	-0.29083654
220	0xbf232eac	-0.6374309
221	0xbea67cfd	-0.32517233
222	0xbeaf1ed5	-0.3420321
223	0xbf1adb69	-0.60491043
224	0xbead6301	-0.33864596
225	0xbdc46079	-0.09588713
226	0xbdf1de50	-0.11809981
227	0xbedd2d85	-0.4319879
228	0xbe39ac21	-0.18132068
229	0xbeb893ba	-0.36050206
230	0xbe54993b	-0.20761578
231	0x3e83d467	0.25747988
232	0xbec82124	-0.39087784
233	0xbeab3676	-0.33439988
234	0x3e97ce19	0.29649428
235	0xbf69fd02	-0.91401684
236	0xbf22493c	-0.63392997
237	0xbe175f38	-0.14782417
238	0x3ed7ab82	0.42123038
239	0x3f41680b	0.7554938
240	0xbf1356ac	-0.57554126
241	0xbef42c41	-0.47690013
242	0xbfa050cc	-1.2524657
243	0x3db3b127	0.087740235
244	0xbf629678	-0.8851085
245	0x3eb18660	0.34672832
246	0xbec224fa	-0.37918836
247	0xbe1ac2e1	-0.15113403
248	0xbe584099	-0.21118392
249	0xbeb6f9b6	-0.3573739
250	0xbf08c926	-0.5343193
251	0xbe7c0743	-0.24612145
252	0xbf85e77f	-1.0461272
253	0xbe35afda	-0.17742863
254	0xbf2d340b	-0.67657536
255	0x3d901f22	0.07037188

L2.bias f4 [88]
0	0xbeb1526b	-0.34633192
1	0xbe66a80a	-0.2252504
2	0xbf30cf0c	-0.6906593
3	0xbf291dd4	-0.6606114
4	0x3f169f24	0.5883658
5	0xbf7580a4	-0.95899415
6	0xbfc1ee38	-1.5150824
7	0xbf594ebd	-0.8488577
8	0xbf4e16d3	-0.80503577
9	0xbf2fd01e	-0.68676937
10	0xbf6db77f	-0.9285812
11	0x3e14f873	0.14547901
12	0xbf840c81	-1.0316316
13	0xbffb574a	-1.9636014
14	0xbe2f13de	-0.17097422
15	0x3ea13720	0.3148737
16	0xbfcf074d	-1.6174103
17	0xbe8a0080	-0.26953506
18	0xbe9bf053	-0.3045679
19	0xbf991021	-1.1958047
20	0xbfbbf8e1	-1.4685327
21	0xbf6a4683	-0.9151384
22	0xbf890481	-1.07045
23	0xbfb2d520	-1.397129
24	0xbfebf77d	-1.8434902
25	0xbf122688	-0.57090044
26	0xbf9b3807	-1.2126473
27	0xbf902aa9	-1.1263019
28	0xbd3a71ab	-0.04551856
29	0xbf920473	-1.1407608
30	0xbff310c5	-1.8989493
31	0xbf17cf32	-0.5930053
32	0xbf3a5b17	-0.7279524
33	0xbf839954	-1.0281167
34	0xbf611ff2	-0.8793937
35	0x3e82a92c	0.25519693
36	0xbe852161	-0.2600203
37	0x3ea9e8db	0.33185467
38	0xbe9ffd58	-0.31247973
39	0xbedde17a	-0.43336087
40	0xbec79b0d	-0.38985482
41	0xbfa5fd81	-1.2967988
42	0xbfa63e61	-1.2987787
43	0xbf107141	-0.5642281
44	0xbf669899	-0.90076596
45	0xbf773021	-0.96557814
46	0xbe608140	-0.21924305
47	0xbed3f06a	-0.4139436
48	0xbf8dafab	-1.1069235
49	0xbf1d53df	-0.614561
50	0x3fc8878c	1.5666366
51	0xc000d9c4	-2.0132914
52	0xbf949ae4	-1.1609769
53	0xbf866233	-1.0498718
54	0xbf375ba1	-0.7162419
55	0x3e174285	0.14771469
56	0xc0040e38	-2.0633678
57	0xbfe5e021	-1.7959024
58	0xbf249502	-0.6428987
59	0xbf9d8a1e	-1.2307775
60	0x3f5f48e8	0.8722062
61	0xbefcaab9	-0.49349
62	0x3ed3a1c7	0.41334364
63	0xbf613b7a	-0.8798138
64	0xbf1a97a6	-0.6038765
65	0x3e9d9245	0.30775657
66	0xbf509fae	-0.8149365
67	0xbf9022ac	-1.1260581
68	0xbe45d63c	-0.19320005
69	0xbf27ed62	-0.6559659
70	0xbf47f1fd	-0.7810362
71	0x3f431cc9	0.762158
72	0x3d7f24d9	0.062291
73	0xbfd57349	-1.6675807
74	0xbf50195e	-0.8128871
75	0xbe80be8d	-0.2514538
76	0xbf3c6d1e	-0.73604
77	0x3f4c14c3	0.7971918
78	0xbf5d0a7b	-0.86344117
79	0xbfd95958	-1.698039
80	0xbda2aa61	-0.079426534
81	0x3f847550	1.0348301
82	0xbec18f33	-0.37804565
83	0xbf9add2b	-1.2098745
84	0xbfd3cc40	-1.6546707
85	0xbff7b24e	-1.9351289
86	0x3efc7348	0.49306703
87	0xbf88bfd4	-1.0683541

L3.weight f4 [176, 88]
0	0xbd1134db	-0.035450798
1	0xbe4dd3bc	-0.20100302
2	0x3f0d7687	0.55258983
3	0xbdeb9906	-0.11503796
4	0xbf0a7a02	-0.5409242
5	0x3f8a3f4f	1.080057
6	0x3f92db75	1.1473223
7	0x3f7f4dde	0.9972819
8	0x3f78e1e1	0.97219664
9	0x3e242dd7	0.16033112
10	0x3ed65c4f	0.418673
11	0xbe7fd779	-0.2498454
12	0x3ea45b6b	0.32100996
13	0x3f1981ce	0.5996369
14	0xbef430ed	-0.47693577
15	0xbf2bf3d1	-0.6716891
16	0x3f34649b	0.7046601
17	0x3c55594a	0.013021776
18	0x3f67e8cb	0.9058959
19	0xbebb342d	-0.36563244
20	0x3f867ee6	1.0507476
21	0x3f67da98	0.9056792
22	0xbe4852f6	-0.19562897
23	0x3ea21fd1	0.316649
24	0x3e9824a4	0.29715455
25	0x3f6fc192	0.9365474
26	0x3ed82629	0.42216614
27	0x3f11c244	0.5693705
28	0xbf391fcb	-0.7231414
29	0x3ed05287	0.40687963
30	0x3f0a0974	0.53920674
31	0x3f3b60bf	0.731945
32	0x3ee1ccb0	0.44101477
33	0x3efe4aff	0.49666592
34	0x3e829d1b	0.25510487
35	0xbec020a9	-0.37524918
36	0x3cdeaa24	0.027180739
37	0xbf30aa8f	-0.6901025
38	0x3f4e6abe	0.80631626
39	0xbfb66f60	-1.4252739
40	0xbeef9925	-0.46796528
41	0x3ea39cc8	0.31955552
42	0x3f0014b9	0.5003162
43	0x3c9efdfe	0.019408222
44	0xbe47ebd3	-0.19523554
45	0x3d472b91	0.048625533
46	0x3ebb9e1e	0.3664407
47	0x3e915bf0	0.28390455
48	0xbf17171a	-0.59019625
49	0x3ec3d046	0.38244838
50	0xbf4b6b6b	-0.7946078
51	0x3e420f3d	0.18951125
52	0xbf0a90ec	-0.54127383
53	0xbe06ae4a	-0.13152424
54	0xbf0c1375	-0.5471719
55	0xbe902a36	-0.28157204
56	0x3f8e5ab0	1.1121426
57	0xbeb58ede	-0.35460562
58	0x3eda4c16	0.42636174
59	0x3edb01a4	0.4277469
60	0xbebe2842	-0.3714009
61	0x3e05fafe	0.13084027
62	0xbf71c3a2	-0.94439137
63	0x3c053375	0.008129944
64	0x3fc9d5f6	1.5768421
65	0xbd0049c4	-0.03132035
66	0xbdab0faf	-0.08352601
67	0x3de6fd78	0.11278814
68	0x3f088bf6	0.53338563
69	0x3ce7d9be	0.02830207
70	0x3ea75c7a	0.32687742
71	0xbf00c8bd	-0.503063
72	0xbdffb2b4	-0.12485257
73	0x3fbecb19	1.490573
74	0xbf1423fd	-0.57867414
75	0xbfa7da7b	-1.311355
76	0xbf05a94f	-0.5221147
77	0xbf8882a9	-1.0664874
78	0x3eabf4a4	0.33585083
79	0x3f927c3b	1.1444162
80	0xbee22622	-0.44169718
81	0xbf23a057	-0.63916534
82	0xbd947000	-0.07247925
83	0x3f9202e4	1.1407132
84	0x3f14af67	0.5808014
85	0x3fa8c24b	1.3184294
86	0xbf0ee184	-0.5581286
87	0x3d958f4f	0.073027246
88	0xbe834ac9	-0.25642994
89	0x3cb9a88b	0.022663375
90	0x3e0c8cb5	0.1372555
91	0xbe28e1e6	-0.16492423
92	0xbe5b8099	-0.21435775
93	0x3f14d6d8	0.58140326
94	0x3f59e8c6	0.8512081
95	0x3e0b8623	0.13625388
96	0x3f20fcb7	0.6288561
97	0xbe7f458d	-0.24928875
98	0x3eec3ff6	0.46142548
99	0xbef5f300	-0.48036957
100	0xbf43bb58	-0.7645774
101	0x3f587877	0.84558815
102	0xbc9d850a	-0.019228477
103	0xbdf9c327	-0.121954255
104	0x3f1d3feb	0.61425656
105	0x3d4708da	0.048592426
106	0x3de6e628	0.112743676
107	0xbf25a864	-0.6471007
108	0x3dc05941	0.09392024
109	0x3f52b0a2	0.8230077
110	0x3e53bf80	0.2067852
111	0x3f0b222e	0.5434903
112	0x3f572da5	0.84054023
113	0x3f8e0ff7	1.1098622
114	0x3eddf2e6	0.4334938
115	0x3e3b00e8	0.18262064
116	0xbf320833	-0.6954376
117	0x3f5fb410	0.8738413
118	0x3e0a628e	0.13514158
119	0xbe3e8405	-0.18605049
120	0x3f510e0d	0.81662065
121	0x3ea7bcf8	0.3276136
122	0x3e8c1720	0.27361393
123	0xbeb27bd0	-0.34860086
124	0xbed0ff6e	-0.40819877
125	0xbf2c24cd	-0.67243654
126	0xbda3125e	-0.07962488
127	0xbe4ff50f	-0.20308326
128	0x3e22f9cf	0.15915607
129	0x3d75bd34	0.05999489
130	0xbe56632e	-0.20936272
131	0x3e89516a	0.26819927
132	0xbecdded2	-0.4020906
133	0x3e513b62	0.20432809
134	0x3eee93f7	0.46597263
135	0x3edcf343	0.43154344
136	0x3ec4f2f7	0.38466617
137	0xbd5cde61	-0.053923015
138	0xbed0655a	-0.40702325
139	0x3f27ef34	0.6559937
140	0xbeef8d38	-0.4678743
141	0xbe076087	-0.13220416
142	0x3ea4562f	0.32097003
143	0xbe999201	-0.29994205
144	0x3f2184f4	0.63093495
145	0x3f0494e6	0.517897
146	0x3cf51cab	0.029920897
147	0x3eb7c6cd	0.3589386
148	0xbf5541f4	-0.8330376
149	0x3e552ec1	0.20818616
150	0xbf004f99	-0.50121456
151	0xbe571803	-0.21005253
152	0x3d87428e	0.06604491
153	0xbf2c8097	-0.6738371
154	0x3ed058bb	0.40692696
155	0x3f1d0004	0.6132815
156	0x3eb00b26	0.34383506
157	0x3cbba9b9	0.022908079
158	0x3f8e2627	1.1105393
159	0xbecd79e3	-0.40132055
160	0xbd329e68	-0.0436081
161	0x3f59d0dd	0.85084325
162	0x3e489c82	0.19590953
163	0xbe5e75e4	-0.21724659
164	0x3ea57b80	0.32320786
165	0xbf96a77b	-1.1769861
166	0x3e1acb60	0.15116644
167	0x3f38a515	0.72126895
168	0x3e071fd1	0.13195731
169	0xbf649d4c	-0.89302516
170	0xbe28494f	-0.16434215
171	0x3f311249	0.69168526
172	0xbe325847	-0.17416488
173	0x3f602b89	0.8756643
174	0xbf8642ab	-1.0489095
175	0x3efb6922	0.49103647
176	0x3f246f4a	0.64232314
177	0x3f69d4fd	0.9134062
178	0x3e19a946	0.15005979
179	0xbea4e71f	-0.3220758
180	0xbf1b3ce9	-0.60639817
181	0x3f0422e6	0.5161575
182	0xbf42586b	-0.75916165
183	0x3e9a2cd2	0.3011232
184	0x3f9d4147	1.2285546
185	0xbf09c83f	-0.53821176
186	0x3e08bcd4	0.13353282
187	0x3f09802e	0.5371121
188	0xbebdf3fb	-0.37100205
189	0x3ecde010	0.4021001
190	0x3f507257	0.8142447
191	0xbeee2b82	-0.4651757
192	0x3f76b465	0.9636901
193	0xbf22a551	-0.635335
194	0x3e58e634	0.21181566
195	0xbf936097	-1.1513852
196	0xbe2aed8b	-0.16692178
197	0x3ef4b8d3	0.4779726
198	0xbecdce3e	-0.40196413
199	0x3f69770e	0.9119729
200	0x3f03a353	0.5142109
201	0x3f125c9b	0.57172555
202	0x3f92f72b	1.148168
203	0x3e95b713	0.29241237
204	0x3e919109	0.28430966
205	0x3f819dff	1.0126342
206	0x3f28153c	0.656574
207	0xbfabf40f	-1.3433856
208	0xbf101c69	-0.5629335
209	0x3ecf2889	0.40460613
210	0x3e55a4cf	0.2086365
211	0xbe936a88	-0.28792214
212	0xbf2629be	-0.64907444
213	0xbf5a9427	-0.8538231
214	0x3d534e3a	0.051588275
215	0xbf100bd3	-0.5626804
216	0xbe65ec50	-0.22453427
217	0x3eb6715b	0.35633358
218	0x3e90a4fa	0.28250867
219	0x3d66b6ef	0.056326803
220	0x3d5a112c	0.053239033
221	0xbf03b9c1	-0.5145531
222	0x3ebe5b5e	0.37179083
223	0xbf2de160	-0.6792202
224	0xbf398369	-0.7246614
225	0xbf8057f2	-1.0026839
226	0xbfc9a711	-1.575411
227	0x3e52e7f1	0.20596291
228	0x3e117d17	0.14207874
229	0xbdb33f9f	-0.08752369
230	0xbd933f90	-0.07189858
231	0x3e73c6b5	0.2380627
232	0x3eb9607a	0.36206418
233	0xbebfa3f8	-0.37429786
234	0x3f07fe33	0.5312225
235	0xbb90fa5f	-0.004424378
236	0x3e0a2900	0.13492203
237	0x3f05a386	0.5220264
238	0xbeb4dab1	-0.35323098
239	0xbdb1cec0	-0.086820126
240	0x3fa1d73c	1.2643809
241	0x3f0e5958	0.5560508
242	0x3ed37481	0.41299823
243	0x3ed22f41	0.41051677
244	0x3f1e03cd	0.6172455
245	0xbe6f5239	-0.23371209
246	0xbf16218b	-0.5864493
247	0xbf04917e	-0.51784503
248	0x3e00c00a	0.12573257
249	0x3fbb1fdf	1.4619101
250	0x3ebbaba3	0.36654386
251	0xbe94cd6a	-0.29062968
252	0x3e3dd00c	0.18536395
253	0xbe230ed0	-0.1592362
254	0x3edfc45f	0.43704507
255	0x3f669c25	0.9008201

L3.bias f4 [176]
0	0xbfc864d2	-1.5655768
1	0xbf90e936	-1.132117
2	0xbeac1012	-0.3360601
3	0xbf94526d	-1.1587654
4	0xbf80dbeb	-1.0067114
5	0xbf8ae367	-1.0850648
6	0xbd73db4f	-0.05953532
7	0xbfb39014	-1.4028344
8	0xbf945cc9	-1.1590816
9	0xbeb3838d	-0.35061303
10	0xbfa04801	-1.2521974
11	0xbfc1f0f9	-1.5151664
12	0xbfcae081	-1.5849763
13	0xbf65f959	-0.898336
14	0xbf8a8d61	-1.0824395
15	0xc002e49d	-2.0452034
16	0x3ee5daf6	0.44893616
17	0xbf565fbc	-0.8373983
18	0xbfda97af	-1.707754
19	0xbfc7c1ce	-1.560602
20	0xbe626c90	-0.22111726
21	0xbf78371b	-0.96959084
22	0xbf9fb341	-1.2476579
23	0xbf3d9dd7	-0.7406897
24	0xbfed8c36	-1.8558414
25	0xbfce5ffc	-1.6123042
26	0xc0136139	-2.302809
27	0xbfe5cb3a	-1.7952645
28	0xbfe88691	-1.8166066
29	0xbfcb535f	-1.5884818
30	0xbece01a7	-0.40235636
31	0xbff99691	-1.9499074
32	0xbf93144e	-1.1490571
33	0xbf00f3bc	-0.5037191
34	0xc002f891	-2.0464213
35	0xbfca3959	-1.5798751
36	0xbea7fe8a	-0.32811385
37	0xbf792bbd	-0.97332364
38	0xbf08fadc	-0.5350778
39	0xbf81593d	-1.0105358
40	0xbe990873	-0.2988926
41	0x3d03d8e9	0.032189284
42	0xbfbe5022	-1.4868205
43	0xbe894183	-0.26807794
44	0xbf2b70d7	-0.66969055
45	0xbf67deb0	-0.9057417
46	0xbfaaad41	-1.3334123
47	0xbf70a171	-0.9399634
48	0xbf844123	-1.0332378
49	0xbf64623d	-0.892124
50	0x3cdc71f7	0.026909811
51	0xbfa83b5b	-1.3143114
52	0xbfbc3e37	-1.4706486
53	0xbf933abb	-1.1502298
54	0xbf4df47e	-0.8045119
55	0xbfd50580	-1.6642303
56	0xbceabd9a	-0.028654862
57	0x3f8d7af3	1.1053146
58	0xbfbe2382	-1.4854586
59	0xbe3ff69a	-0.18746415
60	0xbead9457	-0.33902237
61	0xbfc5c891	-1.5451833
62	0xbf7edc34	-0.99554753
63	0xbfb498d3	-1.4109138
64	0xbfa43906	-1.2829902
65	0xbd4cefb2	-0.05003328
66	0xbfd03238	-1.6265326
67	0xbf6d61d3	-0.9272739
68	0xbfe4d730	-1.787817
69	0xbed8e4bb	-0.42362007
70	0xbffd10d0	-1.9770756
71	0xbf70db9c	-0.940851
72	0xbf7f1ada	-0.9965035
73	0xc004738d	-2.0695527
74	0xbf851dd1	-1.0399724
75	0x3ebf9e83	0.37425622
76	0xbf709fbc	-0.93993735
77	0xbf579d1d	-0.8422411
78	0x3f28bbcc	0.65911555
79	0x3f644e7b	0.8918225
80	0xbeb61cde	-0.355689
81	0x3e4f3c56	0.2023786
82	0xbf6e7b85	-0.93157226
83	0xbf8a6b14	-1.0813928
84	0xbf89749e	-1.0738714
85	0xbf1589de	-0.58413494
86	0xbfd0e7ec	-1.6320777
87	0xc000fb08	-2.0153217
88	0x3dfa34d6	0.12217109
89	0xbe46409f	-0.19360588
90	0xbf41ebd9	-0.757505
91	0xbd7d188c	-0.061790988
92	0xbfd6c4e8	-1.6778841
93	0xbf17a636	-0.5923799
94	0xbf73bee5	-0.95213157
95	0xbf8e8bbe	-1.1136396
96	0xbfcc762c	-1.5973563
97	0xbfa0dcdc	-1.2567401
98	0x3f643bd7	0.8915381
99	0xc01a524e	-2.4112735
100	0xbd872538	-0.06598896
101	0xbf868948	-1.0510645
102	0xbf6bff05	-0.92186004
103	0xbfbe72c1	-1.487877
104	0xbfad5032	-1.3540099
105	0xbfc592be	-1.5435407
106	0xbcefd28a	-0.029275198
107	0xbf7680bc	-0.96290183
108	0xbfba3aad	-1.4549156
109	0x3efc3eab	0.49266562
110	0xbfb328fb	-1.3996881
111	0xbf663173	-0.89919204
112	0x3ebfe0b6	0.37476128
113	0xbfc06c10	-1.5032978
114	0xbfa655e8	-1.2994967
115	0xbf898327	-1.074315
116	0xbf8812af	-1.0630702
117	0xbf004955	-0.50111896
118	0xbf495fdc	-0.78661895
119	0xbfa014d5	-1.2506357
120	0xbf20d6ce	-0.62827766
121	0xbf94d3ad	-1.1627098
122	0xbdd0f5a8	-0.10203105
123	0x3ee8976e	0.45428032
124	0xbfac6800	-1.3469238
125	0xbfac56e0	-1.3464012
126	0xbfdae715	-1.7101771
127	0xbf38b892	-0.7215663
128	0xbfa92524	-1.321446
129	0xbfc53406	-1.5406501
130	0xbfc5f10a	-1.5464184
131	0xbfc72719	-1.5558807
132	0xbf81d6e5	-1.0143706
133	0xbfc8f96e	-1.570112
134	0xbf28c09c	-0.659189
135	0xbfa7c1cc	-1.3106017
136	0xbe2455ee	-0.16048405
137	0xbfc976ae	-1.5739343
138	0xbf8e329b	-1.1109194
139	0xbfce9643	-1.6139606
140	0xbf847e66	-1.0351074
141	0xbf930668	-1.148633
142	0xbf5bd83c	-0.8587682
143	0xbf96fbc7	-1.1795586
144	0xbff32395	-1.8995234
145	0xbf1e54b8	-0.6184802
146	0xbf7a1c5f	-0.9769954
147	0xbfbc82e6	-1.4727447
148	0xbf96d0cb	-1.1782469
149	0xbfbf2326	-1.4932601
150	0xbfcdfb06	-1.6092231
151	0xbfa559a4	-1.2917981
152	0xbf6bdfa6	-0.92138135
153	0xbfb10755	-1.3830363
154	0xbfc27ac4	-1.5193715
155	0xbf333482	-0.70001996
156	0xbfd32f6a	-1.6498845
157	0xbf4f573d	-0.8099249
158	0xbfc2580d	-1.5183121
159	0xbe18a970	-0.14908385
160	0xbf9de944	-1.2336812
161	0xbfa55950	-1.2917881
162	0xbfc20d36	-1.5160282
163	0xbfb4227e	-1.4073026
164	0x3d97a1e7	0.07403927
165	0xbfa40bb6	-1.2816074
166	0xbf752c42	-0.9577066
167	0xbf6d9353	-0.92802924
168	0xbfb8578d	-1.4401718
169	0x3e2f8cf0	0.17143607
170	0xbfa334cb	-1.2750486
171	0xbf90bc8a	-1.1307538
172	0xbfba18fb	-1.4538873
173	0xbfd6630c	-1.6748977
174	0xbf84119f	-1.0317878
175	0xbf5043df	-0.81353563

L4.weight f4 [88, 176]
0	0x3df756b8	0.12077087
1	0x3dee1e6d	0.11626897
2	0x3bf27829	0.007399578
3	0x3eb6585a	0.35614282
4	0xbf14f3fe	-0.581848
5	0x3cad969c	0.02118998
6	0xbd03f196	-0.032212816
7	0xbe2a703a	-0.16644374
8	0xbd07fd7a	-0.03320072
9	0xbea88693	-0.32915172
10	0x3e6cf511	0.2314036
11	0x3e99da13	0.3004919
12	0xbc5f805b	-0.013641442
13	0xbe1ce7b9	-0.1532277
14	0x3e1af443	0.15132241
15	0xbeb614c3	-0.35562715
16	0xbd03c865	-0.032173533
17	0xbed0c5cf	-0.40775916
18	0xbec22419	-0.37918165
19	0x3e3b283f	0.18277071
20	0xbf1cf6bd	-0.6131399
21	0x3ec268c6	0.3797056
22	0xbec41c95	-0.38303056
23	0xbccd4407	-0.025056852
24	0x3e0420ce	0.12903139
25	0x3e074205	0.13208778
26	0xbd115127	-0.035477784
27	0xbe871fc2	-0.26391417
28	0x3c5553cd	0.013020468
29	0xbe54d98e	-0.20786116
30	0xbd2d5ece	-0.04232674
31	0x3f3ae79b	0.7300965
32	0xbed75f9e	-0.42065138
33	0x3de8526a	0.11343844
34	0xbea77ae3	-0.32710943
35	0x3e5aabca	0.21354595
36	0x3df2183d	0.11821029
37	0x3f099447	0.5374188
38	0x3db406ba	0.087903455
39	0xbe40402b	-0.18774478
40	0xbe6d32f4	-0.23163968
41	0xbebb759c	-0.36613166
42	0x3e535be7	0.20640527
43	0xbed1d600	-0.40983582
44	0xbf1475ad	-0.5799206
45	0x3e3bcc5b	0.18339674
46	0x3e408fd2	0.18804863
47	0xbe2f73e3	-0.17134051
48	0x3f03d66a	0.51499045
49	0x3e1ac89e	0.15115592
50	0x3e1f1712	0.15536144
51	0x3e893da3	0.26804838
52	0xbe9faf2b	-0.3118833
53	0xbecd0702	-0.4004441
54	0xbe0a6be3	-0.13517718
55	0xbdaff88a	-0.08592327
56	0xbeaae1b2	-0.33375317
57	0xbf6f04ac	-0.93366504
58	0x3eab0138	0.33399367
59	0xbe827673	-0.25480995
60	0xbd02201c	-0.031768903
61	0xbebebebf	-0.37254903
62	0xbd9db160	-0.07699847
63	0x3f61f5fc	0.8826597
64	0x3e088bc9	0.13334574
65	0xbee666cb	-0.450003
66	0xbd9a9e3f	-0.07549714
67	0xbf2feee3	-0.6872389
68	0xbf963da3	-1.173756
69	0x3c8179e9	0.015805202
70	0xbe57dd26	-0.21080455
71	0x3d1cfa2f	0.03832453
72	0x3d0df3e4	0.03465642
73	0xbca43674	-0.020045497
74	0xbe0ddc4c	-0.13853568
75	0xbf0663c2	-0.5249597
76	0xbd59bf2e	-0.05316084
77	0xbf15e959	-0.58559185
78	0xbd2c70f5	-0.04209991
79	0xbf0a3432	-0.53985894
80	0xbe1d5eee	-0.15368244
81	0xbf147d0a	-0.58003294
82	0xbce4eaea	-0.027944047
83	0x3e21e54f	0.1581013
84	0xbcc089a6	-0.023503136
85	0xbdab12a6	-0.08353166
86	0x3f29d6e0	0.663435
87	0x3dcda888	0.100419104
88	0xbf39b700	-0.7254486
89	0xbf471ea3	-0.7778112
90	0xbd9ad2e1	-0.07559753
91	0xbf219539	-0.6311832
92	0xbdcad202	-0.09903337
93	0xbead285e	-0.3381986
94	0xbe8333ba	-0.25625402
95	0xbe52855e	-0.20558688
96	0x3d062dde	0.032758586
97	0x3e50ef39	0.20403756
98	0xbf0cf48d	-0.55060655
99	0x3d17936d	0.03700583
100	0xbe08b704	-0.13351065
101	0x3ee3500c	0.44397008
102	0x3f517237	0.81814903
103	0xbeb1503d	-0.3463153
104	0x3e1c4338	0.15260017
105	0xbe2fa7a8	-0.171538
106	0xbf85f7a0	-1.0466194
107	0xbc83cad6	-0.01608793
108	0xbde295fe	-0.11063765
109	0xbe99b408	-0.30020165
110	0xbdb40b19	-0.08791179
111	0xbe123753	-0.14278917
112	0xbd29f00b	-0.04148869
113	0x3ea4112d	0.32044354
114	0xbd3ec0ea	-0.046570696
115	0xba09b0f3	-0.0005252503
116	0xbf3b4a13	-0.73159903
117	0xbe8f42ea	-0.2798074
118	0xbd9519b1	-0.07280291
119	0xbea06438	-0.3132646
120	0x3f014c51	0.50507075
121	0x3ef6dfb3	0.48217544
122	0x3de41181	0.11136151
123	0x3d48ee71	0.04905552
124	0xbe856ced	-0.26059666
125	0xbeeb393e	-0.4594211
126	0xbdc18989	-0.09450061
127	0x3e2a0435	0.16603167
128	0x3c7d11d7	0.015446148
129	0xbee4f7fa	-0.4472044
130	0xbe4ed994	-0.20200187
131	0x3e8464ad	0.2585806
132	0x3e2655a1	0.16243602
133	0x3e5f797a	0.21823683
134	0xbeaa838f	-0.33303496
135	0xbec6952d	-0.38785687
136	0xbe3c9d83	-0.18419461
137	0x3ecc080c	0.3984989
138	0x3e851c55	0.25998178
139	0xbd0608c3	-0.0327232
140	0xbdf03f7f	-0.11730861
141	0xbded9954	-0.11601511
142	0xbeb5f59b	-0.35538945
143	0xbe35ae61	-0.17742302
144	0x3e9fb6ec	0.31194246
145	0xbea7e25b	-0.32789883
146	0xbeba529f	-0.3639116
147	0xbe377c0e	-0.17918417
148	0xbdba6a88	-0.091023505
149	0x3e978a06	0.2959749
150	0x3e477e58	0.1948179
151	0xbe093189	-0.13397802
152	0xbefbeace	-0.4920258
153	0x3d1008a9	0.03516451
154	0x3d98b563	0.07456472
155	0x3eca7e4f	0.3954949
156	0xbe8f82cc	-0.28029478
157	0x3c51ee00	0.012813091
158	0xbea07327	-0.31337854
159	0xbf45f666	-0.773291
160	0xbe87b73d	-0.26506987
161	0x3e6f2a4e	0.23355982
162	0xbf0a897f	-0.5411605
163	0xbec8dba0	-0.3923006
164	0xbcc7e8a8	-0.024402931
165	0x3e8b2b7b	0.2718161
166	0x3d11a9df	0.035562392
167	0xbe608339	-0.21925057
168	0x3e80e7c2	0.25176817
169	0xbf0e2ae7	-0.55534214
170	0xbe0c86cb	-0.13723294
171	0xbc3d6b2f	-0.011561199
172	0xbe015fdd	-0.12634225
173	0xbe9ebf30	-0.3100524
174	0xbc7bf92c	-0.015379231
175	0xbe6a9277	-0.22907434
176	0x3efc7194	0.49305403
177	0x3f330e8b	0.69944066
178	0x3ccef650	0.025263935
179	0x3f16ad76	0.5885843
180	0x3f23bf31	0.6396361
181	0x3f66ec72	0.90204537
182	0x3f827336	1.019141
183	0x3f2e48e9	0.6808
184	0xbded1831	-0.1157688
185	0xbd8f173c	-0.069868535
186	0x3ee119af	0.43964908
187	0x3f00b116	0.5027021
188	0x3ef6ed6f	0.48228022
189	0x3ec15dd8	0.3776691
190	0x3f771a62	0.9652463
191	0x3ef8d174	0.485973
192	0x3e91d4a4	0.28482544
193	0xbee676c5	-0.4501249
194	0xbdcb0699	-0.09913368
195	0x3f3b2dd3	0.731168
196	0xbe4f7702	-0.20260242
197	0x3f10a36e	0.56499374
198	0x3ce8b795	0.028407851
199	0xbeadb8db	-0.33930096
200	0x3f51d48a	0.81964934
201	0x3f820ed7	1.0160779
202	0x3ecd2d5d	0.40073672
203	0x3f518ef1	0.81858736
204	0x3f43516f	0.7629613
205	0x3d84acac	0.06478247
206	0xbe89b482	-0.2689553
207	0x3f3f2612	0.74667466
208	0x3f0cf485	0.5506061
209	0xbcf371a3	-0.029717272
210	0x3e0e0b22	0.13871434
211	0x3eec44de	0.46146291
212	0x3f7533bd	0.9578207
213	0x3e8dfe4b	0.27733073
214	0x3f6b13f0	0.918273
215	0xbc141b34	-0.009039689
216	0xbec58b53	-0.38582858
217	0xbdcaa98b	-0.09895619
218	0x3f1ddc7a	0.61664546
219	0x3bc5fd1e	0.006042137
220	0xbe01f43a	-0.12690821
221	0x3f629495	0.8850797
222	0x3f48f182	0.7849351
223	0xbc5affc9	-0.013366648
224	0xbe63dace	-0.22251436
225	0x3f4dd0f7	0.8039698
226	0xbe981ba7	-0.29708597
227	0x3eb98824	0.3623668
228	0x3f646286	0.89212835
229	0x3f42a6f9	0.7603603
230	0x3f1a4b0a	0.6027075
231	0xbed9854e	-0.42484516
232	0x3dda0de3	0.1064718
233	0xbed12421	-0.40847877
234	0x3de465ab	0.11152204
235	0xbe71f360	-0.23627996
236	0xbf0a6231	-0.5405608
237	0x3ed0798b	0.4071773
238	0xbeeba9a8	-0.46027875
239	0x3f061f3a	0.523914
240	0x3f17123f	0.59012216
241	0xbe84e7f9	-0.2595823
242	0x3d89b810	0.0672456
243	0xbe814171	-0.2524524
244	0x3df60cd4	0.120141655
245	0x3cc8ca9b	0.024510672
246	0x3e665d3e	0.22496507
247	0x3f92ba36	1.1463077
248	0x3f572ea1	0.84055525
249	0x3f480ffc	0.7814939
250	0x3f567bd6	0.8378271
251	0xbf2a849d	-0.666086
252	0xbf515706	-0.8177341
253	0x3f07f66d	0.5311039
254	0xbe665f55	-0.22497304
255	0xbd881edc	-0.06646511

L4.bias f4 [88]
0	0xbeef3926	-0.46723288
1	0xbf779047	-0.96704525
2	0xbf3c8cae	-0.7365216
3	0xbfe33d8c	-1.7753158
4	0x3e209a97	0.15683971
5	0xbeea214d	-0.4572853
6	0x3f323248	0.69607973
7	0x3e0b6102	0.13611224
8	0x3ef40daa	0.47666675
9	0xbfa7ae88	-1.3100138
10	0xbf79eb38	-0.9762454
11	0xbe99e3cf	-0.30056617
12	0xbed84474	-0.42239726
13	0xbee76f0f	-0.45201918
14	0xbf3d05fb	-0.7383725
15	0xbf54f343	-0.8318369
16	0xbf17f884	-0.5936358
17	0xbf80de6d	-1.0067879
18	0xbf8da8c0	-1.1067123
19	0xbf8aee01	-1.0853883
20	0xbf28731c	-0.6580064
21	0xbf37b577	-0.7176127
22	0xbfb2a086	-1.3955238
23	0x3cd1432a	0.025544722
24	0xbfa5e772	-1.2961257
25	0xbf355bda	-0.7084328
26	0x3f8186d6	1.0119274
27	0xbf8f6a4a	-1.1204312
28	0xbe636e0c	-0.22209948
29	0xbf5f82b3	-0.87308806
30	0x3dd67ae1	0.10472656
31	0xbee16bab	-0.44027457
32	0xbf3b4bc0	-0.7316246
33	0xbfdcae0c	-1.7240615
34	0xbfb33d33	-1.4003052
35	0x3e3ba437	0.18324362
36	0xbd289e53	-0.041166615
37	0xbf934f1c	-1.1508517
38	0xbf99de81	-1.2021028
39	0xbfb590e4	-1.4184842
40	0xbf95b89a	-1.1696961
41	0xbf2084a0	-0.6270237
42	0xbf982e04	-1.1889043
43	0xbfeee611	-1.8663961
44	0x3f1227e7	0.57092136
45	0xbe507627	-0.20357572
46	0xbfa74706	-1.306855
47	0xbfaaba61	-1.3338128
48	0x3ecd1951	0.40058377
49	0x3fc441e3	1.5332607
50	0xbf9cfa81	-1.2263948
51	0x3e15721c	0.1459431
52	0x3e811d74	0.25217783
53	0xbf5a4dbe	-0.85274875
54	0xbf61f172	-0.8825904
55	0xbf873a9d	-1.0564762
56	0xbfb76cbb	-1.4330057
57	0xbf29ecc9	-0.6637693
58	0x3f20352a	0.6258112
59	0x3f9e2e05	1.2357794
60	0xbf568332	-0.8379394
61	0x3eebbeb3	0.4604393
62	0xbc85fced	-0.016355956
63	0xbfb0c276	-1.3809345
64	0xbfafb681	-1.3727571
65	0xbf9a8ab3	-1.2073578
66	0xbf9e8a87	-1.2386025
67	0xbea17e2d	-0.31541577
68	0xbf810ce9	-1.0082065
69	0xbf98ca9f	-1.1936835
70	0xbf5708c2	-0.8399774
71	0xbf75a0b5	-0.95948344
72	0xbf34c0aa	-0.7060648
73	0xbf7c1027	-0.98462147
74	0xbf531d8b	-0.82466954
75	0xbfc65115	-1.5493494
76	0xbf980b58	-1.1878462
77	0xbeca3e37	-0.3950059
78	0xbf332494	-0.6997769
79	0xbf85481b	-1.041263
80	0xbfc16b1f	-1.5110816
81	0xbecf5e58	-0.40501666
82	0xbfbebcd8	-1.490138
83	0xbf71038d	-0.94146043
84	0xbf4085b6	-0.75204027
85	0x3fbd3a39	1.4783393
86	0xbf5f634b	-0.87260884
87	0xbf169ac6	-0.58829916

L5.weight f4 [44, 88]
0	0xbd7c1254	-0.061540917
1	0xbe61262e	-0.2198722
2	0xbef804b0	-0.48441076
3	0x3f0b61cf	0.5444612
4	0xbf0b957d	-0.54524976
5	0xbebbc11a	-0.36670762
6	0xbeef7152	-0.46766144
7	0xbf57990d	-0.8421791
8	0xbf06bf06	-0.5263523
9	0xbd1fe2e5	-0.039034743
10	0xbf0a1575	-0.5393899
11	0xbf1a22f9	-0.60209614
12	0xbf49eb6c	-0.7887485
13	0x3f14a7f0	0.5806875
14	0x3e352924	0.17691475
15	0x3f7de799	0.99181515
16	0x3f375689	0.7161642
17	0x3f4994e6	0.78742826
18	0x3f70f159	0.9411827
19	0x3f735e95	0.95066196
20	0x3eecdf61	0.46264175
21	0x3ea0df90	0.31420565
22	0x3ef4bf7c	0.4780234
23	0xbe65e45f	-0.22450398
24	0x3eb5941a	0.35464555
25	0x3f42fddc	0.7616861
26	0x3d90f810	0.07078564
27	0x3f8e9c4c	1.1141448
28	0xbf3edfaf	-0.74560064
29	0x3e8a1393	0.2696806
30	0xbfbf982b	-1.4968313
31	0xbd235137	-0.039872374
32	0xbf322287	-0.69583935
33	0x3dcb098f	0.099139325
34	0xbd1cad42	-0.03825117
35	0xbf49a8bc	-0.78773093
36	0xbc89ec3f	-0.016836284
37	0x3fbc8e60	1.4730949
38	0x3f743b7f	0.95403284
39	0xbe59b166	-0.21259078
40	0x3f9bca4e	1.2171113
41	0xbf2b2439	-0.66852146
42	0x3dab8a9b	0.08376046
43	0x3e1d38fc	0.15353769
44	0xbf154e2e	-0.5832242
45	0xbedde7fb	-0.4334105
46	0x3da66ef6	0.08126633
47	0x3f62b1cb	0.8855254
48	0xbf17c95b	-0.5929162
49	0xbebe20a9	-0.37134293
50	0x3edc0a7c	0.4297675
51	0xbec9fb57	-0.3944957
52	0x3d4c17f7	0.049827542
53	0x3f1fe4dc	0.62458587
54	0x3d9bc9d2	0.076068535
55	0x3ecee97b	0.40412506
56	0x3f5350a8	0.82544947
57	0x3e49ecb8	0.19719207
58	0xbf3d0d88	-0.7384877
59	0xbf0678b2	-0.52527916
60	0x3f688f8e	0.9084405
61	0xbf420549	-0.75789315
62	0xbe81787e	-0.2528724
63	0x3e7fff8d	0.24999829
64	0xbd8b35b5	-0.06797353
65	0x3fe44e37	1.7836369
66	0xbd880886	-0.06642251
67	0x3e76c0a1	0.2409692
68	0xbdd782b9	-0.1052298
69	0x3d44eaad	0.048075367
70	0x3e68f00a	0.22747818
71	0xbdbed04d	-0.09317074
72	0x3d831fb0	0.06402528
73	0xbc5ef58f	-0.01360835
74	0x3bf54c80	0.007485926
75	0xbd99ac59	-0.07503576
76	0x3e7443c7	0.2385398
77	0x3f211c32	0.6293365
78	0xbe9bddaa	-0.30442554
79	0x3e543960	0.20725012
80	0x3fd8dedd	1.6943012
81	0xbe7aa2e9	-0.24476208
82	0x3f96e163	1.1787533
83	0x3f9be80b	1.2180189
84	0x3f101f5a	0.5629784
85	0xbe10a21a	-0.14124337
86	0x3e858fd6	0.260863
87	0xbc3335e4	-0.0109381415
88	0xbe6274f4	-0.22114927
89	0x3eeeca7c	0.46638858
90	0xbf8a6238	-1.0811224
91	0xbf4c0a7d	-0.79703504
92	0xbdbbd8cc	-0.0917221
93	0xbe0e1633	-0.13875656
94	0xbe8a06b3	-0.26958236
95	0xbea3f30b	-0.32021365
96	0xbe7af5d8	-0.24507844
97	0x3e31c02c	0.17358464
98	0x3e355ad7	0.17710434
99	0xbea40d19	-0.32041243
100	0xbcc446f7	-0.02395962
101	0xbe927bd2	-0.28610092
102	0x3ea90ebc	0.33019054
103	0x3de5fbea	0.112296894
104	0x3efd2642	0.4944325
105	0x3faae275	1.3350359
106	0x3ec684d1	0.38773206
107	0x3f1a4806	0.6026615
108	0x3fe9d28d	1.826738
109	0xbdc81eb8	-0.09771484
110	0xbda8d8b3	-0.08244457
111	0xbec41b68	-0.3830216
112	0x3f365b92	0.71233475
113	0xbb5060af	-0.003179591
114	0xbef5ffa3	-0.48046598
115	0x3f69b099	0.9128509
116	0x3d8fbeb7	0.07018798
117	0x3bd7ed25	0.006589549
118	0xbdb75674	-0.089520365
119	0x3f2b2f67	0.66869205
120	0xbc95a0ff	-0.018265245
121	0xbf6be928	-0.92152643
122	0x3eca1f12	0.3947683
123	0xbdaa63b2	-0.083197966
124	0xbf66fc63	-0.9022886
125	0xbf622043	-0.8833048
126	0x3f21b6ae	0.6316937
127	0x3e816861	0.25274947
128	0x3eba1cb9	0.3635004
129	0xbf7fc33c	-0.9990728
130	0x3e9a4208	0.30128503
131	0x3e238a4a	0.15970722
132	0xbe03e594	-0.12880546
133	0x3d74c3fd	0.05975722
134	0xbac1d3e8	-0.0014787884
135	0x3f2a7023	0.6657736
136	0xbe6e39dd	-0.2326426
137	0xbecfe522	-0.40604502
138	0x3dd7cffc	0.10537717
139	0xbeed1ba8	-0.46310163
140	0xbdd4cc43	-0.10390522
141	0x3fa80bc7	1.3128594
142	0xbf2fb3a6	-0.68633497
143	0x3e74fc40	0.2392435
144	0x3ed375b0	0.41300726
145	0xbf0da424	-0.55328584
146	0xbf14c0bc	-0.5810659
147	0xbee5fa27	-0.44917414
148	0x3ef78b04	0.48348248
149	0xbf283da2	-0.65719044
150	0xbee65b3c	-0.4499148
151	0x3f2848a6	0.6573585
152	0x3debba82	0.11510183
153	0x3f12a284	0.5727923
154	0x3f49cbed	0.7882679
155	0x3d00bbce	0.031429105
156	0x3f2ce14e	0.6753129
157	0xbebc04d8	-0.36722445
158	0x3dba3366	0.09091835
159	0x3f5bc5dd	0.8584879
160	0x3f9f38fa	1.2439263
161	0x3f06360d	0.52426225
162	0xbe9de540	-0.30838966
163	0x3dc36193	0.09540095
164	0x3f44b107	0.7683262
165	0xbf0ee9da	-0.5582558
166	0x3eb99a59	0.3625057
167	0x3e2fda00	0.17173004
168	0x3f7a5e6d	0.9780033
169	0xbdb7b5ee	-0.08970247
170	0x3f1a55c5	0.60287124
171	0x3f895b6b	1.0731024
172	0x3e672d79	0.2257594
173	0xbe17bd95	-0.14818414
174	0xbedc10a9	-0.4298146
175	0xbf0647fd	-0.52453595
176	0x3c7bec08	0.015376098
177	0x3edd1ff3	0.43188438
178	0x3dc76af3	0.09737196
179	0xbecd1c32	-0.40060574
180	0x3e7bb3ef	0.24580358
181	0xbe234ecc	-0.15948027
182	0xbf32249c	-0.6958711
183	0xbf13c071	-0.5771552
184	0xbeb7164d	-0.35759202
185	0x3e004eb9	0.1253003
186	0x3d0e4292	0.034731455
187	0xbe97ec5e	-0.2967252
188	0x3e15aa3e	0.14615723
189	0x3f3eb56b	0.7449557
190	0xbdde8d05	-0.10866741
191	0x3e281d2d	0.1641738
192	0x3f05bd02	0.5224153
193	0x3e778bcb	0.2417442
194	0xbeb3b315	-0.35097566
195	0xbdc56773	-0.09638872
196	0x3e909a95	0.28242937
197	0x3eadb8c8	0.3393004
198	0x3f295057	0.66138214
199	0xbe1186f3	-0.14211635
200	0x3e1cdaff	0.15317915
201	0x3eb826ed	0.35967198
202	0xbf0d5874	-0.55213094
203	0x3f43cea6	0.76487195
204	0xbe096ce8	-0.1342045
205	0x3ec6d7f9	0.3883665
206	0xbdb5769f	-0.08860516
207	0x3f01d6ea	0.5071856
208	0x3f2fd6c1	0.68687063
209	0x3ec117c7	0.37713453
210	0x3eb57f8b	0.3544887
211	0x3e052c4c	0.13005179
212	0xbee0de18	-0.43919444
213	0x3f637cb2	0.88862145
214	0x3f84a17a	1.0361779
215	0x3f8d5955	1.1042887
216	0xbef3e8f3	-0.47638664
217	0x3e7a31f3	0.24433117
218	0x3f44e5cd	0.7691315
219	0x3f72a0e9	0.9477678
220	0xbf00798b	-0.5018546
221	0xbe2234ae	-0.15840408
222	0xbf51ac32	-0.81903374
223	0x3e877ca7	0.2646229
224	0xbe7a2910	-0.24429727
225	0xbf14eaed	-0.5817097
226	0x400298d0	2.040577
227	0xbe9fcd18	-0.31211162
228	0xbe5e0d1d	-0.2168469
229	0x3f5af1dc	0.855253
230	0xbe3a55c1	-0.18196775
231	0x3e4c4e2d	0.19951697
232	0x3fa247f3	1.2678207
233	0x3efb326c	0.49061906
234	0xbeecdf02	-0.4626389
235	0xbe4cc267	-0.19996034
236	0xbe79a2c0	-0.2437849
237	0xbed2d0c5	-0.41174904
238	0xbf1c7b69	-0.6112581
239	0x3f934b08	1.1507273
240	0xbe0e6ee3	-0.13909487
241	0x3fcc1ea6	1.5946853
242	0xbe2a9a10	-0.16660333
243	0xbed1169f	-0.4083757
244	0x3e699e56	0.22814307
245	0x3eb3f76c	0.35149705
246	0xbd8cd0ef	-0.068757884
247	0x3e55d40c	0.2088167
248	0x3e6b52cf	0.22980808
249	0x3e4b7b47	0.19871245
250	0x3e951e81	0.29124835
251	0xbd8c8f83	-0.0686331
252	0x3f5118d5	0.81678516
253	0xbec1884a	-0.37799293
254	0x3f26344f	0.64923567
255	0x3f45a423	0.7720358

L5.bias f4 [44]
0	0xbfb7942e	-1.4342096
1	0xbf83ead7	-1.0306042
2	0xbfdcb4a3	-1.7242626
3	0xbfa989ca	-1.3245175
4	0xbe6f374f	-0.23360942
5	0xbf654cc9	-0.8957029
6	0xc004aa91	-2.0729105
7	0xbfbee435	-1.4913393
8	0xbf908e28	-1.1293383
9	0xbfa7b9ba	-1.3103554
10	0xbf71c828	-0.9444604
11	0xbf645b76	-0.8920206
12	0xbf6c4787	-0.9229664
13	0xbfaafec9	-1.3359004
14	0xbf848f88	-1.0356302
15	0xbfd4be69	-1.6620609
16	0xbfd6c413	-1.6778587
17	0xbfaaa8f6	-1.3332813
18	0xbf82972e	-1.0202386
19	0xbfeb19d1	-1.8367254
20	0xbfa8057d	-1.3126675
21	0xbf2a7acc	-0.66593623
22	0xbf852acf	-1.0403689
23	0xbf2351f5	-0.6379693
24	0xbfa59123	-1.2934917
25	0xbf8eb567	-1.114911
26	0xbf8398c2	-1.0280993
27	0xc00676e2	-2.101006
28	0xbf7b48d6	-0.98158014
29	0xbf9aacc5	-1.2083975
30	0xbf96b86c	-1.1775031
31	0xbfc58c55	-1.5433451
32	0xbf7e553d	-0.99348813
33	0xbfe5f770	-1.7966137
34	0xc0024fdc	-2.0361242
35	0xbf6327b5	-0.88732463
36	0xbf88569a	-1.0651429
37	0xbfc95865	-1.5730101
38	0xbfa04e7a	-1.2523949
39	0xbfa855f7	-1.3151234
40	0xbfb83a50	-1.4392796
41	0xbee829cd	-0.4534439
42	0xbefa4510	-0.48880816
43	0xbf8aba40	-1.0838089

L6.weight f4 [1, 44]
0	0x3d2fdb34	0.042933658
1	0x3d4bdcaa	0.04977099
2	0x3e3c91e3	0.18415026
3	0xbd2626ca	-0.040564336
4	0x3c6beb30	0.014399335
5	0x3e713b78	0.23557842
6	0x3da68fda	0.08132906
7	0xbbfc6380	-0.007702291
8	0xbda4e096	-0.08050649
9	0x3c9ac034	0.018890478
10	0x3d613486	0.05498173
11	0xbdd35cda	-0.103204444
12	0xbb94ccd6	-0.00454102
13	0xbd2cfc0d	-0.04223256
14	0xbdd813da	-0.105506614
15	0x3db601c9	0.08887059
16	0x3cce3a61	0.025174322
17	0x3d17997e	0.037011616
18	0xbd0a5860	-0.033775687
19	0xbd5487e0	-0.051887393
20	0xbddeabb8	-0.108725965
21	0x3d0d188e	0.034447245
22	0x3c36aac3	0.011149111
23	0xbe5657bc	-0.20931906
24	0xbe16fa11	-0.1474383
25	0xbe9e0239	-0.3086107
26	0x3db8c778	0.09022421
27	0xbe7df60f	-0.24800895
28	0x3d8bd723	0.068281434
29	0x3a0f1be5	0.00054591737
30	0x3e3372ff	0.17524336
31	0x3c5147ff	0.012773513
32	0x3d52b76f	0.051444467
33	0x3c147b6b	0.009062628
34	0x3da3eb79	0.08003897
35	0xbc86144a	-0.016367096
36	0xbd813c81	-0.06310368
37	0x3e050622	0.1299062
38	0x3e7c7d17	0.24657093
39	0x3e6d30e4	0.23163182
40	0x3dc11746	0.09428267
41	0x3d4d34b3	0.050099086
42	0xbcf3bc7a	-0.029752959
43	0xbde6e7bb	-0.11274668
