Saved_Models_All_Features/target_Hardness_features_22_epochs_78.pth (torch_old, 162565 bytes, 11 tensors)

L1.weight f4 [44, 22]
000000 71 8d 21 bf 33 a4 d6 bd e9 e7 d2 3f da 2e 89 be
       -0.6310645 -0.10480537 1.6477023 -0.26793557
000010 44 08 90 3e f9 20 e6 bd b3 3e be be 12 c5 60 3f
       0.28131306 -0.11236758 -0.3715721 0.87800705
000020 6a 9c c7 3e 71 79 3d be 6e 94 ae 3e 65 74 31 3f
       0.38986522 -0.18503357 0.34097618 0.6931823
000030 32 06 1d 3f 73 28 13 bd 5d 07 17 bf 5d f8 e2 bd
       0.6133758 -0.035927247 -0.5899561 -0.11082528
000040 d3 69 84 be 0a cc 39 bf b0 52 8d 3e 3d ef a3 3b
       -0.25861987 -0.72576964 0.27602148 0.0050028847
000050 9b 38 d4 bc c9 10 82 be c3 2e a1 3e 1e 0f 40 3e
       -0.025905898 -0.2540343 0.3148099 0.18755767
000060 50 d1 88 3e 7e 0b 2b 3e cd c7 d7 bd d0 ee 80 3e
       0.26722193 0.16703603 -0.10536156 0.251822
000070 2b e2 fa 3d 48 5d b2 3e 62 ba 81 3e a2 5d 29 bc
       0.12250169 0.34836793 0.2533751 -0.010337265
000080 09 e5 90 3d b2 1c 3c 3e 1a 6b 72 be 3d 7a 34 be
       0.07074935 0.18370321 -0.23673669 -0.17624755
000090 5d f8 0d 3e 0f 35 de 3d ec 3d b2 3e 98 2f 1a be
       0.13864274 0.10849964 0.34812868 -0.15057218
0000a0 0f 91 59 be d3 75 c2 3d e3 ad 16 bc 1a 3d d1 3e
       -0.21246742 0.094951294 -0.009196731 0.4086693
0000b0 e0 17 b9 3e ee 81 40 3f 93 c9 e4 be 0f e1 3a 3e
       0.36151028 0.75198257 -0.4468504 0.18249916
0000c0 47 aa e8 3e eb fa 6a be 6e 36 9f 3e 35 be 16 3f
       0.4544241 -0.2294728 0.31096214 0.5888398
0000d0 23 17 3a 3e c5 5f 7d be d3 80 19 3f 9b 6e 9e 3e
       0.18172888 -0.24743564 0.59962195 0.3094376
0000e0 59 f2 c6 3e a1 42 7a 3e e7 df 0e 3f 4c 0f 49 3f
       0.38856772 0.2443948 0.558104 0.78538966
0000f0 63 6d 31 3f 97 42 3c bf 8d 57 0e be 65 c2 ad be
       0.69307536 -0.7353911 -0.13900585 -0.33937374
000100 e6 60 ee bd 4f ae 5a be 2b 32 6b bf 8d 03 1a be
       -0.11639576 -0.21355556 -0.91873425 -0.15040417
000110 15 03 6a 3f 16 ae b4 bd fb 2b 3d bf f6 39 3a bf
       0.9141095 -0.08822267 -0.73895234 -0.7274469
000120 d0 9d e3 3e 3d ca 50 3f 18 7d 45 bf 1b cb a1 be
       0.4445634 0.8155859 -0.77144 -0.3160027
000130 da c4 ee 3e 75 30 e1 3e 08 29 51 3e 95 b1 f5 bd
       0.4663456 0.43982282 0.20425808 -0.11996762
000140 2b 9b 7c be 3d 04 c8 be 98 c1 18 bf 4e 9c 2f 3f
       -0.24668567 -0.39065734 -0.596704 0.6859788
000150 7b c4 a3 3e 15 6c 02 be ac 7c 0d 3e f8 78 ba bd
       0.3198584 -0.12736543 0.1381709 -0.09105104
000160 d1 c8 a2 be ae 04 08 3f d5 36 14 3f 14 4b 23 3d
       -0.31793836 0.5313214 0.5789617 0.039866522
000170 4d 99 6d bf f0 42 e0 be 7b 1f ac 3e ed 12 5e 3f
       -0.92812043 -0.4380107 0.33617768 0.8674763
000180 d6 a8 ce 3e f0 c6 c2 be ef 01 a6 bb f9 9b d5 be
       0.40363187 -0.38042402 -0.0050661485 -0.4172056
000190 0c 59 69 bf 3e 96 83 3d e9 a3 d0 3e 34 46 93 be
       -0.911515 0.06425141 0.40750054 -0.28764498
0001a0 40 9f 4a bf 3d 62 57 be 82 ea f1 3e f6 33 9c 3d
       -0.79149246 -0.21033569 0.47249228 0.07627098
0001b0 eb ec 45 3f 27 fa ab 3e b7 18 11 3e c8 a9 6b 3f
       0.77314633 0.3358929 0.14169584 0.9205594
0001c0 6d 95 6d 3e 05 ed a3 3d 6d 46 28 3e 38 ac 37 3f
       0.23201533 0.08004192 0.16433115 0.7174716
0001d0 7a 61 1a bd e8 db 82 3f 0a 83 6a 3f 0d 33 2f 3f
       -0.037690617 1.022336 0.916062 0.6843727
0001e0 9a 95 cc be 4c 99 12 be 61 85 1a bf 00 3c b5 3e
       -0.39957887 -0.1431629 -0.6035977 0.3539734
0001f0 c5 b1 ee 3e 14 ea 25 3f 21 78 59 3f fb 78 17 3e
       0.46620002 0.648103 0.8494893 0.14792244
000200 4d b9 d2 3d e9 78 fe be 92 e0 d9 3e d1 58 99 3e
       0.102892496 -0.49701622 0.42554146 0.29950574
000210 81 dc 2f 3f 02 15 80 3d 3d 85 2a 3f 73 3c bd bd
       0.6869584 0.06254007 0.66609555 -0.092400454
000220 34 a3 eb bd 07 78 9b bc c9 e4 45 be f7 8e af 3d
       -0.11505738 -0.018978132 -0.19325556 0.0857219
000230 45 5e 19 3f 52 77 3a 3f fe de 4d 3f 94 f5 43 3f
       0.5990947 0.7283832 0.80418384 0.765466
000240 22 90 2e 3f 79 f8 4c 3f 8c 52 87 3d 9e 44 18 3f
       0.6818868 0.8006664 0.066075414 0.594797
000250 3b ca 0c 3f b8 f9 9f be 59 44 2d 3b d0 79 87 be
       0.5499608 -0.31245208 0.0026438443 -0.26460123
000260 d6 1b b7 bc af e4 98 be da 47 87 3e 24 b9 29 3f
       -0.02235214 -0.29861972 0.26422006 0.6629813
000270 97 c2 5b 3f 98 69 5c be 1c 82 03 bd e3 22 34 3f
       0.85843796 -0.21524656 -0.032106504 0.7036573
000280 9d e6 92 be f8 9f ec 3e 07 1b 31 3f 99 3b 04 3f
       -0.2869157 0.46215796 0.69181865 0.5165344
000290 5e 87 47 3e ae 5c 0d 3f 2e e9 a5 3d d5 b7 08 3f
       0.19485232 0.5521954 0.08101116 0.53405505
0002a0 56 fb 85 3e a4 87 fa 3e ec 4c 48 3f b5 dc 1d be
       0.26168317 0.4893161 0.78242373 -0.15416224
0002b0 14 b4 7f bb 13 c0 94 be a8 42 2f bd 69 26 c5 bb
       -0.0039017247 -0.2905279 -0.042788178 -0.0060165417
0002c0 14 f9 57 be b2 14 2a 3e f5 44 a9 3e c2 a6 ea bd
       -0.2109111 0.16609457 0.33060423 -0.11457588
0002d0 47 9c b1 3e d8 17 c2 3e 2d e3 e5 3d 9c 8a c3 3e
       0.34689543 0.37908816 0.11224971 0.38191688
0002e0 50 d0 c2 3e 9e b4 9a 3e 4e f4 9c 3e dc 5c 8a bb
       0.38049555 0.30215925 0.3065514 -0.0042224955
0002f0 d3 bc 94 3d 69 38 4d 3d e9 59 1f 3d 24 d1 c6 3e
       0.07262578 0.050102625 0.038904104 0.38831437
000300 3b 16 54 3e 4d 09 a1 be 71 3d 20 3f 31 8c b7 3e
       0.20711605 -0.31452408 0.6259375 0.35849145
000310 b1 03 08 3e ca e1 c2 3e 4c a3 eb bd cf fc 66 3e
       0.13282658 0.38062888 -0.11505756 0.22557376
000320 1c 5b bb 3d 76 0f dc bd 2a e8 61 3e d4 41 60 3e
       0.09148237 -0.107451364 0.2206122 0.21900111
000330 79 51 36 3e 07 d4 2f 3e 07 4f 6f be 3c 00 af 3d
       0.17804517 0.17170726 -0.2336999 0.085449666
000340 bd f1 0a 3e cf 45 09 3f 46 48 ca bd e1 d3 e2 3e
       0.13568778 0.53622144 -0.09877066 0.44302276
000350 88 ce cb 3c be bf 2f 3f 6d 09 a0 bd 94 36 b9 be
       0.024878755 0.6865195 -0.07814298 -0.36174452
000360 09 0e b2 3e bf 6a 43 bd fb 17 92 bd 1c 7f af 3d
       0.34776333 -0.047709223 -0.0713348 0.08569166
000370 82 08 72 3f 91 d0 1f be da 04 52 3e 21 4b 24 be
       0.9454423 -0.15606906 0.20509663 -0.16044284
000380 08 35 94 bd 7d 24 e7 be 6a 85 07 be 06 ea e8 be
       -0.072366774 -0.45145026 -0.13234487 -0.45491046
000390 31 42 e2 3d 00 62 95 3d 38 8d a9 3e fb 39 a7 3e
       0.11047781 0.07294083 0.33115554 0.32661423
0003a0 85 8b 15 3e ad db 94 bf f3 d1 89 3f 2b bf 01 3f
       0.14604004 -1.162954 1.0767196 0.50682324
0003b0 ee c1 0d 3d 7c 32 1d bd 4d 11 d1 be 2f 15 dc 3e
       0.034608774 -0.038378224 -0.40833512 0.42984912
0003c0 58 7f 06 3f 78 6b e0 bd e3 17 94 3e 50 b6 72 3e
       0.5253806 -0.10957998 0.28924474 0.23702359
0003d0 56 03 db 3c 8a d7 89 3f 47 14 b2 3e 0b 13 82 3e
       0.02673499 1.0768902 0.34781095 0.25405154
0003e0 a1 d8 39 3e 72 81 fb 3e 2b 06 35 3e 89 34 d8 3e
       0.18149044 0.49122196 0.17678134 0.4222758
0003f0 b8 e9 f1 b8 b6 40 b7 bd 7c 57 5f 3c cf 7b c1 3e
       -0.00011535309 -0.089478895 0.013631698 0.3778977

L1.bias f4 [44]
000000 cc fd be bf 34 57 9f bf ce b9 b7 bf 2c f8 6e bf
       -1.4921203 -1.2448487 -1.4353578 -0.9334743
000010 61 6f 94 bf 87 31 05 c0 c8 9d d9 bf 01 76 0a c0
       -1.159649 -2.081148 -1.7001276 -2.1634524
000020 6c 5c dd bf 81 e2 cd bf ea bd 8e bf 5d c7 0d c0
       -1.729383 -1.6084749 -1.1151707 -2.2152932
000030 ef b9 75 bf 61 72 10 c0 c7 ab f0 bf b2 45 16 bf
       -0.9598684 -2.2569811 -1.8802422 -0.58700097
000040 4d 03 d6 bf f3 15 1c 3e 09 c3 c2 bf 63 4a ed bf
       -1.6719757 0.15242748 -1.521577 -1.8538326
000050 e3 de 8e bf 13 48 15 c0 7d 70 9f bf 23 12 87 bf
       -1.116177 -2.332524 -1.2456204 -1.055241
000060 c6 1f be bf b2 b3 8e bf ad fe a2 bf 0c 2e d0 bf
       -1.4853446 -1.1148589 -1.2733971 -1.6264052
000070 d1 e0 fc bf e0 5a d8 bf e9 82 02 c0 35 8c dd bf
       -1.9756109 -1.6902733 -2.0392401 -1.7308413
000080 cc bb b7 be b1 ca a7 bf 5a 70 98 bf 7b 28 0c c0
       -0.35885465 -1.3108732 -1.1909287 -2.1899707
000090 d8 35 a9 bf 93 b6 b1 bf 5c 5f 6b bf 23 b0 83 bf
       -1.3219557 -1.3883842 -0.9194238 -1.0288128
0000a0 60 28 00 c0 74 74 1f c0 b0 7c 1e c0 6a 8a 06 bf
       -2.0024643 -2.4914827 -2.4763603 -0.52554953

L2.weight f4 [88, 44]
000000 93 b3 2f 3e 8b ae 87 3f 51 fc 6f 3e 75 bd 85 bd
       0.17158346 1.0600141 0.23436095 -0.06530277
000010 71 71 26 3f 4b 39 d9 be bb f3 bc be 6e 51 74 3e
       0.6501685 -0.42426524 -0.36904702 0.23859188
000020 17 91 0a bd bb af de bb 3d 1b 9e 3e 86 53 45 3e
       -0.033829775 -0.006795851 0.30880156 0.19270143
000030 64 b5 66 bf 66 19 0e bf 38 83 7e bd b5 9e 2a be
       -0.9012053 -0.55507505 -0.06213686 -0.16662104
000040 ba bf b4 be c3 7b b1 be 28 b7 38 3f de ab ce 3e
       -0.35302526 -0.34664735 0.72154474 0.403655
000050 1d ba c4 3d 90 74 a1 be 24 12 0e 3e 18 3c ee be
       0.09605811 -0.31534243 0.13874108 -0.46530223
000060 58 de c7 3e 4f 45 8f bd 58 3f 22 3e 9a da 7c 3d
       0.39036822 -0.069956414 0.15844476 0.061731912
000070 cf 4a 39 be 2e 6a 45 3f 10 4c ca be 3d a6 e4 3c
       -0.18094943 0.7711514 -0.39511156 0.0279113
000080 00 82 75 be bb 80 b2 3e fb 58 5d 3f 1c 93 14 bf
       -0.23975372 0.3486384 0.864639 -0.5803697
000090 09 6c a0 ba c7 1c 5e 3f 3d 97 e4 3d 86 8c ca be
       -0.0012239228 0.8676266 0.11161659 -0.39560336
0000a0 79 75 86 be a2 1b bc bd 92 21 3f 3e e3 c6 8c be
       -0.262615 -0.09184958 0.1866515 -0.2749549
0000b0 b7 ac d9 be c3 7f d9 be f7 11 92 be 5d 6d f5 3d
       -0.42514583 -0.42480287 -0.2852933 0.1198375
0000c0 2b 14 63 3e b1 14 19 3f d3 a7 20 be f9 ae 3a 3f
       0.22175662 0.597972 -0.1568902 0.7292324
0000d0 dd f4 3a 3e db 81 88 be 32 3a 29 bb 89 ec 4f 3d
       0.1825747 -0.26661572 -0.002582204 0.050762687
0000e0 6b 68 f9 3f cd 1d a7 3e 0e 6e db 3e 85 52 35 be
       1.9484991 0.32639924 0.42857403 -0.1770726
0000f0 5a 40 c5 be d5 d1 01 3f af 24 00 3f a0 aa a1 3e
       -0.3852566 0.50710803 0.50055975 0.3157549
000100 5a 79 2b bf 63 b1 5f bf cc 81 48 bf 67 6c b8 3d
       -0.6698204 -0.87380046 -0.78323054 0.09005051
000110 ea 45 50 3f 82 7c 65 bf 63 11 13 bf 93 0e 6f bd
       0.8135668 -0.8964311 -0.57448405 -0.05836351
000120 47 70 0c bf c2 0b 25 3f 5d e7 85 bd 09 db 10 bf
       -0.5485882 0.64471066 -0.0653827 -0.5658422
000130 94 cb ab be 46 ca 13 bf a6 4b 4f 3e 34 69 c7 bd
       -0.33553755 -0.5773052 0.20243701 -0.09736863
000140 36 59 de 3e fe 8b 0f bf 03 88 b1 3e 4e 55 07 bf
       0.43427438 -0.56072986 0.3467408 -0.5286454
000150 05 a0 b0 be 8b 62 03 bf be 46 aa 3e 23 5c e5 be
       -0.34497085 -0.5132224 0.33257097 -0.44796857
000160 82 fe b3 bf b9 88 40 3e ff 0d 1f bf 9d db 0b bf
       -1.4062045 0.18802156 -0.6213073 -0.5463198
000170 71 6a 85 bf 24 b4 3f bf d1 42 70 bf d9 54 68 bb
       -1.0423108 -0.7488425 -0.93851954 -0.0035450964
000180 8a b7 fb 3d dc 8a 76 bd cf 09 06 bf 05 b9 2a 3e
       0.12290867 -0.06019102 -0.52358717 0.16672142
000190 83 90 c2 be 69 15 6b be 9e 8a 5f 3d ca 99 0d 3f
       -0.3800088 -0.22957386 0.054575555 0.5531279
0001a0 bd ba 05 3c bc 31 4c bf e5 98 01 bf 56 68 c9 bd
       0.008162198 -0.7976339 -0.50623924 -0.098343536
0001b0 06 31 49 3e 9e 39 96 3b d0 c4 48 bf e8 a4 98 bf
       0.19647607 0.004584505 -0.7842531 -1.1925325
0001c0 58 b0 87 be 45 ef a9 be 4c e2 e4 be 5a af 47 3e
       -0.26501727 -0.3319036 -0.447039 0.19500485
0001d0 00 c1 0c be 35 a4 90 be 25 01 82 3e fc 70 df bd
       -0.13745499 -0.2825028 0.25391498 -0.10910222
0001e0 04 04 f8 bc b2 87 dc bf cb 7a bf 3e 67 76 ab be
       -0.030275352 -1.7228911 0.3739837 -0.3348877
0001f0 08 c2 b0 3e af 5c 00 3e 53 80 a1 be 85 1b db bc
       0.34523034 0.12535356 -0.31543216 -0.02674652
000200 90 d7 d2 be 5d 71 14 3f 9f be cd be 35 8e ba be
       -0.41180086 0.5798548 -0.40184495 -0.3643662
000210 57 87 8a be f3 bf 12 3f e9 60 1d bf b2 70 26 bc
       -0.2705638 0.5732414 -0.61476 -0.010158705
000220 1d 51 e5 3d 42 49 13 bf f0 b4 1d bf 84 51 4d bd
       0.11197112 -0.5753366 -0.61604214 -0.050126567
000230 ca fd f7 bd 97 4d 12 be 00 e1 fc be ab 24 63 3f
       -0.12108953 -0.1428741 -0.4939041 0.88727826
000240 8d 76 a7 bd a0 bb da bc 8f dc 15 be 88 6b 15 bf
       -0.08176909 -0.026700795 -0.14634918 -0.58367205
000250 45 26 90 bc ce 9f a4 be b7 2a 53 3f 5f df db be
       -0.017596373 -0.3215317 0.8248705 -0.42943856
000260 00 92 2d bf 5e 54 24 be fb a7 8a be 09 37 c1 bd
       -0.67800903 -0.16047809 -0.27081284 -0.09434325
000270 57 78 02 3f 18 fd 18 3f d2 7c 26 bd fd b6 0c bf
       0.50964874 0.5976119 -0.04064638 -0.5496672
000280 fe 69 e4 3c 82 a0 2b 3e 31 a3 27 bf 37 2f 00 3e
       0.027882572 0.16760448 -0.65483385 0.12518011
000290 43 f8 3e 3d 24 20 2c bf d1 a4 09 bf 0f ad dc be
       0.04662348 -0.6723654 -0.53767115 -0.43100783
0002a0 6b 8c 37 be 7b 09 d6 be ba 9a bd 3e 5b bc d7 3d
       -0.17924659 -0.41804108 0.3703211 0.10533973
0002b0 4a c7 7e 3e c6 30 8e 3e 18 3e 18 be fc 09 86 be
       0.2488071 0.27771586 -0.14867437 -0.26179492
0002c0 fd 29 be 3e cd 01 b3 be d3 c9 56 bd 83 b8 39 3f
       0.3714141 -0.3496231 -0.05243857 0.7254717
0002d0 bb 13 d7 be 80 60 f6 bd 0f da d1 be 72 14 37 bf
       -0.4200724 -0.12030125 -0.40986678 -0.7151557
0002e0 28 4c 11 3f ad f9 c7 3d 75 2c f2 be 89 56 91 be
       0.5675683 0.09764419 -0.47299543 -0.28386334
0002f0 a6 67 26 bf ab 3d 61 be ac 20 27 be 2d ff f3 bc
       -0.65001905 -0.2199618 -0.16321057 -0.029784763
000300 73 2f 1f 3f bb d0 03 bf 32 c5 71 be 56 6a 94 be
       0.62181777 -0.5149037 -0.2361038 -0.28987378
000310 fb 59 a2 bf d6 a1 cf be 82 e9 17 3f 57 c0 40 3e
       -1.268371 -0.4055316 0.5934068 0.18823372
000320 2a e6 94 3f 33 42 61 bc ea d7 a4 be 93 83 1f bf
       1.163274 -0.013748693 -0.3219598 -0.6231014
000330 c5 5c ae 3e 09 ae c5 bf 97 e3 4f 3d b4 c9 c9 3e
       0.34055153 -1.5443736 0.050754156 0.394117
000340 e7 97 3b 3f ea 2b 1f bf 51 c0 dd 3e b7 59 70 be
       0.7327866 -0.6217638 0.43310788 -0.23471723
000350 40 22 18 bf 90 d7 d3 3e 79 98 d5 be b8 76 92 bd
       -0.5942726 0.413754 -0.4171789 -0.0715155
000360 b4 09 1c be c5 93 bb be 16 ea 46 bf cd 1c 86 be
       -0.15238076 -0.36636177 -0.77700937 -0.26193848
000370 06 f1 2e bf 33 f9 b2 be 6f 92 e2 be bb dc 26 bf
       -0.6833652 -0.3495575 -0.44252345 -0.6518056
000380 2d c5 b6 be e1 32 14 be fb 7f 5a be 33 07 f6 be
       -0.35697308 -0.14472534 -0.21337883 -0.48052368
000390 b1 af 7e be d9 a9 d4 be 51 6c 36 be a1 fc 63 3e
       -0.24871708 -0.41535833 -0.17814757 0.22264339
0003a0 38 45 df be 8f 5e b1 be e4 f6 81 3e 6a ad 60 bf
       -0.43607497 -0.34642455 0.25383675 -0.8776461
0003b0 cb 2d 2b bf 47 75 36 be 90 f3 0a 3f 45 50 55 3f
       -0.6686675 -0.17818175 0.54277897 0.83325607
0003c0 10 1d 2d bf 9f 74 f4 be ac 4e a9 bf f0 ed c3 3c
       -0.6762247 -0.47745225 -1.3227134 0.023917168
0003d0 8b ff 6d bf b0 a3 d5 3e a1 09 e7 be 7f b2 79 be
       -0.9296805 0.41726446 -0.45124534 -0.24384497
0003e0 2b 20 7e be 5f 57 d6 be 32 f0 0f bf c7 6b ad be
       -0.24816959 -0.41863534 -0.56225884 -0.3387129
0003f0 5e fe 87 bf 22 d9 8e be 15 82 38 bf 21 e5 ca 3c
       -1.0624502 -0.27900034 -0.7207349 0.02476746

L2.bias f4 [88]
000000 b2 54 a3 be 84 19 60 be c9 eb 2a bf 0d 70 1c bf
       -0.31900555 -0.21884733 -0.6676603 -0.61108476
000010 36 17 17 3f 3a a4 67 bf db 3d c2 bf e1 c7 67 bf
       0.5901979 -0.90484965 -1.5175127 -0.90539366
000020 cd 1e 5a bf 6a f6 38 bf 39 ce 79 bf a2 6d 04 3e
       -0.8520325 -0.72251 -0.97580296 0.12932447
000030 a4 4c 80 bf d4 32 ff bf 3e c9 ca bc 61 df 7a 3e
       -1.0023389 -1.9937387 -0.024754163 0.24499275
000040 5c d9 d0 bf c9 76 84 be bf c3 9a be 8c 21 9e bf
       -1.6316333 -0.25871876 -0.30227467 -1.2353988
000050 e3 9e c2 bf ed 9e 80 bf 63 0f 89 bf 64 1f b7 bf
       -1.5204738 -1.00485 -1.0707821 -1.4306455
000060 c4 83 e8 bf ca 20 1d bf 9e cd a0 bf 71 73 94 bf
       -1.8165212 -0.6137816 -1.2562749 -1.159773
000070 75 2b c5 bd c4 e7 94 bf 3e c8 f1 bf 9f ba 11 bf
       -0.096274294 -1.1633229 -1.8889234 -0.56925386
000080 09 59 40 bf e1 0d 86 bf 4f 79 74 bf 74 75 7f 3e
       -0.75135857 -1.0472986 -0.954976 0.24947149
000090 45 81 89 be 88 34 a9 3e 36 23 a5 be 85 69 f1 be
       -0.26856437 0.3304789 -0.32253426 -0.47150818
0000a0 fc 13 d3 be 5f 81 ae bf 3a 70 b3 bf 04 60 12 bf
       -0.41226184 -1.3633231 -1.4018624 -0.5717776
0000b0 e8 7d 5d bf 44 58 77 bf 57 42 05 be 99 c0 e7 be
       -0.8652024 -0.9661906 -0.13013588 -0.45264128
0000c0 6e 86 89 bf 56 08 26 bf 2b 78 c4 3f 83 e6 00 c0
       -1.074415 -0.6485647 1.5349172 -2.0140693
0000d0 39 12 97 bf b9 b3 87 bf 61 99 21 bf 00 0c 1a 3e
       -1.1802436 -1.0601722 -0.6312466 0.1504364
0000e0 04 fc 04 c0 0a d7 e5 bf d1 d5 19 bf 16 59 a3 bf
       -2.0778818 -1.795625 -0.6009188 -1.2761562
0000f0 e1 0f 5a 3f 1f 5c e0 be 47 de ee 3e f7 be 71 bf
       0.8518048 -0.43820283 0.4665396 -0.94432014
000100 2f 83 16 bf db 9f 95 3e 56 8c 4f bf 00 f9 8f bf
       -0.5879392 0.29223523 -0.8107351 -1.1247864
000110 c1 82 84 be 95 60 35 bf 67 03 48 bf 07 64 48 3f
       -0.25881007 -0.708505 -0.7813019 0.7827763
000120 41 d4 73 3d 09 1b da bf bd d0 4b bf 7a 5c 99 be
       0.059528593 -1.70395 -0.79615384 -0.29953367
000130 14 78 37 bf 23 37 45 3f 35 71 6c bf 8b 2e da bf
       -0.716676 0.77037257 -0.9236024 -1.7045454
000140 7e dd 71 bc 0b df 83 3f c6 c9 a8 be 24 b3 a0 bf
       -0.0147622805 1.0302442 -0.3296644 -1.2554669
000150 18 c6 d3 bf 33 d7 fe bf 1b 04 f1 3e fe e8 86 bf
       -1.6544828 -1.9909424 0.47073445 -1.0539854

L3.weight f4 [176, 88]
000000 b8 2a b4 bd 3d 50 5f be 68 cb 0e 3f 29 1c eb bd
       -0.087972105 -0.21807952 0.55779123 -0.114799805
000010 ad 40 02 bf 66 02 97 3f cf 70 93 3f 9e 47 84 3f
       -0.5087994 1.1797607 1.1518801 1.0334356
000020 6d f7 83 3f 2d 44 a3 3d 4e 58 da 3e 33 7c 95 be
       1.0309883 0.07971988 0.42645496 -0.2919632
000030 0f a2 81 3e d3 69 26 3f ab cf cc be 95 55 1e bf
       0.25318953 0.65005225 -0.40002188 -0.6184934
000040 28 11 3d 3f d6 1d 81 3c 97 75 67 3f 37 c7 d3 be
       0.73854303 0.015761297 0.904138 -0.41362926
000050 49 56 89 3f b1 c8 64 3f a5 09 47 be 5e 70 a3 3e
       1.0729457 0.8936873 -0.19437273 0.31921667
000060 a7 3f 91 3e 1a b4 78 3f b6 5e e8 3e 07 68 11 3f
       0.28368875 0.97149813 0.4538476 0.5679936
000070 95 2d 37 bf ea 96 d1 3e 91 e8 0b 3f 54 d2 3d 3f
       -0.7155393 0.4093545 0.54651743 0.7414906
000080 ee 7c e2 3e 5f 94 ff 3e 06 9d 9c 3e 17 d3 bf be
       0.4423594 0.49917886 0.3058855 -0.37465736
000090 c1 24 21 3d a8 05 3b bf dd 77 4e 3f 83 1d b3 bf
       0.039341692 -0.73055506 0.80651647 -1.3993381
0000a0 52 97 db be 10 48 b7 3e d6 87 12 3f d9 b3 ad 3d
       -0.42888886 0.35797167 0.5723852 0.08481569
0000b0 68 96 48 be 2e 9b 2f 3d c6 08 b8 3e 05 32 9f 3e
       -0.19588625 0.0428726 0.35944194 0.3109285
0000c0 d2 fd 1d bf 15 de d6 3e 6f b9 5d bf 52 6a 61 3e
       -0.61715424 0.4196631 -0.86611074 0.22013214
0000d0 f7 ce 08 bf ea 60 1c be d0 d0 03 bf c6 38 86 be
       -0.53440803 -0.15271345 -0.514905 -0.2621519
0000e0 4b a8 8e 3f a4 25 b7 be ae 09 cd 3e 47 25 ea 3e
       1.1145109 -0.35770905 0.40046448 0.45731565
0000f0 c3 55 b9 be 62 39 3c 3e 54 66 6f bf d7 68 bf 3b
       -0.36198243 0.18381265 -0.93515515 0.0058413553
000100 76 5f d7 3f 88 6e 97 bd 47 be ab bd da b5 f9 3d
       1.6826007 -0.07394129 -0.08385902 0.121928886
000110 19 a0 12 3f 5e 50 7b 3d 82 95 b2 3e 8b 6a f0 be
       0.5727554 0.06135594 0.3487969 -0.46956286
000120 84 65 ff bd a4 a9 bf 3f 59 43 14 bf 5c e0 ad bf
       -0.124705344 1.4973645 -0.57915264 -1.3584094
000130 87 c5 0b bf 48 3b 90 bf 5b 6c ab 3e ba ed 96 3f
       -0.5459828 -1.1268091 0.33481106 1.1791298
000140 34 9f e7 be 3e 96 25 bf d8 fa 97 bd 5e b2 9a 3f
       -0.4523865 -0.64682376 -0.074208915 1.2085683
000150 ad ac 14 3f ec 97 af 3f af 44 1a bf 38 92 9c 3d
       0.5807598 1.3718238 -0.6026105 0.076450765
000160 d3 27 9a be 78 3c b1 3c 7c eb 13 3e a7 53 1c be
       -0.30108508 0.021635279 0.14445299 -0.15266286
000170 c4 96 5b be 8c d5 14 3f 05 93 59 3f 28 6e 12 3e
       -0.21444231 0.58138347 0.8498996 0.14299834
000180 e6 89 24 3f aa 9c 90 be 0d 04 ed 3e 19 40 05 bf
       0.64272916 -0.28244525 0.46292153 -0.5205093
000190 03 7a 43 bf 9f ed 57 3f cf 85 f7 bc a6 e4 03 be
       -0.7635805 0.84346956 -0.030215172 -0.12880191
0001a0 10 4b 1f 3f 39 b7 93 3b 63 1c e8 3d 57 71 2a bf
       0.6222391 0.004507926 0.11333539 -0.6657919
0001b0 7f 33 bb 3d 50 a4 51 3f cb 5b 56 3e 50 74 0b 3f
       0.091406815 0.81891346 0.20933454 0.54474354
0001c0 47 39 52 3f 5e 3d 91 3f f1 59 ef 3e 0b c3 2c 3e
       0.8211865 1.1346853 0.46748307 0.16871278
0001d0 ab a9 36 bf 4d db 5f 3f 81 0a 29 3e f1 69 47 be
       -0.7135264 0.87444 0.16507913 -0.19474007
0001e0 86 8f 58 3f 32 6a a6 3e 10 ad 93 3e 0f b8 a8 be
       0.84594 0.32502896 0.28842974 -0.32952926
0001f0 e4 11 d4 be 35 1a 2c bf 09 c6 aa bd 75 bf 67 be
       -0.414199 -0.6722749 -0.083385535 -0.22631629
000200 1f d0 21 3e 61 73 88 3d 92 d4 36 be af 77 88 3e
       0.15802048 0.06662632 -0.17854527 0.2665381
000210 0c 4e c5 be c3 16 56 3e 70 41 ca 3e 9b 45 e0 3e
       -0.38536108 0.2090712 0.3950305 0.43803105
000220 fd f5 c4 3e 34 61 59 bd 83 b9 e7 be e6 8b 2a 3f
       0.38468924 -0.053071216 -0.45258722 0.6661972
000230 ab 29 f1 be 39 75 ee bd 48 19 a5 3e 97 98 99 be
       -0.47102103 -0.11643452 0.3224585 -0.2999923
000240 1c ac 21 3f 9e c0 02 3f 2b 94 02 3d 48 ab bb 3e
       0.63153243 0.5107516 0.031879585 0.36654115
000250 60 83 55 bf a0 8c 53 3e 1b a7 fb be a7 db 4e be
       -0.8340359 0.20659113 -0.4915093 -0.20200978
000260 0a 44 b4 3d c2 10 2c bf c1 ef b8 3e da d4 1e 3f
       0.0880204 -0.6721307 0.36120418 0.62043536
000270 be e1 b0 3e 5b e5 a1 3c 4f 53 85 3f 1a 2f d9 be
       0.34547228 0.019762686 1.0416049 -0.42418748
000280 f0 a1 14 bd 90 72 5f 3f 3d ff 46 3e 79 93 85 be
       -0.036287248 0.87284184 0.19433303 -0.26089075
000290 dd 71 99 3e 24 1c 91 bf b4 1b 1f 3e b3 10 38 3f
       0.29969683 -1.1336713 0.15537912 0.7190048
0002a0 30 c9 1f 3e 1d 37 65 bf d2 80 2e be b6 92 31 3f
       0.1560409 -0.8953722 -0.17041329 0.6936449
0002b0 12 6d 33 be d2 75 5f 3f 35 f5 82 bf 9c 70 04 3f
       -0.17522076 0.87289155 -1.0231081 0.5173433
0002c0 55 14 20 3f 70 ce 6f 3f 75 ac 3a 3e 6a 91 a7 be
       0.62531024 0.93674374 0.1822985 -0.3272813
0002d0 c4 b1 1f bf 61 7e 13 3f e1 5e 32 bf 49 f6 9e 3e
       -0.62380624 0.57614714 -0.69676024 0.31047276
0002e0 44 30 a1 3f 9f df 0c bf 88 90 16 3e cb ce 27 3f
       1.2592854 -0.5502872 0.14703572 0.65549916
0002f0 37 30 91 be 06 d5 c9 3e 29 8d 61 3f 7d fb ee be
       -0.28357098 0.39420336 0.8810602 -0.46676245
000300 ce b6 72 3f 02 e2 27 bf 7b 0a 59 3e c8 23 93 bf
       0.9481019 -0.65579236 0.21195404 -1.1495295
000310 5d 5b 51 be f7 67 08 3f ef 95 c6 be 47 5f 62 3f
       -0.20445009 0.5328364 -0.38786265 0.8842663
000320 eb 20 ea 3e 11 ec 04 3f 34 64 9a 3f f4 ba b6 3e
       0.4572824 0.5192271 1.206183 0.3568951
000330 36 8d 82 3e 52 90 82 3f d8 13 25 3f 41 e6 a5 bf
       0.2549836 1.0200293 0.64483404 -1.2960893
000340 95 f6 0a bf af 3a d3 3e 41 c6 86 3e 22 08 9f be
       -0.54282504 0.4125571 0.2632313 -0.31060892
000350 e5 77 25 bf 6f 6a 4b bf bd cb 2a 3d 7b e6 05 bf
       -0.6463607 -0.7945928 0.041698206 -0.5230481
000360 7c ed 30 be 57 c8 b1 3e 54 6c 99 3e b6 52 bb 3d
       -0.17278093 0.3472316 0.2996546 0.09146635
000370 ce a8 af 3d 82 18 00 bf dc 92 d2 3e af 33 35 bf
       0.08577119 -0.50037396 0.4112767 -0.7078199
000380 0f 2e 41 bf 86 6d 81 bf 0f d2 c9 bf f6 40 80 3e
       -0.75460905 -1.0111549 -1.576723 0.2504956
000390 b2 50 15 3e fc f5 08 be 2d 02 74 bc cd c1 a4 3e
       0.14581564 -0.13375086 -0.014893097 0.32179108
0003a0 28 4e d1 3e c3 a2 cc be b4 d7 11 3f 13 30 0e 3c
       0.4087994 -0.39967927 0.5696976 0.008678454
0003b0 bc 02 c9 3d ec f5 04 3f ed e0 c0 be 6b 17 e6 bd
       0.09814975 0.51937747 -0.37671605 -0.112349354
0003c0 c8 b2 a2 3f fa 7a 0c 3f a2 1a c0 3e b1 05 da 3e
       1.271081 0.5487515 0.3752032 0.42582467
0003d0 38 13 10 3f a0 7a 99 be 4b 14 10 bf b5 02 06 bf
       0.56279325 -0.29976368 -0.56280965 -0.5234788
0003e0 28 2a ea 3d ef 20 bf 3f c5 7b bc 3e 4e 44 c9 be
       0.11433822 1.4931926 0.3681318 -0.39309925
0003f0 76 c5 d3 3d d8 ef 56 be b0 33 c8 3e dd 46 6a 3f
       0.10340397 -0.2098993 0.39101934 0.9151438

L3.bias f4 [176]
000000 88 88 cc bf 2f 07 91 bf e8 65 8b be b9 e8 98 bf
       -1.5979166 -1.1330317 -0.27226186 -1.1946021
000010 ff 48 86 bf ad b1 92 bf e3 ef e5 bd 3f 09 b4 bf
       -1.0491027 -1.1460472 -0.112273954 -1.4065322
000020 40 7d 95 bf 99 0f bf be 62 1d a5 bf ff 53 c4 bf
       -1.1678848 -0.37316588 -1.2899592 -1.5338134
000030 26 1a ce bf a4 be 5b bf 12 05 93 bf 51 e8 04 c0
       -1.610173 -0.8583777 -1.1485922 -2.0766795
000040 3d 48 e8 3e 6a 58 4f bf aa 57 db bf 9f e6 d3 bf
       0.45367613 -0.80994284 -1.7136128 -1.6554755
000050 7e bc 74 be 43 b0 70 bf 66 d2 a1 bf 26 21 3e bf
       -0.23900029 -0.94018954 -1.2642334 -0.7426933
000060 7e ce ef bf f6 8c cf bf eb fb 13 c0 6f 94 e7 bf
       -1.8734891 -1.6214893 -2.3122509 -1.8092173
000070 22 d1 e8 bf 24 bc d0 bf 9c 7e cf be 72 62 ff bf
       -1.8188822 -1.6307416 -0.40526283 -1.9951918
000080 5f 1c 96 bf ae 34 f6 be aa 1f 03 c0 a2 36 cb bf
       -1.1727408 -0.48087066 -2.0488076 -1.5876048
000090 90 55 c1 be 0b 4c 6a bf 2a 8f 0a bf 57 a1 82 bf
       -0.37760592 -0.9152228 -0.541247 -1.0205487
0000a0 ee 29 90 be 61 32 d4 3d 0a 9c bf bf 96 52 69 be
       -0.2815699 0.103611715 -1.4969494 -0.2278541
0000b0 3a 1c 1b bf d5 05 81 bf 5d 2c b2 bf 27 93 70 bf
       -0.60589945 -1.0079905 -1.3919789 -0.93974537
0000c0 d9 79 84 bf bc f1 66 bf 32 ba ae 3d 6c 34 aa bf
       -1.0349685 -0.9021261 0.08531608 -1.3297248
0000d0 37 f0 c3 bf f0 a1 9a bf 0a 7b 5a bf 17 e6 d6 bf
       -1.5307683 -1.2080669 -0.8534399 -1.6788968
0000e0 57 87 ca bd 95 86 9c 3f bf 29 c6 bf d0 94 24 be
       -0.09889095 1.2228571 -1.548149 -0.16072392
0000f0 20 0c ae be f9 30 c7 bf c0 09 90 bf 3d d5 bd bf
       -0.33993626 -1.556182 -1.1252975 -1.48307
000100 89 84 a7 bf 77 9e b2 bd 9e 13 d4 bf 06 08 64 bf
       -1.3087322 -0.08721631 -1.6568487 -0.8907474
000110 37 28 eb bf 68 0d e6 be 66 43 fe bf 3f 27 71 bf
       -1.8371648 -0.44932103 -1.9864318 -0.9420051
000120 74 d2 88 bf fe 4e 04 c0 20 b2 8d bf 18 f5 dc 3e
       -1.0689225 -2.0673213 -1.1069984 0.43155742
000130 5a 86 6c bf e8 75 65 bf 68 4c 2a 3f 2a 0e 78 3f
       -0.92392504 -0.89633036 0.66522837 0.9689661
000140 fd 26 bf be 7a bc 46 3e a3 3f 72 bf 21 a0 8f bf
       -0.37334433 0.19407836 -0.9462835 -1.1220742
000150 98 e8 88 bf 47 cf 02 bf 0a 33 d1 bf 54 fd 04 c0
       -1.0695982 -0.5109753 -1.6343701 -2.077962
000160 1e 7f cd 3d d8 aa b9 bd ee bd 46 bf 92 dd 45 bd
       0.10034011 -0.09065789 -0.7763356 -0.04830701
000170 63 9e d6 bf 04 32 38 bf 82 49 70 bf 89 14 8f bf
       -1.6767086 -0.7195132 -0.93862164 -1.1178142
000180 4c 84 cf bf 48 84 a1 bf de b9 76 3f 2a 6f 1a c0
       -1.6212249 -1.2618494 0.9637736 -2.413035
000190 47 b1 e7 bd e0 7e 8a bf 37 f8 6c bf b7 8a c6 bf
       -0.1131311 -1.0819969 -0.92566246 -1.5511082
0001a0 b1 bd a8 bf 5c db ce bf 36 a6 e4 bc 69 4a 7a bf
       -1.3182889 -1.6160693 -0.027911287 -0.9776979
0001b0 01 ac bc bf a9 ad fa 3e d7 f4 b3 bf 1e 39 71 bf
       -1.4739991 0.48960617 -1.4059094 -0.9422778
0001c0 c6 35 cc 3e 91 4b c6 bf 60 7c a6 bf b2 f3 85 bf
       0.39884776 -1.5491811 -1.3006706 -1.0464995
0001d0 e7 c0 89 bf a6 4b f0 be 93 86 52 bf 45 da a5 bf
       -1.0761994 -0.46932715 -0.82236594 -1.2957236
0001e0 11 bd 23 bf ee df 9a bf 78 61 07 be 3c dd dd 3e
       -0.6396037 -1.2099588 -0.13220775 0.4333285
0001f0 c6 48 af bf 3b 38 af bf b3 d5 db bf 97 55 46 bf
       -1.3694084 -1.3689035 -1.7174591 -0.7747435
000200 21 57 aa bf cf aa c4 bf 5b 76 c9 bf f9 c0 c7 bf
       -1.330784 -1.5364627 -1.5739244 -1.5605766
000210 dc eb 82 bf 8f c5 cf bf 1d fd 2e bf f2 1f aa bf
       -1.0228229 -1.6232165 -0.6835497 -1.3290999
000220 ce 1d 08 bd 8c 50 cc bf 7e b6 95 bf 96 1f ce bf
       -0.03323155 -1.5962081 -1.1696317 -1.6103389
000230 ca 8a 8a bf 9b 29 99 bf 3a dc 68 bf fa 5d 97 bf
       -1.0823605 -1.1965822 -0.9096104 -1.1825554
000240 10 ca f4 bf 37 0d 1d bf fd db 88 bf 5c 87 bd bf
       -1.9124165 -0.6134829 -1.0692135 -1.4806933
000250 3c 91 8a bf 6c dd c0 bf 79 d2 d8 bf 16 0b a8 bf
       -1.0825572 -1.5067573 -1.6939231 -1.3128383
000260 c8 1a 6b bf 69 79 ae bf d8 b1 c2 bf 5d 01 39 bf
       -0.9183774 -1.3630801 -1.5210524 -0.72267705
000270 e1 b6 d9 bf 86 e8 59 bf 23 81 c8 bf 28 2a 09 be
       -1.7008935 -0.8512043 -1.5664409 -0.13394988
000280 09 b9 9e bf a6 a9 a5 bf bd cc c4 bf d7 b2 b0 bf
       -1.2400218 -1.2942398 -1.5374981 -1.3804578
000290 0a e2 80 3d 5f a7 a5 bf 73 39 82 bf d2 31 74 bf
       0.062931135 -1.2941703 -1.0173782 -0.9538852
0002a0 39 37 c3 bf 92 e7 58 3e 4e 7d a5 bf fd c8 96 bf
       -1.5251228 0.21182087 -1.2928865 -1.1780087
0002b0 55 1f ba bf 9f f0 da bf b6 b0 79 bf 90 6d 5d bf
       -1.4540812 -1.7104682 -0.97535264 -0.86495304

L4.weight f4 [88, 176]
000000 bf b9 0a 3e 74 ce 08 3e ce 8e 8b 3c bb 54 c0 3e
       0.13547419 0.13360006 0.017035868 0.37564644
000010 46 07 12 bf 58 df 09 3d 51 f3 47 bd ec e6 21 be
       -0.5704235 0.033660263 -0.04881603 -0.15810746
000020 7d de a2 bc c8 b9 a6 be 9f fd 70 3e 38 45 9a 3e
       -0.019881481 -0.32563615 0.23534249 0.30130935
000030 60 30 52 bb db 8b 1e be fe ee 25 3e 3b 43 b1 be
       -0.003207229 -0.15483038 0.1620445 -0.34621605
000040 ab 84 d6 bc 86 56 d0 be 25 87 bb be 1e 78 53 3e
       -0.026186308 -0.40691012 -0.36626545 0.2065129
000050 fd 13 1c bf 55 97 9c 3e c4 d1 c0 be f1 f1 e0 bc
       -0.60968 0.30584207 -0.37660038 -0.027459117
000060 53 f0 19 3e 90 ae 0f 3e 09 9f b0 bc e5 d8 7e be
       0.15033083 0.14031434 -0.021560209 -0.24887426
000070 3f 11 aa 3c b7 99 57 be e9 ed 0e bd bf d6 3e 3f
       0.020760177 -0.21054731 -0.034894858 0.74546427
000080 ea 5b d0 be 21 f2 f6 3d 20 08 a1 be 9d be 61 3e
       -0.40695125 0.12057901 -0.3145151 0.2204537
000090 58 c1 e5 3d 64 a4 03 3f 98 5d df 3d 92 c5 39 be
       0.11218518 0.51422715 0.109065235 -0.18141773
0000a0 8f 6e 62 be b0 9c cf be 0e 9b 69 3e 34 91 c9 be
       -0.22112487 -0.4054923 0.22813055 -0.39368594
0000b0 2e 56 15 bf c2 be 3f 3e 59 21 4d 3e dd 70 1c be
       -0.58334625 0.18725112 0.20032252 -0.15277429
0000c0 c6 49 03 3f d6 1b 2a 3e 22 c7 04 3e ab bf 90 3e
       0.51284444 0.16612181 0.12966588 0.2827123
0000d0 9b 22 99 be 4b 7e c5 be b5 75 04 be b7 d3 9d bd
       -0.29909214 -0.38572916 -0.12935527 -0.07706397
0000e0 3b b6 a8 be 85 10 81 bf 58 e8 b0 3e 2c ec 87 be
       -0.3295153 -1.0083166 0.34552264 -0.26547372
0000f0 09 a1 c5 bc 2b 30 b9 be d4 c5 fc bd 85 6d 62 3f
       -0.02412464 -0.36169562 -0.1234242 0.88448364
000100 60 93 15 3e ba 16 e6 be 83 38 8f bd f7 e8 2f bf
       0.14607 -0.44939214 -0.06993201 -0.6871485
000110 ab de 98 bf fa 32 f8 ba ff bd 4e be d4 9c 59 3d
       -1.1942953 -0.0018936091 -0.20189665 0.05312808
000120 d5 e3 42 3d 60 6d 17 bc 32 88 01 be 49 8b 03 bf
       0.04758056 -0.009242386 -0.1264961 -0.5138441
000130 85 4f 32 bd 25 f3 15 bf 04 da 9d bd 78 8b ec be
       -0.043532867 -0.58574134 -0.07707599 -0.46200156
000140 8e f8 16 be dd e0 01 bf 26 e2 7d bc ff 30 39 3e
       -0.14743254 -0.5073374 -0.0154958125 0.18085097
000150 e0 28 29 bc 68 1d a0 bd 15 bf 2c 3f 8d b9 e8 3d
       -0.010324687 -0.07818109 0.6747907 0.11363516
000160 23 a2 40 bf 63 aa 4e bf 61 a5 5a bd fe 30 24 bf
       -0.752474 -0.8072874 -0.053380374 -0.64137256
000170 51 24 a4 bd 3d 01 a2 be b1 2a 70 be e6 18 4e be
       -0.08014739 -0.3164157 -0.23453785 -0.20126686
000180 25 d7 29 3d 11 23 60 3e 49 c0 15 bf 59 bf 4d 3d
       0.041464943 0.21888377 -0.5849653 0.05023131
000190 a6 c1 1f be 7d fb e1 3e a2 34 53 3f e6 8d a9 be
       -0.15601215 0.44137183 0.82502186 -0.33116072
0001a0 90 06 26 3e dc 06 22 be 8f 71 84 bf dc ac 77 bc
       0.16213441 -0.15822929 -1.0347155 -0.0151168965
0001b0 c5 6f d7 bd a9 c9 9e be ba f0 96 bd a1 08 06 be
       -0.10519365 -0.3101323 -0.07370134 -0.13089229
0001c0 29 62 3e bd d3 62 9f 3e 1f 07 f1 bc 1f 18 58 3a
       -0.04648033 0.31130084 -0.02942234 0.00082433404
0001d0 06 ff 38 bf a1 83 8e be ed 43 86 bd c0 3a 9a be
       -0.72264135 -0.278348 -0.065559246 -0.30122948
0001e0 cf 37 01 3f aa 5f 00 3f b9 89 f6 3d 79 2a ef 3c
       0.5047578 0.5014597 0.12037987 0.029195057
0001f0 7b 68 82 be 85 70 e4 be f6 0e ab bd 29 19 34 3e
       -0.25470337 -0.44617096 -0.08352463 0.17587723
000200 0b a7 f7 3c 68 14 e0 be 1f 5a 4d be 66 e4 8e 3e
       0.03023102 -0.4376557 -0.2005391 0.2790863
000210 d9 fa 31 3e c6 91 74 3e cf b8 a5 be 1b 53 b9 be
       0.17380847 0.23883733 -0.3236756 -0.36196217
000220 fe 4f 3b be 93 83 ce 3e 05 aa 8e 3e 29 d6 66 bc
       -0.18292233 0.40334758 0.2786409 -0.014089146
000230 bc a3 d9 bd 81 60 d3 bd 99 94 ae be c6 78 32 be
       -0.10626933 -0.10321141 -0.34097746 -0.17428884
000240 ec ad a5 3e 1b 07 a7 be 48 6c c5 be f9 cc 24 be
       0.32359254 -0.3262261 -0.38559175 -0.16093816
000250 e7 41 ee bc b0 24 9d 3e d1 69 57 3e 8c da fc bd
       -0.029084159 0.30692053 0.2103646 -0.12346372
000260 fe ee 04 bf 11 13 4c 3d eb 34 ab 3d 24 f5 c7 3e
       -0.51927173 0.04982287 0.08359703 0.39054215
000270 56 c0 8a be 2d 98 f5 3c 08 de 9a be 6c 71 45 bf
       -0.27099866 0.02997979 -0.3024752 -0.77126193
000280 5a f2 82 be 28 44 7c 3e d2 18 07 bf ca 7b dc be
       -0.25575525 0.24635375 -0.5277225 -0.43063194
000290 ca 2e bb bc 4a e5 8f 3e e6 9d 42 3d 40 3a 5e be
       -0.02284946 0.2810462 0.047513865 -0.21701908
0002a0 0e 54 88 3e d3 20 13 bf d0 f4 0e be 70 44 d0 3b
       0.2662663 -0.5747196 -0.13960576 0.0063558146
0002b0 60 40 e8 bd 05 60 9b be 40 1b 27 bd 34 9b 5d be
       -0.113404036 -0.30346695 -0.040797472 -0.21641237
0002c0 c8 f9 fe 3e ba c5 2e 3f 68 da 41 3d 39 35 1c 3f
       0.49799943 0.68270457 0.04732743 0.6101871
0002d0 30 d9 25 3f 20 31 6d 3f 69 bb 81 3f a4 8a 2f 3f
       0.64784527 0.92653084 1.0135318 0.68570924
0002e0 c7 9b fc bd a4 dd 67 bd a3 a0 df 3e 05 b1 06 3f
       -0.123344 -0.056607857 0.43677244 0.5261386
0002f0 31 d7 fd 3e bc 0a ea 3e 3a 77 7c 3f f3 fd 00 3f
       0.4957824 0.45711315 0.98619425 0.50387496
000300 e7 b0 8b 3e 77 03 cd be 6d d2 b0 bd 03 0e 3c 3f
       0.27283403 -0.40041706 -0.086338855 0.7345888
000310 90 7a 4d be e9 42 22 3f af 05 10 3d 0e f8 b0 be
       -0.20066285 0.63383347 0.03516167 -0.3456425
000320 41 ff 54 3f 1f a7 86 3f d1 47 d3 3e 50 d8 52 3f
       0.83201987 1.0519751 0.4126573 0.82361317
000330 0d 61 46 3f 11 1d 4c 3d 18 32 76 be 98 f5 43 3f
       0.7749184 0.049832407 -0.24042547 0.7654662
000340 97 c3 0d 3f 6b 0a 81 bd da ab 11 3e a3 9b f1 3e
       0.5537657 -0.06300815 0.14225712 0.47189054
000350 18 a6 63 3f 07 e4 b5 3e 2a a9 74 3f 64 ef 29 3d
       0.88925314 0.35525534 0.95570624 0.041488066
000360 cf 54 c7 be 60 aa da bd e6 58 18 3f 6d f3 50 3d
       -0.3893189 -0.10677028 0.5951065 0.0510134
000370 2b fa 4f be d7 c1 60 3f ab 78 4c 3f 9b 59 44 bc
       -0.20310275 0.87795776 0.79871625 -0.011984254
000380 08 ed 6a be 82 c0 4c 3f 2e 0d 73 be 9d a7 bb 3e
       -0.22941983 0.79981244 -0.23735496 0.36651316
000390 27 18 64 3f c4 5a 46 3f 62 af 0c 3f d7 db d8 be
       0.89099354 0.7748225 0.5495511 -0.42355224
0003a0 21 6e e1 3d 7e 5c c0 be c3 12 ef 3d e4 96 50 be
       0.110073335 -0.37570566 0.116735004 -0.2037006
0003b0 c9 cf 0b bf 80 72 ce 3e 22 84 e8 be d3 67 09 3f
       -0.5461393 0.40321732 -0.4541331 0.5367405
0003c0 1c 8e 1a 3f f7 c2 77 be 23 ef cc ba 25 4b 81 be
       0.6037309 -0.24195467 -0.0015635233 -0.25252643
0003d0 31 74 b2 3d e0 1a e6 3b cf 47 70 3e c0 79 96 3f
       0.08713568 0.0070222467 0.23464893 1.1755905
0003e0 9d e7 5b 3f 62 76 48 3f 93 84 58 3f 50 a2 33 bf
       0.8590029 0.7830564 0.8457729 -0.70169544
0003f0 03 18 53 bf 88 ca 0d 3f d7 2f 4d be 62 5d 1a be
       -0.82458514 0.55387163 -0.2003778 -0.15074685

L4.bias f4 [88]
000000 bd ee fc be b3 fd 78 bf 9d 3f 3c bf 0f e0 e4 bf
       -0.49400893 -0.97262114 -0.73534566 -1.7880877
000010 06 98 3d 3e 5e ae a1 be 76 c7 5e 3f ac 1b 31 3e
       0.18515024 -0.31578344 0.87023103 0.17295712
000020 f1 08 f3 3e 9d 35 a7 bf 31 82 77 bf 46 8e 97 be
       0.4746776 -1.3063236 -0.9668303 -0.29600734
000030 74 0a f0 be 07 0c f9 be e8 3d 3c bf ba 18 57 bf
       -0.46882975 -0.4864199 -0.7353196 -0.84022105
000040 24 75 1d bf 5f 9e 83 bf 67 42 93 bf a1 ca 8c bf
       -0.6150687 -1.0282706 -1.1504639 -1.0999337
000050 99 98 2a bf ad b2 24 bf 02 ca b4 bf 04 ce a1 3d
       -0.66639096 -0.6433514 -1.4124148 0.079006225
000060 fa d5 a5 bf 99 2c 36 bf 4d a7 90 3f a6 86 96 bf
       -1.2955925 -0.711618 1.1301056 -1.1759841
000070 89 3a c4 bd 13 24 60 bf 01 ae 93 3e 98 cd ee be
       -0.09581477 -0.87555045 0.28843692 -0.4664123
000080 74 7f 4c bf 6e f9 de bf 6c 84 b3 bf 5f a5 6b 3e
       -0.7988198 -1.741987 -1.4024787 0.23012303
000090 64 4f e3 3c 11 46 93 bf 21 87 9d bf 4b 6a b4 bf
       0.027747817 -1.1505758 -1.2306863 -1.4094938
0000a0 d7 97 93 bf 45 f0 1b bf 40 5b 99 bf 8f 76 f3 bf
       -1.1530713 -0.609135 -1.1980972 -1.9020556
0000b0 eb a5 3a 3f 8b 6d 4e be a6 1c a6 bf 60 a3 aa bf
       0.7290942 -0.20158975 -1.2977493 -1.3331108
0000c0 4d 60 07 3f 56 97 cb 3f 78 20 a5 bf ec 71 2a 3e
       0.5288132 1.5905559 -1.2900534 0.1664502
0000d0 0a a8 84 3e 81 de 5d bf cb 72 4b bf 31 fd 8d bf
       0.25909454 -0.8666764 -0.79472035 -1.1092893
0000e0 5d 86 b7 bf 79 03 2c bf 60 c8 38 3f 7a 22 a1 3f
       -1.433788 -0.671928 0.7218075 1.2588646
0000f0 81 21 55 bf 16 e0 02 3f f2 af 22 3c b5 ce b0 bf
       -0.8325425 0.5112318 0.009929644 -1.3813082
000100 df 7f b5 bf 52 44 9a bf 59 ec 9f bf db 65 a2 be
       -1.4179648 -1.20521 -1.2494003 -0.31718335
000110 f9 3f 81 bf 59 dd 98 bf de e4 4f bf 89 d7 79 bf
       -1.0097648 -1.194255 -0.812086 -0.97594506
000120 54 0d 39 bf 9c ec 78 bf 2d 3f 51 bf 0d a0 cb bf
       -0.7228596 -0.9723604 -0.81737024 -1.5908219
000130 07 96 9a bf 1c ef c2 be 36 84 3e bf 98 74 85 bf
       -1.2077035 -0.3807305 -0.7442049 -1.0426207
000140 8a 1e c2 bf d7 70 c1 be 6d 6d c1 bf ae 4e 86 bf
       -1.516557 -0.37781402 -1.5111519 -1.0492761
000150 85 ca 48 bf 27 fb c6 3f 3c 74 5e bf 4a d6 20 bf
       -0.7843402 1.5545396 -0.8689611 -0.6282698

L5.weight f4 [44, 88]
000000 e3 f8 5e bd 63 f0 83 be 95 48 f6 be 35 ad 16 3f
       -0.054436576 -0.25769338 -0.4810225 0.5885804
000010 1d 0b 07 bf dc 98 bb be c4 6c e0 be 5d e4 58 bf
       -0.5275133 -0.3664006 -0.43832982 -0.84723455
000020 fb 02 00 bf 72 00 15 bd ff 56 06 bf 19 fb 1b bf
       -0.5000455 -0.036377378 -0.52476496 -0.6093002
000030 e7 ea 4d bf c1 14 13 3f f7 aa 33 3e 61 2a 7e 3f
       -0.8043656 0.5745354 0.17545687 0.99283415
000040 be 6f 3c 3f 55 e6 3c 3f f3 35 70 3f 84 aa 71 3f
       0.73608005 0.7378896 0.9383232 0.9440081
000050 23 b7 ee 3e bb 0d b4 3e 54 38 f3 3e af 0d 71 be
       0.46624097 0.35166726 0.47503912 -0.23540376
000060 7c 4d bb 3e 02 46 42 3f 1c 34 b3 3d 18 54 8e 3f
       0.36582553 0.75888073 0.087501734 1.1119413
000070 42 c4 3c bf a4 83 97 3e 09 0a b7 bf 3c 5d 50 bd
       -0.73736966 0.2959262 -1.4299937 -0.050870165
000080 78 ea 34 bf 7b 83 c6 3d 06 80 fd bc 1b fa 46 bf
       -0.7067027 0.09693047 -0.030944835 -0.7772538
000090 ad 97 cf bb 1f d5 bb 3f 84 ea 73 3f 7e 06 7c be
       -0.00633522 1.4674414 0.9527972 -0.24611852
0000a0 31 b2 9b 3f 3d 35 2e bf 39 fc a3 3d 99 fc f4 3d
       1.2163755 -0.68049985 0.08007092 0.11962242
0000b0 50 0d 16 bf e7 ad d9 be 2d 21 c5 3d bc 40 62 3f
       -0.58614063 -0.4251549 0.096254684 0.88380027
0000c0 4e b6 11 bf 05 df b4 be 66 e0 d0 3e f2 a2 d9 be
       -0.569188 -0.353264 0.40796202 -0.4250713
0000d0 8f 5d 41 3d a8 ed 19 3f 6a 0e 6a 3d 5e ee c8 3e
       0.047208365 0.6012826 0.057142653 0.3924436
0000e0 d2 d6 51 3f 53 a0 41 3e ff ab 35 bf e0 81 00 bf
       0.81968415 0.18908815 -0.7096557 -0.50198174
0000f0 87 9f 6a 3f 66 94 41 bf ed fe 77 be e2 32 4b 3e
       0.9164967 -0.75617063 -0.2421834 0.19843629
000100 63 eb bc bd 2b 91 de 3f 18 b1 98 bd 67 c1 5f 3e
       -0.09224584 1.7388052 -0.07455653 0.21851121
000110 72 81 d0 bd 09 93 13 3d 64 53 68 3e aa e5 fc bd
       -0.1018094 0.036028896 0.22688061 -0.123484924
000120 60 f2 91 3d 6f 51 70 bc cc 3d 9c bb 08 f3 c4 bd
       0.071263075 -0.014667853 -0.004768109 -0.09616667
000130 83 7d 94 3e 05 93 1b 3f 7e d9 a9 be 63 f1 55 3e
       0.29002008 0.6077121 -0.33173746 0.20892863
000140 a5 77 d7 3f 71 7b 88 be 45 b3 95 3f 7d a9 9e 3f
       1.6833388 -0.26656678 1.1695334 1.2395474
000150 30 c6 11 3f 06 e8 0b be 92 3b 81 3e fe a7 b5 bd
       0.56943035 -0.13662729 0.2524076 -0.088699326
000160 0b 2e 31 be 85 9f f0 3e 2e 07 89 bf 0d 48 42 bf
       -0.1730272 0.46996704 -1.0705316 -0.7589119
000170 52 3e 5e bd 7d 52 0e be 67 63 87 be a0 e9 a5 be
       -0.054258652 -0.13898654 -0.26443025 -0.32404804
000180 69 62 65 be b9 6b 3e 3e 32 62 65 3e bd b4 b3 be
       -0.22400822 0.1859578 0.2240074 -0.3509883
000190 3f d4 91 bc 2c a3 b4 be 74 c8 aa 3e 7f 43 e9 3d
       -0.017801402 -0.3528074 0.3335606 0.11389827
0001a0 73 b7 08 3f 27 68 ab 3f 80 17 cf 3e 99 ca 1a 3f
       0.5340492 1.339116 0.40447617 0.6046539
0001b0 26 b0 eb 3f f8 9f 37 bd 9b a7 b5 bd 39 8e cc be
       1.8413131 -0.044830292 -0.08869859 -0.39952257
0001c0 e9 ed 3c 3f b0 5c f4 ba b6 f4 ec be e2 8b 68 3f
       0.7380052 -0.0018643346 -0.4628045 0.90838444
0001d0 46 7b b4 3d 4e bc 7c 3d 46 10 13 3d 83 2d 26 3f
       0.08812575 0.06170302 0.03590419 0.64913195
0001e0 0e 3d 84 bc 58 c8 70 bf 2e a2 d1 3e ba 2c 8b bd
       -0.016142394 -0.940557 0.40944046 -0.0679564
0001f0 1b 19 66 bf 31 09 62 bf 39 3e 27 3f 55 06 7d 3e
       -0.8988206 -0.88295275 0.6532932 0.24709447
000200 91 42 d4 3e 1a 3e 80 bf 62 c1 99 3e 21 88 24 3e
       0.41457036 -1.0018952 0.30030352 0.16067554
000210 29 7e 0b be 76 35 96 3d 7a 3f 6e 3c 7e b5 37 3f
       -0.13622345 0.073344156 0.014541501 0.7176131
000220 03 a8 69 be d0 33 c3 be 48 da f4 3d ee 95 fb be
       -0.22817998 -0.38125467 0.11955696 -0.49137825
000230 54 5d cf bd dd e4 9b 3f 3c 5c 29 bf 55 0e 41 3e
       -0.10125223 1.2179219 -0.66156363 0.18853123
000240 65 23 d2 3e 4c f8 0b bf 9c 1c 0a bf f4 8a e5 be
       0.4104263 -0.54675746 -0.53949904 -0.44832575
000250 c7 f7 fd 3e 0a c8 27 bf 36 7a ce be 05 62 23 3f
       0.49603102 -0.6553961 -0.40327615 0.6382144
000260 78 5f 08 3e 8a c3 0f 3f d3 d1 49 3f 6c 47 a9 3c
       0.13317668 0.56157744 0.7883579 0.02066394
000270 e6 9f 31 3f 6a 51 bf be 74 09 bc 3d 61 0d 5c 3f
       0.6938461 -0.37366802 0.091814905 0.85957915
000280 d7 0c a1 3f ac 64 10 3f 39 8f a0 be dd e4 98 3d
       1.2582043 0.56403613 -0.3135927 0.07465527
000290 41 90 55 3f 27 3a 0d bf 8d 9c bb 3e 98 a2 2b 3e
       0.8342324 -0.5516686 0.36642876 0.16761243
0002a0 8b 4c 6c 3f 16 06 04 be 4c 24 16 3f 33 b7 a0 3f
       0.92304295 -0.12892947 0.58649135 1.2555908
0002b0 8f 01 95 3e 33 af 27 be a6 65 db be 1f ee 22 bf
       0.29102752 -0.16375427 -0.4285099 -0.63644594
0002c0 50 22 c6 3d f1 af dc 3e c1 ce f8 3d 42 05 97 be
       0.09674513 0.43102983 0.1214881 -0.294962
0002d0 0a 5e 93 3e dc ae 3d be 6b ba 2f bf 07 fd 1c bf
       0.28782684 -0.18523735 -0.68643826 -0.6132359
0002e0 1b b2 8e be 95 60 23 3e 46 70 2b 3c 87 ce 93 be
       -0.2787026 0.15954812 0.01046378 -0.28868505
0002f0 20 fb 04 3e 3c b0 37 3f 0d e9 a1 bd 41 7d 42 3e
       0.12986422 0.7175329 -0.07905779 0.18993093
000300 f1 4a 1a 3f ad 0d 8e 3e fc 18 a2 be 03 c5 90 bd
       0.602706 0.2774481 -0.31659687 -0.07068827
000310 cb 75 ac 3e bd 18 e2 3e 51 d5 27 3f ce d7 22 be
       0.3368362 0.441595 0.6555987 -0.15902635
000320 a8 1e 2f 3e 96 b8 ba 3e 6c e9 13 bf cf 9a 50 3f
       0.17101538 0.36468953 -0.5777805 0.8148622
000330 2a 2d 0d be fd 2c ea 3e 96 3e b2 bd 5a ea 04 3f
       -0.1378676 0.45737448 -0.087033436 0.5192009
000340 39 08 30 3f d9 f3 c6 3e 96 af bd 3e b8 ec 0a 3e
       0.68762547 0.38857916 0.37048024 0.13566864
000350 12 bc db be ef 41 65 3f cc dd 86 3f 64 12 8e 3f
       -0.42916924 0.8955373 1.0536437 1.1099362
000360 0f 43 db be 41 43 79 3e 8b aa 41 3f 81 e2 6d 3f
       -0.428246 0.24342062 0.7565085 0.9292374
000370 cb aa 00 bf 9f e8 b9 bd 36 94 4b bf 9f 21 a0 3e
       -0.5026061 -0.09077572 -0.79523027 0.3127565
000380 15 f7 6b be 6a 22 13 bf 0b 33 00 40 48 f8 a2 be
       -0.23043473 -0.57474387 2.0031154 -0.3183005
000390 a7 d1 42 be 7b e6 58 3f 8c 46 48 be 89 12 4e 3e
       -0.19025289 0.84726685 -0.19558161 0.20124258
0003a0 cb 18 a3 3f 65 93 05 3f e5 58 d7 be e0 99 49 be
       1.2741941 0.5217803 -0.4206001 -0.19687605
0003b0 da 12 31 be 4b f6 df be 2d 4d 18 bf 5a 73 93 3f
       -0.17292348 -0.43742594 -0.5949276 1.1519578
0003c0 d8 bc 1f be d5 f2 ce 3f f2 89 13 be 33 ea ef be
       -0.15599382 1.6167856 -0.1440809 -0.46858367
0003d0 2e 81 8d 3e f1 34 b4 3e 6f 7d 7e bd d2 95 75 3e
       0.2763762 0.3519664 -0.06213134 0.23982933
0003e0 5a 17 9a 3e d4 30 86 3e 65 13 94 3e 41 f4 a1 bd
       0.3009594 0.26209128 0.28921047 -0.07907916
0003f0 dc de 63 3f a1 73 c6 be 32 be 20 3f 73 98 4d 3f
       0.8901193 -0.38760093 0.62790215 0.80310744

L5.bias f4 [44]
000000 d6 1c b7 bf 39 7d 84 bf 2a cd e4 bf cb 4d a6 bf
       -1.4305675 -1.0350715 -1.7875111 -1.299249
000010 b5 2f 55 be 17 6b 6f bf 68 53 05 c0 f0 28 bf bf
       -0.2081898 -0.9352278 -2.0832157 -1.4934368
000020 b6 fc 87 bf 79 e8 a8 bf 54 db 79 bf da 52 74 bf
       -1.0623996 -1.3195945 -0.97600293 -0.9543892
000030 dc 02 75 bf 1e 91 ab bf 60 05 8d bf f8 35 d6 bf
       -0.9570749 -1.3403661 -1.1017265 -1.673522
000040 e7 51 d5 bf a1 43 aa bf d8 da 82 bf 64 3e e8 bf
       -1.666562 -1.3301889 -1.0223036 -1.814404
000050 b4 48 ac bf a2 49 2b bf 00 e7 78 bf fc 72 36 bf
       -1.3459687 -0.6690923 -0.9722748 -0.712692
000060 bd 1c a9 bf b6 3f 93 bf b2 a9 90 bf ff 5e 05 c0
       -1.3211895 -1.1503818 -1.1301787 -2.083923
000070 37 c7 82 bf 4a 28 99 bf fb 02 9b bf 06 50 c6 bf
       -1.0217046 -1.196542 -1.2110285 -1.5493171
000080 b0 36 7e bf f9 9e e4 bf d4 c2 02 c0 b0 b1 65 bf
       -0.99302197 -1.7861015 -2.0431414 -0.89724255
000090 e2 96 8b bf d6 06 ca bf 9c a5 a8 bf 70 99 ac bf
       -1.0905421 -1.5783336 -1.317554 -1.3484325
0000a0 b0 62 b9 bf 40 9a 05 bf cf 58 ef be 1e 95 90 bf
       -1.4483242 -0.5218849 -0.46747443 -1.1295507

L6.weight f4 [1, 44]
000000 04 69 0c 3c 27 7f 6a 3d 6a bf 17 3e a6 26 dd bc
       0.00856996 0.05725017 0.14819112 -0.026995968
000010 86 1c 63 3c f3 eb 58 3e 36 dc b1 3d 89 93 de bc
       0.013861781 0.21183757 0.0868458 -0.02716996
000020 8a 18 c9 bd 81 ae 23 bc c8 b3 81 3d eb 5e fd bd
       -0.098191336 -0.009990335 0.06333119 -0.1237162
000030 86 67 88 3c 18 e1 7e bd 25 42 83 bd 5c cc b9 3d
       0.016650926 -0.062226385 -0.064091004 0.090721816
000040 89 47 fe 3b 32 b9 20 3d 8b d7 99 bc c0 e8 0e bd
       0.0077599925 0.039239116 -0.018779537 -0.034889936
000050 ed 2e 8b bd a9 54 4e 3b b8 03 28 3d a6 fb 43 be
       -0.0679606 0.0031483567 0.04101917 -0.19138965
000060 06 24 ec bd 94 29 9b be 2e 7b 59 3d e9 19 6b be
       -0.115303084 -0.3030516 0.05309599 -0.22959103
000070 8d 50 87 3d f1 8e d8 ba bd b6 2c 3e 13 47 f8 bb
       0.06607161 -0.0016522092 0.16866584 -0.007576832
000080 86 e1 4f 3d 06 58 48 3c 56 43 b1 3d 33 eb e8 3c
       0.050752185 0.012228018 0.086554214 0.028432464
000090 4d 3d 84 bd ff 19 05 3e ba f5 55 3e 4f e1 68 3e
       -0.06457005 0.12998198 0.20894518 0.22742198
0000a0 00 d9 c6 3d 1b fc c1 3c 1b 79 11 bd 34 cd a1 bd
       0.09709358 0.023679784 -0.035515886 -0.079004675
