Saved_Models_All_Features/target_Hardness_features_22_epochs_58.pth (torch_old, 162565 bytes, 11 tensors)

L1.weight f4 [44, 22]
-0.6323206 -0.07201253 1.6224711 -0.2701836 0.30152208 -0.108170845 -0.36577418 0.87791854
0.3743675 -0.17623399 0.33737248 0.6979073 0.6103808 -0.0146096125 -0.59645975 -0.10447338
-0.25014648 -0.7068958 0.25540453 -0.035796355 -0.05188013 -0.2649556 0.30099684 0.19516827
0.27572933 0.17766023 -0.09790733 0.2565306 0.12556548 0.36056942 0.26136065 -0.003486141
0.05129921 0.16488194 -0.25571534 -0.17241214 0.10892456 0.111982726 0.36093223 -0.15336254
-0.19979379 0.094434 0.0077723633 0.43087354 0.39373508 0.7098399 -0.46806586 0.14953995
0.41966355 -0.26276687 0.27546102 0.5623419 0.15152334 -0.2775824 0.62462145 0.3372033
0.42100334 0.25555938 0.58218354 0.7837747 0.68399847 -0.7106188 -0.17309432 -0.3632608
-0.14726083 -0.24688293 -0.9182307 -0.1483688 0.92872036 -0.090301424 -0.743902 -0.7336803
0.44541654 0.82075375 -0.7785093 -0.32440838 0.46647364 0.44061527 0.20531793 -0.12545425
-0.2576911 -0.39937714 -0.6048699 0.6834706 0.32174736 -0.12235682 0.14056756 -0.09233409
-0.32435668 0.52592033 0.5872342 0.047853082 -0.9539781 -0.42772695 0.34584975 0.876373
0.41301206 -0.39726686 -0.027653482 -0.439071 -0.9337935 0.046484075 0.3707284 -0.3055814
-0.8081348 -0.20996019 0.48488024 0.08577493 0.7881739 0.3464016 0.14921026 0.8982239
0.22442146 0.08631616 0.14764866 0.7152931 -0.029171525 1.0307286 0.9184225 0.66985404
-0.39358866 -0.13635255 -0.5969931 0.3768674 0.4664341 0.65747 0.86147994 0.13443123
0.10617299 -0.49066782 0.4289466 0.29408643 0.71165925 0.049643245 0.6372759 -0.101805575
-0.13466893 -0.022167051 -0.2027043 0.05708663 0.5758287 0.7368557 0.83021903 0.7875473
0.69783103 0.8062363 0.098704875 0.6066484 0.5472762 -0.3075108 -0.021178912 -0.2775947
-0.044860624 -0.32165202 0.27627075 0.64201593 0.8532406 -0.21236217 -0.04286932 0.68704444
-0.28557107 0.46377787 0.68158025 0.52184093 0.2056867 0.56379926 0.09245026 0.53701794
0.24540322 0.49652684 0.79131746 -0.15649411 -0.0073155216 -0.28923428 -0.046904176 -0.013919992
-0.21686299 0.16838229 0.35533303 -0.10976889 0.34959418 0.3610028 0.10386531 0.3803592
0.3896766 0.30475006 0.30406424 -0.006828902 0.069395185 0.04906194 0.03554063 0.3890327
0.20905282 -0.32014194 0.629915 0.36324987 0.13808411 0.38768375 -0.09641889 0.2200093
0.078530386 -0.11861373 0.2013386 0.19775523 0.16729428 0.15743777 -0.2554064 0.07822723
0.17053929 0.5386985 -0.07253805 0.44791812 0.042326592 0.71782297 -0.08300248 -0.3584661
0.33049297 -0.060920972 -0.09091811 0.067289375 0.9098422 -0.12658879 0.22908187 -0.13830219
-0.060998183 -0.444585 -0.12398839 -0.4299127 0.12905201 0.108061224 0.31113833 0.30832508
0.13146935 -1.1273441 1.0598214 0.5075645 0.048885483 -0.061773203 -0.3777166 0.4215243
0.5322241 -0.0925246 0.28203386 0.22879443 0.030324873 1.0869392 0.3661942 0.2536692
0.17253771 0.48882213 0.1948831 0.41430986 -0.015686374 -0.1036554 -0.0005098162 0.37159038
00000000: c3df 21bf 4e7b 93bd 22ad cf3f 8155 8abe
00000010: 1a61 9a3e ad88 ddbd c146 bbbe 45bf 603f
00000020: 19ad bf3e af76 34be 16bc ac3e 0eaa 323f
00000030: eb41 1c3f 285d 6fbc 96b1 18bf 24f6 d5bd
00000040: 3313 80be 20f7 34bf 62c4 823e 339f 12bd
00000050: 4280 54bd 43a8 87be 421c 9a3e 31da 473e
00000060: 652c 8d3e 90ec 353e a383 c8bd fb57 833e
00000070: 3d94 003e 8e9c b83e 10d1 853e be77 64bb
00000080: 1f1f 523d d0d6 283e 1fed 82be cf8c 30be
00000090: d713 df3d 3357 e53d 1ccc b83e 120b 1dbe
000000a0: be96 4cbe 9d66 c13d 4faf fe3b 759b dc3e
000000b0: a597 c93e 11b8 353f 54a6 efbe 0021 193e
000000c0: 24de d63e 6189 86be 3a09 8d3e a4f5 0f3f
000000d0: ef28 1b3e 481f 8ebe 31e7 1f3f e9a5 ac3e
000000e0: c08d d73e aed8 823e fb09 153f 75a5 483f
000000f0: 861a 2f3f 1deb 35bf a33f 31be 52fd b9be
00000100: 8bcb 16be e1ce 7cbe 2b11 6bbf feed 17be
00000110: 9ec0 6d3f f4ef b8bd 5d70 3ebf 79d2 3bbf
00000120: a30d e43e eb1c 523f 634c 47bf db18 a6be
00000130: a2d5 ee3e 5398 e13e dd3e 523e 1477 00be
00000140: 16f0 83be 297b ccbe c1d8 1abf eef7 2e3f
00000150: 12bc a43e 3696 fabd f1f0 0f3e a819 bdbd
00000160: 1412 a6be b7a2 063f fb54 163f 9801 443d
00000170: e937 74bf 07ff dabe 3813 b13e fb59 603f
00000180: 5176 d33e 9066 cbbe 8e89 e2bc eacd e0be
00000190: 170d 6fbf 1666 3e3d 1dd0 bd3e 2a75 9cbe
000001a0: ece1 4ebf ceff 56be 3942 f83e c4aa af3d
000001b0: c4c5 493f 8d5b b13e 93ca 183e 00f2 653f
000001c0: bdce 653e 87c6 b03d 3631 173e 731d 373f
000001d0: 1ff9 eebc eaee 833f bd1d 6b3f 8e7b 2b3f
000001e0: 7484 c9be 01a0 0bbe 8ad4 18bf c4f4 c03e
000001f0: 73d0 ee3e f44f 283f f389 5c3f 57a8 093e
00000200: 3971 d93d d038 fbbe e49e db3e 7f92 963e
00000210: 4d2f 363f b756 4b3d 8324 233f 717f d0bd
00000220: a7e6 09be ad97 b5bc b791 4fbe acd3 693d
00000230: 8269 133f 93a2 3c3f 3c89 543f b39c 493f
00000240: 0ea5 323f 8165 4e3f c825 ca3d 4f4d 1b3f
00000250: 4b1a 0c3f 0e72 9dbe 667f adbc e420 8ebe
00000260: c6bf 37bd 93af a4be 5c73 8d3e 285b 243f
00000270: fa6d 5a3f 7875 59be bd97 2fbd 25e2 2f3f
00000280: 5f36 92be 4b74 ed3e 0b7c 2e3f 5e97 053f
00000290: 899f 523e 2655 103f 9056 bd3d 027a 093f
000002a0: fb4a 7b3e c438 fe3e c893 4a3f fe3f 20be
000002b0: 0bb7 efbb 8416 94be 981e 40bd ae10 64bc
000002c0: 5511 5ebe 686c 2c3e 36ee b53e 83ce e0bd
000002d0: 02fe b23e 5cd5 b83e 56b7 d43d 71be c23e
000002e0: b183 c73e 3308 9c3e 4fae 9b3e fbc4 dfbb
000002f0: 101f 8e3d 2cf5 483d 0d93 113d 4b2f c73e
00000300: f111 563e a5e9 a3be 1c42 213f e3fb b93e
00000310: ec65 0d3e 7c7e c63e 4477 c5bd 1e4a 613e
00000320: 8ad4 a03d c1eb f2bd b52b 4e3e 5980 4a3e
00000330: 314f 2b3e 5e37 213e a1c4 82be 9935 a03d
00000340: daa1 2e3e 25e8 093f d48e 94bd 8655 e53e
00000350: a65e 2d3d 3fc3 373f 34fd a9bd de88 b7be
00000360: 6036 a93e 4588 79bd 4633 babd 03cf 893d
00000370: 6beb 683f 7ea0 01be 7094 6a3e 179f 0dbe
00000380: 3bd9 79bd a5a0 e3be a0ed fdbd 841d dcbe
00000390: 3626 043e 344f dd3d 864d 9f3e c9dc 9d3e
000003a0: e79f 063e d04c 90bf 3aa8 873f bfef 013f
000003b0: 253c 483d e605 7dbd 1264 c1be 08d2 d73e
000003c0: d73f 083f 8a7d bdbd be66 903e 1649 6a3e
000003d0: de6b f83c d320 8b3f ce7d bb3e eee0 813e
000003e0: baad 303e e546 fa3e 6f8f 473e 6c20 d43e
000003f0: b680 80bc 4849 d4bd 30a5 05ba 1841 be3e

L1.bias f4 [44]
-1.5006665 -1.2512552 -1.4066991 -0.9249697 -1.1421862 -2.0933664 -1.6805238 -2.1651173
-1.7286077 -1.5921961 -1.1515546 -2.20503 -0.9720961 -2.251178 -1.8873893 -0.5821447
-1.6533829 0.1276889 -1.5301949 -1.8746744 -1.1348943 -2.3376281 -1.2633874 -1.1004127
-1.468961 -1.1017464 -1.2749866 -1.6151243 -1.9603422 -1.7193214 -2.0430315 -1.7010343
-0.3750567 -1.2942549 -1.2289557 -2.2034192 -1.2986776 -1.376832 -0.9313826 -1.0280454
-2.0122778 -2.4588552 -2.4714472 -0.517618
00000000: d715 c0bf 2129 a0bf b70e b4bf d0ca 6cbf
00000010: 2833 92bf b7f9 05c0 671b d7bf 4891 0ac0
00000020: 0443 ddbf 15cd cbbf 2466 93bf 361f 0dc0
00000030: 4adb 78bf 4d13 10c0 f995 f1bf 6f07 15bf
00000040: 0da2 d3bf e1c0 023e 6ddd c3bf 55f5 efbf
00000050: 3744 91bf b39b 15c0 aeb6 a1bf 53da 8cbf
00000060: ea06 bcbf 0706 8dbf c332 a3bf 65bc cebf
00000070: 7eec fabf b912 dcbf 07c1 02c0 7ebb d9bf
00000080: 6f07 c0be 25aa a5bf 6c4e 9dbf d204 0dc0
00000090: 113b a6bf 083c b0bf 176f 6ebf fe96 83bf
000000a0: 29c9 00c0 e25d 1dc0 312c 1ec0 9d82 04bf

L2.weight f4 [88, 44]
0.16496447 1.0742152 0.2041074 -0.08105235 0.66106343 -0.39046082 -0.39649534 0.2354461
-0.00355698 -0.008954205 0.2727046 0.21765818 -0.8752661 -0.53066653 -0.05930422 -0.13898137
-0.3873476 -0.3484781 0.7458808 0.3745668 0.07572193 -0.29635733 0.111038566 -0.41731802
0.3531881 -0.072485596 0.1738396 0.024450518 -0.2143853 0.74245924 -0.397047 -0.016402563
-0.21388775 0.31669804 0.8348438 -0.54901636 0.024229467 0.8762915 0.08165943 -0.3714322
-0.21909893 -0.12234242 0.18468194 -0.2572138 -0.41161337 -0.40787196 -0.28644973 0.13019456
0.23187149 0.60311985 -0.15732811 0.72875905 0.18256028 -0.2652094 -0.001995991 0.050037798
1.9383807 0.3258511 0.44395307 -0.1820169 -0.38549733 0.49230546 0.5270005 0.31962654
-0.672524 -0.85528606 -0.7824233 0.047150623 0.8142898 -0.8862553 -0.57674146 -0.055154033
-0.54861754 0.6470733 -0.06441223 -0.56628406 -0.32698414 -0.5795357 0.2013841 -0.09741774
0.4557538 -0.54122233 0.35418504 -0.5235141 -0.33368707 -0.5139199 0.3336367 -0.42263332
-1.3853084 0.19451985 -0.6091002 -0.5237502 -1.0461216 -0.7326393 -0.92881614 0.008025526
0.10086608 -0.054997865 -0.5293659 0.17993522 -0.38537675 -0.22545208 0.05834933 0.53930575
0.01733178 -0.7662298 -0.4971438 -0.09832067 0.19986874 0.0074487096 -0.767519 -1.2085536
-0.25228137 -0.32925802 -0.43699926 0.20833386 -0.12089362 -0.27540192 0.25045916 -0.10980197
-0.0525594 -1.7070056 0.3891631 -0.3425011 0.3332418 0.1138313 -0.3285963 -0.041745376
-0.43882582 0.59049326 -0.39475262 -0.37935895 -0.27307662 0.57378477 -0.6085142 -0.012820163
0.091459244 -0.57631165 -0.60956186 -0.053729676 -0.122617245 -0.1428848 -0.50229 0.8942483
-0.07110725 -0.019648263 -0.1502748 -0.5953696 -0.03428398 -0.29344222 0.8119244 -0.4426793
-0.67906815 -0.18686071 -0.27304333 -0.09444097 0.5037446 0.598443 -0.03892289 -0.54821956
0.0023818256 0.15254152 -0.6723245 0.12397607 0.0005985947 -0.67656004 -0.5348 -0.43345335
-0.16151376 -0.41672105 0.36424702 0.10378395 0.23935512 0.28058168 -0.14126943 -0.2945228
0.38090175 -0.34615278 -0.054827202 0.7413194 -0.42194018 -0.13100725 -0.3900621 -0.7140327
0.5622346 0.09941271 -0.4562142 -0.28298733 -0.6494682 -0.2188556 -0.16081434 -0.037836466
0.62115383 -0.51593494 -0.22251719 -0.27875552 -1.2745056 -0.3904475 0.595986 0.19198121
1.164985 -0.012468751 -0.32285577 -0.6055527 0.3402365 -1.5138623 0.054636486 0.4007021
0.74201065 -0.6142702 0.43405157 -0.2379333 -0.60796016 0.41732293 -0.3931584 -0.0710265
-0.15338509 -0.37204537 -0.7754647 -0.25850853 -0.69109184 -0.36331016 -0.41148338 -0.65842265
-0.36402714 -0.16093811 -0.18430223 -0.4871926 -0.2624471 -0.42122307 -0.14257589 0.21197054
-0.43848798 -0.36850613 0.24534243 -0.8786003 -0.63917255 -0.15975247 0.5485426 0.85173476
-0.64759356 -0.48317188 -1.2943695 0.024720566 -0.89965004 0.42285347 -0.458721 -0.21581224
-0.21808684 -0.3911233 -0.566721 -0.31739348 -1.0708725 -0.24825284 -0.690344 0.009885331
00000000: 72ec 283e e27f 893f 8801 513e c6fe a5bd
00000010: 743b 293f 7bea c7be 7001 cbbe c818 713e
00000020: 391c 69bb a8b4 12bc f09f 8b3e c9e1 5e3e
00000030: 7011 60bf c3d9 07bf fbe8 72bd 2251 0ebe
00000040: 6d52 c6be b96b b2be 0bf2 3e3f 38c7 bf3e
00000050: 1914 9b3d 26bc 97be 3068 e33d b5aa d5be
00000060: 12d5 b43e 5473 94bd 0203 323e 744c c83c
00000070: d287 5bbe cf11 3e3f bf49 cbbe ab5e 86bc
00000080: 6405 5bbe 3f26 a23e 53b8 553f 568c 0cbf
00000090: e07c c63c a454 603f 0f3d a73d 5c2c bebe
000000a0: 785b 60be aa8e fabd 431d 3d3e 87b1 83be
000000b0: fdbe d2be 98d4 d0be 8aa9 92be b951 053e
000000c0: b86f 6d3e 1066 1a3f 9f1a 21be f48f 3a3f
000000d0: 15f1 3a3e 87c9 87be 2ccf 02bb 6ff4 4c3d
000000e0: dc1c f83f f5d5 a63e d14d e33e a362 3abe
000000f0: e85f c5be 760f fc3e 81e9 063f 17a6 a33e
00000100: 882a 2cbf 07f4 5abf e54c 48bf 0321 413d
00000110: 4c75 503f a1e1 62bf 54a5 13bf 32e9 61bd
00000120: 3372 0cbf 99a6 253f 8fea 83bd fef7 10bf
00000130: 776a a7be 745c 14bf a237 4e3e f482 c7bd
00000140: 9058 e93e 8c8d 0abf be57 b53e 0505 06bf
00000150: 08d9 aabe 4190 03bf 6ed2 aa3e 6563 d8be
00000160: c951 b1bf 3630 473e feed 1bbf 7e14 06bf
00000170: 50e7 85bf 408e 3bbf e5c6 6dbf 7f7d 033c
00000180: e092 ce3d 7145 61bd 8684 07bf f040 383e
00000190: 1a50 c5be e9dc 66be b5ff 6e3d f10f 0a3f
000001a0: 61fb 8d3c a327 44bf a289 febe 595c c9bd
000001b0: 64aa 4c3e 4e14 f43b 207c 44bf e2b1 9abf
000001c0: 062b 81be 8294 a8be 5ebe dfbe 7955 553e
000001d0: 1397 f7bd 7b01 8dbe 2f3c 803e dbdf e0bd
000001e0: 8748 57bd 297f dabf 6340 c73e 4e5c afbe
000001f0: ab9e aa3e 6220 e93d c63d a8be 33fd 2abd
00000200: c7ad e0be 912a 173f 041d cabe 563b c2be
00000210: b3d0 8bbe 8fe3 123f 96c7 1bbf a90b 52bc
00000220: fc4e bb3d 2989 13bf 3f0c 1cbf a613 5cbd
00000230: c01e fbbd 6550 12be 1496 00bf 75ed 643f
00000240: aea0 91bd 65f5 a0bc a3e1 19be 246a 18bf
00000250: 5c6d 0cbd 0f3e 96be 47da 4f3f dca6 e2be
00000260: 69d7 2dbf 6a58 3fbe 56cc 8bbe 446a c1bd
00000270: 68f5 003f 8f33 193f 9c6d 1fbd 1e58 0cbf
00000280: 6718 1c3b d833 1c3e 751d 2cbf 2ae7 fd3d
00000290: 03eb 1c3a 0a33 2dbf a7e8 08bf 99ed ddbe
000002a0: dd63 25be 765c d5be 967e ba3e ae8c d43d
000002b0: 8219 753e 67a8 8f3e efa8 10be b1cb 96be
000002c0: 8e05 c33e f03a b1be 7d92 60bd 1cc7 3d3f
000002d0: 8b08 d8be c426 06be 38b6 c7be d9ca 36bf
000002e0: 9bee 0f3f e498 cb3d e894 e9be b7e3 90be
000002f0: 8c43 26bf af1b 60be 84ac 24be 69fa 1abd
00000300: f003 1f3f 5014 04bf 8cdb 63be 0bb9 8ebe
00000310: 0023 a3bf bce8 c7be 8a92 183f b996 443e
00000320: 3a1e 953f bb49 4cbc 5a4d a5be 8005 1bbf
00000330: 7b33 ae3e 3dc6 c1bf 82ca 5f3d d328 cd3e
00000340: 69f4 3d3f d040 1dbf 023c de3e c9a4 73be
00000350: 47a3 1bbf 5aab d53e 0f4c c9be 5776 91bd
00000360: fb10 1dbe bb7c bebe db84 46bf 3b5b 84be
00000370: 65eb 30bf ca03 babe f3ad d2be 638e 28bf
00000380: c461 babe f6cc 24be b9b9 3cbe 4f71 f9be
00000390: 775f 86be 8daa d7be 6aff 11be ce0e 593e
000003a0: 7f81 e0be d6ac bcbe 0c3b 7b3e f3eb 60bf
000003b0: d0a0 23bf 2796 23be 4a6d 0c3f 4a0b 5a3f
000003c0: b1c8 25bf 4e62 f7be e6ad a5bf c982 ca3c
000003d0: 774f 66bf 4080 d83e 7bdd eabe e2fd 5cbe
000003e0: 2852 5fbe 5041 c8be a114 11bf 6681 a2be
000003f0: 5a12 89bf fe35 7ebe 62ba 30bf 15f6 213c

L2.bias f4 [88]
-0.34377825 -0.22838089 -0.67686856 -0.6157047 0.587657 -0.8951718 -1.5193018 -0.8839334
-0.8171839 -0.6746145 -0.9661496 0.11831474 -1.0058743 -1.992498 -0.03116263 0.27330223
-1.6096668 -0.27080184 -0.3040104 -1.2102237 -1.5196142 -1.0049239 -1.0706415 -1.4312783
-1.8176479 -0.60590047 -1.2225953 -1.1597277 -0.08520865 -1.1554108 -1.8894085 -0.56273776
-0.75550044 -1.0308126 -0.9241298 0.24910346 -0.2905671 0.32709026 -0.33021906 -0.47088757
-0.39860806 -1.3290682 -1.3937399 -0.5519804 -0.869959 -0.9658761 -0.15704773 -0.44368395
-1.1004992 -0.63417906 1.5344793 -2.0133698 -1.1779282 -1.0614753 -0.65683466 0.14797886
-2.0708117 -1.790133 -0.5971594 -1.2427723 0.86174464 -0.4417761 0.46740058 -0.9413217
-0.586052 0.28919587 -0.8037898 -1.118914 -0.23527208 -0.69078463 -0.7835277 0.7844537
0.055624872 -1.7011154 -0.79992455 -0.30083516 -0.71161854 0.7886518 -0.916673 -1.705859
-0.016490003 1.0333219 -0.32423422 -1.2474816 -1.6544585 -1.9607234 0.47916728 -1.0616138
00000000: b403 b0be aedc 69be 4247 2dbf d39e 1dbf
00000010: b070 163f fb29 65bf 7b78 c2bf 7649 62bf
00000020: f732 51bf 89b3 2cbf 9555 77bf 004f f23d
00000030: 7dc0 80bf 2d0a ffbf c648 ffbc 45ee 8b3e
00000040: 9009 cebf 8aa6 8abe 40a7 9bbe 9ce8 9abf
00000050: b882 c2bf 59a1 80bf c80a 89bf 2134 b7bf
00000060: b0a8 e8bf 4b1c 1bbf 017e 9cbf f571 94bf
00000070: df81 aebd 80e4 93bf 23d8 f1bf 950f 10bf
00000080: 7a68 41bf abf1 83bf c593 6cbf fa14 7f3e
00000090: 36c5 94be 6078 a73e 7912 a9be 2d18 f1be
000000a0: 5b16 ccbe e81e aabf 1266 b2bf 964e 0dbf
000000b0: a2b5 5ebf a843 77bf 1fd1 20be 8b2a e3be
000000c0: 28dd 8cbf 8f59 22bf d169 c43f 0ddb 00c0
000000d0: 5ac6 96bf 6cde 87bf 5126 28bf c587 173e
000000e0: 2e88 04c0 1423 e5bf 70df 18bf 2a13 9fbf
000000f0: 4c9b 5c3f 7a30 e2be 214f ef3e 75fa 70bf
00000100: 8107 16bf 7b11 943e 2bc5 4dbf 9338 8fbf
00000110: 2aeb 70be 43d7 30bf 4595 48bf f5d1 483f
00000120: e8d6 633d 26be d9bf dbc7 4cbf 1107 9abe
00000130: a22c 36bf 16e5 493f 15ab 6abf 9659 dabf
00000140: 0b16 87bc e443 843f 0702 a6be 7aad 9fbf
00000150: 4cc5 d3bf fcf8 fabf 6a55 f53e f6e2 87bf

L3.weight f4 [176, 88]
-0.057056833 -0.21772373 0.5549429 -0.11190999 -0.5258364 1.1448796 1.1487911 1.0020156
0.99448454 0.11222295 0.4277435 -0.3044054 0.2856691 0.6487137 -0.4315285 -0.62031287
0.70701545 0.015571887 0.90605825 -0.38315278 1.0712831 0.89025104 -0.19566967 0.3165089
0.28215545 0.9398959 0.4221554 0.54347694 -0.72748315 0.40715554 0.54135066 0.7653739
0.44393334 0.49947166 0.30671194 -0.37485996 0.0396268 -0.7316908 0.80639464 -1.4050233
-0.45962402 0.32482058 0.5361037 0.055061873 -0.19662417 0.045782797 0.35098314 0.30709895
-0.58566624 0.38869563 -0.8693587 0.18709865 -0.5327181 -0.14291836 -0.54664737 -0.26714557
1.1134297 -0.38391316 0.40111226 0.4248098 -0.3869207 0.15170503 -0.9523616 0.0085554505
1.6513247 -0.06597289 -0.1065345 0.1204008 0.5405203 0.030051447 0.32751036 -0.46767652
-0.12468045 1.4939886 -0.5791689 -1.3614571 -0.5382594 -1.1268263 0.33187255 1.1859226
-0.45590582 -0.67536837 -0.076216094 1.2057363 0.58079576 1.3391025 -0.61972743 0.07533863
-0.27391726 0.0221304 0.14125276 -0.14984353 -0.21449219 0.5792772 0.84780663 0.12790975
0.6264718 -0.25093392 0.45229235 -0.5176228 -0.7629927 0.8433808 -0.036596797 -0.124419525
0.61505437 0.028952353 0.112407245 -0.6365826 0.08624687 0.81698185 0.20666303 0.5410105
0.82013553 1.1050678 0.43606314 0.16627766 -0.7199283 0.87295914 0.15119405 -0.1618857
0.8387663 0.32043105 0.27919057 -0.33394262 -0.40730855 -0.67167073 -0.085677244 -0.22090504
0.15090089 0.06284299 -0.21141553 0.26642966 -0.3915307 0.20675181 0.3829041 0.43737918
0.38508847 -0.05312592 -0.44132468 0.6589966 -0.46907812 -0.117950395 0.32153118 -0.29997665
0.6292349 0.51052517 0.032710865 0.36100382 -0.8340206 0.20539333 -0.4896405 -0.20870927
0.0728688 -0.679098 0.36355746 0.60478175 0.34234458 0.020259166 1.0380775 -0.42029595
-0.03595863 0.8680469 0.19283879 -0.25017345 0.30360353 -1.1334764 0.15163764 0.7191122
0.16005075 -0.89472675 -0.16741565 0.6918806 -0.17635363 0.8637964 -1.0242002 0.5100456
0.6228147 0.94357 0.1836978 -0.33587557 -0.6244478 0.56489444 -0.71588224 0.2991245
1.2564611 -0.5510512 0.12734364 0.6456747 -0.28426412 0.40227756 0.88955265 -0.4576073
0.944121 -0.6577909 0.21137013 -1.1582998 -0.2212401 0.52455175 -0.39803162 0.8825061
0.45626184 0.5286594 1.1955442 0.35702115 0.25633842 1.0186772 0.6332913 -1.3019384
-0.5443747 0.4008716 0.24044752 -0.30588067 -0.6172528 -0.8158512 0.036082577 -0.522684
-0.18715417 0.3407203 0.2835396 0.083953045 0.08433449 -0.5035588 0.43068844 -0.7053739
-0.73460066 -1.0125388 -1.5765373 0.22711673 0.14467122 -0.12470562 -0.029723587 0.30836233
0.39036322 -0.404122 0.5675779 -0.0052937074 0.106955424 0.51075155 -0.36064476 -0.11182553
1.2685001 0.5596873 0.38269126 0.41371262 0.56078136 -0.2974766 -0.5574807 -0.52010316
0.1186977 1.4823737 0.3639005 -0.38246128 0.109057926 -0.20633528 0.38603425 0.8985293
00000000: 6db4 69bd f8f2 5ebe bd10 0e3f 1131 e5bd
00000010: 379d 06bf 6a8b 923f 960b 933f 0c42 803f
00000020: 8a96 7e3f 25d5 e53d 3201 db3e 06db 9bbe
00000030: 3843 923e 1a12 263f 4ef1 dcbe d3cc 1ebf
00000040: f7fe 343f 3a21 7f3c 6ff3 673f 9a2c c4be
00000050: ce1f 893f 7ee7 633f a15d 48be 740d a23e
00000060: ae76 903e 059d 703f c124 d83e 4e21 0b3f
00000070: 563c 3abf b176 d03e f595 0a3f 8bef 433f
00000080: 3b4b e33e c0ba ff3e 5909 9d3e a5ed bfbe
00000090: b64f 223d 1750 3bbf e16f 4e3f ced7 b3bf
000000a0: d753 ebbe e24e a63e 183e 093f 8f88 613d
000000b0: d957 49be be86 3b3d 10b4 b33e 133c 9d3e
000000c0: 39ee 15bf 1d03 c73e 4b8e 5ebf ca96 3f3e
000000d0: 3760 08bf 3159 12be 15f1 0bbf 4ec7 88be
000000e0: dd84 8e3f 4490 c4be 965e cd3e ac80 d93e
000000f0: 781a c6be 9058 1b3e f8cd 73bf 292c 0c3c
00000100: 9c5e d33f cb1c 87bd c32e dabd b294 f63d
00000110: 8a5f 0a3f 742e f63c 70af a73e 4c73 efbe
00000120: 7758 ffbd 053b bf3f 6a44 14bf 3a44 aebf
00000130: 5ecb 09bf d83b 90bf 33eb a93e 50cc 973f
00000140: 7d6c e9be f1e4 2cbf 2f17 9cbd 9155 9a3f
00000150: 08af 143f b667 ab3f 75a6 1ebf 244b 9a3d
00000160: e23e 8cbe d04a b53c 90a4 103e 9570 19be
00000170: d7a3 5bbe 834b 143f db09 593f c6fa 023e
00000180: 7560 203f 697a 80be dd92 e73e ee82 04bf
00000190: 7d53 43bf cee7 573f 86e6 15bd aacf febd
000001a0: 3474 1d3f 7c2d ed3c c535 e63d 14f7 22bf
000001b0: 33a2 b03d b925 513f 799f 533e aa7f 0a3f
000001c0: 67f4 513f dd72 8d3f ab43 df3e b144 2a3e
000001d0: 394d 38bf 407a 5f3f 9dd2 1a3e 5dc5 25be
000001e0: 63b9 563f 8a0f a43e 11f2 8e3e 87fa aabe
000001f0: bf8a d0be 9df2 2bbf 8d77 afbd ee34 62be
00000200: c385 1a3e d3b3 803d 507d 58be 7869 883e
00000210: b676 c8be bfb6 533e 020c c43e 2af0 df3e
00000220: 512a c53e 919a 59bd 4ff5 e1be 00b4 283f
00000230: 022b f0be fa8f f1bd bc9f a43e 8a96 99be
00000240: 8a15 213f c7b1 023f d4fb 053d 7ed5 b83e
00000250: 6082 55bf a152 523e 29b2 fabe e2b7 55be
00000260: 3d3c 953d 5ed9 2dbf 3424 ba3e fad2 1a3f
00000270: ca47 af3e 8df6 a53c b9df 843f 0831 d7be
00000280: 5b49 13bd 5238 5e3f 8877 453e bc16 80be
00000290: ec71 9b3e c115 91bf e646 1b3e bd17 383f
000002a0: 58e4 233e d00c 65bf 026f 2bbe 161f 313f
000002b0: 0c96 34be c321 5d3f fe18 83bf 5992 023f
000002c0: c970 1f3f ce8d 713f 471b 3c3e e2f7 abbe
000002d0: d0db 1fbf ec9c 103f 0f44 37bf d926 993e
000002e0: b8d3 a03f b111 0dbf 5f66 023e f04a 253f
000002f0: 118b 91be 53f7 cd3e b9b9 633f 814b eabe
00000300: eab1 713f fc64 28bf 6971 583e 2b43 94bf
00000310: c48c 62be 0649 063f cdca cbbe ebeb 613f
00000320: 279b e93e 3956 073f 9807 993f 7acb b63e
00000330: ca3e 833e 0464 823f 611f 223f eba5 a6bf
00000340: 245c 0bbf 0b3f cd3e e037 763e 649c 9cbe
00000350: 4804 1ebf a0db 50bf 53cb 133d 9ece 05bf
00000360: 58a5 3fbe e472 ae3e 1a2c 913e 93ef ab3d
00000370: 90b7 ac3d 3be9 00bf 3283 dc3e 6293 34bf
00000380: ca0e 3cbf df9a 81bf f9cb c9bf 4a91 683e
00000390: b124 143e a965 ffbd e17e f3bc abe1 9d3e
000003a0: b0dd c73e 14e9 cebe c94c 113f d676 adbb
000003b0: 720b db3d 9dc0 023f 6ea6 b8be c904 e5bd
000003c0: 365e a23f ab47 0f3f 1cf0 c33e 24d2 d33e
000003d0: 5e8f 0f3f da4e 98be 0eb7 0ebf 7b25 05bf
000003e0: c817 f33d 6cbe bd3f 2b51 ba3e f7d1 c3be
000003f0: c359 df3d 8e49 53be 48a6 c53e 0406 663f

L3.bias f4 [176]
-1.5682501 -1.132134 -0.26894346 -1.1863782 -1.0342436 -1.1371055 -0.09274096 -1.4045339
-1.161492 -0.37820244 -1.2686896 -1.5310835 -1.6001222 -0.8600023 -1.1363559 -2.0648987
0.44995558 -0.816577 -1.7101102 -1.6419317 -0.2451226 -0.9595678 -1.2582937 -0.74636424
-1.8674725 -1.6185151 -2.310108 -1.8071866 -1.8154906 -1.599431 -0.39891112 -1.9840057
-1.1639563 -0.47803807 -2.0481436 -1.5861416 -0.37928602 -0.91835964 -0.5371058 -1.0196999
-0.28724027 0.10039785 -1.4932382 -0.22157171 -0.6156964 -1.0114788 -1.3796266 -0.9390249
-1.0338337 -0.8932528 0.09249647 -1.3188493 -1.5124543 -1.1970732 -0.8461035 -1.6722974
-0.06709473 1.1704875 -1.5336152 -0.17155507 -0.34290862 -1.5550566 -1.1348078 -1.4516408
-1.3011408 -0.08793245 -1.6536651 -0.90974814 -1.8321846 -0.43882817 -1.9828722 -0.9166051
-1.0572152 -2.067579 -1.0920602 0.42819986 -0.92804515 -0.85561645 0.6685532 0.94018036
-0.37587482 0.19915004 -0.9394227 -1.1064371 -1.0720214 -0.50612843 -1.6349567 -2.0653083
0.10364111 -0.12413838 -0.76579493 -0.045644227 -1.6779641 -0.68872076 -0.9399721 -1.1166017
-1.6175694 -1.2577064 0.9370826 -2.4124458 -0.108535804 -1.0742614 -0.9266587 -1.541387
-1.319571 -1.6018469 -0.042095818 -0.9765675 -1.4741557 0.48661208 -1.4022988 -0.9311512
0.3954594 -1.522697 -1.2990834 -1.0567497 -1.0711509 -0.5040513 -0.8173602 -1.2957209
-0.64016265 -1.1966481 -0.12832814 0.41342527 -1.3585596 -1.3604686 -1.713382 -0.7654502
-1.3287281 -1.5330927 -1.5440217 -1.5596464 -1.0238925 -1.6103623 -0.6492258 -1.3228186
-0.056671128 -1.5923352 -1.1574924 -1.6101462 -1.0666538 -1.1784612 -0.8785394 -1.1772852
-1.90835 -0.6137656 -1.040944 -1.4835658 -1.0870743 -1.5015591 -1.6794257 -1.3041071
-0.90649164 -1.3597984 -1.5190015 -0.6929289 -1.6915152 -0.8168747 -1.5557446 -0.14688858
-1.239526 -1.2926431 -1.5283962 -1.383268 0.06213384 -1.2899529 -1.015306 -0.95160335
-1.5090411 0.21016571 -1.2887709 -1.1633197 -1.4544466 -1.7055861 -0.9864359 -0.8511573
00000000: 6bbc c8bf c4e9 90bf f5b2 89be 3edb 97bf
00000010: 1862 84bf ac8c 91bf f9ee bdbd c4c7 b3bf
00000020: c5ab 94bf c0a3 c1be 6c64 a2bf 8bfa c3bf
00000030: ced0 ccbf 1c29 5cbf 1c74 91bf 4d27 04c0
00000040: 9460 e63e 310b 51bf e4e4 dabf d12a d2bf
00000050: 6b01 7bbe 3ca6 75bf c50f a1bf ba11 3fbf
00000060: 5709 efbf 812b cfbf cfd8 13c0 e451 e7bf
00000070: ff61 e8bf 28ba ccbf 143e ccbe e6f3 fdbf
00000080: 85fc 94bf 68c1 f4be c914 03c0 b006 cbbf
00000090: c731 c2be 9e19 6bbf c47f 09bf 8785 82bf
000000a0: 2811 93be 639d cd3d 6e22 bfbf b2e3 62be
000000b0: 479e 1dbf 2378 81bf 9b97 b0bf f063 70bf
000000c0: aa54 84bf 37ac 64bf ca6e bd3d 0ed0 a8bf
000000d0: 1a98 c1bf b239 99bf 3d9a 58bf d70d d6bf
000000e0: f668 89bd 89d2 953f 814d c4bf 22ac 2fbe
000000f0: b891 afbe 180c c7bf 6241 91bf 5ecf b9bf
00000100: c88b a6bf ee15 b4bd 4cab d3bf 41e5 68bf
00000110: 0685 eabf 16ae e0be c2ce fdbf a2a6 6abf
00000120: d452 87bf 3753 04c0 a1c8 8bbf 033d db3e
00000130: 5e94 6dbf ae09 5bbf 4d26 2b3f a9af 703f
00000140: aa72 c0be fded 4b3e 027e 70bf bb9f 8dbf
00000150: ff37 89bf a291 01bf 4346 d1bf 032e 04c0
00000160: ca41 d43d 433c febd 230b 44bf 71f5 3abd
00000170: 87c7 d6bf 0150 30bf 03a2 70bf ceec 8ebf
00000180: 840c cfbf 86fc a0bf a5e4 6f3f 8365 1ac0
00000190: 0548 debd 6681 89bf 8139 6dbf 2b4c c5bf
000001a0: b4e7 a8bf 5209 cdbf aa6c 2cbd 5400 7abf
000001b0: 22b1 bcbf 3825 f93e 877e b3bf ed5f 6ebf
000001c0: a879 ca3e bce7 c2bf 5d48 a6bf 9343 87bf
000001d0: 791b 89bf 8209 01bf 853e 51bf 2fda a5bf
000001e0: b3e1 23bf c42b 99bf 7468 03be 7aac d33e
000001f0: 48e5 adbf d623 aebf 1a50 dbbf 8bf4 43bf
00000200: c313 aabf 623c c4bf 81a2 c5bf 7ea2 c7bf
00000210: e90e 83bf 5a20 cebf a933 26bf 1f52 a9bf
00000220: fc1f 68bd a4d1 cbbf b628 94bf 4519 cebf
00000230: 1d88 88bf d1d7 96bf f5e7 60bf 48b1 96bf
00000240: d044 f4bf be1f 1dbf a73d 85bf 7ce5 bdbf
00000250: 4025 8bbf 1733 c0bf 6cf7 d6bf fbec a6bf
00000260: d60f 68bf e00d aebf a46e c2bf ca63 31bf
00000270: 9283 d8bf b31e 51bf a422 c7bf f669 16be
00000280: caa8 9ebf 5475 a5bf 7da2 c3bf ed0e b1bf
00000290: 0e80 7e3d 2d1d a5bf 8cf5 81bf 479c 73bf
000002a0: 4228 c1bf ae35 573e 72f6 a4bf a9e7 94bf
000002b0: 4e2b babf a550 dabf 1087 7cbf 72e5 59bf

L4.weight f4 [88, 176]
0.12586734 0.124053895 0.014678175 0.37204695 -0.5755375 0.02952195 -0.040779017 -0.15814048
-0.027117979 -0.32459253 0.23376119 0.3002915 -0.006789499 -0.16310483 0.15802908 -0.34768644
-0.027470322 -0.40973452 -0.36827734 0.19984584 -0.6098643 0.31908965 -0.38035533 -0.03236786
0.14494132 0.13947116 -0.027169928 -0.25615796 0.018615391 -0.21428311 -0.03501603 0.7388351
-0.4120121 0.11760296 -0.32033864 0.21815665 0.1193359 0.5140464 0.10195767 -0.18148237
-0.22713539 -0.41310197 0.22118147 -0.40632242 -0.5790846 0.1860452 0.1941512 -0.16322199
0.5158184 0.15884504 0.15404674 0.27579993 -0.30488113 -0.38891613 -0.13150597 -0.08125203
-0.33221978 -0.97964877 0.34140876 -0.2752574 -0.028834078 -0.366074 -0.1139845 0.88420737
0.14041813 -0.4537461 -0.07153503 -0.6828822 -1.2090596 -0.014140703 -0.20278847 0.045172486
0.041857228 -0.016319187 -0.1324096 -0.50925 -0.04909074 -0.5898177 -0.076828666 -0.48205218
-0.14569546 -0.5174105 -0.02236781 0.17177968 -0.015987044 -0.08058159 0.6701862 0.10909885
-0.74227756 -0.81190133 -0.05978401 -0.64550483 -0.09120452 -0.3209214 -0.2455265 -0.2030139
0.0367071 0.21221761 -0.5650606 0.046172816 -0.15589058 0.44168448 0.825317 -0.33514392
0.15799905 -0.161657 -1.0266677 -0.019392153 -0.10859768 -0.30432075 -0.080871776 -0.13713159
-0.046954166 0.31355658 -0.032537144 0.0005034965 -0.7226821 -0.2775539 -0.06489847 -0.30949485
0.50483084 0.49422726 0.11891619 0.033602472 -0.25815186 -0.45255074 -0.08628741 0.17224546
0.024690682 -0.4453578 -0.19807553 0.2705637 0.16949324 0.23036608 -0.32938877 -0.3659114
-0.18266948 0.39629966 0.2703873 -0.022456639 -0.112835586 -0.10597048 -0.3465906 -0.17498374
0.3211099 -0.32753295 -0.38093826 -0.16999231 -0.061204035 0.30153748 0.20595698 -0.12759276
-0.5189115 0.045493342 0.080436975 0.3921474 -0.2745134 0.022487039 -0.30587032 -0.77284986
-0.2587617 0.24145772 -0.5306277 -0.43851855 -0.023019318 0.27759272 0.04368892 -0.2175906
0.2619743 -0.5743949 -0.1426352 0.004855522 -0.11873028 -0.30579564 -0.030844938 -0.22116837
0.5056525 0.68908614 0.045804 0.61272186 0.65183806 0.9306774 1.017925 0.691492
-0.11762803 -0.052279025 0.44133112 0.5275257 0.4996802 0.45775902 0.9909311 0.5093569
0.2719953 -0.40120152 -0.081713185 0.74001133 -0.20224646 0.6283728 0.04018879 -0.345025
0.8367504 1.0550498 0.41840288 0.83000743 0.7783943 0.05134071 -0.23707356 0.77110434
0.5602598 -0.056610383 0.14820796 0.4756707 0.8903562 0.35519975 0.9569168 0.044298384
-0.38354272 -0.106339365 0.6029071 0.055932917 -0.20267045 0.8668941 0.8049718 -0.005609948
-0.2244964 0.8075849 -0.2457703 0.37267035 0.89967936 0.7794297 0.5568468 -0.4172622
0.114491746 -0.38884676 0.12305122 -0.20209107 -0.538944 0.40863413 -0.46125495 0.54176724
0.61005837 -0.24158463 -0.0013824921 -0.25083712 0.08671453 0.014067664 0.23870946 1.1802342
0.86369663 0.79230875 0.85020953 -0.7086451 -0.8187334 0.5545901 -0.20586777 -0.1484473
00000000: 5ee3 003e f80f fe3d ba7c 703c f07c be3e
00000010: 6d56 13bf 04d8 f13c e607 27bd 94ef 21be
00000020: 8626 debc fe30 a6be 185f 6f3e cfbf 993e
00000030: 727a debb f404 27be 60d2 213e f503 b2be
00000040: 7109 e1bc b9c8 d1be d98e bcbe 63a4 4c3e
00000050: 1120 1cbf b85f a33e efbd c2be 2994 04bd
00000060: 7f6b 143e 87d1 0e3e 7893 debc 2327 83be
00000070: 4e7f 983c 086d 5bbe f86c 0fbd 4c24 3d3f
00000080: 40f3 d2be d2d9 f03d 6d03 a4be 7564 5f3e
00000090: 6166 f43d 8b98 033f 2fcf d03d 84d6 39be
000000a0: 2e96 68be 1a82 d3be 657d 623e 7e09 d0be
000000b0: e33e 14bf a282 3e3e 92cf 463e aa23 27be
000000c0: ad0c 043f 46a8 223e 6ebe 1d3e a635 8d3e
000000d0: 6119 9cbe 0420 c7be 80a9 06be 7767 a6bd
000000e0: b618 aabe 43ca 7abf 21cd ae3e 8aee 8cbe
000000f0: 7235 ecbc 0d6e bbbe b570 e9bd 6a5b 623f
00000100: c5c9 0f3e 6951 e8be f580 92bd 5ed1 2ebf
00000110: 77c2 9abf 68ae 67bc c8a7 4fbe c906 393d
00000120: 7c72 2b3d d1af 85bc 6296 07be 355e 02bf
00000130: 5f13 49bd 4bfe 16bf 5958 9dbd 8bcf f6be
00000140: 3131 15be 0475 04bf b33c b7bc 03e7 2f3e
00000150: 43f7 82bc f607 a5bd 5391 2b3f 386f df3d
00000160: e705 3ebf c4d8 4fbf 14e0 74bd ce3f 25bf
00000170: 6fc9 babd cf4f a4be 4c6b 7bbe e0e2 4fbe
00000180: 2f5a 163d 934f 593e d0a7 10bf b51f 3d3d
00000190: c8a1 1fbe 7824 e23e fa47 533f fc97 abbe
000001a0: 81ca 213e 6a89 25be d969 83bf 4bdc 9ebc
000001b0: 7668 debd eecf 9bbe 1aa0 a5bd 396c 0cbe
000001c0: 0353 40bd 7d8a a03e ab45 05bd 14fd 033a
000001d0: b201 39bf 8b1b 8ebe 7de9 84bd 1c76 9ebe
000001e0: 983c 013f 5b0b fd3e 558a f33d bfa2 093d
000001f0: 7b2c 84be bbb4 e7be 74b7 b0bd 1d61 303e
00000200: 1d44 ca3c f005 e4be 50d4 4abe 5387 8a3e
00000210: a38f 2d3e 16e5 6b3e a5a5 a8be bd58 bbbe
00000220: b50d 3bbe cae7 ca3e 3470 8a3e fcf6 b7bc
00000230: 5816 e7bd 0d07 d9bd 5374 b1be f02e 33be
00000240: 8468 a43e 66b2 a7be 570a c3be 7712 2ebe
00000250: 15b1 7abd 1f63 9a3e 63e6 523e ada7 02be
00000260: 62d7 04bf 3a57 3a3d 24bc a43d 8bc7 c83e
00000270: 058d 8cbe bd36 b83c 099b 9cbe 7dd9 45bf
00000280: 6a7c 84be b140 773e 38d7 07bf 8185 e0be
00000290: 0293 bcbc a220 8e3e 27f3 323d 12d0 5ebe
000002a0: 7f21 863e 8b0b 13bf f60e 12be 121b 9f3b
000002b0: dc28 f3bd 3f91 9cbe 86ae fcbc f679 62be
000002c0: 7172 013f f367 303f fa9c 3b3d 57db 1c3f
000002d0: dcde 263f e040 6e3f 5e4b 823f 9f05 313f
000002e0: f7e6 f0bd 8822 56bd 27f6 e13e ed0b 073f
000002f0: 15d6 ff3e 645f ea3e a9ad 7d3f 3765 023f
00000300: f842 8b3e 496a cdbe 3e59 a7bd 6271 3d3f
00000310: b219 4fbe 0add 203f 009d 243d 1ea7 b0be
00000320: 4635 563f df0b 873f e738 d63e 5e7b 543f
00000330: d944 473f a34a 523d 69c3 72be 1867 453f
00000340: 306d 0f3f 4ae0 67bd d4c3 173e 1c8b f33e
00000350: 62ee 633f bedc b53e 80f8 743f 3972 353d
00000360: b65f c4be 74c8 d9bd 1f58 1a3f ea19 653d
00000370: d888 4fbe c6ec 5d3f a212 4e3f a8d3 b7bb
00000380: 62e2 65be e2bd 4e3f 36ab 7bbe a6ce be3e
00000390: 6351 663f b488 473f 838d 0e3f 64a3 d5be
000003a0: a67a ea3d ec16 c7be 4702 fc3d f6f0 4ebe
000003b0: 3cf8 09bf 7e38 d13e 9c29 ecbe 42b1 0a3f
000003c0: c92c 1c3f f661 77be bd34 b5ba b96d 80be
000003d0: 6397 b13d 0f7c 663c 4170 743e ea11 973f
000003e0: 391b 5d3f bfd4 4a3f 55a7 593f c469 35bf
000003f0: 8398 51bf 9ef9 0d3f 00cf 52be 9202 18be

L4.bias f4 [88]
-0.48335546 -0.9787308 -0.7383551 -1.7831935 0.16109225 -0.33796912 0.82662606 0.15538706
0.47134897 -1.3095729 -0.9770375 -0.29618 -0.43856555 -0.48691988 -0.73403037 -0.8374775
-0.61047244 -1.0247252 -1.1418139 -1.1039269 -0.6669501 -0.63731664 -1.4060994 0.062419455
-1.2961593 -0.6959641 1.1115488 -1.1656594 -0.09749382 -0.8716088 0.28177774 -0.43470165
-0.7671877 -1.7077491 -1.4041221 0.2166419 -0.029480783 -1.1492763 -1.2275333 -1.4091272
-1.15559 -0.60547405 -1.1964335 -1.9017578 0.7008269 -0.20405711 -1.2941173 -1.3231937
0.50146466 1.581768 -1.2872595 0.16817053 0.2549658 -0.8651571 -0.7946718 -1.1110278
-1.4366034 -0.67017233 0.6805011 1.226096 -0.8332935 0.48887917 -0.011646024 -1.3825926
-1.4175761 -1.2051282 -1.242875 -0.31562927 -1.0058532 -1.1903944 -0.8162788 -0.9674999
-0.71892786 -0.9697242 -0.8194044 -1.5883669 -1.2195187 -0.38378426 -0.73794353 -1.0448089
-1.5135076 -0.38747588 -1.501713 -1.0177705 -0.774858 1.5424553 -0.8695474 -0.6228003
00000000: 5e7a f7be 1a8e 7abf d704 3dbf af3f e4bf
00000010: 5ef5 243e 4a0a adbe c49d 533f c91d 1f3e
00000020: a754 f13e 16a0 a7bf 211f 7abf e8a4 97be
00000030: aa8b e0be 904d f9be 6ae9 3bbf ed64 56bf
00000040: ec47 1cbf 322a 83bf f526 92bf 7a4d 8dbf
00000050: 3ebd 2abf 2f27 23bf 11fb b3bf 8bab 7f3d
00000060: 8ce8 a5bf b42a 32bf 3b47 8e3f 5434 95bf
00000070: d7aa c7bd c121 5fbf 2c45 903e 3791 debe
00000080: 6a66 44bf 8697 dabf 46ba b3bf 60d7 5d3e
00000090: af81 f1bc 7c1b 93bf d01f 9dbf 485e b4bf
000000a0: 60ea 93bf 5900 1bbf bc24 99bf cd6c f3bf
000000b0: 6469 333f 59f4 50be a3a5 a5bf 695e a9bf
000000c0: fd5f 003f 6077 ca3f ebc4 a4bf e534 2c3e
000000d0: e18a 823e f07a 5dbf 9c6f 4bbf 2936 8ebf
000000e0: 9fe2 b7bf 6a90 2bbf 5235 2e3f b7f0 9c3f
000000f0: b952 55bf 5f4e fa3e f7ce 3ebc cbf8 b0bf
00000100: 2273 b5bf a441 9abf 8716 9fbf 299a a1be
00000110: ccbf 80bf d85e 98bf a6f7 50bf 13ae 77bf
00000120: a80b 38bf d83f 78bf 7dc4 51bf 9b4f cbbf
00000130: 3019 9cbf 5f7f c4be dee9 3cbf 4cbc 85bf
00000140: 9eba c1bf 3d63 c6be 2238 c0bf 4e46 82bf
00000150: 185d 46bf 2d6f c53f a99a 5ebf d76f 1fbf

L5.weight f4 [44, 88]
-0.056866415 -0.25894666 -0.4817734 0.5878019 -0.5329725 -0.3725458 -0.44120494 -0.8451282
-0.50887626 -0.037046913 -0.52885777 -0.6066167 -0.8121849 0.5744218 0.17555322 0.99358344
0.7357317 0.73292303 0.9387134 0.94467556 0.4657498 0.3368365 0.47543913 -0.23661551
0.36363873 0.7594468 0.084222645 1.1135801 -0.75614434 0.29938367 -1.4298086 -0.07348397
-0.7242014 0.09065718 -0.030437525 -0.78574777 -0.005143167 1.4663454 0.9505895 -0.24441941
1.2157073 -0.6793065 0.08015205 0.11915481 -0.5909045 -0.42651227 0.094700515 0.8814957
-0.56599224 -0.35840258 0.40605435 -0.4222016 0.04664343 0.60435516 0.055221073 0.3965001
0.8206932 0.18633273 -0.71470773 -0.5078359 0.9130807 -0.75576776 -0.24776764 0.19575022
-0.09284472 1.7408662 -0.075281054 0.22028856 -0.10193629 0.03165274 0.22677594 -0.12680084
0.069828585 -0.016358104 -0.0015401416 -0.089671455 0.29092848 0.612989 -0.33166546 0.21001211
1.6831293 -0.26509964 1.1695286 1.2353177 0.56799144 -0.13438436 0.25307745 -0.075773515
-0.19272545 0.4587593 -1.0743405 -0.76798093 -0.07187041 -0.14245236 -0.2585867 -0.3209239
-0.23819004 0.17981806 0.19999075 -0.338592 -0.03724207 -0.35662326 0.331173 0.112754814
0.5266436 1.3174317 0.4010079 0.6139275 1.8365741 -0.066790536 -0.089209065 -0.4068249
0.7260328 -0.00019470413 -0.47458366 0.9167815 0.058841277 0.066095375 0.043238986 0.61843693
-0.049463864 -0.9676579 0.40963525 -0.08172514 -0.8899515 -0.88535404 0.6426445 0.24458475
0.40971583 -1.0001863 0.29787034 0.15837975 -0.14191547 0.06843888 0.010251034 0.68844074
-0.21773171 -0.392275 0.10467951 -0.48473117 -0.11042809 1.2225591 -0.67345405 0.20535834
0.41190785 -0.557829 -0.5511826 -0.44755113 0.4888496 -0.6544409 -0.43073407 0.6335864
0.12803549 0.565428 0.7821082 0.021314133 0.690148 -0.38482055 0.09102487 0.85779554
1.2523792 0.5612024 -0.31399497 0.079895355 0.8321944 -0.5523258 0.3647748 0.17127831
0.925715 -0.12621704 0.5825022 1.2285011 0.26478168 -0.15212217 -0.4298251 -0.6054856
0.08360163 0.4279116 0.11491076 -0.30412194 0.2717668 -0.18822022 -0.68411916 -0.59024686
-0.30107918 0.15103182 0.009073724 -0.27979892 0.10359869 0.71645254 -0.08015549 0.19209433
0.5975389 0.26409364 -0.3209859 -0.063244425 0.33044314 0.41127858 0.6567621 -0.16340168
0.1650493 0.3714086 -0.586025 0.81821024 -0.16638802 0.46173894 -0.08394229 0.49565536
0.65734786 0.37009025 0.3704693 0.1297718 -0.4199827 0.888777 1.04477 1.1101314
-0.43430027 0.24415898 0.7572696 0.9281582 -0.5072007 -0.09660906 -0.8042069 0.29139113
-0.2169259 -0.5852082 2.000895 -0.31251675 -0.19811994 0.8534238 -0.19967946 0.20576832
1.2789594 0.51318514 -0.43055317 -0.19512032 -0.19486459 -0.4326517 -0.60526484 1.147995
-0.15761267 1.6206566 -0.14941832 -0.45853722 0.27361068 0.3402485 -0.06948735 0.22699723
0.2874595 0.25707203 0.2905971 -0.07292227 0.8891576 -0.38137037 0.62754065 0.81096417
00000000: c2ec 68bd a894 84be 01ab f6be 2f7a 163f
00000010: e370 08bf 53be bebe 9de5 e1be 525a 58bf
00000020: b745 02bf 81be 17bd 3963 07bf 3b4b 1bbf
00000030: 59eb 4fbf 4f0d 133f 39c4 333e 7c5b 7e3f
00000040: ea58 3c3f d8a0 3b3f 854f 703f 42d6 713f
00000050: c276 ee3e d575 ac3e c26c f33e 564b 72be
00000060: db2e ba3e 1b6b 423f ec7c ac3d cb89 8e3f
00000070: ad92 41bf d148 993e f803 b7bf c37e 96bd
00000080: 4365 39bf 79aa b93d 1e58 f9bc c426 49bf
00000090: 0388 a8bb 35b1 bb3f d559 733f 1549 7abe
000000a0: 4c9c 9b3f 08e7 2dbf c226 a43d 7007 f43d
000000b0: 8445 17bf d15f dabe 58f2 c13d b4a9 613f
000000c0: dee4 10bf 8b80 b7be 5be6 cf3e cf2a d8be
000000d0: 2e0d 3f3d 05b7 1a3f 7e2f 623d 1002 cb3e
000000e0: f318 523f 02ce 3e3e 16f7 36bf 8901 02bf
000000f0: a8bf 693f ff79 41bf cdb6 7dbe bf72 483e
00000100: 5f25 bebd b4d4 de3f f42c 9abd 5393 613e
00000110: f9c3 d0bd 4ea6 013d f437 683e 14d8 01be
00000120: 4a02 8f3d 6e01 86bc 94de c9ba aba5 b7bd
00000130: 94f4 943e d9ec 1c3f 0ed0 a9be 6a0d 573e
00000140: c870 d73f 24bb 87be 1db3 953f e41e 9e3f
00000150: e367 113f 0e9c 09be 5e93 813e 252f 9bbd
00000160: d259 45be 80e2 ea3e fd83 89bf 669a 44bf
00000170: cb30 93bd 08df 11be 7a65 84be 2350 a4be
00000180: 17e8 73be 3a22 383e 60ca 4c3e ee5b adbe
00000190: 248b 18bd 5397 b6be 828f a93e ffeb e63d
000001a0: 1dd2 063f 9aa1 a83f e850 cd3e 5a2a 1d3f
000001b0: dc14 eb3f 7ac9 88bd 3eb3 b6bd 5a4b d0be
000001c0: 49dd 393f 7e29 4cb9 a1fc f2be 31b2 6a3f
000001d0: 8d03 713d 035d 873d 5d1b 313d e251 1e3f
000001e0: 9f9a 4abd 6eb8 77bf b6bb d13e 835f a7bd
000001f0: ddd3 63bf 90a6 62bf 5a84 243f 6d74 7a3e
00000200: 46c6 d13e 1b06 80bf 7682 983e 4d2e 223e
00000210: 4a52 11be af29 8c3d f4f3 273c a73d 303f
00000220: 10f5 5ebe 45d8 c8be 3662 d63d af2e f8be
00000230: 1f28 e2bd d17c 9c3f 7c67 2cbf 7549 523e
00000240: 96e5 d23e e2cd 0ebf 4e1a 0dbf 6c25 e5be
00000250: 7f4a fa3e 7089 27bf 2d89 dcbe b832 223f
00000260: bc1b 033e e4bf 103f 3e38 483f fa9a ae3c
00000270: 8aad 303f 3307 c5be 3f6b ba3d 7d98 5b3f
00000280: f64d a03f f6aa 0f3f f3c3 a0be 2da0 a33d
00000290: b10a 553f 3965 0dbf c3c3 ba3e 9563 2f3e
000002a0: a9fb 6c3f 0a3f 01be dd1e 153f 863f 9d3f
000002b0: 7791 873e eac5 1bbe 0912 dcbe 1b01 1bbf
000002c0: 5537 ab3d 3b17 db3e 5556 eb3d dfb5 9bbe
000002d0: 0525 8b3e cdbc 40be 6f22 2fbf 6b1a 17bf
000002e0: 0d27 9abe 16a8 1a3e f5a9 143c ce41 8fbe
000002f0: 8d2b d43d 6f69 373f 9028 a4bd 60b4 443e
00000300: 4ff8 183f 4837 873e 4458 a4be 4b86 81bd
00000310: d82f a93e 1b93 d23e 9021 283f c552 27be
00000320: af02 293e 4529 be3e bc05 16bf 3a76 513f
00000330: 9f61 2abe 0c69 ec3e efe9 abbd 8ac6 fd3e
00000340: f347 283f 787c bd3e 27ae bd3e e6e2 043e
00000350: f907 d7be e486 633f 06bb 853f c918 8e3f
00000360: 9b5c debe d004 7a3e 6cdc 413f c79b 6d3f
00000370: e8d7 01bf f9da c5bd 81e0 4dbf 3831 953e
00000380: d321 5ebe 34d0 15bf aa0e 0040 3202 a0be
00000390: f4df 4abe fb79 5a3f c678 4cbe eeb4 523e
000003a0: f1b4 a33f 1a60 033f 7771 dcbe 9fcd 47be
000003b0: 958a 47be 8684 ddbe a3f2 1abf 80f1 923f
000003c0: 3765 21be ad71 cf3f 1e01 19be 64c5 eabe
000003d0: b316 8c3e 0d35 ae3e 624f 8ebd f671 683e
000003e0: e42d 933e f29e 833e 25c9 943e 4558 95bd
000003f0: d59f 633f fa42 c3be 81a6 203f 599b 4f3f

L5.bias f4 [44]
-1.4309692 -1.0268639 -1.7853395 -1.3040199 -0.20663662 -0.928567 -2.075755 -1.4892485
-1.0604479 -1.3179822 -0.97252077 -0.94916344 -0.9312217 -1.3442732 -1.1017935 -1.6667873
-1.6685953 -1.3129438 -1.0201322 -1.8190956 -1.3479649 -0.6705613 -1.0041273 -0.7135744
-1.3305469 -1.1513665 -1.1323023 -2.0597553 -1.0212115 -1.1975543 -1.1863562 -1.5480833
-0.9879389 -1.7816805 -2.0374565 -0.9156763 -1.094719 -1.5786963 -1.3101722 -1.3427719
-1.4419762 -0.52119136 -0.47081196 -1.0905203
00000000: 002a b7bf 4770 83bf 0186 e4bf 20ea a6bf
00000010: 8d98 53be 91b6 6dbf 2bd9 04c0 b29f bebf
00000020: c2bc 87bf a4b3 a8bf 1ff7 78bf 60fc 72bf
00000030: 8c64 6ebf 2511 acbf 9207 8dbf 4959 d5bf
00000040: 8894 d5bf 8b0e a8bf b193 82bf 20d8 e8bf
00000050: 1d8a acbf e8a9 2bbf 3e87 80bf d0ac 36bf
00000060: 5c4f aabf fa5f 93bf 48ef 90bf 08d3 03c0
00000070: 0fb7 82bf 7649 99bf 85da 97bf 9827 c6bf
00000080: 90e9 7cbf 1b0e e4bf b065 02c0 c369 6abf
00000090: c11f 8cbf b812 cabf b9b3 a7bf f3df abbf
000000a0: ad92 b8bf cc6c 05bf 440e f1be 2b96 8bbf

L6.weight f4 [1, 44]
0.010234905 0.05692327 0.14890306 -0.028197914 0.018008325 0.21539442 0.0862083 -0.02157949
-0.10304648 -0.009164802 0.060963243 -0.119558275 0.017353276 -0.05432113 -0.059632704 0.08591941
0.010895551 0.046396896 -0.020709122 -0.03507023 -0.0673993 0.0024890918 0.037115514 -0.18844242
-0.11606466 -0.3008856 0.055527613 -0.2344566 0.06371891 0.0055692866 0.17961231 -0.0080823405
0.05439823 0.016591031 0.08603054 0.020457191 -0.06470078 0.12911174 0.20787597 0.23027825
0.09768471 0.026695367 -0.035585217 -0.108852126
00000000: 4eb0 273c 6028 693d 0b7a 183e 50ff e6bc
00000010: 3286 933c 5b90 5c3e fa8d b03d 78c7 b0bc
00000020: 080a d3bd f727 16bc 98b4 793d f8da f4bd
00000030: 7528 8e3c d57f 5ebd 6c41 74bd 84f6 af3d
00000040: 4183 323c ac0a 3e3d 2da6 a9bc cda5 0fbd
00000050: a508 8abd 0820 233b 7006 183d 0df7 40be
00000060: 4fb3 edbd ad0d 9abe ec70 633d 6415 70be
00000070: 0f7f 823d 907e b63b 4aec 373e cb6b 04bc
00000080: aed0 5e3d eae9 873c c830 b03d d795 a73c
00000090: d881 84bd de35 043e 70dd 543e 10ce 6b3e
000000a0: ec0e c83d 3eb0 da3c cec1 11bd dded debd
