Saved_Models_All_Samples_Limited_Features/target_Hardness_features_5_epochs_58.pth (torch_old, 10514 bytes, 11 tensors)

L1.weight f4 [10, 5]
0.46915013 -0.5401263 1.3027585 0.6811675 0.43740362 -0.052186888 -0.780019 1.1426066
1.366412 -0.4292458 -0.89188576 -0.0005161652 -0.08733321 -0.5065578 -0.5458816 0.96839195
0.18910566 1.8094525 0.41754037 0.50754815 -0.22304556 -0.18468627 -1.0698428 0.72562873
-0.20152065 -0.109821044 -0.07796161 1.0186441 -0.20308715 -0.6189392 -0.40760577 0.29206735
-1.0599768 0.9862572 0.24671958 -0.24799372 -0.08198633 -0.09665655 0.2366229 -0.17867477
-0.22763084 -0.566072 1.4902635 0.94034714 -0.49051547 0.24369374 -0.53068596 1.2585518
-0.5503005 -0.6402535
00000000: 7234 f03e b845 0abf cac0 a63f fe60 2e3f
00000010: 5ef3 df3e ebc1 55bd 53af 47bf ef40 923f
00000020: 97e6 ae3f 1bc6 dbbe a052 64bf 434f 07ba
00000030: c1db b2bd c6ad 01bf e6be 0bbf 89e8 773f
00000040: eaa4 413e 249c e73f dac7 d53e adee 013f
00000050: 0e66 64be 661e 3dbe 9cf0 88bf cec2 393f
00000060: 6e5b 4ebe dbe9 e0bd 56aa 9fbd ee62 823f
00000070: 14f6 4fbe cd72 1ebf b4b1 d0be da89 953e
00000080: 52ad 87bf 5a7b 7c3f 0fa4 7c3e 11f2 7dbe
00000090: 73e8 a7bd dff3 c5bd 464d 723e 85f6 36be
000000a0: 0f18 69be 18ea 10bf f4c0 be3f 97ba 703f
000000b0: d824 fbbe da8a 793e 09db 07bf 3a18 a13f
000000c0: 7ee0 0cbf a7e7 23bf

L1.bias f4 [10]
0.22704905 0.07424253 0.40857017 0.18919373 -1.0113623 -0.8050341 -0.4333572 -1.0245559
-0.7966949 -1.3911906
00000000: 8c7f 683e 780c 983d 1c30 d13e 00bc 413e
00000010: 5274 81bf b716 4ebf ffe0 ddbe a624 83bf
00000020: 32f4 4bbf 8912 b2bf

L2.weight f4 [20, 10]
0.57932216 0.694151 -1.363164 0.60800004 -0.15028787 0.30790034 -0.32631883 0.14261308
0.9274361 -0.43608442 0.27773124 -1.6057584 0.2079213 -1.0644923 -0.050610248 0.8239756
-0.31428176 0.055053625 -0.80511045 1.0937824 -0.3472497 -2.064474 0.38804126 -0.7813883
0.25130486 0.46065053 0.33457044 0.2600568 -0.3628599 1.4743685 -0.43649578 -1.5959489
0.3138731 -0.95948523 0.2937404 0.33702484 1.1770624 -0.6532706 -0.8089927 0.75933474
-0.55630505 -1.5319488 -0.45422977 -1.5072114 0.9850948 -0.3925157 0.84815377 -0.48430064
-1.9578846 -0.01590035 -0.7686308 -1.5588784 0.15199023 -1.5581135 -0.049926538 0.5379716
0.7077657 0.21570058 -1.0262178 0.54709446 -0.2723099 -0.52777505 0.46553725 -1.5879933
0.6028247 0.74373263 0.7013866 -0.44914934 -1.8709794 0.37658653 -0.053295027 0.5938016
-1.9034586 0.18663853 -0.88785917 -0.026089003 -0.5551941 0.05933682 0.67853194 -0.28606164
-0.71350724 0.5821664 0.28402013 -0.52635634 -0.14829035 -0.02737578 -0.03937166 -0.059039336
-1.2717664 0.60877097 -0.3607753 0.44617525 -0.3696364 -0.3226369 0.36529317 -0.0840499
-0.5127584 0.20790863 -1.5618503 0.134086 -0.694571 0.41205826 -0.04965179 -1.0747006
-0.12586236 0.48010334 0.68027836 0.26628518 -0.5507204 0.36258307 -0.8267235 -0.9298302
0.048818536 -0.9300881 0.06311983 -0.1573043 0.026392808 -0.23314512 -0.9692489 -0.43382815
-1.324756 0.29224437 0.28703946 -0.98249435 -0.057036042 0.5896169 0.644107 -0.24396385
-0.045169707 0.8862396 0.17318915 0.48560947 -1.4705684 -0.022151457 -0.29009852 0.12237496
-0.29743186 0.6437356 1.0751545 -0.0665355 -0.39306328 -0.064253666 -1.8446878 0.012008871
-0.6844886 -0.083263636 -0.6511952 0.16411082 0.7986474 -1.1332582 0.41178596 0.27288488
-1.5981188 0.21710613 -1.0188329 0.27529985 -0.8735274 0.015355629 1.0839075 -0.38658884
-0.26994547 -0.92949516 -0.17029779 -0.75611496 0.33494616 -0.0018498969 0.33646882 0.35414732
0.28182602 -0.116982184 0.30418786 0.73297036 -0.42531586 0.7259405 -0.5532091 0.14029615
-1.0603994 -0.29549453 1.5865772 -0.4909496 -0.4478086 -0.3526203 0.40068936 -0.7095974
-0.35653126 0.013940579 -0.13383564 -0.042412803 -0.7685349 0.3745542 -0.5852663 0.18555239
-1.8124726 -0.16415597 -1.4917473 -0.63031536 -1.4122068 0.15890901 0.39236826 -0.6587954
00000000: 754e 143f e1b3 313f 287c aebf e4a5 1b3f
00000010: 10e5 19be 1da5 9d3e 4313 a7be 2a09 123e
00000020: 746c 6d3f 7546 dfbe ca32 8e3e 7e89 cdbf
00000030: 52e9 543e 4941 88bf b14c 4fbd 11f0 523f
00000040: 8ae9 a0be e97f 613d b81b 4ebf 1001 8c3f
00000050: b6ca b1be 5820 04c0 58ad c63e 1009 48bf
00000060: 08ab 803e 63da eb3e d14c ab3e 2a26 853e
00000070: c6c8 b9be 1bb8 bc3f 607c dfbe 0e48 ccbf
00000080: fab3 a03e d3a0 75bf 2465 963e 858e ac3e
00000090: fba9 963f be3c 27bf 251a 4fbf c363 423f
000000a0: 026a 0ebf e616 c4bf ce90 e8be 4eec c0bf
000000b0: 2c2f 7c3f d1f7 c8be 9b20 593f 41f6 f7be
000000c0: f69b fabf 7341 82bc fdc4 44bf 5489 c7bf
000000d0: 54a3 1b3e 4370 c7bf c57f 4cbd 82b8 093f
000000e0: 2230 353f 9de0 5c3e 1b5b 83bf 620e 0c3f
000000f0: 346c 8bbe 441c 07bf e65a ee3e 5d43 cbbf
00000100: b852 1a3f 4365 3e3f 128e 333f e7f6 e5be
00000110: 417c efbf f3cf c03e e34b 5abd 6203 183f
00000120: 88a4 f3bf 2c1e 3f3e bd4a 63bf 9bb8 d5bc
00000130: 3321 0ebf 2a0b 733d 45b4 2d3f ac76 92be
00000140: 69a8 36bf db08 153f 166b 913e 4abf 06bf
00000150: 6dd9 17be 2c43 e0bc 2e44 21bd 3bd3 71bd
00000160: 3ec9 a2bf 6ad8 1b3f 8ab7 b8be 1571 e43e
00000170: fb40 bdbe aa30 a5be b507 bb3e 5b22 acbd
00000180: 2244 03bf 00e6 543e b6ea c7bf d74d 093e
00000190: 68cf 31bf 4df9 d23e ad5f 4bbd ca8f 89bf
000001a0: 10e2 00be 1bd0 f53e b926 2e3f 8856 883e
000001b0: 03fc 0cbf 7da4 b93e 27a4 53bf 5a09 6ebf
000001c0: f2f5 473d 411a 6ebf f844 813d 6114 21be
000001d0: bb35 d83c 98bd 6ebe b220 78bf b91e debe
000001e0: 9b91 a9bf 0ea1 953e d6f6 923e c084 7bbf
000001f0: a09e 69bd 22f1 163f 32e4 243f a9d1 79be
00000200: df03 39bd 99e0 623f 7f58 313e cea1 f83e
00000210: 963b bcbf f976 b5bc cb87 94be b99f fa3d
00000220: fd48 98be dbcb 243f aa9e 893f c443 88bd
00000230: 973f c9be 6d97 83bd bb1e ecbf dbc0 443c
00000240: a53a 2fbf 2086 aabd bbb4 26bf ab0c 283e
00000250: 2874 4c3f 9b0e 91bf 9cd5 d23e 91b7 8b3e
00000260: 288f ccbf 1251 5e3e 1e69 82bf 1af4 8c3e
00000270: 7e9f 5fbf 2d96 7b3c 7bbd 8a3f f9ee c5be
00000280: 4b36 8abe 65f3 6dbf 8b62 2ebe c090 41bf
00000290: 107e ab3e 3d78 f2ba a445 ac3e cc52 b53e
000002a0: 804b 903e 5b94 efbd 83be 9b3e f2a3 3b3f
000002b0: 00c3 d9be 3dd7 393f 1d9f 0dbf cba9 0f3e
000002c0: 2bbb 87bf 0f4b 97be f614 cb3f bf5d fbbe
000002d0: 2b47 e5be a68a b4be 2827 cd3e 2da8 35bf
000002e0: 448b b6be 0767 643c 360c 09be 0cb9 2dbd
000002f0: b4be 44bf 91c5 bf3e 03d4 15bf 7201 3e3e
00000300: 1aff e7bf 8118 28be 93f1 bebf 595c 21bf
00000310: 31c3 b4bf 0bb9 223e 7ee4 c83e d1a6 28bf

L2.bias f4 [20]
-0.4998109 -0.37110928 -0.3108565 0.20496929 0.052593015 0.15151332 0.12577637 -0.45150983
0.16782762 -0.23828723 -0.31993267 -0.54191434 0.10591579 -0.610166 -0.6728376 0.016020633
-0.36999583 -0.063096754 -0.5187861 -0.20190121
00000000: 37e7 ffbe 0902 bebe 9528 9fbe 78e3 513e
00000010: c66b 573d 4f26 1b3e 85cb 003e 4c2c e7be
00000020: 01db 2b3e 9101 74be 37ce a3be e6ba 0abf
00000030: 61ea d83d d733 1cbf 163f 2cbf b43d 833c
00000040: 1870 bdbe df38 81bd 2acf 04bf 31bf 4ebe

L3.weight f4 [40, 20]
0.07745751 0.41723815 -0.04785418 -0.4870661 0.13038084 0.33263436 0.11479971 -0.43217215
0.15232532 -0.13426892 -0.49266168 1.4987949 -0.93158525 -0.05425746 -0.4928043 -0.5961646
-0.1737171 -0.76788133 1.0669562 0.65347797 -0.6382158 -0.13158348 -0.26563105 -0.47826022
-0.50468105 0.060012314 -0.60785 -0.30022067 -0.60487455 0.2638053 -0.5473511 -0.18688168
-0.3233731 -0.104129225 0.12475756 -0.49044713 0.124179214 -0.30787843 0.32405528 0.07053218
0.61768717 -0.89374095 -0.7614571 -0.2689727 -0.7976706 -0.8000457 -0.5860897 0.21079357
0.23963477 -0.18271151 -0.05878694 -0.5814471 -0.69185865 0.43508705 0.23407795 0.4948628
-0.2880917 -1.4516026 -0.6611908 0.029699245 -0.6010469 -0.10260709 0.14951082 -0.014549213
0.03796112 -0.1838547 -0.1615045 -0.084609486 -0.3611241 -0.18066777 -0.060706127 0.41048294
0.053029835 -0.67273855 0.324597 -0.17921397 -0.14274259 -0.61818737 0.12821133 -0.090179406
-0.3297588 -0.3916638 -0.33071223 -0.4089439 -0.09925404 -0.25133723 -0.32856277 -0.72959083
-0.21588102 -0.45784628 -0.13378315 -0.19255823 -0.016776111 -0.17589194 0.42024982 -0.18049566
0.008181808 -0.12600039 0.015242781 -0.2690211 -0.1575105 -0.08375207 -0.15523034 -0.1784053
0.23429567 0.079041034 -0.10159033 -0.26242888 -0.63797706 -0.21806976 -0.18852329 1.1743269
-0.05724551 -0.27506456 -0.084599696 0.11175574 0.32635918 -0.16506483 0.23326637 -0.05749408
-0.3747757 -0.3236606 -0.019174328 0.007512252 -0.22467 -0.09753733 -0.19537573 -0.06767406
-0.10162372 0.4318462 -0.6116125 0.7067159 -0.34197944 -0.35942268 0.49142525 0.09815052
-0.6627429 -0.5474258 0.6848315 0.3910419 -0.6094547 0.13060477 -0.29203948 -0.22359459
0.4652861 0.096895166 0.041604653 -1.1446043 -0.20743379 -0.15846126 -0.4345822 0.3010703
0.050764173 -0.27838033 0.6545296 0.37356523 0.18619393 -0.08017183 0.3137615 -0.3556081
-0.16673632 -0.27276492 -0.90299565 -0.49807703 -0.43674487 -0.12055995 -0.20205784 -0.15063536
-0.2171985 -0.22866912 -0.047062393 -1.0085413 0.09203642 0.29935294 0.098604955 0.9408238
-0.2074652 -0.24934788 0.11017602 -0.5072773 -0.1084585 -1.2044942 -1.4152029 -1.1867269
-0.42250794 -0.55906874 -0.80993867 1.000865 -0.10519335 -0.27274293 -0.7382506 0.0675603
-1.024401 0.37337327 -1.030363 -1.0176917 -0.6735147 -0.55590206 -0.41390043 -0.44931087
0.2094392 -1.0488006 -0.53851885 -0.7183159 -0.6396914 -0.95225835 -0.6552199 -0.120468415
0.4953902 -0.0177222 -0.33654708 -0.35344738 0.18761177 -0.61838114 0.1215179 0.2164738
-0.841394 -0.61574256 -0.09456697 0.99486256 -0.68567467 -0.53807145 -0.58202386 -0.772569
-1.0712446 -0.645707 -0.94527805 0.26819155 -0.79179287 0.02402834 0.6146022 1.013717
0.56447023 -0.3517902 -0.32989424 0.26815373 0.11896379 0.15861268 0.26112908 -0.5569883
-0.12048934 0.16502976 -0.052103683 -0.72715056 -0.4220682 -0.5642528 -0.15267149 0.36507007
-0.1911035 -0.12843135 -0.4024925 0.34727517 0.15521336 -0.3780807 0.30130368 -0.71649486
00000000: 0ba2 9e3d 3da0 d53e bf02 44bd ba60 f9be
00000010: 8e82 053e 0d4f aa3e 1c1c eb3d ab45 ddbe
00000020: 2bfb 1b3e cb7d 09be 273e fcbe 83d8 bf3f
00000030: 5f7c 6ebf 123d 5ebd d850 fcbe 3e9e 18bf
00000040: e5e2 31be df93 44bf 0592 883f 554a 273f
00000050: 1c62 23bf d2bd 06be cb00 88be 86de f4be
00000060: c732 01bf 79cf 753d 0f9c 1bbf 86b6 99be
00000070: 0fd9 1abf 7d11 873e 341f 0cbf e95d 3fbe
00000080: 2991 a5be b441 d5bd e480 ff3d e31b fbbe
00000090: ac51 fe3d 3ea2 9dbe 93ea a53e 2d73 903d
000000a0: bf20 1e3f 35cc 64bf daee 42bf cab6 89be
000000b0: 2434 4cbf cccf 4cbf f909 16bf 45da 573e
000000c0: d162 753e ba18 3bbe 93ca 70bd b8d9 14bf
000000d0: a61d 31bf bbc3 de3e 21b2 6f3e a85e fd3e
000000e0: c180 93be 1dce b9bf cd43 29bf d54b f33c
000000f0: 36de 19bf aa23 d2bd 5d19 193e d35f 6ebc
00000100: 1f7d 1b3d 6844 3cbe 7061 25be bd47 adbd
00000110: 42e5 b8be f900 39be fda6 78bd d22a d23e
00000120: d035 593d 9838 2cbf 9431 a63e de83 37be
00000130: 1d2b 12be 8741 1ebf d549 033e fbaf b8bd
00000140: 25d6 a8be 2888 c8be 1d53 a9be 1861 d1be
00000150: b445 cbbd 46af 80be 6139 a8be 77c6 3abf
00000160: ea0f 5dbe d46a eabe 73fe 08be fc2d 45be
00000170: 0e6e 89bc 041d 34be fc2a d73e dbd3 38be
00000180: fd0c 063c 3f06 01be dbbc 793c 22bd 89be
00000190: 6f4a 21be 3586 abbd b4f4 1ebe e1af 36be
000001a0: 34eb 6f3e 44e0 a13d 970e d0bd 145d 86be
000001b0: 7752 23bf ae4d 5fbe 400c 41be 5850 963f
000001c0: 457a 6abd 43d5 8cbe 9b42 adbd 32e0 e43d
000001d0: 8d18 a73e c106 29be 61dd 6e3e ea7e 6bbd
000001e0: 9ae2 bfbe d8b6 a5be 7b13 9dbc 5629 f63b
000001f0: e40f 66be a7c1 c7bd 9310 48be b398 8abd
00000200: 1920 d0bd f21a dd3e a392 1cbf 55eb 343f
00000210: ee17 afbe 4006 b8be 179c fb3e 2403 c93d
00000220: 85a9 29bf 1924 0cbf 1e51 2f3f a536 c83e
00000230: 3905 1cbf 42bd 053e 3386 95be fbf5 64be
00000240: fb39 ee3e f970 c63d a469 2a3d 6582 92bf
00000250: 8669 54be ab43 22be 8f81 debe e325 9a3e
00000260: 18ee 4f3d de87 8ebe 408f 273f f143 bf3e
00000270: 9fa9 3e3e 2131 a4bd 59a5 a03e 4412 b6be
00000280: edbc 2abe d8a7 8bbe b92a 67bf f403 ffbe
00000290: 069d dfbe 23e8 f6bd 40e8 4ebe 2840 1abe
000002a0: 4969 5ebe 3d28 6abe 7fc4 40bd e217 81bf
000002b0: 977d bc3d ca44 993e 65f1 c93d d4d9 703f
000002c0: c271 54be 0d55 7fbe f7a3 e13d eddc 01bf
000002d0: 7d1f debd de2c 9abf 5e25 b5bf abe6 97bf
000002e0: f652 d8be 211f 0fbf 2458 4fbf 581c 803f
000002f0: 9c6f d7bd f6a4 8bbe fefd 3cbf 0e5d 8a3d
00000300: 921f 83bf c82a bf3e efe2 83bf b943 82bf
00000310: 766b 2cbf 994f 0ebf c2ea d3be 130c e6be
00000320: 3b77 563e 193f 86bf 5fdc 09bf 8de3 37bf
00000330: d1c2 23bf 34c7 73bf 7ebc 27bf 25b8 f6bd
00000340: c9a3 fd3e 262e 91bc e64f acbe 0ef7 b4be
00000350: 4d1d 403e 3a4e 1ebf 60de f83d 4fab 5d3e
00000360: 9965 57bf 4ea1 1dbf 54ac c1bd 50af 7e3f
00000370: 6088 2fbf 0dbf 09bf 84ff 14bf 15c7 45bf
00000380: 8b1e 89bf 0e4d 25bf befd 71bf 6750 893e
00000390: f0b2 4abf 15d7 c43c 9256 1d3f 7bc1 813f
000003a0: 1f81 103f d81d b4be e6e7 a8be 724b 893e
000003b0: 4aa3 f33d 5d6b 223e b6b2 853e c996 0ebf
000003c0: 1dc3 f6bd 90fd 283e ac6a 55bd 8a26 3abf
000003d0: 5319 d8be df72 10bf ea55 1cbe 77ea ba3e
000003e0: a3b0 43be 8283 03be 7f13 cebe 0dce b13e
000003f0: 40f0 1e3e cb93 c1be 7a44 9a3e 356c 37bf

L3.bias f4 [40]
-0.94559556 -0.046189386 -0.79633814 -0.6142786 -0.2256129 -1.2231169 -0.9915308 -1.1381241
-0.8361926 -0.3566626 -0.8262453 -0.8636642 -0.21161355 0.28628084 -0.32387254 -0.96234435
0.5562591 -0.2528623 -0.2628712 -0.4622731 -0.90937126 -0.4054437 -0.73541933 -1.052117
-0.05416674 0.58430994 -0.4293369 -1.3717904 0.12911896 -0.37405276 0.101992555 -1.3934888
-0.32930726 0.12172049 -0.3804505 -0.46054748 -0.5142657 -1.4778218 -0.5699842 -0.19076815
00000000: 8d12 72bf 1531 3dbd d1dc 4bbf 5d41 1dbf
00000010: 1107 67be 188f 9cbf f6d4 7dbf 0dae 91bf
00000020: b810 56bf 7b9c b6be d084 53bf 1919 5dbf
00000030: 39b1 58be 6793 923e 9fd2 a5be 335c 76bf
00000040: ff66 0e3f 2b77 81be 0e97 86be 0faf ecbe
00000050: 8ecc 68bf 5196 cfbe 7144 3cbf c5ab 86bf
00000060: f2dd 5dbd 5695 153f 0cd2 dbbe d496 afbf
00000070: c337 043e d883 bfbe 79e1 d03d d75d b2bf
00000080: f69a a8be 9848 f93d 68ca c2be e1cc ebbe
00000090: eba6 03bf 4429 bdbf 7cea 11bf ba58 43be

L4.weight f4 [20, 40]
-0.16270553 -0.045887507 -0.22517015 0.13506977 0.96033204 0.13251063 0.20307541 0.5247657
0.66596633 0.84783465 -0.36788923 0.8968585 0.092563756 -0.35477406 -0.026249934 0.3702761
0.33033702 0.43926308 -0.20627029 -0.35124046 0.6403791 0.13708396 -0.00844371 0.59919935
-0.25056657 -0.0909236 0.31963578 0.13351692 -0.9456185 0.30896887 -0.62144387 0.32757014
0.6121201 -0.27279523 0.4669019 -0.12994322 0.07027321 1.1707048 0.4271495 0.18621679
-0.02224154 -0.3187788 0.5527067 -0.4968602 -0.42715055 -0.26807958 0.26845735 -0.23561843
-0.2775514 1.3012938 0.28252444 -0.23769096 -0.08111005 -0.71568346 0.5234536 0.3807254
0.9317027 -0.11541451 -0.31926107 0.94894856 0.25139037 0.16326644 0.0028522117 -0.31576818
-0.18679866 0.5888671 -0.06290719 -0.06474857 -0.6070088 -0.35319406 -0.41654488 -0.7160575
-1.2727914 0.48307845 -0.2590922 -0.14059843 0.1466927 0.6522065 -0.032274466 0.18842937
-0.33086687 -0.10998452 0.4088652 -0.15908019 -0.08445852 -0.15616962 -0.1646173 0.0051174397
0.6013218 -0.57262236 0.24979605 0.8817548 0.05786879 0.102987446 -0.015995415 0.11279055
-1.0989741 -0.023731891 0.11070562 0.21367386 -0.111617185 -0.07901273 -0.19189252 -0.27025393
-0.5125792 -0.7153748 -0.12369287 -0.089095645 -0.6834313 -0.15471536 -0.5205289 -0.23726456
-0.08259083 -0.5191718 -0.16928709 -0.25734028 0.031150157 0.16234744 0.22141717 -0.35179937
0.10744292 -0.70308065 0.9057739 -0.2885475 -0.21382533 0.12003992 0.34129876 0.00096831354
-0.1483663 0.41575626 0.67502385 0.15718131 -0.482222 -0.684313 0.6976477 0.27199984
0.82562864 -0.13454105 -0.71006453 -0.63315594 0.008852976 -0.33003694 -0.09826451 0.6231047
-1.0517037 0.6298757 -0.08973138 0.018726533 -0.40065575 -0.16904585 -0.37713715 0.09381229
-0.58937794 0.6245655 0.11859206 0.2637794 0.18207826 0.6456999 0.72330123 -0.3684074
0.23881873 0.21171948 -0.25351533 0.39696112 -0.057411652 0.21324925 0.56982213 0.14138539
0.5567859 0.67192876 0.11560404 0.26736844 0.105763175 -0.31650412 1.0705451 -0.14223242
0.8333932 0.070402764 -0.24389298 -0.1733786 0.009684658 0.036085807 0.45903495 0.019041514
-0.24048035 -0.17171256 0.12447004 0.77919 -0.104512244 0.6352624 -0.33001474 0.21305488
-0.1638816 -0.05870727 -0.11026703 -0.15370317 0.499418 -0.39904678 0.43697846 -0.12441051
-0.5635369 0.09254787 0.10949233 0.15154912 -0.011170268 -0.10499143 0.32661554 0.18658894
-0.6087119 0.64658797 0.1716466 -0.048782784 -0.03166486 -0.46229872 -0.312002 0.22832781
-0.42344305 0.11697968 -0.14758696 0.9910974 1.4438548 0.22081982 -0.27358148 0.2922123
-0.04390337 -0.34661293 0.12499009 -0.34337452 -0.26872566 0.0621641 -0.27850753 -0.10850418
-0.010970692 0.01203432 0.015939118 -0.18827745 0.22183304 -0.38494137 0.17404665 1.0377194
0.3283139 0.45307007 0.6227795 -0.13861969 -0.23720898 -0.05596556 -0.03737135 0.3460874
0.034820717 0.20269276 0.50060165 0.19149847 0.47774163 -0.68465984 0.35883403 0.0931156
00000000: 479c 26be 8af4 3bbd 0193 66be bb4f 0a3e
00000010: 52d8 753f deb0 073e 00f3 4f3e 0b57 063f
00000020: c57c 2a3f b10b 593f fa5b bcbe 8598 653f
00000030: 1192 bd3d f2a4 b5be 1a0a d7bc d494 bd3e
00000040: ef21 a93e 17e7 e03e 8538 53be cad5 b3be
00000050: e2ef 233f bd5f 0c3e 7d57 0abc 2165 193f
00000060: 434a 80be 2736 babd 4da7 a33e a9b8 083e
00000070: 0e14 72bf 2b31 9e3e f216 1fbf 46b7 a73e
00000080: e7b3 1c3f d1ab 8bbe c40d ef3e d60f 05be
00000090: 67eb 8f3d a8d9 953f 57b3 da3e 9daf 3e3e
000000a0: e433 b6bc fa36 a3be 307e 0d3f 7664 febe
000000b0: 7ab3 dabe ba41 89be 3e73 893e f545 71be
000000c0: 381b 8ebe cc90 a63f 0ba7 903e 4265 73be
000000d0: 071d a6bd 0837 37bf 0e01 063f 71ee c23e
000000e0: 1184 6e3f 715e ecbd 3076 a3be 4bee 723f
000000f0: 3db6 803e 512f 273e 2cec 3a3b 5eac a1be
00000100: 2648 3fbe ffbf 163f 7cd5 80bd e69a 84bd
00000110: ee64 1bbf dad5 b4be 5f45 d5be 8b4f 37bf
00000120: d4ea a2bf 0f56 f73e bca7 84be 09f9 0fbe
00000130: 9c36 163e 01f7 263f 3b32 04bd a1f3 403e
00000140: 6267 a9be 903f e1bd c856 d13e ebe5 22be
00000150: 97f8 acbd eeea 1fbe 7091 28be 32b0 a73b
00000160: 3af0 193f 6197 12bf 89ca 7f3e afba 613f
00000170: d307 6d3d 15eb d23d d108 83bc bbfe e63d
00000180: 2fab 8cbf 6269 c2bc a1b9 e23d 52cd 5a3e
00000190: 8d97 e4bd 6dd1 a1bd 797f 44be b95e 8abe
000001a0: 6438 03bf ce22 37bf b052 fdbd c777 b6bd
000001b0: 5bf5 2ebf b46d 1ebe 6241 05bf 7bf5 72be
000001c0: 6225 a9bd 71e8 04bf 9859 2dbe 1bc2 83be
000001d0: 9d2e ff3c 683e 263e 2fbb 623e 0c1f b4be
000001e0: 090b dc3d 18fd 33bf cce0 673f 7fbc 93be
000001f0: 07f5 5abe 7dd7 f53d b6be ae3e 6cd6 7d3a
00000200: 56ed 17be 01de d43e 5dce 2c3f 23f4 203e
00000210: cde5 f6be 232f 2fbf 0a99 323f 9043 8b3e
00000220: 665c 533f 21c5 09be cac6 35bf 8216 22bf
00000230: 130c 113c 9afa a8be e73e c9bd ca83 1f3f
00000240: 3a9e 86bf 893f 213f 16c5 b7bd 6368 993c
00000250: c022 cdbe 5b1a 2dbe 1f18 c1be a820 c03d
00000260: 79e1 16bf 86e3 1f3f 65e0 f23d 180e 873e
00000270: b972 3a3e 974c 253f 452a 393f e59f bcbe
00000280: e68c 743e fecc 583e c3cc 81be 7d3e cb3e
00000290: 7b28 6bbd 035e 5a3e dddf 113f 55c7 103e
000002a0: 8589 0e3f 8603 2c3f d0c1 ec3d 84e4 883e
000002b0: 5d9a d83d d40c a2be 9f07 893f 60a5 11be
000002c0: 4259 553f 532f 903d 15bf 79be 298a 31be
000002d0: 66ac 1e3c b6ce 133d a106 eb3e f3fc 9b3c
000002e0: 7b40 76be 6bd5 2fbe 26ea fe3d ff78 473f
000002f0: 840a d6bd 8fa0 223f b1f7 a8be 0f2b 5a3e
00000300: 94d0 27be 0977 70bd aed3 e1bd 5d64 1dbe
00000310: b7b3 ff3e dc4f ccbe a4bb df3e f0ca febd
00000320: f443 10bf bd89 bd3d 843d e03d b12f 1b3e
00000330: 8003 37bc bf05 d7bd 273a a73e 2c11 3f3e
00000340: 8bd4 1bbf ca86 253f 20c4 2f3e 75d0 47bd
00000350: 03b3 01bd 6bb2 ecbe babe 9fbe c4ce 693e
00000360: 87cd d8be 0b93 ef3d 0921 17be 8fb8 7d3f
00000370: 3cd0 b83f 971e 623e df12 8cbe da9c 953e
00000380: 05d4 33bd 4077 b1be cefa ff3d c9ce afbe
00000390: 6996 89be c99f 7e3d 8a98 8ebe 7137 debd
000003a0: 6bbe 33bc 992b 453c c192 823c cecb 40be
000003b0: 3328 633e 0917 c5be 4939 323e fdd3 843f
000003c0: c218 a83e cdf8 e73e 7a6e 1f3f 52f2 0dbe
000003d0: e9e6 72be 253c 65bd b312 19bd 5e32 b13e
000003e0: 2ba0 0e3d b18e 4f3e 6e27 003f 2d18 443e
000003f0: 8d9a f43e de45 2fbf 18b9 b73e 64b3 be3d

L4.bias f4 [20]
-0.76120085 0.20008989 0.107459 0.11575551 0.09838511 0.11503696 0.2708481 0.06469291
0.28158373 -0.94173396 0.056225896 -1.2163372 -0.45635507 0.24451055 -0.05275482 -0.36732367
-0.615152 0.91911477 -0.56315726 -0.42916715
00000000: 0fde 42bf 5de4 4c3e 7713 dc3d 3a11 ed3d
00000010: 227e c93d 7f98 eb3d 9aac 8a3e b77d 843d
00000020: be2b 903e 7a15 71bf 204d 663d f0b0 9bbf
00000030: 5fa7 e9be f960 7a3e 7015 58bd d911 bcbe
00000040: 9a7a 1dbf 1b4b 6b3f 132b 10bf ccbb dbbe

L5.weight f4 [10, 20]
0.19497332 -0.119096994 -0.5942889 -0.43917236 -0.8335213 -0.25203186 0.0050732032 -0.2718337
-0.26088932 0.50414395 0.026285578 0.8683226 -0.2542952 -0.12522021 -0.18612838 0.17352413
1.0177984 -0.79905754 -0.011330601 -0.39911526 -0.45066804 -0.6782104 -0.4717741 -0.7195132
0.13330331 0.08923436 -0.3107819 -1.1516198 -1.3140403 1.1954755 -0.6555895 0.14558323
-0.15410039 0.015522771 -0.3190459 0.27485773 0.04795986 -0.87582064 0.26799512 0.34578747
-0.39932382 -0.9064402 -0.10162967 -0.80554324 -0.14543676 -0.17765148 -0.7110172 -1.0286707
-0.055900432 -0.89725256 -1.2986313 -0.93996954 -1.1918403 -0.021121811 -0.23404004 -0.15265556
-0.32027084 -0.24551868 -0.45094776 -0.7457336 -0.56906676 -0.38170883 -0.46272182 -0.8125704
-0.4245651 -0.38188395 -0.7801818 -0.54319465 -0.63238037 -0.19581471 -0.053157303 1.4307905
-0.10567025 -0.0031854534 -0.04757316 0.06936322 -0.06724528 -0.3129698 0.04556878 0.03209161
0.41221577 -0.25020954 0.09732384 -0.1332513 -0.45651892 -0.2072157 -0.3824429 -0.58250993
-0.39684758 0.6789795 -0.12672666 0.46547386 -0.027170565 -0.13597035 0.25354937 0.44542056
0.07760264 -0.05920581 -0.45773813 -0.1319804 0.008647497 -0.2409779 -0.49607366 -0.6055084
0.05601889 0.21592553 -0.24227826 -0.12457917 0.164123 0.8822181 -0.06911815 0.4520765
-0.23716582 -0.2857588 0.18341808 -0.38020295 -0.1767045 0.11446947 -0.18748808 0.1890863
0.24336655 -0.97694397 -0.27424303 -0.031577058 -0.38044268 -0.21256231 -0.59477466 -0.36821166
-0.23078345 -0.62590873 -0.079228155 0.07101004 -0.820345 -0.02983374 0.23105979 0.39272207
0.53167456 -0.12588437 -0.5042423 0.33772016 -0.43658656 -0.22042777 -0.47658992 -0.13332568
0.102900304 -1.1621636 -0.20616353 -0.017438635 -0.94921076 0.16646592 -0.3980063 0.039673965
-0.2578621 -0.78480893 -0.5289481 -1.8861542 -0.112013586 -0.03843972 0.4299428 -0.071533374
0.3266477 -0.37798208 -0.5945785 -0.3106377 -0.35212085 -0.44720146 0.29142842 -0.44323498
-0.48729625 -0.09643673 -0.11389559 0.38335335 -0.21876307 -0.2123888 0.08675826 0.17817251
0.6012057 0.08243152 0.16610579 -0.15084672 0.08825211 -0.35819328 -0.6339591 -0.4547123
-0.48269734 -0.018984547 -0.41796017 -0.17182302 -0.37081352 0.5330352 -0.36677006 0.4434918
-0.5570773 0.1358716 -0.56366277 1.3139985 0.5393984 -0.46629226 -0.061600816 -0.5875375
00000000: 16a7 473e 20e9 f3bd 5123 18bf 33db e0be
00000010: a761 55bf 520a 81be 1d3d a63b c92d 8bbe
00000020: 4993 85be 940f 013f da54 d73c 644a 5e3f
00000030: fb32 82be ba39 00be 7098 3ebe 4fb0 313e
00000040: 3847 823f 098f 4cbf fca3 39bc d658 ccbe
00000050: f6bd e6be 329f 2dbf 608c f1be 0432 38bf
00000060: aa80 083e 81c0 b63d ce1e 9fbe 4768 93bf
00000070: 7932 a8bf 5705 993f b7d4 27bf c513 153e
00000080: 7ecc 1dbe 3853 7e3c fc59 a3be 27ba 8c3e
00000090: 8f71 443d c835 60bf a836 893e 0e0b b13e
000000a0: 2c74 ccbe 770c 68bf 3723 d0bd 1538 4ebf
000000b0: 60ed 14be 45ea 35be 3905 36bf 7bab 83bf
000000c0: daf7 64bd 58b2 65bf 8d39 a6bf d8a1 70bf
000000d0: 398e 98bf a607 adbc 31a8 6fbe bd51 1cbe
000000e0: 8afa a3be 4069 7bbe a0e2 e6be 66e8 3ebf
000000f0: 5cae 11bf 576f c3be e0e9 ecbe 9d04 50bf
00000100: 9960 d9be 4b86 c3be ffb9 47bf ce0e 0bbf
00000110: aee3 21bf a783 48be 79bb 59bd 2524 b73f
00000120: a569 d8bd 0ac3 50bb 13dc 42bd 4e0e 8e3d
00000130: e5b7 89bd 943d a0be 54a6 3a3d 7e72 033d
00000140: f20d d33e 771b 80be b951 c73d 0773 08be
00000150: d9bc e9be 5a30 54be 8ecf c3be 5f1f 15bf
00000160: 9b2f cbbe 9ad1 2d3f a2c4 01be 9752 ee3e
00000170: ce94 debc d03b 0bbe 39d1 813e 2a0e e43e
00000180: 22ee 9e3d cb81 72bd a75c eabe df25 07be
00000190: 3bae 0d3c e9c2 76be 5efd fdbe 9902 1bbf
000001a0: 1074 653d 951b 5d3e cb17 78be 5d23 ffbd
000001b0: dc0f 283e 0cd9 613f d18d 8dbd 9276 e73e
000001c0: 99db 72be fa4e 92be f3d1 3b3e f6a9 c2be
000001d0: 06f2 34be f86e ea3d e0fc 3fbe d79f 413e
000001e0: 1535 793e 0019 7abf 9569 8cbe f256 01bd
000001f0: 62c9 c2be efa9 59be 2743 18bf 3d86 bcbe
00000200: 7f52 6cbe 8e3b 20bf 5f42 a2bd b66d 913d
00000210: 2102 52bf e365 f4bc f09a 6c3e de12 c93e
00000220: d31b 083f d5e7 00be 0616 01bf a8e9 ac3e
00000230: 4688 dfbe d1b7 61be 9803 f4be 8786 08be
00000240: 65bd d23d c7c1 94bf 881c 53be 78db 8ebc
00000250: 7aff 72bf 0b76 2a3e 7bc7 cbbe 2b81 223d
00000260: 8006 84be 3de9 48bf 2569 07bf 806d f1bf
00000270: 6167 e5bd f872 1dbd 7621 dc3e 1780 92bd
00000280: 5e3e a73e de86 c1be 4c36 18bf e80b 9fbe
00000290: 2f49 b4be 97f7 e4be 1b36 953e b2ef e2be
000002a0: e57e f9be 9f80 c5bd 1742 e9bd e446 c43e
000002b0: 6d03 60be 737c 59be 51ae b13d db72 363e
000002c0: 9ee8 193f dbd1 a83d a317 2a3e 9077 1abe
000002d0: 86bd b43d 1c65 b7be 254b 22bf 0dd0 e8be
000002e0: 1b24 f7be 7b85 9bbc e0fe d5be 60f2 2fbe
000002f0: 45db bdbe ff74 083f 49c9 bbbe 5b11 e33e
00000300: 9e9c 0ebf ed21 0b3e 344c 10bf 1a31 a83f
00000310: 0316 0a3f dcbd eebe 2351 7cbd dc68 16bf

L5.bias f4 [10]
-0.8904447 0.30538127 1.8139709 0.12973605 -0.8944978 -0.7967513 -0.39279523 0.23364872
-1.1176116 -1.6437532
00000000: 2ff4 63bf ef5a 9c3e 3330 e83f 87d9 043e
00000010: cffd 64bf e5f7 4bbf 751c c9be 9c41 6f3e
00000020: e60d 8fbf 8166 d2bf

L6.weight f4 [1, 10]
-0.12826496 -0.19527137 -0.41957876 -0.14662299 0.09377352 0.088376954 0.050737552 -0.10941873
0.118406944 -0.12756494
00000000: e457 03be 38f5 47be 07d3 d6be 5624 16be
00000010: 550c c03d fafe b43d 2ed2 4f3d ed16 e0bd
00000020: 577f f23d 62a0 02be
