Saved_Models_All_Samples_Limited_Features/target_Hardness_features_5_epochs_13.pth (torch_old, 10514 bytes, 11 tensors)

L1.weight f4 [10, 5]
000000 bb 86 9c 3e 09 73 a0 be cd 81 69 3f a4 88 a6 3e
       0.3057154 -0.31337765 0.91213685 0.32526124
000010 1f ef 85 3e b8 76 1b be c8 89 6d bd 7b ee 4a 3f
       0.26158997 -0.15182006 -0.057992727 0.7927014
000020 d9 e8 8a 3f f2 c6 25 be 2e 87 e8 be eb 6d 8c 3d
       1.085231 -0.16189173 -0.45415634 0.06856903
000030 8e b6 40 be 96 ff 2c bf 37 85 c6 be f4 54 0b 3f
       -0.18819639 -0.67577493 -0.3877351 0.54426503
000040 b5 8f 06 be 14 09 73 3f 9b 0d 0d 3f 40 2d 44 3e
       -0.13140757 0.9493573 0.55098885 0.19157887
000050 6a 73 99 be a1 83 ff 3e df 28 65 bf 43 bd 6d 3f
       -0.29970866 0.49905112 -0.8951549 0.92866915
000060 c9 a2 9f 3e 98 d5 d8 3d 09 08 b0 3e c0 96 e9 3e
       0.31178883 0.10587615 0.3438113 0.45622826
000070 3b 6e e0 bc 7b 8a 01 bf 9d e9 55 be 4b f0 f3 3d
       -0.027396312 -0.5060193 -0.20889898 0.119110666
000080 d3 e8 65 bf 24 42 03 3f 04 21 cf 3e f4 56 53 bd
       -0.89808387 0.512728 0.40454876 -0.051596597
000090 a1 1d 9b bc 4b 03 b9 3d b0 7e 37 3e d8 ca 14 be
       -0.018935027 0.09033831 0.17919421 -0.14530504
0000a0 d4 83 fa 3c f6 cc d0 be 6d 8a 30 3f 6c c7 35 3f
       0.030580439 -0.40781373 0.6896122 0.7100742
0000b0 d2 af 30 3d 28 1e 79 3e 06 2e b7 bd b7 95 38 3f
       0.043136425 0.2432791 -0.08944325 0.72103447
0000c0 4b 5a 98 be 7f f7 19 bf
       -0.29756388 -0.60143274

L1.bias f4 [10]
000000 4b dc 12 3e f4 8f 52 be e3 b9 cb 3e b5 84 f7 3d
       0.14341848 -0.20562726 0.39790258 0.12085859
000010 e3 0b a5 be e5 39 05 bf f8 0b 24 be 22 95 b4 be
       -0.3223563 -0.52041465 -0.1602019 -0.3527003
000020 81 b6 1f bf 2e c4 32 bf
       -0.62387854 -0.69830596

L2.weight f4 [20, 10]
000000 c9 0e ce 3e 03 23 33 3f 6c 8c 6d bf 09 27 3c 3f
       0.40245655 0.699753 -0.9279239 0.7349706
000010 a4 b7 bf 3e 26 f3 ff 3d 52 ba 49 be 29 a0 95 3e
       0.37444794 0.12497549 -0.19699982 0.29223755
000020 82 12 a5 3e 52 30 ba be 57 90 c9 be e2 4f 05 bf
       0.32240683 -0.3636499 -0.39367935 -0.52075016
000030 13 5f 82 3b f4 69 0c bf 24 37 2a 3e 63 c8 2a 3a
       0.003978619 -0.5484917 0.16622597 0.00065148453
000040 51 87 24 be 56 cc 82 3e 58 55 99 3d 47 8c c6 3e
       -0.16067244 0.2554652 0.07486981 0.38778898
000050 d0 b2 60 be a3 18 93 bf d0 55 17 3e 16 d2 e5 be
       -0.21943212 -1.1491894 0.14778829 -0.44886845
000060 be 62 f8 3e fa a8 13 bf 88 cf 48 3e 45 5f b0 3d
       0.48512834 -0.5767971 0.19610417 0.08611921
000070 72 b1 ba bd 48 3a 13 3f c2 fc ff be c6 2d 9b bf
       -0.09115876 0.57510805 -0.49997526 -1.2123344
000080 a4 42 39 3e 9d 3e 15 bf 3a 2b 4b 3f f3 3e 94 be
       0.18091828 -0.58298665 0.79362833 -0.28954276
000090 65 8b e3 3e b1 92 85 be eb 42 0a bf 6a 9d 53 3e
       0.44442287 -0.2608848 -0.5400836 0.20665517
0000a0 fd 06 f5 be fa 94 c0 be 74 fa 0f 3e 80 0b 6a bf
       -0.47856894 -0.3761366 0.14060384 -0.914238
0000b0 4f 37 58 3f 35 17 b2 be f9 ea 02 3f a8 4c 34 bd
       0.84459394 -0.3478333 0.5113979 -0.044018418
0000c0 a6 7d b8 3d f0 cd 84 3c 3e a7 2d bf 05 22 81 bf
       0.090083405 0.01621148 -0.67833316 -1.0088507
0000d0 4a 49 ef 3e 59 fc 53 bf 66 eb 9d 3d bd 12 a0 3e
       0.46735603 -0.82806927 0.07710914 0.31264296
0000e0 4c 9a 9b 3e 1f b3 0a 3e 42 00 fa be 5e 74 4e 3c
       0.30391157 0.13544892 -0.48828322 0.012600986
0000f0 28 fa 32 be b1 b5 c1 be 1a 1e 35 3e 46 2c 9c bf
       -0.1747824 -0.37833932 0.17687264 -1.2201011
000100 bd 31 05 3f b8 48 f8 3e f1 cb 89 3e 8e b4 8f bd
       0.5202902 0.4849298 0.26913407 -0.0701686
000110 fe a4 bc be 61 a2 6d 3e 4e 7f 2b 3e 23 a9 da 3e
       -0.3684463 0.23206474 0.16747782 0.42707166
000120 e0 66 b6 bf ca 04 dc 3e 45 89 b6 bf e9 f9 9e 3d
       -1.4250145 0.42972404 -1.4260641 0.0776251
000130 76 51 4a bf 12 7b 09 3d f6 5e 9f 3e 44 b5 ad 3e
       -0.7903055 0.033564635 0.31127137 0.33927357
000140 4f 05 03 bf ca ed 92 3d 98 d0 96 3e 48 79 59 bf
       -0.51179975 0.07174261 0.2945602 -0.84950686
000150 46 89 62 3e 13 fe 0f 3f 47 e7 cd 3e 9c 06 34 bd
       0.22122678 0.5624706 0.40215513 -0.043951616
000160 cb ff 76 be 8d 5d 62 3f b8 5c f5 bd 2b bd 75 3e
       -0.24121015 0.88424 -0.11980575 0.23997943
000170 87 21 89 be 74 81 70 3c 56 97 f8 bd 40 a7 2c 3e
       -0.26783392 0.0146793015 -0.1213824 0.16860676
000180 01 74 90 be 1d 03 09 3e fc c3 dc be ce 43 79 bc
       -0.28213504 0.13380094 -0.43118274 -0.01521392
000190 6f 86 72 3c c5 2c e0 3e a0 11 a6 3d 45 5f e3 be
       0.014802559 0.43784156 0.081088305 -0.44408622
0001a0 f2 24 f1 3e 32 c4 3b 3e 80 90 13 3f 32 50 b1 bb
       0.470985 0.18336561 0.57642365 -0.0054111714
0001b0 51 95 11 bf 36 67 9c bd 96 e2 04 be b7 e2 86 be
       -0.56868464 -0.076368734 -0.1297706 -0.26344845
0001c0 92 4e 1d be 2e 83 a6 be c7 13 0d bf 25 a8 3a 3d
       -0.15362003 -0.32521957 -0.551083 0.04557051
0001d0 9d 84 5f be 7a 64 4f be 1e 38 77 3e e6 2e bd be
       -0.21827932 -0.20253173 0.24142501 -0.36949843
0001e0 f5 1e 0c bf 34 89 7d 3d d9 63 00 3e 45 0a ff be
       -0.54734737 0.061898425 0.12538089 -0.49812523
0001f0 dc cd 06 bc 46 e5 94 3e 23 94 de 3e 3b db c1 bd
       -0.008227792 0.29081172 0.43472394 -0.09465643
000200 8e 28 cd 3c 92 8d d1 3e 61 5f c0 3e 72 1f 07 3f
       0.025043752 0.40928322 0.37572768 0.52782357
000210 c0 74 93 bf b3 89 b5 3e 95 4e 9b bc 08 94 49 3c
       -1.1520004 0.3545662 -0.01895837 0.01230336
000220 14 88 f8 3c 54 1b a4 3e f0 ab 1b 3e 96 52 c9 3c
       0.030338325 0.320521 0.15202308 0.024575513
000230 46 9e 04 bf 70 11 25 be d5 8f ad bf 25 e5 f4 bd
       -0.51804006 -0.16119933 -1.3559519 -0.11957768
000240 98 8d 6f be 39 eb 73 3c 7b 89 0a bf 7f 5c 4d bd
       -0.23393857 0.014887624 -0.5411603 -0.05013704
000250 78 68 25 3f 35 db 3f bf 0a b9 9d 3e b9 8f 21 3c
       0.6461253 -0.7494386 0.30805236 0.009860926
000260 1e ba 57 bf 24 20 a8 3e 47 ef a4 bf 29 9a aa 3e
       -0.8426837 0.3283702 -1.2885522 0.3332074
000270 88 61 95 bf af 1f 0d bd 8c db 1f 3f 94 3f f5 3e
       -1.1670389 -0.034454044 0.62444377 0.4790007
000280 3a fd 74 bd e9 67 6a bf 7d 98 a1 bd 01 f2 39 bf
       -0.05981181 -0.91564804 -0.07890413 -0.72634894
000290 6b 33 24 3f d5 8c 76 3c b9 64 ad 3e a7 9b 63 3e
       0.6414096 0.015048225 0.33865908 0.22227345
0002a0 b6 3e 52 3e 43 d5 80 bc 3b 7a c5 3e f8 fb 24 3e
       0.20531735 -0.015726691 0.38569817 0.16111743
0002b0 ac 69 e2 be a4 31 39 3f 97 d4 d6 be d5 57 3c be
       -0.44221246 0.7234137 -0.41959068 -0.1839288
0002c0 c9 a5 0a bf 78 b2 b5 be 92 8c 78 3e c5 46 c0 be
       -0.5415922 -0.35487723 0.24272373 -0.37553993
0002d0 39 df f3 3d 15 f7 8a be d8 37 31 3d 1d 16 09 3e
       0.11907811 -0.27141634 0.043266147 0.13387342
0002e0 d2 ad c1 be 62 25 ed be f6 2e 83 be 96 4b 97 bc
       -0.37827927 -0.46317583 -0.25621766 -0.01846866
0002f0 41 8c 89 be 9f 09 8b bd 23 88 b2 be b4 a4 80 3d
       -0.26864818 -0.067889445 -0.3486949 0.06281415
000300 f1 c3 a3 bf 63 a5 7d bd 0a d8 25 bf b9 73 c5 be
       -1.2794172 -0.061925303 -0.64782774 -0.38564852
000310 e2 96 21 bf 13 fd a4 3e 48 73 f6 3d b6 0e 0b be
       -0.63120854 0.3222433 0.12033707 -0.1357983

L2.bias f4 [20]
000000 8c b7 9d be 9a 46 35 be 14 7a 07 3e 70 83 67 3d
       -0.30804098 -0.17702714 0.13230163 0.056521833
000010 b0 4f 52 3d 84 78 8e bb 0e 11 23 3d e2 ba 64 be
       0.051345527 -0.0043478627 0.039811186 -0.22336915
000020 2d 8f 12 3e d9 e3 05 be 3b 51 6b 3e 7e ec fe be
       0.1431243 -0.13075198 0.22980206 -0.49789804
000030 a4 7e 14 3e 25 6c 6f bd 56 0a 37 bf 00 25 94 be
       0.14501435 -0.058452744 -0.71500146 -0.2893448
000040 b9 0f ff bc ee 63 15 3e 1e 17 0d bf 93 86 82 be
       -0.031135427 0.14588901 -0.551134 -0.25493297

L3.weight f4 [40, 20]
000000 7e 70 65 bd 8f 2a 29 be 61 4f 6e bc 9a b9 98 be
       -0.056015484 -0.16520141 -0.014545293 -0.29829103
000010 d2 38 85 bd c3 8d 44 3e 96 e7 34 be f9 c3 ef bd
       -0.06504978 0.19194703 -0.17666468 -0.11707301
000020 40 b7 5e 3e c8 96 16 3d 92 ff 92 be 01 e7 80 3f
       0.21749592 0.03676489 -0.2871061 1.0070497
000030 ed af fe be ca 8c 50 3e 62 14 21 be d7 7a 90 be
       -0.49743596 0.20366207 -0.15730432 -0.2821872
000040 7a 75 08 bf 77 27 40 bf 17 ee 9f bc 62 17 c0 3e
       -0.53304255 -0.7506022 -0.01952271 0.3751784
000050 4c 31 4d bf df e4 e5 bd 18 5a 65 bd 3f 30 52 be
       -0.80153346 -0.11225294 -0.055994123 -0.20526217
000060 43 67 d1 bd 5e bf 06 3f 75 98 1d bf d5 99 c7 be
       -0.10224774 0.52635753 -0.61560756 -0.38984552
000070 91 f9 51 3e 2d 0b cb bd 7a 49 4e bd 52 1a 35 bd
       0.20505358 -0.09914241 -0.05036304 -0.044214554
000080 b6 f5 f5 be f0 5f db be 7e 0f 20 be 3b 04 48 bf
       -0.48039025 -0.42846632 -0.1563091 -0.78131455
000090 9b 6c 69 3d 77 59 b2 be b6 39 a6 3e 96 47 20 bf
       0.05698834 -0.3483388 0.32465905 -0.6260923
0000a0 ae 5b ce 3e 81 30 c1 be be 0a bc be 84 a6 0d 3e
       0.4030432 -0.37732318 -0.36726946 0.13833052
0000b0 00 3c 94 bd fd 51 25 be 41 75 a8 be 59 ef a3 3d
       -0.072380066 -0.16144557 -0.32901958 0.08004636
0000c0 93 49 ff be c6 ec 29 be d9 76 24 be 9c 0a 50 3e
       -0.4986082 -0.16594228 -0.16060962 0.20316547
0000d0 a8 be 2f be 36 ae b6 3e c0 a5 80 bd 5b 9f f1 3e
       -0.17162573 0.35679787 -0.06281614 0.4719189
0000e0 6c ab de bd f5 12 4a bf 1d 68 b8 bd 83 28 c0 bd
       -0.1087254 -0.78935176 -0.09004233 -0.09382727
0000f0 14 3b ee be d7 1f 55 be 21 6c 20 3e 6f f7 28 be
       -0.46529448 -0.20812927 0.15666248 -0.16500638
000100 a4 55 44 be 30 70 71 be 6c a8 b7 bd 79 65 de bd
       -0.19173294 -0.23577952 -0.08967671 -0.10859198
000110 3d cc 4d bd dd c0 2b 3e 17 40 c1 bc 28 a9 2b 3e
       -0.050243605 0.1677279 -0.02359013 0.16763747
000120 8b 8d 58 be fd 5a 33 bf f6 4b ca bc 8a 5e 57 be
       -0.21147744 -0.7006071 -0.024694424 -0.21032158
000130 20 f1 2d 3d 4c 1a 00 bf 5f af 57 be c2 fb 35 be
       0.042466283 -0.50040126 -0.21062993 -0.17771819
000140 3e f2 e4 be 57 70 bd be 7d 30 f2 bd c4 b5 60 bd
       -0.44716066 -0.3699977 -0.11825655 -0.054860845
000150 50 03 89 be b0 1e 26 bd c0 0f 74 be 19 1a 00 bf
       -0.2676034 -0.04055661 -0.23834133 -0.5003982
000160 a8 9b 04 bd 2b bb 13 be db ff 9b 3b 2a 67 41 be
       -0.032375008 -0.14426868 0.004760725 -0.1888701
000170 04 d5 91 3c 72 2d 41 be b4 a7 c2 bc 0f 00 49 be
       0.01780177 -0.18864992 -0.023761608 -0.19628929
000180 03 4e 99 3d ee d3 0c be 71 e2 b7 3c 3f 7b 5f bd
       0.07485583 -0.1375272 0.022446843 -0.054560896
000190 13 1c 62 bd ea 7c 6f be 4f b0 1a 3e 8a ba 77 bc
       -0.055202555 -0.23387495 0.15106319 -0.015120158
0001a0 a6 53 35 3c 33 52 c4 bd 02 81 be be 5e 9c 34 be
       0.011067307 -0.09585991 -0.372078 -0.17637774
0001b0 c6 fd f5 be f9 67 3b be ef 0a de be 5c 1c 93 3f
       -0.48045176 -0.18301381 -0.43367717 1.149303
0001c0 b7 d3 4b be 51 91 76 be a3 2e be bd 0b ea 9b 3e
       -0.19904982 -0.24078871 -0.09286239 0.30451998
0001d0 0d 7b 64 3d c0 58 d6 bd a0 41 16 3d 27 ff 21 be
       0.055781413 -0.104661465 0.03668368 -0.15819989
0001e0 1c 5d bf be 53 44 df 3d 11 08 6d bc 79 03 fc 3d
       -0.37375724 0.10901704 -0.014467255 0.1230535
0001f0 90 da 94 bd 0b f4 44 be 0c dc ee bd 4e 62 2f 3e
       -0.0726825 -0.1923372 -0.11663064 0.17127344
000200 33 0a 8f bd 38 00 f9 3d 97 de fc be 5b 4b c9 3e
       -0.06984367 0.12158245 -0.49388573 0.39315304
000210 20 02 35 3a 61 02 af be cc be e5 3e d2 e5 25 3e
       0.00069049187 -0.34181502 0.4487213 0.1620095
000220 8d c2 de be 10 54 16 bf 7a 31 0e 3f a6 cd 54 3e
       -0.43507805 -0.5872202 0.55544245 0.20781574
000230 14 da 87 be 8d 1c 05 3d f4 8b bb be 6e 08 dd bc
       -0.26533568 0.03249793 -0.36630213 -0.026981559
000240 0c cd 77 3c a7 e7 1a be af 79 a2 be 05 f0 e7 be
       0.015124571 -0.15127431 -0.31733462 -0.45300308
000250 b1 e1 08 bf da 08 0f 3e 65 41 02 be 3a 8e fe 3d
       -0.5346938 0.1396822 -0.12720259 0.12429471
000260 3f 5b 8e be 6b 68 05 be b4 79 35 3e 54 3f 4b 3b
       -0.2780399 -0.13028114 0.17722207 0.0031013088
000270 90 29 38 3e 92 d8 7d be 6d 46 26 3b 6c 55 99 be
       0.17984605 -0.24789646 0.0025371567 -0.29947984
000280 39 a1 16 bf 7a 89 35 be 50 fa 4c bf 65 59 95 be
       -0.58839756 -0.17728224 -0.80069447 -0.29169765
000290 b2 ff 4c 3e 92 11 35 be 0d 2e 44 be 8b 49 a0 bd
       0.20019415 -0.17682484 -0.19158192 -0.07826527
0002a0 6c c4 be be e9 b8 a7 3d ec 3c 5d be ae c0 0f be
       -0.37259233 0.08189566 -0.21605271 -0.14038345
0002b0 fb 5b 33 3d 59 5c 11 bf 4b 77 8b bc 9f 2a 0a be
       0.04378889 -0.56781536 -0.017024657 -0.13492821
0002c0 ae 79 8b be db bd db bd e0 95 b7 3e 6c 94 58 be
       -0.27241272 -0.107295714 0.35856533 -0.21150368
0002d0 76 bb b6 be 7c 3b 97 be 3d 52 51 be 18 1e d0 bb
       -0.35689896 -0.2953757 -0.20441528 -0.0063512437
0002e0 11 8a 4f 3e 10 d6 7d 3e 2c ce 60 3d c4 62 eb 3e
       0.20267512 0.2478869 0.05488412 0.4597379
0002f0 be 01 d9 be e7 39 cf 3d 84 ee 10 bf bc a4 7b 3e
       -0.42384142 0.10118466 -0.56613946 0.2457456
000300 3e 50 f7 be d7 c6 ce bd 36 85 6a bf b7 f0 eb be
       -0.48303407 -0.100965194 -0.91609514 -0.46082088
000310 b8 26 60 bd 6e 57 a5 be a8 8c e3 bd 9f 55 25 3d
       -0.054724425 -0.32293266 -0.111108124 0.040364858
000320 99 fb 95 3d a3 64 62 be 74 dd d0 3d c7 25 31 be
       0.07323379 -0.22108702 0.10198489 -0.17299567
000330 3a 99 52 be 0d ba c1 be f8 4c 4b bd db db 2f be
       -0.20566264 -0.37837258 -0.04963395 -0.17173712
000340 dc c3 93 3b 08 d9 87 bb b8 2d 95 bd 8b 00 91 3e
       0.0045094322 -0.004145745 -0.07284111 0.28320727
000350 f8 28 b9 3d 03 18 2f be c1 63 ab be ca 67 86 3d
       0.09041017 -0.17099003 -0.33474544 0.06562765
000360 34 b1 48 bd dd 7d b0 be b2 8d 7b bd ef 94 eb ba
       -0.04899712 -0.34471026 -0.061414428 -0.0017973463
000370 83 4b 33 bf c8 0b 10 be b3 d8 08 be d6 62 32 be
       -0.70037097 -0.14066994 -0.13363914 -0.17420515
000380 e6 e0 14 bf 24 52 9f be c3 44 97 be fb 84 ad be
       -0.5815567 -0.31117356 -0.2954465 -0.3389052
000390 f2 ac 5e bf 42 5a 0c 3e da 73 e4 3e 87 cf 74 3f
       -0.86982644 0.13706306 0.44619638 0.9562916
0003a0 43 df 7e be 72 5c f1 be 07 7c 58 be 8e f8 a8 be
       -0.24889855 -0.47140843 -0.21141063 -0.33002132
0003b0 4b 11 da 3e 6a ee 6c be b5 83 2f 3f b9 79 a3 3e
       0.42591318 -0.23137823 0.68560344 0.31928805
0003c0 a3 8a 00 bf 68 50 05 3e 3e 9d 35 3e 60 01 8e be
       -0.5021154 0.13018954 0.17735764 -0.27735424
0003d0 1a e4 01 bd df d0 03 be 96 47 09 3c d0 eb 97 3e
       -0.031711675 -0.12872647 0.008378884 0.29672098
0003e0 58 5c 77 3e 6c c3 3c 3e a3 d9 77 3d 23 be 46 3d
       0.2415632 0.18433923 0.06051029 0.048521172
0003f0 b4 00 b9 3e d9 e8 2a bf 70 04 92 be ed 6b 20 bf
       0.3613335 -0.6676155 -0.2851901 -0.6266468

L3.bias f4 [40]
000000 88 d1 3b bf 55 1f 8d 3c 28 57 53 bf 75 07 4f be
       -0.73366594 0.017226854 -0.82554865 -0.20217688
000010 2a 11 95 be 24 b0 91 bf d7 3f 66 bf 60 d8 b2 be
       -0.29114658 -1.1381879 -0.8994116 -0.34930706
000020 da 06 6a be 14 62 40 bf 1b 4f c0 be 3f 85 6f bf
       -0.22854176 -0.75149655 -0.37560353 -0.9356269
000030 ee d7 51 3e 46 13 bf 3c 18 5c 2b bd d2 0e 38 bf
       0.20492527 0.02332462 -0.041835874 -0.71897614
000040 04 98 31 3e 62 b6 17 be 07 a4 9d bd 8b 53 3f be
       0.17343146 -0.14815667 -0.07697301 -0.18684213
000050 26 fb db be 74 d0 0b bf e2 f8 68 bf 56 ea c6 be
       -0.4296505 -0.5461495 -0.91004765 -0.3885066
000060 b0 48 50 3e 1f 49 de 3c bf a1 b7 be 59 52 84 bf
       0.20340228 0.027134476 -0.3586559 -1.033763
000070 05 b7 42 3e 41 83 d2 be 44 57 90 3d fb 59 55 bf
       0.19015129 -0.41115764 0.070478946 -0.83340424
000080 7a 9f 0c be 97 a2 af 3d 0b 9d f7 bd e8 ff 06 bf
       -0.1373271 0.085759334 -0.120905004 -0.5273423
000090 55 1a 65 be af 2f 70 bf f5 25 d2 be 2d 1b 95 bd
       -0.22373326 -0.9382276 -0.41044584 -0.07280574

L4.weight f4 [20, 40]
000000 73 3a 05 3e 06 39 09 bf 43 d4 c1 bc 7b 6c c2 3c
       0.13010578 -0.53602636 -0.023660785 0.023733368
000010 72 18 7c 3e a6 4d 4e be f8 2f b8 3d 07 6c 2b be
       0.246187 -0.20146808 0.08993524 -0.16740428
000020 39 24 08 bd c9 53 8d 3e 99 3a 53 3e 6c b1 32 3f
       -0.03323767 0.27602986 0.20627822 0.69801974
000030 74 06 18 bf 7c 38 46 bf 1b 50 29 bf 44 4d 63 bd
       -0.59384847 -0.7742994 -0.66137856 -0.055493608
000040 6b 73 b7 3d 61 bb fd 3b 54 e6 37 be 5a d8 1c be
       0.08957561 0.0077432846 -0.17958957 -0.15316907
000050 ab 64 b1 3e 2e 7f e2 3c 7f eb 0f 3e fb 27 c0 bd
       0.34647116 0.027648535 0.14054678 -0.09382626
000060 56 66 26 bf b0 39 9c be 8c 75 b1 bd 31 bf ee be
       -0.649999 -0.30512762 -0.086649984 -0.46630242
000070 e3 19 9c bf c7 93 22 bd f3 6a 40 bf 4c 76 46 3e
       -1.21954 -0.039691713 -0.7516319 0.19381064
000080 1a 01 97 be 77 e7 8d be 3f df 70 be 9d 81 a8 be
       -0.29493028 -0.27715656 -0.23522662 -0.32911387
000090 26 62 cf 3d 1f 61 93 bd a4 b5 c9 3c 7e 4f 8e be
       0.10126142 -0.07196259 0.024622746 -0.27795023
0000a0 73 be 81 3e e7 60 14 bf 49 2e fd 3d c8 d2 ac be
       0.25340614 -0.5796036 0.12362344 -0.33754563
0000b0 2c 26 ab be 3d ff 8c be 32 8d de 3e f7 d3 0e 3e
       -0.3342756 -0.2753848 0.43467098 0.13948046
0000c0 d2 3c b7 3e 11 95 0d 3f 86 36 92 3d 2a 84 f0 be
       0.3578859 0.5530558 0.07139306 -0.46975833
0000d0 54 8d d2 3c 21 67 cc be f0 ef 85 3e 17 28 bf 3d
       0.025702156 -0.3992243 0.2615962 0.093338184
0000e0 f1 e9 22 3f b8 d0 41 bd 88 3c 51 bd fd b1 03 3f
       0.63638216 -0.04731819 -0.051083118 0.51443464
0000f0 18 3a a0 bb 11 22 50 3e 24 04 7c 3e 1a d6 68 3d
       -0.004889738 0.20325495 0.24610955 0.05684481
000100 03 2b 9a be 11 1f f9 3e 19 38 3a be 86 37 e1 3d
       -0.3011094 0.48656514 -0.18185462 0.109969184
000110 b1 f5 dd be 9d c0 00 3e 0a f5 4b bf f2 b8 13 be
       -0.4335151 0.12573476 -0.79670775 -0.1442602
000120 52 b2 92 bf 85 d2 ce 3e 7a b0 c3 bd a4 ad be bc
       -1.1460669 0.4039499 -0.095551446 -0.023276158
000130 0d 79 48 3e 1c af e2 3e a4 28 bc be aa e5 62 3e
       0.19577427 0.44274223 -0.36749756 0.22157922
000140 b7 84 25 be 00 6b d3 bb 65 3d 01 be 39 1d ef bd
       -0.16163908 -0.0064519644 -0.12621076 -0.11675496
000150 8b 59 52 bd 37 57 07 bd 1e 2b d1 bd f3 06 a5 3d
       -0.051354926 -0.03304216 -0.10213302 0.08057966
000160 ed be e5 3e 80 13 7a be 1b 4d ed 3d 66 28 4b 3f
       0.44872227 -0.24421501 0.11586972 0.7935852
000170 9e 77 0a 3e 93 24 9f bd 2b cb c4 3d 5e b4 6c 3d
       0.13522193 -0.07770648 0.09609064 0.0577892
000180 80 16 38 bf 6d 53 a5 bb f2 d7 45 3e c8 93 b2 3d
       -0.7190933 -0.0050453455 0.19320658 0.08719593
000190 d2 9c 64 be 68 4f 76 bd d5 95 84 be 34 3a b0 bd
       -0.22325447 -0.06013432 -0.25895563 -0.08604851
0001a0 4f 88 9b be 0f 9c 62 bf 8a 40 d4 bd ee 4d 86 3c
       -0.30377433 -0.88519377 -0.10363872 0.016394582
0001b0 2a 23 c9 be 20 5a 03 3d 0e e9 8b be 2a 2b 43 be
       -0.3928464 0.03206837 -0.27326244 -0.19059435
0001c0 3d a5 72 be 86 21 49 bf 70 00 b6 bd b6 b1 12 bf
       -0.23695846 -0.7856678 -0.08886802 -0.57302415
0001d0 28 b4 32 3e 7f 03 c5 bd bc fe 95 3e 3e 0c f0 3d
       0.17451537 -0.096198075 0.2929591 0.11721085
0001e0 82 bd 86 3e 58 71 03 bf 00 27 f2 3e cd d4 d3 be
       0.26316458 -0.51344824 0.4729538 -0.41373292
0001f0 55 8e 29 3d 97 19 e9 bd 3a c9 9f 3e a8 f7 2b bd
       0.041395504 -0.11381834 0.3120821 -0.04198423
000200 4f 9b f0 bd f7 9e 49 3c 73 da bd 3e 95 45 54 3c
       -0.11748373 0.012305967 0.37080726 0.012956043
000210 bf e2 24 bf 49 94 f6 be a4 31 d8 3e 35 96 89 3e
       -0.6440849 -0.48160008 0.42225373 0.2687241
000220 fa 8d 1c 3f 58 e4 28 bd 45 0f 0d bf 05 87 89 be
       0.6115414 -0.04123339 -0.55101424 -0.26860824
000230 cf 3a 3e 3d f8 3d fa bd 43 96 1f bf ab c0 92 3d
       0.046442803 -0.12218851 -0.62338656 0.07165655
000240 68 a6 72 bf 09 ec 9e 3e a4 9d 0b be 12 9b 30 be
       -0.94785166 0.31039456 -0.13634354 -0.17246655
000250 1d 35 17 bf 10 e4 74 bd dd 35 4e bf c6 bf b3 3c
       -0.5906542 -0.05978781 -0.8055094 0.02194203
000260 61 99 1b bf e0 d4 8b 3e 4f 98 e9 bd 83 dc ea 3d
       -0.6078091 0.27310848 -0.11406004 0.114678405
000270 8a 10 2e 3e 0f 54 85 bb 2f 07 18 3f 53 d4 8c bd
       0.16998497 -0.0040688585 0.5938596 -0.06876435
000280 88 df 01 3f 15 a2 ec 3d 5a ef b8 3d be 50 a0 39
       0.50731707 0.11554352 0.09030028 0.00030577736
000290 d2 0b 2c 3e 41 8f 79 bc 5a c4 fd 3e 9d 31 0b 3e
       0.16801384 -0.015231908 0.49563867 0.13593145
0002a0 53 b0 b0 3d ec 11 7c 3d f6 7b 3a 3e 18 03 bf 3e
       0.08627381 0.06154053 0.1821135 0.37307048
0002b0 ec f9 dd bc a4 50 5a bc 80 36 d6 bc 39 f2 96 be
       -0.027096711 -0.01332489 -0.026149035 -0.29481676
0002c0 dd 6c 45 3f e6 0a 9a bd ec 5c 07 bf 45 ef b8 bd
       0.7711924 -0.0752161 -0.5287616 -0.09030012
0002d0 57 a5 e8 3d 23 f2 31 be 74 63 c0 3e f5 3f 21 be
       0.11359661 -0.17377524 0.37575877 -0.15747054
0002e0 d2 d0 f8 bd c0 d9 86 be 0b 3a 81 3c 30 c4 10 3f
       -0.12149204 -0.26338005 0.015774747 0.5654936
0002f0 80 d4 c1 bc db 34 c3 3e 91 66 49 be e9 6f ab 3e
       -0.023660898 0.38126263 -0.19668032 0.33483818
000300 c3 e5 e3 3c c5 65 ee 3c 6f 5a 61 be 49 d7 c1 be
       0.02781952 0.029101262 -0.22007154 -0.37859562
000310 53 3c fe 3d 1e 7a b3 be a5 1a b2 bd 45 d4 c2 bd
       0.1241385 -0.35054106 -0.08696488 -0.095131435
000320 9f 65 d0 be 5c e4 88 3d da 91 81 3d aa b2 e6 3d
       -0.4070253 0.06684181 0.06326647 0.11264546
000330 7e ce 83 be 37 a8 96 be 8e 8a 47 3e 41 a4 ae 3e
       -0.2574348 -0.29425213 0.19486448 0.3410969
000340 34 3e 06 be 90 06 35 3e a5 7d 33 3e 46 84 1b bc
       -0.13109666 0.17678285 0.17528398 -0.009491986
000350 fe 17 2c be 99 35 3f be da c1 8c be d5 9e f0 bd
       -0.16806027 -0.1867279 -0.27491647 -0.11749045
000360 73 14 61 bf be 6c b2 3d 9b 1b b2 bd 60 00 29 be
       -0.8792183 0.08712147 -0.086966716 -0.1650405
000370 4e 99 42 3e 9d e0 25 3e 54 15 9c 3d 78 3f 98 3e
       0.19003794 0.16198964 0.076212555 0.29735923
000380 39 bf 9c 3c be 42 23 bf 7c 14 78 3d 9c c9 e5 be
       0.01913415 -0.63773715 0.06056641 -0.44880378
000390 0f 0f 68 bd 50 2d 9c bd 1e 12 07 be 69 01 95 bc
       -0.056654986 -0.0762583 -0.13190505 -0.018189149
0003a0 e1 4b 63 bb 3e 21 3d be bb 34 a7 bb 27 ec 4e be
       -0.0034682679 -0.18469712 -0.0051027215 -0.20207272
0003b0 57 21 93 3d a3 f8 42 bd d6 90 12 3e ad 5b 44 3e
       0.071840934 -0.0476004 0.14313063 0.19175597
0003c0 fb 7e e2 3e 1b c2 13 3e 11 8d 79 3d 58 f9 04 be
       0.44237503 0.14429514 0.060925547 -0.12985742
0003d0 31 81 2e be 16 ae 96 bd da da 8a 3c 72 4f 85 3d
       -0.1704147 -0.07357423 0.01695006 0.065092936
0003e0 a3 12 37 be 77 d3 83 3e e4 94 ec 3c b1 46 5a bc
       -0.17878203 0.25747272 0.02887959 -0.013322518
0003f0 9b b0 23 be 64 d3 d0 be 35 3b c8 bd d6 2e 36 bd
       -0.15985338 -0.40786278 -0.09776918 -0.04447826

L4.bias f4 [20]
000000 9f 2c 46 bf e5 fd 87 3e 91 9c c6 3e 42 a8 7d 3e
       -0.77411836 0.26560894 0.38791326 0.24771217
000010 2a 22 00 3e a7 fb 3d 3e db f2 d1 3e 35 41 46 3e
       0.12513033 0.18553029 0.41005597 0.19360812
000020 e2 0d 1d 3f 7a 26 89 bf de 79 f6 be c9 5a a9 bf
       0.6134931 -1.0714867 -0.48139852 -1.323083
000030 d6 cf 09 3e 60 ae b1 3e 53 a3 3e be 28 1e d0 be
       0.1345819 0.3470335 -0.18616991 -0.40648007
000040 51 6f 1d bf 75 e3 54 3e be ed 90 3c 70 de dc be
       -0.6149798 0.20789893 0.01769149 -0.43138456

L5.weight f4 [10, 20]
000000 f2 03 1c 3d 26 10 08 3c 64 7c a2 be 58 39 1b bd
       0.0380897 0.008304631 -0.31735528 -0.037896484
000010 9f 82 2a bf 41 e1 3f be 75 ef 03 bd bd 85 16 bf
       -0.6660556 -0.18738271 -0.032210786 -0.5879782
000020 17 18 2f 3c ca 19 e8 3e e1 ed b1 3e 91 7d 85 3f
       0.010686896 0.45332175 0.347518 1.0428945
000030 1c 1d 8f be 24 74 7a be 9f 7d 61 bd 12 9a e8 be
       -0.27951896 -0.24458367 -0.055051442 -0.45430046
000040 b1 a8 4f bd 2a 11 0c bf 3e a0 4b be 3e e7 aa be
       -0.050697986 -0.5471369 -0.19885346 -0.3337955
000050 50 cb 82 bf d6 ee 50 bf c7 7f 70 be e5 3e 22 bf
       -1.0218296 -0.81614435 -0.23486243 -0.6337722
000060 e4 e6 45 3e df 15 46 3e 4e 38 f0 be 50 7a 9d bf
       0.19326359 0.1934428 -0.46917957 -1.2302952
000070 d9 9c 52 bf ab e5 a9 3e 30 22 01 bf 1a 0c 02 bf
       -0.8227058 0.33183035 -0.5044279 -0.50799716
000080 05 2f 9c be b7 64 d8 3b 0d 60 dd bd 1e 13 6d 3e
       -0.30504623 0.006603803 -0.10809336 0.23151824
000090 b1 33 83 3c 21 6c 40 bf cf e1 58 be 6a c9 b6 be
       0.01601586 -0.7516499 -0.21179889 -0.35700542
0000a0 4a 10 b4 be cd 72 18 bf db a4 6b bd f3 d7 88 bf
       -0.35168678 -0.5955017 -0.057530265 -1.0690902
0000b0 cc 80 4e 3d 4c 3b 64 bd a5 92 f6 be 92 04 54 bf
       0.0504158 -0.055720612 -0.48158756 -0.82819474
0000c0 29 ef a1 3e 01 de a8 bf 15 6e 26 bf 4a ce 9e bf
       0.31627777 -1.319275 -0.6501172 -1.2406704
0000d0 53 e7 29 bf df 3e d8 3d 8b d5 74 3d 47 aa 0d be
       -0.663686 0.10558867 0.059773963 -0.13834487
0000e0 63 99 49 be b7 64 9c 3c c0 9c 05 be fc 75 07 bf
       -0.19687419 0.019090993 -0.13048077 -0.52914405
0000f0 28 8a 90 bf d3 7b a2 be 1e 5d d4 be bd d4 31 bf
       -1.1292162 -0.31735095 -0.41477293 -0.6946524
000100 9c bd ac bd 9e fd 59 be 6f b5 78 bf 19 35 3a bf
       -0.084346026 -0.21288154 -0.97151846 -0.7273727
000110 c4 91 00 bf b7 d2 38 bf d9 3b 7d be 96 1b 22 3f
       -0.5022242 -0.72196525 -0.24729861 0.6332334
000120 a0 9b 1d bf 9f c0 b5 3b 54 b9 c9 3d 25 d3 0b bb
       -0.6156559 0.005546644 0.09849802 -0.0021335569
000130 c6 fa 92 be 7f 0e 2c bd 98 2b 3d 3d dc 59 5b bf
       -0.2870695 -0.042006012 0.046184152 -0.8568399
000140 3e f6 ce 3e b8 3f 39 be 7f e2 3b be 4f d3 9a be
       0.40422243 -0.18090713 -0.1834812 -0.3023934
000150 4b 37 c8 3b 79 d3 3d 3d 93 33 3a bf 9b 94 5a be
       0.006110107 0.046344254 -0.72734946 -0.21345751
000160 d4 b2 5d be 4d c6 27 3e 76 a8 2d 3e b8 84 29 3f
       -0.21650249 0.1638424 0.16958794 0.6621814
000170 d9 05 3b 3e 68 97 64 be 47 8c a8 bd 66 91 9f bc
       0.1826395 -0.22323382 -0.08229881 -0.019478511
000180 5b b7 53 bd c5 05 a4 bd ae 00 2a be 25 d7 00 be
       -0.051688533 -0.08008913 -0.16601822 -0.12582071
000190 26 36 9a 3e 77 cb 90 be 8b 67 c0 be 96 6c fb be
       0.30119437 -0.2828023 -0.37578997 -0.49106282
0001a0 fa 80 3b bd a7 0b 84 3c 89 00 b9 be a1 02 13 3b
       -0.0457773 0.016118838 -0.3613322 0.0022431987
0001b0 0b 1b 2c be 71 6d 0b 3f bd d7 3b 3e 15 4b 71 3c
       -0.16807191 0.5446387 0.18344016 0.014727374
0001c0 e7 49 8b be 2e 5f 6a be 9a a0 89 3d ea 4c 01 3e
       -0.2720482 -0.2288787 0.067200854 0.12626997
0001d0 9b 41 3f bd 88 05 da bd 4b be 32 bd 73 37 21 3c
       -0.046693426 -0.10645586 -0.04363851 0.00983988
0001e0 a9 cd 33 be ee df b0 bf f7 16 d1 be 45 c8 2d bf
       -0.17558922 -1.3818338 -0.40837833 -0.6788371
0001f0 d5 d8 aa be 5c 25 a2 bd 0a 41 b2 be 2b 31 0d bf
       -0.33368555 -0.07917282 -0.34815246 -0.5515315
000200 1c 87 a1 3d 49 25 a4 bf 50 ab 17 bb b6 ec 40 be
       0.07887098 -1.2823879 -0.0023142882 -0.18840298
000210 c2 99 58 bf e4 de fc bd d5 ac 1a 3d 2a f9 16 3e
       -0.84609616 -0.123472005 0.03776248 0.14743486
000220 2d b1 cd be e2 23 47 bd dd e8 7f 3d fc 98 1e 3e
       -0.40174237 -0.048618205 0.062477935 0.15488046
000230 c5 f2 40 3d 13 95 5c 3e 08 a4 8b be 09 ba a5 3d
       0.047106523 0.21541242 -0.27273583 0.08092124
000240 4e ba 4b be 06 6e 26 bf 3c b1 11 3e a8 98 8e 3e
       -0.19895288 -0.6501163 0.14227766 0.27850842
000250 4f 7f 28 bf 4e 08 35 3e ca dc 84 be b4 d3 09 bf
       -0.6581926 0.17678949 -0.259497 -0.5383866
000260 1f c2 4a bd 4b fd 2d bf 74 89 87 be 8a cf df bf
       -0.049501535 -0.6796462 -0.26472056 -1.7485211
000270 ea f0 88 bd 84 3c 95 3d 16 9d a9 bc 3f 21 28 be
       -0.06686576 0.07286933 -0.020704787 -0.16418932
000280 54 9e 09 3f 63 35 5e bf e3 96 9b be ad 2f e5 be
       0.53757215 -0.8680021 -0.30388555 -0.44762936
000290 66 33 6b be 65 f5 96 be c0 34 0c 3d df 18 ba be
       -0.22968826 -0.29484096 0.034229994 -0.363471
0002a0 b8 73 0c be c3 e6 90 be f2 9d 69 be f7 9a dd 3e
       -0.13716018 -0.28301057 -0.22814158 0.4328229
0002b0 4b 35 78 be a3 b5 c4 be d1 e9 db be 1a 48 fc 3c
       -0.2423908 -0.38419828 -0.42951825 0.0307961
0002c0 1b 80 8d 3e 1f f6 0d 3e 3c f2 e1 3e 13 72 37 be
       0.276368 0.13863419 0.44130123 -0.1791461
0002d0 c6 52 9b 3f b8 7b 59 be b1 00 31 be 60 8f dd be
       1.2134635 -0.21238601 -0.1728542 -0.4327345
0002e0 0a f5 ed bd 57 9c 72 3b db 98 3b be 88 38 12 bf
       -0.11619003 0.0037019455 -0.18320028 -0.5711751
0002f0 bf 61 e3 3d c7 d2 1f 3f fb 8a 83 bd dc dd d8 3e
       0.11102628 0.62430996 -0.06422993 0.42356765
000300 01 70 1f be da 41 6e bc b3 9e 74 be e3 14 1c 3f
       -0.1557007 -0.014542067 -0.23888664 0.6096937
000310 f1 04 f0 3e 4b 6b 93 be 67 f3 51 3f 04 a4 a5 bd
       0.4687877 -0.28792796 0.8201203 -0.08087924

L5.bias f4 [10]
000000 aa bb b8 be 2f a4 bb 3e 2a c7 d0 3f 32 2f 18 3f
       -0.36080676 0.366487 1.631078 0.59447014
000010 88 f7 dd be a0 a9 51 be 68 36 18 3f 24 41 2c 3f
       -0.43352914 -0.20474863 0.5945802 0.67286897
000020 3e ed 47 bf 73 75 50 bf
       -0.7809638 -0.81429213

L6.weight f4 [1, 10]
000000 e0 c0 db 3c 37 7b 54 be 90 02 9b be c4 28 37 be
       0.026825368 -0.20750128 -0.30275393 -0.17886645
000010 4f af 91 3d c1 65 1a 3e 22 39 08 be 10 d7 68 3d
       0.071135156 0.15077879 -0.13303044 0.056845725
000020 74 19 80 b9 c0 41 65 b9
       -0.00024433027 -0.00021863636
