Saved_Models_All_Samples_Limited_Features/target_Hardness_features_5_epochs_32.pth (torch_old, 10514 bytes, 11 tensors)

L1.weight f4 [10, 5]
0	0x3f02f8a3	0.5116064
1	0xbf049ec7	-0.51804775
2	0x3f9f670f	1.2453326
3	0x3f31dba4	0.6947577
4	0x3f03cb7d	0.51482373
5	0xbd590535	-0.05298348
6	0xbf4a3b7b	-0.7899701
7	0x3f95630a	1.1670849
8	0x3fab3327	1.3374985
9	0xbed09506	-0.40738696
10	0xbf77eb18	-0.968431
11	0x3d9b13a7	0.07572108
12	0xbcfe5b86	-0.031049501
13	0xbef7c47e	-0.483921
14	0xbf11057e	-0.56649005
15	0x3f7ff482	0.99982464
16	0x3e721578	0.23641002
17	0x3fdc32fc	1.7203059
18	0x3eda3932	0.42621762
19	0x3f19bf31	0.6005736
20	0xbe8ffc99	-0.28122404
21	0xbe013cbb	-0.12620823
22	0xbf864665	-1.0490233
23	0x3f38de3e	0.72214115
24	0xbe5c5059	-0.21515025
25	0xbe4a89cd	-0.1977913
26	0x3c9680a8	0.018371895
27	0x3f6b99d1	0.9203158
28	0xbe6d7f27	-0.23193036
29	0xbf217d86	-0.6308216
30	0xbecc4b2b	-0.399011
31	0x3e79b538	0.24385536
32	0xbf779616	-0.9671339
33	0x3f69f061	0.91382414
34	0x3e10ee92	0.14153507
35	0xbe756baf	-0.2396686
36	0xbd89ddbe	-0.06731747
37	0xbd81c5f2	-0.06336583
38	0x3e8d394f	0.27582785
39	0xbe126578	-0.1429652
40	0xbe856a99	-0.2605789
41	0xbeedca6c	-0.46443498
42	0x3fb475b7	1.4098424
43	0x3f826a63	1.0188717
44	0xbeb22646	-0.34794825
45	0x3ea5ffc2	0.3242169
46	0xbee44a9a	-0.44588166
47	0x3fa97eca	1.3241818
48	0xbf04e1e8	-0.51907206
49	0xbf1dc0bd	-0.6162222

L1.bias f4 [10]
0	0x3e7b7085	0.24554642
1	0x3d40a6dd	0.047034133
2	0x3ec61865	0.38690487
3	0x3e594191	0.21216418
4	0xbf829fbd	-1.0204998
5	0xbf47be1d	-0.78024465
6	0xbf06fa9e	-0.5272616
7	0xbf87ed58	-1.0619307
8	0xbf449c7c	-0.76801276
9	0xbfad0ecd	-1.3520142

L2.weight f4 [20, 10]
0	0x3f250735	0.6446412
1	0x3f29afc6	0.66283834
2	0xbfaf9b3b	-1.3719248
3	0x3f2f7762	0.6854154
4	0xbe376269	-0.17908634
5	0x3e320d5e	0.17387912
6	0xbe7913ee	-0.24324009
7	0x3cd7a112	0.026321921
8	0x3f46f472	0.77716744
9	0xbf0cec50	-0.55048084
10	0x3e89d1b7	0.26917812
11	0xbfd43400	-1.6578369
12	0x3e71fd05	0.23631676
13	0xbf8afa97	-1.0857724
14	0xbe15a398	-0.14613187
15	0x3f4f420a	0.8096014
16	0xbec7f162	-0.39051348
17	0x3e07de4c	0.13268393
18	0xbf598622	-0.84970295
19	0x3f862865	1.0481077
20	0xbea589b8	-0.32331634
21	0xc001804d	-2.0234559
22	0x3ec4c293	0.38429698
23	0xbf3d0ce8	-0.7384782
24	0x3e81975a	0.25310785
25	0x3ef1b2eb	0.47206816
26	0x3e2faa70	0.1715486
27	0x3ed8dc20	0.42355442
28	0xbe8f54f3	-0.279945
29	0x3fb8a7bc	1.4426188
30	0xbedf7a80	-0.43648148
31	0xbfcb4ace	-1.5882204
32	0x3eb9409d	0.3618211
33	0xbf7844fa	-0.9698025
34	0x3e99b4bd	0.30020705
35	0x3e800deb	0.2501062
36	0x3f909e59	1.1298324
37	0xbf215eb0	-0.63035107
38	0xbf6234ca	-0.883618
39	0x3f24c895	0.64368564
40	0xbf02aa1d	-0.5104082
41	0xbfbbbaad	-1.4666344
42	0xbf009197	-0.5022215
43	0xbfbf3705	-1.4938666
44	0x3f69fb09	0.91398674
45	0xbed4fe67	-0.41600344
46	0x3f293628	0.6609826
47	0xbefcf0c5	-0.49402443
48	0xbff4d272	-1.9126723
49	0x3d713ced	0.058895994
50	0xbf4ba969	-0.79555374
51	0xbfbe91b7	-1.4888219
52	0x3eb60af3	0.3555523
53	0xbfcfaafd	-1.6224056
54	0x3c3a5e61	0.011375041
55	0x3f137b74	0.5761025
56	0x3f0c81a5	0.5488532
57	0x3e94b0c7	0.2904112
58	0xbf800bcb	-1.0003599
59	0x3f071754	0.5276997
60	0xbe839d2a	-0.25705844
61	0xbeeebe6a	-0.4662965
62	0x3f0f9f47	0.5610241
63	0xbfcc3dd4	-1.5956368
64	0x3f293252	0.6609241
65	0x3f399bb6	0.7250322
66	0x3f21cb71	0.6320105
67	0xbece5e8d	-0.40306512
68	0xbfe661f5	-1.7998644
69	0x3e9c8d2b	0.30576453
70	0xbd5d8ab2	-0.05408735
71	0x3f0efc7e	0.5585402
72	0xbffa272a	-1.9543202
73	0x3e3a49d6	0.18192229
74	0xbf55e870	-0.83557796
75	0xbdc1f2c5	-0.09470133
76	0xbf26c573	-0.65145034
77	0x3cb98fa8	0.022651508
78	0x3f148307	0.5801243
79	0xbe7f687c	-0.24942201
80	0xbf40fe4a	-0.75388014
81	0x3f1569c6	0.5836452
82	0x3e970dec	0.2950281
83	0xbf09c307	-0.53813213
84	0xbe0935d9	-0.13399448
85	0x3e08422c	0.13306493
86	0xbd685a4d	-0.056726743
87	0x3d0a201c	0.033722028
88	0xbf9262e5	-1.143643
89	0x3f38bed8	0.72166204
90	0xbeabfb16	-0.3359
91	0x3ef407bf	0.4766216
92	0xbec5a556	-0.38602704
93	0xbea0f1ef	-0.3143458
94	0x3eb91663	0.36149892
95	0xbdf57bb1	-0.11986483
96	0xbf029eff	-0.5102386
97	0x3e4edce9	0.20201458
98	0xbfc161be	-1.5107954
99	0x3da473b4	0.08029881
100	0xbf21f729	-0.6326776
101	0x3eeee171	0.46656373
102	0x3d255ac5	0.040369768
103	0xbf84e3ca	-1.0382016
104	0xbdf7833e	-0.12085579
105	0x3f044b09	0.51676995
106	0x3f33f0e4	0.70289445
107	0x3e8e4126	0.2778408
108	0xbef1dd71	-0.4723926
109	0x3ec78f03	0.38976297
110	0xbf427297	-0.759561
111	0xbf5446a1	-0.8292027
112	0x3d4a6996	0.0494171
113	0xbf5d580a	-0.8646246
114	0xbc2e6a71	-0.010645495
115	0xbe18b421	-0.14912464
116	0x3d9b1b62	0.07573582
117	0xbe24ceaf	-0.16094469
118	0xbf46c9f3	-0.776519
119	0xbef1af12	-0.4720388
120	0xbfa23102	-1.2671206
121	0x3ec255bc	0.37956035
122	0x3ebcaf9e	0.36852735
123	0xbf6eed77	-0.9333109
124	0xbda92d4c	-0.08260593
125	0x3f0e9bd3	0.5570652
126	0x3f2b72d1	0.6697207
127	0xbe412985	-0.18863495
128	0xbb97e38f	-0.0046352814
129	0x3f4fa039	0.81103855
130	0x3ea571a7	0.32313272
131	0x3f18c42c	0.59674335
132	0xbfc5233c	-1.5401378
133	0x3deac56b	0.11463436
134	0xbe90f270	-0.28309965
135	0x3dc58877	0.09645169
136	0xbe99a411	-0.30007985
137	0x3efd90ff	0.49524686
138	0x3f8f72be	1.1206892
139	0xbd8385a4	-0.06421974
140	0xbed1072e	-0.4082579
141	0xbe091b3f	-0.133893
142	0xbfdfe7f4	-1.7492661
143	0x3ab2da5c	0.0013645398
144	0xbf0fed3f	-0.56221384
145	0xbc4393bf	-0.011937081
146	0xbf0d6ce7	-0.55244297
147	0x3dd000ad	0.10156379
148	0x3f2ebc69	0.6825624
149	0xbf8159ea	-1.0105565
150	0x3efa2334	0.48854983
151	0x3e8a9513	0.2706686
152	0xbfd62b15	-1.6731898
153	0x3ea53ec2	0.32274443
154	0xbf8c0a50	-1.0940647
155	0x3e0e3e89	0.13891043
156	0xbf51af40	-0.81908035
157	0xbe0bb812	-0.13644436
158	0x3f811e3a	1.008735
159	0xbee9abb5	-0.45638815
160	0xbe87b32a	-0.2650388
161	0xbf5f30e3	-0.8718397
162	0xbe290bb7	-0.16508375
163	0xbf3f3310	-0.7468729
164	0x3eaebad8	0.34126925
165	0xbc537dad	-0.012908381
166	0x3eb5858d	0.35453454
167	0x3eb6db33	0.3571411
168	0x3ec6315b	0.3870953
169	0xbe1154cc	-0.14192504
170	0x3eaacdba	0.33360082
171	0x3f25e7c1	0.64806753
172	0xbf039131	-0.5139342
173	0x3f476858	0.7789359
174	0xbf0edfe7	-0.558104
175	0xbda24fe3	-0.079253934
176	0xbf81afa4	-1.0131726
177	0xbec59007	-0.38586447
178	0x3fac6935	1.3469607
179	0xbf30a255	-0.689977
180	0xbeda6d07	-0.42661306
181	0xbe8a4972	-0.2700916
182	0x3ebddf4b	0.37084422
183	0xbf2c6774	-0.67345357
184	0xbeaf63fc	-0.3425597
185	0xbba77e01	-0.0051114564
186	0xbd8356c1	-0.06413031
187	0x3c9a7aee	0.018857446
188	0xbf36c96c	-0.71401095
189	0x3ec1bfb6	0.37841576
190	0xbf2a314a	-0.6648146
191	0x3dda9ea4	0.106747895
192	0xbff34ab3	-1.9007171
193	0xbe6530e2	-0.22381929
194	0xbfb4e67b	-1.4132837
195	0xbf2c3a18	-0.67276144
196	0xbfb839f2	-1.4392684
197	0x3e1a4293	0.15064459
198	0x3ea61132	0.32434994
199	0xbf26289b	-0.6490571

L2.bias f4 [20]
0	0xbecb20d4	-0.39673483
1	0xbeb4a319	-0.35280684
2	0xbec403b7	-0.38284084
3	0x3e43b22a	0.19110933
4	0x3d42347e	0.04741334
5	0x3e1096d2	0.14120033
6	0x3e037e7d	0.1284122
7	0xbed5d7ec	-0.41766298
8	0x3db8ef08	0.090299666
9	0xbe6a9a17	-0.22910343
10	0xbe8f1ad5	-0.2795016
11	0xbf21578a	-0.630242
12	0x3e0e897e	0.13919637
13	0xbee8f213	-0.45497188
14	0xbf17273a	-0.5904423
15	0x3e20d034	0.15704423
16	0xbebd6553	-0.36991367
17	0x3b35d1c2	0.0027743434
18	0xbefdb225	-0.49549976
19	0xbe8384b6	-0.25687188

L3.weight f4 [40, 20]
0	0x3e56142b	0.20906131
1	0x3ed789c1	0.42097285
2	0xbd9f0b7f	-0.077658646
3	0xbf0d8a1b	-0.5528886
4	0x3d3b8824	0.04578413
5	0x3ea64b3e	0.3247928
6	0x3dd85e13	0.10564818
7	0xbeec606c	-0.46167314
8	0x3e1bf472	0.15229967
9	0xbdc81c46	-0.09771018
10	0xbf011c5d	-0.50433904
11	0x3fb4aa22	1.411442
12	0xbf4c77d0	-0.7987032
13	0xbce575b1	-0.028010221
14	0xbec5fc07	-0.38668844
15	0xbf165d0e	-0.5873574
16	0xbe83bbbf	-0.25729176
17	0xbf281f3b	-0.65672654
18	0x3f84a679	1.0363303
19	0x3f24e7f5	0.6441644
20	0xbf155e79	-0.5834728
21	0xbe2cd46a	-0.16877905
22	0xbe9635df	-0.29337975
23	0xbef72709	-0.4827197
24	0xbf03dcf8	-0.51509047
25	0x3d75578d	0.059897948
26	0xbf21e100	-0.6323395
27	0xbe8f668d	-0.28007928
28	0xbf1b9acb	-0.6078307
29	0x3e619071	0.22027756
30	0xbf0cb05c	-0.54956603
31	0xbe6bc064	-0.2302261
32	0xbea641f4	-0.32472193
33	0xbdcec6ae	-0.10096489
34	0x3dee20e4	0.11627367
35	0xbf00aff7	-0.502685
36	0x3dfd2705	0.12360958
37	0xbe9b3ce6	-0.303199
38	0x3ea520a8	0.32251477
39	0x3d43bbe1	0.047786597
40	0x3f1b169a	0.6058136
41	0xbf58fb3c	-0.84758353
42	0xbf3b2094	-0.73096585
43	0xbe609f2e	-0.21935722
44	0xbf35cef3	-0.71018904
45	0xbf4028ad	-0.75062066
46	0xbf0f165b	-0.55893487
47	0x3e39abf2	0.18131998
48	0x3e7c4cb7	0.2463864
49	0xbe1b9135	-0.15192111
50	0xbcc746e6	-0.0243258
51	0xbf0ab2c0	-0.54179
52	0xbf302b63	-0.688162
53	0x3f01642d	0.5054348
54	0x3e1fddf1	0.15612008
55	0x3efb76f1	0.49114183
56	0xbe95e2c1	-0.29274562
57	0xbfbea984	-1.4895482
58	0xbf1997ec	-0.5999744
59	0x3cc262ea	0.023728807
60	0xbf061dd3	-0.5238926
61	0xbe12411d	-0.14282651
62	0x3d913373	0.07089891
63	0xbd90f39f	-0.07077717
64	0x3b8caa3d	0.004292755
65	0xbe04307c	-0.1290912
66	0xbe127a96	-0.14304575
67	0xbda3eb98	-0.0800392
68	0xbeb31fe6	-0.34985274
69	0xbe3868cc	-0.18008727
70	0xbd8710bc	-0.06594989
71	0x3ed264cb	0.41092524
72	0xb906fd03	-0.0001287349
73	0xbf29ebb5	-0.66375285
74	0x3ec648d5	0.3872744
75	0xbe633ad5	-0.22190411
76	0xbe11f3fc	-0.14253229
77	0xbf139ef7	-0.57664436
78	0x3d0b08fe	0.033944122
79	0xbdac872e	-0.08424221
80	0xbe9fa4d5	-0.31180444
81	0xbecfd047	-0.4058859
82	0xbea6bc0a	-0.32565337
83	0xbecec6ef	-0.4038615
84	0xbe0ee0a5	-0.13952883
85	0xbe8633c9	-0.26211384
86	0xbeac46a0	-0.33647633
87	0xbf4556e1	-0.7708569
88	0xbe5fd6b1	-0.21859242
89	0xbee5ab44	-0.44857228
90	0xbdfc5e81	-0.12322713
91	0xbe53c5bd	-0.206809
92	0xbd312454	-0.043247536
93	0xbe04e3e6	-0.12977561
94	0x3eeb614e	0.45972675
95	0xbe0d5eee	-0.13805744
96	0x3b9abe71	0.0047224094
97	0xbdffbb21	-0.12486864
98	0x3cb7bdb8	0.022429332
99	0xbe8bb907	-0.27289602
100	0xbe058a2e	-0.13040993
101	0xbe000352	-0.12501267
102	0xbe1fdde6	-0.15611991
103	0xbe425e9b	-0.18981402
104	0x3e791705	0.24325188
105	0xbc3cb73a	-0.011518294
106	0xbde7f611	-0.1132623
107	0xbe7f2670	-0.24917006
108	0xbf13e85e	-0.5777644
109	0xbe7dc70b	-0.2478296
110	0xbe50f0c1	-0.2040434
111	0x3f8c43b4	1.0958161
112	0xbd9f31e3	-0.07773187
113	0xbe74ab98	-0.23893583
114	0xbdc830ad	-0.09774909
115	0x3e0acb8a	0.13554206
116	0x3ea65791	0.32488683
117	0xbdb4b3b0	-0.08823335
118	0x3dc8fb57	0.09813564
119	0xbd73540a	-0.059406318
120	0xbeb23b5e	-0.3481092
121	0xbea33944	-0.31879628
122	0xbd1c7ca1	-0.038204793
123	0xbd2a497c	-0.041573986
124	0xbec6580d	-0.38739052
125	0xbe115336	-0.14191899
126	0xbdc3110e	-0.09524737
127	0x3ccbecdd	0.024893219
128	0xbcac37f5	-0.021022776
129	0x3ee52561	0.4475508
130	0xbf1515b1	-0.58236223
131	0x3f2070e3	0.6267225
132	0xbed45313	-0.4146963
133	0xbeabaf11	-0.33532003
134	0x3ef46a6d	0.47737446
135	0x3e416caf	0.18889116
136	0xbf28873c	-0.6583135
137	0xbf0ce64e	-0.5503892
138	0x3f17f60b	0.59359807
139	0x3edc2bf5	0.43002287
140	0xbf1a43ad	-0.60259515
141	0xbc8aa565	-0.01692457
142	0xbeadfd86	-0.33982486
143	0xbe5903c6	-0.21192846
144	0x3ed64e6b	0.41856703
145	0xbdd0b114	-0.10190025
146	0xbdaaed49	-0.0834604
147	0xbf921941	-1.1413957
148	0xbe826921	-0.25470832
149	0xbe2e729a	-0.17035905
150	0xbee9cad6	-0.45662564
151	0x3e5ec54c	0.2175495
152	0xbcf05d07	-0.029341234
153	0xbdf6cc69	-0.12050707
154	0x3f151f32	0.58250725
155	0x3f01a9e0	0.50649834
156	0x3e3e564e	0.1858761
157	0x3d29df46	0.041472696
158	0x3e0faf81	0.14031793
159	0xbeb40b35	-0.351648
160	0xbe1d985d	-0.15390153
161	0xbeafce99	-0.3433731
162	0xbf779193	-0.96706504
163	0xbf0e1062	-0.5549375
164	0xbf0c943b	-0.5491368
165	0xbe2cba50	-0.16867948
166	0xbe9586b2	-0.29204327
167	0xbdbcd617	-0.09220522
168	0xbeaf960e	-0.3429417
169	0xbe73a2c8	-0.23792565
170	0xbdc5b7fa	-0.09654231
171	0xbf9c9a98	-1.2234678
172	0x3d579341	0.052630667
173	0x3f00cd48	0.50313234
174	0xbcedeb4b	-0.02904286
175	0x3f84da6d	1.0379158
176	0xbeac9349	-0.3370612
177	0xbe1921aa	-0.14954248
178	0x3de095ca	0.1096607
179	0xbf21cfe6	-0.6320785
180	0xbd5552f3	-0.05208106
181	0xbf8d4f95	-1.1039912
182	0xbfa2977e	-1.2702482
183	0xbf8b7aac	-1.0896811
184	0xbeb48d56	-0.3526408
185	0xbed3d362	-0.4137221
186	0xbf4dcd71	-0.80391604
187	0x3f788b80	0.9708786
188	0xbde16446	-0.11005454
189	0xbe245394	-0.16047508
190	0xbf1a18f2	-0.60194314
191	0x3e330090	0.17480683
192	0xbf81df34	-1.0146241
193	0x3eea638f	0.45779082
194	0xbf828664	-1.0197263
195	0xbf805aa1	-1.0027658
196	0xbf1543ab	-0.5830638
197	0xbf08118a	-0.5315176
198	0xbea62a0c	-0.32453954
199	0xbec61230	-0.3868575
200	0x3df40fad	0.119170524
201	0xbf8497f0	-1.0358868
202	0xbf14f978	-0.5819316
203	0xbf3a3e3a	-0.727512
204	0xbf1d1c73	-0.61371535
205	0xbf6904b3	-0.91022795
206	0xbf3633e5	-0.71172935
207	0xbe414384	-0.18873411
208	0x3ee0019b	0.43751225
209	0xbaecc5ff	-0.0018064379
210	0xbebd0b68	-0.36922765
211	0xbe8abf29	-0.2709897
212	0x3ddbf7c2	0.107406154
213	0xbf13dc4d	-0.5775803
214	0x3e3c45fb	0.1838607
215	0x3e2edd13	0.1707652
216	0xbf58290d	-0.8443764
217	0xbf2ccb4b	-0.674977
218	0xbe3960aa	-0.1810328
219	0x3f85d17b	1.0454553
220	0xbf3b94c3	-0.7327387
221	0xbf006bb5	-0.5016435
222	0xbf1776c3	-0.5916559
223	0xbf42b7df	-0.76061815
224	0xbf8a4863	-1.0803341
225	0xbf1aa599	-0.6040893
226	0xbf646f49	-0.8923231
227	0x3e5d9976	0.21640572
228	0xbf642151	-0.89113337
229	0x3d12ebd9	0.035869453
230	0x3f25f825	0.64831764
231	0x3f6f82ea	0.93559134
232	0x3f15be72	0.5849372
233	0xbe7e5b28	-0.24839461
234	0xbec4bd12	-0.384255
235	0x3ea26127	0.31714746
236	0x3db99d94	0.09063259
237	0x3e5e233d	0.2169313
238	0x3e915479	0.2838476
239	0xbf183052	-0.5944873
240	0xbe1ecc5d	-0.15507646
241	0x3e356ddc	0.1771769
242	0xbdbad4bb	-0.09122606
243	0xbf3a53ee	-0.72784317
244	0xbed9aae5	-0.42513195
245	0xbf0eaec8	-0.55735445
246	0xbe19019f	-0.14942025
247	0x3eb811de	0.35951132
248	0xbe4d683b	-0.20059292
249	0xbe16170a	-0.14657226
250	0xbebb2ef0	-0.36559248
251	0x3ed4cc2b	0.41562018
252	0x3e2ea8d5	0.17056592
253	0xbec8cfc6	-0.3922102
254	0x3e9dfc7d	0.30856696
255	0xbf47510e	-0.77858055

L3.bias f4 [40]
0	0xbf653e6f	-0.8954839
1	0xbac10fec	-0.0014729477
2	0xbf36c7fc	-0.713989
3	0xbf27f4b8	-0.65607786
4	0xbea82a9a	-0.32845002
5	0xbf9d7774	-1.2302079
6	0xbf83f01e	-1.0307653
7	0xbf88756d	-1.0660836
8	0xbf250d67	-0.64473575
9	0xbee301b0	-0.44337225
10	0xbf5e6934	-0.8687928
11	0xbf4b950c	-0.795243
12	0xbe44d6aa	-0.19222513
13	0x3e59d067	0.21270905
14	0xbe7caf0a	-0.24676147
15	0xbf80521a	-1.0025055
16	0x3f283fec	0.6572254
17	0xbe8683dc	-0.26272476
18	0xbe861b10	-0.26192522
19	0xbed09044	-0.40735066
20	0xbf818649	-1.0119106
21	0xbef9441b	-0.48684773
22	0xbf36fd70	-0.71480465
23	0xbf7ba70c	-0.9830177
24	0xbcc8b963	-0.024502462
25	0x3f2c2406	0.6724247
26	0xbed760c1	-0.42066005
27	0xbfb75d2a	-1.4325306
28	0x3e163745	0.14669521
29	0xbececdbc	-0.40391338
30	0x3d73d5ba	0.059529997
31	0xbfaecf3e	-1.3656995
32	0xbeabfd51	-0.33591703
33	0x3e33a0af	0.17541765
34	0xbe94c2b9	-0.29054812
35	0xbec57fc8	-0.38574052
36	0xbf0aeaa9	-0.54264313
37	0xbfb536c4	-1.4157338
38	0xbf2de80c	-0.679322
39	0xbe48e36a	-0.19618002

L4.weight f4 [20, 40]
0	0xbe4e0aa0	-0.2012124
1	0xbd55fd3e	-0.052243464
2	0xbe53a56d	-0.20668574
3	0x3dff0a2c	0.12453112
4	0x3f80e24b	1.0069059
5	0x3e1ddb9a	0.15415803
6	0x3e6261f7	0.22107683
7	0x3f15970e	0.58433616
8	0x3f3d11f6	0.7385553
9	0x3f4ec1e7	0.8076462
10	0xbec37809	-0.38177517
11	0x3f6ba320	0.92045784
12	0x3d8c1326	0.0683959
13	0xbeb47a26	-0.35249442
14	0xbd93333e	-0.07187508
15	0x3e687467	0.22700654
16	0x3eb49dad	0.35276547
17	0x3ee26a21	0.44221595
18	0xbe6f4cfb	-0.2336921
19	0xbec10363	-0.37697896
20	0x3f11d3ca	0.5696379
21	0x3e14ed9f	0.1454377
22	0xbbdacdf5	-0.006677384
23	0x3f2e9e12	0.68209946
24	0xbe5cba1a	-0.21555367
25	0xbe1a9444	-0.15095621
26	0x3ea70c3b	0.3262652
27	0x3de787d5	0.11305205
28	0xbf7836d5	-0.9695867
29	0x3ec475fe	0.3837127
30	0xbf2acab5	-0.66715556
31	0x3eac829f	0.33693406
32	0x3f2217fa	0.63317835
33	0xbe7c9818	-0.24667394
34	0x3ee0783b	0.4384173
35	0xbe1580f2	-0.1459997
36	0x3d7225f9	0.059118245
37	0x3f9a18d7	1.203883
38	0x3ecdb370	0.40175962
39	0x3e6463c4	0.22303683
40	0x3d9411b5	0.0722994
41	0xbe80b2d8	-0.25136447
42	0x3efbf726	0.49211997
43	0xbee01a00	-0.43769836
44	0xbec96426	-0.3933422
45	0xbe858652	-0.2607904
46	0x3ea01a11	0.31269887
47	0xbe83169d	-0.2560319
48	0xbeb8b2b2	-0.36073834
49	0x3f9cb193	1.2241691
50	0x3e86907b	0.26282105
51	0xbe8603ae	-0.26174682
52	0xbda784f8	-0.08179659
53	0xbf2f2e27	-0.684298
54	0x3eff1680	0.49821854
55	0x3e640ac3	0.2226973
56	0x3f75bf95	0.95995456
57	0xbda670f0	-0.0812701
58	0xbe415acf	-0.18882297
59	0x3f64614d	0.8921097
60	0x3e5b3b29	0.21409287
61	0x3e40aaa3	0.18815093
62	0x3cb353ec	0.021890603
63	0xbeb323bc	-0.349882
64	0x3be2bacc	0.0069192406
65	0x3f016a0a	0.5055243
66	0xbc404914	-0.011736173
67	0xbd846c3e	-0.06465958
68	0xbf0d5a9e	-0.55216396
69	0xbe8c1617	-0.27360603
70	0xbeb9f94f	-0.3632302
71	0xbf340b80	-0.7033005
72	0xbf94b581	-1.1617891
73	0x3ebe2258	0.37135577
74	0xbe5cfff9	-0.21582021
75	0xbe10a394	-0.141249
76	0x3ba6d0c2	0.005090804
77	0x3f1852f4	0.59501576
78	0xbdb5d977	-0.08879369
79	0x3e6d45a0	0.23171091
80	0xbe921f57	-0.28539535
81	0xbd99adef	-0.07503878
82	0x3eb1437b	0.34621796
83	0xbdef05b5	-0.116710104
84	0xbd15abeb	-0.036540907
85	0xbd97e8f9	-0.07417483
86	0xbdbb1d1b	-0.09136411
87	0x3d390a13	0.045175623
88	0x3f0bba67	0.545813
89	0xbf0bbc59	-0.5458427
90	0x3e1191ff	0.1421585
91	0x3f80603d	1.002937
92	0x3db2582e	0.08708225
93	0x3d8b7f2f	0.06811368
94	0x3dad7359	0.084692664
95	0x3e35b948	0.1774646
96	0xbf868347	-1.0508813
97	0xbbcee66b	-0.006314089
98	0x3e07665b	0.1322264
99	0x3e41e61e	0.18935439
100	0xbd2e7471	-0.042591516
101	0xbd2a60fb	-0.041596394
102	0xbe24e61f	-0.16103409
103	0xbe32b309	-0.17451109
104	0xbee5fb90	-0.4491849
105	0xbf2f3811	-0.68444926
106	0xbdc110f5	-0.094270624
107	0xbcb87d9b	-0.02252083
108	0xbf1bfa71	-0.6092902
109	0xbde28fa5	-0.11062554
110	0xbf00e2ff	-0.5034637
111	0xbe4c4c23	-0.19950919
112	0x3d3b3222	0.045702107
113	0xbf0dd7df	-0.5540752
114	0xbdd991d2	-0.10623516
115	0xbec3b1eb	-0.38221678
116	0x3d923443	0.071388744
117	0x3e6f12a0	0.23346949
118	0x3e882aff	0.26595303
119	0xbe806a45	-0.25081077
120	0x3e0a3a19	0.13498725
121	0xbf41c333	-0.75688475
122	0x3f570268	0.83988047
123	0xbe7ecb1c	-0.24882168
124	0xbe3163e0	-0.17323256
125	0x3de727b0	0.11286867
126	0x3ec49a82	0.3839913
127	0xbd349f5e	-0.044097297
128	0xbe854cc4	-0.2603513
129	0x3e94cd34	0.29062808
130	0x3f0e0344	0.5547373
131	0x3d39bd56	0.04534658
132	0xbf15db57	-0.5853781
133	0xbf370de6	-0.7150558
134	0x3f1bc96a	0.6085421
135	0x3e659ee5	0.22423895
136	0x3f47c4d0	0.7803469
137	0xbdf27975	-0.11839572
138	0xbf1fa102	-0.62355053
139	0xbf2d0668	-0.675879
140	0xbaa47fdf	-0.0012550316
141	0xbe9d1719	-0.30681685
142	0xbd489c33	-0.04897709
143	0x3f179ed7	0.59226745
144	0xbf837892	-1.027117
145	0x3f0a47bf	0.54015726
146	0xbd5dc0ef	-0.054139074
147	0x3dc414f2	0.095743075
148	0xbed7ddd6	-0.42161435
149	0xbe0f8992	-0.14017323
150	0xbec55439	-0.3854082
151	0x3db2d427	0.08731871
152	0xbf05edd8	-0.52316046
153	0x3f0a324b	0.5398299
154	0x3e5a1cf0	0.21300101
155	0x3e56611b	0.2093548
156	0x3e454c65	0.19267423
157	0x3f1e2a5f	0.61783403
158	0x3f15f8b5	0.5858262
159	0xbec3dd8e	-0.3825497
160	0x3e7a3206	0.24433145
161	0x3e20e129	0.15710892
162	0xbe80d72d	-0.25164166
163	0x3eb4f9ad	0.35346738
164	0xbddd9162	-0.10818745
165	0x3de8b96a	0.1136349
166	0x3f047b21	0.5175038
167	0x3e0d0260	0.13770437
168	0x3f203013	0.62573355
169	0x3f3057a2	0.6888372
170	0x3dc3e611	0.09565366
171	0x3ea86d84	0.32896054
172	0x3db205f4	0.08692542
173	0xbe7e1e93	-0.2481635
174	0x3f84c397	1.0372189
175	0xbe1aa747	-0.15102874
176	0x3f5af36b	0.85527676
177	0x3bcb9298	0.0062125437
178	0xbe8c49d4	-0.27400076
179	0xbe24a371	-0.16077973
180	0xbd9b972e	-0.075971946
181	0xbd88f4aa	-0.06687291
182	0x3ee70fb3	0.45129165
183	0x3d927d47	0.07152801
184	0xbe746bca	-0.23869243
185	0xbde5374c	-0.11192188
186	0x3d5589d7	0.052133407
187	0x3f3cdaa5	0.73771125
188	0xbde92960	-0.11384845
189	0x3f15618e	0.5835198
190	0xbea7f695	-0.32805315
191	0x3e3af306	0.18256769
192	0xbe564071	-0.2092302
193	0x3b10885c	0.0022053933
194	0xbe311c98	-0.17296064
195	0xbe37d3e6	-0.17951927
196	0x3ed4c734	0.4155823
197	0xbec63f05	-0.38719955
198	0x3ee7f053	0.4530054
199	0xbe11e41a	-0.1424717
200	0xbf1804e9	-0.5938249
201	0x3d656bb0	0.056010902
202	0x3e09122f	0.13385843
203	0x3dfa1832	0.12211646
204	0xbdcf1116	-0.10110681
205	0xbe0ab291	-0.1354468
206	0x3e9af74a	0.30266792
207	0x3e06c677	0.13161646
208	0xbf17db8c	-0.59319377
209	0x3f269e88	0.6508565
210	0x3e37bbac	0.17942685
211	0xbd48d398	-0.049029917
212	0xbd223aec	-0.039606974
213	0xbec7d2d6	-0.39028043
214	0xbe9cb51d	-0.30606928
215	0x3e2eeea9	0.17083229
216	0xbef9a7bc	-0.48760784
217	0x3db66d75	0.08907596
218	0xbd95a326	-0.07306509
219	0x3f7fd95e	0.9994105
220	0x3fbb4090	1.4629078
221	0x3e365900	0.17807388
222	0xbeafd2b9	-0.34340456
223	0x3e7533c5	0.2394553
224	0xbc96ed52	-0.01842371
225	0xbe8bdf43	-0.27318773
226	0x3d9450c3	0.072419666
227	0xbea9fb11	-0.3319936
228	0xbe31bf4a	-0.17358127
229	0x3baedeb8	0.0053366087
230	0xbe244d83	-0.16045193
231	0xbe1d6f85	-0.15374573
232	0x3cf50bd9	0.029912876
233	0x3d9e1693	0.077191494
234	0x3ca3d3fc	0.019998543
235	0xbe365482	-0.17805675
236	0x3e4029a1	0.1876588
237	0xbedf8c5b	-0.4366177
238	0x3e1d3672	0.153528
239	0x3f83f6ea	1.0309727
240	0x3ebb8068	0.36621404
241	0x3ee2475c	0.44195068
242	0x3f0ccde2	0.5500165
243	0xbdefab1f	-0.11702561
244	0xbe8097dd	-0.25115862
245	0xbd8a98f7	-0.06767457
246	0xbd306ff0	-0.043075502
247	0x3e9d4665	0.3071777
248	0xbd42aa5a	-0.04752574
249	0x3dd11e4b	0.10210856
250	0x3ee82cf8	0.45346808
251	0x3e0e1a4f	0.13877223
252	0x3ef3a3ce	0.4758591
253	0xbf29c4be	-0.6631583
254	0x3ec228d7	0.37921783
255	0xbb501333	-0.0031749725

L4.bias f4 [20]
0	0xbf4fb794	-0.81139493
1	0x3e80a26b	0.25123915
2	0x3d6cdb17	0.057826128
3	0x3e1b7a60	0.15183401
4	0x3e294d7f	0.16533469
5	0x3e0ee631	0.13954999
6	0x3eb5f2fc	0.35536945
7	0xbbf02345	-0.007328423
8	0x3e52b300	0.20576096
9	0xbf807bfc	-1.0037837
10	0x3e25a5d3	0.16176538
11	0xbf9f2bed	-1.243528
12	0xbedb9e68	-0.42894292
13	0x3e6a1fc7	0.22863685
14	0xbe73c108	-0.23804104
15	0xbee2baee	-0.4428324
16	0xbf188cd0	-0.5958986
17	0x3f507b90	0.8143854
18	0xbf11f63c	-0.5701635
19	0xbf0b5b91	-0.54436594

L5.weight f4 [10, 20]
0	0x3e488f72	0.1958597
1	0xbd6ae12f	-0.057343658
2	0xbf213e6d	-0.6298588
3	0xbece3d51	-0.40281156
4	0xbf26022c	-0.64847064
5	0xbe20e102	-0.15710834
6	0xbcb7cf13	-0.022437608
7	0xbef2bdfb	-0.4741057
8	0xbe9bf92b	-0.30463538
9	0x3f08a247	0.53372616
10	0xbb1555fb	-0.0022786844
11	0x3f5b112e	0.8557309
12	0xbe34d5c9	-0.17659678
13	0xbe3e02f2	-0.18555811
14	0xbc633cae	-0.013869448
15	0x3c86d781	0.016460182
16	0x3f72ca4a	0.9483992
17	0xbf34235b	-0.7036645
18	0x3b804c9b	0.003915382
19	0xbe743008	-0.23846447
20	0xbefd689e	-0.4949388
21	0xbf0b3d74	-0.54390645
22	0xbec3b1da	-0.38221627
23	0xbf20566a	-0.6263186
24	0x3da0489a	0.07826348
25	0x3e1e2c90	0.15446687
26	0xbe98076d	-0.29693165
27	0xbfaa791a	-1.3318207
28	0xbfa68beb	-1.301145
29	0x3f9d08e5	1.2268339
30	0xbf2f41f5	-0.6846002
31	0x3e36f23f	0.17865847
32	0xbde67c5b	-0.11254188
33	0x3d180986	0.037118457
34	0xbdf2a736	-0.11848299
35	0x3e707ee1	0.234859
36	0x3e1541ee	0.14575931
37	0xbf3f602d	-0.7475613
38	0x3e7e20ee	0.24817249
39	0x3ee0e0c2	0.43921477
40	0xbef20399	-0.4726837
41	0xbf4bc4a8	-0.7959695
42	0xbe163577	-0.14668833
43	0xbf384574	-0.7198098
44	0xbdc29879	-0.09501738
45	0xbd199ae2	-0.037501223
46	0xbf351755	-0.70738727
47	0xbf991592	-1.1959708
48	0xbc593ec1	-0.013259591
49	0xbf5a72b9	-0.853313
50	0xbfb2177f	-1.391342
51	0xbf70d389	-0.9407278
52	0xbf90dc7d	-1.1317288
53	0x3ca14f95	0.019691268
54	0x3c7099e3	0.014685127
55	0xbe52a839	-0.20571984
56	0xbe5aff18	-0.21386373
57	0xbdca0298	-0.09863776
58	0xbedee2c7	-0.43532392
59	0xbf2a7ac0	-0.6659355
60	0xbf245c4f	-0.6420335
61	0xbe845581	-0.25846484
62	0xbed6eb65	-0.41976467
63	0xbf365229	-0.71219116
64	0xbe6bd3c1	-0.23029996
65	0xbe84303e	-0.25818056
66	0xbf445a30	-0.76700115
67	0xbf3b1d4a	-0.73091567
68	0xbf21dc39	-0.6322666
69	0xbdc19dbc	-0.094539136
70	0xbdb99dc1	-0.09063292
71	0x3facb9bd	1.3494183
72	0xbd4b186c	-0.049583837
73	0x3d0afffd	0.033935536
74	0x3df4b4e7	0.11948567
75	0x3d60c7ad	0.054877926
76	0x3d4f2b6e	0.050578527
77	0xbe62b6a6	-0.22139987
78	0x3dc070fa	0.093965486
79	0x3e04f84e	0.12985346
80	0x3f0113e9	0.50421005
81	0xbe666961	-0.22501136
82	0x3db49733	0.088179015
83	0xbe719e4e	-0.23595545
84	0xbf1219d5	-0.57070667
85	0xbe8870f9	-0.2664869
86	0xbeb566bc	-0.35429943
87	0xbee3900b	-0.44445834
88	0xbec5a7ca	-0.38604575
89	0x3f36d99e	0.7142581
90	0xbdd6b820	-0.10484338
91	0x3eedd964	0.46454918
92	0x3d795049	0.06086758
93	0xbd9e56d5	-0.07731406
94	0x3cc4500a	0.023963947
95	0x3f060681	0.52353674
96	0x3e27296b	0.16324393
97	0xbd578ae7	-0.052622702
98	0xbedcca4f	-0.431231
99	0xbe4fc83e	-0.2029123
100	0xbd29a266	-0.04141464
101	0xbe9f1db7	-0.31077358
102	0xbeb48589	-0.3525813
103	0xbf28dfbc	-0.6596639
104	0x3d10461d	0.035223115
105	0x3e04cad5	0.12968
106	0xbea9af16	-0.33141392
107	0xbda0767a	-0.078350976
108	0x3e0b7e9b	0.13622515
109	0x3f5a123c	0.85184073
110	0xbd80afb3	-0.06283512
111	0x3f042c0d	0.51629716
112	0xbe9b8d09	-0.3038104
113	0xbe5493b3	-0.20759468
114	0x3e02d97b	0.12778275
115	0xbe5a4249	-0.21314348
116	0xbc8eeb07	-0.017446054
117	0xbcf9060c	-0.030398391
118	0xbe27f6d7	-0.16402756
119	0x3d9a093b	0.07521292
120	0x3e60f019	0.2196659
121	0xbf8f13bb	-1.1177896
122	0xbe8c6f3a	-0.2742861
123	0xbe01e8cf	-0.12686466
124	0xbef33692	-0.4750257
125	0xbe96926d	-0.2940859
126	0xbf1972dd	-0.5994089
127	0xbe9b9f66	-0.3039505
128	0xbe6a0562	-0.22853616
129	0xbf320585	-0.6953967
130	0xbd9a948e	-0.07547866
131	0x3d9da754	0.07697931
132	0xbf5a29ac	-0.85219836
133	0xbd203a05	-0.03911783
134	0x3df2b0bd	0.118501164
135	0x3ed6584a	0.41864234
136	0x3eead912	0.45868737
137	0xbe1796a1	-0.14803554
138	0xbef6f570	-0.4823413
139	0x3eaa0395	0.33205858
140	0xbee531df	-0.4476461
141	0xbe2e94ca	-0.17048946
142	0xbec8e0a0	-0.39233875
143	0xbdaaafa0	-0.08334279
144	0x3dfe7186	0.124239966
145	0xbf7d9bec	-0.9906604
146	0xbe4dab29	-0.20084824
147	0xbd4dca78	-0.050241917
148	0xbf71831e	-0.94340694
149	0x3e49458e	0.1965544
150	0xbee08eee	-0.43859047
151	0x3d1dd8f4	0.03853698
152	0xbe7b1140	-0.24518299
153	0xbf432b5b	-0.7623803
154	0xbeb4264a	-0.35185462
155	0xbff5f22c	-1.921453
156	0xbb805e5d	-0.003917499
157	0x3d31aa95	0.04337557
158	0x3edfd6ac	0.4371847
159	0x3c605e9b	0.013694431
160	0x3ea25ae5	0.31709972
161	0xbf0a46d8	-0.5401435
162	0xbf182962	-0.59438145
163	0xbebdb809	-0.3705447
164	0xbef2be0c	-0.4741062
165	0xbf0ca5de	-0.54940593
166	0x3e577f65	0.21044691
167	0xbe93a6d0	-0.28838205
168	0xbee6d651	-0.45085385
169	0xbd890f64	-0.06692389
170	0xbd8922d8	-0.06696099
171	0x3ee8f8fd	0.45502463
172	0xbe6b6156	-0.2298635
173	0xbe2eed70	-0.17082763
174	0xbda90ac5	-0.08254007
175	0x3e750d22	0.23930791
176	0x3f2abcc5	0.6669429
177	0xbcf08f54	-0.02936522
178	0x3e29dc73	0.16588001
179	0xbe86869a	-0.26274568
180	0x3dbed741	0.093184
181	0xbe846d43	-0.2586461
182	0xbf1fbeda	-0.6240059
183	0xbec4fcff	-0.3847427
184	0xbec2d090	-0.38049746
185	0x3c1ecded	0.009692651
186	0xbee76ee7	-0.452018
187	0xbe8326db	-0.25615582
188	0xbec9fb3d	-0.39449492
189	0x3f11611c	0.567888
190	0xbed0b364	-0.40761864
191	0x3edee0cb	0.43530878
192	0xbf011240	-0.5041847
193	0x3de0aa2f	0.1096996
194	0xbedd873b	-0.43267235
195	0x3f8f0828	1.1174364
196	0x3ef70479	0.482456
197	0xbed027dc	-0.4065541
198	0xbd43fbf8	-0.047847718
199	0xbefc7b7d	-0.49312964

L5.bias f4 [10]
0	0xbf43ce47	-0.7648663
1	0x3e91f235	0.28505102
2	0x3fe7a587	1.809739
3	0x3e16d85b	0.1473097
4	0xbf6ff927	-0.9373955
5	0xbf71f407	-0.9451298
6	0xbe9258ac	-0.28583276
7	0x3e7954cb	0.24348752
8	0xbf97fb7b	-1.1873621
9	0xbfcb3bec	-1.5877662

L6.weight f4 [1, 10]
0	0xbd8fbc74	-0.070183665
1	0xbe7116be	-0.23543832
2	0xbed458c7	-0.41473982
3	0xbe02c208	-0.1276933
4	0x3de55135	0.1119713
5	0x3da047a5	0.07826165
6	0x3d888f8c	0.066680044
7	0xbda0a5ee	-0.078441486
8	0x3dca6acf	0.09883653
9	0xbd2c73fb	-0.042102795
