Saved_Models_All_Samples_Limited_Features/target_Hardness_features_5_epochs_23.pth (torch_old, 10514 bytes, 11 tensors)

L1.weight f4 [10, 5]
0.65553606 -0.82133496 0.85248095 0.54369795 0.32368195 -0.29933926 -0.28635186 1.454898
1.3274797 -0.23466834 -0.7619597 0.16189757 -0.028007528 -0.62239665 -0.4971602 0.7082166
0.26540813 1.7436701 0.5729469 0.6164427 -0.18380263 0.08783802 -1.2197809 0.6366126
-0.13336399 0.105229385 0.16956213 0.52125484 -0.23529005 -0.7428274 -0.107794784 0.15355994
-1.2007589 0.56163496 0.13951075 -0.4140222 0.0646213 0.021604648 0.33391935 -0.03949982
-0.051067654 -0.5169779 1.098021 0.8331541 -0.28347275 0.6354482 -0.4379264 0.8849923
-0.64984334 -0.77444375
00000000: 36d1 273f 0243 52bf 313c 5a3f ca2f 0b3f
00000010: a4b9 a53e ff42 99be b69c 92be 193a ba3f
00000020: dbea a93f e64c 70be ca0f 43bf 7ac8 253e
00000030: 0b70 e5bc 6355 1fbf c88b febe af4d 353f
00000040: 93e3 873e 9530 df3f a6ac 123f 30cf 1d3f
00000050: c236 3cbe 6be4 b33d c821 9cbf 0bf9 223f
00000060: 9290 08be 8182 d73d b2a1 2d3e f570 053f
00000070: e0ef 70be f029 3ebf 83c3 dcbd d13e 1d3e
00000080: 78b2 99bf 4fc7 0f3f e8db 0e3e b8fa d3be
00000090: 2c58 843d 3bfc b03c 7af7 aa3e 90ca 21bd
000000a0: 512c 51bd aa58 04bf f48b 8c3f 9649 553f
000000b0: 5723 91be bcac 223f e437 e0be db8e 623f
000000c0: 225c 26bf f241 46bf

L1.bias f4 [10]
0.2497447 0.091060825 0.41319942 0.38906208 -0.7739663 -0.3922097 -0.37343135 -0.88048357
-0.6450034 -0.88123316
00000000: 13bd 7f3e 197e ba3d e08e d33e 2533 c73e
00000010: a822 46bf b6cf c8be 6532 bfbe 5f67 61bf
00000020: f11e 25bf 7f98 61bf

L2.weight f4 [20, 10]
0.5301901 0.7180767 -0.9528851 0.666058 0.107035264 0.17126665 0.07224505 -0.033615876
0.4124433 -0.3764045 0.57452977 -0.88629663 -0.0410472 -1.0776312 -0.08944459 0.5364257
-0.2111649 -0.039209455 -0.48257133 0.7657564 -0.40380263 -1.8728709 0.37925452 -0.7533751
0.5883848 0.46739283 0.2030548 0.18006542 -0.45490852 1.1955799 -0.25211945 -1.6971233
0.3716478 -0.5274168 0.41064245 0.22175428 0.77662075 -0.6523594 -1.0265847 0.53564054
-0.72126323 -1.2661678 -0.5653213 -1.3963212 0.716795 -0.23871431 0.44141158 -0.33741274
-1.0087323 -0.059014518 -0.7205384 -0.87701017 0.29648477 -1.3947836 -0.039434668 0.39132953
0.7550746 0.34909272 -0.49873966 0.23407006 -0.06879573 -0.74429053 -0.16446085 -1.435986
0.36522174 0.7077827 0.00220408 -0.4210312 -0.91424954 0.15357003 0.11309125 0.5003041
-1.7847633 0.413597 -0.7351883 0.11373842 -0.722794 -0.06211796 0.54299086 -0.015015678
-0.8012119 0.49304283 0.29791227 -0.6728705 -0.27813858 0.4642934 0.004193564 -0.0050380756
-0.49451998 0.9332433 -0.30870166 0.60611224 -0.20324837 -0.26340413 0.106637456 -0.29383764
-0.032728292 0.35655996 -1.4830756 -0.2337878 -0.38462126 0.28914413 0.23066989 -0.978048
0.153196 0.013748 0.7620431 0.07188535 -0.8504265 -0.023949604 -0.55215347 -1.063963
0.060409494 -0.9029533 -0.4217731 0.1391292 -0.31774086 -0.17653681 -0.8604223 -0.22344027
-0.7264462 0.18993054 0.4627443 -0.7590991 -0.3223594 0.5753878 0.7251027 -0.25952303
-0.24208044 0.68037164 0.22076225 0.37650135 -1.3957694 0.16282369 -0.24540065 0.09886345
-0.32914248 0.35379836 0.774405 0.059491765 -0.44397846 -0.06930135 -1.1946388 -0.017986218
0.026176875 0.002029397 -0.3524253 0.091324165 0.6861136 -0.94100374 0.38893124 0.36252576
-1.3101832 0.57719105 -0.96807086 0.328181 -0.762714 -0.08737317 0.7811069 -0.14317745
-0.38495383 -0.8609059 -0.03233906 -0.8677792 0.6150504 -0.10451796 0.57600653 0.21993406
0.035429034 -0.16070637 0.38796753 0.7613122 -0.43233487 0.81434125 -0.3726134 -0.16338058
-0.8260597 -0.40769738 1.1496013 -0.7473868 -0.00843227 -0.4014034 0.042804357 -0.05053396
-0.2999824 -0.47887522 -0.20622875 -0.0031882902 -0.44638616 -0.094198585 -0.58948463 0.18497796
-2.0114264 -0.19642493 -0.83787537 -0.6131826 -0.9368659 0.05899717 0.3407567 -0.4208452
00000000: 8aba 073f e0d3 373f 47f0 73bf c782 2a3f
00000010: 4e35 db3d 8660 2f3e 36f5 933d cdb0 09bd
00000020: c52b d33e 17b8 c0be 6214 133f 56e4 62bf
00000030: 1c21 28bd d2ef 89bf ba2e b7bd 3253 093f
00000040: 9d3b 58be 189a 20bd 9713 f7be 9d08 443f
00000050: 38bf cebe 3cba efbf a62d c23e 31dd 40bf
00000060: 63a0 163f 1d4e ef3e 99ed 4f3e 1263 383e
00000070: c5e9 e8be c308 993f cd15 81be 563b d9bf
00000080: 9f48 be3e ca04 07bf ba3f d23e 8e13 633e
00000090: 9ed0 463f 0701 27bf 2167 83bf bd1f 093f
000000a0: b5a4 38bf c911 a2bf e6b8 10bf a7ba b2bf
000000b0: e17f 373f 8671 74be b300 e23e 5dc1 acbe
000000c0: 241e 81bf 35b9 71bd 3475 38bf bd83 60bf
000000d0: dacc 973e 4588 b2bf 3f86 21bd 585c c83e
000000e0: 924c 413f 48bc b23e ce5a ffbe 10b0 6f3e
000000f0: c7e4 8cbd d389 3ebf 6d68 28be 64ce b7bf
00000100: 58fe ba3e 3f31 353f 5472 103b 6791 d7be
00000110: 420c 6abf 7641 1d3e 639c e73d ee13 003f
00000120: 2073 e4bf fcc2 d33e 4d35 3cbf b0ef e83d
00000130: 0709 39bf 676f 7ebd 7301 0b3f 5104 76bc
00000140: 391c 4dbf 1c70 fc3e f587 983e 3e41 2cbf
00000150: 2e68 8ebe ddb7 ed3e 2a6a 893b 7116 a5bb
00000160: b931 fdbe 08e9 6e3f 250e 9ebe 2c2a 1b3f
00000170: 5720 50be e8dc 86be bd64 da3d e371 96be
00000180: 1a0e 06bd 078f b63e 6cd5 bdbf 1266 6fbe
00000190: 14ed c4be b30a 943e ba34 6c3e 5b61 7abf
000001a0: 6adf 1c3e 4b3f 613c 4215 433f a038 933d
000001b0: 8db5 59bf f631 c4bc ee59 0dbf f12f 88bf
000001c0: f26f 773d f327 67bf a5f2 d7be e377 0e3e
000001d0: eeae a2be 11c6 34be a344 5cbf 87cd 64be
000001e0: 61f8 39bf 277d 423e d2ec ec3e 5254 42bf
000001f0: 4b0c a5be 9d4c 133f 55a0 393f 34e0 84be
00000200: efe3 77be d62c 2e3f 800f 623e c9c4 c03e
00000210: 92a8 b2bf 41bb 263e 4f4a 7bbe ec78 ca3d
00000220: 5d85 a8be 0f25 b53e 683f 463f a3ad 733d
00000230: 2551 e3be deed 8dbd ede9 98bf d557 93bc
00000240: e370 d63c a2ff 043b 1771 b4be 2a08 bb3d
00000250: 24a5 2f3f 9fe5 70bf ff21 c73e fa9c b93e
00000260: 15b4 a7bf cbc2 133f 7ed3 77bf 5707 a83e
00000270: 3a41 43bf b4f0 b2bd 9ff6 473f 1c9d 12be
00000280: ab18 c5be 5464 5cbf f675 04bd c726 5ebf
00000290: f173 1d3f 830d d6bd 2a75 133f 6536 613e
000002a0: 091e 113d 3690 24be aea3 c63e 5be5 423f
000002b0: ff5a ddbe ab78 503f 2fc7 bebe 3d4d 27be
000002c0: a678 53bf b6bd d0be 2326 933f be54 3fbf
000002d0: 8127 0abc bf84 cdbe 9f53 2f3d b3fc 4ebd
000002e0: 4b97 99be 222f f5be a12d 53be a2f2 50bb
000002f0: ba8c e4be 30eb c0bd 77e8 16bf dd6a 3d3e
00000300: 36bb 00c0 9e23 49be 007f 56bf 89f9 1cbf
00000310: 72d6 6fbf 04a7 713d aa77 ae3e 0679 d7be

L2.bias f4 [20]
-0.21867907 -0.099600576 0.15565096 0.23947604 -0.15691458 -0.021271808 -0.021411514 -0.2686422
0.051245935 -0.162596 0.032430626 -0.605018 0.24084228 -0.35010034 -0.5530801 0.10668127
8.687394e-06 -0.031294573 -0.5547454 -0.10723861
00000000: 68ed 5fbe 63fb cbbd f762 1f3e 3539 753e
00000010: 37ae 20be 3742 aebc 3367 afbc 788b 89be
00000020: 42e7 513d 917f 26be fad5 043d 76e2 1abf
00000030: 5c9f 763e 5a40 b3be a896 0dbf b67b da3d
00000040: 13c0 1137 bd2e 00bd cb03 0ebf eb9f dbbd

L3.weight f4 [40, 20]
0.08778015 0.23325217 -0.20949773 -0.5588008 0.23837604 0.10942336 -0.12111484 -0.42518649
0.14185826 0.16612424 -0.50250834 1.3971367 -0.8894957 0.0011673812 -0.15537567 -0.5573313
-0.19888355 -0.61132354 0.35718513 0.6564443 -0.6655277 -0.0416565 -0.35595468 -0.215332
-0.41919166 0.29599628 -0.5923317 -0.27838945 -0.19390282 -0.18157375 -0.46088454 -0.09330584
-0.6329092 -0.15849777 -0.07768685 -0.7565496 0.23380831 -0.5082505 0.31730998 -0.12392715
0.54426575 -0.39099753 -0.5422379 0.11044952 -0.23147322 -0.60927886 -0.49993658 0.31244445
0.20594354 -0.048096173 -0.19317998 -0.32559767 -0.3169577 0.3144568 -0.11463651 0.5379324
-0.1437911 -0.9692544 -0.057174157 0.063958816 -0.59448993 -0.13683964 0.03438109 -0.19328706
-0.22361934 -0.23041604 -0.05360644 -0.14978316 -0.05266175 -0.18139048 0.042617757 0.17907588
-0.11487158 -0.7156993 0.15282805 -0.2521876 0.085528456 -0.6635299 0.018463196 -0.49086505
-0.5536802 -0.32398784 -0.1338523 -0.37854788 -0.24437736 -0.2721489 -0.21405031 -0.75368613
-0.1282696 -0.60919 0.08189278 -0.16535768 -0.1467241 -0.16794413 0.35498238 -0.26906392
0.08048487 -0.28809664 0.024904137 -0.28924468 -0.14397533 -0.14152761 -0.1601201 -0.20922531
0.17985153 -0.050640468 -0.24055219 -0.25588936 -0.6293334 -0.28911528 -0.4606029 1.1996891
-0.23072508 -0.24869089 -0.09658492 0.0998362 0.13589561 -0.11363653 0.14618039 -0.08581179
-0.37653083 -0.27120548 -0.019686222 0.050278928 -0.107412584 -0.18758443 -0.09893507 0.0066724415
0.07613642 0.53000474 -0.53843045 0.6997779 -0.124867946 -0.39923346 0.46272534 0.06849568
-0.7039237 -0.5410146 0.62387544 0.17087877 -0.28804043 0.103964984 -0.4277718 0.100223914
0.09115359 -0.1410492 -0.14023748 -0.52780396 -0.62800395 -0.16798988 -0.14947325 0.060908746
-0.33426136 -0.14256512 0.17242141 -0.015131209 0.24686892 -0.0105920555 0.306569 -0.41926873
-0.66281724 -0.14316876 -0.78616524 -0.27295113 0.22759187 -0.17966795 -0.16866118 -0.2777963
-0.34831917 -0.22973043 -0.24605897 -0.3543133 0.050580874 -0.5715412 -0.010274562 0.25646812
-0.24503195 -0.26344776 0.6093861 -0.46093252 -0.64263767 -0.60895395 -0.48215193 -0.4952169
-0.45002127 -0.08826757 0.06265066 0.8561761 -0.18438646 0.095605746 -0.7187998 0.0813116
-0.8140578 0.077476904 -0.90390956 -0.84163827 -0.17145541 -0.40278724 -0.3175997 -0.23937859
-0.16725649 -0.93820465 -0.35560542 -0.7107312 -0.34460655 -0.8347169 -0.64701724 -0.33421418
0.57679945 0.0115321595 -0.07747452 -0.13608241 0.10091671 -0.47661147 -0.06154909 0.18042897
-0.80031246 -0.531905 0.04802698 0.7890225 -0.7987844 -0.112268016 -0.1150446 -0.13391435
-0.6367579 -0.3032567 -0.29537904 -0.1558048 -0.9260071 -0.12604044 0.3859569 1.0204895
-0.2382009 -0.52157974 -0.22583017 -0.4121693 0.4293699 -0.34036273 0.7007588 0.31250957
-0.30899578 0.20647824 -0.072631225 -0.6346396 -0.4476386 -0.5462851 -0.10512412 0.36864966
0.005763278 -0.053712275 -0.029151889 0.49993858 0.36379743 -0.49516553 0.14488497 -0.813142
00000000: 14c6 b33d a8d9 6e3e 9386 56be 920d 0fbf
00000010: d918 743e 5b19 e03d 0f0b f8bd 0bb2 d9be
00000020: 4b43 113e 791c 2a3e 63a4 00bf 60d5 b23f
00000030: fdb5 63bf d002 993a cd1a 1fbe 44ad 0ebf
00000040: 21a8 4bbe b37f 1cbf f8e0 b63e bc0c 283f
00000050: 0660 2abf 02a0 2abd b13f b6be fe7f 5cbe
00000060: 4aa0 d6be d38c 973e 0da3 17bf 1089 8ebe
00000070: 768e 46be 78ee 39be 0ff9 ebbe 2217 bfbd
00000080: 5606 22bf 3d4d 22be 491a 9fbd 3cad 41bf
00000090: 726b 6f3e b41c 02bf 7476 a23e 85cd fdbd
000000a0: 0055 0b3f d430 c8be 1ad0 0abf 5c33 e23d
000000b0: 5107 6dbe b3f9 1bbf b0f7 ffbe b8f8 9f3e
000000c0: dde2 523e 7e00 45bd f9d0 45be bdb4 a6be
000000d0: 4848 a2be 7b00 a13e 8cc6 eabd f0b5 093f
000000e0: f93d 13be 0e21 78bf 732f 6abd d7fc 823d
000000f0: 7e30 18bf b11f 0cbe 30d3 0c3d 0bed 45be
00000100: 78fc 64be 2ff2 6bbe 6d92 5bbd c260 19be
00000110: d9b3 57bd 6dbe 39be f58f 2e3d ab5f 373e
00000120: ca41 ebbd 1238 37bf f57e 1c3e bc1e 81be
00000130: 8b29 af3d 18dd 29bf 2140 973c aa52 fbbe
00000140: fcbd 0dbf bce1 a5be 9410 09be 07d1 c1be
00000150: 0f3e 7abe 1a57 8bbe 0130 5bbe 93f1 40bf
00000160: 1b59 03be e0f3 1bbf 67b7 a73d 8653 29be
00000170: d83e 16be 8cf9 2bbe 40c0 b53e bfc2 89be
00000180: 40d5 a43d 6781 93be c303 cc3c e117 94be
00000190: 456e 13be 9dec 10be 86f6 23be 293f 56be
000001a0: 002b 383e 616c 4fbd 5053 76be ee03 83be
000001b0: fe1b 21bf eb06 94be 25d4 ebbe 6a8f 993f
000001c0: 3243 6cbe d3a8 7ebe 51ce c5bd ec76 cc3d
000001d0: 3828 0b3e 45ba e8bd 50b0 153e 17be afbd
000001e0: a6c8 c0be 72db 8abe 0045 a1bc 47f1 4d3d
000001f0: 21fb dbbd 2216 40be 789e cabd 7fa4 da3b
00000200: 69ed 9b3d 64ae 073f 94d6 09bf a524 333f
00000210: c4ba ffbd 5468 ccbe 56ea ec3e 7747 8c3d
00000220: 5834 34bf ef7f 0abf 4db6 1f3f d8fa 2e3e
00000230: 097a 93be 98eb d43d e804 dbbe 3242 cd3d
00000240: bcae ba3d 346f 10be 6a9a 0fbe 291e 07bf
00000250: dec4 20bf 8a05 2cbe 840f 19be 737b 793d
00000260: 4e24 abbe 97fc 11be 3d8f 303e e4e8 77bc
00000270: 35cb 7c3e 4d8a 2dbc 9df6 9c3e 64aa d6be
00000280: 64ae 29bf d59a 12be 2042 49bf 40c0 8bbe
00000290: d80d 693e e0fa 37be 84b5 2cbe 513b 8ebe
000002a0: e456 b2be 743e 6bbe e2f6 7bbe 8e68 b5be
000002b0: e42d 4f3d 8650 12bf a356 28bc ca4f 833e
000002c0: a8e9 7abe a0e2 86be ba00 1c3f 59ff ebbe
000002d0: e783 24bf 68e4 1bbf 9edc f6be 128d fdbe
000002e0: 3069 e6be a1c5 b4bd fd4e 803d 5b2e 5b3f
000002f0: cecf 3cbe f2cc c33d 4403 38bf b286 a63d
00000300: 1866 50bf 36ac 9e3d 9e66 67bf 9b75 57bf
00000310: 0292 2fbe 213a cebe 6e9c a2be a91f 75be
00000320: 4945 2bbe 2e2e 70bf ea11 b6be 7bf2 35bf
00000330: 4570 b0be 02b0 55bf eca2 25bf 1f1e abbe
00000340: 21a9 133f 62f1 3c3c f6aa 9ebd 3059 0bbe
00000350: 6cad ce3d 6b06 f4be e61a 7cbd 5fc2 383e
00000360: 47e1 4cbf ed2a 08bf f0b7 443d 61fd 493f
00000370: 227d 4cbf c6ec e5bd 819c ebbd d820 09be
00000380: 9102 23bf 7644 9bbe ec3b 97be 4b8b 1fbe
00000390: cd0e 6dbf bf10 01be 259c c53e 669f 823f
000003a0: f0ea 73be 4086 05bf 0640 67be db07 d3be
000003b0: 5fd6 db3e 0644 aebe ee64 333f 4101 a03e
000003c0: b234 9ebe 086f 533e aebf 94bd be77 22bf
000003d0: e330 e5be 57d9 0bbf 514b d7bd a6bf bc3e
000003e0: e1d9 bc3b 6701 5cbd f1cf eebc f3f7 ff3e
000003f0: a843 ba3e 5686 fdbe ba5c 143e 132a 50bf

L3.bias f4 [40]
-0.960512 -0.017808456 -0.56770957 -0.47682625 -0.3679178 -1.3058139 -1.0318726 -0.63786876
-0.44147828 -0.44561088 -0.7063579 -0.9716382 -0.10086664 0.18718684 -0.11141919 -0.94693136
0.3847797 -0.151976 -0.24745883 -0.38623196 -0.8830589 -0.5327845 -0.770366 -0.72428113
-0.058316924 0.41555133 -0.43205607 -1.3224365 0.16067295 -0.44064355 -0.024817403 -1.3109952
-0.14589345 0.33101946 -0.2880751 -0.3325172 -0.5888065 -1.1323925 -0.5877113 -0.15802512
00000000: 1de4 75bf 0ae3 91bc 6a55 11bf 9222 f4be
00000010: b95f bcbe e924 a7bf 6714 84bf 5e4b 23bf
00000020: 7109 e2be 1c27 e4be dfd3 34bf 48bd 78bf
00000030: 2b93 cebd e8ad 3f3e bf2f e4bd 186a 72bf
00000040: d801 c53e 999f 1bbe d965 7dbe 32c0 c5be
00000050: 2610 62bf 9164 08bf b536 45bf 7d6a 39bf
00000060: badd 6ebd 25c3 d43e 7436 ddbe 9945 a9bf
00000070: 7387 243e 089c e1be de4d cbbc b1ce a7bf
00000080: 1865 15be 627b a93e 947e 93be b23f aabe
00000090: 06bc 16bf 3df2 90bf 3f74 16bf 56d1 21be

L4.weight f4 [20, 40]
0.1484143 -0.4357756 0.008064752 -0.050096657 0.36206612 -0.22424804 0.03491709 -0.22864504
-0.13858587 0.09238748 -0.40113822 0.6720631 -0.34281084 -0.28932148 -0.47032258 -0.061319284
0.105023995 -0.0003371362 -0.5067583 -0.26000276 0.42120454 0.0076866024 -0.31636557 -0.10640691
-0.29588163 -0.18757904 -0.17951813 -0.4107045 -0.80326414 -0.013762765 -0.26864448 0.10770784
0.06689393 -0.17241858 0.021576878 -0.30372432 -0.27352494 0.2515 -0.094280966 -0.58480346
0.023708448 -0.49583808 0.20947246 -0.6061504 -0.4643689 -0.2419515 0.27950397 0.011717667
0.32443842 0.9741669 0.031030448 -0.604037 -0.05098112 -0.7731348 0.3859363 0.33497137
0.9634575 -0.09642032 -0.26627225 0.35258386 -0.016697662 0.14256653 0.03698929 -0.12646991
-0.05917707 0.46142015 0.0023924443 0.11916913 -0.7690242 -0.21555111 -0.8913907 -0.70810485
-1.5099643 0.38423622 -0.25416297 -0.12021602 -0.015387318 0.8953232 -0.22236425 0.24448152
-0.10944829 -0.04317052 -0.04407525 -0.118184336 -0.05522218 0.017648468 -0.05172888 0.07832591
0.4553201 -0.20796122 -0.07323837 0.791549 0.050417863 -0.14260599 0.10427288 0.13128844
-0.9219046 -0.0052495888 0.18536435 0.15088007 -0.10713593 -0.048782416 0.0529082 -0.05469141
-0.40737906 -0.7886253 -0.09957291 0.11207361 -0.50852615 -0.07944707 -0.36736616 -0.19622849
-0.24780183 -0.7269203 -0.09417809 -0.50939727 0.097767934 0.3329053 0.3060573 -0.2776145
0.2513471 -0.6039784 0.6496891 -0.36261442 -0.49468568 -0.07142535 0.21937853 -0.10331369
-0.13024573 0.18894736 0.25100586 -0.3464676 -0.5105094 -0.29614207 0.60116076 0.20019019
0.80083585 -0.17661701 -0.44767797 -0.67005247 -0.07576491 -0.59658134 -0.4903554 0.13944249
-0.9290546 0.6082018 -0.3259096 -0.1598349 -0.066070676 -0.3092235 -0.22434756 -0.13309091
-0.5605261 0.65600246 0.029729024 0.08084963 0.044343546 0.47571716 0.60529417 -0.41964263
0.23762757 0.022533119 -0.30082557 0.07919414 -0.06916875 0.08107584 0.5021523 0.23211138
0.2273872 0.20934142 0.30493218 0.38127804 -0.10721171 -0.18126863 0.26892278 -0.03477849
0.72181743 -0.008176362 -0.46834287 -0.4158845 0.10236704 -0.030597994 0.5123986 0.026366966
-0.07164363 -0.40506598 0.12110748 0.5342787 -0.084186256 0.56289274 -0.22205873 0.17867704
-0.1705654 -0.17354693 -0.18258658 -0.3020974 0.30575728 -0.21880224 -0.22526312 -0.15353554
-0.5440941 0.04082299 0.150118 0.11718944 -0.15881139 -0.17430997 0.45049855 0.48773694
-0.07971614 0.33105928 0.1792107 0.17798053 -0.022589847 -0.38467988 -0.19123869 -0.10331417
-0.79916096 0.08681907 -0.07134965 0.68755674 1.1577293 0.1663659 -0.3619329 0.44228625
-0.024129912 -0.47260556 0.062876634 -0.31273776 -0.17202525 -0.0040260926 -0.21675931 -0.2054051
0.049773965 0.0035859942 0.008334098 -0.25821307 0.13251604 -0.07975291 0.15216346 1.0727475
0.5781907 0.3355197 0.027127398 0.12026846 0.063637204 0.024097264 0.012208321 0.23859237
-0.006316355 0.39077252 0.18119237 0.098852634 0.09224534 -0.73659056 0.40988994 0.04293396
00000000: ebf9 173e fb1d dfbe 0622 043c 2732 4dbd
00000010: bb60 b93e 47a1 65be 3905 0f3d ed21 6abe
00000020: 74e9 0dbe a635 bd3d fd61 cdbe 540c 2c3f
00000030: e784 afbe f221 94be 1fce f0be ee29 7bbd
00000040: d216 d73d a8c1 b0b9 e9ba 01bf 151f 85be
00000050: 1fa8 d73e e5df fb3b abfa a1be deeb d9bd
00000060: cc7d 97be b814 40be 9ad3 37be dc47 d2be
00000070: b8a2 4dbf 387d 61bc c58b 89be ee95 dc3d
00000080: afff 883d 7f8e 30be fec1 b03c c181 9bbe
00000090: 760b 8cbe 9cc4 803e 6116 c1bd aeb5 15bf
000000a0: 3838 c23c 7dde fdbe f37f 563e ac2c 1bbf
000000b0: c3c1 edbe 22c2 77be 251b 8f3e 75fb 3f3c
000000c0: cb1c a63e 0163 793f 9133 fe3c 2ba2 1abf
000000d0: 94d1 50bd 2aec 45bf 7199 c53e 5e81 ab3e
000000e0: 27a5 763f 0478 c5bd d654 88be df85 b43e
000000f0: 89c9 88bc f6fc 113e 1582 173d 5481 01be
00000100: a863 72bd 433f ec3e 8eca 1c3b f20e f43d
00000110: c5de 44bf 6eb9 5cbe 2e32 64bf 5c46 35bf
00000120: 8346 c1bf 9cba c43e a621 82be d133 f6bd
00000130: 171b 7cbc e733 653f 74b3 63be 5d59 7a3e
00000140: 6d26 e0bd 92d3 30bd 4088 34bd a10a f2bd
00000150: a730 62bd 8593 903c a9e1 53bd 5669 a03d
00000160: b71f e93e c9f3 54be 00fe 95bd f5a2 4a3f
00000170: f682 4e3d 4e07 12be 058d d53d 7a70 063e
00000180: f101 6cbf be04 acbb 27d0 3d3e 4e80 1a3e
00000190: 156a dbbd 12d0 47bd 45b6 583d 1a04 60bd
000001a0: fd93 d0be 59e3 49bf e2ec cbbd d986 e53d
000001b0: c52e 02bf 25b5 a2bd 6b17 bcbe 1ff0 48be
000001c0: c3bf 7dbe 7317 3abf 71e0 c0bd dc67 02bf
000001d0: 8e3a c83d 9072 aa3e 8bb3 9c3e 7d23 8ebe
000001e0: 91b0 803e 549e 1abf 0652 263f 99a8 b9be
000001f0: 7147 fdbe 7447 92bd c4a4 603e 2196 d3bd
00000200: 235f 05be 6b7b 413e d783 803e 3464 b1be
00000210: beb0 02bf ef9f 97be ace5 193f a8fe 4c3e
00000220: 9403 4d3f 17db 34be 0c36 e5be 8f88 2bbf
00000230: a22a 9bbd 8eb9 18bf dd0f fbbe 03ca 0e3e
00000240: 86d6 6dbf 1db3 1b3f a0dd a6be c3ab 23be
00000250: 1050 87bd 8b52 9ebe 5ebb 65be fc48 08be
00000260: a37e 0fbf c7ef 273f 488a f33c 7e94 a53d
00000270: 94a1 353d 3391 f33e 8ff4 1a3f 66db d6be
00000280: a454 733e 6097 b83c cf05 9abe 8a30 a23d
00000290: 58a8 8dbd 170b a63d 0e8d 003f 9bae 6d3e
000002a0: 31d8 683e 995d 563e 1220 9c3e e036 c33e
000002b0: d091 dbbd 7c9e 39be 3fb0 893e e473 0ebd
000002c0: 07c9 383f 26f6 05bc a3ca efbe d0ee d4be
000002d0: d0a5 d13d a5a8 fabc 8e2c 033f 89ff d73c
000002e0: e5b9 92bd cf64 cfbe 3307 f83d 7dc6 083f
000002f0: d869 acbd bd19 103f 5d63 63be 1df7 363e
00000300: b2a8 2ebe 49b6 31be faf7 3abe 83ac 9abe
00000310: 388c 9c3e b20d 60be 60ab 66be 6c38 1dbe
00000320: c049 0bbf 0236 273d 88b8 193e 0401 f03d
00000330: 749f 22be 507e 32be bfa7 e63e a8b8 f93e
00000340: 3742 a3bd 9a80 a93e 0283 373e 8740 363e
00000350: 580e b9bc c3f4 c4be 13d4 43be 6196 d3bd
00000360: d095 4cbf 32ce b13d c41f 92bd b803 303f
00000370: 7930 943f d35b 2a3e 454f b9be 5873 e23e
00000380: 18ac c5bc 5bf9 f1be 77c5 803d 2a1f a0be
00000390: 6327 30be 50ed 83bb 27f6 5dbe b755 52be
000003a0: c9df 4b3d 0003 6b3b be8b 083c 8134 84be
000003b0: 49b2 073e 7e55 a3bd bdd0 1b3e ca4f 893f
000003c0: 4e04 143f 3dc9 ab3e 473a de3c 4f4f f63d
000003d0: 3954 823d a067 c53c 6905 483c 8f51 743e
000003e0: 6df9 cebb 5613 c83e 7e8a 393e 4073 ca3d
000003f0: 20eb bc3d 3391 3cbf 18dd d13e 85db 2f3d

L4.bias f4 [20]
-0.4147694 0.29990828 0.20383897 0.43180662 0.12099261 0.16251741 0.29734066 -0.2826469
0.3838631 -0.9885009 -0.18767633 -1.4214151 -0.18117721 0.38234392 -0.18636566 -0.4235114
-0.5936386 0.4747487 -0.091524065 -0.31202757
00000000: a85c d4be 948d 993e 2abb 503e c215 dd3e
00000010: f9ca f73d f76a 263e 093d 983e 18b7 90be
00000020: b489 c43e 650e 7dbf 392e 40be eef0 b5bf
00000030: 8586 39be 95c2 c33e a4d6 3ebe 7cd6 d8be
00000040: b3f8 17bf 4312 f33e f870 bbbd 14c2 9fbe

L5.weight f4 [10, 20]
0.10929533 -0.059843477 -0.23742285 -0.42810485 -0.6451343 -0.21543725 -0.036241192 -0.5168931
-0.13382989 0.28853577 -0.040933605 0.86108845 -0.26542825 -0.23541047 -0.025663704 -0.15597808
0.4606176 -0.74943775 0.11369164 -0.3237331 -0.22195949 -1.0071284 -0.22600846 -0.7701568
0.20586805 0.13557394 -0.25207615 -1.1478833 -0.8179374 0.79091585 -1.0233027 -0.25736278
-0.24362037 0.0517914 -0.078018375 0.3483618 0.16867724 -0.81173116 -0.1374417 0.1755433
-0.40744027 -1.0793821 -0.024504213 -0.8774715 0.0534733 -0.002779107 -0.59615403 -0.7601857
0.14275207 -0.93962926 -1.4868779 -1.2280437 -1.2120913 0.120245226 0.09835423 -0.10066871
-0.07077777 -0.21852113 -0.118307635 -0.49726117 -0.30976292 -0.70260245 -0.3241618 -0.7949313
-0.13627924 -0.25439033 -1.0313826 -0.61070305 -0.5359973 -0.25607616 -0.5127059 0.93221056
-0.60274804 0.02683129 0.113360435 0.1020414 0.09231276 -0.17454204 0.16370213 -0.12047897
0.7140963 -0.27191848 0.20139451 -0.33772108 -0.31697184 0.019106822 -0.6330477 -0.33804774
-0.27479145 0.4851614 -0.18601994 0.46782768 -0.0009035596 -0.11040123 -0.05811673 0.31372172
0.15940858 -0.105101615 -0.15242422 -0.04976058 0.1753779 -0.35621703 -0.43253103 -0.37370247
-0.0396127 -0.06946975 -0.42942762 0.006908302 -0.23569529 1.1991264 0.036431037 0.49113145
-0.2724625 -0.22427903 0.08942631 -0.19747208 0.025889294 -0.14131187 -0.07613026 0.069498464
0.0988291 -1.6083622 -0.34071255 -0.59377867 -0.4018569 -0.08068388 -0.32905403 -0.28764704
-0.21598399 -0.7367345 -0.25520813 -0.07538762 -0.7854395 -0.1283182 0.04576081 0.25866547
0.022886163 -0.19447732 0.049524948 0.76605844 -0.10263925 -0.10373484 -0.3870158 0.09392846
0.18202142 -0.6306521 -0.1308795 0.033577155 -0.7370923 0.13286074 -0.46510887 -0.56153566
-0.2467586 -0.70776176 -0.37849012 -1.9435529 0.010948793 0.08405477 -0.016520848 -0.18205369
0.52666646 -0.74609774 -0.20666699 -0.09381245 -0.26558632 -0.5947428 -0.061099693 -0.37240905
-0.12661877 -0.26284876 -0.21301909 0.42716402 -0.08943562 -0.34504455 -0.37569267 0.12905765
0.4080498 -0.18207094 0.5863864 -0.18998486 1.1994469 -0.1884151 -0.15100257 -0.31674746
-0.13775069 -0.23222235 -0.03814159 -0.5055684 0.028172368 0.6484167 -0.10773918 0.4264608
-0.09773555 0.009760795 -0.20581959 0.767083 0.47487026 -0.3602598 0.7726019 -0.077341154
00000000: 3bd6 df3d 6f1e 75bd fa1e 73be 8f30 dbbe
00000010: 8627 25bf 959b 5cbe a571 14bd 1b53 04bf
00000020: b40a 09be f6ba 933e ffa9 27bd 4b70 5c3f
00000030: 36e6 87be 710f 71be b03c d2bc b8b8 1fbe
00000040: 12d6 eb3e 27db 3fbf 2ad7 e83d 58c0 a5be
00000050: 5949 63be 95e9 80bf c36e 67be ff28 45bf
00000060: 13cf 523e e5d3 0a3e 2010 81be d7ed 92bf
00000070: 5864 51bf 7679 4a3f 95fb 82bf 0ec5 83be
00000080: 9e77 79be 3823 543d 19c8 9fbd 7a5c b23e
00000090: bab9 2c3e 9dcd 4fbf 84bd 0cbe 9fc1 333e
000000a0: 039c d0be 3129 8abf 0fbd c8bc f9a1 60bf
000000b0: d206 5b3d ae21 36bb 8d9d 18bf 889b 42bf
000000c0: 992d 123e 8b8b 70bf 0452 bebf 8930 9dbf
000000d0: cf25 9bbf 2143 f63d f16d c93d 662b cebd
000000e0: eff3 90bd 01c4 5fbe 464b f2bd 0499 febe
000000f0: 3f99 9ebe c1dd 33bf 89f8 a5be 9e80 4bbf
00000100: c98c 0bbe 733f 82be 5804 84bf 0957 1cbf
00000110: 1e37 09bf 6a1c 83be b240 03bf 5aa5 6e3f
00000120: b24d 1abf 4bcd db3c 8429 e83d 15fb d03d
00000130: 790e bd3d 26bb 32be 88a1 273e aebd f6bd
00000140: 04cf 363f e638 8bbe 5d3a 4e3e c7e9 acbe
00000150: 224a a2be e985 9c3c 6a0f 22bf 9814 adbe
00000160: 77b1 8cbe 1367 f83e 037c 3ebe 1c87 ef3e
00000170: dcdc 6cba 0a1a e2bd cf0b 6ebd 22a0 a03e
00000180: 013c 233e 843f d7bd 1815 1cbe c0d1 4bbd
00000190: 4496 333e 1462 b6be b574 ddbe ee55 bfbe
000001a0: ed40 22bd 2846 8ebd f0dd dbbe 0a5f e23b
000001b0: 1b5a 71be f97c 993f b638 153d 9575 fb3e
000001c0: 3480 8bbe 67a9 65be 2425 b73d 1f36 4abe
000001d0: c915 d43c 0fb4 10be 2fea 9bbd 3655 8e3d
000001e0: e966 ca3d d0de cdbf e071 aebe e101 18bf
000001f0: 30c0 cdbe 973d a5bd c579 a8be 7946 93be
00000200: e82a 5dbe a29a 3cbf a4aa 82be d364 9abd
00000210: 9012 49bf d965 03be b06f 3b3d cd6f 843e
00000220: c37b bb3c 1025 47be acda 4a3d 681c 443f
00000230: 8734 d2bd ef72 d4bd ef26 c6be 905d c03d
00000240: d363 3a3e 6b72 21bf 4705 06be 3388 093d
00000250: 15b2 3cbf a50c 083e c022 eebe cdc0 0fbf
00000260: 49ae 7cbe e02f 35bf 75c9 c1be 57c6 f8bf
00000270: 9162 333c e824 ac3d bb56 87bc 486c 3abe
00000280: 9dd3 063f 4300 3fbf 83a0 53be be20 c0bd
00000290: eefa 87be 1041 18bf ac43 7abd 66ac bebe
000002a0: 5aa8 01be 1d94 86be ad21 5abe 3eb5 da3e
000002b0: 062a b7bd aea9 b0be ca5a c0be b027 043e
000002c0: e7eb d03e ce70 3abe 6b1d 163f 648b 42be
000002d0: 7a87 993f e3ef 40be 6ba0 1abe b92c a2be
000002e0: 840e 0dbe b2cb 6dbe 5b3a 1cbd ee6c 01bf
000002f0: bdc9 e63c a3fe 253f 5ca6 dcbd 1259 da3e
00000300: 9329 c8bd beeb 1f3c 5fc2 52be 8d5f 443f
00000310: 3222 f33e f973 b8be 3dc9 453f 0a65 9ebd

L5.bias f4 [10]
-0.5339975 0.35383412 1.772638 0.32457802 -0.69312924 -0.80907553 0.24047033 0.35456502
-0.7918193 -0.82096463
00000000: 0fb4 08bf bf29 b53e cde5 e23f 172f a63e
00000010: eb70 31bf 931f 4fbf db3d 763e 8c89 b53e
00000020: abb4 4abf bd2a 52bf

L6.weight f4 [1, 10]
-0.03015096 -0.16019537 -0.432636 -0.042191587 -0.04296776 -0.026987463 -0.048113227 -0.042701732
-0.060232725 -0.015926601
00000000: 25ff f6bc 410a 24be 7782 ddbe 16d1 2cbd
00000010: f6fe 2fbd d014 ddbc 6012 45bd 03e8 2ebd
00000020: 97b6 76bd 8178 82bc
