Saved_Models_All_Samples_Limited_Features/target_Hardness_features_5_epochs_50.pth (torch_old, 10514 bytes, 11 tensors)

L1.weight f4 [10, 5]
0	0x3f0295e7	0.5100998
1	0xbf1043e3	-0.56353587
2	0x3fa28c2c	1.2699027
3	0x3f260da9	0.64864594
4	0x3edb1d52	0.42795807
5	0xbdcc6294	-0.0997974
6	0xbf411f8b	-0.75438756
7	0x3f9b2989	1.212205
8	0x3faf09dc	1.3674884
9	0xbec992df	-0.39369866
10	0xbf6a7d26	-0.9159721
11	0x3c992aa4	0.01869709
12	0xbd9f6987	-0.077837996
13	0xbeffd8ab	-0.49969992
14	0xbf1164a9	-0.5679422
15	0x3f7a8c98	0.9787078
16	0x3e369776	0.17831215
17	0x3fe53ea2	1.7909739
18	0x3eca1ce9	0.39475182
19	0x3f03ce47	0.5148663
20	0xbe76aad8	-0.24088609
21	0xbe02e0c6	-0.12781057
22	0xbf84c2f2	-1.0371993
23	0x3f3f9a1c	0.7484453
24	0xbe3e9887	-0.18612872
25	0xbde909db	-0.11378833
26	0xbcf0db67	-0.029401494
27	0x3f74528b	0.9543845
28	0xbe45afa0	-0.19305277
29	0xbf1bb0a4	-0.6081641
30	0xbed10ed7	-0.40831634
31	0x3e978cf5	0.2959973
32	0xbf82b886	-1.0212562
33	0x3f7c2f2a	0.98509467
34	0x3e62fa61	0.22165824
35	0xbe72c129	-0.23706497
36	0xbdcbf5d2	-0.09958996
37	0xbdb6e1d4	-0.08929792
38	0x3e744453	0.23854189
39	0xbe324a01	-0.17411043
40	0xbe662d86	-0.22478303
41	0xbf1152bd	-0.56766874
42	0x3fbd992c	1.4812369
43	0x3f6ff146	0.9372753
44	0xbef6d80e	-0.48211712
45	0x3e73fbbe	0.23826501
46	0xbf04b0b1	-0.5183211
47	0x3f9f4c25	1.2445112
48	0xbf097c52	-0.5370532
49	0xbf22fcca	-0.63666975

L1.bias f4 [10]
0	0x3e57c5e8	0.21071589
1	0x3d8fb3d1	0.07016719
2	0x3ed2abb9	0.4114664
3	0x3e4ab37e	0.19795033
4	0xbf8378ac	-1.0271201
5	0xbf4e7dc5	-0.8066066
6	0xbee8f233	-0.45497283
7	0xbf862a7f	-1.0481719
8	0xbf4ab685	-0.7918475
9	0xbfafea12	-1.3743308

L2.weight f4 [20, 10]
0	0x3f1c1a9d	0.6097811
1	0x3f2cd622	0.6751424
2	0xbfaed48b	-1.3658613
3	0x3f26922c	0.6506679
4	0xbe2948c2	-0.16531661
5	0x3e79c97e	0.2439327
6	0xbe7bf739	-0.24606027
7	0x3dbd7652	0.092510834
8	0x3f5dd52b	0.86653394
9	0xbeff61d6	-0.4987933
10	0x3e8807e5	0.26568523
11	0xbfd61f89	-1.6728374
12	0x3e41b992	0.18918446
13	0xbf8c400e	-1.0957048
14	0xbe012765	-0.12612684
15	0x3f44b01c	0.7683122
16	0xbea94583	-0.33060846
17	0x3e0884e8	0.1333195
18	0xbf687dbc	-0.90816855
19	0x3f844873	1.033461
20	0xbeaccb5a	-0.33748895
21	0xc0027909	-2.0386374
22	0x3ecd2d28	0.40073514
23	0xbf428da5	-0.7599738
24	0x3e7fb609	0.24971785
25	0x3ef43863	0.4769927
26	0x3e870562	0.26371294
27	0x3eb69300	0.35659027
28	0xbeaa8f31	-0.3331237
29	0x3fbcb458	1.4742537
30	0xbedb86b0	-0.42876196
31	0xbfcfc61a	-1.6232331
32	0x3e9cda6b	0.3063539
33	0xbf722cc4	-0.94599557
34	0x3e84bccf	0.259253
35	0x3e9322dd	0.28737536
36	0x3f9613b0	1.1724758
37	0xbf2b4e47	-0.66916317
38	0xbf647f53	-0.8925678
39	0x3f33a2df	0.70170397
40	0xbf0b9859	-0.5452934
41	0xbfbf7221	-1.4956704
42	0xbee8a039	-0.4543474
43	0xbfc0c1de	-1.5059164
44	0x3f6414c8	0.8909421
45	0xbec374d1	-0.3817506
46	0x3f4953b4	0.78643346
47	0xbef735a4	-0.48283112
48	0xbff7cd53	-1.9359535
49	0xbc80153c	-0.015635125
50	0xbf4b4267	-0.79398197
51	0xbfc65282	-1.5493929
52	0x3e663e81	0.22484781
53	0xbfcb2589	-1.587083
54	0xbca436d5	-0.020045677
55	0x3f01bcf5	0.5067895
56	0x3f34f51a	0.70686495
57	0x3e89b149	0.2689307
58	0xbf872562	-1.0558283
59	0x3f008c23	0.5021383
60	0xbe95d514	-0.29264128
61	0xbf0e2ba6	-0.5553535
62	0x3ef20435	0.47268835
63	0xbfd11847	-1.6335534
64	0x3f1cba28	0.6122155
65	0x3f34b972	0.7059547
66	0x3f275af8	0.6537318
67	0xbed277a7	-0.41106912
68	0xbff4b304	-1.9117131
69	0x3ea622d4	0.32448447
70	0xbd82b2c9	-0.06381757
71	0x3f10c995	0.5655759
72	0xbffb153e	-1.9615858
73	0x3e3264a7	0.17421208
74	0xbf5ba9ec	-0.85806155
75	0xbd8d5166	-0.06900291
76	0xbf1df946	-0.61708486
77	0x3d0cdfe8	0.03439322
78	0x3f1bd35c	0.60869384
79	0xbe92381f	-0.28558442
80	0xbf3551d2	-0.7082797
81	0x3f1bd80c	0.60876536
82	0x3ea0b0d4	0.3138491
83	0xbf048d44	-0.51778054
84	0xbe04f723	-0.129849
85	0x3bdc035b	0.006714267
86	0xbcbcdc61	-0.023054304
87	0xbd43454b	-0.047673505
88	0xbf9bb2be	-1.2163923
89	0x3f1c1005	0.60961944
90	0xbeb0ee66	-0.34556884
91	0x3ef01680	0.46892166
92	0xbeb30f9e	-0.34972852
93	0xbea2ec9e	-0.3182115
94	0x3eb93af8	0.36177802
95	0xbdce7c9a	-0.100823596
96	0xbf017a3d	-0.50577146
97	0x3e4f3bb5	0.2023762
98	0xbfc3f787	-1.5309914
99	0x3dd264a9	0.10273106
100	0xbf29087f	-0.6602859
101	0x3ee22ede	0.44176382
102	0xbd21a2a8	-0.03946176
103	0xbf85531b	-1.0415987
104	0xbe165034	-0.14679033
105	0x3ef13a7f	0.4711494
106	0x3f32484f	0.69641584
107	0x3e86470e	0.26226085
108	0xbf03f56e	-0.5154637
109	0x3ebcb99e	0.36860365
110	0xbf4bda27	-0.7962975
111	0xbf64e700	-0.8941498
112	0x3d0050e7	0.031327154
113	0xbf677fa8	-0.9042916
114	0xbcc2332c	-0.023706041
115	0xbe296c15	-0.16545136
116	0x3d7e6fd6	0.062118374
117	0xbe5c0022	-0.21484426
118	0xbf6ac246	-0.9170269
119	0xbeec366b	-0.46135268
120	0xbfa34fc0	-1.2758713
121	0x3eaf2222	0.3420573
122	0x3eaf83b1	0.3428016
123	0xbf714636	-0.9424776
124	0xbdcaa5fc	-0.0989494
125	0x3f07f3c1	0.53106314
126	0x3f32281a	0.6959244
127	0xbe77440b	-0.2414705
128	0xbcf741c9	-0.030182736
129	0x3f4ef1b3	0.80837554
130	0x3e5b3a48	0.21408951
131	0x3f06540e	0.5247201
132	0xbfc05665	-1.5026366
133	0x3c364a6f	0.011126145
134	0xbe8daf07	-0.27672598
135	0x3df96c6b	0.12178882
136	0xbe9a6945	-0.3015844
137	0x3f194749	0.598744
138	0x3f8d050c	1.1017165
139	0xbd9859ff	-0.074390404
140	0xbec9a71c	-0.39385307
141	0xbdca93e8	-0.09891492
142	0xbfe56455	-1.7921244
143	0x3c846cef	0.016165225
144	0xbf17cf48	-0.5930066
145	0xbd48e832	-0.049049564
146	0xbf18ee28	-0.597384
147	0x3dc7a1b6	0.09747641
148	0x3f3ef2fc	0.74589515
149	0xbf8caa82	-1.0989535
150	0x3ee77fcc	0.4521469
151	0x3e9cc9d1	0.30622724
152	0xbfd2cc65	-1.6468626
153	0x3e7dbfdc	0.2478022
154	0xbf83807a	-1.0273583
155	0x3e910e33	0.28331146
156	0xbf5972ed	-0.8494099
157	0x3bf19eae	0.0073736524
158	0x3f8cb507	1.0992745
159	0xbec570f2	-0.38562733
160	0xbe8801b8	-0.2656381
161	0xbf652900	-0.89515686
162	0xbe1e3e11	-0.15453364
163	0xbf3fb5c7	-0.74886745
164	0x3eaeef63	0.34167013
165	0x3ba045ec	0.004891148
166	0x3eb5ba63	0.35493764
167	0x3eb5fa04	0.3554231
168	0x3eb763ed	0.35818425
169	0xbdeeedeb	-0.11666473
170	0x3eaf2bab	0.34213004
171	0x3f397dfa	0.7245785
172	0xbeea5a0f	-0.45771834
173	0x3f43cda1	0.7648564
174	0xbf0ef0f0	-0.5583639
175	0x3da3b1ea	0.07992919
176	0xbf820f51	-1.0160924
177	0xbeafcfbe	-0.34338182
178	0x3fc6063f	1.5470656
179	0xbf101857	-0.5628714
180	0xbef37378	-0.47549033
181	0xbebb556b	-0.36588606
182	0x3eca0a27	0.3946087
183	0xbf394ed0	-0.72385883
184	0xbeb586d7	-0.35454437
185	0xbc31f96e	-0.010862691
186	0xbdfac29b	-0.12244149
187	0xbc5a9dbb	-0.01334327
188	0xbf52dba7	-0.8236641
189	0x3eb7992d	0.3585905
190	0xbf259ccc	-0.6469238
191	0x3dd7bb4d	0.10533772
192	0xbff3cc31	-1.9046689
193	0xbe5687bc	-0.20950216
194	0xbfb769bb	-1.4329141
195	0xbf2aa5d0	-0.6665926
196	0xbfbd83fa	-1.4805901
197	0x3e07a618	0.13246953
198	0x3ea3f4b3	0.32022628
199	0xbf2ddc3f	-0.67914194

L2.bias f4 [20]
0	0xbee8b01e	-0.45446867
1	0xbec0735d	-0.37588015
2	0xbea957f3	-0.33074912
3	0x3e6de27f	0.23230933
4	0x3d4ecc17	0.050487604
5	0x3e11cc6e	0.1423814
6	0x3df43a90	0.119252324
7	0xbee05159	-0.43812063
8	0x3e310ab4	0.17289239
9	0xbe6a941b	-0.2290806
10	0xbe9eac4c	-0.30990827
11	0xbf0cdee5	-0.5502761
12	0x3e22efe4	0.15911824
13	0xbf11b686	-0.56919134
14	0xbf1a7d39	-0.60347325
15	0x3cbeebc0	0.023305774
16	0xbebbd41a	-0.36685258
17	0xbce14f69	-0.027503686
18	0xbefd30a0	-0.4945116
19	0xbe7f43a9	-0.24928154

L3.weight f4 [40, 20]
0	0x3dfcb75e	0.12339662
1	0x3ed88e5d	0.42296115
2	0xbd7e08bb	-0.062020045
3	0xbf0103eb	-0.50396603
4	0x3dbf76d9	0.0934884
5	0x3eab8b58	0.33504748
6	0x3e13b067	0.14422761
7	0xbedb2d46	-0.42807978
8	0x3e233c2f	0.15940927
9	0xbdf2afca	-0.11849935
10	0xbefda1d6	-0.49537534
11	0x3fbcad06	1.4740303
12	0xbf69b70e	-0.91294944
13	0xbd035d67	-0.032071497
14	0xbeff6c20	-0.4988718
15	0xbf1c5b09	-0.6107641
16	0xbe50659e	-0.20351264
17	0xbf3e397a	-0.7430645
18	0x3f87a3f3	1.0596908
19	0x3f26282e	0.6490506
20	0xbf26ee9c	-0.6520784
21	0xbe1d422a	-0.15357271
22	0xbe943187	-0.28944036
23	0xbef621e0	-0.4807272
24	0xbf06617b	-0.52492493
25	0x3d8a57e6	0.067550465
26	0xbf1b56d4	-0.60679364
27	0xbe9d7bf0	-0.3075862
28	0xbf1b7231	-0.6072112
29	0x3e7570db	0.23968832
30	0xbf0cfbd3	-0.55071753
31	0xbe5b55bc	-0.21419424
32	0xbeae28c3	-0.34015474
33	0xbe1de0e9	-0.15417828
34	0x3de7df56	0.11321895
35	0xbf05e173	-0.52297133
36	0x3dfb68bf	0.12275838
37	0xbea523f7	-0.32254001
38	0x3ead6a62	0.33870226
39	0x3d0a3029	0.033737335
40	0x3f1b9b95	0.60784274
41	0xbf64d610	-0.89389133
42	0xbf3b91ad	-0.7326916
43	0xbe82a818	-0.2551887
44	0xbf47bd1f	-0.7802295
45	0xbf44a099	-0.7680755
46	0xbf122676	-0.57089937
47	0x3e3e6a08	0.18595135
48	0x3e7f7183	0.24945645
49	0xbe4b2c78	-0.19841182
50	0xbd3ffb8e	-0.04687076
51	0xbf143f3c	-0.5790899
52	0xbf33be5d	-0.70212346
53	0x3eed5263	0.4635192
54	0x3e27910e	0.16363928
55	0x3f10a0cb	0.5649535
56	0xbe8e322f	-0.27772662
57	0xbfbd62f6	-1.4795825
58	0xbf2ab0a6	-0.66675794
59	0x3c8cc47a	0.017183531
60	0xbf14f503	-0.5818636
61	0xbe163c95	-0.14671548
62	0x3d8fc2b6	0.0701956
63	0xbd76ddfa	-0.060270287
64	0x3cd331cc	0.025780581
65	0xbe0a49a9	-0.13504662
66	0xbe127596	-0.14302668
67	0xbdaa40ec	-0.08313164
68	0xbeb57107	-0.35437796
69	0xbe3869a7	-0.18009053
70	0xbd85368f	-0.06504547
71	0x3ed3fc8c	0.41403615
72	0xbc91fb82	-0.017820124
73	0xbf343288	-0.70389605
74	0x3ec2a5db	0.38017163
75	0xbe77294e	-0.2413685
76	0xbe11eb2b	-0.14249866
77	0xbf1c7cb8	-0.61127806
78	0x3d7fa73e	0.062415354
79	0xbdab64a7	-0.08368807
80	0xbeae0176	-0.3398549
81	0xbeb7e929	-0.35920075
82	0xbea4c165	-0.32178798
83	0xbec9fd8d	-0.39451256
84	0xbdebae71	-0.115078814
85	0xbe8a2465	-0.26980892
86	0xbea83053	-0.32849368
87	0xbf40bd09	-0.75288445
88	0xbe53dda0	-0.20690012
89	0xbeeba63e	-0.4602527
90	0xbdfe654f	-0.12421667
91	0xbe490031	-0.1962898
92	0xbcd3690e	-0.02580693
93	0xbe193892	-0.14962986
94	0x3ee96384	0.45583737
95	0xbe3a1b31	-0.18174435
96	0x3ba34932	0.004983091
97	0xbde716ff	-0.11283683
98	0x3cae7938	0.021298036
99	0xbe8c6de1	-0.2742758
100	0xbe0e9035	-0.13922198
101	0xbdc08507	-0.09400373
102	0xbe1e7b83	-0.15476803
103	0xbe41edeb	-0.18938415
104	0x3e5e2eb3	0.21697502
105	0x3c2a16b0	0.010381386
106	0xbdbec1b6	-0.09314291
107	0xbe7edb42	-0.24888328
108	0xbf0dfc50	-0.55463123
109	0xbe7f09dd	-0.24906106
110	0xbe3e8be8	-0.18608057
111	0x3f915f9d	1.1357304
112	0xbcd43888	-0.025905862
113	0xbe7eade9	-0.24871029
114	0xbdc406be	-0.095715985
115	0x3df8e19b	0.12152406
116	0x3ea562b4	0.32301867
117	0xbdea48aa	-0.11439641
118	0x3e479607	0.19490825
119	0xbdb295f8	-0.087200105
120	0xbebb06b7	-0.3652856
121	0xbe956d40	-0.29184914
122	0xbcc398ca	-0.023876566
123	0xbc9c96af	-0.01911482
124	0xbea9ed6a	-0.33188945
125	0xbdb0529b	-0.08609506
126	0xbe099807	-0.134369
127	0xbd0541e9	-0.03253356
128	0xbd93e409	-0.07221229
129	0x3ee02e3e	0.4378528
130	0xbf1d1d14	-0.61372495
131	0x3f309e5e	0.6899165
132	0xbeb3b81b	-0.351014
133	0xbea8c08b	-0.329594
134	0x3eee3008	0.4652102
135	0x3e1a09c5	0.1504279
136	0xbf243cd5	-0.6415532
137	0xbf0d10e1	-0.5510388
138	0x3f2a3b6b	0.66496915
139	0x3ed009b3	0.406324
140	0xbf1b5853	-0.6068165
141	0x3dfb535c	0.12271759
142	0xbe892878	-0.26788688
143	0xbe55a341	-0.20863058
144	0x3ee90b50	0.45516443
145	0x3d69ec9b	0.05711041
146	0x3ca9f005	0.020744333
147	0xbf929146	-1.1450584
148	0xbe238851	-0.1596997
149	0xbe292da2	-0.16521314
150	0xbee22f47	-0.44176695
151	0x3e9a6999	0.3015869
152	0x3d9c98a8	0.07646304
153	0xbe67d278	-0.22638881
154	0x3f1c0491	0.6094447
155	0x3ec8affe	0.3919677
156	0x3e4478bc	0.19186682
157	0xbd76c8ea	-0.0602502
158	0x3eabe478	0.33572745
159	0xbebacd0e	-0.3648457
160	0xbe20722c	-0.15668553
161	0xbe95e556	-0.29276532
162	0xbf64c1c9	-0.8935819
163	0xbf0962eb	-0.5366656
164	0xbeea3e46	-0.45750636
165	0xbe1f07ad	-0.15530272
166	0xbe70c5ba	-0.23512927
167	0xbdf0a309	-0.117498465
168	0xbe951219	-0.2911537
169	0xbe74a394	-0.23890525
170	0xbd43d8d0	-0.04781419
171	0xbf884e26	-1.0648849
172	0x3dbc7a4a	0.09203012
173	0x3eb9511e	0.361947
174	0x3dc01de8	0.09380704
175	0x3f7463f4	0.95465016
176	0xbe6351d1	-0.22199179
177	0xbe7c558c	-0.24642009
178	0x3de1761e	0.11008857
179	0xbf0f7230	-0.5603361
180	0xbe02d12a	-0.12775102
181	0xbf8c8178	-1.0977011
182	0xbfabb023	-1.3413128
183	0xbf94c26f	-1.1621836
184	0xbeb8ef98	-0.36120296
185	0xbeeee87c	-0.46661747
186	0xbf3ee7de	-0.7457255
187	0x3f715fde	0.94286907
188	0xbde64e28	-0.11245376
189	0xbe342098	-0.17590559
190	0xbf24de48	-0.64401674
191	0x3e0ff369	0.14057697
192	0xbf814e59	-1.0102035
193	0x3ebb2f83	0.36559686
194	0xbf81bc96	-1.0135677
195	0xbf7fd6bb	-0.9993703
196	0xbf1eb9ec	-0.62002444
197	0xbf102a98	-0.5631499
198	0xbeb30c3e	-0.34970278
199	0xbec9c92a	-0.39411288
200	0x3e3ef94b	0.18649785
201	0xbf86217d	-1.047897
202	0xbf0bf9c1	-0.5467797
203	0xbf39fa37	-0.7264742
204	0xbf1c01d4	-0.6094029
205	0xbf686b1e	-0.9078845
206	0xbf2acb32	-0.667163
207	0xbdea8a75	-0.1145219
208	0x3eea8e1c	0.45811546
209	0xbc7df0f4	-0.015499342
210	0xbeb8ddb5	-0.3610665
211	0xbe9e98d4	-0.30975974
212	0x3e14436f	0.14478849
213	0xbf0ba41f	-0.54547304
214	0x3e0c08ac	0.13675183
215	0x3e7d98cf	0.24765323
216	0xbf5720f5	-0.84034663
217	0xbf27e386	-0.6558155
218	0xbe0f373c	-0.13985914
219	0x3f8568b8	1.0422583
220	0xbf329d17	-0.6977095
221	0xbef1838c	-0.47170675
222	0xbf176904	-0.59144616
223	0xbf43de43	-0.7651102
224	0xbf875054	-1.0571389
225	0xbf1ff08d	-0.62476426
226	0xbf67098b	-0.90248936
227	0x3e938222	0.2881022
228	0xbf52d120	-0.8235035
229	0x3bad2b40	0.005284697
230	0x3f1da386	0.6157764
231	0x3f814f33	1.0102295
232	0x3f0ddaff	0.55412287
233	0xbe945e54	-0.28978217
234	0xbea28c4f	-0.31747672
235	0x3e8f5cba	0.28000432
236	0x3df81fb5	0.12115423
237	0x3e2d79a2	0.1694093
238	0x3e849d8e	0.25901455
239	0xbf093e6d	-0.5361088
240	0xbe1e49b4	-0.15457803
241	0x3e4af476	0.19819817
242	0xbdaade07	-0.083431296
243	0xbf3b536b	-0.7317416
244	0xbed81f45	-0.42211357
245	0xbf0d94f3	-0.55305403
246	0xbe245ac9	-0.16050257
247	0x3ec0b472	0.3763767
248	0xbe3f81f2	-0.18701914
249	0xbe0d04ee	-0.13771412
250	0xbecc19e3	-0.398635
251	0x3ec33da8	0.38132977
252	0x3e0c50d4	0.13702708
253	0xbece6830	-0.40313864
254	0x3ea0d1c9	0.31410053
255	0xbf3c081d	-0.7344988

L3.bias f4 [40]
0	0xbf6a6c96	-0.9157194
1	0xbcbd6c20	-0.023122847
2	0xbf41060a	-0.7539984
3	0xbf253c31	-0.6454497
4	0xbe80d8e6	-0.2516548
5	0xbf993a92	-1.1970999
6	0xbf809e32	-1.0048277
7	0xbf920771	-1.1408521
8	0xbf5520bb	-0.8325307
9	0xbedcc0d1	-0.43115857
10	0xbf5d4e10	-0.8644724
11	0xbf5f20bc	-0.87159324
12	0xbe5f8e0b	-0.21831529
13	0x3e9e49d1	0.30915692
14	0xbe99feaf	-0.3007712
15	0xbf7a8c68	-0.9787049
16	0x3f0d1e43	0.551243
17	0xbe61e6b1	-0.22060658
18	0xbe858bcc	-0.2608322
19	0xbed9e6f1	-0.42559007
20	0xbf72840b	-0.9473273
21	0xbedd48a8	-0.43219495
22	0xbf38f04b	-0.7224166
23	0xbf8674dd	-1.0504414
24	0xbd2f463e	-0.042791598
25	0x3f129392	0.57256424
26	0xbedffb1b	-0.43746266
27	0xbfb327e7	-1.3996552
28	0x3e193d86	0.14964876
29	0xbec0915a	-0.37610894
30	0x3e0b7389	0.13618292
31	0xbfb2730e	-1.3941362
32	0xbe8fa979	-0.28058985
33	0x3dfd112a	0.123567894
34	0xbeaf2c01	-0.3421326
35	0xbecfbef0	-0.4057536
36	0xbf0e881d	-0.5567644
37	0xbfbae6be	-1.4601667
38	0xbf1f49f6	-0.6222223
39	0xbe498079	-0.19677915

L4.weight f4 [20, 40]
0	0xbe6910f0	-0.22760367
1	0xbd8922f7	-0.06696122
2	0xbe6ab78b	-0.22921579
3	0x3dea0189	0.11426074
4	0x3f746b92	0.9547664
5	0x3df5c2ed	0.1200007
6	0x3e43c9ae	0.19119903
7	0x3f032d1e	0.5124072
8	0x3f3009ed	0.68765146
9	0x3f561b91	0.83635813
10	0xbeca13d2	-0.39468247
11	0x3f6b7b39	0.919849
12	0x3db70ed3	0.08938374
13	0xbeaba730	-0.3352599
14	0xbd2a8c28	-0.04163757
15	0x3eba87dd	0.3643178
16	0x3ea68cf5	0.32529417
17	0x3ed43c31	0.41452172
18	0xbe62ae7c	-0.22136873
19	0xbeb5921f	-0.35463044
20	0x3f1d04bf	0.61335367
21	0x3df4c3de	0.11951421
22	0xbd023fb5	-0.031799037
23	0x3f1c5866	0.61072385
24	0xbe7f7af4	-0.24949247
25	0xbda88153	-0.08227792
26	0x3e9ae0fa	0.30249768
27	0x3daa9866	0.08329849
28	0xbf71f868	-0.9451966
29	0x3ea7eeb6	0.3279931
30	0xbf237768	-0.63854074
31	0x3ea1e453	0.3161951
32	0x3f210298	0.6289458
33	0xbe81b2de	-0.25331777
34	0x3edf30aa	0.43591815
35	0xbe1e1f7f	-0.15441702
36	0x3d356fcf	0.044296082
37	0x3f98ae46	1.1928184
38	0x3ed58817	0.4170539
39	0x3e60af90	0.21941972
40	0x3cf7abe5	0.030233333
41	0xbe9e6159	-0.30933645
42	0x3f127c57	0.5722098
43	0xbefde2f2	-0.49587208
44	0xbedc6e1a	-0.4305275
45	0xbe82e05b	-0.25561795
46	0x3e9b2549	0.30301884
47	0xbe6b72a9	-0.22992958
48	0xbe60a36a	-0.21937338
49	0x3fa1e000	1.2646484
50	0x3e8b9629	0.27263
51	0xbe445e87	-0.19176684
52	0xbdb21136	-0.08694689
53	0xbf2fb089	-0.68628746
54	0x3f06fda9	0.52730805
55	0x3ebc6152	0.36793
56	0x3f7a0dd0	0.97677326
57	0xbde68d07	-0.112573676
58	0xbe89616e	-0.26832145
59	0x3f71491a	0.9425217
60	0x3e74cbfd	0.2390594
61	0x3e1f036d	0.1552865
62	0xbbfe064d	-0.007752216
63	0xbe94b314	-0.29042876
64	0xbdd375db	-0.103252135
65	0x3f1bce26	0.6086143
66	0xbd7e5cbb	-0.062100153
67	0xbd9d75ae	-0.07688461
68	0xbf145213	-0.57937735
69	0xbead5457	-0.3385341
70	0xbec7e55f	-0.39042184
71	0xbf370787	-0.7149586
72	0xbfa19754	-1.2624307
73	0x3f031f9a	0.51220095
74	0xbe8a8958	-0.2705791
75	0xbdef0af2	-0.116720095
76	0x3d64e444	0.055881754
77	0x3f25636a	0.6460482
78	0xbd865dd2	-0.065608636
79	0x3e5741c3	0.2102118
80	0xbeb1a682	-0.34697348
81	0xbdc6a230	-0.096989036
82	0x3ecddcea	0.40207607
83	0xbe07e5b7	-0.13271223
84	0xbd916775	-0.07099811
85	0xbde97d24	-0.11400822
86	0xbdf6a86c	-0.12043843
87	0x3d08055e	0.033208244
88	0x3f188eff	0.59593195
89	0xbf1183a1	-0.56841475
90	0x3e6dde47	0.23229323
91	0x3f64e87b	0.8941724
92	0x3d44111c	0.04786788
93	0x3dc6b557	0.097025566
94	0xbb98723d	-0.00465229
95	0x3e1c3eb7	0.15258299
96	0xbf890ff2	-1.0707991
97	0xbc54ed4c	-0.012996029
98	0x3dd812be	0.1055045
99	0x3e58bbc6	0.2116538
100	0xbda232de	-0.079198584
101	0xbd774e41	-0.060377363
102	0xbe389efc	-0.18029398
103	0xbe6c0327	-0.23048078
104	0xbefb5fb1	-0.49096444
105	0xbf38446f	-0.7197942
106	0xbdda548c	-0.10660657
107	0xbd68f525	-0.056874413
108	0xbf2b4902	-0.66908276
109	0xbe027612	-0.12740353
110	0xbf0494de	-0.51789653
111	0xbe57bfd4	-0.2106927
112	0xbd688de2	-0.056775935
113	0xbf063b4c	-0.5243423
114	0xbe0e8ee2	-0.13921693
115	0xbe8d6df7	-0.2762296
116	0x3d4f0d93	0.050550055
117	0x3e467f91	0.193846
118	0x3e7d49a6	0.24735126
119	0xbeb05cfe	-0.34445947
120	0x3da89a0d	0.08232508
121	0xbf3e23f4	-0.7427361
122	0x3f676626	0.9039024
123	0xbe8b568e	-0.27214473
124	0xbe5f7bb2	-0.2182453
125	0x3e0b9259	0.13630046
126	0x3ebe09c1	0.37116817
127	0x3c3eca3c	0.011644896
128	0xbddbe275	-0.107365526
129	0x3ea37bde	0.3193044
130	0x3f2696c4	0.650738
131	0x3e1e8442	0.1548014
132	0xbf0eebba	-0.5582844
133	0xbf2b008d	-0.66797715
134	0x3f1bedda	0.6090981
135	0x3e8eacf3	0.27866325
136	0x3f551614	0.83236814
137	0xbe12b240	-0.1432581
138	0xbf378d84	-0.7170031
139	0xbf2bc6bf	-0.6710014
140	0x3cbe28bf	0.023212789
141	0xbeaa9bb0	-0.33321905
142	0xbdabd22d	-0.08389697
143	0x3f295eba	0.66160166
144	0xbf8c6839	-1.0969306
145	0x3f1efc15	0.62103397
146	0xbdb5d3fe	-0.08878325
147	0x3d2c6c05	0.042095203
148	0xbed78737	-0.42095348
149	0xbe480d96	-0.19536433
150	0xbec889a5	-0.39167514
151	0x3da8572c	0.08219752
152	0xbf20db3b	-0.6283452
153	0x3f225d42	0.6342355
154	0x3e11748f	0.1420462
155	0x3e8c087b	0.2735022
156	0x3e0237d1	0.12716605
157	0x3f298276	0.6621469
158	0x3f250141	0.6445504
159	0xbed266cd	-0.41094056
160	0x3e6607f7	0.22463976
161	0x3e51eb98	0.20500028
162	0xbe8171d5	-0.2528216
163	0x3ec95339	0.39321306
164	0xbd861039	-0.06546063
165	0x3e389e07	0.18029033
166	0x3f09998d	0.53749925
167	0x3e00ed8f	0.12590621
168	0x3f0c95f4	0.5491631
169	0x3f309305	0.68974334
170	0x3dca5fac	0.09881529
171	0x3e85a85a	0.26105005
172	0x3dc38367	0.095465474
173	0xbe8fa9c5	-0.2805921
174	0x3f848e4e	1.0355928
175	0xbdfb15b7	-0.12260001
176	0x3f5806c4	0.84385324
177	0x3d7e8758	0.062140793
178	0xbe895130	-0.26819754
179	0xbe280fee	-0.16412327
180	0xbd0e3cb8	-0.034725875
181	0x3afaaf70	0.0019125771
182	0x3eec3494	0.46133864
183	0x3c8c0f40	0.017097116
184	0xbe6ed3f3	-0.2332304
185	0xbe259e0a	-0.16173568
186	0x3df452eb	0.11929878
187	0x3f405167	0.7512421
188	0xbde423d0	-0.11139643
189	0x3f226b9a	0.63445437
190	0xbeacebc4	-0.33773625
191	0x3e5b2fec	0.21405
192	0xbe48deb8	-0.1961621
193	0xbd4f7251	-0.05064613
194	0xbdfaa354	-0.122381836
195	0xbe4371e8	-0.1908642
196	0x3ef8fa5c	0.4862851
197	0xbeccf881	-0.40033343
198	0x3eeafbae	0.4589514
199	0xbe072fe7	-0.13201867
200	0xbf09be9f	-0.5380649
201	0x3d66c525	0.056340355
202	0x3e26bb09	0.16282286
203	0x3df6359d	0.12021945
204	0xbdaf6fde	-0.08566259
205	0xbdfc4c4b	-0.12319239
206	0x3e9645fd	0.29350272
207	0x3e17a24d	0.14808007
208	0xbf0b896a	-0.5450655
209	0x3f21a8f2	0.63148415
210	0x3e589606	0.2115098
211	0xbd81fac9	-0.063466616
212	0xbd5c68b5	-0.053810794
213	0xbecf3c25	-0.40475574
214	0xbeab1370	-0.33413267
215	0x3e862e3c	0.2620715
216	0xbefcb98d	-0.49360314
217	0x3db4634c	0.08808002
218	0xbe01793c	-0.12643903
219	0x3f7f56b8	0.997417
220	0x3fbeebf6	1.491576
221	0x3e3636e0	0.1779437
222	0xbeb4ecdd	-0.35336962
223	0x3e85610d	0.26050606
224	0xbd1fa35e	-0.03897416
225	0xbe89021b	-0.2675942
226	0x3d8a50e2	0.067537084
227	0xbebde2ed	-0.37087193
228	0xbe469f44	-0.19396693
229	0x38fc6fb3	0.00012037102
230	0xbe5758b9	-0.21029939
231	0xbe293263	-0.16523127
232	0x3c13a21d	0.009010819
233	0x3dd2e3f7	0.10297387
234	0x3c7613ac	0.015019339
235	0xbe1851cf	-0.14874958
236	0x3e3b0e79	0.1826724
237	0xbeddf2fb	-0.43349442
238	0x3e057008	0.13031018
239	0x3f83efeb	1.0307592
240	0x3ea41360	0.32046032
241	0x3ee858a3	0.45380124
242	0x3f1d3167	0.61403507
243	0xbdbf47e5	-0.09339885
244	0xbe606707	-0.21914302
245	0xbcbd6f9d	-0.02312451
246	0x3bf7191b	0.0075408346
247	0x3ebb8da5	0.36631504
248	0x3d362371	0.044467393
249	0x3e10f0ea	0.14154401
250	0x3eed3e54	0.46336615
251	0x3e3ccee3	0.18438296
252	0x3ef92599	0.48661497
253	0xbf2b6434	-0.6694977
254	0x3ec7dd0b	0.3903583
255	0x3d5c541c	0.05379115

L4.bias f4 [20]
0	0xbf4685ad	-0.77547723
1	0x3e51e8a8	0.20498908
2	0x3d876894	0.066117436
3	0x3de25540	0.110514164
4	0x3de4e8ca	0.111772135
5	0x3e02cc9e	0.12773368
6	0x3e7f933a	0.24958506
7	0x3d73c280	0.05951166
8	0x3e41c4c2	0.18922713
9	0xbf76d59c	-0.9641969
10	0x3d8f86c9	0.0700813
11	0xbf9c5602	-1.2213748
12	0xbefad7e8	-0.48992848
13	0x3e7795a9	0.24178185
14	0xbe1dd99b	-0.15415041
15	0xbecc3f26	-0.39891928
16	0xbf1b368c	-0.60630107
17	0x3f5de59d	0.8667849
18	0xbf0b4413	-0.5440075
19	0xbf0720b2	-0.52784264

L5.weight f4 [10, 20]
0	0x3e463f32	0.19360045
1	0xbdfe62c7	-0.12421184
2	0xbf219e4f	-0.63132185
3	0xbee84d4e	-0.4537148
4	0xbf4684d0	-0.77546406
5	0xbe6450aa	-0.22296396
6	0xbd102886	-0.035194896
7	0xbea2f1ae	-0.31825012
8	0xbe86e2d0	-0.2634492
9	0x3f0242cc	0.50883174
10	0x3c53aa06	0.012918955
11	0x3f61349a	0.8797089
12	0xbe89afee	-0.26892036
13	0xbe197b51	-0.14988448
14	0xbe064576	-0.13112435
15	0x3dfedf0d	0.12444887
16	0x3f812420	1.008915
17	0xbf5b1604	-0.8558047
18	0xbcb71ec0	-0.02235353
19	0xbeb82875	-0.35968366
20	0xbee4ec63	-0.447116
21	0xbf2a2cc5	-0.6647456
22	0xbed8bce8	-0.42331624
23	0xbf3a1ff0	-0.7270498
24	0x3dfe7e7e	0.1242647
25	0x3dbe339c	0.092871875
26	0xbea6bf91	-0.3256803
27	0xbf98466a	-1.1896489
28	0xbfa5aa89	-1.2942668
29	0x3f988f02	1.1918643
30	0xbf2a201a	-0.66455233
31	0x3e3fa22f	0.18714212
32	0xbe15fb19	-0.14646567
33	0x3d5d4e37	0.05402967
34	0xbe808cf4	-0.2510754
35	0x3ea28372	0.3174091
36	0x3df5e14b	0.12005862
37	0xbf6802f4	-0.90629506
38	0x3e7399d9	0.23789157
39	0x3eb6b536	0.35685128
40	0xbedc5966	-0.43036956
41	0xbf663ce5	-0.8993667
42	0xbddbf014	-0.10739151
43	0xbf4ea55b	-0.8072106
44	0xbdd2b22e	-0.10287891
45	0xbdce1848	-0.10063225
46	0xbf34bcdb	-0.7060067
47	0xbf89552c	-1.0729117
48	0xbd25903c	-0.040420756
49	0xbf66316f	-0.8991918
50	0xbfa905d8	-1.3204908
51	0xbf6dadad	-0.92843133
52	0xbf975112	-1.1821616
53	0x3cfcd229	0.03086193
54	0xbe041d68	-0.12901843
55	0xbdffc7f3	-0.12489309
56	0xbe800191	-0.25001195
57	0xbe3ca84c	-0.18423575
58	0xbee9e8c5	-0.45685402
59	0xbf3aaad6	-0.72916925
60	0xbf178e2b	-0.59201306
61	0xbec2193c	-0.37909877
62	0xbeea3587	-0.45743963
63	0xbf521bf8	-0.82073927
64	0xbea7f416	-0.3280341
65	0xbe9d026a	-0.30665904
66	0xbf4cefec	-0.8005359
67	0xbf16816d	-0.5879124
68	0xbf1e6056	-0.61865747
69	0xbe29c35e	-0.16578433
70	0xbda272ac	-0.07932028
71	0x3fb1941f	1.3873328
72	0xbde47edc	-0.11157009
73	0x3d0a53f3	0.033771466
74	0x3c592796	0.013254067
75	0x3de1c779	0.110243745
76	0xbb36e150	-0.0027905293
77	0xbeafa4e8	-0.343055
78	0x3d88b3b4	0.06674901
79	0x3d82db27	0.06389456
80	0x3ee1f253	0.4413019
81	0xbe809b08	-0.2511828
82	0x3dbff18d	0.09372244
83	0xbe04e390	-0.12977433
84	0xbef95df2	-0.48704487
85	0xbe7861f8	-0.24256122
86	0xbebd2094	-0.36938918
87	0xbf0d0e92	-0.5510036
88	0xbecb4d41	-0.39707378
89	0x3f2e509d	0.68091756
90	0xbe090b48	-0.1338321
91	0x3ee65854	0.44989264
92	0x3b49c7c6	0.003078924
93	0xbdea7de0	-0.1144979
94	0x3e22c83b	0.15896694
95	0x3f03c131	0.5146666
96	0x3dc42ff3	0.09579458
97	0xbcf2bc32	-0.029630754
98	0xbeea24d4	-0.45731223
99	0xbe2b0d66	-0.1670433
100	0xbc8baacf	-0.017049221
101	0xbe8ac981	-0.2710686
102	0xbee61b75	-0.44942823
103	0xbf13c27a	-0.5771862
104	0x3d11ce43	0.035597097
105	0x3e654efd	0.22393413
106	0xbe520428	-0.20509398
107	0xbe1cef86	-0.15325746
108	0x3e297b40	0.16550922
109	0x3f6323fa	0.8872677
110	0xbd64e16a	-0.055879034
111	0x3ee0a0d5	0.43872705
112	0xbe6da695	-0.23208077
113	0xbe7fdde9	-0.24986996
114	0x3e2502e7	0.16114388
115	0xbea61d25	-0.3244411
116	0xbe035ef6	-0.12829193
117	0x3dc3e2d7	0.09564751
118	0xbe33f7ea	-0.1757504
119	0x3e29a22c	0.1656577
120	0x3e729860	0.23690939
121	0xbf8002f7	-1.0000905
122	0xbe828d91	-0.25498632
123	0xbbb9fe27	-0.0056760493
124	0xbee09532	-0.43863827
125	0xbe7c5397	-0.24641262
126	0xbf14f8b5	-0.58191997
127	0xbeb005e5	-0.34379497
128	0xbe62c032	-0.22143629
129	0xbf27c935	-0.6554139
130	0xbd9d12dc	-0.07669613
131	0x3d9e06e2	0.077161565
132	0xbf542c92	-0.8288051
133	0xbd2c976b	-0.04213659
134	0x3e4ed577	0.20198618
135	0x3ed2ece3	0.41196355
136	0x3ef059b2	0.46943432
137	0xbd2d5466	-0.042316817
138	0xbef67aea	-0.4814065
139	0x3eb9e6f4	0.36309016
140	0xbee5938a	-0.44839126
141	0xbe579bcf	-0.2105553
142	0xbeddfe78	-0.43358207
143	0xbe0dd750	-0.13851666
144	0x3dcbd0d2	0.09951939
145	0xbf88efaf	-1.0698146
146	0xbe605b33	-0.2190979
147	0xbca2efee	-0.019889798
148	0xbf6e516e	-0.93093
149	0x3e2ce2f8	0.16883457
150	0xbed5a2be	-0.41725725
151	0x3d6bce26	0.057569645
152	0xbe85b45e	-0.26114172
153	0xbf39aef1	-0.72532564
154	0xbee828d7	-0.45343658
155	0xbfeb99e0	-1.8406334
156	0xbcc05e91	-0.023482593
157	0xbcece846	-0.02891935
158	0x3ecd9508	0.40152764
159	0xbd8d71b0	-0.0690645
160	0x3e99b3b8	0.30019927
161	0xbec36480	-0.38162613
162	0xbf17e629	-0.5933557
163	0xbeaa12a3	-0.33217344
164	0xbecf1b69	-0.404506
165	0xbf03bbc4	-0.5145838
166	0x3e7d5cf8	0.24742496
167	0xbed24143	-0.41065416
168	0xbef2734c	-0.4735359
169	0xbdb14b5e	-0.08656953
170	0xbdf3974c	-0.11894092
171	0x3edb49c7	0.42829725
172	0xbe7d3323	-0.24726538
173	0xbe3d0117	-0.18457447
174	0x3ca05c89	0.019575374
175	0x3e58307a	0.21112242
176	0x3f23036a	0.63677084
177	0x3d1fea30	0.039041698
178	0x3e284cff	0.16435622
179	0xbe3ef721	-0.1864896
180	0x3db57300	0.08859825
181	0xbebafd85	-0.36521545
182	0xbf23f80c	-0.64050364
183	0xbef1e6fb	-0.47246537
184	0xbedf1b9d	-0.43575755
185	0xb9c90b79	-0.00038346255
186	0xbee8ec6e	-0.45492882
187	0xbe5616e4	-0.2090717
188	0xbebf135f	-0.37319466
189	0x3f0a15db	0.539396
190	0xbec0bd05	-0.3764421
191	0x3ee8dbc4	0.45480168
192	0xbf1110f2	-0.5666648
193	0x3e022474	0.12709218
194	0xbf01f3b0	-0.5076246
195	0x3fa3befb	1.2792658
196	0x3f07e1fa	0.5307919
197	0xbf050d9f	-0.5197391
198	0xbd827307	-0.06369596
199	0xbf0744d0	-0.52839375

L5.bias f4 [10]
0	0xbf533d52	-0.8251544
1	0x3e935bc8	0.2878096
2	0x3fe90974	1.820601
3	0x3e07ea02	0.1327286
4	0xbf7034c4	-0.93830514
5	0xbf5518e6	-0.83241117
6	0xbead472a	-0.33843356
7	0x3e760a27	0.2402731
8	0xbf9744ab	-1.1817831
9	0xbfce558a	-1.6119854

L6.weight f4 [1, 10]
0	0xbe15bad0	-0.14622045
1	0xbe4ef9ee	-0.20212528
2	0xbed8aa4d	-0.4231743
3	0xbe18e578	-0.14931285
4	0x3d99993d	0.07499931
5	0x3d96265a	0.07331534
6	0x3cc202e6	0.023683023
7	0xbd9a459d	-0.07532809
8	0x3dc72582	0.09723951
9	0xbe07e45c	-0.13270706
