Saved_Models_All_Samples_Limited_Features/target_Hardness_features_5_epochs_18.pth (torch_old, 10514 bytes, 11 tensors)

L1.weight f4 [10, 5]
0.31440634 -0.63285655 0.8221512 0.55707306 0.32681766 -0.23626742 -0.2152948 0.93241006
1.420585 -0.23519555 -0.4114274 -0.060542222 -0.22113082 -0.8710362 -0.5714846 0.5402987
-0.06795894 1.1940378 0.63586116 0.2321152 0.104911536 0.14421836 -1.1431532 0.7919302
0.07388727 0.13963239 0.2263793 0.7288562 -0.1477424 -0.6411615 -0.21448834 0.17243479
-0.92368263 0.44854602 0.16130812 -0.28321898 -0.16573155 0.19429009 0.21931256 -0.20331627
-0.018579274 -0.5082532 0.91475224 0.80012435 -0.08409052 0.35770294 -0.19662577 1.1626345
-0.31767944 -0.49432382
00000000: def9 a03e e302 22bf 8078 523f 579c 0e3f
00000010: a554 a73e 16f0 71be 3d76 5cbe 6db2 6e3f
00000020: bbd5 b53f 1ad7 70be 9da6 d2be 1ffb 77bd
00000030: 1e70 62be 3afc 5ebf d14c 12bf 0451 0a3f
00000040: 0f2e 8bbd 3bd6 983f ccc7 223f 9baf 6d3e
00000050: dcdb d63d faad 133e d852 92bf f0bb 4a3f
00000060: 3652 973d cbfb 0e3e facf 673e 5296 3a3f
00000070: c949 17be 2923 24bf d5a2 5bbe bf92 303e
00000080: 7776 6cbf d3a7 e53e f52d 253e 1402 91be
00000090: 88b5 29be fbf3 463e 7993 603e 2432 50be
000000a0: 9033 98bc e21c 02bf 342d 6a3f f3d4 4c3f
000000b0: a737 acbd d724 b73e 4458 49be 35d1 943f
000000c0: e1a6 a2be 0318 fdbe

L1.bias f4 [10]
0.29697588 0.1436316 0.41960773 0.110073164 -0.46114084 -0.40289363 -0.35232174 -0.86240876
-0.64793384 -1.0871997
00000000: 390d 983e 2a14 133e d3d6 d63e 0a6e e13d
00000010: a71a ecbe 1348 cebe 8463 b4be d2c6 5cbf
00000020: fede 25bf 5c29 8bbf

L2.weight f4 [20, 10]
0.30128413 0.6617956 -0.94035125 0.56402314 0.12661004 0.20080401 -0.27085707 0.13285743
0.6146858 -0.31760123 0.020651018 -0.65002024 -0.058901016 -0.6176958 0.18921918 0.42567378
-0.15930447 0.015223795 -0.06200835 0.7282659 -0.46752682 -1.6891086 0.11774267 -0.61802894
0.7049777 -0.41594413 0.3187506 -0.15127575 -0.3290903 0.70146435 -0.3897665 -1.6901019
0.35405785 -0.623939 0.62760454 0.18081516 0.37507746 -0.72723776 -0.78410804 0.40028596
-0.6972567 -0.9106216 -0.16836227 -1.0399019 0.74988055 -0.43637347 0.282402 -0.027960837
-0.6262083 -0.07832719 -0.79063606 -1.2435144 0.3803918 -0.95386463 0.17989105 0.3052544
0.48610952 0.21093753 -0.58492136 -0.002745766 0.1592265 -0.70608467 -0.022400789 -1.2133613
0.52907556 0.5668082 0.056503136 -0.5339074 -0.938721 0.19294982 0.23546086 0.5533772
-1.4690784 0.47451285 -0.721903 0.1687191 -0.7796036 -0.11388578 0.53391623 0.24590039
-0.6570932 0.20317775 0.487149 -1.0129877 0.14217375 0.5905875 0.120121256 -0.022828527
-0.6475216 1.112147 -0.16268347 0.089438885 -0.25025335 -0.030449398 -0.12511879 0.15361762
-0.28934062 0.1422836 -0.84474653 -0.050659932 -0.23465313 0.22953065 0.030576358 -0.7132904
0.25984323 0.106818445 0.48421305 0.32435235 -0.81867087 0.046561554 -0.36361158 -0.4829857
0.030939195 -0.47773907 -0.40633133 0.08887597 -0.34629562 -0.20732772 -0.24190451 -0.33770496
-0.7626562 0.15162784 0.5756325 -0.54129434 0.02149476 0.644727 0.16804314 -0.3934966
-0.091516 0.7291745 0.26180586 0.42790908 -1.4055854 0.31820306 -0.24208501 0.066637345
-0.23229216 0.2742707 0.6201113 0.05258515 -0.45123783 -0.12477969 -1.2588975 -0.07198223
-0.07612591 0.0023489946 -0.37829548 0.10571263 0.66655624 -0.83539444 0.28203082 0.09578881
-1.248918 0.28962475 -1.1711568 0.5002558 -1.1044472 0.43860483 0.89520216 0.25005955
-0.40880865 -1.1118711 -0.045983788 -0.80059373 0.6309255 0.01191502 0.4426276 0.23056634
0.028454095 0.031540588 0.3632756 0.27041435 -0.63109064 0.78980905 -0.34581026 -0.16871376
-0.5393496 -0.46361363 0.5521836 -0.30484888 0.08082395 -0.3635811 0.022205591 0.09413882
-0.49437037 -0.47680393 -0.3234072 0.0023458365 -0.2907481 -0.086518414 -0.30707023 0.11526167
-1.4031037 -0.055767674 -0.7112944 -0.4316705 -0.53987974 0.100750364 0.18679467 -0.23910311
00000000: ea41 9a3e 706b 293f dcba 70bf d263 103f
00000010: 10a6 013e 919f 4d3e c7ad 8abe c70b 083e
00000020: 0c5c 1d3f a19c a2be 532c a93c ba67 26bf
00000030: 3142 71bd 5021 1ebf acc2 413e eaf1 d93e
00000040: b620 23be 396d 793c 78fc 7dbd a26f 3a3f
00000050: ad5f efbe b634 d8bf 1223 f13d 2537 1ebf
00000060: 6b79 343f a1f6 d4be 4733 a33e 08e8 1abe
00000070: 867e a8be 2b93 333f 7a8f c7be 4255 d8bf
00000080: 1247 b53e 77ba 1fbf b1aa 203f 9c27 393e
00000090: 270a c03e 412c 3abf 4ebb 48bf 48f2 cc3e
000000a0: 6a7f 32bf 7f1e 69bf 2967 2cbe 811b 85bf
000000b0: 2cf8 3f3f 586c dfbe ff96 903e 200e e5bc
000000c0: 304f 20bf 016a a0bd 2067 4abf 7b2b 9fbf
000000d0: b7c2 c23e 7930 74bf 5c35 383e 4e4a 9c3e
000000e0: 59e3 f83e 0200 583e 68bd 15bf 4ff2 33bb
000000f0: 460c 233e f7c1 34bf dc81 b7bc 6c4f 9bbf
00000100: 7f71 073f 581a 113f d56f 673d 28ae 08bf
00000110: 0550 70bf a394 453e a71c 713e 21aa 0d3f
00000120: c30a bcbf 59f3 f23e a3ce 38bf b3c4 2c3e
00000130: 1a94 47bf f33c e9bd bcae 083f 50cd 7b3e
00000140: 4337 28bf d40d 503e 986b f93e 95a9 81bf
00000150: ff95 113e be30 173f 2202 f63d e402 bbbc
00000160: fac3 25bf d55a 8e3f 7f96 26be bc2b b73d
00000170: 3521 80be 0471 f9bc 241f 00be f04d 1d3e
00000180: 7424 94be cbb2 113e 4f41 58bf ca80 4fbd
00000190: e948 70be 150a 6b3e 457b fa3c 339a 36bf
000001a0: 2c0a 853e a1c3 da3d c6ea f73e 8311 a63e
000001b0: 6a94 51bf 54b7 3e3d 4c2b babe e749 f7be
000001c0: 3274 fd3c 379a f4be a90a d0be 9b04 b63d
000001d0: a94d b1be b84d 54be d1b5 77be aae7 acbe
000001e0: 703d 43bf 5444 1b3e a75c 133f 4492 0abf
000001f0: c715 b03c d40c 253f 8013 2c3e 6378 c9be
00000200: be6c bbbd 2eab 3a3f 6b0b 863e e616 db3e
00000210: 39ea b3bf 83eb a23e 22e5 77be 2979 883d
00000220: ffdd 6dbe 366d 8c3e 9dbf 1e3f 8763 573d
00000230: a508 e7be 7e8c ffbd 8e23 a1bf 6b6b 93bd
00000240: e7e7 9bbd 97f1 193b f2af c1be dd7f d83d
00000250: 6ea3 2a3f 69dc 55bf 5866 903e ec2c c43d
00000260: 8cdc 9fbf b249 943e 77e8 95bf c410 003f
00000270: 875e 8dbf d090 e03e f82b 653f ce07 803e
00000280: 5e4f d1be cb51 8ebf 7f59 3cbd b6f3 4cbf
00000290: 5584 213f 3737 433c 16a0 e23e 9519 6c3e
000002a0: 9018 e93c b430 013d 42ff b93e c073 8a3e
000002b0: 288f 21bf ed30 4a3f 0b0e b1be 4dc3 2cbe
000002c0: d112 0abf c45e edbe e85b 0d3f 2715 9cbe
000002d0: 0787 a53d 4d27 babe 80e8 b53c dbcb c03d
000002e0: 1d1e fdbe a51f f4be a195 a5be 9bbc 193b
000002f0: efdc 94be 9130 b1bd 4f38 9dbe 4f0e ec3d
00000300: e798 b3bf a56c 64bd 6417 36bf ea03 ddbe
00000310: 8f35 0abf 3556 ce3d 1a47 3f3e 72d7 74be

L2.bias f4 [20]
-0.49236298 -0.23448409 0.22521988 0.16216448 -0.1753749 -0.10521803 0.23418894 -0.09862318
0.046669822 -0.13232027 -0.06643095 -0.41818118 0.10970797 -0.24421903 -0.58687365 -0.45369437
-0.0032240907 -0.03366936 -0.5859605 -0.1354089
00000000: 0017 fcbe 991c 70be 0aa0 663e 720e 263e
00000010: 7a95 33be 8d7c d7bd 3acf 6f3e f3fa c9bd
00000020: db28 3f3d f77e 07be f30c 88bd d81b d6be
00000030: 92ae e03d 8e14 7abe 5a3d 16bf a14a e8be
00000040: 444b 53bb e2e8 09bd 8201 16bf a1a8 0abe

L3.weight f4 [40, 20]
0.13072708 -0.32550508 -0.19306426 -0.08107428 0.08143083 0.02875385 -0.20730877 -0.34521696
-0.05208821 0.007031498 -0.31318146 0.91467583 -0.5243884 0.17017275 -0.13703084 -0.5510333
-0.48651716 -0.692182 0.02104363 0.42892173 -0.7251113 -0.055403244 -0.35711417 -0.19447279
-0.4108398 0.36542723 -0.6032445 -0.293407 -0.093675576 -0.08160195 -0.22382861 -0.0023703985
-0.53160393 -0.317075 0.07568268 -0.718637 0.058169413 -0.3766265 0.39793187 -0.44861495
0.47650144 -0.35587543 -0.38616723 0.16805787 -0.068711735 -0.23465514 -0.4167387 0.08793483
-0.50097287 -0.36280656 -0.16364314 0.23822568 -0.22709174 0.2845239 -0.056570403 0.53119123
-0.08879044 -0.9836684 0.06660207 -0.07132737 -0.44598064 -0.20512828 -0.0064131296 -0.20478304
-0.18950634 -0.22567368 -0.09665242 -0.114542335 -0.044531222 0.16301638 0.009104217 0.16951889
-0.16711879 -0.610418 0.27453205 -0.19631702 0.047694128 -0.5269037 -0.207488 -0.16052659
-0.22616644 -0.36001363 -0.091921836 -0.045437936 -0.25372636 -0.025926972 -0.22049122 -0.58844966
0.008905386 -0.1499946 0.051771943 -0.18995835 0.18167326 -0.16753942 -0.13587311 -0.19305791
0.080144376 -0.15515575 0.01590417 -0.11025803 -0.055695027 -0.20037255 0.16196084 0.03765786
0.033443272 -0.08242405 -0.3662524 -0.18372658 -0.45297983 -0.18541978 -0.44022936 1.1539321
-0.18072158 -0.24838476 -0.09669055 0.3101509 0.074369535 -0.0909071 0.03875806 -0.16475995
-0.37043092 0.068588056 0.00052677747 0.13627279 -0.11075736 -0.18792537 -0.0065788114 0.17333525
-0.067357786 0.12360169 -0.51273227 0.40321904 -0.033107303 -0.37799326 0.45320755 0.15032901
-0.4443984 -0.57896185 0.5592113 0.21580824 -0.2602633 0.034709226 -0.38678855 -0.027427595
-0.0009944566 -0.1023409 -0.34031227 -0.43427107 -0.52252144 0.13908908 -0.18456285 0.107650034
-0.33997974 -0.13807276 0.17481858 0.035289206 0.18215215 -0.13435735 0.02147707 -0.2792046
-0.6759399 -0.18150726 -0.8156821 -0.29133534 0.17944674 -0.16802377 -0.18896289 0.071468934
-0.37266707 0.08105749 -0.22511403 -0.14381352 0.037111863 -0.5788031 0.008055252 -0.13627495
-0.27183527 -0.095223516 0.36433333 -0.18635501 -0.65429044 -0.21910219 -0.09026503 0.021576775
0.07170209 0.16152792 0.06962317 0.3459831 -0.39874965 0.065200284 -0.4531946 0.2807499
-0.80695486 -0.2642168 -0.93132085 -0.82385665 -0.0786247 -0.38991922 -0.08731324 -0.102424316
0.006402817 -0.15997338 -0.04470467 -0.07810194 -0.13623168 -0.26284114 -0.17320335 -0.1974042
0.020567037 -0.018032022 -0.15847707 0.0055437936 -0.12976569 -0.6979797 -0.33371708 0.18129262
0.008602731 -0.17571938 -0.07213234 0.024675438 -0.7805228 -0.14452483 -0.13887548 -0.17666128
-0.6509162 -0.30811334 -0.29311675 -0.17753893 -0.8745616 0.14222854 0.39358833 0.9485423
-0.24348308 -0.54997164 -0.21511173 -0.31482318 0.42458823 -0.18328665 0.6967926 0.34793788
-0.5235852 0.23948947 -0.081866115 -0.409037 -0.2923704 -0.38617846 -0.073100425 -0.0065942276
0.17756931 0.18765764 0.0021906565 0.31650886 0.39644974 -0.51619524 0.049968094 -0.5110955
00000000: 52dd 053e 9aa8 a6be a3b2 45be 460a a6bd
00000010: 35c5 a63d 328d eb3c c048 54be 47c0 b0be
00000020: 725a 55bd 7b68 e63b 5259 a0be 3228 6a3f
00000030: 513e 06bf c441 2e3e d051 0cbe 8510 0dbf
00000040: c718 f9be d732 31bf b163 ac3c a19b db3e
00000050: e5a0 39bf 83ee 62bd abd7 b6be e023 47be
00000060: 9859 d2be 4719 bb3e 3b6e 1abf 7139 96be
00000070: fbd8 bfbd ec1e a7bd 5433 65be b058 1bbb
00000080: 3217 08bf a857 a2be 85ff 9a3d 98f8 37bf
00000090: 0d43 6e3d 30d5 c0be babd cb3e dcb0 e5be
000000a0: fff7 f33e 4e35 b6be b6b7 c5be 5d17 2c3e
000000b0: bdb8 8cbd 7049 70be c65e d5be 2d17 b43d
000000c0: c23f 00bf c8c1 b9be 1192 27be 6ff1 733e
000000d0: bd8a 68be 1ead 913e 5eb6 67bd 26fc 073f
000000e0: c3d7 b5bd b1d1 7bbf ab66 883d 1614 92bd
000000f0: 9357 e4be 260d 52be 3b25 d2bb a5b2 51be
00000100: f30d 42be 0017 67be b4f1 c5bd 2c95 eabd
00000110: 5f66 36bd c4ed 263e db29 153c 5c96 2d3e
00000120: 3021 2bbe 5b44 1cbf 778f 8c3e 5407 49be
00000130: eb5a 433d 29e3 06bf bc77 54be 1561 24be
00000140: 2d98 67be b553 b8be 8441 bcbd 211d 3abd
00000150: 6ce8 81be cd64 d4bc 73c8 61be a3a4 16bf
00000160: e5e7 113c 2f98 19be d10e 543d 7184 42be
00000170: 8e08 3a3e 748f 2bbe 5222 0bbe f9b0 45be
00000180: bc22 a43d 26e1 1ebe 7649 823c f6ce e1bd
00000190: 7820 64bd 762e 4dbe 10d9 253e 213f 1a3d
000001a0: d0fb 083d f1cd a8bd 6f85 bbbe d222 3cbe
000001b0: f9ec e7be afde 3dbe be65 e1be 0cb4 933f
000001c0: 140f 39be 9358 7ebe b205 c6bd 19cc 9e3e
000001d0: 0e4f 983d 802d babd c6c0 1e3d d5b6 28be
000001e0: 1fa9 bdbe e577 8c3d 7017 0a3a 188b 0b3e
000001f0: c1d4 e2bd 826f 40be 1293 d7bb cc7e 313e
00000200: e1f2 89bd e222 fd3d 6c42 03bf ba72 ce3e
00000210: 869b 07bd 5588 c1be d20a e83e d9ef 193e
00000220: 3088 e3be d836 14bf 7928 0f3f d6fc 5c3e
00000230: 3b41 85be 432b 0e3d 2609 c6be d6af e0bc
00000240: 6d58 82ba 1b98 d1bd 693d aebe c758 debe
00000250: f7c3 05bf 5e6d 0e3e 0bfe 3cbe 9f77 dc3d
00000260: d311 aebe f262 0dbe a403 333e 6a8b 103d
00000270: 1886 3a3e f994 09be aef0 af3c e8f3 8ebe
00000280: 660a 2dbf 0add 39be 8bd0 50bf e829 95be
00000290: e3c0 373e 6c0e 2cbe 7d7f 41be 4e5e 923d
000002a0: 38ce bebe 7801 a63d 4b84 66be da43 13be
000002b0: 9c02 183d 712c 14bf 2dfa 033c a98b 0bbe
000002c0: fe2d 8bbe 8c04 c3bd e689 ba3e d9d3 3ebe
000002d0: 947f 27bf 535c 60be dfdc b8bd c7c1 b03c
000002e0: 8cd8 923d 9367 253e 9896 8e3d b224 b13e
000002f0: ea28 ccbe ba87 853d 1f09 e8be 73be 8f3e
00000300: 9894 4ebf 6d47 87be 0b6b 6ebf 45e8 52bf
00000310: fd05 a1bd 7ea3 c7be 49d1 b2bd d7c3 d1bd
00000320: b9ce d13b 10d0 23be 3e1c 37bd e9f3 9fbd
00000330: 5180 0bbe 1d93 86be 385c 31be 5424 4abe
00000340: 347c a83c e4b7 93bc d047 22be b6a8 b53b
00000350: 4ce1 04be ccae 32bf f7dc aabe c6a4 393e
00000360: 78f2 0c3c c8ef 33be 1fba 93bd 2524 ca3c
00000370: 58d0 47bf 51fe 13be 6035 0ebe b2e6 34be
00000380: 72a2 26bf 08c1 9dbe 6613 96be c4cc 35be
00000390: 45e3 5fbf 5ca4 113e 6984 c93e abd3 723f
000003a0: a153 79be f1ca 0cbf 4046 5cbe 8130 a1be
000003b0: a163 d93e 7faf 3bbe 0061 323f ea24 b23e
000003c0: ae09 06bf ba3c 753e 6ca9 a7bd 4c6d d1be
000003d0: 93b1 95be 2fb9 c5be adb5 95bd 6414 d8bb
000003e0: bbd4 353e 5329 403e 1e91 0f3b 730d a23e
000003f0: 76fb ca3e 5f25 04bf 58ab 4c3d 28d7 02bf

L3.bias f4 [40]
-0.7748775 -0.14086556 -1.0012083 -0.23700254 -0.22327039 -1.1396594 -0.91196424 -0.35584882
-0.22918645 -0.67359006 -0.47951207 -0.96269435 -0.10559282 0.012280503 0.001748156 -0.7555044
0.4020867 -0.15255862 -0.20082515 -0.21667695 -0.4478585 -0.52687466 -0.84883726 -0.6722683
0.24818356 0.2712035 -0.40443465 -1.0589497 0.14887111 -0.39310384 -0.06885617 -0.886995
-0.13852808 0.22468023 -0.13108957 -0.6383339 -0.38503984 -1.0634797 -0.4786131 -0.2365119
00000000: 5f5e 46bf 103f 10be 9827 80bf cbb0 72be
00000010: fea0 64be 5ce0 91bf 7d76 69bf d131 b6be
00000020: daaf 6abe 6670 2cbf 9b82 f5be 2373 76bf
00000030: 0c41 d8bd 2a34 493c 6222 e53a bd68 41bf
00000040: 4fde cd3e 5438 1cbe 1ca5 4dbe 90e0 5dbe
00000050: b64d e5be 42e1 06bf 664d 59bf c619 2cbf
00000060: d523 7e3e 2fdb 8a3e 0f12 cfbe aa8b 87bf
00000070: ab71 183e e844 c9be 7704 8dbd 1b12 63bf
00000080: 4eda 0dbe 9312 663e 583c 06be da69 23bf
00000090: f123 c5be 1a20 88bf c70c f5be 2d30 72be

L4.weight f4 [20, 40]
0.113154486 -0.46467894 0.017738694 -0.023122653 0.13666725 -0.2128349 0.086829774 -0.20181172
-0.066179305 0.11932963 -0.5646769 0.6825533 -0.37019673 -0.51216537 -0.50014454 -0.057678416
0.09915672 0.005502054 -0.38609332 -0.21839087 0.31486863 0.013261756 0.04816668 -0.074673
-0.47130603 -0.21760437 -0.16299784 -0.5133241 -0.9975958 0.002985337 -0.5591555 0.14089413
0.10104519 -0.19556443 -0.26490903 -0.3027823 -0.19071603 0.34749287 -0.023685612 -0.53410405
0.41567126 -0.3361501 0.18964443 -0.252361 -0.2665586 -0.23535141 0.44412586 0.22599638
0.37651154 0.5775474 -0.3040638 -0.4488145 -0.03485754 -0.77542955 0.33532047 0.09660028
1.0856202 -0.0415571 -0.024861736 0.5961815 0.20891704 0.27000734 0.36799625 -0.13807872
-0.01984511 0.52247524 0.10672595 0.23593563 -0.6267167 0.1479851 -0.858349 -0.36887997
-1.3865465 0.42653364 -0.06377958 -0.10778092 0.21330006 0.3235316 -0.39251003 0.26118726
-0.02224358 -0.04285998 -0.06414152 -0.113248415 -0.028532011 0.11343147 -0.014379944 0.12323126
0.46975952 -0.11065637 0.17613162 0.79736894 0.046548847 -0.17751305 0.13604891 0.1267075
-0.86358654 -0.0038049254 0.19797382 0.12389313 -0.17119923 -0.0439623 -0.008374936 -0.00016696629
-0.33878002 -0.7811333 -0.0957633 0.12000994 -0.47506922 -0.069050714 -0.34096846 -0.18811573
-0.24972962 -0.7180994 -0.08094127 -0.4736353 0.10410247 0.2350943 0.31867066 -0.26669547
0.24778543 -0.58423066 0.77242 -0.4427162 -0.13748774 -0.081822604 0.3177696 -0.039083444
-0.14532794 -0.09539019 0.23077452 -0.041455664 -0.5984288 -0.5389642 0.54796016 0.20904364
0.7120503 -0.081155725 -0.43082625 -0.3491911 0.07779309 -0.17210521 -0.6226441 0.18228763
-1.0603673 0.4578039 -0.1538317 -0.051231317 -0.4334453 -0.077276245 -0.55959356 -0.1086405
-0.5152718 0.52877575 -0.043574393 0.30126444 0.1755244 0.015846055 0.53256214 -0.33788157
0.22503316 0.166795 -0.17614004 0.004786488 0.19405092 -0.04236073 0.48978397 0.15281253
0.11991084 -0.012045434 0.082956694 0.3715095 -0.030201543 -0.014251306 0.017761089 -0.28129825
0.6776914 -0.05214708 -0.4437007 -0.10591039 0.077108175 -0.18143572 0.33021918 -0.117646985
-0.08530844 -0.35901207 0.005090149 0.5363152 0.025816431 0.59369344 -0.24841039 0.32606202
0.0111656245 -0.09385363 -0.21166895 -0.38424152 0.16543604 -0.33172083 -0.28914315 -0.094378255
-0.39096734 0.083470166 0.05594744 0.11399862 -0.25274226 -0.26458994 0.26387903 0.38079733
-0.121994145 0.22743893 0.28897327 0.038076956 -0.14166608 -0.2019594 -0.23475441 -0.1047106
-0.9087915 0.08772653 -0.08426017 -0.09335998 0.22447255 0.16525671 0.12644754 0.33103362
0.006778372 -0.61400485 0.060878295 -0.42704016 -0.064981736 -0.07824644 -0.13842364 -0.28050295
-0.0012928942 -0.13414015 -0.0022064983 -0.19334513 0.09853859 0.00046847886 0.14401811 0.5601308
0.35587257 0.3505212 0.060090728 -0.13712099 -0.22331838 -0.061084475 0.01873022 0.07498554
-0.16575974 0.12277915 0.052682057 -0.0010892111 -0.20095336 -0.65577465 0.4575788 -0.037186865
00000000: 8abd e73d 66ea edbe bd50 913c b86b bdbc
00000010: 80f2 0b3e 64f1 59be cfd3 b13d bba7 4ebe
00000020: 0489 87bd 1863 f43d aa8e 10bf d0bb 2e3f
00000030: 6d8a bdbe 451d 03bf 7909 00bf 3440 6cbd
00000040: ae12 cb3d 934a b43b 06ae c5be dba1 5fbe
00000050: 7636 a13e d647 593c 6d4a 453d 28ee 98bd
00000060: 064f f1be aed3 5ebe e8e8 26be 3569 03bf
00000070: 7062 7fbf a5a5 433b d124 0fbf 8d46 103e
00000080: c8f0 ce3d 0b42 48be 28a2 87be 4806 9bbe
00000090: 104b 43be 96ea b13e 5408 c2bc 0bbb 08bf
000000a0: ddd2 d43e de1b acbe 2632 423e 7635 81be
000000b0: 5e7a 88be f6ff 70be 7764 e33e 986b 673e
000000c0: 1fc6 c03e 25da 133f 40ae 9bbe 04cb e5be
000000d0: c8c6 0ebd 8d82 46bf 20af ab3e 5ed6 c53d
000000e0: 9af5 8a3f c737 2abd d7aa cbbc 5a9f 183f
000000f0: 59ee 553e 673e 8a3e 016a bc3e 8264 0dbe
00000100: 3692 a2bc f0c0 053f 2393 da3d 1c99 713e
00000110: 8170 20bf 6889 173e c3bc 5bbf d6dd bcbe
00000120: 5b7a b1bf 9e62 da3e de9e 82bd 3ebc dcbd
00000130: 556b 5a3e efa5 a53e 13f7 c8be 56ba 853e
00000140: 2b38 b6bc f28d 2fbd a15c 83bd c9ee e7bd
00000150: f7bb e9bc c24e e83d db99 6bbc ac60 fc3d
00000160: 5284 f03e cf9f e2bd d95b 343e 5f20 4c3f
00000170: 01aa 3e3d fbc5 35be 6850 0b3e 9cbf 013e
00000180: 0214 5dbf 0e5c 79bb a6b9 4a3e aebb fd3d
00000190: da4e 2fbe d011 34bd 0737 09bc ac13 2fb9
000001a0: 9374 adbe 5af8 47bf 8d1f c4bd c5c7 f53d
000001b0: 463c f3be 766a 8dbd 6b93 aebe 69a1 40be
000001c0: 1fb9 7fbe 5dd5 37bf 89c4 a5bd 5380 f2be
000001d0: ad33 d53d 8fbc 703e cd28 a33e 4f8c 88be
000001e0: 77bb 7d3e 2490 15bf 51bd 453f b3ab e2be
000001f0: 96c9 0cbe 9c92 a7bd b2b2 a23e f615 20bd
00000200: d9d0 14be ef5b c3bd 2850 6c3e 6acd 29bd
00000210: a132 19bf 8ff9 09bf 1e47 0c3f 890f 563e
00000220: ee48 363f f934 a6bd 4295 dcbe 2dc9 b2be
00000230: fc51 9f3d 593c 30be 9b65 1fbf 9ca9 3a3e
00000240: 1eba 87bf 4665 ea3e 0f86 1dbe eed7 51bd
00000250: 8bec ddbe 0243 9ebd 8641 0fbf e97e debd
00000260: dae8 03bf d95d 073f 107b 32bd 553f 9a3e
00000270: abbc 333e 96cf 813c fe55 083f d0fe acbe
00000280: 186f 663e 4fcc 2a3e 0e5e 34be f9d7 9c3b
00000290: 49b5 463e 7282 2dbd f7c4 fa3e e37a 1c3e
000002a0: d193 f53d 365a 45bc 33e5 a93d 7e36 be3e
000002b0: 3a69 f7bc 4f7e 69bc b47f 913c 5306 90be
000002c0: 2f7d 2d3f 2d98 55bd bd2c e3be 8ce7 d8bd
000002d0: e4ea 9d3d 49ca 39be 7d12 a93e e7f0 f0bd
000002e0: 31b6 aebd 6ed0 b7be 44cb a63b f44b 093f
000002f0: fb7c d33c 4bfc 173f 4b5f 7ebe 9af1 a63e
00000300: 06f0 363c 5536 c0bd bfbf 58be 4ebb c4be
00000310: 1168 293e 50d7 a9be 920a 94be 6349 c1bd
00000320: df2c c8be 68f2 aa3d 2529 653d 1c78 e93d
00000330: 6f67 81be 5578 87be 271b 873e def7 c23e
00000340: 11d8 f9bd c0e5 683e 4ef4 933e 95f6 1b3d
00000350: ea10 11be 72ce 4ebe 7663 70be 8372 d6bd
00000360: 8fa6 68bf f8a9 b33d 9990 acbd 8433 bfbd
00000370: 22dc 653e 0e39 293e 777b 013e 3d7d a93e
00000380: 1b1d de3b 6c2f 1dbf 855b 793d 02a5 dabe
00000390: 2515 85bd ab3f a0bd edbe 0dbe 159e 8fbe
000003a0: 5576 a9ba 095c 09be e69a 10bb 44fc 45be
000003b0: 9ace c93d 2b9e f539 7c79 133e bb64 0f3f
000003c0: ee34 b63e 8477 b33e b221 763d 7269 0cbe
000003d0: 93ad 64be b733 7abd 1e70 993c 0592 993d
000003e0: ecbc 29be a373 fb3d 24c9 573d dcc3 8eba
000003f0: b8c6 4dbe d9e0 27bf c547 ea3e 4151 18bd

L4.bias f4 [20]
-0.5230717 0.21490932 0.18661141 0.25590953 0.22303848 0.14089896 0.3527009 -0.037845705
0.5166997 -0.76952815 -0.26446748 -1.0245911 0.045310475 0.5367339 -0.18528178 -0.38334572
-0.59588516 0.20189093 -0.10451274 -0.27518
00000000: 07e8 05bf 3011 5c3e 1017 3f3e 9306 833e
00000010: 3364 643e d147 103e 3695 b43e 1904 1bbd
00000020: 6e46 043f ccff 44bf 4868 87be cd25 83bf
00000030: 7a97 393d 6567 093f 82ba 3dbe e445 c4be
00000040: ee8b 18bf 7fbc 4e3e c70a d6bd 65e4 8cbe

L5.weight f4 [10, 20]
0.08827778 0.012661477 -0.2990209 -0.43670648 -0.46037138 -0.19994177 0.1913267 -0.5730924
0.031430393 0.2956528 0.047477186 1.1134297 -0.28761274 -0.2529073 -0.0415793 -0.6087314
0.06877482 -0.50593823 0.012961885 -0.32828155 -0.61179304 -1.114704 -0.18891437 -1.0419086
0.18538384 0.16995716 -0.7569949 -1.4047527 -0.7891936 0.6788434 -1.1487434 -0.43584043
-0.5957069 0.008238346 -0.09793305 0.3060352 0.036411025 -0.7873439 -0.3331474 0.10944222
-0.43592966 -1.0611181 -0.009466902 -0.7882119 0.12955564 -0.0171932 -0.60087824 -0.82696944
0.20659278 -0.94697565 -1.2724838 -1.1307205 -1.1967752 0.16794835 0.06650156 -0.06297669
-0.14388524 -0.21611008 -0.20808028 -0.062101707 -0.65154743 -0.8059999 -0.28772745 -1.0465184
-0.14279898 -0.2667327 -1.6678329 -0.8308033 -0.5725333 -0.37548903 -0.57864815 0.724411
-0.87382996 0.0003511487 0.105579264 0.059126504 -0.17909321 -0.22110663 0.023330191 -0.24047196
0.5589908 -0.09529516 -0.019861082 -0.37329552 0.02053419 0.061269145 -0.7396494 -0.2714434
-0.061945368 0.41727 -0.1688628 0.7864745 -0.0074302237 -0.15895928 -0.066266015 0.25588518
0.1361251 -0.08958651 -0.15707646 -0.09549639 0.25260004 -0.3598275 -0.447319 -0.42097884
-0.02198005 0.0015032544 -0.4433217 0.0058264416 -0.24525537 1.1924509 0.040877674 0.5015299
-0.2934167 -0.23047338 0.08866609 -0.2074199 0.022859225 -0.123395115 -0.08074913 0.07215467
-0.14883405 -1.909056 -0.33674705 -0.9520503 -0.372131 -0.10267792 -0.5702736 -0.5059694
-0.113893785 -0.9038137 -0.43076915 -0.16183627 -1.2585442 -0.14561918 0.040645387 0.22198112
-0.21408555 -0.21494961 0.0056441426 0.6790341 -0.046659455 0.08577471 -0.3733544 -0.00051373313
0.02113709 -0.59543157 -0.052586935 0.1264808 -0.7638408 0.1356766 -0.34936202 -0.4004885
-0.03485591 -0.70317733 -0.42369387 -1.9610733 -0.011909283 0.13409756 -0.035711914 -0.18095155
0.5399275 -0.83606726 -0.28407654 -0.2560059 -0.21936753 -0.2834896 -0.23726058 -0.6686858
-0.1326174 -0.26391786 -0.2380034 0.43448207 -0.31457722 -0.38105577 -0.38629425 0.10650073
0.3346653 -0.21798882 0.56182384 -0.17786403 1.2131109 -0.21385336 -0.1700524 -0.42520377
-0.11483103 0.00052211183 -0.18381105 -0.65422815 0.026348358 0.64813596 -0.09160219 0.4336951
-0.18272866 -0.00838195 -0.22958362 0.6687753 0.46410772 -0.33156097 0.7454092 -0.07473187
00000000: fbca b43d 1572 4f3c 4419 99be fe97 dfbe
00000010: ccb5 ebbe 89bd 4cbe 25eb 433e 2fb6 12bf
00000020: 28bd 003d ce5f 973e 7077 423d dd84 8e3f
00000030: fa41 93be 117d 81be 0e4f 2abd d2d5 1bbf
00000040: d0d9 8c3d 2b85 01bf 165e 543c 8514 a8be
00000050: 789e 1cbf 9fae 8ebf c572 41be 435d 85bf
00000060: 43d5 3d3e 4009 2e3e 6bca 41bf f0ce b3bf
00000070: 9708 4abf aec8 2d3f 060a 93bf 7a26 dfbe
00000080: 3f80 18bf 21fa 063c 1f91 c8bd a5b0 9c3e
00000090: ba23 153d 5f8f 49bf 4c92 aabe 3e23 e03d
000000a0: 2c32 dfbe b8d2 87bf 111b 1bbc 41c8 49bf
000000b0: 3caa 043e c1d8 8cbc 28d3 19bf 45b4 53bf
000000c0: 0f8d 533e ff6c 72bf c0e0 a2bf 73bb 90bf
000000d0: ee2f 99bf a7fa 2b3e f831 883d ecf9 80bd
000000e0: a756 13be f64b 5dbe ff12 55be 5c5e 7ebd
000000f0: d0cb 26bf 0256 4ebf 0351 93be 51f4 85bf
00000100: e539 12be 3091 88be 8c7b d5bf 86af 54bf
00000110: 8b91 12bf 1940 c0be 4922 14bf 0073 393f
00000120: 52b3 5fbf 611a b839 f139 d83d a22e 723d
00000130: 3664 37be c769 62be f51e bf3c 483e 76be
00000140: 051a 0f3f 1c2a c3bd b5b3 a2bc 9720 bfbe
00000150: 5137 a83c 5bf5 7a3d aa59 3dbf a1fa 8abe
00000160: 6dba 7dbd 6aa4 d53e 5fea 2cbe 6556 493f
00000170: 3c79 f3bb 39c6 22be 7ab6 87bd 6203 833e
00000180: 6164 0b3e 2279 b7bd a7d8 20be 9c93 c3bd
00000190: cb54 813e 4f3b b8be ff06 e5be 8a8a d7be
000001a0: 810f b4bc d908 c53a 10fb e2be bceb be3b
000001b0: 3924 7bbe 3ba2 983f 596f 273d 4364 003f
000001c0: b73a 96be 3701 6cbe 9196 b53d e265 54be
000001d0: 4543 bb3c 94b6 fcbd cd5f a5bd d4c5 933d
000001e0: f467 18be f25b f4bf 1c6a acbe 92b9 73bf
000001f0: f487 bebe cd48 d2bd 73fd 11bf 3687 01bf
00000200: 2541 e9bd 5660 67bf c68d dcbe 68b8 25be
00000210: fa17 a1bf 321d 15be c77b 263d 054f 633e
00000220: 3e39 5bbe c01b 5cbe 80f2 b83b 2ed5 2d3f
00000230: fc1d 3fbd a7aa af3d 4f28 bfbe 0cac 06ba
00000240: b127 ad3c 346e 18bf 6665 57bd 2f84 013e
00000250: 128b 43bf ceee 0a3e 94df b2be d40c cdbe
00000260: 12c5 0ebd 6e03 34bf 67ee d8be 7304 fbbf
00000270: 271f 43bc df50 093e a846 12bd 5d4b 39be
00000280: b038 0a3f 8108 56bf 7b72 91be 3513 83be
00000290: e2a1 60be 8d25 91be 70f4 72be fe2e 2bbf
000002a0: dbcc 07be 3e20 87be 2ab7 73be 6f74 de3e
000002b0: 4410 a1be be19 c3be 5cc8 c5be 0e1d da3d
000002c0: 4059 ab3e 7638 5fbe b0d3 0f3f fd21 36be
000002d0: 3847 9b3f 60fc 5abe 3722 2ebe 4fb4 d9be
000002e0: 882c ebbd 55de 083a f738 3cbe 7f7b 27bf
000002f0: 83d8 d73c 3dec 253f ee99 bbbd 490d de3e
00000300: 391d 3bbe 7254 09bc f817 6bbe dc34 2b3f
00000310: 879f ed3e 5cc2 a9be 23d3 3e3f 060d 99bd

L5.bias f4 [10]
-0.38633353 0.43076548 1.7152423 0.43895367 -0.49983487 -0.81034684 0.47879282 0.35311097
-0.85264415 -0.8360112
00000000: 82cd c5be 4b8d dc3e 0f8d db3f 89be e03e
00000010: 5bea ffbe e472 4fbf 5524 f53e f6ca b43e
00000020: e346 5abf d404 56bf

L6.weight f4 [1, 10]
-0.09092958 -0.3856332 -0.39494568 -0.26356167 -0.13647856 -0.051751718 -0.13314614 0.02153498
-0.19632187 -0.103250325
00000000: 4a39 babd b771 c5be 5236 cabe 8ef1 86be
00000010: 09c1 0bbe 9cf9 53bd 7657 08be 206a b03c
00000020: 9a08 49be e874 d3bd
