Saved_Models_All_Samples_Limited_Features/target_Hardness_features_5_epochs_0.pth (torch_old, 10514 bytes, 11 tensors)

L1.weight f4 [10, 5]
0.27475306 0.17503077 0.5830465 -0.121822014 0.20229565 0.5416241 0.23481266 0.20605779
0.59098464 -0.03374153 -0.16463818 -0.11109596 -0.07696772 -0.6587774 -0.4395263 0.369875
0.05101752 0.07950881 0.23243193 0.25654516 -0.08657886 0.49457574 -0.44533116 0.37465057
-0.3182298 0.109264314 0.37241635 0.038155664 -0.010233714 -0.31297946 -0.39015895 -0.111165725
-0.28890118 0.25807342 -0.28755823 0.14641094 -0.17852908 -0.022959579 0.12495697 -0.23277177
-0.13216455 -0.3488638 0.20913363 0.2526837 -0.123037584 -0.12827891 0.1328667 0.48334584
-0.19358271 -0.44185117
00000000: 6fac 8c3e 443b 333e 8942 153f d27d f9bd
00000010: 9726 4f3e e1a7 0a3f bb72 703e d000 533e
00000020: c54a 173f 8f34 0abd e996 28be 4786 e3bd
00000030: 41a1 9dbd a3a5 28bf 9709 e1be 4260 bd3e
00000040: bff7 503d 84d5 a23d a302 6e3e e359 833e
00000050: 4250 b1bd 0839 fd3e 7202 e4be 33d2 bf3e
00000060: 04ef a2be f8c5 df3d 5bad be3e 1d49 1c3d
00000070: 4fab 27bc d83e a0be eac2 c7be dbaa e3bd
00000080: dbea 93be 3322 843e d53a 93be c0ec 153e
00000090: 54d0 36be ba15 bcbc 71e9 ff3d b95b 6ebe
000000a0: 2556 07be 479e b2be 2027 563e c25f 813e
000000b0: 21fb fbbd 8c5b 03be 350e 083e 1b79 f73e
000000c0: 8c3a 46be 513a e2be

L1.bias f4 [10]
0.44877627 0.008521726 0.41769016 -0.0058345194 -0.15261444 0.24248338 0.22927389 -0.2322959
-0.5274367 -0.09177489
00000000: 01c6 e53e b69e 0b3c 7cdb d53e 7f2f bfbb
00000010: f646 1cbe 904d 783e c6c6 6a3e fade 6dbe
00000020: 1706 07bf 79f4 bbbd

L2.weight f4 [20, 10]
-0.27477968 0.2770818 -0.62270516 0.40409598 0.29652664 -0.23643818 0.09270126 -0.3626273
-0.02754413 -0.27315563 -0.29068252 -0.45309082 0.2587637 -0.001495087 0.18337075 -0.10099442
-0.17272611 0.2662282 0.24056537 0.090523474 -0.16113716 -0.64558 0.25749916 -0.23734076
0.114173606 0.02960336 0.3294277 0.116705224 0.03192602 0.36173257 0.07259862 -0.45005408
0.30624422 0.10368674 0.29904547 0.28923544 0.18992932 -0.19799778 0.01489112 0.2835136
0.035592414 -0.34822553 -0.058969468 -0.21995217 0.16554597 0.00014093619 0.031149713 -0.04428996
0.025878975 0.264951 -0.3005712 -0.5725085 0.3226887 -0.23388311 0.2978383 -0.05993715
0.25059888 0.082448974 -0.11072526 -0.056572933 -0.018923562 0.23469834 0.33045736 -0.40454587
0.1744744 0.16095078 0.06850308 -0.111806884 -0.35413003 -0.28709972 -0.33421788 -0.10231059
-0.08100698 0.14307539 -0.2241117 -0.09768568 -0.18122406 -0.20629874 0.08274275 -0.0060229227
-0.24127233 -0.06288661 0.5434536 -0.13234642 0.047479387 -0.043004055 0.42834592 -0.09820395
0.07735555 0.31042317 -0.008927096 0.40210146 -0.2883718 0.24248526 0.11562596 0.23016308
-0.05749083 0.1322444 -0.45909598 0.09937357 0.07675894 -0.03377803 0.30977118 0.0762815
0.18911612 0.21997564 -0.12224839 0.005737024 0.1207781 0.23547141 0.19876766 0.29402804
0.12832607 0.12951745 -0.24517436 0.08540147 -0.04171346 -0.20352377 0.25467336 -0.37906256
-0.38232374 -0.05853577 0.21301337 0.06241733 -0.049605407 -0.15350364 0.29961523 -0.052727673
0.09991954 -0.010046894 0.18829532 0.19817162 -0.36474073 0.16757162 -0.05242852 -0.18640573
-0.1339281 0.16643597 -0.37867892 0.061844964 -0.1807079 -0.06716557 -0.23083949 0.15455388
-0.20300263 0.104194805 -0.025301665 -0.12582907 0.15021917 -0.37997395 -0.027870318 -0.2939965
-0.09845555 0.020082625 0.2541035 0.18445314 -0.18378982 -0.5015417 0.20193094 0.07493468
0.15237527 -0.09789023 0.31380284 -0.24919246 -0.15332207 0.031217044 -0.032173004 0.20479862
0.15702744 0.002505244 -0.037333794 -0.19433238 0.038504336 0.036992684 -0.16645241 0.14361863
0.12960543 -0.41381338 0.111804344 -0.09253614 -0.10178449 -0.21418783 0.23583935 0.1650685
-0.29991993 -0.4943974 -0.0794196 -0.038227167 -0.17895442 -0.1167393 -0.25854948 0.16526526
-0.31538972 0.089504436 -0.4329187 -0.049967818 -0.19003227 -0.041881133 -0.17673078 -0.06677944
00000000: ecaf 8cbe aadd 8d3e 9b69 1fbf abe5 ce3e
00000010: 57d2 973e da1c 72be 28da bd3d 49aa b9be
00000020: 3aa4 e1bc 0edb 8bbe 57d4 94be 85fb e7be
00000030: ad7c 843e ccf6 c3ba 8bc5 3b3e 2ad6 cebd
00000040: 1ddf 30be 104f 883e c556 763e 5f64 b93d
00000050: 2401 25be bb44 25bf eed6 833e 7509 73be
00000060: dad3 e93d bf82 f23c bfaa a83e 2603 ef3d
00000070: dcc4 023d 0335 b93e 96ae 943d 7d6d e6be
00000080: 0bcc 9c3e b759 d43d 7d1c 993e ab16 943e
00000090: d57c 423e eebf 4abe e2f9 733c b228 913e
000000a0: 5ac9 113d 9e4a b2be f889 71bd 243b 61be
000000b0: e284 293e 45c8 1339 af2d ff3c 6469 35bd
000000c0: 2500 d43c a8a7 873e 78e4 99be eb8f 12bf
000000d0: 7437 a53e 0e7f 6fbe 437e 983e a880 75bd
000000e0: 7f4e 803e 02db a83d edc3 e2bd 05b9 67bd
000000f0: 9605 9bbc c354 703e b531 a93e a320 cfbe
00000100: 6ba9 323e 48d0 243e 584b 8c3d 02fb e4bd
00000110: 8850 b5be bcfe 92be 9b1e abbe 3788 d1bd
00000120: fde6 a5bd 5b82 123e 8a7d 65be 6e0f c8bd
00000130: cd92 39be fa3f 53be 0875 a93d f05b c5bb
00000140: 1810 77be b2ca 80bd c61f 0b3f d285 07be
00000150: bf79 423d 0525 30bd 2850 db3e 271f c9bd
00000160: 966c 9e3d c9ef 9e3e f442 12bc 3ee0 cd3e
00000170: 78a5 93be 0e4e 783e 4ecd ec3d dfaf 6b3e
00000180: 817b 6bbd 136b 073e a10e ebbe 5f84 cb3d
00000190: cb33 9d3d d55a 0abd 549a 9e3e 7a39 9c3d
000001a0: a8a7 413e 4b41 613e 5d5d fabd a5fd bb3b
000001b0: 825a f73d 6b1f 713e c089 4b3e d88a 963e
000001c0: e967 033e 39a0 043e fd0e 7bbe f7e6 ae3d
000001d0: bcdb 2abd 8968 50be 8c64 823e 7d14 c2be
000001e0: f0bf c3be 34c3 6fbd 2d20 5a3e 50a9 7f3d
000001f0: 0a2f 4bbd 0f30 1dbe 2b67 993e f9f8 57bd
00000200: 9ea2 cc3d ba9b 24bc 7dd0 403e 80ed 4a3e
00000210: 4cbf babe e597 2b3e 4abf 56bd 25e1 3ebe
00000220: 7324 09be 316e 2a3e 34e2 c1be 2551 7d3d
00000230: 7e0b 39be 1a8e 89bd 3061 6cbe 5f43 1e3e
00000240: ecdf 4fbe 1664 d53d 7045 cfbc 56d9 00be
00000250: 0ed3 193e f28b c2be 4b50 e4bc b686 96be
00000260: 10a3 c9bd 5184 a43c db19 823e 49e1 3c3e
00000270: 6633 3cbe 0965 00bf fcc6 4e3e 5a77 993d
00000280: 4308 1c3e ac7a c8bd c4aa a03e 4f2c 7fbe
00000290: 7600 1dbe e3ba ff3c d7c7 03bd bbb6 513e
000002a0: cdcb 203e 052f 243b 52eb 18bd 11ff 46be
000002b0: b9b6 1d3d a485 173d 8072 2abe c310 133e
000002c0: 49b7 043e 59df d3be adf9 e43d 9683 bdbd
000002d0: 6374 d0bd 0e54 5bbe df7f 713e b807 293e
000002e0: 1b8f 99be a821 fdbe bea6 a2bd 1794 1cbd
000002f0: d43f 37be 0415 efbd 9960 84be 4c3b 293e
00000300: c37a a1be 1a4e b73d 85a7 ddbe 0eab 4cbd
00000310: d297 42be 8d8b 2bbd eaf8 34be a9c3 88bd

L2.bias f4 [20]
-0.34902525 0.051409334 0.12140406 0.063362315 0.115695976 0.0206588 0.197833 -0.2690865
0.03803176 -0.028242467 0.114002 -0.14338058 0.0694421 -0.20047703 0.0057802033 -0.1100918
-0.09766437 0.217999 -0.32835555 0.012909825
00000000: 70b3 b2be 9892 523d b1a2 f83d 1ac4 813d
00000010: 03f2 ec3d a53c a93c bc94 4a3e b5c5 89be
00000020: 31c7 1b3d bf5c e7bc e179 e93d 5cd2 12be
00000030: a937 8e3d da49 4dbe dc67 bd3b cf77 e1bd
00000040: 4204 c8bd 213b 5f3e 381e a8be bb83 533c

L3.weight f4 [40, 20]
0.1514237 -0.0057820412 0.1440009 -0.22238798 0.067660786 0.21621358 -0.043539125 0.14681005
-0.07641554 0.036072597 -0.07329797 0.08030678 -0.057449006 -0.045587875 0.07743144 -0.1911319
-0.119917125 0.17659715 0.11956863 0.10025234 -0.34756336 0.13812898 0.19657937 -0.038378213
-0.18030223 0.25189248 -0.17283453 -0.046687 0.42101017 -0.08287361 0.1538428 -0.1697198
-0.12113324 0.012960792 0.045118522 0.098094605 0.23404752 0.20273611 0.11493796 -0.081048466
0.3374789 -0.18603832 -0.07691533 0.13212353 -0.038950093 0.0889222 -0.14214145 0.23993723
-0.37323442 -0.16330948 0.008252253 0.17146531 0.05927354 0.49215597 0.01148248 0.23863432
-0.052587006 -0.249805 0.28214595 0.018503603 0.019264549 0.065832995 0.48930758 -0.033539053
-0.1798576 0.10371919 -0.06726063 0.17707482 0.2706443 0.06612083 0.1557064 0.18208326
-0.061023645 -0.4547859 0.054507416 0.00047172443 0.04477839 -0.27242512 -0.1832183 0.026885519
-0.47477555 -0.16439617 0.10231498 0.121154174 -0.15956604 0.035259422 -0.20239379 -0.36301166
0.1695132 -0.076552756 0.041599605 -0.19923408 0.052121207 0.19374384 -0.20965785 0.064521015
0.2304774 0.08917637 0.055072017 -0.054203838 0.34998107 -0.34170687 0.22789969 0.030425036
-0.0310963 -0.12463139 -0.49066946 0.24066526 -0.39140022 -0.042559948 -0.39059594 0.33325472
0.009825173 -0.027775688 0.06472627 0.58763665 0.011352729 -0.3491213 0.27488485 0.0904583
0.14045715 -0.26306197 -0.026496666 0.18222395 -0.2759224 0.06401067 -0.19913322 0.098766126
-0.11571477 0.0302329 0.08588102 -0.16172509 0.051899016 -0.10235462 -0.22350791 0.037753433
-0.10731384 0.0182494 0.24275881 0.14673567 -0.16875118 -0.09538818 -0.20217685 -0.049438935
0.07659555 -0.15444285 -0.15134515 0.084257 -0.2629038 0.10112873 0.12175 -0.015622332
-0.25737527 -0.16367206 0.1668747 0.06904977 0.019075584 0.13366628 -0.110979564 -0.15129025
-0.28313813 -0.11945558 -0.34749183 0.11508137 0.12339681 0.030768242 0.09209734 0.03954212
-0.05442829 0.1811537 -0.14767812 -0.039341766 -0.17036037 -0.096701264 0.0068837074 0.12616608
-0.0029180963 0.2438891 0.07452666 -0.17138171 0.0147855785 -0.15903766 -0.037143353 0.061737083
0.18588753 0.05514544 0.17633183 -0.3017313 -0.2623497 0.20951456 -0.0028436063 0.26207262
-0.104246125 -0.13090385 -0.24975984 -0.04643715 -0.07290514 0.008011304 -0.07927467 0.20972322
0.0033706117 -0.2390034 0.22923724 -0.08972295 0.0036926658 -0.38036272 -0.15181726 0.25037706
-0.22441792 -0.024408072 -0.0044492274 0.07358658 -0.23124568 0.056262076 0.053869788 0.34246033
0.061820973 -0.42683688 -0.06828404 0.10218897 0.11068786 -0.002295685 -0.19291131 -0.1569342
-0.027688073 0.013730724 -0.15505908 -0.071850754 -0.004561092 0.15590332 -0.06976197 0.26523265
-0.14909148 -0.11991899 0.0359584 -0.15731765 0.026408523 -0.061849494 0.12742989 0.3074771
-0.25285193 0.29008466 0.45814005 -0.16201656 -0.0778581 0.20552227 0.049517106 0.20242414
0.27049163 0.13810144 0.059159167 -0.0494329 0.3537254 -0.0073360517 0.09045441 -0.08976024
00000000: d00e 1b3e 4777 bdbb f974 133e adb9 63be
00000010: bd91 8a3d 1867 5d3e 1556 32bd 6055 163e
00000020: c07f 9cbd dcc0 133d 3f1d 96bd e277 a43d
00000030: a64f 6bbd 5aba 3abd 6094 9e3d 15b8 43be
00000040: 1c97 f5bd e2d5 343e 66e0 f43d 1951 cd3d
00000050: d3f3 b1be af71 0d3e 1a4c 493e 7932 1dbd
00000060: 26a1 38be 0df8 803e 89fb 30be de3a 3fbd
00000070: a58e d73e a4b9 a9bd f888 1d3e 07cb 2dbe
00000080: b414 f8bd 8059 543c 33ce 383d d3e5 c83d
00000090: 27aa 6f3e 0e9a 4f3e 9864 eb3d bdfc a5bd
000000a0: 09ca ac3e d480 3ebe c985 9dbd 644b 073e
000000b0: 228a 1fbd d81c b63d 878d 11be 1bb2 753e
000000c0: 9518 bfbe 9a3a 27be 7534 073c 9a94 2f3e
000000d0: d0c8 723d defb fb3e 0321 3c3c 8e5c 743e
000000e0: 7965 57bd e2cc 7fbe 6f75 903e de94 973c
000000f0: b0d0 9d3c 73d3 863d 8686 fa3e 3f60 09bd
00000100: 972c 38be ba6a d43d f1bf 89bd 1a53 353e
00000110: e491 8a3e 5c6a 873d 8071 1f3e 0974 3a3e
00000120: eef3 79bd b3d9 e8be 2b43 5f3d c851 f739
00000130: 8c69 373d 4e7b 8bbe 949d 3bbe 053f dc3c
00000140: c815 f3be 7857 28be 848a d13d ae1f f83d
00000150: 4865 23be 2f6c 103d 5140 4fbe aadc b9be
00000160: de94 2d3e b1c7 9cbd 5964 2a3d 0504 4cbe
00000170: 0c7d 553d c964 463e 8cb0 56be 9823 843d
00000180: 4402 6c3e 1aa2 b63d 3293 613d d804 5ebd
00000190: b830 b33e 34f4 aebe 895e 693e ed3d f93c
000001a0: abbd febc be3e ffbd 0739 fbbe f470 763e
000001b0: 9c65 c8be 5753 2ebd 31fc c7be 5da0 aa3e
000001c0: c3f9 203c d789 e3bc 358f 843d 5b6f 163f
000001d0: cc00 3a3c 07c0 b2be b5bd 8c3e 3442 b93d
000001e0: 00d4 0f3e 0fb0 86be 890f d9bc ea98 3a3e
000001f0: b345 8dbe 0718 833d 94e9 4bbe e545 ca3d
00000200: defb ecbd fdaa f73c 63e2 af3d 439b 25be
00000210: 1094 543d 4d9f d1bd 42df 64be 58a3 1a3d
00000220: 5cc7 dbbd c47f 953c c495 783e e041 163e
00000230: 1ccd 2cbe e15a c3bd 7307 4fbe 7b80 4abd
00000240: 21de 9c3d 4426 1ebe 39fa 1abe ef8e ac3d
00000250: 549b 86be 941c cf3d 1058 f93d cff4 7fbc
00000260: b1c6 83be a699 27be 34e1 2a3e f769 8d3d
00000270: 6644 9c3c d0df 083e 4149 e3bd d5eb 1abe
00000280: 7bf7 90be 21a5 f4bd 73ea b1be c8af eb3d
00000290: 77b7 fc3d ae0d fc3c 889d bc3d ebf6 213d
000002a0: 33f0 5ebd 5b80 393e ef38 17be d524 21bd
000002b0: f372 2ebe 500b c6bd b990 e13b ae31 013e
000002c0: 883d 3fbb 10be 793e 6fa1 983d b07e 2fbe
000002d0: 363f 723c c5da 22be a123 18bd 06e0 7c3d
000002e0: 4d59 3e3e 2fe0 613d 5590 343e 867c 9abe
000002f0: b352 86be fc8a 563e cc5b 3abb 622e 863e
00000300: fe7e d5bd a90b 06be 0bc1 7fbe e234 3ebd
00000310: 4a4f 95bd d841 033c c25a a2bd afc1 563e
00000320: 7be5 5c3b 4fbd 74be 2bbd 6a3e aac0 b7bd
00000330: a700 723b e7be c2be fc75 1bbe 6c31 803e
00000340: d0cd 65be 70f3 c7bc d3ca 91bb 90b4 963d
00000350: abcb 6cbe 1073 663d 91a6 5c3d f656 af3e
00000360: fd37 7d3d 5d8a dabe 81d8 8bbd 7348 d13d
00000370: 51b0 e23d 3473 16bb 8b8a 45be 5cb3 20be
00000380: 19d2 e2bc d5f6 603c cfc7 1ebe 7d26 93bd
00000390: 3675 95bb 1fa5 1f3e 5ddf 8ebd 93cc 873e
000003a0: 70ab 18be 1698 f5bd 1e49 133d e117 21be
000003b0: b056 d83c e555 7dbd fb7c 023e a36d 9d3e
000003c0: cf75 81be fa85 943e 5591 ea3e abe7 25be
000003d0: 1174 9fbd 6e74 523e 73d2 4a3d 4648 4f3e
000003e0: e17d 8a3e 776a 0d3e e250 723d 277a 4abd
000003f0: 7f1b b53e 4363 f0bb 2940 b93d 37d4 b7bd

L3.bias f4 [40]
-0.1915629 0.15072742 -0.47080237 -0.0778973 0.026462037 -0.12010637 -0.098025374 0.0911233
0.17620951 0.070485346 -0.20779625 -0.08035365 0.16602601 0.2969775 0.23174797 -0.27752104
0.14511864 -0.03459044 0.22366907 0.14260395 0.009229752 -0.21608412 -0.15973794 -0.1398711
-0.06534175 -0.1625809 -0.18674666 -0.29028112 0.11832148 -0.032426342 0.065842874 -0.17780936
-0.1407714 0.0010262821 0.24114807 -0.20298828 0.04904581 -0.16811508 -0.012285734 0.14391534
00000000: 1129 44be 4a58 1a3e 020d f1be 9f88 9fbd
00000010: eac6 d83c 54fa f5bd 87c1 c8bd da9e ba3d
00000020: 4470 343e 9f5a 903d 8ac8 54be 7490 a4bd
00000030: b902 2a3e 6f0d 983e 574f 6d3e 3d17 8ebe
00000040: fb99 143e b5ae 0dbd 8109 653e c506 123e
00000050: 6338 173c 2845 5dbe 5892 23be 5f3a 0fbe
00000060: e5d1 85bd 9c7b 26be 843a 3fbe ba9f 94be
00000070: 8852 f23d 7cd1 04bd a1d8 863d a813 36be
00000080: 6126 10be 5084 863a 85ef 763e 29dc 4fbe
00000090: 42e4 483d 5c26 2cbe 1a4a 49bc 8b5e 133e

L4.weight f4 [20, 40]
0.05436912 -0.2904976 0.018051095 -0.028116332 0.056193635 0.0023274308 0.22605215 -0.033618167
-0.022181405 0.088927254 0.010158568 0.09531233 -0.3032267 -0.2007798 -0.04160994 0.27202284
0.1881564 -0.0007129457 -0.17913057 -0.19830075 0.13431023 -0.05305208 -0.12062724 -0.043298982
-0.08985391 0.11041481 -0.28549996 -0.070027724 -0.36694506 -0.10266591 -0.1888776 0.16743979
0.01305018 0.014958568 -0.115571216 0.040545072 -0.124508485 -0.054663464 -0.025553176 -0.31975725
-0.0044257026 -0.21631873 -0.0026596712 -0.16946343 0.040134773 -0.17194746 -0.07038449 0.030412704
0.07484422 0.1115708 -0.10522442 -0.012709957 0.06758675 -0.15776935 -0.024850713 0.12616801
-0.06400997 -0.16089432 -0.21886374 0.062451027 0.0801796 -0.1127123 0.167957 0.06109157
-0.21751218 0.19058755 0.10284069 -0.07752021 -0.1885895 -0.10884201 -0.012660253 -0.2000995
-0.2778602 -0.12074615 -0.14423464 -0.19343269 -0.3308369 0.041186564 -0.2059918 -0.22520587
0.032634176 0.103484005 -0.19003376 -0.015612381 -0.058185477 0.041688204 -0.17735521 -0.009389886
0.17688727 0.014334834 0.104435116 0.13132069 0.2220283 0.09096668 -0.09729243 0.011384556
-0.20172423 0.16936532 -0.014451501 0.18547466 -0.09352502 0.11148209 0.060043763 -0.15849754
-0.049194388 -0.097055525 0.05498577 0.13548528 0.016218018 0.12114318 -0.028406592 0.0019903202
0.14678116 -0.09781897 0.1710462 -0.10316141 0.16863748 -0.09086319 0.052858222 0.16461724
0.037711382 -0.112767525 -0.033281755 -0.15649225 0.061834347 -0.13281429 0.07619685 -0.05684516
-0.03772183 0.024328955 -0.014082268 -0.07534707 -0.213193 0.0025932204 -0.07124257 0.042105924
0.09719575 -0.107317865 -0.16803844 -0.24542749 -0.06587117 0.03162728 -0.19065088 -0.0027657982
-0.049028512 0.108406566 0.025179513 0.08544026 0.023823088 -0.02793757 -0.15425915 -0.00057799846
-0.1428083 -0.07619459 -0.16698419 -0.03442076 -0.20940049 -0.05888314 0.004960317 -0.11401457
0.1682584 -0.186246 -0.0684112 0.03677483 -0.059252795 -0.062309112 -0.21150836 -0.053712692
-0.0062364107 -0.07397312 0.2043586 0.1087064 0.0993248 0.018265132 -0.0508298 -0.017067548
-0.29720503 -0.23885092 -0.2330463 0.07868299 -0.004138485 -0.43660778 -0.053941924 -0.05419179
0.073015645 0.03998759 -0.064064726 0.15012348 -0.06637931 0.14071597 -0.21596725 0.004293478
0.0038366648 -0.1976241 -0.0034972285 -0.05476138 -0.03320577 0.053423338 -0.18959092 -0.16838849
0.06136256 -0.08349507 -0.0064177914 0.016000934 -0.20036115 -0.053106267 -0.19701967 -0.09337539
-0.113415815 -0.093884096 0.06688848 0.015840681 -0.2642678 -0.10749529 -0.12036095 0.07096267
-0.16946848 -0.0045465836 -0.2291693 -0.25622952 -0.1858662 0.14606977 0.23278078 -0.18413666
0.072202556 -0.15205972 0.021330798 0.052930973 0.007997949 -0.07673978 -0.06584708 0.009354984
0.03718465 -0.080686726 -0.052740123 -0.033333633 -0.08128749 0.0010577341 -0.11689175 -0.16219418
-0.032691713 0.05961743 0.08112249 0.05273423 0.058123916 0.024734624 0.0037163373 -0.13081376
-0.2420002 0.14842723 -0.23277543 0.0044716606 -0.07679492 -0.026150713 -0.026592419 0.09152351
00000000: 28b2 5e3d 1abc 94be e4df 933c 3954 e6bc
00000010: 4c2b 663d cf87 183b 377a 673e 34b3 09bd
00000020: c7b5 b5bc 7e1f b63d 1f70 263c 1c33 c33d
00000030: 8840 9bbe 3899 4dbe 2f6f 2abd 9446 8b3e
00000040: 12ac 403e fae4 3aba 016e 37be 5a0f 4bbe
00000050: 9f88 093e 234d 59bd 6a0b f7bd 465a 31bd
00000060: 5405 b8bd 2921 e23d 0d2d 92be b26a 8fbd
00000070: 39e0 bbbe 8142 d2bd 2169 41be 5675 2b3e
00000080: 6cd0 553c c814 753c 9ab0 ecbd 9712 263d
00000090: 4efe febd cce6 5fbd e554 d1bc 39b7 a3be
000000a0: 7c05 91bb a882 5dbe e14d 2ebb d287 2dbe
000000b0: 5c64 243d ff12 30be be25 90bd 1024 f93c
000000c0: ed47 993d 3b7f e43d e77f d7bd 6c3d 50bc
000000d0: ec6a 8a3d 4a8e 21be b993 cbbc 3032 013e
000000e0: a917 83bd 7bc1 24be d11d 60be a6cc 7f3d
000000f0: 3435 a43d b5d5 e6bd ebfc 2b3e 273b 7a3d
00000100: 83bb 5ebe 6229 433e 249e d23d eac2 9ebd
00000110: 9b1d 41be 8fe8 debd f36c 4fbc e2e6 4cbe
00000120: b143 8ebe c249 f7bd 3fb2 13be 3813 46be
00000130: 7463 a9be 3eb3 283d 84ef 52be 5e9c 66be
00000140: 6aab 053d 6cef d33d 3698 42be 12cb 7fbc
00000150: e553 6ebd 40c1 2a3d 9b9c 35be 09d8 19bc
00000160: f021 353e a7dc 6a3c 14e2 d53d ee78 063e
00000170: 635b 633e bd4c ba3d 4141 c7bd 4a86 3a3c
00000180: cc90 4ebe 1a6e 2d3e fdc5 6cbc 12ed 3d3e
00000190: 0c8a bfbd b950 e43d 73f0 753d 2e4d 22be
000001a0: 0e80 49bd 0cc5 c6bd c238 613d a7bc 0a3e
000001b0: a6db 843c ea19 f83d f1b4 e8bc 0870 023b
000001c0: cd4d 163e 5055 c8bd bc26 2f3e 4a46 d3bd
000001d0: 4eaf 2c3e 7b16 babd dd81 583d 6c91 283e
000001e0: 4077 1a3d a9f2 e6bd 7352 08bd 813f 20be
000001f0: 0346 7d3d 7800 08be 180d 9c3d 78d6 68bd
00000200: 3582 1abd 844d c73c 50b9 66bc 914f 9abd
00000210: 444f 5abe 05f3 293b a0e7 91bd 4377 2c3d
00000220: 910e c73d 78c9 dbbd 4512 2cbe 5851 7bbe
00000230: 77e7 86bd 9b8b 013d fc39 43be 6542 35bb
00000240: 1fd2 48bd 4304 de3d 4445 ce3c 4efb ae3d
00000250: a328 c33c 55dd e4bc 1cf6 1dbe d284 17ba
00000260: 573c 12be e90b 9cbd e7fd 2abe c8fc 0cbd
00000270: 156d 56be 732f 71bd 288a a23b 7980 e9bd
00000280: ee4b 2c3e 45b7 3ebe 2c1b 8cbd 34a1 163d
00000290: 0fb3 72bd d737 7fbd a695 58be d701 5cbd
000002a0: ce5a ccbb 387f 97bd 6143 513e 76a1 de3d
000002b0: cd6a cb3d c2a0 953c e932 50bd 3ed1 8bbc
000002c0: 422b 98be 5695 74be b0a3 6ebe 8c24 a13d
000002d0: 219c 87bb 0e8b dfbe 35f2 5cbd 36f8 5dbd
000002e0: 3a89 953d 07ca 233d 5e34 83bd f8b9 193e
000002f0: e0f1 87bd d917 103e 8526 5dbe 4eb0 8c3b
00000300: 8e70 7b3b f95d 4abe c231 65bb 784d 60bd
00000310: c602 08bd 6ed2 5a3d 1f24 42be 086e 2cbe
00000320: 4f57 7b3d 77ff aabd 564c d2bb 6414 833c
00000330: 792b 4dbe f585 59bd 86bf 49be 993b bfbd
00000340: 8d46 e8bd 4e46 c0bd d4fc 883d 51c4 813c
00000350: 1c4e 87be 7e26 dcbd cd7f f6bd e054 913d
00000360: 2589 2dbe 82fb 94bb 5bab 6abe 8430 83be
00000370: b653 3ebe 5093 153e 165e 6e3e 528e 3cbe
00000380: efde 933d 8bb5 1bbe edbd ae3c 26ce 583d
00000390: d409 033c bf29 9dbd d5da 86bd a645 193c
000003a0: ee4e 183d 153f a5bd 0706 58bd d988 08bd
000003b0: 0e7a a6bd aba3 8a3a f164 efbd 3b16 26be
000003c0: bfe7 05bd 6831 743d 8c23 a63d d9ff 573d
000003d0: 5813 6e3d 44a0 ca3c cb8d 733b 0bf4 05be
000003e0: e7ce 77be 4ffd 173e af5c 6ebe 0287 923b
000003f0: a846 9dbd 053a d6bc 58d8 d9bc ae70 bb3d

L4.bias f4 [20]
-0.14783639 -0.075599894 0.10946048 0.031725403 0.01292909 0.041531596 -0.12809546 -0.09456987
0.18712173 -0.22737382 0.04566472 -0.17709409 -0.1901995 0.16600631 -0.18393451 -0.045177996
0.017453393 0.022066338 0.062537365 0.07816289
00000000: 6c62 17be 1ed4 9abd d12c e03d 7ff2 013d
00000010: 89d4 533c 091d 2a3d 752b 03be d9ad c1bd
00000020: d79c 3f3e afd4 68be ee0a 3b3d 2758 35be
00000030: a8c3 42be 8ffd 293e 5459 3cbe 900c 39bd
00000040: 6bfa 8e3c 77c4 b43c 9713 803d de13 a03d

L5.weight f4 [10, 20]
0.14137729 -0.033293374 -0.19329499 -0.046744965 -0.11085345 -0.0092946235 -0.20319493 -0.13706881
0.07360521 0.02481362 0.3353661 0.34528518 0.116231725 -0.23432647 -0.10142171 0.01433441
0.09104653 0.03751171 -0.28955477 0.004454319 -0.06993746 0.085724175 0.0063651404 -0.05683442
0.14099337 0.18919036 0.054351065 -0.08777913 -0.43739936 0.23398975 -0.38678363 -0.007193859
0.06916874 0.17029962 -0.099605225 -0.027221413 0.22643788 -0.2339504 -0.12827082 -0.05273489
-0.045574598 -0.22866869 0.2734072 -0.06127988 0.1148719 -0.110169165 -0.04038659 -0.12687401
-0.05470476 0.052912574 -0.16328178 -0.13087806 -0.21130821 0.19737877 0.18236274 -0.1358908
0.104436085 -0.04137724 0.14275365 0.05394447 -0.31841934 -0.22220017 -0.07237607 -0.113883376
-0.18829353 -0.13756196 -0.13545701 0.1297941 -0.2213171 0.1050284 -0.07258417 0.052379098
0.13790807 0.20466326 0.25230414 0.015763924 -0.17107305 0.13044399 -0.14579812 -0.0970294
-0.13272974 0.1305443 -0.1770386 0.07810556 0.07080617 -0.07129157 -0.18272313 -0.20838353
0.105013154 0.23413998 0.019254044 0.13944225 0.2763844 -0.25130555 0.0673584 -0.15473051
-0.15557893 -0.24174581 0.043583382 0.06770146 0.20340495 -0.10888355 -0.30155838 -0.2656341
0.09048869 0.082580574 0.13644196 -0.066217475 -0.12055095 0.23485576 -0.19388263 0.24333781
-0.13210656 -0.18169011 0.16707686 0.04225427 -0.073140144 -0.049885362 -0.10350672 0.06062582
-0.140739 -0.44875777 -0.004191362 -0.09920638 -0.089123994 0.10935859 0.1590416 -0.08484713
-0.08322133 -0.2819215 0.12626915 -0.044067077 -0.065603375 0.02770166 0.2136568 0.07013437
-0.101372406 0.14817344 0.19153449 0.12431195 0.33476928 0.09617125 0.090971075 0.2964627
0.05773901 -0.07701235 0.055870198 -0.15697894 -0.3619748 0.17684077 -0.34387177 -0.015539205
-0.14020495 -0.24541189 0.012864826 -0.04282741 0.06905664 -0.038285386 0.035154305 0.02773966
0.11684652 -0.12608153 -0.05143832 -0.20257962 -0.25432622 0.13046414 0.30564708 -0.2605104
0.15747532 -0.19601813 0.06119845 -0.0147756515 0.07822865 -0.11069436 -0.21900643 0.080949135
0.002270496 -0.16269128 -0.07863002 -0.12767419 0.38611484 0.057125676 0.021789154 0.09151175
-0.2371809 0.14945517 0.11529974 -0.11317603 -0.08838825 0.23370813 -0.041275173 0.2836487
0.16180503 -0.13418806 -0.007648828 -0.0803135 -0.04826126 0.014581634 -0.22890373 0.20019597
00000000: 35c5 103e a25e 08bd 1fef 45be a677 3fbd
00000010: 2207 e3bd 7a48 18bc 5512 50be c45b 0cbe
00000020: 54be 963d ef45 cb3c 1bb5 ab3e 38c9 b03e
00000030: e60a ee3d 47f3 6fbe 2fb6 cfbd e0da 6a3c
00000040: 9a76 ba3d e1a5 193d 8640 94be 89f5 913b
00000050: 5f3b 8fbd 2890 af3d ab92 d03b 35cb 68bd
00000060: 9160 103e 1ebb 413e 399f 5e3d 8bc5 b3bd
00000070: cff2 dfbe 029b 6f3e 8108 c6be 77ba ebbb
00000080: 57a8 8d3d 0663 2e3e d3fd cbbd 71ff debc
00000090: 55df 673e b290 6fbe 6d59 03be 8a00 58bd
000000a0: 6eac 3abd 2028 6abe 07fc 8b3e 9d00 7bbd
000000b0: f541 eb3d 5fa0 e1bd 696c 25bd 43eb 01be
000000c0: 1912 60bd dbba 583d 5733 27be e604 06be
000000d0: 2e61 58be a91d 4a3e 4cbd 3a3e f526 0bbe
000000e0: 96e2 d53d 2e7b 29bd 032e 123e e0f4 5c3d
000000f0: dc07 a3be 7188 63be e839 94bd b03b e9bd
00000100: 05d0 40be 0bdd 0cbe 3eb5 0abe bfe8 043e
00000110: f3a0 62be 2119 d73d 02a7 94bd 778b 563d
00000120: c637 0d3e 3f93 513e 022e 813e 5823 813c
00000130: c62d 2fbe 1c93 053e 1a4c 15be 5ab7 c6bd
00000140: 4eea 07be 68ad 053e 9b49 35be cff5 9f3d
00000150: d302 913d 5101 92bd c61b 3bbe 7e62 55be
00000160: 2311 d73d 64c2 6f3e a8ba 9d3c f3c9 0e3e
00000170: 4282 8d3e 1fab 80be 33f3 893d ad71 1ebe
00000180: 1550 1fbe 378c 77be 7d84 323d 10a7 8a3d
00000190: 6349 503e 57fe debd dc65 9abe 3101 88be
000001a0: 2252 b93d 0120 a93d 71b7 0b3e 079d 87bd
000001b0: 6be3 f6bd 077e 703e 2b89 46be 8c2d 793e
000001c0: f146 07be f90c 3abe 3216 2b3e d012 2d3d
000001d0: 80ca 95bd 9854 4cbd 55fb d3bd c852 783d
000001e0: e21d 10be 94c3 e5be b157 89bb b72c cbbd
000001f0: a486 b6bd 65f7 df3d cddb 223e 55c4 adbd
00000200: f26f aabd 0458 90be b34c 013e ae7f 34bd
00000210: 105b 86bd 97ee e23c d9c8 5a3e 9ca2 8f3d
00000220: 569c cfbd c7ba 173e 9e21 443e 4397 fe3d
00000230: e166 ab3e 6ff5 c43d 0b4f ba3d f6c9 973e
00000240: bd7f 6c3d a7b8 9dbd 26d8 643d 16bf 20be
00000250: c354 b9be bf15 353e f60f b0be 2698 7ebc
00000260: e391 0fbe 414d 7bbe fec6 523c cb6b 2fbd
00000270: 916d 8d3d 23d1 1cbd f6fd 0f3d 493e e33c
00000280: 3a4d ef3d 841b 01be fdb0 52bd 0871 4fbe
00000290: 0c37 82be 6498 053e c67d 9c3e 9f61 85be
000002a0: 3641 213e fab8 48be 3aab 7a3d 9315 72bc
000002b0: 5836 a03d bab3 e2bd 3943 60be a9c8 a53d
000002c0: 9acc 143b 8b98 26be c708 a1bd 06bd 02be
000002d0: d8b0 c53e 9dfc 693d 2b7f b23c 836a bb3d
000002e0: 8ddf 72be c70a 193e 4522 ec3d d6c8 e7bd
000002f0: e604 b5bd 2f51 6f3e 2810 29bd 673a 913e
00000300: 38b0 253e 9868 09be 05a3 fabb 677b a4bd
00000310: 99ad 45bd cee7 6e3c bd65 6abe 2c00 4d3e

L5.bias f4 [10]
-0.29544172 0.12399749 0.20599762 0.0009842584 -0.1805775 -0.066791765 0.08965729 0.024034776
0.08375335 -0.11694534
00000000: 2344 97be 65f2 fd3d 0af1 523e 3b02 813a
00000010: 4fe9 38be 1fca 88bd 3e9e b73d 94e4 c43c
00000020: e086 ab3d 0a81 efbd

L6.weight f4 [1, 10]
-0.081504054 -0.24081032 -0.057507534 -0.14565033 0.074400306 0.1746147 -0.076315835 0.022136172
0.037219312 0.0034795299
00000000: 99eb a6bd fb96 76be 058d 6bbd 5c25 15be
00000010: 305f 983d 32ce 323e 7a4b 9cbd eb56 b53c
00000020: 4773 183d d308 643b
