Saved_Models_All_Samples_Limited_Features/target_Hardness_features_5_epochs_34.pth (torch_old, 10514 bytes, 11 tensors)

L1.weight f4 [10, 5]
0	0x3f03013d	0.51173764
1	0xbf065958	-0.5248008
2	0x3f9ff0b1	1.2495328
3	0x3f2eb88b	0.6825034
4	0x3efe3b6e	0.49654716
5	0xbd31a3fb	-0.043369275
6	0xbf4c8c34	-0.79901433
7	0x3f96dec3	1.1786731
8	0x3fa97c8a	1.3241131
9	0xbedc722c	-0.43055856
10	0xbf7883b0	-0.9707594
11	0x3da339f6	0.079700395
12	0xbd055dd0	-0.03256017
13	0xbef40d78	-0.47666526
14	0xbf0ebee1	-0.5576001
15	0x3f804085	1.001969
16	0x3e677d79	0.22606458
17	0x3fdd2094	1.7275567
18	0x3ed64199	0.41846922
19	0x3f15f7f1	0.58581454
20	0xbe8baf6d	-0.27282277
21	0xbe03f011	-0.12884547
22	0xbf86eaf9	-1.0540458
23	0x3f38e8bd	0.7223013
24	0xbe591c6b	-0.21202247
25	0xbe3eb590	-0.18623948
26	0x3c4f5a55	0.012655814
27	0x3f66b202	0.9011537
28	0xbe6579c5	-0.22409733
29	0xbf203ed6	-0.6259588
30	0xbed11fef	-0.40844676
31	0x3e8357c9	0.25652912
32	0xbf7a0d1c	-0.97676253
33	0x3f6e3c31	0.93060595
34	0x3e25cd91	0.16191699
35	0xbe760b33	-0.2402771
36	0xbd84b879	-0.06480498
37	0xbd602574	-0.054723218
38	0x3e8ea4b0	0.27860022
39	0xbe110443	-0.14161782
40	0xbe80d51e	-0.25162596
41	0xbef9deb7	-0.4880273
42	0x3fb58a51	1.4182836
43	0x3f7fc068	0.99902964
44	0xbec31585	-0.38102356
45	0x3e98bdc9	0.29832295
46	0xbee9f30c	-0.45693243
47	0x3fa5cded	1.2953469
48	0xbf037133	-0.51344603
49	0xbf1c6b86	-0.6110157

L1.bias f4 [10]
0	0x3e7cc250	0.246835
1	0x3d4c5d9d	0.049893964
2	0x3ecadee0	0.39623165
3	0x3e5abc29	0.2136084
4	0xbf825285	-1.0181433
5	0xbf496e9e	-0.78684413
6	0xbf011369	-0.5042024
7	0xbf8927ac	-1.0715232
8	0xbf43f4f6	-0.76545656
9	0xbfaf23df	-1.3682822

L2.weight f4 [20, 10]
0	0x3f2c2a57	0.67252105
1	0x3f2b61f5	0.66946346
2	0xbfaf88af	-1.3713588
3	0x3f31901e	0.6936053
4	0xbe3987cb	-0.18118207
5	0x3e378b38	0.17924201
6	0xbe7a55c8	-0.24446785
7	0x3c81a5e3	0.015826171
8	0x3f4ce0f6	0.80030763
9	0xbf0c8777	-0.548942
10	0x3e89d665	0.26921383
11	0xbfd4b17f	-1.6616668
12	0x3e748da8	0.23882163
13	0xbf8af311	-1.0855428
14	0xbe159bc2	-0.14610198
15	0x3f4e9f33	0.8071167
16	0xbec7d147	-0.39026853
17	0x3e075076	0.13214287
18	0xbf5c46c6	-0.8604549
19	0x3f864884	1.049088
20	0xbea610ba	-0.32434636
21	0xc002d586	-2.0442824
22	0x3eb81cc6	0.35959452
23	0xbf3d6238	-0.73977995
24	0x3e7c89f9	0.24662007
25	0x3ee3ad08	0.4446795
26	0x3e32567c	0.17415804
27	0x3edabf25	0.42723957
28	0xbe9b4090	-0.30322695
29	0x3fb64887	1.4240884
30	0xbedffd8d	-0.4374813
31	0xbfcd4e53	-1.6039528
32	0x3ec18009	0.37792996
33	0xbf780db5	-0.96895915
34	0x3e9a5741	0.30144694
35	0x3e75cc56	0.24003729
36	0x3f91dcac	1.1395469
37	0xbf275470	-0.65363216
38	0xbf720e82	-0.9455339
39	0x3f23962b	0.63901013
40	0xbf03334d	-0.51250154
41	0xbfbc0316	-1.4688442
42	0xbef6548d	-0.48111382
43	0xbfbf534a	-1.4947293
44	0x3f6caead	0.92454034
45	0xbed900af	-0.42383334
46	0x3f2d68ad	0.6773785
47	0xbeff9d3e	-0.49924654
48	0xbff5bd22	-1.9198344
49	0x3d0e8006	0.03479006
50	0xbf4e911a	-0.8069016
51	0xbfc188ab	-1.5119833
52	0x3ea6d494	0.3258406
53	0xbfd11231	-1.6333677
54	0xba552e1b	-0.00081321754
55	0x3f0ae2d3	0.54252356
56	0x3f0f3b17	0.5594954
57	0x3e92dd7c	0.28684604
58	0xbf847099	-1.0346862
59	0x3eff652b	0.49881873
60	0xbe83daf2	-0.2575298
61	0xbef0bc25	-0.47018543
62	0x3f0f4615	0.5596631
63	0xbfcc5f48	-1.5966578
64	0x3f2aa4b7	0.66657585
65	0x3f385b48	0.72014284
66	0x3f226319	0.6343246
67	0xbece27bd	-0.40264693
68	0xbfe87611	-1.8161031
69	0x3e9da269	0.30787972
70	0xbd2b944a	-0.041889466
71	0x3f146922	0.5797292
72	0xbff8f469	-1.9449588
73	0x3e3f18d1	0.1866181
74	0xbf565340	-0.8372078
75	0xbdad5088	-0.08462626
76	0xbf266557	-0.6499838
77	0x3cafc6e3	0.021457141
78	0x3f1a0ff0	0.6018057
79	0xbe7cab1f	-0.24674653
80	0xbf40c285	-0.75296813
81	0x3f155f59	0.58348614
82	0x3e96864d	0.29399338
83	0xbf09e40b	-0.5386359
84	0xbe070bd1	-0.13188101
85	0x3dfe507f	0.12417697
86	0xbd6c86f4	-0.05774589
87	0x3ce8653e	0.028368589
88	0xbf92e64e	-1.1476533
89	0x3f358ee9	0.7092119
90	0xbeac2fdc	-0.33630264
91	0x3ef3d603	0.47624215
92	0xbec77381	-0.3895531
93	0xbea1209d	-0.31470194
94	0x3eb90bb9	0.36141756
95	0xbdf7cf9b	-0.121001445
96	0xbf02a789	-0.5103689
97	0x3e4ebcb4	0.20189172
98	0xbfc1bb41	-1.513527
99	0x3da3ea74	0.08003703
100	0xbf225cab	-0.6342265
101	0x3eed477f	0.4634361
102	0x3d03be1e	0.03216373
103	0xbf84f2f0	-1.0386639
104	0xbdf99704	-0.12187007
105	0x3efd5aa3	0.49483213
106	0x3f34057c	0.7032087
107	0x3e8e1b0e	0.27755016
108	0xbef7cb40	-0.48397255
109	0x3ec1b4b0	0.37833166
110	0xbf44f393	-0.76934165
111	0xbf582567	-0.8443207
112	0x3d5e91e5	0.054338355
113	0xbf601756	-0.8753561
114	0xbc40fbc8	-0.011778779
115	0xbe1b68e7	-0.15176736
116	0x3daacf62	0.083403364
117	0xbe295b65	-0.1653877
118	0xbf4f4819	-0.8096939
119	0xbef33b76	-0.47506303
120	0xbfa292e1	-1.2701074
121	0x3ec16f01	0.37780002
122	0x3ebf4c19	0.37362745
123	0xbf6f03db	-0.9336526
124	0xbdb8af74	-0.0901784
125	0x3f0b3d94	0.54390836
126	0x3f2eb498	0.68244314
127	0xbe4a324a	-0.19745746
128	0xbbdee172	-0.0068017775
129	0x3f4a5b9a	0.7904602
130	0x3e9a91ef	0.30189463
131	0x3f160028	0.5859399
132	0xbfc3e42d	-1.5304009
133	0x3dbbcbf4	0.0916976
134	0xbe90778c	-0.28216207
135	0x3dd05588	0.10172564
136	0xbe9f37b0	-0.31097174
137	0x3f0292ef	0.5100545
138	0x3f8e7b9e	1.1131475
139	0xbd7a4e51	-0.061109845
140	0xbed40e64	-0.4141723
141	0xbe0a7075	-0.13519461
142	0xbfdfe17f	-1.7490691
143	0xbbc2af7c	-0.0059413295
144	0xbf0fc39e	-0.56157863
145	0xbb80e726	-0.003933805
146	0xbf112632	-0.56698906
147	0x3ddefd08	0.10888106
148	0x3f2ebd26	0.6825737
149	0xbf7f1e48	-0.9965558
150	0x3ef09656	0.46989697
151	0x3e824a6e	0.2544741
152	0xbfd709e2	-1.6799891
153	0x3e973015	0.2952887
154	0xbf8b650e	-1.0890214
155	0x3e17ffcd	0.14843674
156	0xbf53615b	-0.8257043
157	0xbdf506f1	-0.119642146
158	0x3f7b6828	0.98205805
159	0xbee80401	-0.45315555
160	0xbe880c97	-0.26572105
161	0xbf60358b	-0.875817
162	0xbe28f204	-0.16498572
163	0xbf40f1e2	-0.75369084
164	0x3eaebca2	0.3412829
165	0xbc57a409	-0.013161668
166	0x3eb58c75	0.35458723
167	0x3eb6d573	0.35709724
168	0x3ec37214	0.38172972
169	0xbe118f02	-0.1421471
170	0x3ea6e6b0	0.32597876
171	0x3f26a6a7	0.6509804
172	0xbf04b716	-0.51841867
173	0x3f45b379	0.7722698
174	0xbf0eb3da	-0.5574318
175	0xbd8405bf	-0.064464085
176	0xbf820c7c	-1.016006
177	0xbec165f1	-0.37773088
178	0x3faeb853	1.3650001
179	0xbf2cf353	-0.67558783
180	0xbeedf44f	-0.46475455
181	0xbe832372	-0.2561298
182	0x3ed34235	0.4126145
183	0xbf3861d4	-0.72024274
184	0xbea1cdb8	-0.31602263
185	0x3d4948f9	0.049141858
186	0xbd6f35ad	-0.0584008
187	0x3c387274	0.0112577565
188	0xbf366c8f	-0.712594
189	0x3ec86fcc	0.39147794
190	0xbf2a0e65	-0.66428214
191	0x3dda634b	0.1066347
192	0xbff274e1	-1.8941919
193	0xbe649bee	-0.22325107
194	0xbfb3a31f	-1.4034156
195	0xbf2a147c	-0.66437507
196	0xbfb877b5	-1.4411532
197	0x3e208fc7	0.15679847
198	0x3ea5ffec	0.32421815
199	0xbf23ec24	-0.64032197

L2.bias f4 [20]
0	0xbec55912	-0.38544518
1	0xbeb4454e	-0.35209125
2	0xbec78803	-0.38970956
3	0x3e76202a	0.24035707
4	0x3d639034	0.055557445
5	0x3e15078d	0.14553662
6	0x3e01be87	0.12670337
7	0xbed309d8	-0.41218448
8	0x3dc5c9cf	0.096576326
9	0xbe6a9998	-0.22910154
10	0xbe8f526f	-0.2799258
11	0xbf1ab2e9	-0.60429245
12	0x3e1c84c9	0.15285029
13	0xbef276c4	-0.47356236
14	0xbf1c89d8	-0.6114783
15	0x3e136e07	0.14397441
16	0xbebd5c2d	-0.36984387
17	0xbbdc1bee	-0.0067171967
18	0xbef2cf8f	-0.4742398
19	0xbe86e1c7	-0.2634413

L3.weight f4 [40, 20]
0	0x3e74aa7d	0.23893161
1	0x3ed66e75	0.41881147
2	0xbd8b58ca	-0.068040445
3	0xbf0d96d8	-0.55308294
4	0x3cec8bc8	0.028875247
5	0x3eac2077	0.3361852
6	0x3dc909a4	0.09816292
7	0xbee90ee9	-0.45519188
8	0x3e1b827a	0.15186492
9	0xbde0dfa7	-0.10980158
10	0xbf010904	-0.5040438
11	0x3fb4c035	1.4121157
12	0xbf4c5ec4	-0.798321
13	0xbc8c003d	-0.017089957
14	0xbecf02b8	-0.40431762
15	0xbf15a48c	-0.58454204
16	0xbe8586ae	-0.26079315
17	0xbf268d9d	-0.65059835
18	0x3f87db4b	1.0613798
19	0x3f247a2a	0.6424891
20	0xbf1724ca	-0.5904051
21	0xbe2c6d28	-0.16838515
22	0xbe964046	-0.29345912
23	0xbef72afe	-0.48274988
24	0xbf03cb4b	-0.51482075
25	0x3d71b7de	0.05901324
26	0xbf2177ab	-0.63073224
27	0xbe8a3c4b	-0.26999125
28	0xbf1b9be2	-0.60784733
29	0x3e73cdcf	0.23808978
30	0xbf0c85cb	-0.5489165
31	0xbe6abdac	-0.22923917
32	0xbea635bf	-0.3246288
33	0xbdb5326e	-0.08847509
34	0x3deb62c0	0.114934444
35	0xbef17b08	-0.47164178
36	0x3dfd359c	0.12363741
37	0xbe99df33	-0.300531
38	0x3ea461a6	0.3210575
39	0x3d48348d	0.04887824
40	0x3f20a265	0.62747794
41	0xbf5cb53f	-0.8621406
42	0xbf3e29bf	-0.7428245
43	0xbe6e4ba5	-0.23271044
44	0xbf389597	-0.72103256
45	0xbf475cb9	-0.7787586
46	0xbf11e7a0	-0.56994057
47	0x3e513ae2	0.20432618
48	0x3e7bae7d	0.24578281
49	0xbe27743d	-0.16352935
50	0xbcecf6e9	-0.02892633
51	0xbf13daa8	-0.5775552
52	0xbf30758d	-0.6892937
53	0x3f03304c	0.5124557
54	0x3e1e65d2	0.15468529
55	0x3f088614	0.53329587
56	0xbe9ad141	-0.30237773
57	0xbfbe88ac	-1.4885459
58	0xbf224731	-0.6338988
59	0x3cb2117f	0.021736858
60	0xbf1158ea	-0.567763
61	0xbe11ff3a	-0.14257517
62	0x3d8f80ca	0.070069864
63	0xbd88627a	-0.06659408
64	0x3b9c7bdb	0.004775507
65	0xbe06ca27	-0.13163052
66	0xbe12081f	-0.1426091
67	0xbda457a0	-0.08024526
68	0xbeb321c3	-0.34986696
69	0xbe38659e	-0.18007514
70	0xbd86d0e5	-0.06582812
71	0x3ed2b28d	0.41151848
72	0xb98b4ed1	-0.0002657087
73	0xbf2e3547	-0.68050045
74	0x3ec63b9a	0.38717347
75	0xbe6f4146	-0.23364744
76	0xbe11ed33	-0.1425064
77	0xbf15facc	-0.5858581
78	0x3d0007c4	0.031257406
79	0xbdabbd8f	-0.08385765
80	0xbeae01ed	-0.33985844
81	0xbece7ec1	-0.4033108
82	0xbea4be86	-0.32176608
83	0xbecd8d44	-0.4014684
84	0xbe0e28f0	-0.13882804
85	0xbe85b108	-0.26111627
86	0xbeaae7ab	-0.33379874
87	0xbf4604d9	-0.77351147
88	0xbe5ef238	-0.21772087
89	0xbee4680c	-0.4461063
90	0xbdfb70c5	-0.122773685
91	0xbe4d4fb8	-0.20049942
92	0xbd307046	-0.043075822
93	0xbe13641c	-0.14393657
94	0x3eebcc2f	0.46054217
95	0xbe356635	-0.1771477
96	0x3ba808e8	0.005128015
97	0xbe09f07b	-0.13470642
98	0x3c9d4fcc	0.01920309
99	0xbe8adfee	-0.2712397
100	0xbe036d1a	-0.12834588
101	0xbdfd81ec	-0.12378296
102	0xbe1ebea9	-0.15502419
103	0xbe42c0a3	-0.19018798
104	0x3e7a534c	0.24445838
105	0x3b99d536	0.004694606
106	0xbdda41c0	-0.10657072
107	0xbe7f02e3	-0.24903445
108	0xbf135f7f	-0.5756759
109	0xbe77e1ba	-0.24207202
110	0xbe4c506a	-0.1995255
111	0x3f901c0d	1.125856
112	0xbd9b6a60	-0.07588649
113	0xbe775b6f	-0.24155973
114	0xbdc8285b	-0.09773322
115	0x3ddced69	0.1078747
116	0x3ea8ba2d	0.3295454
117	0xbdb40893	-0.08790698
118	0x3e054896	0.1301597
119	0xbd77a031	-0.060455505
120	0xbeb2ab01	-0.3489609
121	0xbe9bd32b	-0.30434546
122	0xbbdbf167	-0.006712127
123	0xbd207443	-0.039173376
124	0xbec73b09	-0.38912228
125	0xbdaeeec5	-0.085416354
126	0xbdc9bec2	-0.09850837
127	0x3cf632f5	0.030053595
128	0xbc8cacb1	-0.01717219
129	0x3ee58b0a	0.4483264
130	0xbf130b98	-0.57439566
131	0x3f279f1a	0.65477145
132	0xbed37358	-0.41298938
133	0xbeabac04	-0.33529675
134	0x3ee7cf06	0.45275134
135	0x3e25ea75	0.1620272
136	0xbf24a437	-0.6431307
137	0xbf0d10fd	-0.5510405
138	0x3f2774b4	0.6541245
139	0x3eccb89d	0.399846
140	0xbf196b26	-0.5992912
141	0x3cc829a3	0.024433916
142	0xbe9dc6f6	-0.30815858
143	0xbe571b54	-0.21006519
144	0x3ee61482	0.4493752
145	0xbd3fa755	-0.04679044
146	0xbd21a324	-0.039462224
147	0xbf91e4bf	-1.1397933
148	0xbe7383d7	-0.23780762
149	0xbe2a84f1	-0.16652276
150	0xbee6d8ce	-0.45087284
151	0x3e8ee3b6	0.27908105
152	0xbc0fa327	-0.008766926
153	0xbe1fd5ad	-0.15608855
154	0x3f1fb120	0.62379646
155	0x3ee329b0	0.44367743
156	0x3e3fcdb1	0.18730809
157	0x3cd48d0f	0.025946168
158	0x3e5e98da	0.21737996
159	0xbea7ab0a	-0.3274768
160	0xbe06b18e	-0.13153669
161	0xbe9a8024	-0.3017589
162	0xbf76a4d2	-0.96345246
163	0xbf0e2ba8	-0.55535364
164	0xbf03aab0	-0.51432323
165	0xbe0d08f6	-0.1377295
166	0xbe90247f	-0.28152844
167	0xbdb55e95	-0.08855931
168	0xbeaba639	-0.33525255
169	0xbe70778b	-0.23483102
170	0xbd90e50b	-0.070749365
171	0xbf9504df	-1.1642112
172	0x3d5e6080	0.05429125
173	0x3ee8702a	0.45398074
174	0x3ce1a6fd	0.027545447
175	0x3f80256a	1.0011418
176	0xbea92490	-0.33035707
177	0xbe22b0c5	-0.15887745
178	0x3e1e75d9	0.15474643
179	0xbf1da04e	-0.6157273
180	0xbd0eb7e8	-0.034843355
181	0xbf8cbd7f	-1.099533
182	0xbfa41007	-1.2817391
183	0xbf8e1643	-1.1100544
184	0xbea99e13	-0.33128414
185	0xbed13bc8	-0.40865922
186	0xbf49ccc2	-0.7882806
187	0x3f797c72	0.97455513
188	0xbde17215	-0.110080875
189	0xbe226dc6	-0.15862188
190	0xbf196f27	-0.5993523
191	0x3e383982	0.17990687
192	0xbf812a81	-1.0091096
193	0x3edab280	0.4271431
194	0xbf82fd9c	-1.0233645
195	0xbf806503	-1.0030826
196	0xbf15b863	-0.58484477
197	0xbf117085	-0.56812316
198	0xbea550aa	-0.32288104
199	0xbec6da1c	-0.3883828
200	0x3e0275cd	0.1274025
201	0xbf852d98	-1.0404539
202	0xbf150b89	-0.58220726
203	0xbf3a51a9	-0.72780854
204	0xbf1ea0d1	-0.61964136
205	0xbf6c0876	-0.9220041
206	0xbf370085	-0.7148517
207	0xbe2da420	-0.1695714
208	0x3edfe790	0.43731356
209	0xbbd02d80	-0.0063530803
210	0xbebd42c4	-0.36965
211	0xbe966236	-0.29371804
212	0x3ddbbf18	0.107298076
213	0xbf131d90	-0.57466984
214	0x3e3a997e	0.18222615
215	0x3e552bdc	0.20817512
216	0xbf58d722	-0.84703267
217	0xbf2ca393	-0.67437094
218	0xbe50cb4a	-0.20390049
219	0x3f85da63	1.0457271
220	0xbf3932aa	-0.7234293
221	0xbef42065	-0.47680965
222	0xbf17529f	-0.59110445
223	0xbf42b3e8	-0.76055765
224	0xbf87cd8a	-1.06096
225	0xbf178a07	-0.5919499
226	0xbf6309e3	-0.8868696
227	0x3e57a7db	0.21060126
228	0xbf63f4e3	-0.8904554
229	0x3d53696d	0.051614214
230	0x3f259b20	0.64689827
231	0x3f7c4754	0.9854634
232	0x3f14f96a	0.58193076
233	0xbe964ca3	-0.29355344
234	0xbebb8b96	-0.36629933
235	0x3e87537f	0.2643089
236	0x3dc1394d	0.094347574
237	0x3e4035f3	0.1877058
238	0x3e933bda	0.287566
239	0xbf193139	-0.5984073
240	0xbe1ded12	-0.15422466
241	0x3e352da4	0.17693192
242	0xbdbba07a	-0.09161468
243	0xbf3aed58	-0.7301841
244	0xbed9b9ca	-0.42524558
245	0xbf0f01ff	-0.5586242
246	0xbe187522	-0.14888433
247	0x3eba9931	0.36445
248	0xbe4d7b87	-0.20066653
249	0xbe1565f6	-0.14589676
250	0xbeba838e	-0.36428493
251	0x3ed39940	0.41327858
252	0x3e2e5613	0.17025022
253	0xbec889a2	-0.39167506
254	0x3e9d0e85	0.3067514
255	0xbf46a644	-0.7759745

L3.bias f4 [40]
0	0xbf643951	-0.8914996
1	0xbca3ea81	-0.020009281
2	0xbf350f21	-0.7072621
3	0xbf27fe1d	-0.6562212
4	0xbea79175	-0.32728162
5	0xbf9d20f2	-1.2275679
6	0xbf8326a3	-1.0246166
7	0xbf8e6e81	-1.1127473
8	0xbf30fc00	-0.6913452
9	0xbee5054e	-0.4473061
10	0xbf5d69ba	-0.8648945
11	0xbf4dd762	-0.80406773
12	0xbe46b5da	-0.19405308
13	0x3e6268ff	0.22110365
14	0xbe7ee624	-0.24892479
15	0xbf803f26	-1.0019271
16	0x3f29608a	0.6616293
17	0xbe85e846	-0.26153773
18	0xbe82df65	-0.25561062
19	0xbed10f6a	-0.40832072
20	0xbf81ca7c	-1.0139918
21	0xbef8b2c9	-0.48573902
22	0xbf36cfd1	-0.7141085
23	0xbf857603	-1.0426639
24	0xbd208265	-0.039186854
25	0x3f249a07	0.6429753
26	0xbed7b0af	-0.42126986
27	0xbfb29de9	-1.395444
28	0x3e1e4665	0.15456541
29	0xbecda242	-0.40162855
30	0x3daa52b3	0.08316555
31	0xbfaf32e7	-1.3687409
32	0xbea9880f	-0.33111617
33	0x3e47ec2c	0.19523686
34	0xbe939e59	-0.28831747
35	0xbec188f7	-0.37799808
36	0xbf0b6716	-0.5445417
37	0xbfb98411	-1.4493428
38	0xbf2ecbfe	-0.6828002
39	0xbe495e13	-0.19664793

L4.weight f4 [20, 40]
0	0xbe463d41	-0.19359304
1	0xbd1639b3	-0.03667612
2	0xbe821c35	-0.25412145
3	0x3e039843	0.12851052
4	0x3f81d40e	1.0142839
5	0x3dffceac	0.124905914
6	0x3e45c11d	0.19311948
7	0x3f03120d	0.5119942
8	0x3f2e34eb	0.68049496
9	0x3f4ee1d6	0.8081335
10	0xbed0d390	-0.4078641
11	0x3f69245b	0.910711
12	0x3d8ed7b7	0.06974738
13	0xbeb14503	-0.34622964
14	0xbd919bae	-0.07109772
15	0x3e72eb1c	0.237225
16	0x3e9a97fe	0.30194086
17	0x3eeb3189	0.4593623
18	0xbe5182ad	-0.20460005
19	0xbec2767e	-0.37981027
20	0x3f12a8dc	0.5728891
21	0x3e26ae05	0.1627732
22	0xb9a2dce7	-0.00031063633
23	0x3f1d2091	0.6137782
24	0xbe54271c	-0.20718044
25	0xbe2299cf	-0.15878986
26	0x3eb48ab9	0.35262087
27	0x3e0c0d5e	0.13676974
28	0xbf73feb9	-0.9531055
29	0x3ec218a3	0.3790942
30	0xbf26dc81	-0.6518021
31	0x3eb75af7	0.35811588
32	0x3f2263ee	0.6343373
33	0xbe97a66b	-0.29619154
34	0x3ee93da2	0.45554835
35	0xbe31d505	-0.17366417
36	0x3dab6cab	0.08370336
37	0x3f954b63	1.1663631
38	0x3ece559b	0.40299687
39	0x3e65dbf5	0.22447188
40	0x3db865f4	0.09003821
41	0xbe82243e	-0.25418276
42	0x3f085d52	0.53267395
43	0xbee461c6	-0.44605845
44	0xbecd456c	-0.40092027
45	0xbe84c7fc	-0.25933826
46	0x3ea17c58	0.3154018
47	0xbe81763c	-0.25285518
48	0xbea1adc6	-0.3157789
49	0x3f9f9bdf	1.2469443
50	0x3e86ef4a	0.26354438
51	0xbe9189e3	-0.28425512
52	0xbda717d4	-0.08158842
53	0xbf2c3051	-0.67261225
54	0x3effc717	0.4995658
55	0x3e6967ad	0.22793455
56	0x3f7a7860	0.9783993
57	0xbdaff066	-0.08590774
58	0xbe29c1a8	-0.1657778
59	0x3f704adc	0.93864226
60	0x3e6001a0	0.2187562
61	0x3e3a99a3	0.1822267
62	0x3c8c9090	0.017158777
63	0xbeb1f75f	-0.34759042
64	0xbb9ee6b2	-0.0048492784
65	0x3f048139	0.5175968
66	0xbcaf7c6f	-0.02142164
67	0xbd255095	-0.040360052
68	0xbf099e25	-0.53756934
69	0xbe912442	-0.28347975
70	0xbeb4db70	-0.35323668
71	0xbf33de86	-0.7026142
72	0xbf946d8f	-1.1595935
73	0x3ecbfd33	0.39841613
74	0xbe66b6c2	-0.22530654
75	0xbe0d9e0d	-0.13829823
76	0x3b3d630d	0.002889815
77	0x3f15ef1c	0.58567977
78	0xbdb4614e	-0.08807622
79	0x3e6bae6e	0.23015758
80	0xbe91c46c	-0.2847017
81	0xbd9762de	-0.07391904
82	0x3ec2f92c	0.38080728
83	0xbdf04c75	-0.11733333
84	0xbd17e5ae	-0.037084274
85	0xbd962478	-0.073311746
86	0xbd9dfaa4	-0.077138215
87	0x3d5fe7cb	0.054664414
88	0x3f138eed	0.5763996
89	0xbf0a4ca5	-0.540232
90	0x3e11d085	0.142397
91	0x3f7a39cf	0.9774446
92	0x3db22acf	0.08699571
93	0x3d6ad3e9	0.057331
94	0x3dadf213	0.084934376
95	0x3e28eea0	0.16497278
96	0xbf84b20b	-1.0366834
97	0xbbd34163	-0.0064470037
98	0x3e0c81f3	0.13721447
99	0x3e68ffc3	0.22753815
100	0xbd2a6961	-0.041604403
101	0xbd2dd072	-0.042435117
102	0xbe1d08c7	-0.1533538
103	0xbe1b87d4	-0.15188533
104	0xbee8d531	-0.45475152
105	0xbf301e6c	-0.6879642
106	0xbdc2bfe6	-0.09509258
107	0x3b8dd8c2	0.004328818
108	0xbf1fdf02	-0.6244966
109	0xbde2bdd6	-0.110713646
110	0xbf059760	-0.52184105
111	0xbe4c97eb	-0.19979827
112	0x3d2f6d82	0.042829044
113	0xbf077447	-0.529118
114	0xbdde16da	-0.10844202
115	0xbebb42ed	-0.36574498
116	0x3d92c371	0.07166184
117	0x3e736910	0.23770547
118	0x3e889fcf	0.26684424
119	0xbe808e37	-0.251085
120	0x3e021c57	0.12706123
121	0xbf4133fa	-0.75469935
122	0x3f60e7ee	0.87853897
123	0xbe859a77	-0.2609441
124	0xbe3b6747	-0.18301116
125	0x3dddde8f	0.10833465
126	0x3ec308c6	0.3809263
127	0xbd592685	-0.05301525
128	0xbe6b19ce	-0.22959062
129	0x3e9c80c6	0.30566996
130	0x3f113474	0.5672066
131	0x3cbb40fd	0.022858137
132	0xbf168fb0	-0.58813
133	0xbf36a369	-0.71343094
134	0x3f18e972	0.5973121
135	0x3e74ba0d	0.23899098
136	0x3f4d8669	0.8028322
137	0xbe04164d	-0.12899132
138	0xbf277e4e	-0.654271
139	0xbf22c26a	-0.635779
140	0x3ad65c96	0.0016354497
141	0xbea42c1a	-0.32064897
142	0xbd753d72	-0.059873052
143	0x3f13fadd	0.5780466
144	0xbf855c36	-1.0418766
145	0x3f1034e5	0.5633071
146	0xbd963fe6	-0.073364064
147	0x3da6ee5b	0.081509314
148	0xbedc5e7d	-0.4304084
149	0xbe1c77b3	-0.15280037
150	0xbecdcb01	-0.40193942
151	0x3da2b327	0.07944327
152	0xbf07474c	-0.52843165
153	0x3f11ba57	0.5692496
154	0x3e49affd	0.1969604
155	0x3e5acd58	0.21367395
156	0x3e3f75b9	0.18697251
157	0x3f1b4f0a	0.6066748
158	0x3f154bd1	0.5831881
159	0xbec697da	-0.3878773
160	0x3e7f315b	0.24921171
161	0x3e26256d	0.16225214
162	0xbe80f2c0	-0.25185204
163	0x3eb53f19	0.35399702
164	0xbdda8646	-0.10670142
165	0x3df5255f	0.119700186
166	0x3f048d55	0.51778156
167	0x3e0e1bc0	0.13877773
168	0x3f20cc92	0.6281215
169	0x3f3054af	0.68879217
170	0x3dc3fe47	0.09569984
171	0x3ea89669	0.32927254
172	0x3db21201	0.0869484
173	0xbe7e7b2f	-0.24851678
174	0x3f84bb27	1.0369614
175	0xbe13b300	-0.14423752
176	0x3f5c9d1d	0.86177236
177	0x3bf197f6	0.0073728515
178	0xbe8d190a	-0.27558166
179	0xbe249753	-0.1607335
180	0xbd8ec289	-0.069706984
181	0xbd7e3e6b	-0.062071245
182	0x3ee73a84	0.4516183
183	0x3da1094d	0.07863102
184	0xbe746958	-0.2386831
185	0xbddc07d9	-0.10743684
186	0x3d67c58d	0.056584883
187	0x3f3ce2b6	0.73783433
188	0xbdeb1c60	-0.114800215
189	0x3f15b49d	0.5847872
190	0xbea82eba	-0.3284815
191	0x3e3bad36	0.18327793
192	0xbe55bdff	-0.20873259
193	0x3bbe18d4	0.0058012996
194	0xbe305148	-0.17218506
195	0xbe38db9f	-0.18052529
196	0x3ed71fcc	0.42016447
197	0xbebb4d76	-0.36582536
198	0x3ee8002f	0.4531264
199	0xbe118a42	-0.14212897
200	0xbf190a88	-0.59781694
201	0x3d6656fb	0.056235295
202	0x3e0aae77	0.13543116
203	0x3dfa52ae	0.12222801
204	0xbdce5e47	-0.10076576
205	0xbe0a5e1c	-0.13512462
206	0x3e9b42fa	0.30324537
207	0x3e06a697	0.13149486
208	0xbf182cba	-0.5944325
209	0x3f27c459	0.6553398
210	0x3e37ed03	0.17961507
211	0xbd49f2e6	-0.04930391
212	0xbd223ed2	-0.03961069
213	0xbec73632	-0.38908535
214	0xbe9db117	-0.3079917
215	0x3e2f08f1	0.17093255
216	0xbef9c54d	-0.4878334
217	0x3db67805	0.08909611
218	0xbd946d8b	-0.07247456
219	0x3f801e29	1.0009204
220	0x3fbb4843	1.4631428
221	0x3e366d65	0.17815168
222	0xbeafc892	-0.3433271
223	0x3e7418ed	0.23837633
224	0xbc99e8e6	-0.018787812
225	0xbe8cedca	-0.2752517
226	0x3d94996e	0.07255827
227	0xbeaf3f13	-0.3422781
228	0xbe315d29	-0.17320694
229	0x3bb7c6d8	0.005608421
230	0xbe2374c2	-0.15962508
231	0xbe1b8ad0	-0.15189672
232	0x3cf13667	0.029444886
233	0x3d9cc2dc	0.07654354
234	0x3ca48e3f	0.02008736
235	0xbe36e3c8	-0.17860329
236	0x3e40dc0e	0.18833944
237	0xbede6599	-0.43436888
238	0x3e1d83f9	0.15382375
239	0x3f83f785	1.0309912
240	0x3ec4c58e	0.38431972
241	0x3edfea76	0.43733567
242	0x3f18c327	0.5967278
243	0xbe0dcff0	-0.13848853
244	0xbe885765	-0.26629177
245	0xbd7dbf46	-0.06194999
246	0xbd0c0003	-0.0341797
247	0x3e9b3720	0.30315495
248	0x3b7cc737	0.003857089
249	0x3ddf18ae	0.10893379
250	0x3ee9a5a2	0.4563418
251	0x3defdb02	0.11711694
252	0x3ef3651b	0.47538075
253	0xbf2d155e	-0.6761073
254	0x3ebc2aca	0.36751395
255	0x3cfa7375	0.030572632

L4.bias f4 [20]
0	0xbf51c61c	-0.81942916
1	0x3e7a3754	0.24435169
2	0x3d7918c1	0.060814623
3	0x3e2392c1	0.15973951
4	0x3e1f9e2a	0.15587679
5	0x3e0cf945	0.13766964
6	0x3eac83fb	0.33694443
7	0x3be674d2	0.007032969
8	0x3e3652ac	0.17804974
9	0xbf84a329	-1.0362293
10	0x3e0dd42d	0.1385047
11	0xbfa106c3	-1.2580189
12	0xbedda428	-0.43289304
13	0x3e73e942	0.2381945
14	0xbe745407	-0.23860179
15	0xbee7bb11	-0.45259908
16	0xbf192cca	-0.5983397
17	0x3f49a149	0.78761727
18	0xbf0c177d	-0.5472334
19	0xbf0b2d4b	-0.54365987

L5.weight f4 [10, 20]
0	0x3e4daddc	0.20085853
1	0xbd85c6f7	-0.0653209
2	0xbf21a7a4	-0.63146424
3	0xbed092e0	-0.40737057
4	0xbf2859ef	-0.6576223
5	0xbe358946	-0.17728147
6	0xbd1a96cf	-0.03774148
7	0xbeedad8e	-0.46421474
8	0xbe9ce5be	-0.3064403
9	0x3f0b53f4	0.5442498
10	0xbb9988c1	-0.004685492
11	0x3f5b69a7	0.8570809
12	0xbe369a3d	-0.17832275
13	0xbe3d26e7	-0.18471871
14	0xbd2d4a47	-0.042307165
15	0x3cbb9816	0.022899669
16	0x3f7382f8	0.9512172
17	0xbf3588ed	-0.7091206
18	0x3b7058ff	0.003667414
19	0xbe720510	-0.23634744
20	0xbee5a34a	-0.44851142
21	0xbf113a62	-0.5672971
22	0xbec79e83	-0.38988122
23	0xbf285a85	-0.6576312
24	0x3d95a05e	0.07305978
25	0x3e173a5b	0.14768355
26	0xbea695a4	-0.32536042
27	0xbfa8f308	-1.3199167
28	0xbfa6e053	-1.3037208
29	0x3f98a009	1.1923839
30	0xbf32d3b8	-0.6985431
31	0x3e380807	0.17971812
32	0xbde773fe	-0.11301421
33	0x3d3330cb	0.043747704
34	0xbe258bab	-0.1616656
35	0x3e7cc717	0.24685322
36	0x3e165df3	0.14684276
37	0xbf3fbe77	-0.749
38	0x3e58c229	0.21167816
39	0x3ee4c8db	0.4468449
40	0xbee2d435	-0.44302526
41	0xbf509dcf	-0.81490797
42	0xbe05fbdf	-0.13084362
43	0xbf41080a	-0.7540289
44	0xbdde7e5b	-0.10863944
45	0xbd320a45	-0.043466825
46	0xbf3c950e	-0.7366494
47	0xbf97e7c8	-1.1867609
48	0xbc27b0cc	-0.010235023
49	0xbf62b1b4	-0.88552403
50	0xbfb31b59	-1.3992721
51	0xbf70ef28	-0.94114923
52	0xbf90f9a7	-1.1326188
53	0x3cdd73f5	0.027032832
54	0xbce71881	-0.028209927
55	0xbe4994bf	-0.19685648
56	0xbe5c736a	-0.21528402
57	0xbdb84517	-0.08997553
58	0xbeec516e	-0.46155876
59	0xbf29c9e1	-0.6632367
60	0xbf18359d	-0.5945681
61	0xbe933c7b	-0.2875708
62	0xbed7eb4e	-0.4217171
63	0xbf3ebe9b	-0.7450959
64	0xbe71a04f	-0.23596309
65	0xbe886a4c	-0.26643598
66	0xbf4d30d6	-0.8015264
67	0xbf3979ee	-0.72451675
68	0xbf22b198	-0.63552237
69	0xbe074ea0	-0.13213587
70	0xbdd25a33	-0.102711104
71	0x3fabfc0b	1.3436292
72	0xbd54381a	-0.051811315
73	0x3d14805e	0.036255233
74	0x3dbaa1e8	0.091129124
75	0x3d7de2d0	0.061983883
76	0x3d4766a9	0.04868189
77	0xbe5b7447	-0.21431075
78	0x3d8b0c89	0.067895
79	0x3e06ec71	0.13176133
80	0x3ee74f49	0.45177677
81	0xbe7a91dd	-0.24469705
82	0x3db7d550	0.08976233
83	0xbe627853	-0.22116213
84	0xbf115616	-0.5677198
85	0xbe85ce61	-0.26134017
86	0xbebf2a12	-0.37336785
87	0xbee7ad42	-0.45249373
88	0xbec446b9	-0.38335207
89	0x3f2ddc3c	0.67914176
90	0xbe0644fb	-0.13112251
91	0x3eeecc54	0.46640265
92	0x3b72aae2	0.0037028124
93	0xbd872e4f	-0.066006295
94	0x3d819c20	0.063286066
95	0x3f0a263b	0.53964585
96	0x3e214d18	0.15752065
97	0xbdcb1991	-0.09916986
98	0xbeec5989	-0.4616206
99	0xbe618c79	-0.22026242
100	0xbd3bc0c6	-0.04583814
101	0xbe99c0c5	-0.30029884
102	0xbeae3086	-0.34021395
103	0xbf26d4c9	-0.65168434
104	0x3d80ae71	0.06283272
105	0x3e129ff1	0.14318825
106	0xbea1c28d	-0.31593743
107	0xbda3c30a	-0.07996185
108	0x3e0f41e7	0.13989983
109	0x3f59b493	0.8504116
110	0xbd670172	-0.056397863
111	0x3f025e51	0.50925165
112	0xbe9b3692	-0.3031507
113	0xbe574a31	-0.21024396
114	0x3e0627bc	0.13101095
115	0xbe5dba5d	-0.21653123
116	0xbcb8bf1c	-0.022552066
117	0xbced7bb9	-0.02898966
118	0xbe2738ef	-0.16330312
119	0x3d993afd	0.07481954
120	0x3e5854ea	0.21126142
121	0xbf8bb72e	-1.0915277
122	0xbe8a5d62	-0.2702437
123	0xbdd7106a	-0.105011776
124	0xbef00182	-0.4687615
125	0xbe951eeb	-0.2912515
126	0xbf17bd44	-0.5927317
127	0xbe9c1b22	-0.3048945
128	0xbe68b98c	-0.2272703
129	0xbf2d1694	-0.67612576
130	0xbd95760b	-0.072979055
131	0x3d91a35d	0.07111237
132	0xbf5a1106	-0.85182226
133	0xbd2936ed	-0.041312147
134	0x3e0725a3	0.13197951
135	0x3ed63afc	0.41841877
136	0x3ee7ba2e	0.4525923
137	0xbe149c2d	-0.14512701
138	0xbef70a30	-0.4824996
139	0x3eaa805a	0.3330105
140	0xbee0d8a0	-0.43915272
141	0xbe31bec0	-0.17357922
142	0xbecf2b51	-0.40462735
143	0xbdb055c0	-0.086101055
144	0x3dfc559e	0.12321018
145	0xbf806427	-1.0030564
146	0xbe52a3f6	-0.20570359
147	0xbd46d663	-0.0485443
148	0xbf72389e	-0.9461764
149	0x3e344e0f	0.17607902
150	0xbee2320c	-0.44178808
151	0x3d1c1eb6	0.038115226
152	0xbe7b96ba	-0.24569216
153	0xbf411b15	-0.7543195
154	0xbebe4071	-0.3715854
155	0xbff4cb7b	-1.9124597
156	0xbba838b1	-0.0051337113
157	0x3d332069	0.04373208
158	0x3ed8a795	0.42315355
159	0x3c792b9b	0.01520815
160	0x3e9406ff	0.28911588
161	0xbf010083	-0.50391406
162	0xbf18b373	-0.5964882
163	0xbebc3b4f	-0.36764
164	0xbef0e007	-0.4704592
165	0xbf0b7556	-0.54475915
166	0x3e64b86b	0.22335975
167	0xbe97fd16	-0.29685277
168	0xbee42c62	-0.4456511
169	0xbdcc1e60	-0.09966731
170	0xbd8c9742	-0.06864788
171	0x3ee9db1e	0.45674986
172	0xbe8613be	-0.26186937
173	0xbe304d86	-0.17217073
174	0xbd810e67	-0.06301575
175	0x3e868de8	0.2628014
176	0x3f30ef97	0.69115585
177	0xbcfcabe0	-0.030843675
178	0x3e10aebe	0.14129159
179	0xbe75b070	-0.23993087
180	0x3dc08893	0.094010495
181	0xbe8b8333	-0.27248535
182	0xbf1ff819	-0.6248794
183	0xbec9efd0	-0.39440775
184	0xbec31a39	-0.38105944
185	0x3c12cef4	0.008960474
186	0xbeec3082	-0.4613076
187	0xbe82a16a	-0.25513774
188	0xbeca048e	-0.394566
189	0x3f125651	0.5716296
190	0xbed3b4f2	-0.41348988
191	0x3edf4349	0.43606022
192	0xbf0140e0	-0.50489616
193	0x3de2366d	0.11045537
194	0xbee153a4	-0.44009125
195	0x3f906831	1.1281797
196	0x3ef78f2e	0.48351425
197	0xbed0f9c2	-0.4081555
198	0xbd4460c4	-0.047943845
199	0xbefc5b64	-0.49288476

L5.bias f4 [10]
0	0xbf43a78e	-0.76427543
1	0x3e988ae5	0.29793468
2	0x3fe9e1bb	1.8272012
3	0x3e235868	0.15951693
4	0xbf761a86	-0.9613422
5	0xbf6f2ef9	-0.9343105
6	0xbe9588b5	-0.29205862
7	0x3e85a668	0.2610352
8	0xbf9b11a3	-1.2114757
9	0xbfcb2c88	-1.5872965

L6.weight f4 [1, 10]
0	0xbda23aba	-0.079213575
1	0xbe6ebe13	-0.23314695
2	0xbedd87b5	-0.432676
3	0xbe0d0124	-0.13769966
4	0x3da35426	0.079750344
5	0x3d8897cc	0.06669578
6	0x3d44d23d	0.04805206
7	0xbda4cafc	-0.08046529
8	0x3dcded11	0.100549825
9	0xbd7b46a6	-0.061346672
