Saved_Models_All_Samples_Limited_Features/target_Hardness_features_5_epochs_1.pth (torch_old, 10514 bytes, 11 tensors)

L1.weight f4 [10, 5]
000000 0b e9 1e 3e 9f 87 67 3e 86 a7 23 3f 1c ac 04 be
       0.15518586 0.22610329 0.63927495 -0.1295628
000010 3f ef 65 3e 51 ee 24 3f 86 e9 9a bd b8 18 e5 3d
       0.22454546 0.6442614 -0.07564072 0.11186355
000020 ce c5 be 3e ee 73 aa be 33 0a 66 bd ed 11 e0 3b
       0.37260288 -0.33291572 -0.05616207 0.0068380744
000030 80 33 49 be 5f ba 1d bf cd 66 b8 be d8 e9 a0 3e
       -0.19648552 -0.61612505 -0.3601593 0.3142841
000040 a7 da 20 3e 65 49 89 3e 7c 8d b2 3e 40 21 9d 3e
       0.15708409 0.26813808 0.3487357 0.3068943
000050 34 b4 29 3d 6e fd c8 3e f1 17 2b bf 74 a8 64 3e
       0.04143162 0.39255852 -0.66833407 0.22329885
000060 0b 97 c9 be 3b af ce 3c 81 4f e1 3e 5f c7 51 3e
       -0.3937305 0.02523004 0.4400597 0.2048621
000070 bf b0 7a 3d fe fe 82 be 44 ba 91 be dc dd 33 bd
       0.061203714 -0.2558517 -0.28462422 -0.043912753
000080 e7 03 cf be d9 bc 95 3e 88 a1 5b be 55 f7 42 3d
       -0.40432665 0.29245642 -0.21448338 0.047599155
000090 28 8e 2e bd 0a 87 04 3e 88 23 34 3e 00 60 49 be
       -0.04261604 0.12942138 0.17591679 -0.19665527
0000a0 9c 88 82 be 06 6f b6 be 7f 9b 59 3e 5d c9 83 3e
       -0.2549485 -0.3563158 0.21250723 0.25739565
0000b0 18 d0 ba bd 14 9e 0f be cd d6 79 3e 3d 26 1b 3f
       -0.09121722 -0.14025146 0.24398346 0.6060522
0000c0 6f 45 92 bd a3 45 ae be
       -0.0714215 -0.34037504

L1.bias f4 [10]
000000 c2 e9 53 3e 76 f6 7a be 4e 67 e4 3e e4 c4 ca 3a
       0.2069464 -0.2450808 0.44610065 0.0015470055
000010 4d d9 0f be c6 ab 76 3c 35 85 49 3e ac 14 b2 be
       -0.14047737 0.015055602 0.1967972 -0.34781396
000020 7e 23 29 bf 92 75 81 bd
       -0.6606978 -0.06321253

L2.weight f4 [20, 10]
000000 f3 72 0c 3e 67 fd 25 3f 8a a7 2a bf 71 6f 4c 3f
       0.13715725 0.64839786 -0.66661894 0.79857546
000010 c7 1f 0c 3f 57 d4 84 3e b5 59 75 3e 1b 02 76 be
       0.5473599 0.25943252 0.23960002 -0.2402424
000020 e8 b5 c2 be 8a 0e 62 be 84 f7 56 be 19 b9 b5 be
       -0.38029408 -0.22075859 -0.20992857 -0.3549278
000030 b3 77 66 3e 5e ff 70 bd dd 9a 9b 3e 4f d7 9c bd
       0.22506599 -0.058837287 0.3039159 -0.07658254
000040 3e fc 22 be ac e6 7c 3e 3a 58 ab 3d 6f 05 a5 3d
       -0.15916535 0.2469737 0.08366437 0.08057677
000050 65 a5 60 bc b5 92 eb be e6 de ee 3d 23 c9 12 be
       -0.013711308 -0.46010366 0.11663608 -0.1433454
000060 92 0f 2b 3e 93 48 63 3d e0 96 91 3e f8 0b a4 3d
       0.16705158 0.055489134 0.2843542 0.08010095
000070 fe 41 b1 3d e1 d4 a4 3e 99 52 04 3d 04 8c fa be
       0.08655165 0.32193664 0.032305334 -0.48934948
000080 43 cc 6f 3e d2 32 47 3d 68 7f 87 3e 72 f0 0f 3e
       0.23417763 0.04863245 0.2646439 0.14056566
000090 46 f3 d4 3c 8c 89 5f be bb 08 0e be 75 d1 89 3e
       0.025994908 -0.21829814 -0.13870518 0.26917616
0000a0 b0 39 e5 bd e0 06 ab be 61 95 4f bd 41 78 b2 be
       -0.11192644 -0.33403683 -0.05067957 -0.3485737
0000b0 4d 50 43 3e e2 b9 ad bd a8 4d fa 3d 32 43 5a bd
       0.19073601 -0.0848272 0.12221843 -0.05328674
0000c0 3c 47 67 3e 6a 7d 54 3e 9b 09 85 be 66 6b 17 bf
       0.22585768 0.20750967 -0.2598389 -0.5914825
0000d0 bc 72 8a 3e 12 12 74 be 24 09 81 3e c1 a1 38 bc
       0.2704066 -0.23835018 0.25202286 -0.011269034
0000e0 53 39 79 3d 46 dd 05 3e ca 1c 9d be 16 82 36 be
       0.060845684 0.1307269 -0.30686027 -0.17823061
0000f0 6b 21 10 be ec 07 b5 bb 19 3d 74 3e 84 ca 0b bf
       -0.14075248 -0.005524626 0.23851432 -0.5460589
000100 25 c2 aa 3e 1c 27 e9 3d 4d 81 88 3d 10 43 d6 bd
       0.33351246 0.11384413 0.06665287 -0.1046201
000110 25 ba 15 bf 00 bb de be f3 59 6c bd 53 4c ee bd
       -0.5848716 -0.43502045 -0.05770297 -0.116356514
000120 f6 f4 e5 bd 54 e6 ab 3e e0 eb b5 be f9 8a c3 3b
       -0.11228363 0.33574164 -0.3553152 0.0059674946
000130 e2 3a 1f be cd a5 b8 be b5 79 f5 3d 4f 79 cd 3e
       -0.15549806 -0.36063996 0.119861044 0.40131614
000140 17 49 72 be f8 5f 4d bc 9b 4d 21 3f 86 35 86 be
       -0.23660694 -0.012535088 0.6300904 -0.2621271
000150 d4 ba df 3d e5 70 62 3d 84 8c bf 3e 53 29 59 bd
       0.109243065 0.055283446 0.37411892 -0.053017925
000160 42 b1 24 3d ab 18 2a 3e 3a 59 1a be dd b7 81 3e
       0.04020811 0.16610973 -0.150731 0.2533559
000170 d9 47 9c be b8 8a af 3a 4c f5 13 be 6a d4 6d 3e
       -0.30523565 0.0013392782 -0.14449042 0.23225561
000180 a0 ed 96 be d4 1d 0a 3e 7f c9 e4 be c6 ee f7 3c
       -0.29478168 0.13487941 -0.4468498 0.030265223
000190 bb fe b0 3a 4c 7a 89 be 74 e8 8f 3e 7e 0f 1b bd
       0.001350365 -0.26851118 0.28107035 -0.03785657
0001a0 05 c8 8e 3e 95 8b 40 3e 71 db 21 be 66 22 03 3d
       0.27886978 0.18803246 -0.15806367 0.032015227
0001b0 41 42 e2 bb 77 90 14 3e 31 f3 c7 3d 0b 1a 83 3d
       -0.0069048707 0.14508234 0.09763182 0.06401452
0001c0 d2 57 10 3e 0c 27 f1 bd f8 4b d0 be 3c 4d 65 3d
       0.14096001 -0.11775026 -0.4068296 0.05598186
0001d0 ff 36 77 bd fd 27 50 be 1f 1d 88 3e b5 e7 c4 be
       -0.060355183 -0.20327754 0.26584718 -0.38458028
0001e0 cc fa 5b be e8 a7 7b 3e 58 e3 5b 3e 5a d3 6d 3e
       -0.2148239 0.2457577 0.21473444 0.23225155
0001f0 27 20 98 3e 41 09 de bd 6e d6 f1 3e 4b 0f b3 bd
       0.2971203 -0.10841609 0.4723391 -0.08743151
000200 8b e1 0a 3e 10 82 9a 3c 0a 20 05 3f a2 76 b4 3e
       0.135626 0.018860847 0.5200201 0.3524676
000210 bd d6 db be 0c fe 00 3f b6 ee 64 3e f9 25 f6 3e
       -0.4293727 0.50387645 0.22356686 0.48075846
000220 8e c7 ef bc 1a 6c 5c 3e 61 e9 0b bf b1 cb a4 3e
       -0.02926996 0.21525612 -0.5465298 0.32186654
000230 e5 de d7 bd 49 df 5a 3e 90 17 9e be 5a c7 7e 3e
       -0.10540561 0.21374239 -0.30877352 0.24880734
000240 b0 af 99 be 6c d5 b6 3d b3 99 0d be 8a a2 fd bd
       -0.3001685 0.08927426 -0.13828163 -0.123845175
000250 04 14 3d 3e 08 2d b6 be 5b d8 24 3e 73 a1 31 be
       0.18464667 -0.3558123 0.16098158 -0.17346744
000260 31 50 93 be fe b5 40 3e 63 84 25 3e 58 d7 9e 3e
       -0.2877212 0.18819425 0.16163783 0.3102367
000270 0c 63 9e be 88 47 bd be 1d e1 8e 3e 67 6e 8d 3e
       -0.30934942 -0.36968637 0.27906123 0.27623293
000280 e6 75 84 3e b1 5c 8f be 02 8a b1 3e 57 2b a9 bd
       0.258712 -0.28000405 0.34675604 -0.082602195
000290 13 ff 83 3e 50 de e4 3d 29 0a 98 3d 4c 12 76 3e
       0.25780544 0.11175215 0.07423813 0.24030417
0002a0 83 2b 2a 3e a5 e0 16 3d 38 c2 2f bd e7 4a 95 be
       0.16618161 0.03683533 -0.04290983 -0.29158708
0002b0 15 7e 19 3d 04 9f cd 3d 9d ac 91 bd f7 ff 6f 3d
       0.037473757 0.100400954 -0.071130015 0.058593716
0002c0 ac 54 75 3d 5f 21 ad be 6c d9 3c bb 0c 52 47 be
       0.059895203 -0.33814523 -0.0028816117 -0.19464892
0002d0 9d 34 de bd 26 92 a7 be f3 5e 18 3e 35 b8 0c 3e
       -0.10849879 -0.3272869 0.1487997 0.13742144
0002e0 1b 1d 96 be c8 92 04 bf f3 da 47 be 4b 5c 02 bd
       -0.2931908 -0.5178647 -0.19517116 -0.0318263
0002f0 ce 68 81 be 7f 17 3e be 9f d5 5e be 3b 8a 86 3e
       -0.25275272 -0.1856365 -0.21761177 0.26277336
000300 e6 f4 da be 18 58 6c 3d 28 2c 27 bf 55 3b 1f be
       -0.42764968 0.0577012 -0.6530175 -0.15549977
000310 9c 39 f2 be 95 47 8b 3e 6c b9 23 3e 82 59 83 3c
       -0.47309577 0.2720305 0.15988702 0.016033892

L2.bias f4 [20]
000000 a2 c5 63 3d a2 5b 92 3d 05 e3 01 3e 34 b1 e3 bd
       0.0556084 0.07146384 0.12684257 -0.11117783
000010 a3 db 30 3d fa ce 2b 3d 7f 38 f1 3d 5e d5 2c be
       0.043178212 0.041945435 0.11778354 -0.16878268
000020 dc 74 b2 3d 6f 0f 42 be 57 10 5d 3d 50 a4 5e be
       0.087136954 -0.189512 0.05397066 -0.21742368
000030 a0 86 63 3e 5a 6c ac 3d e6 61 e5 bc 42 a4 af bd
       0.22219324 0.08419104 -0.028000783 -0.085762516
000040 cf 11 b0 3d 4f a2 9f 3e 3f 5c d4 be 97 1e d3 bd
       0.08597147 0.3117852 -0.41476628 -0.10308569

L3.weight f4 [40, 20]
000000 a5 23 60 3e 2c 86 7d bd 5c ce 8b bd f8 e4 83 be
       0.21888597 -0.061895534 -0.06826469 -0.25760627
000010 38 61 58 bd 34 16 27 3e 7a d0 ed bd 4e c3 6f 3e
       -0.05282709 0.16317064 -0.116120294 0.23414347
000020 86 ee 17 3d e3 92 1b 3d be 29 88 be 24 c3 19 3d
       0.037092708 0.03798188 -0.26594347 0.037539616
000030 d9 97 cb bd b8 8d 22 3f ca 7e 99 3d 7e eb 14 3d
       -0.09941072 0.63497496 0.07494886 0.036357395
000040 72 4f 92 be 10 c6 1d be c5 8a 77 3d 17 b3 61 3e
       -0.28576237 -0.15407586 0.060435075 0.22040974
000050 a0 56 bf be e6 ef 54 3d 53 7c 13 bd ab ca cd bd
       -0.37370777 0.051986597 -0.036007237 -0.100484215
000060 25 00 58 be a1 c1 67 3e db ae 10 be 9b 0f 83 bd
       -0.21093805 0.22632457 -0.14129202 -0.06399461
000070 14 d3 e5 3e 98 95 01 be 84 ed 22 3e 63 7f 1b be
       0.44887602 -0.12654722 0.15910918 -0.15185313
000080 cd 90 86 bd 0a 99 81 be ce 49 23 3d 31 8d 09 be
       -0.06570587 -0.25312072 0.039865308 -0.13432766
000090 1b 6a 92 3e 02 ca 2d 3e 17 cc 97 3d ab a6 37 be
       0.28596577 0.16971591 0.07411974 -0.17934673
0000a0 f2 e5 d6 3e 87 15 1f be c1 0f 33 be 89 92 f9 3e
       0.4197231 -0.15535556 -0.17486478 0.4874461
0000b0 8c d4 20 3e 69 8b 4d 3d 3e b0 2b be c3 03 87 3e
       0.1570608 0.05018178 -0.1676645 0.26370057
0000c0 71 d6 b6 be 59 9c 8e be ad 49 27 3e 0f db 37 3e
       -0.3571048 -0.2785366 0.16336699 0.17954658
0000d0 5a dc 92 bd b5 18 48 3f 72 02 97 3d 3c 58 02 3f
       -0.07170935 0.781627 0.07373513 0.50915885
0000e0 7c d2 8d bd 79 df 8d be fb 9e 91 3e 05 b3 16 3e
       -0.06924912 -0.2770956 0.28441605 0.14716728
0000f0 35 07 a2 be 4e bd 39 bd 91 b1 88 3e df 09 92 bd
       -0.31646124 -0.04534655 0.26697972 -0.07130789
000100 b7 9e 85 be 4a 01 60 3d 15 e7 d0 bd 44 c7 80 3e
       -0.26097652 0.05468873 -0.102003254 0.25152028
000110 95 bd 6c 3e da ad d0 3d 75 5e 0b 3e 67 93 3f 3e
       0.23119195 0.101894096 0.13610251 0.18708573
000120 35 d7 05 be 18 b5 37 bf e3 1a 80 3d e2 b4 28 3e
       -0.13070376 -0.717607 0.06255128 0.16475251
000130 9a 10 84 3d 96 e1 c4 be d7 0b 49 be 70 c8 c6 bd
       0.06448479 -0.38453358 -0.19633423 -0.09706199
000140 5f 9c 41 bf 6e ee a3 be ef c2 54 bd 69 8a ee ba
       -0.7562923 -0.32017845 -0.051943716 -0.0018199208
000150 6f f7 90 be 55 fd 96 bd dd 44 8d be d0 4c b0 be
       -0.28313777 -0.07372538 -0.275916 -0.34433603
000160 7d 1c 70 3d b1 bd 17 be 11 32 5f bd 6d 65 4d be
       0.05862092 -0.14818455 -0.054491106 -0.20058222
000170 d8 f6 7e bc 05 f1 62 3e c1 91 f1 bd 1c 17 12 3e
       -0.015561782 0.22162254 -0.117953785 0.14266628
000180 dd 8a 19 3e 33 fb 17 bc dd 72 f5 3b d4 3e 1e be
       0.14994378 -0.009276199 0.0074904994 -0.15453655
000190 a9 bd 1a 3e a5 93 c6 be 11 67 ff 3d 69 bc 03 3d
       0.15111412 -0.3878452 0.1247083 0.032162104
0001a0 55 ae 33 bd e3 28 2d be dd fe 04 bf a3 52 fb 3e
       -0.043867428 -0.16910128 -0.5195139 0.49086484
0001b0 43 2f 02 bf e5 8f 3e be b4 bb fc be e5 60 a9 3e
       -0.50853366 -0.18609579 -0.49361956 0.33081737
0001c0 44 01 68 be 5c 5f dc 3d 4a 54 2b 3e 31 90 4e 3f
       -0.22656733 0.10760376 0.16731372 0.8068877
0001d0 6c 9a bf bc dd 53 ba be 39 66 bf 3e 4d 14 f4 3d
       -0.023389064 -0.36392108 0.37382677 0.119179346
0001e0 f8 19 8d be 69 22 c5 be 1b 11 0c bd de 60 0b 3e
       -0.27558875 -0.38502815 -0.034196 0.1361117
0001f0 19 27 81 be 42 14 4e 3d 25 c9 1b be e7 85 13 3e
       -0.25225142 0.050312288 -0.1521345 0.14406548
000200 f0 39 82 be dd a3 18 3d 60 1f 44 3d 64 9c 87 be
       -0.25434828 0.037265647 0.047881484 -0.26486504
000210 39 bf 0d 3e 77 bf ca 3d 1f 8c 5b be d7 c1 08 3e
       0.13842477 0.098998 -0.2144017 0.13355194
000220 1f 6a 7b be 83 d2 16 bd 86 c9 be 3e 46 f4 99 bc
       -0.245522 -0.036821853 0.37263125 -0.018793236
000230 20 b3 2f bc 1d 8c f6 3c a8 1d f4 bc 34 e8 9f 3d
       -0.010723859 0.030096108 -0.029799297 0.07807961
000240 ed 25 7f 3d 8c 0a f7 bd 08 09 27 3c 02 f5 f9 bd
       0.06229203 -0.120625585 0.010195024 -0.12204935
000250 0d 33 53 be 35 9e 07 3e 91 a1 86 3e ea a7 9b 3d
       -0.20624943 0.13243945 0.2629514 0.076003864
000260 be b7 ac bd 17 31 62 be ef 44 1e 3e 2a 18 35 3d
       -0.084334835 -0.22089039 0.15455984 0.044212498
000270 86 0d b3 3e 9b f3 82 3e 2a 24 e8 bd 74 f8 ac be
       0.34971255 0.2557648 -0.11335023 -0.33783305
000280 e3 ae e7 be dc fc d4 bd f8 1e 30 bf 87 33 a9 3d
       -0.45250615 -0.103997916 -0.68797255 0.08261781
000290 ec cc e1 3d b2 8f fb 3d d0 fc 97 3e 98 a0 19 bd
       0.11025414 0.12283267 0.29685068 -0.03750667
0002a0 4c 94 43 3e b6 6b b6 3c 5b 56 2d be 22 07 09 be
       0.1909954 0.022268157 -0.16927473 -0.13381627
0002b0 15 fe cb 3e 70 62 93 be 82 c7 dd bb 68 21 02 bd
       0.39842287 -0.2878604 -0.006768168 -0.03177014
0002c0 66 9b 36 3e f5 3c b2 3e 75 d7 d3 3c 50 69 bd be
       0.17832717 0.34812132 0.025859574 -0.3699441
0002d0 f9 9b d2 bd ef 46 35 be 39 1e da 3d 8f 74 bd bd
       -0.10283656 -0.1770284 0.10650296 -0.092507474
0002e0 7d db 4f 3e b1 41 6e 3e 1a 8a 5e 3e 47 05 16 be
       0.20298572 0.23267247 0.21732369 -0.1465045
0002f0 20 ac c0 be f7 8a d3 3d 72 0f d4 bd 82 3e 60 3b
       -0.3763132 0.1032924 -0.103545085 0.0034216945
000300 5d dd 7c be 15 bc 94 be 5a 22 64 be fe e8 26 3e
       -0.24693818 -0.29049745 -0.22278729 0.16299817
000310 75 ed 81 bc d0 82 c4 bc f5 dd 28 3d 68 9f 59 bd
       -0.015860299 -0.023988158 0.0412273 -0.053130537
000320 6c 78 7d bd a2 a5 89 be b0 c1 4f 3e 77 26 0e be
       -0.06188242 -0.2688418 0.2028873 -0.1388186
000330 a2 87 00 bc 1a 8c d1 be 2f 5d 39 be a2 a4 93 3e
       -0.007844837 -0.40927202 -0.18101953 0.28836542
000340 3c bf 53 be 64 92 ba bc 69 6c 3d bb 34 81 91 3d
       -0.20678419 -0.022774883 -0.0028903729 0.07104722
000350 aa 6c 67 be 1d a5 92 bb 50 97 75 3d 65 80 09 3e
       -0.22600046 -0.0044752494 0.059958756 0.13427885
000360 d8 e7 10 3d 64 cc d8 be f1 ab 8c bd e6 20 25 3e
       0.035377353 -0.42343438 -0.06868733 0.16125831
000370 bc be 0a be a6 92 f5 ba d9 74 4f be d5 3c 1e be
       -0.13549322 -0.0018735721 -0.20259418 -0.15452893
000380 52 93 dd bc d3 23 90 3c 43 27 46 be 43 ac 40 3c
       -0.027047787 0.017595207 -0.19350915 0.01175982
000390 48 94 59 3b d7 62 4d 3d e4 51 c9 bd 7d 49 18 3e
       0.0033199955 0.05014309 -0.098300725 0.14871784
0003a0 d3 8c 2f be e2 c6 c7 be c5 b1 15 3d 1d 4a 12 be
       -0.17143564 -0.39018923 0.036546487 -0.14286084
0003b0 d8 50 f0 3c 32 b1 3e bd 03 23 4f 3e e7 63 e6 3d
       0.029335424 -0.046555705 0.202282 0.112495236
0003c0 6a 66 08 bf c9 f0 5e 3e 26 6a 83 3e bb 06 57 be
       -0.5328127 0.2177154 0.25666922 -0.20998661
0003d0 dd 18 e5 bd e8 06 3d 3e 26 1f 99 3d 80 d6 15 3e
       -0.11186383 0.18459666 0.07476644 0.14632607
0003e0 ec 0c a0 3e af 13 13 3e 9f 79 9a 3d 9c c0 80 bd
       0.3125986 0.14362977 0.07542729 -0.06286737
0003f0 4e e2 d6 3e c0 05 a9 be ea 28 a4 3d 2e 18 03 be
       0.41969532 -0.330122 0.08015616 -0.12802193

L3.bias f4 [40]
000000 b5 d8 87 be 84 f3 39 3e 5e 14 b7 be 2a a1 d3 bd
       -0.26532522 0.181593 -0.35757726 -0.10333474
000010 e7 cc 16 bd 45 4c b1 be 68 a8 36 be 80 43 18 3e
       -0.036816504 -0.34628502 -0.1783768 0.14869499
000020 38 d4 82 3e 44 d3 5e be 13 2b 74 be b6 1b 48 be
       0.25552535 -0.21760279 -0.23844557 -0.19541821
000030 dd d0 82 3e 57 4d b3 3e a2 38 9b 3e 58 b0 87 be
       0.25549975 0.35019943 0.30316645 -0.26501727
000040 19 78 30 3e 65 9d bc bc f6 86 5e 3e 50 95 f8 3d
       0.17233314 -0.02302427 0.21731171 0.12137854
000050 3c c2 ce bd 41 ae 0d be 9a 19 86 be 25 01 31 be
       -0.10095641 -0.13836004 -0.26191407 -0.17285593
000060 5c 5a 2e 3c 8d db bb bd 61 c4 1b be bd 4d e4 be
       0.010641661 -0.09172735 -0.15211631 -0.4459056
000070 10 bd 1d 3e 9e ad f6 bd 15 07 df 3d dc e6 97 be
       0.15404153 -0.120448336 0.10890023 -0.2966832
000080 5d a9 ff bd ce fa 9d 3c c0 84 36 3e 1a 23 f1 bd
       -0.12483475 0.019284632 0.17824078 -0.11774273
000090 18 8f a8 3d 41 d0 98 be 95 49 d1 bd af 62 a6 3d
       0.08230418 -0.29846385 -0.10219113 0.08124291

L4.weight f4 [20, 40]
000000 63 bf 6a 3e 53 85 72 be 0f 0d ec 3a f9 74 5a bc
       0.2292457 -0.23683672 0.0018009263 -0.0133335525
000010 a3 3a 37 3e 75 3d db bd a0 f4 2a 3e 8c a0 23 be
       0.17893462 -0.107050814 0.1669488 -0.15979213
000020 b7 73 d0 3b 27 6e 4e 3e 02 c9 15 3d 05 d9 d2 3d
       0.0063614505 0.20159207 0.03656865 0.102952994
000030 9a c3 93 be ea 5b 3d be b5 b8 1a bb 5a 9b 89 3d
       -0.2886017 -0.18492094 -0.002360863 0.06719084
000040 9f 27 bc 3e 2e f6 d6 3b 93 e4 2a be 97 c7 32 be
       0.36748978 0.0065601086 -0.16688757 -0.1745895
000050 c3 1f b1 3e 61 ad 2d bd b1 d5 ee bd 33 bb 29 3c
       0.34594545 -0.042401675 -0.11661852 0.010359573
000060 ee be 46 bb de a9 a2 bc f7 10 71 be 24 37 20 be
       -0.0030326205 -0.01985639 -0.23541628 -0.15646034
000070 b5 51 3d be 9d 90 c0 bd f6 b0 2c be 2f 2b 84 3d
       -0.184882 -0.09402583 -0.1686438 0.06453549
000080 13 ba 87 3c 05 0c 2d bd 43 3f b9 bd d3 2c ed bd
       0.01656822 -0.04224779 -0.09045269 -0.11580815
000090 6f 77 a7 bd a5 e1 12 be bb 87 d6 bc c8 f5 98 be
       -0.08177077 -0.14343889 -0.026187768 -0.29875016
0000a0 09 b7 87 3e 71 0d 82 be 3a f2 96 3d ba 24 2e be
       0.26506832 -0.2540088 0.0737042 -0.17006198
0000b0 49 72 95 3d 7e 3e a0 be 10 94 d7 bd ed 99 9c 3d
       0.07297189 -0.31297678 -0.105262876 0.076465465
0000c0 d9 b6 24 3d 87 9a b8 3d d4 4a 1c be 41 4d 60 bc
       0.04021344 0.09013849 -0.1526292 -0.013690294
0000d0 bc 76 00 3d 83 95 76 be d4 64 d7 bc 81 0f 30 3e
       0.031363234 -0.24080472 -0.026293196 0.17193414
0000e0 a6 fa d7 3d a6 f8 3a be bf 94 8f be e2 4c e4 3c
       0.10545854 -0.18258914 -0.28043172 0.027868692
0000f0 58 0f 80 3d 1a 9e 67 be 2c a0 ec 3d 41 18 10 3e
       0.062529266 -0.22618905 0.11553988 0.14071752
000100 1f 6b 8c be ee 17 1d 3e a7 08 b5 3d 31 d7 22 3c
       -0.27425477 0.1534116 0.08839541 0.009939001
000110 08 5a a1 be b5 42 88 bc fc 0c a2 bd 8a 6e 16 be
       -0.31514 -0.01663337 -0.07912633 -0.14690605
000120 a2 78 c9 be 7f 98 c1 3d a0 31 b8 bd aa 22 33 be
       -0.39349848 0.094529144 -0.0899384 -0.17493692
000130 c6 3e a9 be a1 81 31 3d ec a8 80 be 3c e9 8c be
       -0.33055705 0.043336514 -0.25128877 -0.27521694
000140 58 e5 73 bd 41 f6 b0 3d a8 28 15 be 26 18 c5 bc
       -0.05954489 0.08640719 -0.1456629 -0.024059366
000150 de 91 a3 3b c6 20 40 3d 63 83 41 be b3 43 05 bd
       0.004991754 0.046906255 -0.18897776 -0.032535266
000160 9f 44 81 3d 36 1c b9 be 84 ff db 3d c3 bf 69 3d
       0.063119166 -0.36154336 0.10742095 0.057067644
000170 99 82 2c 3e bb f0 c2 bc d4 de 1a be 30 78 ac 3d
       0.16846694 -0.02379643 -0.15124065 0.084213614
000180 f9 5d c4 be 32 4e fc 3d de 77 a4 bd 0b 24 9c 3d
       -0.38352945 0.12319602 -0.08030675 0.07624062
000190 f1 1d 49 be ed e4 9c 3d 5b 33 b5 bd 7b b9 b9 be
       -0.19640328 0.07660852 -0.08847686 -0.36274323
0001a0 35 48 e9 bd 57 b7 5f be ab 06 e3 bc 17 3f 1a 3e
       -0.113907255 -0.21847282 -0.02771314 0.1506313
0001b0 22 50 72 bd 4e fe 19 bd a9 aa af bd 1c ad 20 3c
       -0.05915845 -0.03759604 -0.08577473 0.0098068975
0001c0 26 77 6e 3d 13 b3 7a be 82 20 b1 3c 6b 2c 8e be
       0.058219098 -0.24482374 0.021621946 -0.27768263
0001d0 2c 98 88 3e c8 af 3f be b7 f1 e0 3d 8c a9 9d 3d
       0.26678598 -0.18719399 0.109836034 0.07698354
0001e0 29 dd 14 3f 9e c0 44 be a1 c6 47 3f 6a c6 35 be
       0.58149964 -0.19214103 0.7803746 -0.1775147
0001f0 bc 96 82 3e e9 d6 5a 3e 6c cf bb 3e 4e c7 2c be
       0.25505626 0.21371044 0.36681688 -0.16872904
000200 49 75 20 be 13 1a 42 3e 1e a9 d8 3d 19 7c f4 bd
       -0.1566974 0.18955259 0.105791315 -0.11937732
000210 93 1b fc be 54 2d 45 be 9b e0 d0 3d ad 51 0d 3f
       -0.49239787 -0.19255573 0.1019909 0.5520275
000220 08 ed 3e 3f 1c e4 9e be 88 15 46 be 71 d0 a9 be
       0.7458043 -0.3103341 -0.19344151 -0.3316684
000230 0e 64 5b 3e 31 75 4a be 51 d4 41 be df 70 23 3e
       0.21424887 -0.19771267 -0.18928649 0.15961026
000240 f8 77 11 bd c7 67 5e 3e 42 2a e5 bc 29 a0 5d bc
       -0.0355148 0.21719275 -0.027974252 -0.013526955
000250 8c d8 35 3c b7 d2 30 bd 62 e4 20 be 11 99 6d bc
       0.011098992 -0.043169703 -0.15712121 -0.014501826
000260 6b 19 14 bf ea b7 eb 3e 74 ad b6 3d a8 44 22 3e
       -0.57851285 0.46038753 0.08919802 0.15846503
000270 69 57 fd bd a5 ae 06 bb ff da e9 bc d5 52 5d be
       -0.12370188 -0.0020550874 -0.028546808 -0.21613629
000280 12 d7 2c 3e d2 59 40 be 0a 23 37 bd 12 03 14 3d
       0.16878918 -0.18784264 -0.04471115 0.03613574
000290 0d 98 47 bd 99 a5 4c bd e6 d0 58 be 88 05 5d bd
       -0.04872899 -0.049962614 -0.21173438 -0.053960353
0002a0 d1 48 df bb e0 58 9c bd 7b e7 51 3e 9d 0e dd 3d
       -0.0068141003 -0.07634139 0.20498459 0.10793803
0002b0 57 c0 c8 3d f4 72 80 3c 7a 93 53 bd 03 31 e1 3c
       0.09802311 0.015679814 -0.051654316 0.02748919
0002c0 5d c4 98 be d6 c8 79 be 20 5e 75 be 82 98 a0 3d
       -0.29837313 -0.24393019 -0.23961687 0.078415886
0002d0 0d 85 aa bb 9b 2d e2 be 71 7e 64 bd d5 c9 c3 bd
       -0.005203849 -0.4417542 -0.055784646 -0.09559981
0002e0 b1 3a 94 3d af f8 c7 3d 7e fe 82 bd 2a 26 11 3e
       0.07237757 0.097642295 -0.06396197 0.14174715
0002f0 97 d2 8f bd ca 93 0e 3e f8 d0 5e be 5e 50 93 3b
       -0.07022589 0.13923565 -0.21759403 0.0044956645
000300 23 b8 9a bb b8 2a 32 be 2a 9f 8b bb 37 e5 48 bd
       -0.004721658 -0.17399108 -0.004260917 -0.04904672
000310 11 fd 04 bd 1b 48 58 3d b0 b0 41 be 91 eb 2d be
       -0.032467905 0.05280314 -0.18915057 -0.16984393
000320 62 ce 8c 3d a3 82 a1 bd cf 50 90 bd ac 66 55 3d
       0.06875302 -0.07886245 -0.07046663 0.05209987
000330 5f 5d 44 be 30 3c 54 be e1 34 46 be 5d b8 bf bd
       -0.19176243 -0.20726085 -0.19356109 -0.093613364
000340 47 27 e6 bd 15 67 9d bd 64 1b bd 3d ca 36 d7 3d
       -0.1123796 -0.07685677 0.0923374 0.10508497
000350 83 7c 82 be 6b 0d e6 bd 1c 9e f2 bd 73 d8 44 3b
       -0.2548562 -0.11233028 -0.11846563 0.003003624
000360 da fc 38 be b2 a1 6e bc 82 ed 6c be 80 8e 81 be
       -0.18065205 -0.014564918 -0.23137477 -0.2530403
000370 5b d1 21 be d3 89 0d 3e 85 6d b4 3e d7 58 53 be
       -0.15802519 0.13822107 0.35239807 -0.20639358
000380 69 5c e7 3d 95 1d a0 be 8d a2 90 3c f1 1f 8d 3e
       0.11296923 -0.3127257 0.017655635 0.27563432
000390 d2 77 2b 3d 72 72 a2 bd f9 fa 76 bd 9f 1a 02 3e
       0.041862316 -0.07931985 -0.06029794 0.12705468
0003a0 bb 72 08 3d 8b d9 f6 bd 24 07 58 bd 5e 1e 44 bd
       0.03331254 -0.12053212 -0.052741185 -0.047880523
0003b0 e3 8e 6a bd b0 54 b4 bc 33 ea de bd 34 e7 1b be
       -0.057265174 -0.022013038 -0.10884514 -0.15224916
0003c0 55 c9 3e 3e f8 da 62 3d 3f 46 b1 3d ef 48 18 bd
       0.1863149 0.055384606 0.086559765 -0.03717893
0003d0 9d 88 0e 3e c9 1d 3f 3c f4 54 94 bb 5d 33 f5 bd
       0.13919301 0.011664816 -0.0045267288 -0.119726874
0003e0 25 91 74 be 91 d6 e1 3d 2b 17 e5 bd ce b0 31 3c
       -0.23883493 0.110272534 -0.111860596 0.010845376
0003f0 e7 28 b2 bd 7f 9c 1a bd 76 39 d9 bc 37 6d b1 3d
       -0.08699208 -0.037746903 -0.026516657 0.08663409

L4.bias f4 [20]
000000 16 c7 19 be fd 7a aa 3d 8f 43 66 3d 1c 7d 83 3e
       -0.15017352 0.083242394 0.056216773 0.25681388
000010 89 d8 47 3c c2 f9 18 bd b2 55 1e be c7 ff 6a 3d
       0.012197622 -0.037347563 -0.15462378 0.057372835
000020 ae ae 68 3e 0a 93 e9 be 59 23 e8 3c c8 0f 8a be
       0.22722885 -0.45619994 0.028337168 -0.26965165
000030 1e 88 04 be ac aa 12 3e 2d 44 bd bd 2c 52 e4 bd
       -0.1294255 0.14322919 -0.09241519 -0.111484855
000040 7c d0 de bc e1 15 96 3d 44 c9 92 3d e4 7e cb 3c
       -0.027199022 0.07328392 0.071672946 0.02484078

L5.weight f4 [10, 20]
000000 44 66 14 3e 65 54 c2 be b4 7f b6 be 05 5a 4d be
       0.14492136 -0.37955013 -0.35644305 -0.20053871
000010 a1 da 16 be 2a a3 10 be 8f fb a8 be fa 16 b8 be
       -0.14731838 -0.14124742 -0.33004424 -0.3595503
000020 dc b9 64 3e c3 1c cf bd 80 34 aa 3e 9b 82 14 3f
       0.22336525 -0.10112908 0.3324318 0.5801179
000030 81 45 65 bd 0f d0 8e be 3b 68 70 bd 53 ff fd 3c
       -0.055974487 -0.2789311 -0.058693152 0.031005537
000040 7f c7 af 3c da 1d 38 3d 6b 95 9f be 91 81 9b 3d
       0.021457432 0.044950344 -0.31168684 0.07593072
000050 f9 f8 30 bd 9a e0 cd 3d 96 7d 01 bd ec 5b 3a be
       -0.04320619 0.10052605 -0.03161391 -0.18199128
000060 d8 e4 0e 3e b3 83 47 3e 76 86 cc bd c7 f1 f3 bd
       0.13954484 0.19483833 -0.09986584 -0.1191135
000070 7a 83 15 bf 69 1e 41 3e df 11 b6 be 4b 8d ec 3d
       -0.5840374 0.18859257 -0.3556051 0.11550387
000080 57 f1 23 be 79 ae de 3d f7 f7 48 be 05 03 14 bd
       -0.16010033 0.10873122 -0.19625841 -0.036135692
000090 8d 46 3c 3e f0 2b 8e be 60 79 f5 bd 13 92 41 be
       0.18386288 -0.27767897 -0.11986041 -0.18903379
0000a0 bb e0 54 3c 16 72 c8 be 91 0b 5e 3e 23 70 0f bf
       0.012993033 -0.3914954 0.216841 -0.5603048
0000b0 c8 9e dc 3d af 2a 3b be c9 77 79 be 64 0d 83 be
       0.107724726 -0.18278001 -0.243621 -0.25596154
0000c0 a1 52 7f 3e 3c d7 88 be b0 57 27 be 4d 55 49 3d
       0.24933864 -0.2672671 -0.16342044 0.049153615
0000d0 b5 a7 bf be c3 de 62 3e 29 cf 35 3e 1c 35 43 be
       -0.37432638 0.2215529 0.17754807 -0.19063228
0000e0 2d 46 89 3d 51 ec a7 3c f7 5e 10 3e c5 4b d6 bd
       0.06702838 0.020498427 0.14098726 -0.10463671
0000f0 eb fe 75 be 98 26 83 be 41 5a 9a bd 37 de b5 be
       -0.24023025 -0.25615382 -0.07536746 -0.355211
000100 c4 5f 44 be b3 90 44 be 69 de 46 be 06 35 38 bd
       -0.19177157 -0.19195823 -0.1942078 -0.044972442
000110 91 cb de bd cf c8 88 3d 9d e0 90 bd b7 55 4e 3e
       -0.10878671 0.06678926 -0.070740916 0.20149885
000120 6f a0 38 be 24 f6 45 3e c0 ad 51 3e f0 f2 2d bd
       -0.1802995 0.19332176 0.20476437 -0.04246801
000130 59 80 34 be 85 8a 05 3e d8 a1 15 be 2f 61 07 be
       -0.17627086 0.13041122 -0.1461252 -0.13220666
000140 ee c7 31 bd 8b 7d e8 bb e7 6e 2c be 8c 32 dc bd
       -0.04340356 -0.007095044 -0.16839181 -0.107518286
000150 ab b0 9f 3d 5f 27 f8 bd 66 fa d2 be 5b d0 1c be
       0.077973686 -0.121168844 -0.41206664 -0.15313856
000160 4b 1d 04 3d 6e 37 45 3e bc ba 49 3e 76 e6 65 3e
       0.0322545 0.19259426 0.1970014 0.22451195
000170 ff f6 82 3e dc 4e 54 be 90 da a3 bd 55 de 64 3d
       0.25579068 -0.20733207 -0.08000672 0.055876095
000180 9c 60 19 be c8 84 71 be 5b 34 bb 3d 81 77 0e be
       -0.1497826 -0.23585808 0.091408454 -0.13912775
000190 35 06 87 3e ee 6b 6e be 07 96 b2 be c9 7d c7 be
       0.26371923 -0.2328336 -0.34880087 -0.38963154
0001a0 6a 74 bb 3d ea 64 ba bb fa 26 ad 3d c3 b4 22 be
       0.091530636 -0.0056882994 0.084547 -0.15889268
0001b0 00 cc 39 be ee 0f 7c 3e 92 c0 0c be 12 55 05 3e
       -0.18144226 0.24615452 -0.13745335 0.13020733
0001c0 5a e1 7c be b5 97 6c be 41 63 a2 3d e9 3d 42 3d
       -0.2469534 -0.23104747 0.079290874 0.047422323
0001d0 2e d6 5d bd 41 8a b3 bd dc f8 c2 bd c9 3d ba ba
       -0.054159336 -0.08766604 -0.095201224 -0.0014209087
0001e0 a1 c3 3e bd 93 d5 05 bf 36 3c f0 bc 22 77 f2 be
       -0.046573285 -0.52279013 -0.029325586 -0.47356516
0001f0 f6 d0 bd bd 3a 94 ac 3d 5a 36 ae bc 18 37 38 be
       -0.09268372 0.084267095 -0.021266151 -0.17989767
000200 ca 67 24 3e 6e 84 ec be d7 3c 01 3e f6 81 d2 3d
       0.16055217 -0.46194786 0.12620865 0.10278694
000210 17 67 3b be e8 ee 24 3d f3 8a 20 3e 0e 4d 3d 3d
       -0.18301044 0.0402669 0.15678005 0.046216063
000220 0a 29 f9 bd e7 f7 23 3e ab 6e 43 3e 87 d2 05 3c
       -0.12166031 0.16012536 0.19085185 0.008167869
000230 29 ac b3 3e af a0 b2 3e f3 e2 9e bd 9f 37 00 3f
       0.35092285 0.34888217 -0.07758131 0.5008487
000240 bd df 71 3d f4 30 8b be df 57 df 3e b8 64 28 3d
       0.059051264 -0.27185786 0.43621728 0.041111678
000250 43 7b c7 be f6 b9 66 3e 14 51 b3 be ee ed 57 be
       -0.3896123 0.22531876 -0.35022795 -0.21086857
000260 91 46 93 3e f0 0b 50 be 6c 90 63 bd a7 aa d6 bd
       0.28764775 -0.20317054 -0.055557653 -0.10481768
000270 35 1f 97 3d 35 1a 5d bd b6 ac c6 3c 27 9d 54 3e
       0.07378999 -0.05398007 0.024252277 0.20763074
000280 12 2f 38 3e d8 91 97 be 13 7b 14 be 4c 5e c2 be
       0.17986706 -0.29603457 -0.14500074 -0.37962568
000290 d4 51 71 be dc c4 a8 bc 63 25 b5 3e 98 fa d1 be
       -0.23566371 -0.020601682 0.35380086 -0.410115
0002a0 14 e8 41 3d 11 ee 81 be b1 81 a2 3d 18 4e 91 3d
       0.047340468 -0.25376943 0.07934893 0.07094973
0002b0 f7 48 da bd be 00 1d 3d 98 a7 9b be 6e d2 d2 3d
       -0.10658448 0.038330786 -0.304013 0.102940425
0002c0 e5 83 f5 3d 6d a2 0c 3e 3f 4c 58 bd 15 e5 88 be
       0.119880475 0.13733836 -0.05280709 -0.26737276
0002d0 12 9e 0b 3f 15 67 98 3d 06 e6 57 bd 7b db 17 be
       0.5453807 0.07441536 -0.0527096 -0.14829819
0002e0 5c 82 fc bd 56 c7 67 bc ff a1 9e 3c 07 bd 25 be
       -0.123295516 -0.0141466465 0.019364355 -0.1618539
0002f0 fe d2 f5 bd 83 de 05 3e a0 35 a2 3d 26 10 c8 3d
       -0.12003134 0.13073163 0.079203844 0.09768705
000300 be 05 55 3e db df 90 bd df ba ff bd d3 c4 d5 3d
       0.20802972 -0.07073947 -0.12486815 0.10437932
000310 ec d6 e5 3d d0 ff f9 bc 39 16 40 be 88 c5 c2 3d
       0.11222634 -0.030517489 -0.18758477 0.09510332

L5.bias f4 [10]
000000 a6 4d 35 be 42 ab b1 bc dd b2 8a 3e cf dc 6e 3d
       -0.17705402 -0.021688107 0.27089587 0.05831605
000010 2b 70 8d be 87 ff e2 bd d2 fb 08 3e 2f 2b 4a 3e
       -0.2762464 -0.11083894 0.13377312 0.19743036
000020 00 cf 87 bd 0a 5d e8 bd
       -0.06631279 -0.11345871

L6.weight f4 [1, 10]
000000 40 57 b6 bd 9c 52 4d be 12 02 0e be 7c ba 8e bd
       -0.0890336 -0.20051044 -0.13867977 -0.06969163
000010 6d ea 5e bc 48 9a 11 bd 46 5f d4 bd e3 21 05 3e
       -0.013605696 -0.035547525 -0.103697345 0.13001208
000020 0a 7c c9 bd 03 e5 a4 bc
       -0.09838112 -0.020128733
