Saved_Models_All_Samples_Limited_Features/target_Hardness_features_5_epochs_2.pth (torch_old, 10514 bytes, 11 tensors)

L1.weight f4 [10, 5]
0.3282027 0.10563031 0.568853 -0.052504495 0.1482426 0.61582476 -0.13165218 0.24821967
0.47444496 -0.38706315 -0.35298064 0.24549673 -0.05243222 -0.59075075 -0.275113 0.4371042
0.111168005 0.35861582 0.43784723 0.23470102 -0.04290037 0.48971468 -0.5639828 0.32653597
-0.30208653 0.069129504 0.32038867 0.29906207 0.017875254 -0.4362023 -0.44781354 0.09224684
-0.29935426 0.323953 -0.12170931 0.041429345 -0.05871507 0.10744345 0.15960735 -0.2091407
-0.14028461 -0.2582329 0.26127386 0.3387712 0.005653122 -0.040431008 0.14547275 0.46000472
-0.11420276 -0.37928724
00000000: 2f0a a83e b454 d83d 5aa0 113f f40e 57bd
00000010: e8cc 173e b1a6 1d3f d4cf 06be 4c2d 7e3e
00000020: 73ea f23e 242d c6be e1b9 b4be 7f63 7b3e
00000030: 2bc3 56bd 713b 17bf 9cdb 8cbe 1fcc df3e
00000040: 0dac e33d 7e9c b73e 832d e03e 7755 703e
00000050: 4cb8 2fbd e2bb fa3e 2d61 10bf b92f a73e
00000060: 16ab 9abe c593 8d3d fc09 a43e aa1e 993e
00000070: 206f 923c e855 dfbe d147 e5be e9eb bc3d
00000080: f644 99be 2bdd a53e bb42 f9bd d1b1 293d
00000090: 377f 70bd 500b dc3d 1c70 233e fb28 56be
000000a0: c5a6 0fbe 1a37 84be b0c5 853e 6b73 ad3e
000000b0: d33d b93b fc9a 25bd cff6 143e bd85 eb3e
000000c0: 23e3 e9bd f031 c2be

L1.bias f4 [10]
0.3178397 -0.14389811 0.40556782 0.11173926 -0.31568265 -0.22326615 0.030327398 -0.3548786
-0.74863267 -0.31735155
00000000: e3bb a23e 075a 13be 96a6 cf3e 8ed7 e43d
00000010: 28a1 a1be e29f 64be 2a71 f83c a6b2 b5be
00000020: 64a6 3fbf e77b a2be

L2.weight f4 [20, 10]
0.30351794 0.7131732 -0.84212506 0.94578195 0.50411046 0.2899499 0.11321036 -0.05029668
-0.37253428 -0.15342334 -0.32765007 -0.26664528 0.3408595 -0.19885753 0.29910666 -0.00014132656
-0.12131781 0.24660526 0.07227147 0.17771104 -0.015253392 -0.5129604 0.0931454 -0.15070616
0.23950984 0.007023042 0.3942393 0.07833621 0.02170841 0.22435339 -0.03262358 -0.5091706
0.09949712 0.004148223 0.26942024 0.04667832 0.016462607 -0.21327692 -0.11807312 0.17595574
-0.17474496 -0.34430882 -0.037886575 -0.38624626 0.26789737 -0.12746249 0.21264042 -0.05314881
0.23415348 0.13111214 -0.26107043 -0.625143 0.17270528 -0.24904695 0.146107 -0.020148873
0.09332121 0.13005543 -0.3162562 -0.20045418 -0.21271846 0.16621144 0.2912465 -0.6068864
0.2488713 0.21143875 0.20673485 -0.10555049 -0.5225777 -0.26248068 -0.14871156 0.02847661
-0.3152589 0.20736918 -0.32947344 0.07244273 -0.11886389 -0.30714372 0.20434883 0.39838466
-0.19597368 0.045436356 0.61466444 -0.28369603 -0.019351624 0.1548525 0.33473852 -0.052248884
0.058148716 0.3153741 -0.14834559 0.25066814 -0.3087521 0.00332813 -0.14370118 0.23209944
-0.29519126 0.13482073 -0.44773 0.026631538 -0.055293567 -0.24831954 0.23578273 -0.17445573
0.20312804 0.1745037 -0.24644063 0.039728325 -0.0727474 0.15520693 0.10113554 0.06851309
0.11507057 -0.102631025 -0.41752893 0.04553783 -0.06216151 -0.20283672 0.26739055 -0.3834427
-0.2253258 0.28299648 0.24114653 0.20412692 0.32179463 -0.06830743 0.43562573 -0.09816116
0.084609285 0.046589747 0.4304251 0.47025463 -0.513665 0.42247823 0.022560542 0.3242781
-0.07248594 0.2437362 -0.47691348 0.2559516 -0.28283447 0.17709146 -0.29906738 0.0904785
-0.3092759 0.042232607 -0.14247134 -0.12191313 0.23534699 -0.3872538 0.018659797 -0.21212415
-0.3046742 0.03804096 0.0042775623 0.2322068 -0.4470355 -0.29512075 0.36072144 0.22528267
0.1662847 -0.35502818 0.2788951 -0.1668001 0.4673024 0.13398714 0.06885989 0.23807934
0.15131615 0.05938309 0.28092948 0.06272252 0.108094476 0.4746979 0.05040035 0.10748699
-0.17974964 -0.34325555 -0.080371045 -0.16281198 -0.11079247 -0.2759858 0.14883922 0.12429555
-0.29176536 -0.5179577 -0.19432147 -0.031800635 -0.25214744 -0.18546546 -0.26106635 0.25513807
-0.5267876 0.024493285 -0.65540725 -0.21353199 -0.485824 0.3066637 0.20574026 -0.03941429
00000000: b466 9b3e 8592 363f 8295 57bf c41e 723f
00000010: 620d 013f 5074 943e d5da e73d e403 4ebd
00000020: d0bc bebe 021b 1dbe c0c1 a7be bb85 88be
00000030: 2385 ae3e 4fa1 4bbe 8224 993e 0f31 14b9
00000040: 7975 f8bd 1786 7c3e 1103 943d e2f9 353e
00000050: 5de9 79bc 5f51 03bf 04c3 be3d b752 1abe
00000060: 1142 753e 8c21 e63b bcd9 c93e bc6e a03d
00000070: d6d5 b13c e5bc 653e 4ea0 05bd 0159 02bf
00000080: 25c5 cb3d d1ed 873b 73f1 893e c431 3f3d
00000090: 97dc 863c 4465 5abe 52d0 f1bd be2d 343e
000000a0: 58f0 32be 3f49 b0be f42e 1bbd 12c2 c5be
000000b0: d829 893e 8785 02be 69be 593e 91b2 59bd
000000c0: eec5 6f3e 4342 063e 06ab 85be 5f09 20bf
000000d0: a7d9 303e 2a06 7fbe 139d 153e 400f a5bc
000000e0: 311f bf3d 402d 053e 55ec a1be dc43 4dbe
000000f0: ded2 59be 5533 2a3e 431e 953e e85c 1bbf
00000100: 1ed8 7e3e 6683 583e 4db2 533e db2a d8bd
00000110: a7c7 05bf de63 86be d847 18be c847 e93c
00000120: 9d69 a1be 9658 543e beb0 a8be db5c 943d
00000130: e96e f3bd f141 9dbe d240 513e 13f9 cb3e
00000140: 53ad 48be 791b 3a3d a65a 1d3f 9b40 91be
00000150: 4c87 9ebc a791 1e3e d962 ab3e ed02 56bd
00000160: 592d 6e3d b778 a13e e8e7 17be 9357 803e
00000170: c114 9ebe c21c 5a3b 6726 13be 7aab 6d3e
00000180: 4f23 97be 720e 0a3e de3c e5be 622a da3c
00000190: 827b 62bd 7a47 7ebe 0771 713e 86a4 32be
000001a0: cc00 503e 19b1 323e ef5a 7cbe 2bba 223d
000001b0: 97fc 94bd 91ee 1e3e 2620 cf3d 9750 8c3d
000001c0: 1eaa eb3d 3730 d2bd 5ac6 d5be e085 3a3d
000001d0: 119d 7ebd 6eb4 4fbe 6ae7 883e 9a52 c4be
000001e0: cebb 66be eae4 903e 1eef 763e a606 513e
000001f0: 44c2 a43e c4e4 8bbd 560a df3e b808 c9bd
00000200: a247 ad3d e4d4 3e3d ae60 dc3e 37c5 f03e
00000210: 8d7f 03bf 114f d83e e3d0 b83c c707 a63e
00000220: 8273 94bd fb95 793e 012e f4be 170c 833e
00000230: aecf 90be 7757 353e 5c1f 99be cb4c b93d
00000240: 6959 9ebe 19fc 2c3d 02e4 11be 97ad f9bd
00000250: cdfe 703e 2146 c6be 6edc 983c 1337 59be
00000260: 42fe 9bbe d6d0 1b3d cb2a 8c3b 9fc7 6d3e
00000270: d6e1 e4be 111a 97be 7bb0 b83e 80b0 663e
00000280: 8946 2a3e 41c6 b5be 57cb 8e3e a5cd 2abe
00000290: 4342 ef3e ed33 093e 6a06 8d3d 12cb 733e
000002a0: 9ff2 1a3e af3b 733d fdd5 8f3e aa74 803d
000002b0: a360 dd3d 9a0b f33e 9970 4e3d 2422 dc3d
000002c0: 4a10 38be 31bf afbe 9399 a4bd 2fb8 26be
000002d0: 2ae7 e2bd 034e 8dbe 4f69 183e aa8e fe3d
000002e0: 4562 95be e098 04bf 35fc 46be 6241 02bd
000002f0: 7819 81be a8ea 3dbe 7daa 85be 75a1 823e
00000300: 8ddb 06bf 24a6 c83c c5c8 27bf 21a8 5abe
00000310: ecbd f8be 0603 9d3e 93ad 523e e170 21bd

L2.bias f4 [20]
0.08863318 0.08838202 0.23269437 -0.2546814 0.037405264 0.025008507 0.22502622 -0.2149823
0.03085069 -0.18937713 -0.056437 -0.2505122 0.15073298 0.06836866 -0.0773345 -0.2697788
0.05283081 0.31554717 -0.41453823 -0.13007906
00000000: 5085 b53d a201 b53d 6f47 6e3e 9a65 82be
00000010: 4336 193d a4de cc3c 466d 663e 5224 5cbe
00000020: 96ba fc3c 14ec 41be 7c2a 67bd 2343 80be
00000030: bf59 1a3e de04 8c3d 8d61 9ebd 7220 8abe
00000040: 1f65 583d 668f a13e 5b3e d4be 7233 05be

L3.weight f4 [40, 20]
0.18577196 -0.06370168 -0.08569529 -0.25259453 -0.060935773 0.13657781 -0.1199992 -0.048824254
-0.101734154 0.036323145 -0.276737 -0.023856303 -0.3727619 0.48428044 -0.20786455 -0.09672568
-0.561344 -0.12474205 0.08580714 0.27890375 -0.20665048 0.1463719 0.09546071 -0.17640135
-0.18311234 0.14852247 -0.0069219167 0.09014811 0.44032195 -0.12695317 0.15423302 -0.17630553
-0.1941999 -0.38527462 0.05335303 -0.15842272 0.25234938 -0.13312232 0.0788149 -0.24266633
0.5358507 -0.36171278 -0.1301887 0.51486766 0.19506395 0.13407913 -0.28065693 0.18319294
-0.3571818 -0.27633643 0.22173493 0.17081979 -0.060320992 0.6302217 -0.11538073 0.4394765
0.059461635 -0.19312519 0.31865624 0.23460974 -0.27528152 0.037300684 0.39612526 -0.12798586
-0.23110305 0.004757769 0.035222936 0.32260984 0.26849973 0.09867653 0.102160506 0.16993381
-0.13725096 -0.7078025 0.06702113 0.14911513 0.07722237 -0.41235566 -0.19972463 -0.14749649
-0.7259702 -0.3201229 -0.063959844 -0.002731198 -0.28250384 -0.057058234 -0.27630427 -0.46849772
0.062014453 -0.1444627 -0.055038575 -0.1988386 -0.06775086 0.11290209 -0.085433215 0.1545888
0.0711924 0.0080752615 0.010817872 -0.14242293 0.13289148 -0.38508368 0.12557058 0.009414965
-0.042398997 -0.16900328 -0.5152153 0.33883056 -0.5065035 -0.18612735 -0.48866403 0.33286664
-0.2348528 0.06210517 0.16904879 0.8313435 -0.04541903 -0.36635002 0.3875301 0.11730097
-0.3392192 -0.39433143 0.0884624 0.12889986 -0.25243506 0.053907003 -0.15819502 -0.028282665
-0.25784504 0.034271583 0.08295716 -0.26041588 0.2687974 -0.025440007 -0.24773741 0.08277239
-0.33378193 -0.061207663 0.4480968 -0.024420857 -0.098043524 -0.119895265 -0.27418992 0.038291607
0.025852809 -0.1974111 -0.24996477 -0.21967281 -0.4915696 0.13348223 0.06304713 0.09026
-0.26515552 0.01622773 0.16173929 0.092153445 0.25418964 0.034311857 -0.07462752 -0.32212228
-0.59038776 -0.1948408 -0.7586272 -0.08052446 0.1014449 -0.07785505 0.24388556 0.115957625
0.054207217 0.027616782 -0.05820399 -0.23241568 0.5041857 -0.29671708 -0.024047127 -0.04865847
0.16307232 -0.06260017 0.026208304 -0.40177086 -0.10717691 -0.3306522 -0.06358442 -0.09507276
0.15899439 0.25822806 0.20624031 -0.19676647 -0.3794954 0.102675654 -0.11721558 0.11775031
-0.25907934 -0.29468188 -0.35153592 0.022670066 0.042667735 -0.021371173 0.036023054 -0.030800402
-0.37324783 -0.26289308 0.20492725 -0.14113729 -0.004217727 -0.4102946 -0.17676374 0.3278771
-0.18135025 -0.02303657 0.014484311 0.069170386 -0.21118422 -0.16182026 0.063075036 0.12027535
0.03448846 -0.5234626 -0.06785015 0.1545968 -0.16328017 -0.0019828703 -0.18770234 -0.15582314
-0.026238596 0.014258277 -0.1979622 0.06535605 -0.01618631 0.050112076 -0.09657944 0.14833717
-0.16154642 -0.35160688 0.03625194 -0.142741 0.028692918 -0.05016258 0.20163564 0.11219832
-0.6290281 0.26949865 0.4072574 -0.27132648 -0.008807441 0.077311814 0.13409956 0.10884832
0.27450922 0.1400752 0.10469958 -0.0953353 0.39922154 -0.47670174 0.07410588 -0.12581687
00000000: 013b 3e3e 0776 82bd 0381 afbd 1254 81be
00000010: ca97 79bd 0edb 0b3e 24c2 f5bd f1fb 47bd
00000020: ff59 d0bd 94c7 143d 79b0 8dbe 4b6e c3bc
00000030: a6da bebe 9bf3 f73e 72da 54be 1d18 c6bd
00000040: 3eb4 0fbf c378 ffbd a7bb af3d 79cc 8e3e
00000050: 2f9c 53be 84e2 153e e880 c33d 8ea2 34be
00000060: cd81 3bbe 4616 183e 3fd1 e2bb 939f b83d
00000070: e171 e13e 0300 02be 43ef 1d3e 7089 34be
00000080: 57dc 46be b742 c5be b588 5a3d 9139 22be
00000090: f033 813e 3851 08be b569 a13d 867d 78be
000000a0: 832d 093f 6b32 b9be 3050 05be 5ece 033f
000000b0: d8be 473e 0a4c 093e 44b2 8fbe ee96 3b3e
000000c0: 88e0 b6be f87b 8dbe 7b0e 633e 62eb 2e3e
000000d0: 2513 77bd 3656 213f bb4c ecbd 1003 e13e
000000e0: 0b8e 733d 9cc2 45be e926 a33e 893d 703e
000000f0: b3f1 8cbe 9ac8 183d eed0 ca3e ba0e 03be
00000100: 47a6 6cbe 0fe7 9b3b ed45 103d 1e2d a53e
00000110: cc78 893e ec16 ca3d 8739 d13d 2103 2e3e
00000120: 848b 0cbe 8b32 35bf 6042 893d a3b1 183e
00000130: c326 9e3d 4820 d3be 9d84 4cbe 5209 17be
00000140: 2fd9 39bf 26e7 a3be 61fd 82bd e6fd 32bb
00000150: 58a4 90be e5b5 69bd c177 8dbe efde efbe
00000160: de02 7e3d 08ee 13be 2170 61bd 599c 4bbe
00000170: f6c0 8abd 3639 e73d 9cf7 aebd 874c 1e3e
00000180: 52cd 913d 1a4e 043c 723d 313c 51d7 11be
00000190: b414 083e b029 c5be 9395 003e 3a41 1a3c
000001a0: 92aa 2dbd 320f 2dbe 26e5 03bf 337b ad3e
000001b0: 37aa 01bf 2b98 3ebe 2c32 fabe 7f6d aa3e
000001c0: 417d 70be fe61 7e3d 201b 2d3e edd2 543f
000001d0: 4e09 3abd 3b92 bbbe 586a c63e 7e3b f03d
000001e0: 24ae adbe cfe5 c9be c62b b53d 53fe 033e
000001f0: 2b3f 81be 97cd 5c3d e0fd 21be 0cb1 e7bc
00000200: 4404 84be 5c60 0c3d 72e5 a93d 3b55 85be
00000210: d09f 893e 9067 d0bc e0ae 7dbe 9284 a93d
00000220: 77e5 aabe e3b4 7abd f26c e53e 400e c8bc
00000230: 0bcb c8bd a68b f5bd 9f62 8cbe a9d7 1c3d
00000240: 45c9 d33c 2326 4abe c4f6 7fbe e9f1 60be
00000250: 03af fbbe 91af 083e db1e 813d 3cda b83d
00000260: 77c2 87be 04f0 843c fc9e 253e f2ba bc3d
00000270: 2525 823e 978a 0c3d 50d6 98bd 36ed a4be
00000280: a723 17bf 5984 47be 6435 42bf 02ea a4bd
00000290: 58c2 cf3d 7872 9fbd 23bd 793e 317b ed3d
000002a0: 6308 5e3d 973c e23c 4f67 6ebd 60fe 6dbe
000002b0: 5012 013f 4deb 97be 7bfe c4bc 1b4e 47bd
000002c0: 6efc 263e 8534 80bd ccb2 d63c e9b4 cdbe
000002d0: 917f dbbd 3f4b a9be 8c38 82bd 82b5 c2bd
000002e0: 6dcf 223e 7836 843e a930 533e 267d 49be
000002f0: 394d c2be 9d47 d23d b90e f0bd 1327 f13d
00000300: 0ca6 84be 8be0 96be 84fc b3be 93b6 b93c
00000310: 5dc4 2e3d 9912 afbc e98c 133d 2051 fcbc
00000320: 571a bfbe ec99 86be 73d8 513e 4b86 10be
00000330: dc34 8abb 2212 d2be 8e01 35be 82df a73e
00000340: e1b3 39be 30b7 bcbc 9b4f 6d3c 34a9 8d3d
00000350: ad40 58be 36b4 25be 7c2d 813d ec52 f63d
00000360: c543 0d3d a501 06bf 05f5 8abd a04e 1e3e
00000370: eb32 27be 0bf3 01bb 0b35 40be 1a90 1fbe
00000380: 53f2 d6bc 8c9b 693c 9ab6 4abe 65d9 853d
00000390: 2799 84bc 5242 4d3d 71cb c5bd b3e5 173e
000003a0: 6d6c 25be d105 b4be ea7c 143d b22a 12be
000003b0: 690d eb3c 4777 4dbd 9379 4e3e 3cc8 e53d
000003c0: fc07 21bf bafb 893e 0b84 d03e 4eeb 8abe
000003d0: 164d 10bc a855 9e3d 6551 093e deeb de3d
000003e0: 798c 8c3e e06f 0f3e bc6c d63d 273f c3bd
000003f0: c466 cc3e 4012 f4be d3c4 973d 23d6 00be

L3.bias f4 [40]
-0.40052012 0.103803426 -0.49567923 0.046435505 -0.091932006 -0.3851068 -0.18615374 0.009929812
0.12618148 -0.3199805 -0.2403648 -0.19358557 0.22504236 0.24366711 0.27204564 -0.22593203
0.14088461 0.047217056 0.18532434 -0.050759055 -0.147681 -0.16646966 -0.33562192 -0.24415553
0.13782617 0.2435187 -0.015382325 -0.49246386 0.110428944 -0.25944927 0.14098948 -0.3349137
-0.094746225 0.088757776 0.15147 -0.16739945 0.019202333 -0.30248666 0.085251935 -0.15502608
00000000: f910 cdbe e496 d43d abc9 fdbe 2833 3e3d
00000010: d946 bcbd b82c c5be 169f 3ebe a6b0 223c
00000020: b835 013e 7cd4 a3be 3122 76be 4c3b 46be
00000030: 8171 663e df83 793e 9149 8b3e ba5a 67be
00000040: 0e44 103e ac66 413d aac5 3d3e bae8 4fbd
00000050: b039 17be 0677 2abe a3d6 abbe e803 7abe
00000060: 4e22 0d3e f75c 793e 2606 7cbc 3924 fcbe
00000070: 9228 e23d 89d6 84be 8c5f 103e cf79 abbe
00000080: 4f0a c2bd a3c6 b53d f41a 1b3e c36a 2bbe
00000090: 364e 9d3c 88df 9abe 9198 ae3d 28bf 1ebe

L4.weight f4 [20, 40]
0.0899991 -0.2290232 -0.12965962 -6.826489e-06 0.097037755 -0.210136 0.08866004 -0.2203207
-0.0067371265 0.2553948 0.106676996 0.13647328 -0.28864115 -0.18358417 0.0360445 -0.065463476
0.2389011 0.009162007 -0.16802143 -0.16295402 0.32089537 -0.03637409 -0.10812721 -0.120365776
0.010442402 -0.15484697 -0.1449888 -0.21856238 -0.18922564 -0.09187679 -0.16802843 0.016878005
0.021170415 -0.17629223 -0.090274565 -0.24551456 -0.081730604 -0.13981125 -0.02412268 -0.2943687
0.3183491 -0.119694486 0.1392439 -0.38527557 0.05118826 -0.38977915 -0.1969842 0.22539872
0.3800375 0.0081142355 -0.49829286 -0.08099569 0.24686609 -0.032056883 0.23128486 0.26576585
0.034817617 -0.010526805 -0.08867074 0.21033601 0.013796384 -0.165873 -0.13133705 -0.006921034
-0.5615848 0.3783656 -0.027176412 -0.11469972 -0.40256178 0.014998731 -0.3119367 -0.23967646
-0.51800656 0.2262375 -0.20361419 -0.007543392 -0.23067613 0.019460427 -0.6354774 -0.18142074
-0.08162728 0.007362761 0.039094985 -0.09818025 -0.034017038 0.031091679 -0.18745157 -0.02416224
0.19928649 -0.34773234 0.099500455 0.02535445 0.29368103 0.09072255 -0.100990824 -0.05160222
-0.4166291 0.14454882 0.0003253199 0.08148413 -0.29160774 0.1575964 -0.2660228 -0.36832067
-0.08846505 -0.6997608 0.040338628 0.014183757 -0.088633396 0.060395338 -0.090195045 -0.013657621
-0.027269388 -0.30648613 0.09681828 -0.32268706 0.32109708 -0.2052975 0.055174846 0.15852807
0.3435165 -0.13464032 0.66761494 -0.2250588 0.06028337 0.10362752 0.18567823 -0.08359458
0.09386329 0.20244993 0.034980267 -0.08784184 -0.5743369 -0.16641955 0.41950086 0.514543
0.5458962 -0.39391315 -0.33107042 -0.19092937 0.08289994 -0.31645533 -0.18053311 0.0050486256
-0.38425115 0.26318488 -0.14651391 -0.21738298 0.0078477105 -0.056997772 -0.2212075 -0.06293548
-0.48676902 0.41174126 -0.08644308 0.1542645 0.12764165 0.0102511 0.0052801613 -0.21185893
0.16905518 -0.18871337 -0.07762139 0.034477424 -0.054231703 -0.060237166 -0.21193781 -0.051454358
-0.0046396167 -0.07836585 0.19905463 0.10738736 0.10175329 0.016546525 -0.051496226 -0.040947303
-0.29997185 -0.2449353 -0.24317177 0.078619756 -0.005506633 -0.44215313 -0.058063198 -0.12879595
0.07190105 0.10912201 -0.0690594 0.11760357 -0.07421604 0.13792008 -0.21816473 0.0033975877
-0.0072854883 -0.18202153 -0.004769088 -0.060972493 -0.020995473 0.052500032 -0.19314495 -0.16962859
0.05798883 -0.061794616 -0.07225059 0.07125509 -0.18483281 -0.20558585 -0.18001957 -0.09070063
-0.08896641 -0.07867716 0.09261323 0.104401626 -0.21222727 -0.09029473 -0.08828002 0.0009692371
-0.09772378 0.009714033 -0.21362527 -0.24896067 -0.12503678 0.16745089 0.34347004 -0.1986175
0.13848162 -0.316927 0.061237387 0.3312641 0.06564925 -0.060604367 -0.044286944 0.12692754
0.04995244 -0.12374439 -0.04256161 -0.05225981 -0.0303918 -0.024610842 -0.10614255 -0.1443454
0.34670585 0.18372865 0.21441296 0.068008505 -0.20906544 -0.1005605 -0.2548031 -0.16533683
-0.23877165 -0.03362993 -0.53528464 -0.03557662 0.0667589 -0.0027256487 0.014014303 0.22112314
00000000: 7351 b83d 0f85 6abe 7ec5 04be 180f e5b6
00000010: bbbb c63d e42d 57be 6593 b53d c09b 61be
00000020: 1dc3 dcbb 1bc3 823e 7879 da3d a7bf 0b3e
00000030: c6c8 93be 7dfd 3bbe 66a3 133d b711 86bd
00000040: 7da2 743e 3e1c 163c cf0d 2cbe 6bdd 26be
00000050: 664c a43e fffc 14bd cc71 ddbd 5582 f6bd
00000060: 9c16 2b3c 3490 1ebe f277 14be d1ce 5fbe
00000070: 5ec4 41be e629 bcbd a50f 2cbe be43 8a3c
00000080: 946d ad3c f385 34be dfe1 b8bd 2b68 7bbe
00000090: 6062 a7bd ae2a 0fbe ed9c c5bc 7fb7 96be
000000a0: a7fe a23e 6222 f5bd f495 0e3e d742 c5be
000000b0: c8aa 513d 2291 c7be 3ab6 49be ecce 663e
000000c0: 4694 c23e 92f1 043c 3e20 ffbe 11e1 a5bd
000000d0: 77ca 7c3e 144e 03bd f0d5 6c3e 7612 883e
000000e0: eb9c 0e3d 9f78 2cbc 0199 b5bd 5362 573e
000000f0: 3b0a 623c 9dda 29be 387d 06be d7c9 e2bb
00000100: 05c4 0fbf 23b9 c13e 11a1 debc b0e7 eabd
00000110: 941c cebe 3dbd 753c 2bb6 9fbe bf6d 75be
00000120: 149c 04bf ceaa 673e 3d80 50be 8f2e f7bb
00000130: 5d36 6cbe 796b 9f3c a6ae 22bf 5cc6 39be
00000140: 342c a7bd 5143 f13b 1022 203d ba12 c9bd
00000150: 7355 0bbd fab3 fe3c 4ef3 3fbe e4ef c5bc
00000160: c211 4c3e f909 b2be e5c6 cb3d 23b4 cf3c
00000170: 5c5d 963e bfcc b93d 47d4 cebd d95c 53bd
00000180: 6950 d5be 9b04 143e b38f aa39 27e1 a63d
00000190: 9c4d 95be f360 213e 2434 88be 8794 bcbe
000001a0: 2a2d b5bd 8623 33bf 1e3a 253d fd62 683c
000001b0: 6d85 b5bd 1a61 773d 2eb8 b8bd 37c4 5fbc
000001c0: 0d64 dfbc c0eb 9cbe aa48 c63d 3d37 a5be
000001d0: d666 a43e 8239 52be 05ff 613d 2f55 223e
000001e0: 65e1 af3e 27df 09be d0e8 2a3f d075 66be
000001f0: b2eb 763d aa3a d43d 6f22 3e3e a333 abbd
00000200: 663b c03d 094f 4f3e 7847 0f3d 6ce6 b3bd
00000210: be07 13bf e369 2abe d1c8 d63e 17b9 033f
00000220: dabf 0b3f fcae c9be 1082 a9be fd82 43be
00000230: 72c7 a93d 6f06 a2be acdd 38be f16e a53b
00000240: 91bc c4be 2bc0 863e be07 16be a599 5ebe
00000250: af93 003c 7f76 69bd 3884 62be 51e4 80bd
00000260: ca39 f9be c0cf d23e 1209 b1bd 83f7 1d3e
00000270: 7eb4 023e 3bf4 273c 3405 ad3b 8cf1 58be
00000280: cd1c 2d3e 143e 41be f7f7 9ebd 3338 0d3d
00000290: 1022 5ebd 3fbb 76bd 3a06 59be cec1 52bd
000002a0: ed07 98bb 467e a0bd fad4 4b3e e7ed db3d
000002b0: 0764 d03d 948c 873c b5ed 52bd 5cb8 27bd
000002c0: e995 99be 52d0 7abe 0502 79be 6503 a13d
000002d0: fc70 b4bb e561 e2be add3 6dbd 16e3 03be
000002e0: dc40 933d 5c7b df3d 046f 8dbd 24da f03d
000002f0: 94fe 97bd ec3a 0d3e 9366 5fbe 10aa 5e3b
00000300: 1bbb eebb da63 3abe 0246 9cbb 4bbe 79bd
00000310: b3fe abbc 460a 573d cac7 45be 1eb3 2dbe
00000320: b285 6d3d 5a1c 7dbd 1ef8 93bd 30ee 913d
00000330: d044 3dbe 1985 52be 0d57 38be 40c1 b9bd
00000340: 0534 b6bd 7e21 a1bd 01ac bd3d 85d0 d53d
00000350: 1b52 59be 72ec b8bd 28cc b4bd 6714 7e3a
00000360: 6823 c8bd 9c27 1f3c 95c0 5abe 8cef 7ebe
00000370: a409 00be 3f78 2b3e 4edb af3e 6362 4bbe
00000380: 20ce 0d3e 4144 a2be 0ed4 7a3d 739b a93e
00000390: 1d73 863d 493c 78bd 3a66 35bd 4bf9 013e
000003a0: ee9a 4c3d b36d fdbd 1555 2ebd 620e 56bd
000003b0: 39f8 f8bc ad9c c9bc 4461 d9bd 48cf 13be
000003c0: 6e83 b13e 5d23 3c3e 128f 5b3e 0b48 8b3d
000003d0: 4015 56be aaf2 cdbd 8d75 82be 0f4e 29be
000003e0: 8e80 74be 8abf 09bd 6a08 09bf cab8 11bd
000003f0: e4b8 883d cca0 32bb 3f9c 653c 1b6e 623e

L4.bias f4 [20]
-0.26045063 0.402103 0.23868553 0.28892997 0.027164903 -0.033696964 0.18791915 0.21238522
0.12173511 -0.49552694 0.07756158 -0.33407432 -0.10762875 0.31077918 -0.07700592 -0.10787436
-0.033411615 0.043520898 0.066455096 -0.027080119
00000000: c959 85be 72e0 cd3e fb69 743e a1ee 933e
00000010: ee88 de3c d405 0abd e16d 403e 837b 593e
00000020: 4250 f93d b5b5 fdbe 9bd8 9e3d ca0b abbe
00000030: 766c dcbd 731e 9f3e 48b5 9dbd 3ced dcbd
00000040: 9eda 08bd f842 323d 9c19 883d 20d7 ddbc

L5.weight f4 [10, 20]
0.24026869 -0.28845564 -0.28296658 -0.13460925 -0.13538054 -0.058963027 -0.3285569 -0.4867933
0.15721259 -0.04803841 0.31900284 0.6117965 -0.060012296 -0.23444816 -0.053618588 0.04088759
0.00688108 0.034140777 -0.3068523 0.10405392 -0.07720292 -0.14585714 0.017179737 -0.15364183
0.13965975 0.19618435 -0.10692331 -0.24899656 -0.58354735 0.09998242 -0.36760303 0.05690773
-0.16741246 0.14826941 -0.17095487 -0.04113248 0.18237206 -0.26914373 -0.120325156 -0.19177869
-0.040415727 -0.570617 0.27650794 -0.7351956 0.1063126 -0.06279466 -0.20648393 -0.27377692
0.18992549 -0.7120493 -0.2019963 0.0344539 -0.5270868 0.32871574 0.1432915 -0.18077578
0.06576406 0.036696374 0.15448874 -0.10938163 -0.30619398 -0.3390396 -0.11020718 -0.29029843
-0.19383128 -0.15365075 -0.35892528 -0.0980499 -0.124999516 -0.27576 -0.07152441 0.2291964
-0.20109951 0.20776825 0.15422525 -0.084975496 -0.17759171 0.14307515 -0.14645655 -0.14786957
0.089454345 -0.013715156 -0.16490711 -0.11837192 0.07791004 -0.1209964 -0.41235974 -0.14438781
0.0336867 0.19323543 0.13531417 0.21503839 0.25344306 -0.18579736 -0.07980175 0.056909177
-0.14957306 -0.23422922 0.090262085 -0.13596372 0.27812403 -0.23593786 -0.34818926 -0.38877055
0.09150809 -0.004687736 0.08326331 -0.15887436 -0.18129142 0.2480016 -0.14292885 0.14004882
-0.24735564 -0.23038454 0.07557283 0.04852843 -0.054179266 -0.08749134 -0.09515407 -0.0013514597
-0.07601233 -0.8205654 -0.00026084424 -0.46404475 -0.09285815 0.15719256 0.044583928 -0.20671657
0.071475685 -0.7761674 0.1032381 0.1306867 -0.39537755 0.08061996 0.119781904 0.07657746
-0.12151114 0.14697999 0.19498038 0.0056507513 0.17712663 0.4743554 -0.34182003 0.37563542
0.06119597 -0.42790818 0.70795566 -0.08610533 -0.28654313 0.24892858 -0.12556772 -0.30444208
0.23233189 -0.25848627 0.019121079 -0.07105973 0.05276006 -0.12630954 0.031200437 0.08758551
0.40979108 -0.4141658 -0.17983696 -0.36819002 -0.22237343 -0.017476013 0.23648052 -0.3924707
0.07142374 -0.26252753 0.12427721 0.36666954 -0.10441257 -0.07206521 -0.46181744 0.10686449
0.14052022 0.110699 -0.0673663 -0.2688135 0.7635271 0.045224827 -0.020298472 -0.14956298
-0.11981506 -0.013247161 -0.020071644 -0.20383212 -0.116936766 0.13212678 -0.0023361756 0.121725075
0.18850815 -0.027354669 -0.113729335 0.10837268 0.112888455 -0.024605844 -0.1846897 0.09984983
00000000: ff08 763e 75b0 93be ffe0 90be 02d7 09be
00000010: 32a1 0abe 3783 71bd 9c38 a8be f93c f9be
00000020: 56fc 203e ecc3 44bd 5754 a33e b29e 1c3f
00000030: 74cf 75bd 2e13 70be 2a9f 5bbd bf79 273d
00000040: af7a e13b 33d7 0b3d bf1b 9dbe 391a d53d
00000050: 911c 9ebd 935b 15be 85bc 8c3c 4954 1dbe
00000060: f702 0f3e 8de4 483e 9cfa dabd f4f8 7ebe
00000070: 5c63 15bf 95c3 cc3d 7736 bcbe 1418 693d
00000080: 2c6e 2bbe f0d3 173e cb0e 2fbe 887a 28bd
00000090: bebf 3a3e 35cd 89be 096d f6bd a261 44be
000000a0: f68a 25bd f513 12bf 7392 8d3e c735 3cbf
000000b0: 6cba d93d 7d9a 80bd 8670 53be 7d2c 8cbe
000000c0: d47b 423e dd48 36bf 1ed8 4ebe 881f 0d3d
000000d0: 29ef 06bf 6e4d a83e 02bb 123e 491d 39be
000000e0: 4faf 863d f04e 163d 4c32 1e3e 7a03 e0bd
000000f0: 75c5 9cbe 9996 adbe 4db4 e1bd ffa1 94be
00000100: b57b 46be 9f56 1dbe 0ec5 b7be 63ce c8bd
00000110: bfff ffbd 6a30 8dbe 647b 92bd 76b2 6a3e
00000120: 08ed 4dbe 33c1 543e 39ed 1d3e a207 aebd
00000130: 9ada 35be 4b82 123e b5f8 15be 1f6b 17be
00000140: d733 b73d 89b5 60bc 69dd 28be fa6c f2bd
00000150: 4d8f 9f3d f6cc f7bd d120 d3be 66da 13be
00000160: 11fb 093d 82df 453e cc8f 0a3e 0633 5c3e
00000170: 4ac3 813e aa41 3ebe 1a6f a3bd 9919 693d
00000180: ae29 19be c9d9 6fbe 54db b83d 133a 0bbe
00000190: 4666 8e3e b299 71be dd45 b2be ef0c c7be
000001a0: 9868 bb3d 949b 99bb f485 aa3d f6af 22be
000001b0: 75a4 39be 22f4 7d3e f15b 12be f568 0f3e
000001c0: cc4a 7dbe ede9 6bbe eec5 9a3d bfc5 463d
000001d0: 14eb 5dbd a92e b3bd 23e0 c2bd 7623 b1ba
000001e0: 5aac 9bbd 9310 52bf ecc1 88b9 4697 edbe
000001f0: 6a2c bebd 16f7 203e a39d 363d 82ad 53be
00000200: d861 923d e8b2 46bf 7f6e d33d bcd2 053e
00000210: ed6e cabe 141c a53d 3750 f53d a5d4 9c3d
00000220: d5da f8bd ec81 163e f0a8 473e f029 b93b
00000230: af60 353e b6de f23e 0903 afbe 4953 c03e
00000240: a0a8 7a3d c816 dbbe 953c 353f fe57 b0bd
00000250: c8b5 92be 22e7 7e3e d394 00be d5df 9bbe
00000260: 69e8 6d3e 5058 84be cfa3 9c3c c487 91bd
00000270: ef1a 583d 4a57 01be 0f98 ff3c 0860 b33d
00000280: 23d0 d13e 8a0d d4be 2e27 38be 6783 bcbe
00000290: dcb5 63be db29 8fbc f327 723e ebf1 c8be
000002a0: 9c46 923d 026a 86be 0d85 fe3d 1cbc bb3e
000002b0: 42d6 d5bd ed96 93bd 5673 ecbe c5db da3d
000002c0: 88e4 0f3e 28b6 e23d 58f7 89bd eca1 89be
000002d0: 8376 433f ab3d 393d fb48 a6bc 0a27 19be
000002e0: 9961 f5bd 9f0a 59bc 4a6d a4bc 5eb9 50be
000002f0: 8b7c efbd 3e4c 073e 861a 19bb ff4a f93d
00000300: 4808 413e e616 e0bc edea e8bd 7ff2 dd3d
00000310: 1032 e73d 3292 c9bc 4c1f 3dbe 117e cc3d

L5.bias f4 [10]
-0.18952651 0.08859518 0.4770461 0.12148647 -0.28062147 -0.11351568 0.22235444 0.292677
-0.34298542 -0.14144433
00000000: 3d13 42be 6471 b53d 633f f43e e6cd f83d
00000010: 9ead 8fbe e97a e8bd e2b0 633e c2d9 953e
00000020: c99b afbe c8d6 10be

L6.weight f4 [1, 10]
0.08392541 -0.21075168 -0.17719299 -0.08903764 0.03195725 -0.03763214 -0.08892831 0.15168397
0.03789159 0.018947216
00000000: 16e1 ab3d 4acf 57be 1472 35be 5e59 b6bd
00000010: 9be5 023d 2924 1abd 0c20 b6bd 0b53 1b3e
00000020: 3634 1b3d 3137 9b3c
