Saved_Models_All_Samples_Limited_Features/target_Hardness_features_5_epochs_31.pth (torch_old, 10514 bytes, 11 tensors)

L1.weight f4 [10, 5]
0	0x3f00f440	0.50372696
1	0xbf01e85c	-0.5074518
2	0x3f9fa90f	1.2473468
3	0x3f32e522	0.6988088
4	0x3f063e39	0.52438694
5	0xbd306146	-0.043061517
6	0xbf4b101a	-0.79321444
7	0x3f93f98a	1.1560528
8	0x3fac0906	1.3440254
9	0xbecc91a7	-0.39954874
10	0xbf7742a4	-0.9658606
11	0x3d9d205d	0.076721884
12	0xbcfa201b	-0.030532887
13	0xbef8ed19	-0.4861839
14	0xbf10a5a0	-0.56502724
15	0x3f7f1925	0.9964774
16	0x3e76574e	0.24056742
17	0x3fdc0c7c	1.719131
18	0x3edc97a2	0.43084437
19	0x3f1b0ea1	0.60569197
20	0xbe90c43e	-0.2827472
21	0xbdfad58a	-0.122477606
22	0xbf85dbeb	-1.0457739
23	0x3f39d3f1	0.7258902
24	0xbe5b47ba	-0.2141408
25	0xbe4fb156	-0.20282492
26	0x3cbcce2b	0.023047527
27	0x3f70950f	0.93977445
28	0xbe6f5f06	-0.23376092
29	0xbf219899	-0.6312347
30	0xbecc3edf	-0.39891717
31	0x3e79a0bb	0.2437772
32	0xbf74f9de	-0.9569377
33	0x3f69405f	0.9111385
34	0x3e0c56b4	0.1370495
35	0xbe73d6fc	-0.23812479
36	0xbd8ba713	-0.06818976
37	0xbd8e88b1	-0.069596656
38	0x3e8cb848	0.27484345
39	0xbe10a76a	-0.14126363
40	0xbe8c232a	-0.27370578
41	0xbee74f0e	-0.451775
42	0x3fb39951	1.4031163
43	0x3f84d8f2	1.0378706
44	0xbea808fb	-0.32819352
45	0x3ea57679	0.3231695
46	0xbee0bf1f	-0.43895814
47	0x3fab9d8d	1.3407456
48	0xbf048219	-0.51761013
49	0xbf1d365d	-0.61411077

L1.bias f4 [10]
0	0x3e80f935	0.2519013
1	0x3d3a48c4	0.04547955
2	0x3ec56c5c	0.38559234
3	0x3e610769	0.21975483
4	0xbf82d0e3	-1.0219997
5	0xbf46a28b	-0.7759177
6	0xbf0923e5	-0.53570396
7	0xbf86d7ae	-1.053457
8	0xbf40ffc5	-0.75390273
9	0xbfaca523	-1.3487896

L2.weight f4 [20, 10]
0	0x3f2390c7	0.6389279
1	0x3f2955ea	0.6614672
2	0xbfaf96c2	-1.3717883
3	0x3f2f0c7d	0.6837843
4	0xbe36f175	-0.17865546
5	0x3e306834	0.1722725
6	0xbe78fe7a	-0.24315825
7	0x3ce00eb8	0.027350768
8	0x3f459a38	0.77188444
9	0xbf0d8d92	-0.55294144
10	0x3e89e285	0.26930633
11	0xbfd3d464	-1.6549191
12	0x3e788319	0.2426876
13	0xbf8ae272	-1.0850356
14	0xbe1f8efe	-0.15581891
15	0x3f55910c	0.8342445
16	0xbec9a5e7	-0.39384386
17	0x3e062c3e	0.13102815
18	0xbf573c4a	-0.8407637
19	0x3f884a59	1.0647689
20	0xbea60d78	-0.3243215
21	0xc0014dda	-2.0203767
22	0x3ec25e37	0.37962505
23	0xbf3d5923	-0.73964137
24	0x3e7e176d	0.24813624
25	0x3ef3e3bd	0.47634688
26	0x3e2cfaa4	0.16892487
27	0x3ed93baf	0.42428347
28	0xbe8e49ff	-0.2779083
29	0x3fb88465	1.4415404
30	0xbedec0b6	-0.43506402
31	0xbfcb1168	-1.5864687
32	0x3eb50194	0.35352767
33	0xbf77a26a	-0.967322
34	0x3e9632aa	0.2933553
35	0x3e729b8e	0.23692152
36	0x3f9033ba	1.1265786
37	0xbf20d7f9	-0.6282955
38	0xbf60a245	-0.87747604
39	0x3f21fbb9	0.63274723
40	0xbf01f9f3	-0.5077202
41	0xbfba74f3	-1.456694
42	0xbf019f13	-0.50633353
43	0xbfbef60e	-1.491884
44	0x3f69cf7a	0.9133221
45	0xbec55f5e	-0.38549322
46	0x3f27206d	0.6528385
47	0xbef0ca21	-0.47029212
48	0xbff11926	-1.88358
49	0x3d981cea	0.0742739
50	0xbf4be50e	-0.79646385
51	0xbfbd494f	-1.4787997
52	0x3eb4032c	0.3515867
53	0xbfcf88bb	-1.6213602
54	0x3b8685be	0.004105299
55	0x3f15a772	0.58458626
56	0x3f0a9292	0.541299
57	0x3e9539e7	0.29145738
58	0xbf7dcbc2	-0.99139035
59	0x3f08d62d	0.53451806
60	0xbe8372ff	-0.25673673
61	0xbeedff88	-0.46484017
62	0x3f0e981d	0.55700856
63	0xbfcc12c4	-1.5943227
64	0x3f286582	0.6577989
65	0x3f3abdc4	0.7294581
66	0x3f2120da	0.6294075
67	0xbec971fc	-0.39344776
68	0xbfe3e934	-1.7805543
69	0x3e9fad62	0.31186968
70	0xbd72bb1b	-0.05926047
71	0x3f0d66d6	0.5523504
72	0xbff8f850	-1.9450779
73	0x3e35b822	0.17746022
74	0xbf555a64	-0.8334105
75	0xbdbfdacf	-0.09367906
76	0xbf25c532	-0.6475402
77	0x3cc1d6ab	0.023661932
78	0x3f130c2a	0.57440436
79	0xbe7fb3d8	-0.24970949
80	0xbf401b28	-0.7504144
81	0x3f15d819	0.58532864
82	0x3e914c4f	0.2837853
83	0xbf0a4f70	-0.5402746
84	0xbe08d8fd	-0.13364024
85	0x3e10e750	0.14150739
86	0xbd8d2673	-0.06892099
87	0x3d0bbee5	0.034117598
88	0xbf92b15d	-1.1460377
89	0x3f39e406	0.7261356
90	0xbea5fd59	-0.3241985
91	0x3efa7e7e	0.4892463
92	0xbec64a6d	-0.38728657
93	0xbea10293	-0.31447276
94	0x3eb90e57	0.36143753
95	0xbdfbecb0	-0.12301004
96	0xbf02ab69	-0.510428
97	0x3e4a837a	0.19776717
98	0xbfc17914	-1.5115075
99	0x3d9f3fbc	0.07775828
100	0xbf21f27c	-0.63260627
101	0x3eef4eca	0.467398
102	0x3d2a12ef	0.041521963
103	0xbf84e0d8	-1.0381117
104	0xbdf83063	-0.12118604
105	0x3f060b40	0.52360916
106	0x3f33ef4f	0.7028703
107	0x3e8e7d94	0.27830184
108	0xbef00136	-0.46875924
109	0x3ec80cff	0.39072415
110	0xbf3ed9c1	-0.74551016
111	0xbf50dbe6	-0.8158554
112	0x3d4dd041	0.050247435
113	0xbf5aa509	-0.85408074
114	0xbc4106dc	-0.011781421
115	0xbe17307b	-0.14764588
116	0x3d9999cc	0.075000376
117	0xbe245cb8	-0.16050994
118	0xbf4094c9	-0.7522703
119	0xbef15e3a	-0.47142202
120	0xbfa23da3	-1.267506
121	0x3ec29b3c	0.3800906
122	0x3ebbd05c	0.36682403
123	0xbf6ef833	-0.9334747
124	0xbda8b91a	-0.0823843
125	0x3f0e290b	0.55531377
126	0x3f2b0822	0.66809285
127	0xbe420ee4	-0.18950993
128	0xbb919198	-0.004442405
129	0x3f4f5b56	0.8099874
130	0x3eadcb47	0.3394415
131	0x3f1a0011	0.6015635
132	0xbfc5d4a6	-1.545552
133	0x3e05de32	0.13073042
134	0xbe918cd9	-0.2842777
135	0x3dc2527a	0.094883874
136	0xbe991557	-0.29899094
137	0x3ef5748a	0.47940475
138	0x3f8eb514	1.1149011
139	0xbd860143	-0.065432094
140	0xbed113d2	-0.40835434
141	0xbe09f018	-0.13470495
142	0xbfdee271	-1.7412854
143	0x3aad15ae	0.0013205314
144	0xbf0fc146	-0.56154287
145	0xbc2f1b46	-0.010687655
146	0xbf0cea2b	-0.5504481
147	0x3dd0ba90	0.10191834
148	0x3f2e4f99	0.68090206
149	0xbf8140f0	-1.0097942
150	0x3ef9da46	0.48799342
151	0x3e895819	0.26825026
152	0xbfd6a4a0	-1.676899
153	0x3ea40892	0.3203779
154	0xbf8c29ec	-1.0950294
155	0x3e0904f1	0.13380791
156	0xbf51343c	-0.8172033
157	0xbe109a97	-0.14121471
158	0x3f7fa7d1	0.9986544
159	0xbeeb3185	-0.45936218
160	0xbe87c93c	-0.26520717
161	0xbf5f4c91	-0.87226206
162	0xbe294ce9	-0.16533245
163	0xbf3fa76d	-0.74864846
164	0x3eaeb69d	0.34123698
165	0xbc504447	-0.012711591
166	0x3eb56ea6	0.3543598
167	0x3eb6e654	0.357226
168	0x3ec666ca	0.38750297
169	0xbe113773	-0.14181308
170	0x3eafdc43	0.34347734
171	0x3f262235	0.64895946
172	0xbf034122	-0.5127126
173	0x3f49ee48	0.78879213
174	0xbf0f14fe	-0.55891407
175	0xbda260b8	-0.07928604
176	0xbf8182b0	-1.0118008
177	0xbec6fc65	-0.38864437
178	0x3fac57a0	1.3464241
179	0xbf315691	-0.69272715
180	0xbedb7d9a	-0.42869264
181	0xbe6d4660	-0.23171377
182	0x3ebaf9df	0.36518762
183	0xbf2c2f9c	-0.67260146
184	0xbeb4b867	-0.35296938
185	0x3a358235	0.00069240044
186	0xbd8cc7a1	-0.06874014
187	0x3c784258	0.015152536
188	0xbf2d7ae8	-0.67765665
189	0x3ec74fce	0.38928074
190	0xbf2a3fc4	-0.6650355
191	0x3dda80f4	0.10669127
192	0xbff2df42	-1.8974383
193	0xbe6561ff	-0.22400664
194	0xbfb49f48	-1.4111109
195	0xbf2c5c50	-0.6732836
196	0xbfb7d39d	-1.4361454
197	0x3e184907	0.14871608
198	0x3ea6125c	0.32435882
199	0xbf255351	-0.64580256

L2.bias f4 [20]
0	0xbecbcb74	-0.3980366
1	0xbeb3bbec	-0.3510431
2	0xbec4e9b6	-0.38459557
3	0x3e3c47dc	0.18386787
4	0x3c94c238	0.018159017
5	0x3e0c9879	0.13730039
6	0x3dea2343	0.11432507
7	0xbed70550	-0.4199624
8	0x3db53899	0.08848686
9	0xbe6585fa	-0.22414389
10	0xbe8f627e	-0.2800483
11	0xbf21d82e	-0.6322049
12	0x3e0f8d02	0.14018634
13	0xbedfe31b	-0.43727955
14	0xbf173e50	-0.59079456
15	0x3e2638e7	0.16232644
16	0xbebd812b	-0.3701261
17	0x3bbb0eda	0.0057085576
18	0xbefc75fa	-0.4930876
19	0xbe81c70a	-0.25347167

L3.weight f4 [40, 20]
0	0x3e59985e	0.2124953
1	0x3ee29ba1	0.4425936
2	0xbd575660	-0.052572608
3	0xbf0f324b	-0.55936116
4	0x3d1e31e5	0.038621802
5	0x3ea57287	0.3231394
6	0x3df41c33	0.11919441
7	0xbeec634a	-0.46169502
8	0x3e1c1b70	0.15244842
9	0xbdc6c909	-0.09706313
10	0xbf00a197	-0.50246567
11	0x3fb37677	1.4020528
12	0xbf474310	-0.77836704
13	0xbcc6ee69	-0.024283605
14	0xbebec537	-0.37259838
15	0xbf165f9e	-0.5873965
16	0xbe847000	-0.258667
17	0xbf27f3cc	-0.6560638
18	0x3f845aaf	1.0340174
19	0x3f24b2b4	0.6433518
20	0xbf14ea39	-0.58169895
21	0xbe2be52b	-0.1678664
22	0xbe9673b0	-0.29385138
23	0xbef73907	-0.48285696
24	0xbf0405de	-0.5157145
25	0x3d755a45	0.05990054
26	0xbf220a29	-0.63296753
27	0xbe8eaf96	-0.27868336
28	0xbf1b94d5	-0.60773975
29	0x3e617250	0.22016263
30	0xbf0caea0	-0.54953957
31	0xbe6ddd6f	-0.23229001
32	0xbea65c2e	-0.32492203
33	0xbdc88e42	-0.097927585
34	0x3deca19f	0.11554264
35	0xbf011878	-0.5042796
36	0x3dfd1920	0.12358308
37	0xbe9a3702	-0.30120093
38	0x3ea4f596	0.32218617
39	0x3d43fcf9	0.047848675
40	0x3f184961	0.5948697
41	0xbf5620c9	-0.83643776
42	0xbf3a5f40	-0.7280159
43	0xbe599072	-0.21246508
44	0xbf338794	-0.7012875
45	0xbf3f0f85	-0.74633056
46	0xbf0e88ec	-0.55677676
47	0x3e2e1319	0.16999473
48	0x3e7a6a69	0.24454655
49	0xbe1aa75e	-0.15102908
50	0xbd17fedb	-0.037108283
51	0xbf052315	-0.52006656
52	0xbf301621	-0.68783766
53	0x3f02e705	0.5113376
54	0x3e2303f0	0.15919471
55	0x3eef5cdd	0.46750537
56	0xbe94fe36	-0.29100198
57	0xbfbeb0f8	-1.4897757
58	0xbf18b3bb	-0.59649247
59	0x3cc19a2b	0.023633083
60	0xbf046dd9	-0.51730114
61	0xbe119b73	-0.14219455
62	0x3d9059bb	0.07048365
63	0xbd946f05	-0.07247738
64	0x3b6320c9	0.0034656993
65	0xbe045f26	-0.12926921
66	0xbe130086	-0.14355668
67	0xbda385e8	-0.07984525
68	0xbeb32d78	-0.34995627
69	0xbe386421	-0.18006946
70	0xbd8702fe	-0.065923676
71	0x3ed23c68	0.4106171
72	0xba42ae52	-0.00074264884
73	0xbf275a62	-0.6537229
74	0x3ec63cba	0.38718206
75	0xbe610a21	-0.2197652
76	0xbe11f581	-0.14253809
77	0xbf11ee2b	-0.5700404
78	0x3d027df2	0.031858392
79	0xbdacbdc5	-0.08434633
80	0xbe9a8de1	-0.3018637
81	0xbed2737e	-0.4110374
82	0xbea75c03	-0.32687387
83	0xbece27af	-0.4026465
84	0xbe0f0440	-0.13966465
85	0xbe861acf	-0.26192328
86	0xbeac2585	-0.33622375
87	0xbf45c662	-0.77255833
88	0xbe607c5c	-0.2192244
89	0xbee4a448	-0.44656587
90	0xbdfdc81d	-0.12391684
91	0xbe52a110	-0.20569253
92	0xbd325e28	-0.043546826
93	0xbe03796e	-0.1283929
94	0x3eeb0c1a	0.4590767
95	0xbe0d5e94	-0.1380561
96	0x3b9d8114	0.004806647
97	0xbdf90e34	-0.12160912
98	0x3cdad623	0.026713436
99	0xbe8bac30	-0.27279806
100	0xbe04d6ed	-0.12972613
101	0xbe05861e	-0.13039443
102	0xbe1fb6b8	-0.15597045
103	0xbe420169	-0.1894585
104	0x3e766b83	0.2406445
105	0xbc444d1e	-0.011981277
106	0xbde5a0f1	-0.11212338
107	0xbe80ca40	-0.25154305
108	0xbf13ca62	-0.57730687
109	0xbe7d5110	-0.24737954
110	0xbe51689d	-0.20450063
111	0x3f8c3f90	1.0956898
112	0xbd9c3bfb	-0.07628628
113	0xbe7447e7	-0.23855554
114	0xbdc83a32	-0.09776725
115	0x3e0ac840	0.13552952
116	0x3ea64be5	0.32479778
117	0xbdb107b1	-0.08644045
118	0x3dd71d6c	0.10503659
119	0xbd72f431	-0.05931491
120	0xbeb22c2d	-0.34799328
121	0xbea25d5c	-0.31711853
122	0xbd181976	-0.037133656
123	0xbd25af68	-0.040450484
124	0xbec245b4	-0.37943804
125	0xbe0d6c25	-0.13810785
126	0xbdc1d570	-0.09464538
127	0x3c9d0aaa	0.019170124
128	0xbca955f1	-0.020670863
129	0x3ee52e41	0.4476185
130	0xbf14bee5	-0.5810378
131	0x3f25473f	0.6456184
132	0xbed35950	-0.41279078
133	0xbeabf703	-0.33586892
134	0x3ef489d1	0.47761396
135	0x3e324bb4	0.17411691
136	0xbf28812b	-0.65822095
137	0xbf0cdc4c	-0.55023646
138	0x3f1a3f4f	0.6025285
139	0x3edcf59a	0.4315613
140	0xbf1a1d01	-0.60200506
141	0xbc975ddc	-0.018477373
142	0xbeb499a8	-0.3527348
143	0xbe5916ba	-0.21200076
144	0x3ed0e43f	0.40799138
145	0xbe0291ab	-0.1275088
146	0xbdb6319c	-0.08896181
147	0xbf93c4ef	-1.1544474
148	0xbe841cab	-0.25803122
149	0xbe2f29d4	-0.171058
150	0xbee9e9cc	-0.45686185
151	0x3e623f76	0.22094521
152	0xbcdf4687	-0.02725531
153	0xbdf2e4ca	-0.11860044
154	0x3f114a45	0.5675395
155	0x3f04eb67	0.51921695
156	0x3e3e20f7	0.18567263
157	0x3d660182	0.05615378
158	0x3e220b3a	0.15824595
159	0xbeb78434	-0.3584305
160	0xbe275c59	-0.16343822
161	0xbeabe774	-0.33575022
162	0xbf79e82d	-0.976199
163	0xbf0c3d8f	-0.5478143
164	0xbf0942b5	-0.5361741
165	0xbe321303	-0.17390065
166	0xbe963b53	-0.29342136
167	0xbdc983f2	-0.0983962
168	0xbeb06579	-0.34452417
169	0xbe739d17	-0.23790394
170	0xbdca64ef	-0.09882533
171	0xbf9a8c36	-1.2074039
172	0x3d4973e6	0.049182795
173	0x3f02a258	0.51028967
174	0xbd4e7ddb	-0.050412994
175	0x3f835212	1.0259421
176	0xbeace911	-0.33771566
177	0xbe1b589b	-0.15170519
178	0x3e006734	0.12539369
179	0xbf220423	-0.6328756
180	0xbd33805a	-0.043823577
181	0xbf8c64f8	-1.0968313
182	0xbfa3d8be	-1.280052
183	0xbf894f29	-1.0727283
184	0xbeafe5a9	-0.34354904
185	0xbed53bd6	-0.41647214
186	0xbf4da412	-0.80328476
187	0x3f77977c	0.9671552
188	0xbde17963	-0.11009481
189	0xbe2754b1	-0.16340901
190	0xbf1aa321	-0.60405165
191	0x3e38a74c	0.18032569
192	0xbf82513b	-1.018104
193	0x3ef2400d	0.47314492
194	0xbf8395a2	-1.0280039
195	0xbf8066a9	-1.0031329
196	0xbf15c565	-0.58504325
197	0xbf0959d2	-0.5365268
198	0xbead7f5c	-0.3388623
199	0xbec64bd2	-0.3872972
200	0x3df55430	0.11978948
201	0xbf8492f4	-1.0357347
202	0xbf149dc0	-0.5805321
203	0xbf3a32bb	-0.7273366
204	0xbf1cde66	-0.61276853
205	0xbf68fdc9	-0.91012245
206	0xbf360b79	-0.71111256
207	0xbe40aad3	-0.18815164
208	0x3edfc0bb	0.4370173
209	0xbac418cd	-0.0014961004
210	0xbebd4dd4	-0.3697344
211	0xbe894661	-0.26811507
212	0x3ddc1485	0.10746101
213	0xbf140e4d	-0.5783432
214	0x3e3d7d58	0.18504846
215	0x3e2c24f6	0.16810974
216	0xbf581a9e	-0.84415615
217	0xbf2cbd82	-0.67476666
218	0xbe3a6130	-0.18201137
219	0x3f85d304	1.0455022
220	0xbf3d0b45	-0.7384532
221	0xbf0108d6	-0.5040411
222	0xbf179442	-0.592106
223	0xbf429002	-0.7600099
224	0xbf8af93e	-1.0857313
225	0xbf1ad158	-0.60475683
226	0xbf640311	-0.8906718
227	0x3e5aa71f	0.21352814
228	0xbf642c45	-0.8913005
229	0x3d17ac60	0.037029624
230	0x3f25f6fb	0.6482999
231	0x3f70775f	0.93932146
232	0x3f15d36f	0.5852575
233	0xbe7e21e9	-0.24817623
234	0xbec6fa37	-0.38862774
235	0x3ea2b12b	0.31775793
236	0x3db8a9d1	0.09016765
237	0x3e69f070	0.22845626
238	0x3e915d9b	0.28391728
239	0xbf193a07	-0.5985417
240	0xbe1f1b56	-0.15537772
241	0x3e3596fc	0.17733377
242	0xbdbb153f	-0.09134912
243	0xbf3a4983	-0.7276842
244	0xbed992cf	-0.4249482
245	0xbf0e8e1a	-0.5568558
246	0xbe18b852	-0.14914063
247	0x3eb78d2c	0.35849893
248	0xbe4d64a1	-0.20057918
249	0xbe165923	-0.1468244
250	0xbebb2ab4	-0.36556017
251	0x3ed3ebf8	0.41390967
252	0x3e2f11b8	0.17096603
253	0xbec87821	-0.3915415
254	0x3e9d7ca4	0.30759156
255	0xbf47d7ee	-0.7806386

L3.bias f4 [40]
0	0xbf6511bf	-0.89480203
1	0xbb05b147	-0.0020399855
2	0xbf374560	-0.7159023
3	0xbf27f720	-0.6561146
4	0xbea8cd07	-0.32968923
5	0xbf9d975d	-1.2311817
6	0xbf84ec4f	-1.0384616
7	0xbf867029	-1.0502979
8	0xbf22c7ea	-0.63586295
9	0xbee14e8c	-0.4400524
10	0xbf5e956b	-0.86946744
11	0xbf4af629	-0.7928186
12	0xbe4438d8	-0.19162309
13	0x3e56a95b	0.20963041
14	0xbe7d56fb	-0.24740212
15	0xbf7c7f38	-0.9863162
16	0x3f2b71cd	0.6697052
17	0xbe86c9c0	-0.26325798
18	0xbe8550af	-0.2603812
19	0xbecf877a	-0.40533048
20	0xbf8045c0	-1.0021286
21	0xbef8d940	-0.4860325
22	0xbf371ed0	-0.7153139
23	0xbf773e47	-0.965794
24	0xbd19220c	-0.037385985
25	0x3f2d07b7	0.67589897
26	0xbed70416	-0.41995305
27	0xbfb86343	-1.4405292
28	0x3e0cb806	0.13742074
29	0xbecd3ede	-0.40087026
30	0x3d5a955c	0.053365096
31	0xbfaeb19c	-1.3647952
32	0xbead30f8	-0.33826423
33	0x3e37ac5f	0.17936848
34	0xbe9365a3	-0.2878848
35	0xbec8189e	-0.3908128
36	0xbf0a7a74	-0.540931
37	0xbfb46074	-1.4091935
38	0xbf2e1370	-0.6799841
39	0xbe49a607	-0.1969224

L4.weight f4 [20, 40]
0	0xbe4bfd4a	-0.19920841
1	0xbd469a5e	-0.04848706
2	0xbe5a9422	-0.2134557
3	0x3e006862	0.12539819
4	0x3f818dfa	1.0121453
5	0x3e1e710b	0.1547281
6	0x3e5c1e32	0.21495894
7	0x3f15a6b9	0.58457524
8	0x3f3a2ba5	0.72722846
9	0x3f4f2e52	0.80930054
10	0xbec547d6	-0.3853137
11	0x3f6aed5e	0.91768444
12	0x3d8b4cd5	0.06801764
13	0xbeb52925	-0.35382953
14	0xbd953ebc	-0.07287356
15	0x3e4bab64	0.19889599
16	0x3eb347b5	0.35015646
17	0x3ee4aead	0.44664517
18	0xbe7e5417	-0.24836765
19	0xbebe79a7	-0.37202188
20	0x3f10f7bf	0.5662803
21	0x3e1a6874	0.15078908
22	0xbb749857	-0.0037322247
23	0x3f2b7ac0	0.66984177
24	0xbe3f42f7	-0.18677889
25	0xbe25dec1	-0.16198255
26	0x3eab7cf4	0.3349377
27	0x3de9f456	0.114235565
28	0xbf78b628	-0.9715295
29	0x3ec70b7c	0.3887595
30	0xbf2aac1a	-0.66668856
31	0x3eae8151	0.34083036
32	0x3f2246da	0.6338936
33	0xbe86524a	-0.26234657
34	0x3ee9b2bc	0.45644176
35	0xbe217236	-0.15766224
36	0x3d83f17f	0.06442546
37	0x3f9508db	1.1643327
38	0x3eceded7	0.40404388
39	0x3e64a9bf	0.22330378
40	0x3d8e0d3d	0.06936119
41	0xbe806ae4	-0.2508155
42	0x3ef42898	0.4768722
43	0xbedfc400	-0.43704224
44	0xbec8ddec	-0.39231813
45	0xbe86a9b5	-0.2630135
46	0x3e9f59d0	0.3112321
47	0xbe7ab5b4	-0.24483377
48	0xbebf773c	-0.37395656
49	0x3f9b7e65	1.2147948
50	0x3e862dc5	0.26206794
51	0xbe7efac4	-0.24900347
52	0xbda786a8	-0.081799805
53	0xbf2c1ea5	-0.6723426
54	0x3eff2de9	0.49839714
55	0x3e6216d1	0.22079016
56	0x3f7678d9	0.9627815
57	0xbda4680f	-0.0802766
58	0xbe486389	-0.1956922
59	0x3f6003a9	0.87505585
60	0x3e54552a	0.20735613
61	0x3e4189c6	0.18900213
62	0x3cb55235	0.022133926
63	0xbea9d25c	-0.33168304
64	0x3c49936a	0.012303213
65	0x3f00b7c7	0.5028042
66	0xbc22d6a2	-0.009938868
67	0xbd88002e	-0.06640659
68	0xbf0b84a4	-0.5449927
69	0xbe8c9132	-0.27454525
70	0xbeb45c59	-0.35226706
71	0xbf34b478	-0.70587873
72	0xbf9479bb	-1.1599649
73	0x3eba3625	0.36369434
74	0xbe5600ae	-0.20898697
75	0xbe1477fc	-0.14498895
76	0x3b8411f9	0.004030463
77	0x3f187411	0.59552103
78	0xbdb7fb72	-0.08983506
79	0x3e6d6e0b	0.2318651
80	0xbe97f222	-0.2967692
81	0xbd994c41	-0.074852474
82	0x3e99fa61	0.30073836
83	0xbdee4309	-0.1163388
84	0xbd1113f5	-0.035419423
85	0xbd9a65f6	-0.07538979
86	0xbdbb371a	-0.09141369
87	0x3d3961f8	0.045259446
88	0x3f01d3e4	0.50713944
89	0xbf0bcdb6	-0.54610765
90	0x3e0f60f6	0.14001831
91	0x3f809d35	1.0047976
92	0x3db34c6d	0.087548114
93	0x3d8fca64	0.07021025
94	0x3dae0bd6	0.08498351
95	0x3e346e51	0.17620207
96	0xbf85ea0f	-1.0462054
97	0xbbc858a3	-0.006114082
98	0x3e012970	0.12613463
99	0x3e2022d9	0.15638293
100	0xbd25012e	-0.04028433
101	0xbd28323e	-0.04106354
102	0xbe25cc06	-0.1619111
103	0xbe2edc1c	-0.17076153
104	0xbee4aa6a	-0.44661266
105	0xbf32fd4a	-0.6991774
106	0xbdbf931b	-0.0935423
107	0xbce82036	-0.028335672
108	0xbf1a6760	-0.6031399
109	0xbde2a512	-0.11066641
110	0xbefcb9e7	-0.49360582
111	0xbe4c5c6d	-0.19957133
112	0x3d431d81	0.04763556
113	0xbf17c10b	-0.59278935
114	0xbdd04a2d	-0.10170398
115	0xbed26135	-0.41089788
116	0x3d924e09	0.0714379
117	0x3e6d2e74	0.23162252
118	0x3e8845da	0.26615793
119	0xbe7fee37	-0.24993216
120	0x3e05f747	0.1308261
121	0xbf41cc60	-0.75702477
122	0x3f5513c2	0.83233273
123	0xbe79b383	-0.24384885
124	0xbe3044b4	-0.17213708
125	0x3deb6011	0.114929326
126	0x3ec4f278	0.3846624
127	0xbd0d6a15	-0.034524996
128	0xbe8c5a30	-0.27412558
129	0x3e8f9562	0.28043658
130	0x3f0cfca7	0.55073017
131	0x3d63b54d	0.055592824
132	0xbf169e8c	-0.58835673
133	0xbf365dba	-0.71236765
134	0x3f1a72c5	0.60331374
135	0x3e59c910	0.21268106
136	0x3f452f41	0.7702523
137	0xbdeb2881	-0.11482335
138	0xbf204aa5	-0.626139
139	0xbf2f38bd	-0.6844595
140	0xbbd64409	-0.006538872
141	0xbe9a67fd	-0.30157462
142	0xbd3fe41b	-0.046848398
143	0x3f19af15	0.6003278
144	0xbf832a84	-1.024735
145	0x3f06b603	0.5262148
146	0xbd4801e8	-0.048829943
147	0x3dc974e1	0.09836746
148	0xbed2f42e	-0.4120192
149	0xbe0f2c4e	-0.13981745
150	0xbebee12c	-0.37281168
151	0x3db83807	0.08995061
152	0xbf04c2d9	-0.51859814
153	0x3f069a40	0.52579117
154	0x3e64cc0f	0.22343467
155	0x3e52670e	0.20547125
156	0x3e494dc1	0.19658567
157	0x3f1b1a46	0.60586965
158	0x3f159f19	0.5844589
159	0xbec37f2b	-0.3818296
160	0x3e805bdf	0.25070092
161	0x3e1ef757	0.1552404
162	0xbe7bc8bf	-0.24588297
163	0x3eb4e839	0.35333422
164	0xbddd9c89	-0.10820872
165	0x3dea27d7	0.1143338
166	0x3f04921b	0.5178544
167	0x3e0c7ce1	0.13719513
168	0x3f20aafe	0.62760913
169	0x3f306943	0.68910617
170	0x3dc90e48	0.09817177
171	0x3ea854c9	0.32877186
172	0x3db20a75	0.08693401
173	0xbe7ec184	-0.24878508
174	0x3f84c4f2	1.0372603
175	0xbe191088	-0.14947712
176	0x3f59c796	0.8507017
177	0x3bb02940	0.005376011
178	0xbe8b9ed2	-0.27269608
179	0xbe232037	-0.15930258
180	0xbd90b693	-0.07066073
181	0xbd8a995c	-0.06767532
182	0x3ee70527	0.45121118
183	0x3d858102	0.06518747
184	0xbe743b38	-0.23850715
185	0xbde64fed	-0.112457134
186	0x3d4f1a1e	0.050562017
187	0x3f3ce29d	0.73783284
188	0xbde91a90	-0.113820195
189	0x3f156925	0.5836356
190	0xbea7d207	-0.32777426
191	0x3e3afc90	0.18260407
192	0xbe564af4	-0.2092703
193	0x3b7c8790	0.003853295
194	0xbe306b70	-0.17228484
195	0xbe37ec31	-0.17961194
196	0x3ed4c9d0	0.4156022
197	0xbec8f374	-0.3924824
198	0x3ee812c8	0.4532683
199	0xbe11e491	-0.14247347
200	0xbf18f317	-0.59745926
201	0x3d65593c	0.055993304
202	0x3e098811	0.13430811
203	0x3dfa0ed6	0.12209861
204	0xbdcf4300	-0.10120201
205	0xbe0aa125	-0.13538034
206	0x3e9bbfda	0.3041981
207	0x3e06c995	0.13162835
208	0xbf178a66	-0.59195554
209	0x3f26beb8	0.65134764
210	0x3e37d378	0.17951763
211	0xbd3c12b3	-0.04591627
212	0xbd2258b1	-0.039635364
213	0xbec82b58	-0.3909557
214	0xbe9c8f22	-0.30577952
215	0x3e2ef311	0.1708491
216	0xbef7fd82	-0.484356
217	0x3db66e3c	0.08907744
218	0xbd9c812d	-0.07641826
219	0x3f7fee51	0.99973017
220	0x3fbb4c3a	1.4632638
221	0x3e36687b	0.17813294
222	0xbeafe541	-0.34354594
223	0x3e7a4471	0.24440171
224	0xbc92e1f1	-0.017930003
225	0xbe8bad10	-0.27280474
226	0x3d945a4e	0.07243787
227	0xbea99981	-0.33124927
228	0xbe321617	-0.17391239
229	0x3ba82bbb	0.005132166
230	0xbe23d55d	-0.1599936
231	0xbe1dbd33	-0.15404205
232	0x3cf915d4	0.030405916
233	0x3d9ed9fb	0.0775642
234	0x3cb0bbee	0.021573987
235	0xbe3293a0	-0.17439127
236	0x3e40407f	0.18774603
237	0xbedf73da	-0.43643075
238	0x3e1d3699	0.15352859
239	0x3f83f59c	1.0309329
240	0x3eb8d172	0.36097294
241	0x3ee276c4	0.44231236
242	0x3f095f1e	0.5366076
243	0xbde72dff	-0.1128807
244	0xbe7f9c48	-0.2496196
245	0xbd8a269e	-0.06745647
246	0xbd466019	-0.04843149
247	0x3ea2a1bf	0.31764027
248	0xbd965ff2	-0.07342519
249	0x3dddf55a	0.10837813
250	0x3ee75813	0.45184383
251	0x3e0c5677	0.13704859
252	0x3ef35600	0.4752655
253	0xbf290320	-0.66020393
254	0x3ebf5f3e	0.37377352
255	0xbc212cb9	-0.009837323

L4.bias f4 [20]
0	0xbf4f5f2b	-0.8100459
1	0x3e836b99	0.25668028
2	0x3d74fe80	0.059813023
3	0x3e18e6bd	0.1493177
4	0x3e2752d5	0.16340192
5	0x3e0ed4f7	0.13948427
6	0x3eb647b8	0.35601592
7	0xbb7a27be	-0.003817066
8	0x3e551a0e	0.2081072
9	0xbf807e23	-1.0038494
10	0x3e316ab2	0.17325857
11	0xbf9f72aa	-1.2456868
12	0xbedad881	-0.42743304
13	0x3e6d1df2	0.23155954
14	0xbe68a6a0	-0.22719812
15	0xbee235cc	-0.4418167
16	0xbf18cd36	-0.5968813
17	0x3f542e41	0.8288308
18	0xbf144da9	-0.57931
19	0xbf07fafb	-0.5311734

L5.weight f4 [10, 20]
0	0x3e4a6f39	0.1976899
1	0xbd5e678c	-0.05429797
2	0xbf210b97	-0.6290831
3	0xbecce867	-0.4002106
4	0xbf20deaf	-0.6283979
5	0xbe22a503	-0.1588326
6	0xbc926dd3	-0.017874634
7	0xbef5dfd5	-0.48022333
8	0xbe9fc014	-0.3120123
9	0x3f08a4ab	0.53376263
10	0xbb10ab5f	-0.0022074801
11	0x3f5b04be	0.8555411
12	0xbe38821c	-0.18018383
13	0xbe3e33fc	-0.18574518
14	0xbc312915	-0.010813017
15	0x3c5d266c	0.01349793
16	0x3f7260d9	0.9467903
17	0xbf32537e	-0.6965865
18	0x3b99fd0d	0.0046993555
19	0xbe718280	-0.23584938
20	0xbef9e8e5	-0.48810497
21	0xbf040173	-0.5156471
22	0xbebfc6b8	-0.37456298
23	0xbf199af1	-0.60002047
24	0x3da2f476	0.079567835
25	0x3e1bfac8	0.15232384
26	0xbe8c2ab1	-0.2737632
27	0xbfaadf26	-1.334935
28	0xbfa8817e	-1.3164518
29	0x3f9f00fb	1.2422174
30	0xbf2dcbc2	-0.67889035
31	0x3e377585	0.17915924
32	0xbded0d9e	-0.11574863
33	0x3d1d3b6f	0.03838676
34	0xbde95316	-0.113928005
35	0x3e73a764	0.23794323
36	0x3e1a4973	0.15067081
37	0xbf3d9f16	-0.7407087
38	0x3e7893fa	0.24275199
39	0x3ef140b1	0.47119668
40	0xbef1e6e2	-0.47246462
41	0xbf46d760	-0.77672386
42	0xbe14fb65	-0.14549024
43	0xbf3328e0	-0.69984245
44	0xbdb7b3ed	-0.08969865
45	0xbd224958	-0.039620727
46	0xbf31bca1	-0.6942845
47	0xbf996ce6	-1.1986358
48	0xbc807e29	-0.015685158
49	0xbf594878	-0.84876204
50	0xbfb20787	-1.3908547
51	0xbf71e2f2	-0.94486916
52	0xbf917bd6	-1.1365917
53	0x3c81dda3	0.015852755
54	0x3c971274	0.018441416
55	0xbe581500	-0.21101761
56	0xbe58b831	-0.21164013
57	0xbdca051e	-0.09864257
58	0xbee0899d	-0.4385499
59	0xbf298f10	-0.6623392
60	0xbf2222aa	-0.63334143
61	0xbe70affc	-0.23504633
62	0xbed63510	-0.41837358
63	0xbf30c66a	-0.69052756
64	0xbe660368	-0.22462237
65	0xbe855a9d	-0.26045695
66	0xbf3f957d	-0.74837476
67	0xbf3c5de3	-0.7358076
68	0xbf24c9e6	-0.6437057
69	0xbdb8a6ab	-0.090161644
70	0xbdb39736	-0.087690756
71	0x3fab3ee1	1.3378564
72	0xbd66a73c	-0.05631183
73	0x3d08fa21	0.033441667
74	0x3df6f775	0.120589174
75	0x3d65fd87	0.056149986
76	0x3d559ff0	0.05215448
77	0xbe5d729b	-0.2162575
78	0x3dbe28df	0.09285139
79	0x3e1cbe39	0.15306939
80	0x3f00ca54	0.5030873
81	0xbe736a0c	-0.23770922
82	0x3db3cba6	0.08779077
83	0xbe809959	-0.25116995
84	0xbf139710	-0.5765238
85	0xbe881b07	-0.2658312
86	0xbebe97ba	-0.37225133
87	0xbee13257	-0.4398372
88	0xbec31289	-0.3810008
89	0x3f3684b8	0.7129626
90	0xbdd74c55	-0.10512606
91	0x3eedeeda	0.46471292
92	0x3d7ed380	0.06221342
93	0xbd9c1a8f	-0.07622253
94	0x3c913678	0.017726168
95	0x3f06c696	0.5264677
96	0x3e2af7c3	0.16696076
97	0xbd72839b	-0.05920754
98	0xbeddcaca	-0.43318778
99	0xbe514668	-0.20437014
100	0xbd2eb798	-0.042655557
101	0xbea126c8	-0.314749
102	0xbeb5e3b5	-0.3552529
103	0xbf2a1991	-0.6644526
104	0x3ce93211	0.028466256
105	0x3e066cfa	0.13127509
106	0xbeac1c12	-0.33615166
107	0xbd9e49b8	-0.077289045
108	0x3df95486	0.12174325
109	0x3f5a1947	0.8519482
110	0xbd80ecc6	-0.06295161
111	0x3f044aec	0.5167682
112	0xbe9a068b	-0.30083117
113	0xbe545bcb	-0.20738141
114	0x3dcc3cde	0.09972547
115	0xbe58a5d6	-0.21157011
116	0xbbc6facf	-0.006072379
117	0xbd6d3c7e	-0.057919018
118	0xbe32f863	-0.17477565
119	0x3d984509	0.074350424
120	0x3e6173e7	0.2201687
121	0xbf9154da	-1.135402
122	0xbe8d819b	-0.27637944
123	0xbe1377ee	-0.14401218
124	0xbef55833	-0.47918853
125	0xbe95d2d6	-0.29262418
126	0xbf1a6022	-0.6030294
127	0xbe9b201c	-0.30297935
128	0xbe6832fb	-0.22675698
129	0xbf32dcfe	-0.6986846
130	0xbd9afc54	-0.07567659
131	0x3da552f1	0.080724604
132	0xbf59f32a	-0.85136664
133	0xbd1ea2a4	-0.038729325
134	0x3df01514	0.1172277
135	0x3ed89039	0.42297533
136	0x3eead9a3	0.4586917
137	0xbe19d841	-0.150239
138	0xbef5eed0	-0.48033762
139	0x3ea769e7	0.32697985
140	0xbee75f34	-0.45189822
141	0xbe2c65cb	-0.16835706
142	0xbec45450	-0.38345575
143	0xbda7a19e	-0.08185123
144	0x3df0463b	0.117321454
145	0xbf7ec48f	-0.99518675
146	0xbe4b828d	-0.1987402
147	0xbd4508e0	-0.048104167
148	0xbf753d88	-0.95797014
149	0x3e4b9b72	0.19883516
150	0xbee02a36	-0.43782204
151	0x3cfccb86	0.030858766
152	0xbe7c2274	-0.24622518
153	0xbf43955f	-0.763998
154	0xbeb51be5	-0.35372844
155	0xbff679b9	-1.9255897
156	0xbbc0b2d1	-0.0058806916
157	0x3d2a66d6	0.04160198
158	0x3edd3d3f	0.4321079
159	0x3cda646e	0.026659217
160	0x3e9866a6	0.29765815
161	0xbf0de834	-0.5543244
162	0xbf182e81	-0.5944596
163	0xbebeb1b3	-0.3724495
164	0xbef52693	-0.47880992
165	0xbf0c4ab5	-0.54801494
166	0x3e2ec68e	0.1706793
167	0xbe919200	-0.28431702
168	0xbee2a477	-0.44266102
169	0xbdb9a6ea	-0.090650395
170	0xbdb504df	-0.0883882
171	0x3eea73bd	0.45791426
172	0xbe6ae63f	-0.22939394
173	0xbe299a95	-0.16562875
174	0xbdece8da	-0.115678504
175	0x3e78c113	0.24292402
176	0x3f2f72f5	0.68534786
177	0xbd81ec10	-0.063438535
178	0x3e17e313	0.14832716
179	0xbe91c7a2	-0.2847262
180	0x3dbf69df	0.09346365
181	0xbe81f4c9	-0.2538207
182	0xbf1fa7a4	-0.62365174
183	0xbec2ac65	-0.38022152
184	0xbec24edd	-0.37950793
185	0x3c1dfd35	0.009642889
186	0xbee658bc	-0.44989574
187	0xbe8366e3	-0.25664434
188	0xbeca81a8	-0.39552045
189	0x3f113c01	0.56732184
190	0xbed0a85d	-0.4075345
191	0x3eded4f0	0.43521833
192	0xbf015001	-0.505127
193	0x3de059e7	0.109546475
194	0xbedd3af3	-0.43209037
195	0x3f8e76ba	1.1129982
196	0x3ef6c157	0.48194382
197	0xbecf387c	-0.40472782
198	0xbd430cb9	-0.047619555
199	0xbefc6259	-0.49293783

L5.bias f4 [10]
0	0xbf43f70f	-0.76548856
1	0x3e88d9ae	0.26728576
2	0x3fe6667e	1.8000028
3	0x3e10897c	0.14114946
4	0xbf6fcfeb	-0.9367663
5	0xbf73d871	-0.9525214
6	0xbe8fc870	-0.2808261
7	0x3e721b9e	0.23643348
8	0xbf994246	-1.197335
9	0xbfcb4e0f	-1.5883197

L6.weight f4 [1, 10]
0	0xbd898080	-0.067139626
1	0xbe70a233	-0.23499374
2	0xbecfea87	-0.40608618
3	0xbdebfb44	-0.115225345
4	0x3de8bd75	0.11364261
5	0x3d7dd08d	0.061966468
6	0x3d8d9e85	0.06915001
7	0xbda0731d	-0.07834456
8	0x3dc21c29	0.094780274
9	0xbd18e74c	-0.037329957
