Saved_Models_All_Samples_Limited_Features/target_Hardness_features_5_epochs_14.pth (torch_old, 10514 bytes, 11 tensors)

L1.weight f4 [10, 5]
0	0x3ff489f7	1.9104604
1	0x3e04c60a	0.12966171
2	0x3f676cd0	0.9040041
3	0x3f056b78	0.5211711
4	0x3f87c191	1.0605947
5	0x3fb1900b	1.3872083
6	0xbefac9a0	-0.48981953
7	0xbfc30f1c	-1.5238986
8	0xbe5f0e4e	-0.217828
9	0x408cd1c2	4.400605
10	0x3ee447b1	0.44585946
11	0x3f02e611	0.51132303
12	0x3f3a6309	0.72807366
13	0x3f0e4a14	0.55581784
14	0x3ec2b978	0.38032126
15	0xbf942260	-1.157299
16	0x3f889039	1.0669013
17	0xbf13556c	-0.5755222
18	0x3efd88de	0.49518484
19	0x3f94bece	1.1620729
20	0xc013d8ff	-2.3101194
21	0xbf8604d2	-1.0470221
22	0x3f8a6cbf	1.0814437
23	0x3f9316bf	1.1491317
24	0x4002d431	2.0442011
25	0xbfc03c74	-1.5018449
26	0x3e8e22f9	0.27761057
27	0x3da7c5cd	0.081920244
28	0x403c817e	2.9454036
29	0xc0282064	-2.626977
30	0x3e6c9453	0.23103456
31	0x3f52612a	0.8217951
32	0xbf0b6cc0	-0.54462814
33	0xbd3d1c7a	-0.046169735
34	0x3ff3a973	1.9036087
35	0xbf852507	-1.0401925
36	0xbf15516a	-0.58327353
37	0xbe92e778	-0.28692222
38	0xbebdbec4	-0.37059605
39	0x3f5757cd	0.8411835
40	0x3e941071	0.28918794
41	0xbf03d008	-0.51489305
42	0x3fa84394	1.3145623
43	0xbd69b3eb	-0.05705635
44	0xbdad1f11	-0.08453191
45	0xbe8484ba	-0.25882512
46	0xc004a969	-2.07284
47	0xbf919e93	-1.1376518
48	0x3ed0c1e9	0.40772942
49	0x3fc5dc08	1.5457773

L1.bias f4 [10]
0	0xc0a5ab00	-5.177124
1	0xc0a38b35	-5.110743
2	0xc03a8b92	-2.9147687
3	0xc030d944	-2.7632608
4	0xc085f317	-4.185924
5	0xbfe81e13	-1.8134178
6	0xc07ec855	-3.9809773
7	0xc0a2c632	-5.086694
8	0xc0213fc0	-2.519516
9	0xc0227811	-2.5385783

L2.weight f4 [20, 10]
0	0xbfc3276f	-1.5246409
1	0xc00303da	-2.04711
2	0x405e0dc6	3.4695907
3	0x3e42342e	0.18965217
4	0xbe11badb	-0.14231436
5	0x3fd8f43e	1.6949537
6	0x3face2c0	1.3506699
7	0x408e6269	4.449513
8	0x40ac4a96	5.3841047
9	0xc05400e4	-3.3125544
10	0xbf776406	-0.96637
11	0x3e91d48f	0.28482482
12	0xbf12015b	-0.5703332
13	0xc0027d9b	-2.0389163
14	0x3d52f3b0	0.05150193
15	0xc0b6b77c	-5.709898
16	0xbf29ac39	-0.66278416
17	0xbfd2332b	-1.6421865
18	0xbf304cf6	-0.68867433
19	0x3e36d227	0.17853604
20	0x40514401	3.2697756
21	0x40adc9a1	5.430863
22	0x3f99b42a	1.2008107
23	0x3f9b2981	1.2122041
24	0xbf898b86	-1.0745704
25	0x4013bb62	2.308312
26	0xbeaa793e	-0.33295625
27	0x40525b9a	3.286841
28	0x405da308	3.4630756
29	0x40343f64	2.816369
30	0x3f6696ed	0.90074044
31	0xbe90a756	-0.28252667
32	0xbfb54a3a	-1.4163277
33	0x3ffca57f	1.9738005
34	0xbf9a3e2f	-1.2050227
35	0xc04bd3c2	-3.1847997
36	0x3fad1ba7	1.3524064
37	0xbfcff671	-1.6247083
38	0xbf91a938	-1.1379766
39	0xbfebb3dc	-1.8414264
40	0xbed1f1c6	-0.4100477
41	0x3f81c87d	1.0139309
42	0x3f122d04	0.5709994
43	0xbfd45518	-1.6588469
44	0x405be638	3.4359264
45	0xbf12047f	-0.5703811
46	0x3fb9ad5d	1.4506031
47	0xbfcfe2c4	-1.6241078
48	0x3e040c69	0.12895359
49	0xbf69b9b5	-0.9129899
50	0xbcf92568	-0.030413345
51	0xbfa103d2	-1.2579291
52	0xbfaf5aeb	-1.3699621
53	0xc0c3af8e	-6.11518
54	0x3fe3d6c6	1.7799919
55	0x4066ee86	3.6083083
56	0xbfc35d36	-1.5262821
57	0x3eb41a95	0.3517653
58	0x3f0e818b	0.55666417
59	0xbecefdb0	-0.40427923
60	0x3f8eb023	1.1147503
61	0xbed39a6b	-0.4132875
62	0xbfd40731	-1.6564695
63	0xbe514861	-0.20437767
64	0xbfb3b4d5	-1.403956
65	0xc0871895	-4.2217507
66	0x3d066e18	0.032819837
67	0xbfde8760	-1.7385063
68	0xbf9ef21f	-1.241764
69	0xc047e33f	-3.123245
70	0x3eaee281	0.34157184
71	0xbf4ec224	-0.80764985
72	0x3fe53d97	1.7909421
73	0xbf1969d7	-0.59927124
74	0xc0501f0d	-3.2518952
75	0xc0330a12	-2.7974896
76	0x3f9ffddf	1.249935
77	0x4031d651	2.7787058
78	0x406957be	3.6459804
79	0xc04f9cbf	-3.243942
80	0x407c772e	3.9447742
81	0x3f74731d	0.9548815
82	0x3fe4465e	1.7833974
83	0xbfc5ad68	-1.5443544
84	0x3f9b0e8a	1.2113812
85	0xc0840f01	-4.1268315
86	0x403bb6b6	2.9330268
87	0x40219a24	2.525033
88	0x3fb0795c	1.3787036
89	0xbfe289c8	-1.7698298
90	0xbe6aff54	-0.22948962
91	0x40750836	3.8286262
92	0x404e6bcf	3.22533
93	0x4080c273	4.0237365
94	0xc06d39a1	-3.7066424
95	0xbf3aa2eb	-0.72904843
96	0x40a6dafd	5.214232
97	0x4096f958	4.7179375
98	0x4041da95	3.0289662
99	0xbfaaf4da	-1.3355973
100	0x405d85a3	3.4612815
101	0x4089c232	4.3049555
102	0xbecb2bc8	-0.3968184
103	0xbea45f2a	-0.32103854
104	0x3f2fc5ff	0.68661493
105	0xc082db65	-4.0892816
106	0x4046a3f6	3.1037574
107	0xbd9b19c2	-0.07573272
108	0xbf78770a	-0.9705664
109	0xbf2b1fde	-0.668455
110	0x3f689fc1	0.90868765
111	0xbf9310ff	-1.1489562
112	0xc03549b5	-2.8326237
113	0xbfd41493	-1.6568779
114	0xbfc9e52d	-1.5773064
115	0xbed07966	-0.4071762
116	0xbeef926b	-0.46791396
117	0xc04e9a09	-3.2281516
118	0xbfa4d49b	-1.2877382
119	0xc01fbfdf	-2.496086
120	0xc011c9ca	-2.2779412
121	0xbf9b6683	-1.2140659
122	0x403ca9d7	2.9478662
123	0xc09a3cf7	-4.819942
124	0xbf556665	-0.83359367
125	0xbf0cc279	-0.5498424
126	0x3fce1cab	1.6102499
127	0xc007b1a3	-2.120217
128	0x400524fa	2.0803819
129	0xbec8cec9	-0.39220265
130	0x3fbc9504	1.4732976
131	0x3f7700f0	0.96485806
132	0xbf7f890b	-0.99818486
133	0x401943b3	2.394757
134	0xc06ff98a	-3.7496057
135	0xbf9a050c	-1.203279
136	0x3f3d96a9	0.74058014
137	0x407fcc55	3.9968464
138	0x3f49be8f	0.78806394
139	0xbfc38dd5	-1.5277659
140	0xc03b7ca6	-2.929483
141	0xbfe34c74	-1.7757707
142	0xc088a5e1	-4.270249
143	0xbf24e323	-0.64409083
144	0x3f865155	1.049357
145	0xc0c4121a	-6.1272097
146	0x40087926	2.1323943
147	0xbfd175ba	-1.6364052
148	0xc0831d0b	-4.0972953
149	0xbfbc1a67	-1.4695557
150	0x3fb10721	1.38303
151	0x3f736ca8	0.9508767
152	0x40b2e887	5.5908847
153	0xbefec1fa	-0.49757367
154	0xbfa65818	-1.2995634
155	0xbf8a6383	-1.0811619
156	0xbf84e972	-1.0383742
157	0xc04795c6	-3.1185164
158	0x40fcba57	7.8977466
159	0xbf85a8b0	-1.0442104
160	0xc0045f9e	-2.068336
161	0xc0562548	-3.3460255
162	0xbfb179e2	-1.3865321
163	0xc0abb6ad	-5.3660493
164	0xbfd5b7ea	-1.6696751
165	0xc0ad01a8	-5.406452
166	0x402a77e8	2.6635685
167	0xc099c5f6	-4.805415
168	0xbeaace53	-0.33360538
169	0xc081a3a5	-4.051226
170	0xc087f90b	-4.2491508
171	0xc0847ca9	-4.1402173
172	0xc01e201d	-2.47071
173	0xbfc45c03	-1.534058
174	0xbfec7057	-1.8471783
175	0xc0cb9794	-6.362253
176	0xc0398bf8	-2.899168
177	0xc03e85b8	-2.9769115
178	0xc08acb42	-4.3373117
179	0xc04f918f	-3.2432592
180	0x3f29cdae	0.6632947
181	0xbe03324e	-0.12812158
182	0x401c153c	2.438796
183	0x40861be5	4.190905
184	0xc00769ea	-2.1158395
185	0xc094e0da	-4.6524477
186	0x40203cb7	2.5037057
187	0x3cb83015	0.022483865
188	0x3f7681bb	0.96291703
189	0xbe6c98cf	-0.23105167
190	0x3faf6d2a	1.3705189
191	0x3f8cc150	1.0996494
192	0xc008a111	-2.1348307
193	0x4059b2c2	3.4015355
194	0xc08ae248	-4.340122
195	0x3d668234	0.056276515
196	0x3f33e2bb	0.7026784
197	0x3fdc01f9	1.7188102
198	0xc01e7e93	-2.4764755
199	0xbfef9c45	-1.8719565

L2.bias f4 [20]
0	0xc0be1524	-5.9400806
1	0xc0a5b345	-5.1781335
2	0xc0494d4d	-3.145343
3	0xc0456baf	-3.0846975
4	0xc03289ec	-2.789668
5	0xc078923e	-3.883926
6	0xbfdd4f22	-1.7289774
7	0xc0d8e3a3	-6.7777877
8	0xc017eaa1	-2.3736956
9	0xc0843329	-4.131245
10	0xc0711d74	-3.7674227
11	0xc043d026	-3.0595794
12	0xbf2ab74a	-0.66685927
13	0xbc74be15	-0.014937897
14	0xc058b3a1	-3.3859637
15	0xc0d1dc7e	-6.5581656
16	0xbf9867b2	-1.1906645
17	0xc07f6f1a	-3.991156
18	0xc0ad9f74	-5.4257145
19	0xbf9ea006	-1.2392585

L3.weight f4 [40, 20]
0	0xbf195afa	-0.59904444
1	0x3c28e10e	0.0103075635
2	0xbd04e632	-0.032446094
3	0x3fd5c6cf	1.6701297
4	0x3d9c4ee6	0.07632236
5	0x408536e2	4.1629496
6	0x3f83c22a	1.0293629
7	0xbfef8343	-1.8711933
8	0x3ef3dc15	0.47628847
9	0xc0b06126	-5.511859
10	0x4087831f	4.234756
11	0x4024a049	2.572283
12	0xbf52fea5	-0.82419807
13	0xc049339e	-3.1437755
14	0x40e27d6c	7.0778103
15	0xbf6a7fa5	-0.9160102
16	0x4063fe24	3.5623865
17	0x40f4f613	7.6550384
18	0xbfe42d85	-1.7826391
19	0xbf617e9d	-0.8808382
20	0xc0a7b7a0	-5.241165
21	0x3f958c1a	1.1683381
22	0x3f346b8a	0.7047659
23	0x3e4683ba	0.19386187
24	0xc035d689	-2.8412192
25	0xc0dfd1bc	-6.9943523
26	0xbfba96a6	-1.4577224
27	0xbf1ffd38	-0.62495756
28	0xc00e412b	-2.2227275
29	0xbff78fa6	-1.9340713
30	0xc0e29045	-7.080111
31	0xbf3f3306	-0.7468723
32	0x3f5607ee	0.8360585
33	0xc011ec4d	-2.2800477
34	0x3e4c86aa	0.19973245
35	0xbeb044a5	-0.34427372
36	0x40338a8d	2.8053315
37	0xbf166a25	-0.58755714
38	0xc013d457	-2.3098352
39	0x3fb45030	1.4086971
40	0x40e70ec3	7.220552
41	0xc067aa2c	-3.6197615
42	0xbffa731f	-1.9566382
43	0x3fa39780	1.2780609
44	0x3fae09a5	1.3596693
45	0x406f124b	3.7354915
46	0xc084a715	-4.1453958
47	0x409dfc3e	4.9370413
48	0xbfd733f0	-1.6812725
49	0x4011b333	2.2765625
50	0xc04965ce	-3.1468387
51	0x3fe657e6	1.7995574
52	0xbf96bca7	-1.1776322
53	0xbe8bad71	-0.27280763
54	0x401ef6a0	2.4838028
55	0x3edd8dea	0.43272334
56	0x3fcf938b	1.6216902
57	0xc031bc1c	-2.7771063
58	0xc0ba982d	-5.831076
59	0xbf54740a	-0.8298956
60	0xbf05109c	-0.5197847
61	0xbffb69ce	-1.9641664
62	0xc03fd885	-2.9975903
63	0xc09530b0	-4.6621933
64	0xc02e1ecb	-2.7206295
65	0xc0581e33	-3.3768432
66	0xbeda07a8	-0.42583966
67	0xbf2e6560	-0.68123436
68	0xbd9b57cc	-0.07585105
69	0xc0465e97	-3.0995233
70	0x3f51ddff	0.81979364
71	0xbfffdd37	-1.9989384
72	0xbfebb3c6	-1.8414237
73	0xc02ddcba	-2.716597
74	0x3ffa07ec	1.9533668
75	0xc015c75b	-2.3402927
76	0x4089f0c6	4.3106413
77	0xbf07ff35	-0.5312379
78	0xbf7efbe8	-0.9960313
79	0xc022deb4	-2.5448427
80	0xbfe5b78c	-1.7946639
81	0x401c6249	2.4434988
82	0x3f618a06	0.8810123
83	0xbfe25d02	-1.7684634
84	0x400d42d3	2.2072036
85	0xc053d8b8	-3.3101025
86	0x3f8672da	1.05038
87	0xbfdc86be	-1.722862
88	0x403ad1f4	2.9190645
89	0xc03afbb0	-2.9216118
90	0x3f89cbf4	1.0765367
91	0x4054b4e2	3.3235402
92	0xc00a635e	-2.162315
93	0x402f05db	2.7347324
94	0x409ae22f	4.8401103
95	0x3f946b63	1.1595272
96	0x407c8b05	3.945985
97	0x400a304c	2.1591978
98	0xbfdd3403	-1.7281498
99	0x3e3efd4f	0.18651317
100	0xc01eb840	-2.4799957
101	0x40928654	4.5788975
102	0x3f24cece	0.6437806
103	0xbf4ae0a0	-0.79249
104	0xc02e4703	-2.7230842
105	0xbf0ecc95	-0.5578092
106	0xc009a6ea	-2.1508126
107	0x3ddb3f57	0.107054405
108	0xc0294ed5	-2.6454365
109	0xc061c8b9	-3.5278761
110	0xc01b97d7	-2.4311426
111	0xbf94d307	-1.16269
112	0x40b7fa18	5.749279
113	0xbf1c1e50	-0.60983753
114	0x3efe42e4	0.49660408
115	0x3fdfa3da	1.7471879
116	0x404f4d96	3.2391105
117	0xbfa6ea8f	-1.3040332
118	0x3f94654f	1.1593417
119	0xc024f919	-2.5777037
120	0x4028a208	2.6348896
121	0xbf3b3f1a	-0.7314316
122	0x40fe5244	7.947542
123	0x3f4d49ff	0.80191034
124	0x3fd99fa1	1.700184
125	0x3f7818c8	0.96912813
126	0x402b1f45	2.6737835
127	0x400d83b1	2.2111628
128	0x40d000b2	6.500085
129	0x40e6ea1d	7.2160783
130	0x404f8680	3.2425842
131	0xc03760a7	-2.8652742
132	0xc1165a50	-9.397049
133	0x40b979ae	5.7961035
134	0xc09224f9	-4.5670133
135	0xbf4aef2c	-0.792712
136	0xc00219d0	-2.0328255
137	0xc114f2ff	-9.309325
138	0xc1377b79	-11.467645
139	0x40254067	2.5820558
140	0xbf9cdda2	-1.2255137
141	0x3fee543e	1.8619459
142	0xbcef7aed	-0.02923342
143	0x3fd1d796	1.6393917
144	0xc04fad87	-3.2449663
145	0x401fc5b7	2.4964426
146	0x3ff9393a	1.9470589
147	0x3f1cd7dc	0.61266875
148	0x3fae4252	1.3613989
149	0xc08fdc42	-4.495637
150	0xbf692c39	-0.91083103
151	0xbf8af8d4	-1.0857186
152	0x406af9d0	3.6714973
153	0x3f8ff4bb	1.1246561
154	0x40929374	4.5804996
155	0xbf4ee0e5	-0.8081191
156	0x403b947f	2.9309385
157	0xc0617ab5	-3.5231144
158	0x3ff169fa	1.8860466
159	0x40113fcb	2.2695186
160	0x3f6d45a1	0.9268437
161	0xbf9330e3	-1.1499294
162	0x4035a0a9	2.837931
163	0x3fc0758f	1.5035876
164	0xc00beabe	-2.1862025
165	0x40c8ab97	6.270946
166	0xc00296bd	-2.0404503
167	0x4051c9fd	3.2779534
168	0xbe9767c2	-0.29571348
169	0x3f315c18	0.6928115
170	0xc0673a36	-3.612928
171	0xc00b5f12	-2.1776776
172	0x4054437f	3.3166196
173	0xbea06914	-0.31330168
174	0xc0afaf43	-5.4901443
175	0xc0153fcc	-2.3320189
176	0x3ee4704d	0.4461693
177	0x3fd0ad29	1.6302844
178	0x403f28b5	2.9868596
179	0xbe7353a7	-0.2376238
180	0xbf89f491	-1.0777761
181	0x402cbedd	2.6991494
182	0x40bbee79	5.8728604
183	0x4045664e	3.0843692
184	0x3fd0c7eb	1.631101
185	0x3ed44082	0.41455466
186	0x406da027	3.7129
187	0x3fe4bc26	1.7869918
188	0x402dde2c	2.7166853
189	0xbfcd13b5	-1.6021639
190	0x40b85abf	5.7610774
191	0xbd4ac9eb	-0.04950897
192	0x402d3f3c	2.7069845
193	0x40c903fb	6.281736
194	0xbf823d72	-1.0175002
195	0xc0378d56	-2.8680015
196	0xc0ae2e46	-5.4431486
197	0xc0b96aab	-5.794271
198	0xc0998347	-4.797275
199	0x409a8d7e	4.829772
200	0x400ff856	2.2495322
201	0x3f8cd60e	1.1002824
202	0x3fc54263	1.5410885
203	0xbf82825b	-1.0196031
204	0x3f1c2961	0.6100064
205	0x40f5f190	7.6857376
206	0xbf5a9adf	-0.85392565
207	0xbfb815c4	-1.4381642
208	0xbfe13b66	-1.7596252
209	0x4108ad7e	8.5423565
210	0xc0b52f13	-5.6619964
211	0xbf956c11	-1.1673604
212	0xc04f5b05	-3.2399304
213	0xc09d4efc	-4.9158916
214	0x40636062	3.5527577
215	0x3f4d14ce	0.8010987
216	0x4049f5c5	3.1556256
217	0xc0ab273c	-5.3485394
218	0xbf998bc5	-1.1995779
219	0xc002ada7	-2.041849
220	0xc049a98b	-3.150973
221	0xc011da54	-2.2789507
222	0xbfb04339	-1.3770515
223	0xbdaec5fd	-0.08533857
224	0xc082fb57	-4.093181
225	0x406a1cfe	3.6580195
226	0x400549d3	2.0826309
227	0x40c17af3	6.0462584
228	0xc008f566	-2.139978
229	0xbc715fd6	-0.014732322
230	0xc08832dd	-4.256209
231	0xc0123a09	-2.2847922
232	0xbfe78012	-1.8085959
233	0xbf004099	-0.5009857
234	0x40fd28ae	7.911216
235	0x403dd3c1	2.9660494
236	0x40cdc317	6.4300647
237	0x40b0b405	5.521975
238	0x40065ddd	2.099479
239	0xbf3a0f85	-0.7267993
240	0x3f882816	1.0637233
241	0x40017f19	2.0233824
242	0x40b2924a	5.5803576
243	0x400ed8c5	2.2319806
244	0x40460f2b	3.0946758
245	0x3fed5d8e	1.8544176
246	0xbee2ec9c	-0.44321144
247	0x40486362	3.1310658
248	0x40a66523	5.199846
249	0x3e7ab655	0.24483617
250	0x3fe20ef9	1.7660819
251	0x40295aef	2.6461751
252	0x3eef89f8	0.4678495
253	0x40f268f0	7.5753098
254	0xc098ffe7	-4.781238
255	0x3ff78ad4	1.9339242

L3.bias f4 [40]
0	0xc0bd1cb9	-5.909756
1	0xbe7f25e6	-0.24916801
2	0xc0a0eb64	-5.028734
3	0xc0d1c561	-6.555344
4	0xc04e5bf0	-3.2243614
5	0xc0bd30de	-5.912215
6	0x4124fd2f	10.311812
7	0xc0509cd3	-3.2595718
8	0x40b0e5f8	5.5280724
9	0x40e03db1	7.0075307
10	0xc00017b0	-2.0014458
11	0xc10f086d	-8.939557
12	0x408cc0ba	4.398526
13	0xc068dbb2	-3.6384091
14	0xc09dd63c	-4.9324017
15	0xbe700ebf	-0.23443125
16	0xc103fc5c	-8.249111
17	0xc04e6864	-3.2251215
18	0x410c0b4a	8.752756
19	0xc0913319	-4.5374875
20	0xc003ed51	-2.0613596
21	0xc0b53b0a	-5.663457
22	0x3ed53a73	0.41646156
23	0x407a1f43	3.908158
24	0x3f2fe7b7	0.68712944
25	0x41356031	11.335984
26	0xc0baa7e7	-5.832996
27	0xc0a57bd4	-5.1713657
28	0xc07ec885	-3.9809887
29	0xc0173759	-2.3627532
30	0xc109ac22	-8.604525
31	0xc0a68b6e	-5.20452
32	0xc0bad25f	-5.83818
33	0xc0b2e927	-5.590961
34	0x4063801e	3.5546947
35	0x3d9fd5a0	0.078044176
36	0xc039ab46	-2.9010787
37	0xc00d386d	-2.206569
38	0xc0322526	-2.7835174
39	0xc02dda60	-2.7164536

L4.weight f4 [20, 40]
0	0x40062e6a	2.096583
1	0x4059d761	3.4037707
2	0x40bee80a	5.965825
3	0x400ec384	2.2306833
4	0xc0237b12	-2.5543866
5	0x408cedb4	4.4040165
6	0xc0335684	-2.8021555
7	0xc01cb3e6	-2.4484801
8	0xc0846779	-4.137631
9	0xbff20b5a	-1.8909714
10	0xbf77a05d	-0.9672907
11	0x3f4233da	0.7586037
12	0xbf191ac5	-0.5980647
13	0x40a1e52f	5.0592265
14	0x3fb1ea74	1.3899674
15	0x3f9dcb81	1.232773
16	0x40065940	2.0991974
17	0xc02df6f2	-2.7181973
18	0x3ec8952a	0.39176303
19	0x411045b1	9.0170145
20	0x4088e1db	4.2775702
21	0x40f739f4	7.7258244
22	0xc01d3157	-2.4561365
23	0xbed08078	-0.40723014
24	0xc0271461	-2.6106188
25	0xbf9ce794	-1.2258172
26	0x40456106	3.0840468
27	0x401d2ab0	2.4557304
28	0x3f2c7e7d	0.67380506
29	0xc03b914a	-2.9307427
30	0x4099b8b5	4.8037972
31	0x3fc7b2ef	1.5601481
32	0x4053900e	3.3056674
33	0xbda26c4b	-0.079308115
34	0x407abeaf	3.9178884
35	0xc05e7756	-3.4760337
36	0xbf527949	-0.82216316
37	0x3f0068e2	0.5016004
38	0x3f17faf5	0.59367305
39	0x3fbca01c	1.4736362
40	0xbf8f3436	-1.1187809
41	0x400f7296	2.2413688
42	0xc0a6dd0d	-5.2144837
43	0xc0a676da	-5.2020082
44	0xc0c6328f	-6.1936717
45	0xc094f854	-4.6553135
46	0xc083d65c	-4.119917
47	0xc0610f15	-3.5165455
48	0xc06f1669	-3.7357428
49	0xc0b2e5f9	-5.590573
50	0x4008e903	2.139222
51	0x403c7dc9	2.9451773
52	0xc08c5934	-4.385889
53	0xc010004f	-2.2500188
54	0xc05269f3	-3.2877166
55	0xc018d7e1	-2.3881762
56	0xc01a5013	-2.4111373
57	0xc0354a58	-2.8326626
58	0xbfdcfa8b	-1.726396
59	0x3f08aa79	0.5338512
60	0xc01e88de	-2.4771037
61	0x3f88f05e	1.0698354
62	0xc0eb6e66	-7.3572264
63	0xc088252c	-4.2545376
64	0xc081c62d	-4.0554414
65	0xc088c15d	-4.273604
66	0xbe17c6a6	-0.14821872
67	0xbfc2c483	-1.5216221
68	0xc09f78d8	-4.9835014
69	0xc0b53a1d	-5.663344
70	0xc04cd7eb	-3.2006786
71	0xc082c303	-4.086305
72	0xc0d1fe8a	-6.5623217
73	0xbe64e57f	-0.22353171
74	0xbee53b23	-0.4477168
75	0xc01de9ea	-2.467402
76	0xbe85d9e0	-0.26142788
77	0xc06a53ba	-3.6613603
78	0xc05c8a16	-3.445928
79	0xbd90ea93	-0.070759915
80	0x3fe1b1c6	1.7632377
81	0xbef9ceed	-0.48790684
82	0xc0424792	-3.0356183
83	0x3ffef581	1.9918672
84	0x40815b36	4.042384
85	0xbfb7ebe7	-1.4368867
86	0xc09be371	-4.871514
87	0xbf219719	-0.6312118
88	0xc06824f3	-3.6272552
89	0x3f90e2e9	1.1319247
90	0xc0181971	-2.3765528
91	0x3f2dee95	0.6794217
92	0xc094d139	-4.65054
93	0x3fadad17	1.3568448
94	0xbf538102	-0.82618725
95	0xc01460f8	-2.3184185
96	0xbedb0164	-0.42774498
97	0xbf03a36c	-0.51421237
98	0xc094d7c4	-4.6513386
99	0xc05b5fcb	-3.4277217
100	0x3f8a45db	1.0802568
101	0x3fb7b54f	1.4352206
102	0xc01bc38d	-2.4338105
103	0xbf121296	-0.5705961
104	0xc08d5d52	-4.4176416
105	0xc08790cd	-4.236426
106	0x3f9b20e0	1.2119408
107	0xc08f640e	-4.4809637
108	0xbfa6fee3	-1.3046535
109	0x406da53b	3.7132099
110	0xbf6e7f8f	-0.9316339
111	0xc0451734	-3.0795412
112	0xbfd8427b	-1.6895288
113	0xbf1ea03d	-0.61963254
114	0xc02a311f	-2.659248
115	0xbffbf0eb	-1.9682897
116	0xc00015c8	-2.0013294
117	0x3fcc2758	1.5949507
118	0xbf77ceca	-0.9679991
119	0xbf9529af	-1.1653346
120	0xbc389dc7	-0.011268086
121	0xc0674377	-3.6134927
122	0x402c56d3	2.6927993
123	0x405a42d3	3.4103286
124	0xc00dd465	-2.2160885
125	0x3f33d7d0	0.7025118
126	0xc025ec30	-2.5925407
127	0xbf8fdcf3	-1.1239303
128	0x3e1c5d67	0.15270005
129	0xbd5eb586	-0.054372333
130	0xc027fb0b	-2.6246974
131	0x3e549491	0.20759799
132	0xc0d2cbc6	-6.5873747
133	0x4097bec9	4.742039
134	0xbff311a3	-1.8989757
135	0xc0087fd6	-2.1328025
136	0xbfad04dd	-1.3517109
137	0xbf15f45f	-0.58576006
138	0xc04b2e86	-3.1747146
139	0x40130a52	2.297505
140	0xc0408fba	-3.0087724
141	0x40ce198a	6.4406176
142	0xbf3d956d	-0.7405613
143	0xbf99b5b5	-1.2008578
144	0x4082ccff	4.087524
145	0xbfdb76f5	-1.7145678
146	0xbfbd28e5	-1.4778105
147	0x3f817271	1.011305
148	0xc0925bc5	-4.5737023
149	0xc03556cb	-2.8334224
150	0x3f402c59	0.7506767
151	0x3f9c645d	1.2218128
152	0xbf765459	-0.96222454
153	0x400d4b4e	2.2077212
154	0x4010bb07	2.2614152
155	0xbf016e27	-0.50558704
156	0xbf0f9b59	-0.56096417
157	0xbfd6b443	-1.6773762
158	0xc07d59b7	-3.9586008
159	0xbf47b8a7	-0.7801613
160	0x3eba2eaa	0.36363727
161	0x3ef8298e	0.48469204
162	0x3ec6d5fd	0.38835135
163	0x3f1876a8	0.59556055
164	0xbfa8d2dc	-1.3189349
165	0x3fd76598	1.6827879
166	0xc0891a07	-4.284427
167	0x404b5a18	3.177374
168	0xbf96baa0	-1.1775703
169	0x3f60c98c	0.87807536
170	0xc01a2d01	-2.4089968
171	0x3ec1d991	0.37861302
172	0xbf73638c	-0.9507377
173	0x4095bfbd	4.6796556
174	0x40aeeacd	5.466162
175	0xc034dfef	-2.8261678
176	0x3f6c8f18	0.92405844
177	0x3ec72aa9	0.38899735
178	0xbea6afe1	-0.3255606
179	0x404ab8fd	3.1675408
180	0x4019898d	2.3990204
181	0x40d2cbb9	6.5873685
182	0xc02d9038	-2.7119274
183	0xbea794ef	-0.32730815
184	0xc002e9ac	-2.0455122
185	0xc007d796	-2.1225333
186	0x4003fe70	2.0624046
187	0x3f7c8d29	0.98652893
188	0xbfa13110	-1.2593098
189	0xbee4efa1	-0.44714072
190	0x3f0f124b	0.5588729
191	0xbdc6c75e	-0.09705995
192	0x409d3252	4.9123926
193	0xbfbe0900	-1.4846497
194	0xbfd76b3a	-1.6829598
195	0xbfe2cb64	-1.771832
196	0xbffd93a9	-1.9810687
197	0x406fc34b	3.7462947
198	0x41020696	8.126608
199	0x40212811	2.5180705
200	0xbfd5603a	-1.6669991
201	0x3fcecfc4	1.6157155
202	0xc00ba59c	-2.181983
203	0x3fd76b4e	1.6829622
204	0xbdf744e8	-0.1207369
205	0x3fde11fa	1.7349236
206	0xbfc5534a	-1.5416043
207	0x3f0330be	0.5124625
208	0xc00326a9	-2.0492346
209	0x3fa95f7f	1.3232268
210	0x401f1cba	2.4861283
211	0xc035f30a	-2.842959
212	0x3e8bea6a	0.2732728
213	0xc052fb0f	-3.2965734
214	0xbfd752a3	-1.6822094
215	0x3e9b9cf5	0.30393186
216	0x4052c2f1	3.2931483
217	0x3fb61005	1.4223639
218	0xc05788ab	-3.3677166
219	0xbeed1a9b	-0.4630936
220	0xbfef74ab	-1.8707479
221	0xbf32c8fd	-0.69837934
222	0x3f1f6caa	0.62275183
223	0xc06bc62d	-3.6839707
224	0xbfc03ddc	-1.5018878
225	0xbf9b8525	-1.2150007
226	0xc01ed9d7	-2.482046
227	0x4008c3f9	2.1369612
228	0x3faef661	1.3668939
229	0xbe7e42fe	-0.24830243
230	0x401cbead	2.449138
231	0x3fe94728	1.822484
232	0x3ec4eb1a	0.38460618
233	0xc01750a6	-2.3642974
234	0xc052d575	-3.2942784
235	0xbf8c5d6c	-1.096601
236	0xbf6b6f7e	-0.91967
237	0x3b7b646f	0.0038359424
238	0x3f6e77df	0.9315166
239	0xc08672f7	-4.201534
240	0x3f6ef5f5	0.9334405
241	0x402f217e	2.7364192
242	0x406c670a	3.693789
243	0x40705247	3.7550218
244	0x3e9fff05	0.31249252
245	0x40a49137	5.1427264
246	0xc01bc7b9	-2.434065
247	0xbe52104b	-0.20514028
248	0xc043c281	-3.0587466
249	0xc0659a28	-3.587534
250	0x3f8ace66	1.0844238
251	0xc0735139	-3.8018324
252	0xc0124781	-2.2856143
253	0x3f724a55	0.9464467
254	0xc07b224e	-3.9239688
255	0xbfbf4a59	-1.4944564

L4.bias f4 [20]
0	0xc099bb7f	-4.8041377
1	0xc101e328	-8.117958
2	0xc0b5169e	-5.659011
3	0xc05936f1	-3.3939784
4	0xc0e831bf	-7.2560725
5	0xc06f6597	-3.7405756
6	0x3ffee732	1.9914305
7	0xc0ae5ffe	-5.449218
8	0xc09af178	-4.841976
9	0xc0f79b55	-7.7377114
10	0xc08ef9c5	-4.4679894
11	0xc09bdf87	-4.871036
12	0xc0540a41	-3.3131258
13	0xc0a64f28	-5.1971626
14	0xc0a6b7fc	-5.209959
15	0xc006a43f	-2.1037748
16	0xc0f547e8	-7.6650276
17	0xc0888850	-4.2666397
18	0xc0cfc920	-6.4933014
19	0xc0abc58f	-5.367866

L5.weight f4 [10, 20]
0	0xbfcf4b3a	-1.6194832
1	0x40b2f6aa	5.5926104
2	0xbff93cf2	-1.9471724
3	0xbf490926	-0.78529584
4	0xbeacbd51	-0.33738187
5	0x3faa51b1	1.330618
6	0xbf2307bf	-0.63683695
7	0x4031d5f1	2.778683
8	0x408b2f2c	4.3495083
9	0x40b86f6f	5.7636027
10	0x40b540b9	5.6641507
11	0x40aeed75	5.4664865
12	0xbcc053b2	-0.023477409
13	0x40855538	4.1666527
14	0x40c48a19	6.1418576
15	0xbfb9f7e1	-1.4528772
16	0x40050398	2.0783443
17	0xbec7458e	-0.38920254
18	0xbea3c69d	-0.31987467
19	0x3fdaeec3	1.7104114
20	0xc008dee1	-2.1386034
21	0x400d950c	2.212222
22	0xc0149e6f	-2.32217
23	0xbf361455	-0.71124774
24	0x3f5c606f	0.86084646
25	0xbf8e1d7c	-1.1102748
26	0xbf9031a1	-1.1265146
27	0xbf88fb88	-1.0701761
28	0x40a0295a	5.005048
29	0x3f620d80	0.8830185
30	0x40614853	3.5200393
31	0x4031bb01	2.7770388
32	0xbff300fd	-1.8984677
33	0xbf9e5766	-1.2370422
34	0xbfd655c9	-1.674493
35	0x3fd498f8	1.6609182
36	0x400df899	2.2182982
37	0x406a0fbe	3.6572108
38	0x40376b18	2.8659115
39	0x3f89bbc6	1.0760429
40	0xc037f0c1	-2.8740695
41	0x4013e330	2.3107414
42	0xbfbea7eb	-1.4894994
43	0x4029ca8a	2.652987
44	0xc00d0150	-2.203205
45	0x3f78250c	0.9693153
46	0xbf489935	-0.78358775
47	0x40f3a82e	7.6142797
48	0x3fbde3d7	1.4835156
49	0x3fea4868	1.8303347
50	0x3fe0e986	1.7571266
51	0x404a6989	3.1626914
52	0x3fd4ad0c	1.661531
53	0xbf19d805	-0.60095245
54	0x3f6ddccb	0.9291503
55	0xbfaafe2a	-1.3358815
56	0x40a135ab	5.0378013
57	0x40a76bc3	5.2319045
58	0x3ee85820	0.45379734
59	0xbf43944d	-0.76398164
60	0xbee0d008	-0.43908715
61	0x40e273d9	7.0766416
62	0xbf028a26	-0.5099205
63	0x40a11f46	5.0350676
64	0x3d41113e	0.047135584
65	0xbed822d3	-0.4221407
66	0xbe60dc53	-0.21959047
67	0x40a2ee3c	5.0915813
68	0xbf0b476e	-0.5440587
69	0x40cdd67c	6.432432
70	0x4072b0a2	3.7920308
71	0x3ff60cf8	1.9222708
72	0xbe101514	-0.1407054
73	0x3d5557d3	0.05208571
74	0x40769d40	3.8533478
75	0xbed1bb13	-0.4096304
76	0x3fdd87db	1.7307085
77	0x40169b93	2.3532455
78	0x405c15d4	3.4388323
79	0xbe6e0713	-0.23244886
80	0xbe3b281a	-0.18277016
81	0x40df4868	6.9775887
82	0x409661c6	4.699435
83	0x40b66e94	5.7009983
84	0xbf11d977	-0.5697245
85	0x3f8a6030	1.0810604
86	0xbe93b4cd	-0.28848878
87	0x4088d38e	4.2758245
88	0x40010998	2.0162106
89	0x4019ae31	2.4012568
90	0x3fc285fb	1.5197138
91	0x40274c83	2.614045
92	0xbf5f9b64	-0.8734648
93	0x3f7f25f5	0.9966729
94	0x405efdb9	3.484236
95	0xbfda39b9	-1.7048866
96	0x40387471	2.882107
97	0x401fc538	2.4964123
98	0xc03ec972	-2.9810452
99	0x3ead0392	0.33791786
100	0xc08e0b9a	-4.438916
101	0x408cb37f	4.396911
102	0xc090d62f	-4.5261455
103	0x4068c3a9	3.6369421
104	0x3fe7ff98	1.8124876
105	0x3e1f1260	0.15534353
106	0xc08047e6	-4.0087767
107	0xc01444a6	-2.31669
108	0x406352d8	3.5519314
109	0x3fc40ac4	1.5315785
110	0x4072958d	3.7903779
111	0x40b3d49e	5.6197042
112	0xbf4fbdc1	-0.81148916
113	0x404b17c0	3.1733246
114	0x3fd8f739	1.6950446
115	0xbf7a3e9f	-0.977518
116	0x4036281f	2.8461988
117	0x40a34799	5.10249
118	0x3faf0f86	1.3676612
119	0x4005d6ca	2.0912347
120	0xbf8cecf1	-1.1009809
121	0x40ccdd58	6.4020195
122	0xbf6816ff	-0.9066009
123	0x408ae31f	4.3402247
124	0x3e8aa670	0.27080107
125	0xc00788d4	-2.1177263
126	0xbf48874a	-0.78331435
127	0x40d0b7d6	6.522441
128	0x408ee12a	4.464986
129	0x3fa51721	1.2897683
130	0x40223a7a	2.5348191
131	0x3faaca33	1.3342956
132	0xbf95c627	-1.1701096
133	0xbe44a93a	-0.1920518
134	0x401ff9cd	2.4996216
135	0xbf8fc3ef	-1.1231669
136	0x40f83ac9	7.757176
137	0xbf81033d	-1.0079113
138	0x3f73749d	0.9509981
139	0x3f60b529	0.8777643
140	0xbf46907a	-0.77564204
141	0x40b57648	5.6706886
142	0x3fdc8084	1.722672
143	0x3f25fd43	0.6483957
144	0xbf8ad9f4	-1.0847764
145	0xc0921706	-4.5653105
146	0xc04a5e3f	-3.1620023
147	0xbd5afbf1	-0.053462926
148	0xbfb2cb88	-1.3968363
149	0x40a001c7	5.000217
150	0x403103d5	2.765859
151	0x3fcc297b	1.5950159
152	0x3f08f0d9	0.53492504
153	0xbed92575	-0.4241139
154	0x40187fbb	2.382796
155	0x3fbb1a8a	1.4617474
156	0x4124c353	10.297687
157	0x403e6a6e	2.975246
158	0x40e2a7ab	7.0829673
159	0x3e849930	0.25898123
160	0xbf2b9c17	-0.6703505
161	0x40c06524	6.0123463
162	0xc00a8bb4	-2.1647768
163	0x3fef5ac1	1.8699571
164	0x40ac8982	5.3917856
165	0x4013d285	2.309724
166	0xbc800471	-0.015627118
167	0x4033b6af	2.8080251
168	0xbf393664	-0.7234862
169	0x40c1c448	6.05521
170	0x404c4632	3.1917844
171	0x3fb6a18b	1.4268049
172	0x408ba5e0	4.3639984
173	0xbd1935e2	-0.037404902
174	0xbf52e117	-0.8237471
175	0xbf7bff8a	-0.98436797
176	0x40291088	2.641634
177	0x4091c4d9	4.5552793
178	0x3f8e0be5	1.109738
179	0xbdc4a223	-0.096012376
180	0x3ebc3ce5	0.3676521
181	0x40a94221	5.2893224
182	0xbfb136bb	-1.3844827
183	0xbc6dd8aa	-0.014516989
184	0x3f7cc94a	0.9874464
185	0xbeb38876	-0.3506505
186	0x3f1afc69	0.605414
187	0x40c1334e	6.037513
188	0x403c5c8c	2.9431486
189	0x40a37021	5.1074376
190	0x3f85b54b	1.0445951
191	0x403f9ee7	2.9940736
192	0xc04cc283	-3.199372
193	0x3f211ce5	0.62934715
194	0x406edcdf	3.732231
195	0x4035ba2f	2.8394887
196	0x3d940b8d	0.07228766
197	0x3f9349fc	1.1506953
198	0x4096b7ec	4.7099514
199	0xbf09ea73	-0.53873366

L5.bias f4 [10]
0	0xc188cc3f	-17.09973
1	0xc19b9108	-19.445816
2	0xc1458621	-12.345246
3	0xc1463e45	-12.3902025
4	0xc13bef75	-11.745961
5	0xc18002f2	-16.001438
6	0xc13636cd	-11.388379
7	0xc1942898	-18.519821
8	0xc11b4e5b	-9.70663
9	0xc12d647f	-10.837035

L6.weight f4 [1, 10]
0	0x40147dfb	2.3201892
1	0xbfa255bb	-1.2682413
2	0xbf64922c	-0.8928554
3	0xbfa9899e	-1.3245122
4	0x3fd45895	1.6589533
5	0x3f75d2b6	0.96024644
6	0xbf2fbf65	-0.6865142
7	0xc02b70f9	-2.6787703
8	0xbea9ac91	-0.3313947
9	0xbf23d612	-0.6399852
